output/Mess5050_e/train/model/stn_1.pt (torch_old, 658934 bytes, 14 tensors)

conv1.weight f4 [8, 2, 5, 5]
00000000: dce4 eb3d 257f e13d 7b20 a2bd 15ae fabd
00000010: 6801 df3d 58a7 01be 031e b73d b969 0ebe
00000020: 6ddf 96bd 6720 7bbd 2dbf 063e 77f3 cebc
00000030: 4203 f73d 4079 223d 67c5 0a3e 2c07 bd3d
00000040: c77a d23d 5f9a f93d c82a 31bd 228f 25bd
00000050: 84d2 343d 8c3a fc3d 2e29 5bbd fded e6bd
00000060: 89ce e5bd 5efb 88bd 7cff ab3c 4ad0 92bc
00000070: 6bae 20bd 8668 8abd 7cb2 103d eb9d f1bd
00000080: 9ff4 0c3e 003a bfbc 6abd cc3c 230f 393d
00000090: 943c 67bd 6ea5 e13d 6be7 1fbb 62e8 273c
000000a0: 5b44 0bbe 06fd 833c 670c 413d 4c5b 963c
000000b0: c335 7bbc cbe2 d73d 7e25 e23d b692 c43d
000000c0: f8fb d3bc 229b bd3c 45b0 c9bd 17b1 d8bd
000000d0: 88b7 c9bc 8b5c 813c a38a a8bd 73e2 f0bd
000000e0: fd14 843d 566b 543d 701c bfbd 8ae1 c03d
000000f0: 7d82 d7bd c4a1 db3d d242 9a3d 77de 42bd
00000100: b7fc 093e 7da0 a1bd 997b 83bd 614b e73d
00000110: c82c 14bd 3cf7 68bd 5036 b73c c3c9 bfbc
00000120: 7e15 b73d 3609 ed3d 7795 813d 9a41 fc3c
00000130: 7153 123d 9f64 803b 0b5a 893c 5e2b 3d3b
00000140: 4304 c63d 334a a23d 7a11 65bc f77d 5b3d
00000150: 697d 033c 48c8 4d3d fb1d ee3d b0b7 c4bd
00000160: a069 a63c 6f87 efbc 625b 0dbe bc81 0cbe
00000170: 7976 96bc c4ad cf3d 7498 bebd 8633 3d3d
00000180: 3661 a73d fbb1 d2bd 1b88 793d 97e3 db3c
00000190: e3d8 03be 5977 32bb 2cf5 07be bd34 fd3d
000001a0: 03bb 873d cfee 5d3d f958 de3d 167f dd3d
000001b0: 9bc1 0f3e d1f6 6e3d 6a1e d1bd 4581 063e
000001c0: 2ce6 203d 375c 64bd e29e 57bd d580 073e
000001d0: c4a7 003d ea81 d23d f2ac 343c 19c3 053e
000001e0: ecf1 d3bd 7a07 0a3d 2b33 0a3d 3afc d5ba
000001f0: c3d0 003e 68a2 e83c 7ef8 fa3b 25ad c53d
00000200: 97f9 36bc cac2 15bc facb eebd f1cf 73ba
00000210: 5133 87bd 08af a73d 55f3 fb3d 371c 07be
00000220: f4c4 a7bd 386b 0b3e fb42 77bd 11c9 003e
00000230: dd92 0e3e 0c4c 11bd 6c77 eabd 34ce 903d
00000240: f1a6 833d a5ae fb3d 7749 a73c bb79 9d3d
00000250: a15b f8bd 8f9d 9f3c 8555 083d 4c87 b53d
00000260: 0f0a 9bbd d072 8abc 9da3 acbd c9ec c2bd
00000270: 3d24 713d e1a9 b03c d82a 663d d50b 53bb
00000280: 9bac 63bb 94ee b1bb a572 9c3d 5b68 c8bd
00000290: 98bc f93c 8ad0 9e3d c0fb a73d e1fc 8abd
000002a0: 0249 e03d 2707 c1bd 6006 973d 3beb ec3d
000002b0: 77b1 943b 6b76 313d cd2f 09be d621 65bd
000002c0: 5096 63bd 04d4 06be ec54 f5bc 7532 ca3d
000002d0: 1d3a 5dbc 7c1a 0f3e fa5b 02be c704 673d
000002e0: 7a72 fa3d 38c1 0c3e 33b4 60bd 7cc1 02be
000002f0: 64e7 54bd c5b4 d63d 6503 4b3c 296a 0a3e
00000300: 6a7b d3bd 9f5c b5bd 149b 933d 029e 463d
00000310: eb2a bcbd 6db9 063e 4c66 5fbd 4bb6 f0bd
00000320: 2cfb 203d d942 a2bd 42d4 89bd 76cc a1bd
00000330: 848d 1d3d b6b0 873d bacb c23d 82e4 a3bd
00000340: 3c61 07bd 8d2c 073e 04c8 94bd d861 51bd
00000350: 60c4 debc 3d3b 00be e212 d6bd c103 013e
00000360: 38db d53c f075 d83c 00a3 653d 7423 b03d
00000370: 868c c23d bc71 cf3d 10cc 693d e257 da3d
00000380: ee3c bd3d a0b7 c1bc d0b5 503c 8db6 97bd
00000390: e7ef d9bd d75a 093e 84ad d7bd 7a11 b5bd
000003a0: 7be2 0bbe dfdb ddbd e0ac 033d 9804 8b3d
000003b0: a86a f1bd 3062 383c 2ed2 d5bd a058 db3c
000003c0: 44ff ac3d 1440 5ebd 344f 7ebd a4a6 bc3d
000003d0: 7ea8 babd c4c5 ecbc a924 f1bd 5af4 ca3d
000003e0: 40c0 383d 1a1f 66bd c11a d23d f219 0b3e
000003f0: 256a 743d 2b93 c8bd d82d edbc 3519 ed3d
0.11518261 0.11010579 -0.079163514 -0.12240235 0.1088894 -0.12661493 0.08941271 -0.13907517
-0.07366834 -0.0613102 0.13158865 -0.025262577 0.12061168 0.039666414 0.13551866 0.092298836
0.10277324 0.12187647 -0.04325369 -0.040419705 0.044146076 0.123158544 -0.05350607 -0.112758614
-0.11221034 -0.066885695 0.020995848 -0.017921586 -0.039228838 -0.067582175 0.035326466 -0.117976986
0.1376519 -0.023343086 0.024992663 0.04518045 -0.056454256 0.11017881 -0.002439941 0.0102482755
-0.13600294 0.016111862 0.04713097 0.01835408 -0.015332642 0.10541304 0.11042307 0.095982954
-0.025876984 0.023145262 -0.09848074 -0.10580652 -0.024623647 0.015791198 -0.08229568 -0.11761942
0.06449316 0.051860176 -0.09331596 0.09418018 -0.105229355 0.10724214 0.07532276 -0.04757544
0.1347531 -0.07891939 -0.06420059 0.11293674 -0.03617552 -0.056876406 0.022364765 -0.023411637
0.08939646 0.115740225 0.06327336 0.030793 0.035724107 0.003918245 0.016766569 0.002886496
0.096687816 0.07924309 -0.0139812175 0.053586926 0.008025506 0.05023983 0.11626812 -0.09605348
0.020314038 -0.029239384 -0.13804391 -0.13721365 -0.018367039 0.10140565 -0.09306422 0.046191715
0.081728384 -0.10287853 0.060920816 0.026841922 -0.12875704 -0.0027231781 -0.1327712 0.12363575
0.066274665 0.054182824 0.10856814 0.10815255 0.14038698 0.05834085 -0.10210879 0.1313525
0.03928201 -0.055752005 -0.052641757 0.1323274 0.031409994 0.102786854 0.0110275615 0.13062705
-0.10348877 0.033698536 0.033740204 -0.001632578 0.12579636 0.028397754 0.007659017 0.09652165
-0.011167905 -0.00914068 -0.11659999 -0.00093007 -0.06601585 0.081876814 0.12302271 -0.13194357
-0.08191863 0.1361512 -0.060366612 0.12576701 0.13923211 -0.035472915 -0.11448559 0.0707058
0.06428326 0.1228917 0.020420773 0.07689234 -0.12126852 0.01948431 0.033284683 0.088636965
-0.07570278 -0.01690045 -0.08429644 -0.095178194 0.05887245 0.02156538 0.056193203 -0.0032203097
-0.0034740332 -0.005430052 0.07639054 -0.09785529 0.030485436 0.077546194 0.082023144 -0.06786514
0.10951425 -0.09425192 0.07374263 0.11568304 0.004537757 0.043325823 -0.13397141 -0.05594047
-0.05556327 -0.13166815 -0.02994772 0.09872905 -0.013502625 0.13974947 -0.12730399 0.05640104
0.12228866 0.13745582 -0.05485935 -0.12769121 -0.051978484 0.10483698 0.012390946 0.1351706
-0.10326274 -0.08855557 0.07207313 0.04849053 -0.091878735 0.13156672 -0.054540917 -0.117535196
0.039302036 -0.079229064 -0.06729938 -0.07900326 0.038465038 0.06625502 0.09511514 -0.08002569
-0.033051714 0.13200589 -0.072647125 -0.0511187 -0.027193248 -0.12522598 -0.1045282 0.12599088
0.026105508 0.026423424 0.056063652 0.08600512 0.09499459 0.10129115 0.057079375 0.106612936
0.09240137 -0.02364713 0.01273866 -0.07407866 -0.10641461 0.13413559 -0.10531142 -0.08841224
-0.13660614 -0.10832953 0.03214729 0.067879856 -0.11787921 0.0112538785 -0.10440479 0.026775658
0.084471256 -0.05426033 -0.062087253 0.09211472 -0.091141686 -0.028902896 -0.117745705 0.099098876
0.04510522 -0.056182005 0.10259009 0.13584116 0.05967154 -0.09793695 -0.028952524 0.115770735

conv1.bias f4 [8]
00000000: 0b9d 873d 206c 2bbb 84b2 04bd 9e19 f6bc
00000010: f4e5 edbd 16c1 c43d 5c66 ff3d ed23 05be
0.066217504 -0.0026156977 -0.03239681 -0.030041512 -0.11616126 0.09607141 0.124706954 -0.13001986

conv2.weight f4 [16, 8, 5, 5]
00000000: e031 8dbd bc9e 8abd 1e3d 52bc b19c d1ba
00000010: 3dfa 42bd 8032 1a3d 4169 533b 6f74 18bd
00000020: de03 8fbd d8b9 5b3d 93b4 8c3d 5826 a83b
00000030: e896 10bd 6f46 323d 0bdf 243d 9fb8 3dbc
00000040: 29da 843d 56ed 5bbd 5851 1cbc dd99 6f3d
00000050: e212 39bd ea76 bebc 9b09 01bd 6ee8 f8bc
00000060: 4e3f 793d 0855 313d 1826 84bd a541 32bd
00000070: 7bd6 97ba 8541 bebc f78e 20bd c7bb 8ebd
00000080: 6bcc 543d 9b4c 213d 952d a63c 6872 84bc
00000090: 4cc4 8cbd c279 97bb d969 db3c 3ec9 aabc
000000a0: 31b9 623d f6a6 823c 8fcb 73bb a696 e23c
000000b0: 8880 153d 2974 55bd 4d2e af3c 95e6 83bd
000000c0: 38dc 76bc 8f5b bebc 0426 5d3d db7c 8bbd
000000d0: 94cd cd3c 69f5 83bd f01d fb3c 30dd 8d3c
000000e0: 82f0 e3bc d018 ab3c 5dfd 8a3d 5854 303d
000000f0: b223 84bd ba1e 96bc 275c 833d d83c 333c
00000100: 00d4 0e3c c050 a53b f8a8 cbbc 9887 97bc
00000110: f0c5 993b 3e05 5a3d 9443 a3bc c096 97bc
00000120: 4889 5c3c 5803 d4bc 2ea2 7c3d fee0 593d
00000130: e0ae 423b b64b 3bbd c01d a23c 329f 753d
00000140: 08d5 be3c 3ccd f23c 424e 19bd a3a8 8ebd
00000150: 8ad1 d9bc a018 143b 0faa 803d d0e4 713c
00000160: 7c61 54bc e68d 91bc b483 5dbc 35be 1bbd
00000170: 3282 f2bc b03a 573c 3a24 443d c200 763d
00000180: 8012 df3c 7820 48bd 05e0 853d cbd5 8b3d
00000190: 5e24 acbc e0c5 1f3b 2f16 833d 7eb2 cbbc
000001a0: f84d 093d c8b2 403c a672 213d 9cd2 c93c
000001b0: 35ad 8f3d 1e76 753d 3fa0 45bd 3e4c 2e3d
000001c0: a036 65bc 058b 17bd 3050 423c 8cb0 1dbc
000001d0: 8cbe 3cbd bba6 7fbd 216a 21bd f08d ee3b
000001e0: c682 303d 16ab 2a3d 9079 9a3c 3d60 893d
000001f0: 4610 78bd f30a 3cbd aac9 ed3c 4fcd 86bd
00000200: fbab 853d 9048 083c 6af8 e0bc efa8 7c3d
00000210: e840 013d 0dd3 6d3d 8472 543d 6bcb 60bc
00000220: 9b8c 803d 08b1 013c 7959 b23b 67eb bd3c
00000230: e29a 68bd 1817 33bd 9c13 863d ef57 43bd
00000240: d1cf 163d 0324 293d ce21 71bd 49c6 1cbc
00000250: f304 10bb 451c 513d 5655 aabc 6eb0 7f3d
00000260: 00f3 78bd da1f e63c 4d2f 183d 947c dcbc
00000270: e949 cabc 5260 3ebd fdda 8d3c 8f40 b63c
00000280: d76e d7bc bd51 643d b41f 49bc 3b2a 4cbc
00000290: da47 5c3d 9547 333c 041f 153d d2cc 243d
000002a0: 8581 43bd 4872 19bb c9dc 793d d405 39bd
000002b0: 99ff ff3b ee34 513d ae7a d03b c8e2 81bc
000002c0: 5078 d13c 4b91 6fbd 3af5 6d3d 1286 633d
000002d0: 5a36 a2bc 668d d1bc 689d 62bc 5f16 903d
000002e0: 0e5b debc b874 ad3c 987c 89bd ac17 af3c
000002f0: 367d 2f3d d07e bb3c 8033 5cbb c017 a93b
00000300: 5ed0 7a3d 64bc fb3c 34da 85bc 2aa2 68bd
00000310: fc15 533d 9ca9 d7bc 2094 343d 24d6 68bc
00000320: 40d3 993a c869 64bd 66ad dcbc 802d bf3b
00000330: 22f3 8bbd b869 6ebc 384a 283d d890 4b3d
00000340: 0857 553d 3ea7 b0bc 3064 b63b 396a 68bd
00000350: 4208 163d b01f 4d3c c66d 723d a83a 34bc
00000360: 2180 8a3d 3c7e 0f3d ae2c 773d f0ca 96bb
00000370: 8a40 63bd 7d24 63bd 7e8b 88bd 8890 403c
00000380: 5cf8 5fbd 9e38 bdbc a82c 133d 71a6 833d
00000390: c047 91bc be86 483d d093 afbb ccd6 67bc
000003a0: 7c1a 09bc f153 03bd cc8a 9e3c 00ae c8b9
000003b0: 281e 0dbd e038 383d a963 01bd 2c29 44bd
000003c0: 8c16 c93c 4048 8ebb 4d70 1fbd 526f 6cbd
000003d0: 8e8d adbc c2c2 5dbd 7487 1d3d 184e 10bc
000003e0: 322d 153d 86fb 0c3d 50a1 ba3b f05f 32bc
000003f0: 3260 15bd cc68 823c 0cd9 7bbd 7222 0dbd
-0.068942785 -0.067685574 -0.012831954 -0.0015992132 -0.047601927 0.037645817 0.003225878 -0.037220415
-0.069831595 0.05364403 0.06870379 0.005131524 -0.035300165 0.043524202 0.040251773 -0.011579662
0.06486923 -0.053693138 -0.009540878 0.058496345 -0.045184024 -0.023250062 -0.0315033 -0.030384269
0.060851388 0.043293983 -0.06452578 -0.043519635 -0.0011584306 -0.023224602 -0.039198842 -0.069694094
0.05195276 0.039379697 0.020285407 -0.016167834 -0.06873378 -0.004622669 0.02678387 -0.020847913
0.055352394 0.015948754 -0.0037200188 0.027659725 0.03649953 -0.052112732 0.021384383 -0.064404644
-0.015067153 -0.023237018 0.053991333 -0.06810924 0.025122441 -0.06443293 0.030653924 0.017317384
-0.027824644 0.020885855 0.067866065 0.043049186 -0.06452121 -0.018325198 0.06414061 0.010939799
0.008717537 0.0050450265 -0.024860844 -0.018497273 0.0046927854 0.053227656 -0.019929685 -0.0185045
0.013460465 -0.0258805 0.061678104 0.053193085 0.0029706284 -0.0457265 0.019789577 0.059966274
0.02329494 0.029638879 -0.037428148 -0.06965759 -0.026589174 0.0022597685 0.06282436 0.014764026
-0.012962695 -0.017767858 -0.01352017 -0.038023192 -0.029603098 0.013136551 0.04788611 0.060059316
0.027230501 -0.04885909 0.06536869 0.06827887 -0.021013435 0.0024379417 0.064007156 -0.024865385
0.033521622 0.011761375 0.039415978 0.02463656 0.070154585 0.0599271 -0.048248526 0.04255318
-0.013990074 -0.036997814 0.0118599385 -0.009624612 -0.046080157 -0.062414866 -0.039407853 0.007280104
0.043093465 0.041667067 0.018856794 0.06707809 -0.060562395 -0.04590888 0.029026825 -0.06582128
0.06526943 0.0083180815 -0.027462203 0.061684545 0.03155604 0.0580626 0.051867023 -0.013720374
0.06276818 0.007915743 0.005442795 0.023183538 -0.056788333 -0.043723196 0.06546709 -0.047691282
0.036819283 0.04129411 -0.05887013 -0.009568759 -0.0021975606 0.05105235 -0.020792644 0.062424116
-0.060778618 0.02809136 0.037154485 -0.026914872 -0.024693446 -0.046478577 0.017316336 0.02224758
-0.02629797 0.055742014 -0.012275625 -0.01246124 0.05377946 0.010942359 0.036406532 0.040234394
-0.04773094 -0.0023414064 0.061001573 -0.045171574 0.007812452 0.05107587 0.006362281 -0.015855208
0.025570065 -0.05848817 0.058095194 0.05554778 -0.019801307 -0.02558012 -0.013831474 0.07035517
-0.027143028 0.02117382 -0.067132175 0.021373592 0.04284402 0.022887617 -0.0033600032 0.005160302
0.06123387 0.03072948 -0.016339399 -0.056795277 0.051534638 -0.026325993 0.044086576 -0.014211211
0.0011735931 -0.055764943 -0.026938152 0.0058342814 -0.06833483 -0.0145515725 0.041086406 0.04969868
0.052084953 -0.021564122 0.0055661425 -0.056741927 0.03662897 0.012519762 0.05918672 -0.011000313
0.0676272 0.035032496 0.060345344 -0.0046018288 -0.05548147 -0.05545472 -0.06667231 0.011753209
-0.054680213 -0.023098286 0.03593126 0.064282306 -0.017734408 0.048956625 -0.005358197 -0.014150333
-0.008368131 -0.032062475 0.019353293 -0.00038276613 -0.034452587 0.044976115 -0.031589184 -0.047890827
0.024546884 -0.004342109 -0.038925458 -0.05772335 -0.021185663 -0.054140814 0.038459256 -0.0088076815
0.036420055 0.03441956 0.0056954995 -0.010887131 -0.036468692 0.015919112 -0.06148629 -0.034456678

conv2.bias f4 [16]
00000000: 15aa 33bd 1c31 a83c c0d0 4f3d 508e 673c
00000010: 9902 c93c 88eb 69bd 2070 52bd 42a2 29bd
00000020: a855 39bd cc3a 0ebd 8897 2fbd 2a88 bdbc
00000030: e54a 33bd 708b ac3c ebf0 43bb 20d3 6b3b
-0.043863375 0.02053123 0.05073619 0.014133051 0.024537371 -0.057109386 -0.051376462 -0.041414507
-0.045247704 -0.03472404 -0.04286912 -0.023136217 -0.043772597 0.021062583 -0.0029898237 0.0035983995

conv3.weight f4 [32, 16, 5, 5]
00000000: 76a9 ad3c e063 38bd dd5b a0bc a09b deba
00000010: a05c 3fbd 66a8 d93c 23c8 19bd 2f71 0a3d
00000020: 87ad 4a3d 8cd3 283c ca5c c7bc b98a 103d
00000030: 5d43 06bd 3025 1b3b 7967 003d 89ff 3f3d
00000040: 501b 703b 00b3 78bb 802c 8ebb f08e 46bd
00000050: 0892 113c 888e 22bd 4048 933b b4a8 42bc
00000060: c13a 023d 3301 a4bc 118f 113d f434 43bc
00000070: d870 1ebc d870 3abd ddfc 313d 90b6 8d3b
00000080: 0a94 38bd 2048 383b 72c2 a73c 341d 2dbc
00000090: 9b20 273d 5a54 c83c 1002 d2bb 21c0 4c3d
000000a0: 9b6f 103d 70f7 c8bb 8086 8dbb bc69 7b3c
000000b0: b0ba 8ebc b226 fc3c aa09 45bd e770 dbbc
000000c0: 0ec1 bb3c aa8f 44bd 7ab6 87bc 03cb d9bc
000000d0: 62e4 dd3c 50c1 243b 5d75 11bd f908 253d
000000e0: 03ca babc d8c1 b4bb 6e35 8a3c 448f 08bd
000000f0: 981d 97bb b4fc 89bc 944e 42bc 4094 94bc
00000100: 5517 033d 9d47 c9bc c636 0abd 7aef b03c
00000110: a6b5 843c 40dd 083a 9802 873b ff02 493d
00000120: 4607 89bc 58c4 36bd 0ab8 49bd f460 543c
00000130: b6a4 9f3c c038 393a 9033 2abd 3afa 1fbd
00000140: 0a8c 0bbd b1d8 033d a889 203c 2d22 e4bc
00000150: 58ae 41bd 2251 eb3c 00d8 0c3a e392 4b3d
00000160: 96cc 27bd c51c 26bd ac56 0d3c e343 093d
00000170: 3b48 073d 479d 4b3d 2d62 023d 06f5 b63c
00000180: c7d8 fbbc 71d2 493d 5046 b5bc 23b3 033d
00000190: 8281 a83c 90c8 f2bc b05d 92bb a86c 88bb
000001a0: 51a4 1a3d edb6 1c3d d8a4 2f3c dac5 e8bc
000001b0: 2c50 693c bdcb 273d 9d0c d9bc 1322 243d
000001c0: 741e 393c fe92 e23c 1a80 8c3c 914b 013d
000001d0: eb3d 2ebd 8e2a a93c ad99 31bd 609a 5fbb
000001e0: 7128 203d 1df3 27bd 90c7 1bbd 2385 b3bc
000001f0: 6093 f63a 6884 e2bb 78c1 20bd c07a d53b
00000200: 00ca 4dbc 274d bfbc 4011 0f3a 9a19 8b3c
00000210: 086d 033c 56c3 07bd 7fd4 0a3d 888f 1a3c
00000220: 1db7 a7bc f145 313d cc22 253c 82ff d43c
00000230: b5ce 103d 4095 69ba 8dc8 283d 00e6 69b9
00000240: 91d7 233d d8ba c63b 5e79 bc3c 9644 ce3c
00000250: 3d02 e3bc 0df9 323d 40ba c63a 1a8b 963c
00000260: 101b 17bd 46e4 98bc d580 053d 1d40 01bd
00000270: 00fd e23b ddd5 333d 4086 42bd 00c6 10ba
00000280: 541e 053c 793a 063d 7a9f 89bc 8527 48bd
00000290: dd82 fdbc 3cdd 753c 3dd1 16bd 6f50 2fbd
000002a0: 005a a5ba 64f1 563c 3c6c 00bd 6017 9fbc
000002b0: 7e0d e03c a478 0abd 6875 28bd d896 77bc
000002c0: a78d 243d 6c2d 70bc 68d3 0abd e249 11bd
000002d0: 5487 40bc 3376 113d 0af4 993c a4c2 88bc
000002e0: 40ab 31bd 308d f8bc 94ff 2c3c 3735 2c3d
000002f0: eaf1 d23c 706c d1bb 7646 d93c 20fb 6b3b
00000300: 9027 e13b 96f8 be3c 0ca7 49bc bca8 6e3c
00000310: 6815 923b 1ced 793c 183b 2fbc 5963 043d
00000320: 157f 38bd 2107 083d b2fa 28bd 84ca 09bd
00000330: cadb fbbc f02f 9ebb 2869 a2bb 7726 47bd
00000340: f256 d93c 3889 493c b11a 483d 9d27 12bd
00000350: 88af 24bd 28d9 443c 13c6 1d3d 4fba 083d
00000360: c627 a63c 34c6 093c e22b cc3c e003 a3bc
00000370: 7d45 4cbd ca7f 2abd c4f9 02bd 18ee 363c
00000380: f55c 373d 152b 043d b8ac 05bd bc6f 643c
00000390: e129 353d 4022 a13a 08a1 18bc 80e3 ddbc
000003a0: 0020 6ebb 1d1d 1a3d f44e 67bc 506d f7bb
000003b0: 42bc c63c 8704 9dbc 833a bdbc 5459 0a3c
000003c0: 1d48 143d 10c4 ae3b 80f8 03bb 76b0 22bd
000003d0: f295 f43c 2089 153b aa4d b4bc d72e 34bd
000003e0: 0056 c2bc 7ded 0fbd acc0 273c 5d12 163d
000003f0: b8ee 21bc f24f f93c 7816 2ebc 00f1 c2bc
0.02119897 -0.045017123 -0.019575054 -0.0016983636 -0.046719193 0.026569556 -0.03754438 0.033799347
0.049481895 0.010304343 -0.024336237 0.035288546 -0.032779086 0.0023673289 0.03134868 0.046874557
0.0036637373 -0.003794849 -0.004338801 -0.04847616 0.008884914 -0.03968671 0.004494697 -0.011881042
0.031794313 -0.020020103 0.03553683 -0.0119144805 -0.009670459 -0.045517772 0.04345404 0.0043247417
-0.045063056 0.0028119162 0.020478461 -0.010566045 0.04080258 0.024454284 -0.0064089373 0.049987916
0.035262685 -0.0061330125 -0.004319012 0.015345033 -0.017423004 0.03078017 -0.04810492 -0.026787234
0.022919204 -0.04798857 -0.016566504 -0.026586061 0.02708644 0.0025139637 -0.035512317 0.04029176
-0.022801405 -0.005516272 0.01687118 -0.033339754 -0.004611682 -0.016844131 -0.011859555 -0.018137097
0.032004673 -0.02457028 -0.033743642 0.021598566 0.016199898 0.0005220957 0.0041201822 0.049075123
-0.016727101 -0.04462084 -0.04924778 0.012962569 0.01948772 0.00070656464 -0.04155308 -0.039056994
-0.0340691 0.032189075 0.009798445 -0.027848328 -0.047285408 0.02872521 0.00053727627 0.04970063
-0.040966593 -0.04055478 0.008626621 0.033512007 0.03302787 0.04971054 0.03183191 0.022333633
-0.030743016 0.04927296 -0.022128254 0.03215326 0.020569567 -0.029636651 -0.004466735 -0.0041633435
0.03775436 0.03826039 0.010720454 -0.028414655 0.014240306 0.040965784 -0.026495272 0.04007156
0.0112987645 0.027657982 0.017150927 0.031566206 -0.04253952 0.020650174 -0.043359447 -0.0034119114
0.039101068 -0.041003335 -0.038032115 -0.02191407 0.0018812232 -0.0069127567 -0.039247006 0.006514877
-0.012560368 -0.023352219 0.00054575875 0.016979981 0.008021601 -0.03314527 0.03389406 0.009433635
-0.020473057 0.043279592 0.010079097 0.026000742 0.03535338 -0.00089104846 0.041206885 -0.00022306293
0.040000502 0.006064754 0.023007091 0.025179189 -0.027711028 0.043694545 0.0015161708 0.018376876
-0.036891043 -0.018663537 0.032593567 -0.031555284 0.0069271326 0.043905128 -0.047491312 -0.00055226684
0.008124907 0.032770608 -0.016799677 -0.048865814 -0.03094619 0.01500636 -0.03682064 -0.042801317
-0.0012615323 0.013119075 -0.03135322 -0.019420326 0.027350184 -0.033806458 -0.041127592 -0.015111648
0.040174153 -0.014659267 -0.03389302 -0.03547085 -0.011751015 0.035513114 0.018793125 -0.016694374
-0.043376207 -0.030340761 0.010558981 0.042042937 0.02575012 -0.0063911006 0.026522856 0.0036007836
0.0068711713 0.023311894 -0.0123078935 0.014566597 0.004458118 0.015254285 -0.010695241 0.032321308
-0.04504307 0.033209924 -0.041254707 -0.0336404 -0.030744452 -0.004827492 -0.0049563833 -0.048620667
0.026530717 0.012300782 0.04885358 -0.03568231 -0.040206462 0.012014665 0.038518976 0.033380803
0.020282637 0.008409072 0.024923269 -0.019899309 -0.049870957 -0.041625775 -0.031976476 0.011165164
0.044766385 0.03226765 -0.03263542 0.013942655 0.044229392 0.0012293532 -0.009315737 -0.02708602
-0.0036334991 0.03762542 -0.014117945 -0.007550873 0.02425969 -0.019167198 -0.02309919 0.008444149
0.036201585 0.005333431 -0.0020137131 -0.039719068 0.029856656 0.0022817329 -0.02200969 -0.043989982
-0.023722649 -0.035138596 0.010238808 0.036638606 -0.009883575 0.030433629 -0.010625474 -0.023796558

conv3.bias f4 [32]
00000000: 0064 c5bc a051 91bc 9ae4 1ebd 2a67 a0bc
00000010: 0007 213b 80d1 e2bc 6c7c 1dbc 273b f1bc
00000020: df08 a73b e90f 863c 20ee f4bc 13e9 aabc
00000030: 90ed f0bb 4d75 d8bc 4d07 b3bc 666a b13c
00000040: 68c7 55bc cedd 883c 8012 f639 a0da 073b
00000050: 4809 10bd 3d20 963b e19a 3b3d 96cc 353d
00000060: 64d7 f43c 70ea 80bc 801e 90b9 6c52 2a3d
00000070: 0084 3abc 6a95 263c ea7e b13a 18ca fd3c
-0.024095535 -0.017739117 -0.03879223 -0.019580442 0.0024570823 -0.027687788 -0.009612184 -0.029447151
0.005097493 0.016365008 -0.029898703 -0.020863092 -0.0073525384 -0.02642312 -0.021854067 0.02165718
-0.01304803 0.016707327 0.0004693456 0.0020729676 -0.0351651 0.00458148 0.045802 0.04438456
0.029887863 -0.015736789 -0.00027488545 0.04158251 -0.01138401 0.010167459 0.0013541852 0.030980155

fc.weight f4 [32, 4608]
00000000: 8081 eabb 4c1c 393b 38fc 55bc 08f3 66bb
00000010: 1645 d93b 1879 c73a 2baa 5f3c 922b 2cbc
00000020: e264 d73b 606d 3dba cd99 613c 6962 513c
00000030: 5173 553c b87b 1fbc 9f3d 703c d3ca 17bc
00000040: e406 e2bb 5bea 0a3c 0020 b8b5 a6ad e93b
00000050: 8d22 4e3c e8a0 daba 9e82 803b 009c c839
00000060: edb6 213c 96de f93b f0f4 553a 9b9b 30bc
00000070: c6fc 903b 5deb 133c 2823 883a 962b e13b
00000080: bcd1 703b 2de4 edbb b498 f9bb b498 29bb
00000090: a2c6 4fbc 8070 acb9 9873 6fbb ae4b 4bbc
000000a0: 381c f43a 7c81 343b 6ad0 b93b d079 1dba
000000b0: 1887 abbb b48d 22bb 816e 3ebc 8065 8339
000000c0: 91fb 003c 4019 6a39 9833 c93a 6d6d 4b3c
000000d0: e954 443c 6b5e 593c 8fe0 443c 5f78 013c
000000e0: 2013 d7b9 aa9b 64bc e857 e43a 2d18 083c
000000f0: f05b 133a e3e8 003c 082e 37bc e0e7 dbb9
00000100: 7567 6d3c 758d 5bbc d00b 0dbb 3636 d73b
00000110: 5cd3 66bc 1ea1 bbbb 6c0d d2bb ed1c 203c
00000120: cc9b 16bb e0c9 eb39 7355 423c 4446 5e3b
00000130: 449d a4bb 8e09 ee3b cc1c c9bb e97d 503c
00000140: 5271 8fbb bbd2 553c 96fd 91bb 9fe5 023c
00000150: 9544 563c a4f8 afbb 505e 9aba 89fd eabb
00000160: 9ac8 f63b 2667 a5bb 0379 343c 9a4d 1cbc
00000170: d0a2 a8bb 38d3 61bb bbf8 463c f535 013c
00000180: 8011 40ba 66d1 f03b cd1c 54bc c849 9fba
00000190: e789 573c 0ce4 60bb 0415 06bc b776 e3bb
000001a0: 0bd5 3d3c dc83 0c3b f44f 6c3b 000f e0bb
000001b0: da42 f23b 407e 44b9 4b1d 703c 7141 1a3c
000001c0: 3bf0 50bc 9baa 463c aaa9 20bc cccd a0bb
000001d0: 2c09 123b 1010 41bc b0ad 3eba ee12 fbbb
000001e0: e89b 78bb 8085 b2b8 3cc6 1dbb 1275 a73b
000001f0: 18e8 85bb c8f8 fd3a c05f 27b9 2ab6 9fbb
00000200: 8339 5cbc b655 f73b 6335 4abc 1822 dd3a
00000210: 1153 143c a9e6 5c3c d544 fdbb b7f4 4b3c
00000220: 1e73 00bc 908c 0fbc 7417 103b 8885 bfbb
00000230: dc79 1abc 5ee0 853b 6b80 453c a190 103c
00000240: 4aeb aa3b fb6a 033c ef42 463c 6aea d5bb
00000250: 29fb 3e3c 5284 823b 31e0 223c dc34 6abc
00000260: fcb1 603b 404a 41ba e0a8 b2b9 1fd9 2fbc
00000270: b03b d1ba c0cb 59bb 587d a4bb 37b4 483c
00000280: 05e2 56bc 7869 c13a 1653 d83b 4cb6 373b
00000290: f327 263c c8de ee3a d196 163c 6638 e33b
000002a0: ed53 20bc 0676 4fbc 15cc f0bb 6ef9 0bbc
000002b0: 47bb 34bc f4ec 523b ee3b 3cbc 36f8 2fbc
000002c0: ae25 a6bb 5b9d 63bc 223d 17bc 4817 55bb
000002d0: 906a 743a 2696 cd3b e962 563c 8c94 3fbb
000002e0: 81db 0ebc 0e90 16bc 64ad 2ebc b99a 1b3c
000002f0: 9f3d 553c 1c53 713b 7c4b 6d3b 6279 9d3b
00000300: a1a8 223c d3ef 063c 35a4 203c ca59 a43b
00000310: 2880 f23a 9c4e 7dbb 53e2 153c 1ab0 8a3b
00000320: 599a 153c 75d8 653c ed9c 343c 274b 5e3c
00000330: 69cd 353c 2006 6bbb d499 b5bb 94dd 4f3b
00000340: 9593 163c d4ec 48bc d644 913b f6f4 dc3b
00000350: e0bc e7bb 4d27 f3bb e0b9 ddbb 49fa 6c3c
00000360: 90f6 39ba 2d48 07bc ce9c ec3b 9c70 24bc
00000370: cdd5 67bc 8dd3 1f3c 0070 04b6 a8f6 9b3a
00000380: 8fac 0a3c f8e1 fcba 20da a7ba 185d 25bb
00000390: 32ad fd3b ece8 3ebb 3045 7d3a 3f2a 22bc
000003a0: 461d d3bb 3cfa 49bc 472e 273c 3774 4a3c
000003b0: f285 c13b 62f4 b23b 64fb e0bb eaa0 9e3b
000003c0: de62 c73b d7b2 613c 55b5 44bc 2966 11bc
000003d0: 89d1 f1bb 53b4 423c c02a 36b9 65a3 3f3c
000003e0: b822 b3bb 2079 0ebb 9c70 143b 1a83 80bb
000003f0: 01b6 383c dda6 2b3c d7fe 40bc 7c7b d9bb
-0.007156551 0.0028245626 -0.013060622 -0.0035240073 0.00663055 0.0015218584 0.013651411 -0.010508435
0.0065733055 -0.0007226076 0.013769579 0.0127798105 0.013027982 -0.009734087 0.014663129 -0.009264666
-0.006897794 0.008478726 -1.3718382e-06 0.007131296 0.01258148 -0.0016680034 0.003921821 0.00038263202
0.009870273 0.0076254113 0.00081618037 -0.010779287 0.004424664 0.009028283 0.0010386454 0.006871651
0.0036746105 -0.0072598667 -0.0076170806 -0.0025878372 -0.012681635 -0.00032890216 -0.0036537405 -0.01240818
0.0018624132 0.0027543 0.005670597 -0.0006007226 -0.0052346103 -0.00248037 -0.011623026 0.0002506189
0.007872478 0.00022325385 0.0015350459 0.012416226 0.011983135 0.01326714 0.01201643 0.007902234
-0.00041022245 -0.013953129 0.0017421218 0.008306545 0.0005621305 0.0078680245 -0.011180408 -0.00041943695
0.014489998 -0.013400425 -0.0021521933 0.0065677417 -0.014088478 -0.005725994 -0.0064102914 0.009772521
-0.0022981046 0.00044973101 0.011861193 0.0033916393 -0.0050236303 0.0072643226 -0.006137466 0.012725332
-0.0043775225 0.01305073 -0.0044552786 0.007989316 0.013077875 -0.0053702164 -0.0011777375 -0.007171337
0.007531238 -0.0050476966 0.01101518 -0.009539986 -0.005146362 -0.0034458172 0.012144263 0.0078863995
-0.00073268265 0.007349181 -0.01294632 -0.0012152726 0.013155437 -0.0034315614 -0.008183721 -0.006941642
0.011586438 0.00214409 0.0036058398 -0.0068377256 0.0073932232 -0.00018739048 0.0146554215 0.0094150165
-0.012752588 0.012125636 -0.009806076 -0.0049073454 0.00222833 -0.011783615 -0.0007273806 -0.0076621687
-0.0037934724 -8.512568e-05 -0.0024074456 0.0051103914 -0.0040865056 0.0019376511 -0.00015962031 -0.0048740106
-0.013441446 0.0075480593 -0.01234183 0.0016871123 0.009053008 0.013482728 -0.0077291527 0.012448481
-0.007839946 -0.00876154 0.0021986635 -0.0058447756 -0.009428468 0.0040855845 0.012054543 0.008823545
0.005216037 0.008021112 0.012100919 -0.0065281885 0.011656561 0.003983059 0.009941147 -0.014294829
0.0034285774 -0.000737343 -0.00034076627 -0.010732918 -0.0015963223 -0.0033233017 -0.005019825 0.012249998
-0.013115411 0.0014756164 0.0066017015 0.0028032241 0.010141361 0.0018224353 0.009191231 0.0069342135
-0.009785634 -0.012662416 -0.007348547 -0.008543355 -0.0110309785 0.0032184692 -0.011488898 -0.01074033
-0.0050704097 -0.013892497 -0.009230884 -0.0032515097 0.00093237404 0.0062740026 0.013085105 -0.0029232828
-0.008719326 -0.009189619 -0.010661457 0.009497338 0.01301518 0.0036823219 0.0036208322 0.0048057297
0.0099279 0.0082358895 0.009804775 0.0050155865 0.0018501328 -0.0038651591 0.009148198 0.0042324187
0.009131038 0.014028658 0.011023742 0.013567722 0.011096337 -0.0035861805 -0.0055420194 0.0031717764
0.00919046 -0.0122634955 0.0044332547 0.006743069 -0.007072076 -0.0074204565 -0.006766543 0.0144639695
-0.00070939306 -0.008256954 0.007220841 -0.010036614 -0.014150095 0.0097550275 -1.9734725e-06 0.0011899071
0.008463993 -0.0019293418 -0.0012806095 -0.002523249 0.0077415938 -0.0029130531 0.0009661494 -0.009897768
-0.0064426987 -0.012327727 0.0102039045 0.012356809 0.00590586 0.0054612616 -0.0068659056 0.00484096
0.006084784 0.013775549 -0.012006124 -0.008874455 -0.007379715 0.011883813 -0.00017372798 0.011696671
-0.0054667853 -0.0021739677 0.0022650128 -0.0039218785 0.011273862 0.010476795 -0.011779509 -0.006637035

fc.bias f4 [32]
00000000: 7f5d e1bb 45f0 573c 17b6 b2ba ce49 2ebc
00000010: 8a23 113c 3c7d 303b 6dcd 5abc 43ba 1b3c
00000020: f2e2 5cbc dab2 02bc c8e6 3fbb d289 cc3b
00000030: e1a2 13bc d349 823c ddc7 52bc 5cc2 1a3c
00000040: 7457 0dbb 2fa1 23bc a6ca ee3b e08a 043c
00000050: 21bd 383c 863b 5bbc 0588 acbb b466 053b
00000060: 40fc a9ba a989 ff3a 04a9 193b d1bf a2bb
00000070: f876 443c b9a2 763c e09e bb39 9436 693c
-0.0068776007 0.013179843 -0.0013634589 -0.010637714 0.008858571 0.0026930114 -0.013354641 0.0095048575
-0.013481842 -0.007977212 -0.0029281843 0.0062420154 -0.009011001 0.015904343 -0.012865034 0.009445753
-0.0021567019 -0.00998716 0.007287341 0.008089751 0.011275561 -0.013380891 -0.005265238 0.0020355405
-0.0012968853 0.0019495982 0.0023446688 -0.004966714 0.011991255 0.015053445 0.0003578579 0.014234204

translation.weight f4 [2, 32]
00000000: 6e75 933b 824d 913b cbc7 913b 9d7d 4f3b
00000010: d9a8 943b 0000 0000 0000 0000 ac3f 963b
00000020: 0000 0000 0000 0000 0000 0000 d241 8b3b
00000030: 0000 0000 e4e6 923b 0000 0000 b68d 953b
00000040: 0000 0000 0000 0000 0cfe 963b 617c 913b
00000050: 0000 0000 0000 0000 af5f 953b 0000 0000
00000060: 0000 0000 feb2 923b 75ba 953b c232 933b
00000070: 666e 923b 3863 953b 0000 0000 f3aa 983b
00000080: 8d9e d23a e7de e63a 1c6a ec3a 2a0b 3bbb
00000090: 689d a13a 0000 0000 0000 0000 a9f2 843a
000000a0: 0000 0000 0000 0000 0000 0000 ff4f f03a
000000b0: 0000 0000 bd52 da3a 0000 0000 9362 a13a
000000c0: 0000 0000 0000 0000 b131 733b f75f c53a
000000d0: 0000 0000 0000 0000 b2ae 6a3b 0000 0000
000000e0: 0000 0000 6b0f 533b 7445 4a3b bfa3 e03a
000000f0: 3a00 d03a 915c 993a 0000 0000 8d92 853a
0.0045000827 0.0044342885 0.004448866 0.0031660565 0.00453673 0.0 0.0 0.004585227
0.0 0.0 0.0 0.0042497898 0.0 0.0044830907 0.0 0.0045640124
0.0 0.0 0.0046079215 0.004439876 0.0 0.0 0.0045585255 0.0
0.0 0.004476904 0.0045693466 0.004492135 0.004468727 0.004558947 0.0 0.0046590506
0.001606898 0.0017614037 0.0018036994 -0.002854059 0.0012330236 0.0 0.0 0.0010143119
0.0 0.0 0.0 0.0018334388 0.0 0.0016656738 0.0 0.0012312703
0.0 0.0 0.0037108476 0.0015058507 0.0 0.0 0.0035809693 0.0
0.0 0.0032205235 0.0030864151 0.0017138644 0.0015869208 0.001170056 0.0 0.001019077

translation.bias f4 [2]
00000000: f75f 963b 1a92 7eb9
0.0045890766 -0.00024277755

rotation.weight f4 [1, 32]
00000000: 7e07 2439 7ea1 4a39 713b 3939 b573 31bb
00000010: a400 21b6 0000 0000 0000 0000 6266 38b9
00000020: 0000 0000 0000 0000 0000 0000 8182 9939
00000030: 0000 0000 8b5c 2f39 0000 0000 0c77 9bb7
00000040: 0000 0000 0000 0000 cd0d aa3a ec6e 7739
00000050: 0000 0000 0000 0000 a4d8 b03a 0000 0000
00000060: 0000 0000 f240 a23a 4a67 9c3a 31db 5b39
00000070: 053d 1d39 3260 88b8 0000 0000 2e3d 8db9
0.0001564305 0.00019324382 0.00017665119 -0.0027077023 -2.3991242e-06 0.0 0.0 -0.00017585748
0.0 0.0 0.0 0.00029279667 0.0 0.00016723775 0.0 -1.8532875e-05
0.0 0.0 0.0012974084 0.00023597077 0.0 0.0 0.0013492298 0.0
0.0 0.0012378974 0.0011932638 0.00020967123 0.00014995418 -6.502903e-05 0.0 -0.00026939198

scaling.weight f4 [2, 32]
00000000: 77e2 e13b 3daf d33b 0bed d03b 6e77 513b
00000010: 9e3f f73b 0000 0000 0000 0000 2c7a 013c
00000020: 0000 0000 0000 0000 0000 0000 cbc4 c93b
00000030: 0000 0000 d6d6 da3b 0000 0000 4fa1 f73b
00000040: 0000 0000 0000 0000 b373 ad3b a1af df3b
00000050: 0000 0000 0000 0000 2032 ac3b 0000 0000
00000060: 0000 0000 1e17 b33b ccf2 b43b a547 d83b
00000070: 1e24 dd3b 968a fa3b 0000 0000 040b 023c
00000080: bc98 113c e887 0a3c b8cd 083c 7c6c 123b
00000090: d073 173c 0000 0000 0000 0000 c89e 193c
000000a0: 0000 0000 0000 0000 0000 0000 b25b 053c
000000b0: 0000 0000 84ad 0e3c 0000 0000 43a8 173c
000000c0: 0000 0000 0000 0000 65c8 b63b 4de0 103c
000000d0: 0000 0000 0000 0000 258d 9c3b 0000 0000
000000e0: 0000 0000 aadd b83b 259f bb3b 6764 0d3c
000000f0: f871 0f3c 8f30 183c 0000 0000 eb6c 1a3c
0.006893452 0.006460099 0.006375914 0.0031962055 0.0075454256 0.0 0.0 0.007902663
0.0 0.0 0.0 0.0061574928 0.0 0.0066784425 0.0 0.0075570713
0.0 0.0 0.0052933334 0.0068263565 0.0 0.0 0.005254999 0.0
0.0 0.0054654023 0.0055221077 0.0066003376 0.0067486903 0.0076459153 0.0 0.007937197
0.008886512 0.008455254 0.008349828 0.0022342494 0.00924392 0.0 0.0 0.009376235
0.0 0.0 0.0 0.008139538 0.0 0.008708362 0.0 0.009256425
0.0 0.0 0.005578088 0.00884254 0.0 0.0 0.004777568 0.0
0.0 0.005641659 0.0057257586 0.008629895 0.0087552 0.009288921 0.0 0.009425382

scaling.bias f4 [2]
00000000: 3437 0c3c 2099 1c3c
0.008558083 0.009557992

shearing.weight f4 [1, 32]
00000000: 0dc5 7eba 5239 6aba 7208 67ba 57f2 9ab0
00000010: d894 8fba 0000 0000 0000 0000 40ed 9aba
00000020: 0000 0000 0000 0000 0000 0000 ae56 5dba
00000030: 0000 0000 8907 72ba 0000 0000 c881 8fba
00000040: 0000 0000 0000 0000 e649 e3b8 16dd 7eba
00000050: 0000 0000 0000 0000 3633 efb8 0000 0000
00000060: 0000 0000 a8dc e5b8 9907 ebb8 8e0d 75ba
00000070: c24f 7aba a27f 91ba 0000 0000 633c 9eba
-0.0009718694 -0.0008934933 -0.0008813209 -1.1273852e-09 -0.0010954393 0.0 0.0 -0.0011819974
0.0 0.0 0.0 -0.0008443397 0.0 -0.000923269 0.0 -0.0010948712
0.0 0.0 -0.00010837968 -0.00097222754 0.0 0.0 -0.00011405947 0.0
0.0 -0.00010960671 -0.000112070884 -0.0009348028 -0.0009548628 -0.001110066 0.0 -0.001207244
