output/33_e/train/model/itn_50.pt (torch_old, 23547 bytes, 23 tensors)

conv11.weight f4 [2, 1, 3, 3]
000000 ec 30 92 3e 04 57 99 3e 6d 5f 6e bd 96 16 ac 3e
       0.2855295 0.299492 -0.058196474 0.33610982
000010 ea 3e 51 bd 36 88 b0 3d ca 85 07 be b0 82 5f 3e
       -0.05108539 0.0861973 -0.1323463 0.21827197
000020 45 6b a0 3e 71 c4 52 be 45 fd 9e 3e 9a f2 89 3d
       0.3133184 -0.20582749 0.31052604 0.06735726
000030 65 d1 92 3e 80 8b 8c 3d 38 46 2d 3e d0 b1 2c bc
       0.2867538 0.06862545 0.16921318 -0.010540441
000040 b7 5b 8d 3e 83 92 5b 3d
       0.27609035 0.05360652

conv11.bias f4 [2]
000000 b9 c8 c4 bd a6 b8 fa 3d
       -0.09608597 0.1224225

conv12.weight f4 [4, 2, 3, 3]
000000 5b 97 ab bd 69 7b dd bc 8b f5 af bd 79 ec f1 3d
       -0.08378478 -0.027036386 -0.085917555 0.11812682
000010 57 47 57 be 75 16 13 be ea 33 fa bd e3 f1 33 be
       -0.21023308 -0.14364035 -0.12216933 -0.17572741
000020 82 54 a2 bc f9 25 9b be 2c b0 21 3e e7 7e 72 be
       -0.019815687 -0.30302408 0.1578986 -0.23681222
000030 40 9c da 3d 41 18 96 bc 28 54 06 be f9 5f 5a 3d
       0.106743336 -0.018322112 -0.1311804 0.053314183
000040 93 1d cf bc 13 e6 03 3e dc a4 7e 3d b5 ae 44 bd
       -0.025282657 0.12880735 0.06216894 -0.048018176
000050 b7 ef aa 3d b0 32 ef bc c7 16 fe 3d 7c 9c 6a 3e
       0.08346503 -0.029198974 0.12406688 0.22911257
000060 c3 b2 2e 3e da 8a 9f bd 84 64 1f 3e dd fb 94 3d
       0.1706038 -0.07790156 0.15565687 0.072746016
000070 21 95 0f 3e 0d f9 01 be 0c ab 51 be 1d bd 92 bd
       0.14021732 -0.12692662 -0.20475405 -0.07164977
000080 76 c4 28 be 3b 79 63 3e c6 bc b4 3d 62 3b ec 3d
       -0.16481194 0.22214215 0.08825068 0.11534764
000090 a1 6e fb 3d b9 8b 14 3d b0 5c 5e 3e b1 ce f5 bd
       0.1227696 0.036266062 0.21715045 -0.12002314
0000a0 6d e3 59 3d 75 fa 05 be 8a 45 f1 3d 82 d9 3c bd
       0.053195406 -0.13083823 0.11780842 -0.04610587
0000b0 02 e2 c9 3d 9d 8f 43 bb 58 e8 6e 3e 94 7f df bd
       0.09857561 -0.002984024 0.2333082 -0.109130055
0000c0 d8 09 c7 bd 09 c6 d9 bd c3 59 74 3e 1a 53 f3 3d
       -0.097186744 -0.10633475 0.23862366 0.11881085
0000d0 01 d1 83 3e 61 9e 2f be de 89 4a be ba e0 46 be
       0.25745395 -0.1715026 -0.19779155 -0.19421664
0000e0 80 ba 41 be 62 d5 e3 3d 25 25 7d 3d 82 b0 5b 3e
       -0.189188 0.11124684 0.061803002 0.21454051
0000f0 55 cc f4 bd 12 76 07 be 31 61 03 3e eb 39 b4 bd
       -0.11953036 -0.13228634 0.12830044 -0.088001095
000100 c6 5b 2f 3e d8 e4 9e bd b1 cd 1c 3e b9 10 2f be
       0.17124853 -0.07758492 0.1531284 -0.17096223
000110 ed 65 04 be b0 b3 84 3d 25 b8 83 3d 5b de 40 bd
       -0.12929507 0.06479585 0.06431607 -0.047087055

conv12.bias f4 [4]
000000 0b 96 bc 3d 4e 42 61 3e 34 da 0c be d4 fd 0c be
       0.09208306 0.2199795 -0.13755113 -0.13768703

down1.weight f4 [8, 4, 2, 2]
000000 8b 9d 92 3e bc 3e 28 bd 9a df 0e bd 06 62 40 be
       0.2863582 -0.041075453 -0.03488121 -0.18787393
000010 16 0b 4c be e5 a3 ee 3b 31 9e ab bd c8 1f 6c be
       -0.19926104 0.0072827213 -0.08379782 -0.23058999
000020 c7 37 66 bd dd 1c 6f be c1 64 8c be 2c 26 4c be
       -0.056205537 -0.23350854 -0.2742062 -0.19936436
000030 f2 85 94 be 24 4d 55 be 1d ea 62 3e 91 e5 bb bc
       -0.29008442 -0.20830208 0.2215962 -0.022936614
000040 16 02 c3 3d de 4c 6e be 54 18 0e be 68 ed 8b bd
       0.09521882 -0.2327151 -0.13876468 -0.06832391
000050 39 0c 4f bb 93 32 82 be 5f f8 13 be 60 7f 36 be
       -0.0031592979 -0.2542921 -0.14450215 -0.17822027
000060 ab 37 36 bd af 53 07 be da 8e 6b bd e9 0f 4f be
       -0.044486683 -0.13215517 -0.05750928 -0.20220913
000070 04 ce 83 be bf 74 44 be 41 75 1e be 19 6a 8c be
       -0.25743115 -0.1918516 -0.15474416 -0.27424696
000080 07 7b 7f 3e 0a 23 20 bd c5 2a 85 3e 23 c8 d9 3d
       0.24949275 -0.039095916 0.26009193 0.10633876
000090 08 51 8e be ae 3c dc 3d a1 58 04 be 4b a3 1c be
       -0.27796197 0.10753761 -0.12924434 -0.15296666
0000a0 2b 7c 8d be d3 d5 a4 be 74 f5 42 ba b4 33 02 be
       -0.27633795 -0.32194385 -0.0007437088 -0.12715036
0000b0 dc 9d 3a b9 89 d8 84 be 20 41 ea 3d 22 3e 87 be
       -0.0001779715 -0.25946453 0.11438203 -0.2641459
0000c0 44 3c e9 bb fa 48 91 3d 8f 16 2c 3e 25 7c 73 3e
       -0.00711778 0.07093997 0.1680548 0.23777826
0000d0 7d 0c 29 3e 10 7d 8d be 3f cc 9c 3b 40 c2 39 be
       0.1650867 -0.27634478 0.00478509 -0.18140507
0000e0 de 67 b4 bd 64 b5 85 be 65 62 25 3e 19 91 87 be
       -0.088088736 -0.26114953 0.16150816 -0.26477888
0000f0 ec ce 89 bc c2 fa a6 bd 75 19 06 3c 83 de 83 be
       -0.0168223 -0.08153297 0.00818478 -0.257557
000100 0d 4e 6f 3e 46 33 4d 3d aa c0 1f 3c 31 d8 84 be
       0.23369618 0.050097726 0.009750525 -0.2594619
000110 79 6f 18 3c 2b 60 14 be a8 5a 55 be 6a 2f e3 3d
       0.009303921 -0.1448981 -0.20835364 0.11093028
000120 de 4c 2d bd 80 ae 7c be ca 84 67 be ae 6a fa bd
       -0.042309634 -0.24675941 -0.22609249 -0.12227379
000130 f6 f6 b2 bd ea 5d 87 be de db 89 be 0d 6b 7e be
       -0.0873851 -0.26438838 -0.26925558 -0.24845524
000140 22 50 8d be dc f2 63 bb e1 71 0d 3e 9e 1c 93 be
       -0.276002 -0.0034782207 0.13812973 -0.2873277
000150 41 cf a3 3d 37 d5 08 3e a8 37 8b 3d b2 5b af bd
       0.07998515 0.13362585 0.06797725 -0.08562411
000160 14 7e 14 3e d0 47 04 3e 31 b5 00 3e b1 d7 00 bd
       0.1450122 0.1291802 0.12569119 -0.0314557
000170 00 9a 03 3e f1 cf 40 3e 24 d8 b7 3d fc f1 c0 3d
       0.12851715 0.18829323 0.089767724 0.09421155
000180 70 a3 ec 3d a9 c9 3b 3e f8 04 97 bd 79 e6 a9 bd
       0.11554611 0.18338646 -0.073739946 -0.08295912
000190 e9 cc 27 3d 00 b8 6e 3c 8a 57 bf 3d c5 2e c5 3d
       0.040966902 0.014570236 0.093428686 0.09628061
0001a0 70 15 40 be 68 25 7e bd 96 51 7f 3e 7f dd 01 3e
       -0.18758178 -0.062047392 0.24933466 0.1268215
0001b0 1c c3 8c 3d de 4d cd bd 13 c4 a0 bd 5a 99 1a be
       0.06873152 -0.100246176 -0.07849898 -0.15097561
0001c0 79 e8 0f bd 6e 78 ed 3d d6 00 50 3e 8d e0 13 3e
       -0.035133813 0.11595236 0.20312819 0.14441128
0001d0 1e 2d 89 be 1f ff 40 be 43 f4 a2 bd 08 24 58 3e
       -0.26792234 -0.18847321 -0.079567455 0.21107495
0001e0 d1 b3 6b bc 03 75 db bd 83 28 59 3d 00 62 0a be
       -0.014386133 -0.107156776 0.05301715 -0.13513947
0001f0 64 ec 92 be 9d 87 d1 3d 98 67 62 be 83 df 2c be
       -0.28695977 0.10230944 -0.2210983 -0.16882138

down1.bias f4 [8]
000000 c9 59 91 be fa 30 ae 3d 43 7c 3b 3e 92 b0 15 3e
       -0.28388813 0.08505435 0.18309121 0.14618137
000010 d4 8f ec bd 03 2f b3 be 64 0e 47 be 20 b3 43 3e
       -0.115508705 -0.34996805 -0.19439083 0.191113

conv21.weight f4 [8, 8, 3, 3]
000000 76 b2 3e 3c 31 80 8d 3d 2b ae 48 3d fc 41 4f bc
       0.011639228 0.06909216 0.048994225 -0.012650009
000010 af dd d2 bc f2 c1 c7 bd 7b cc 0c be 73 d9 ff bd
       -0.025740473 -0.09753789 -0.13749878 -0.12492647
000020 4a 72 43 3d ad da ce bd a5 95 54 bd 70 9f a0 bd
       0.047716416 -0.10100303 -0.051900525 -0.0784291
000030 40 02 78 bd e4 7a d6 bd 38 d2 a7 bd 34 f4 e2 3b
       -0.06054902 -0.10472658 -0.08194393 0.006926084
000040 9d ef 3e bd 03 06 99 3d d4 83 ab bd 90 83 f1 bd
       -0.04661523 0.0747185 -0.083747536 -0.11792672
000050 1b 04 0f bd 8d 77 d1 bd dd 85 81 bd 06 cb fa bd
       -0.034916025 -0.102278806 -0.063243605 -0.12245755
000060 95 6c d6 3c 4c 20 cc bd 38 f5 67 3d e4 95 a0 3c
       0.026174823 -0.09967098 0.056630343 0.019602723
000070 28 7d 4b 3d 83 fb c1 bd d2 72 6c 3d 1f ac 93 bd
       0.049679905 -0.094718 0.05772669 -0.07210564
000080 e1 89 2d 3d 72 1d bd 3d 85 4e ab bc f9 31 79 3a
       0.04236782 0.09234132 -0.020911464 0.00095060427
000090 00 b0 9f bd 00 6f 09 be 91 51 36 3d 67 f7 28 be
       -0.07797241 -0.1342125 0.04451138 -0.16500627
0000a0 9c 93 30 3d 19 fd 9f 3d c2 c8 92 3d b6 02 34 bd
       0.04310952 0.078119464 0.07167198 -0.043947898
0000b0 d8 9d c3 bd 69 f1 93 3d e3 44 c8 3d 9c 2d cd bd
       -0.09551591 0.0722378 0.09778764 -0.10018465
0000c0 57 31 a9 3c b0 a9 22 bd 78 65 72 3b 51 d5 81 bc
       0.02065341 -0.039712608 0.003698675 -0.015848788
0000d0 1b 59 e3 bc 42 e5 01 bd 5e 03 88 bd 78 9b ff 3d
       -0.02775245 -0.031712778 -0.06641267 0.12480825
0000e0 3f dd e1 3d e8 0d a7 3c 14 26 c4 3b 7a 61 36 bd
       0.110285275 0.020392373 0.0059859846 -0.044526555
0000f0 8e 90 98 bd 0e 42 da bd 5a 5c 1e 3d 71 68 e6 bd
       -0.074494466 -0.1065713 0.038662292 -0.11250389
000100 5b 2f df bd 65 14 cf bc 5a 0a b4 bd 68 2b 8e bd
       -0.10897704 -0.02527828 -0.08791037 -0.06941873
000110 6c f6 08 bc ba 37 88 bd 4f 9a 72 bd 0b f1 6f bd
       -0.008359533 -0.06651254 -0.05922919 -0.058579486
000120 af 92 8c bd 79 e5 a6 3d 1b c7 b0 bd 17 30 61 3d
       -0.06863915 0.08149237 -0.08631726 0.054977503
000130 23 90 7f bd c2 4b 06 bd 60 63 17 3e 5f 40 54 3d
       -0.06239332 -0.032787092 0.14784002 0.0518192
000140 a6 db 00 be ac a3 89 3d 9e 87 b7 3d 44 88 10 bc
       -0.12583789 0.06720671 0.08961414 -0.008821551
000150 d4 e1 c8 3d 69 8e bb 3d 36 13 74 bd 36 57 6a 3d
       0.09808698 0.09158022 -0.059588633 0.057212077
000160 8b 1c b4 bd 53 6e 3b bd 52 4f fa 3d 42 aa 4e 3d
       -0.08794507 -0.04575951 0.122221604 0.05045534
000170 30 4c e0 bd 87 a0 84 bd 9e a6 c7 bd 7a 18 21 be
       -0.109520316 -0.06475931 -0.097485766 -0.15731993
000180 76 e6 4e bd 68 a0 00 bd c0 75 5f 3d 37 e3 aa 3c
       -0.050512753 -0.031402975 0.054555655 0.020860298
000190 0b 62 fd bd 98 d5 01 be 25 fa 4f 3d ac 85 09 be
       -0.12372216 -0.12679136 0.050775666 -0.13429898
0001a0 d4 0d 5d bd 7a 23 68 3d 62 ba b3 bd a1 21 2c bd
       -0.053968266 0.056674458 -0.08775784 -0.04202426
0001b0 67 df bb 3c 7c 5e 31 bd 9f e7 d9 bd 35 17 bb bd
       0.022933675 -0.043302998 -0.10639881 -0.09135286
0001c0 40 95 06 be c4 56 ff bd 1d ce 04 3e 3c f3 ad bd
       -0.13142872 -0.12467721 0.12969251 -0.08493659
0001d0 d9 9f 02 be a6 0c 16 bc b7 2a 1a 3d fe 47 c7 3d
       -0.1275629 -0.009158289 0.037638392 0.09730528
0001e0 4c 1e 7b 3d e1 cc ae 3d be 09 93 bd 04 1b d2 bc
       0.06130819 0.08535171 -0.071795925 -0.025647648
0001f0 e6 4c a5 3d 6e 45 b6 3c 0e 47 b3 bd 79 00 10 3e
       0.08071308 0.022249904 -0.08753787 0.1406268
000200 b5 a5 ac 3b 58 e9 b7 bd e4 a9 ab bd 9e 88 47 3d
       0.0052687773 -0.08980054 -0.083820134 0.048714273
000210 73 f6 21 3c 72 f1 9e 3c c9 f7 0c 3d d7 0a 6e bd
       0.009885418 0.01940224 0.034415994 -0.058115806
000220 bd f9 f7 bd 5e cc 16 bd ef 76 09 3e 3b 51 41 3d
       -0.12108181 -0.036815993 0.13424276 0.047196608
000230 79 e1 ed bd e9 70 b8 3c 9e 2a c1 bd 4c 8b b7 bd
       -0.11615271 0.022514777 -0.09431957 -0.08962116
000240 18 13 e0 3c 51 3c a1 3d 78 c0 05 3e 25 48 c0 bd
       0.027352855 0.078728326 0.13061702 -0.093887605
000250 64 c9 a8 3d 71 da 83 bd 4d 7f b5 3d 9c 55 e4 3d
       0.08241537 -0.06438149 0.08862171 0.11149141
000260 d0 a2 9f 3c 02 7f de 3d 57 1f b4 bd b6 fe 69 bc
       0.019486815 0.108640686 -0.0879504 -0.014281919
000270 9b 2a 97 3d 3d 19 b1 bc a3 8f 2c bc 43 fe a5 bc
       0.07381173 -0.02161848 -0.010532293 -0.020262843
000280 be e2 b2 3d 2d 83 9a 3d 11 12 43 3d 57 a5 53 bd
       0.08734654 0.07544551 0.04762465 -0.051671352
000290 a7 01 70 bd 2f e6 d0 3c 7a 55 29 3d f6 07 04 bd
       -0.058595326 0.025500385 0.041341282 -0.032234155
0002a0 3b 52 51 bc 01 e5 9a 3d 62 90 cf 3c 59 38 5a 3c
       -0.012775953 0.0756321 0.025337402 0.013319098
0002b0 46 fe 26 bc 9e a5 97 bd c5 87 00 be 2b b9 32 bd
       -0.010192459 -0.07404636 -0.12551792 -0.04363362
0002c0 a8 37 23 bd b4 ec 6b 3c 93 9f 11 bd d7 ff b5 bc
       -0.039848 0.014399696 -0.035552572 -0.02221672
0002d0 5c d1 15 3e 77 cc 6a 3d 0e bc d5 3d 8b bb 3e bd
       0.14630646 0.0573239 0.10436259 -0.046565574
0002e0 62 c1 ea bc 56 f6 30 3d 04 08 3d bd 6f 51 8d bd
       -0.028656665 0.043203674 -0.046150222 -0.06900298
0002f0 81 ef 94 bc 3d f0 1b bd b9 5c ca bd 23 49 1d 3d
       -0.01818061 -0.038070906 -0.09880967 0.038399827
000300 66 33 c2 3d 2c fd a5 3c cd 94 0e bd b5 51 e2 bd
       0.0948246 0.020262323 -0.034809876 -0.11050741
000310 11 4e 14 bd 17 02 9e 3c 35 7c 5c 3d 89 52 49 bc
       -0.036207262 0.019288106 0.05382939 -0.012287744
000320 56 b8 6d bd fc 58 2c 3d a2 63 b0 bd 96 79 84 3d
       -0.058037125 0.04207705 -0.086127535 0.06468503
000330 0d 14 9e bd 08 c8 94 bc 5d 62 25 bd 86 41 b6 3c
       -0.07718668 -0.018161789 -0.04037701 0.02224804
000340 d3 d4 c8 bc 57 a1 fb 3d 07 dd 2a 3c ad 3e bd 3d
       -0.024515545 0.122866325 0.010428674 0.0924047
000350 1f c2 07 3e 17 06 14 bd 1e d3 c5 bd fe 2e d3 3d
       0.13257645 -0.03613862 -0.09659408 0.103116974
000360 b3 c4 44 3d b9 79 d8 bd c7 95 43 bc a3 fb 11 be
       0.04803915 -0.10570092 -0.011937565 -0.14256148
000370 26 77 a3 bd 94 ac 52 3d d3 ce a3 3c 25 58 39 3d
       -0.0798171 0.051434115 0.019996082 0.045250077
000380 a3 40 a9 3c 12 73 9a 3d ff ff 22 3c 7d 70 86 bd
       0.020660704 0.07541479 0.00994873 -0.06564424
000390 ac eb a8 bc b0 88 5d 3d d4 28 9b 3d cb b2 b3 bd
       -0.02062019 0.054085433 0.07576147 -0.087743364
0003a0 0d a5 8e 3d 01 e0 1c bb f8 8e 19 be ec 78 ae bd
       0.06965075 -0.0023937228 -0.14995944 -0.08519158
0003b0 18 4b dd 3d 90 3b a0 3d 32 66 02 3e ef e2 d7 3d
       0.108053386 0.07823861 0.12734297 0.10541331
0003c0 6f 90 ab 3d 97 97 3f 3c cf 23 c0 bb 0e 3b 59 3c
       0.08377158 0.011693857 -0.0058636437 0.013258709
0003d0 db 09 a4 bd 92 b4 ad bd c6 e4 b5 bc b1 c0 86 3d
       -0.08009692 -0.08481707 -0.022203814 0.06579722
0003e0 e0 5a be 3d c7 d1 d4 bc fb 84 a2 bc 1a 84 d8 3d
       0.09294677 -0.025978936 -0.0198388 0.105720714
0003f0 16 88 17 be 49 25 fe bd 7f b7 e8 3c ee 82 95 bd
       -0.14798006 -0.12409455 0.02840781 -0.073003635

conv21.bias f4 [8]
000000 92 38 1a 3e 19 3e 1b be e0 c1 ae bd 3b f9 8d 3d
       0.15060642 -0.15160407 -0.085330725 0.069323026
000010 a5 83 0a 3e 08 df 9f 3d cf 6f 1e 3d b8 64 ff 3c
       0.13526781 0.07806212 0.038680848 0.031175956

down2.weight f4 [16, 8, 2, 2]
000000 09 eb 5b 3d 58 8e d7 3d 1f 82 b1 bd d0 ab cd 3d
       0.053690944 0.10525197 -0.08667397 0.10042536
000010 89 c8 b2 3d 1e 9c 25 3e ff f9 c7 bd 53 46 b9 bd
       0.08729655 0.16172835 -0.0976448 -0.090466164
000020 94 2f 6c bd f5 38 87 bc df df fa 3d a2 82 09 be
       -0.05766256 -0.016506651 0.12249731 -0.13428739
000030 bc 89 1c 3e 62 24 04 bc 98 a4 21 3e b7 ba c8 3c
       0.15286916 -0.008065315 0.15785444 0.024503095
000040 a5 ff ad 3b 37 ce b5 3c ef 92 1d 3d 86 3d 34 3e
       0.005310016 0.022193057 0.038470205 0.17601594
000050 aa 70 20 be d0 bf 0b bd 85 e0 46 3b 17 5e f1 bd
       -0.15667978 -0.034118474 0.0030346226 -0.11785524
000060 d8 bc 9c 3d 8c 9d 1d be 22 e0 e3 bd 8a 4d 07 be
       0.076532066 -0.1539213 -0.11126734 -0.13213173
000070 9f 95 23 3d 8d c5 bf bb 42 ba 9a 3d cd 14 3c bc
       0.03993761 -0.0058524073 0.07555057 -0.011479569
000080 cc 78 d5 3d 17 48 37 3e ad a5 ac 3d b2 2e 58 bd
       0.10423431 0.17898594 0.08430038 -0.052778907
000090 80 58 21 be c2 f1 b7 3d 7e 83 ae bd 77 93 de 3d
       -0.15756416 0.089816585 -0.08521174 0.108679704
0000a0 e0 6b f6 3d cf d9 b8 3d 2b 8e 23 3e 9e 4d 37 3e
       0.12032294 0.09025919 0.15972202 0.17900702
0000b0 b3 9a eb bc f5 1b 2f be 88 70 c5 3d d0 6e c7 bd
       -0.02876029 -0.17100509 0.09640604 -0.09737933
0000c0 cf 18 40 be d8 ec fb 3d 49 97 aa 3c a1 ce 0a 3d
       -0.18759464 0.12301034 0.020824092 0.033888463
0000d0 89 6a 00 3d ff e6 05 be 12 ad 29 3b 5b 81 40 3e
       0.0313516 -0.130764 0.0025890511 0.18799345
0000e0 6a 58 b6 3c 87 f1 0c bb 36 20 4c bd f3 6b c6 bd
       0.022258956 -0.0021506266 -0.049835406 -0.096885584
0000f0 d0 a8 5c 3b c2 e8 33 3c fa f9 84 3d a4 72 cd bc
       0.0033669956 0.010980787 0.06492992 -0.025079079
000100 4e b0 f6 3d 03 04 ce 3d 9e bf 99 3d 46 b9 14 3e
       0.12045346 0.10059359 0.07507251 0.14523801
000110 b4 6f f4 3d e4 7f 22 3e d2 98 17 3e 9d a8 0d bd
       0.11935368 0.15869099 0.1480439 -0.03458463
000120 a3 03 1b be df 4c 38 3d ab 04 5b bc db 88 0c bd
       -0.15138106 0.044995185 -0.013367812 -0.034310203
000130 10 1d 36 bd 06 e0 5a 3c df 23 11 3e ee 69 b2 3d
       -0.04446131 0.013359075 0.1417384 0.08711611
000140 51 b3 60 be 3c 1c 5b be d5 50 5a be 17 43 47 be
       -0.21943404 -0.2139749 -0.21319897 -0.19459186
000150 b2 18 4b 3e 10 6a fc 3d af d2 4d 3e d5 5e 08 3d
       0.1983364 0.12324917 0.200999 0.033293564
000160 fc b6 62 3d 78 0b 9f 3d 1f 57 37 be b8 ba c0 bc
       0.05535029 0.07765859 -0.17904328 -0.023526534
000170 30 22 a1 bd 08 58 de bd 32 1d 55 be 6b a2 06 3e
       -0.07867849 -0.108566344 -0.20811918 0.13147895
000180 80 8d c3 3d ca 24 68 3d 37 f3 07 3e 26 d5 b6 bd
       0.09548473 0.05667571 0.13276373 -0.089273736
000190 39 23 9d bc 50 c9 ca 3d d4 05 ff bb 33 2e 4f bb
       -0.019181835 0.099016786 -0.007782677 -0.003161323
0001a0 f7 03 fb bd c7 11 34 3d b9 ec 9d bd 58 9e 99 3c
       -0.122566156 0.043962266 -0.07711167 0.018752262
0001b0 99 b5 70 3e 4f fd 3d 3a 60 31 56 bb 43 0c 22 3e
       0.23506774 0.0007247524 -0.0032683238 0.1582499
0001c0 ae 1d 99 3d 32 18 06 3e 94 bb a7 3e 7f e0 7c 3d
       0.07476364 0.13095167 0.32760298 0.061737534
0001d0 98 f0 2e be 7a d8 f0 bd ff 9c a8 bd 0f c2 c4 bd
       -0.17083967 -0.1176004 -0.0823307 -0.09607326
0001e0 25 ea 7b bd 8f 5a cb 3d 36 48 93 3d 3d e0 fe 3b
       -0.061502595 0.09929382 0.071915075 0.007778196
0001f0 cd 2a 11 bd e6 99 d7 3c 64 8d 24 3d b1 93 43 3d
       -0.03544121 0.026318502 0.040173903 0.04774827
000200 1e fe c6 bd f6 24 9e 3d 9f 5a 80 bd 22 a3 cc bd
       -0.09716438 0.077218935 -0.062672846 -0.099920526
000210 9b 21 0b be 8b a1 81 3d fc f3 d9 bd 4f 34 cf bd
       -0.13587038 0.0632964 -0.106422395 -0.10117399
000220 53 a3 0c 3e 3f 98 f7 3d 08 c0 b6 3d 0f e5 1d be
       0.13734178 0.120895855 0.08923346 -0.1541941
000230 19 2c 25 be c4 8b f6 bd 11 c1 da 3d 69 45 1a bd
       -0.16130103 -0.12038377 0.10681356 -0.03766385
000240 6d 26 a9 be 05 f6 81 be 28 c4 b8 be 8d 19 bc be
       -0.3303713 -0.2538301 -0.36087155 -0.36738244
000250 0c 41 43 3c f2 e9 43 3e 5d 81 f1 3d 15 cd 59 3b
       0.011917364 0.19132212 0.11792252 0.003323381
000260 a0 c1 48 3d ee 2b e6 bc 29 da 90 3d 1b 3c 8c 3d
       0.04901278 -0.02809712 0.07072861 0.06847402
000270 d1 e1 80 bd d5 27 6f be 5e be 5c 3d 13 da 3d be
       -0.06293071 -0.23355038 0.053892486 -0.1854022
000280 e7 61 25 bd 6c 84 fc 3d 31 47 37 3e 3d b7 48 3e
       -0.04037657 0.12329945 0.17898251 0.1960115
000290 57 60 6b 3d 5e 92 69 bd 81 0f ce 3d 99 f1 27 3e
       0.057464924 -0.057024352 0.10061551 0.16400756
0002a0 5f b5 16 be f3 d7 0b 3c 3f b4 ca bd ae f1 80 3d
       -0.14717625 0.008535373 -0.098976605 0.06296097
0002b0 9b a5 20 3e fd 98 9e 3d cb 7a 91 3d e6 f7 32 3e
       0.15688173 0.07744024 0.07103499 0.17477378
0002c0 ea 5f 39 be b7 37 87 be 8e 3f 99 bc bd 82 34 be
       -0.18102995 -0.26409695 -0.018707063 -0.17627998
0002d0 f9 e0 99 3b 5c 69 d5 3c a0 92 b0 3c 94 92 17 be
       0.0046960083 0.026051216 0.021554291 -0.14802009
0002e0 6d e8 d4 3d ff c1 83 bd 4c 75 96 bd 74 7a 23 3d
       0.10395894 -0.06433486 -0.07346591 0.039911702
0002f0 a2 d7 0c bd 69 29 19 3b 44 f5 1a bc f6 f7 b7 3b
       -0.03438533 0.002337063 -0.00945789 0.005614276
000300 7d 64 04 be 9b 31 ba bd 0b a1 d6 bb 73 85 3a be
       -0.12928958 -0.09091493 -0.0065499595 -0.1821497
000310 1d 16 f6 bd db ce a4 3b f7 97 a9 3c d9 2f da 3d
       -0.120159365 0.005029542 0.020702345 0.106536575
000320 10 68 df bd 58 52 42 3d 90 42 09 3e 51 d6 bb 3d
       -0.1090852 0.04744181 0.13404298 0.09171737
000330 90 53 d3 bd 1e 78 f5 bb 0c ae c8 bd c8 74 99 bd
       -0.10318673 -0.0074911257 -0.09798822 -0.074929774
000340 61 29 5f 3e a6 36 9f 3d cb 97 64 3e 81 55 99 3b
       0.21793129 0.07774095 0.2232353 0.0046793823
000350 3b 0d d1 bc fa 2a 16 be c8 08 21 3d b0 7a e6 bd
       -0.025519004 -0.14664832 0.039315015 -0.112538695
000360 72 d8 19 bd c6 a0 17 be 20 d0 eb 3b b7 99 46 3e
       -0.037559934 -0.14807424 0.0071964413 0.19394575
000370 73 c7 62 3e 7e 47 0a bc d0 6a fe 3d 7b 9e 88 3d
       0.22146396 -0.008439897 0.124227166 0.06670853
000380 6d a2 cf bd e3 fb 22 3e 9f eb 41 3d 41 74 7a 3d
       -0.10138402 0.159164 0.047343846 0.061146025
000390 dd d1 af bd 94 c0 d7 bd af 97 19 3c ec 43 60 3d
       -0.0858495 -0.10534778 0.009374543 0.054752275
0003a0 e1 ee fb 3c 1b 10 60 bd fa 19 17 3e de d1 cf bb
       0.030753555 -0.05470286 0.14756003 -0.006342157
0003b0 f2 f7 c7 bd 26 e7 0a bd e8 78 63 3e 7a e2 97 3d
       -0.09764089 -0.033911847 0.22214091 0.07416244
0003c0 d7 18 7f be a5 cb 68 be 98 ea 8a be 51 5e 8c be
       -0.2491182 -0.22733934 -0.27132106 -0.27415708
0003d0 e6 47 d7 bd 6e 22 f1 3d ac 5d 43 3e fa 32 40 3e
       -0.105117604 0.11774145 0.19078702 0.18769446
0003e0 88 79 cc bd c9 4a f9 3d 56 f3 b2 bd ef eb d7 3d
       -0.09984118 0.12172467 -0.08737819 0.10543048
0003f0 25 a7 cb 3d f6 ed 1e 3e b2 d8 da 3d 05 e3 f5 3d
       0.0994399 0.15520462 0.106858626 0.12006191

down2.bias f4 [16]
000000 f2 39 71 be 19 03 ff 3d 8b c3 ec bd 96 62 dd 3b
       -0.2355726 0.12451763 -0.11560734 0.006756137
000010 94 07 3d 3e c0 d5 5e 3e 7d 25 25 be c2 49 04 3e
       0.18459922 0.21761227 -0.16127582 0.12918761
000020 b6 7d 0a 3e 62 60 9d 3d 16 7e 17 3e c6 66 37 be
       0.13524517 0.07684399 0.14794192 -0.17910299
000030 5b a6 20 bd 53 2b 3b bd 92 e5 34 3d 64 cb a1 3c
       -0.03922115 -0.045695614 0.044164248 0.019750305

conv31.weight f4 [16, 16, 3, 3]
000000 98 81 42 bd 55 6d 95 bd b1 ce 80 bd 9b c5 74 bc
       -0.04748687 -0.07296244 -0.06289423 -0.014939691
000010 1a 17 8c bd 48 5a cf ba 36 07 20 bd 91 ff f5 bc
       -0.06840344 -0.0015819753 -0.039069377 -0.03002909
000020 55 db 1f 3d 1a cd 73 3d 5d 30 bd 3d d6 53 3d 3d
       0.03902753 0.059521772 0.0923774 0.04622253
000030 27 af 1f bc 30 7f 8d 3d 65 1c 19 3d aa b8 ab 3c
       -0.009746349 0.06909025 0.037380595 0.020962078
000040 b8 93 29 bd af 1d 3d 3d 3a 4f 90 bc 02 50 86 3d
       -0.04140064 0.046170887 -0.017615903 0.06558229
000050 10 18 ad 3d 18 0a 55 bc cf 3f 2b bd 56 27 47 bd
       0.08451855 -0.013002895 -0.0418089 -0.048621498
000060 6e fa fa 3d 69 41 9c 3d c3 2a 78 3c a6 5e f1 3c
       0.12254797 0.076296635 0.015146914 0.029464077
000070 b4 ba 75 bd a5 66 d9 bd 63 74 3c bc 17 0d f3 3c
       -0.059992507 -0.10615281 -0.011502358 0.029669328
000080 7f 84 b7 3d 6a 77 08 bd 3e f1 92 3d 61 e7 6a 3d
       0.089608185 -0.033317007 0.071749195 0.057349566
000090 89 a5 0f 3e af 7c 42 3c 28 86 28 3c a2 87 8c 3d
       0.1402799 0.011870547 0.010285892 0.068618074
0000a0 69 98 3e 3e 06 b4 b1 bd 89 d4 04 bc 14 87 88 3b
       0.18612827 -0.08676915 -0.008107313 0.004166493
0000b0 76 e8 c0 bd 21 6d 11 bd 5f 46 1b bc 3e b5 f9 3c
       -0.094193384 -0.035504464 -0.009477227 0.03048193
0000c0 a2 83 d2 3d f7 06 14 bd 2c 3d 0a 3d c7 77 33 3d
       0.10279013 -0.036139455 0.033749744 0.0438154
0000d0 d9 a4 2c bc f6 09 2b ba 6f 65 d9 bd be 8d e5 bd
       -0.01053735 -0.00065246166 -0.1061505 -0.11208676
0000e0 cf 4a 94 bd 9d 3e 02 be 50 a2 52 bd a1 06 23 bc
       -0.07240831 -0.12719198 -0.051424325 -0.009950311
0000f0 03 f9 c6 bd 7f 16 1a bd d4 dd c8 bc 37 bb 2a 3d
       -0.09715464 -0.03761911 -0.024519838 0.04168245
000100 ad 0e 98 bc 3d 94 b9 3c 12 fb 09 3d e3 3f d7 3c
       -0.018561685 0.022653693 0.033686705 0.02627558
000110 35 8f 17 bb 01 d2 8f 3b 11 30 94 bc 6e 9d 1f 3c
       -0.002312613 0.004389048 -0.018089326 0.009742124
000120 f0 a0 49 ba 98 a8 28 3d d0 26 18 3c 29 64 b9 3d
       -0.0007691523 0.04117641 0.009286597 0.09052307
000130 12 5e 06 3d b3 d2 2e 3d 08 8c 5c 3d 3d 64 4f bd
       0.032804556 0.042681407 0.05384448 -0.050632704
000140 1b 82 b1 3c 41 e1 13 3b af 04 bf 3c d1 17 8a bc
       0.021668484 0.0022564682 0.023317663 -0.01685706
000150 83 58 23 3d 5a 5e 8e bc 37 33 60 3d a9 c7 f3 3d
       0.039879333 -0.017378975 0.054736342 0.119033165
000160 43 b4 11 3d 01 3a 81 3d 78 5b de bc 6f e3 b6 3d
       0.0355723 0.063098915 -0.027143225 0.08930098
000170 cb aa cd 3d d3 cf ee 3d 36 d5 02 bd 72 5c f7 3c
       0.10042342 0.11660733 -0.031941615 0.030195449
000180 26 63 9f bc 9f 9a b2 bc eb d4 4a bd 43 f2 04 be
       -0.019456457 -0.021802245 -0.04951946 -0.1298304
000190 31 63 b8 bd 4c 41 be bb 01 32 5d bd 09 59 1c 3d
       -0.09003294 -0.005806124 -0.054002766 0.038170848
0001a0 93 7a af 3c 29 d6 f3 bd de 1f a7 3c e3 e1 50 3c
       0.021420753 -0.11906082 0.020400938 0.012749168
0001b0 71 93 88 bc 6c 3a c3 3c cf f8 1d bd fd bb 07 be
       -0.016671868 0.023831569 -0.03856736 -0.13255306
0001c0 11 5c 15 bb dd 96 a6 3c 4e f7 37 3c d0 5e 30 bd
       -0.0022790472 0.02033561 0.011228396 -0.04305917
0001d0 f8 34 89 bd 89 fd c5 3d 58 2b 39 3d 86 92 3a 3c
       -0.06699556 0.096674986 0.04520735 0.011387473
0001e0 53 c2 89 3c 55 67 09 bd d0 d4 93 3d 05 be 0f 3d
       0.016816294 -0.03354581 0.07218325 0.035093326
0001f0 ed dd 8e 3d 74 8d ab 3d 86 31 67 3d c0 3d 4e 3d
       0.06975923 0.083765894 0.056443714 0.05035186
000200 2b d7 f0 3a 98 c0 00 3e 79 51 81 bd ac 1b c5 3b
       0.0018374672 0.12573469 -0.06314368 0.0060152616
000210 00 87 3c 3d ee 74 15 3d 8c 42 ce bc 21 e4 c6 bd
       0.046027184 0.036488466 -0.025178216 -0.09711481
000220 09 ba 7e bd d2 0c 7f 3c 35 58 10 be 85 3e a1 bd
       -0.062189136 0.015567021 -0.14096148 -0.07873253
000230 77 ce f1 bb 2e 80 d0 bd b6 a4 dd 3c ac bb 97 3d
       -0.007379349 -0.10180698 0.02705608 0.074088424
000240 e0 43 39 3d 2b 3a a9 3d 75 6f a5 bd 6c fb a9 3c
       0.045230746 0.08263048 -0.08077899 0.02074977
000250 b8 77 3c bd 3a 8d 16 be fa 86 02 3d 3b 5b 84 bd
       -0.04601261 -0.14702311 0.031867005 -0.06462713
000260 15 03 14 be e2 cc fa bb 74 54 99 3d 7a 51 ef 3d
       -0.144543 -0.0076538185 0.07486811 0.11685462
000270 b6 75 13 3d cc 9a 48 3d 0e 1d 94 3d c4 6e c2 bd
       0.03600093 0.04897575 0.07232104 -0.09493783
000280 0e d2 a6 3d b3 da 01 bd 90 3e 52 3c 91 df 84 3c
       0.081455335 -0.03170271 0.012832299 0.016219886
000290 0d 90 88 3d fa 2e 74 bc ba c9 b7 bc 8f 6f 1f 3e
       0.066681005 -0.014903778 -0.022435058 0.155699
0002a0 14 52 4b bc 7f 27 96 3d 2b 4d bf 3d a5 7e be 3d
       -0.012409706 0.07331752 0.093408905 0.09301499
0002b0 b3 b3 87 3d f9 86 88 3b 20 c1 fa 3d ab 4b b2 bc
       0.06626072 0.0041664806 0.12243867 -0.021764597
0002c0 bc f8 17 bd 92 d6 af 3d 25 7f 22 3d 50 e1 89 bb
       -0.037102446 0.08585848 0.039672036 -0.0042077675
0002d0 2e 17 5f bd b1 2a 29 be 22 e7 c4 bd d4 80 5f bc
       -0.054465465 -0.16520192 -0.096143976 -0.013641555
0002e0 e9 57 0b be eb 23 e7 bd 59 22 85 3d 36 74 19 bc
       -0.13607754 -0.11286148 0.06500692 -0.009366086
0002f0 b2 05 e6 bd c0 3c b5 bc f6 ed 9b 3c 58 9c 96 3c
       -0.11231555 -0.022123694 0.019034367 0.018385097
000300 dd da 4d bd 03 40 c1 3b f2 7b 8b 3d 33 14 f8 bd
       -0.050257552 0.0058975234 0.0681075 -0.12113228
000310 2d 6f 74 bc e2 2c 3e 3e 22 fd 62 3d 8b 96 98 3d
       -0.0149190845 0.18571809 0.055417188 0.07450589
000320 d3 46 a1 bc 8d b9 5f 3d 33 83 3e 3c 64 7f 93 bd
       -0.019687092 0.054620314 0.01162796 -0.07202032
000330 7f ee bb bc 38 84 aa bd 65 e9 dd bd 70 70 ff bc
       -0.022940872 -0.08326 -0.10835532 -0.031181544
000340 d9 b6 ca 3c 8e a4 9a 3d 48 4b 0e 3b ea 1f c2 3c
       0.024745392 0.075509176 0.0021712352 0.023696858
000350 ef cf 6a 3d 30 c8 0c be 12 2e 7f bd 94 ed b6 3c
       0.057327207 -0.1374824 -0.062299795 0.022330083
000360 a4 66 3a bc d8 08 d6 3c cd a7 cc 3d f4 01 e0 bd
       -0.0113770105 0.026127264 0.09992943 -0.109378725
000370 ad 06 02 bd b5 04 08 3d 5f a1 d3 bd bb 35 75 bc
       -0.031744648 0.033207614 -0.103335135 -0.014966424
000380 e4 c2 8c 3d 23 be 1f bd 7b 22 e0 bc 02 87 62 3d
       0.0687311 -0.038999688 -0.027360192 0.055304535
000390 a3 db e2 bd 2b 04 e0 bd b4 78 96 3d 93 b4 96 bd
       -0.11077049 -0.10938295 0.07347241 -0.073586605
0003a0 53 23 d0 bd 72 e6 c5 3d c9 48 90 bc 0d 3f f6 bc
       -0.101629876 0.096630946 -0.017612832 -0.030059362
0003b0 49 53 eb bc 12 f8 3a bd 64 21 b1 bd 0e d6 95 3d
       -0.028726237 -0.045646735 -0.08648947 0.07316218
0003c0 93 21 35 3c 30 f5 95 3d 97 59 e8 3d 5e f6 76 3c
       0.011055368 0.073221564 0.11345213 0.015073387
0003d0 18 65 51 3d 62 28 00 3d c8 ba 0a 3d 9a 61 cf 3d
       0.0511218 0.031288512 0.033869535 0.10126038
0003e0 9f 2d 9b bc bb 9d e5 bc 81 b1 a0 3d 1c dd e3 bd
       -0.018942652 -0.028029313 0.07846356 -0.11126158
0003f0 b7 71 d7 3b f8 55 13 bd 43 23 b1 bd 9a b9 f4 3d
       0.006574835 -0.035970658 -0.08649304 0.11949463

conv31.bias f4 [16]
000000 e3 5d 10 3e 16 b5 0e 3d aa ee d1 3d fc b0 26 3d
       0.14098315 0.034840666 0.102506 0.04069613
000010 74 0a c9 3c e8 25 02 3d a7 9d bb 3d 00 48 22 bd
       0.024541117 0.03177443 0.09160929 -0.039619446
000020 43 d1 92 bd 38 8c 90 b9 03 10 0b 3e 5f d9 07 3d
       -0.0716882 -0.0002757029 0.13580327 0.033166286
000030 05 cf 02 3e 0c a1 ba 3b 41 30 45 bd 98 a9 40 bd
       0.12774284 0.005695468 -0.04814172 -0.047036737

up2.weight f4 [16, 8, 2, 2]
000000 5c b1 0f be d0 5e e4 3c f4 2b 1e bb 78 2f 16 bd
       -0.14032501 0.027877241 -0.0024135085 -0.036666363
000010 41 16 9f 3d 0d db 9a 3d 6d 99 30 be 39 d4 3a be
       0.077679165 0.07561312 -0.17246027 -0.18245019
000020 b3 7e 00 3e 6b 09 85 bd 4a b6 43 3d 57 1d 18 bc
       0.12548332 -0.06495937 0.047781266 -0.009284339
000030 93 7b 8a bb 2e 57 13 be 47 b4 0e bd b0 82 d9 bd
       -0.004226157 -0.14388725 -0.034839895 -0.1062063
000040 7b 22 39 bd 89 51 58 bd 51 b8 a7 3d 68 2d 10 3e
       -0.0451989 -0.052812133 0.081894524 0.14079821
000050 6c 6c 1f bc cd 82 35 bd cd df 09 3e d9 77 07 3e
       -0.00973044 -0.044314194 0.1346428 0.13229312
000060 bc 4b ef bc 78 34 25 be dc 6b 40 3d bc 08 26 3d
       -0.029210918 -0.16133296 0.046977863 0.040535673
000070 21 71 1c be 09 25 43 be fe a4 40 bc 14 c9 fd 3d
       -0.1527753 -0.19057097 -0.011758087 0.12391868
000080 83 7a 08 be 5d be ce bd 77 f4 8e bc e2 34 69 be
       -0.13327985 -0.10094903 -0.017450554 -0.2277408
000090 a4 f7 0b be ef 82 f5 3d f2 49 07 3e 90 bd ce bd
       -0.13668686 0.11987864 0.13211802 -0.1009475
0000a0 28 79 24 3c ca 16 3b be 5c 6f 99 3d 1f b8 31 be
       0.0100386515 -0.18270412 0.07491943 -0.17355393
0000b0 04 10 d0 bd 40 99 b5 bc dc 8f 09 3d 7e 7b 3a 3e
       -0.10159305 -0.022167802 0.03358446 0.18211171
0000c0 df 8e 72 bd 00 f7 23 3b fa 9a 08 3e 09 53 22 bd
       -0.059218284 0.002501905 0.13340369 -0.03962997
0000d0 fd 68 be 3d 03 f4 93 3d 81 94 48 3c 97 32 2b 3e
       0.09297369 0.07224276 0.012242437 0.16718517
0000e0 88 22 af 3d cc a3 8c bd e1 14 3e 3e 21 a5 42 3e
       0.08551508 -0.06867179 0.18562652 0.19008304
0000f0 5c a5 b4 bd 41 e3 80 3e 7a ad 22 bc 2b 97 05 3e
       -0.08820602 0.2517338 -0.009929055 0.13045947
000100 d2 7b 10 be 62 30 21 3e ef db 2b 3e e3 99 c3 bd
       -0.14109734 0.15741113 0.16783117 -0.09550836
000110 cc e0 41 be c6 e9 b0 bd 7a b0 01 be de d4 96 3b
       -0.1893341 -0.08638339 -0.12664977 0.0046030125
000120 a5 79 ca 3d 8f ce a2 3c 54 72 0c 3e 5e d8 31 3d
       0.09886483 0.019873885 0.13715488 0.043419234
000130 47 d6 af bd da 75 48 be fa 90 a6 3c 15 57 57 be
       -0.08585792 -0.19576207 0.020332802 -0.21029313
000140 2c 00 f9 3c f1 35 7c 3d 21 67 64 bd ce 44 ab 3d
       0.03039559 0.06157488 -0.055762414 0.08362733
000150 7f a5 f1 3c 72 cd 9f 3d e9 d3 d5 3d 7f 4c 18 be
       0.02949786 0.078028575 0.10440809 -0.14872931
000160 0e f4 0c be a6 c1 ad bd c1 9f ff bd b3 65 2b 3d
       -0.13764974 -0.08484201 -0.124816425 0.041845035
000170 a7 41 07 be e4 47 2b be 6d 9d 6a 3c 49 0a 4a 3d
       -0.13208638 -0.16726643 0.01431976 0.049326215
000180 49 45 14 3b bd b8 29 be 9e 5c 18 3d f7 89 ef 3d
       0.0022624305 -0.16574378 0.0371977 0.116962366
000190 b6 34 f5 3d 03 17 15 bb 95 b9 c2 3d 70 f2 45 be
       0.119729444 -0.0022749312 0.09508053 -0.19330764
0001a0 95 59 24 3e 37 c1 ae bd 3a 35 f5 bd 74 a1 25 3e
       0.16049798 -0.085329466 -0.11973043 0.1617487
0001b0 9a 97 8e bd 74 e1 96 3d c2 c6 33 be 8b fa b9 3d
       -0.069625095 0.073672205 -0.17556289 0.090809904
0001c0 4a d4 47 3e 0e a6 b1 3d f0 a9 5a 3e ec 55 88 bd
       0.19514576 0.086742505 0.21353889 -0.06657013
0001d0 34 b4 1e 3d ec 22 fb 3d 00 74 f8 3d 6f 66 99 bd
       0.038746074 0.1226252 0.121315 -0.07490241
0001e0 cf aa f6 3d c6 0d 57 bd 28 56 99 bd 8b d3 28 3d
       0.12044298 -0.05250337 -0.07487136 0.041217368
0001f0 c5 a6 2b be e9 8b 62 be 7f e0 64 bd 18 7b df bc
       -0.16762836 -0.22123684 -0.05587816 -0.027280375
000200 35 c1 9f 3d 15 f8 5a 3c 29 f9 0e be f6 ac 16 be
       0.07800523 0.013364811 -0.13962235 -0.14714417
000210 22 77 46 3e 8c 5d 0a be 76 f3 91 3d c0 65 29 3e
       0.19381383 -0.13512248 0.071265146 0.16542721
000220 69 e5 03 3e 9d f4 eb bd 61 23 c9 bd d2 03 23 be
       0.12880482 -0.11521266 -0.09821201 -0.15919426
000230 ee c0 fd 3d c0 c3 25 be d6 d8 07 be 28 17 d2 bd
       0.12390314 -0.16187954 -0.1326631 -0.10258323
000240 96 3c 06 3e a8 ac cf 3d c0 a4 ba 3d 89 d9 04 3e
       0.13109049 0.101403534 0.09113455 0.12973608
000250 de 96 00 bd 25 c7 a5 bd 45 a9 d8 bd 32 7f ae 3d
       -0.03139388 -0.080946244 -0.105791606 0.08520354
000260 89 8c 9d 3d a8 df f1 3c 07 f1 ac bd aa 6b 06 3d
       0.076928206 0.029525593 -0.0844441 0.03281752
000270 b9 a9 a1 bd bd a6 2f bd 7d 72 bc 3a e5 9b 39 bc
       -0.078937 -0.042883623 0.0014377382 -0.011328672
000280 a3 b3 87 be a4 d0 e4 3d df 26 7e bd 86 5c 59 3c
       -0.2650424 0.111726075 -0.06204879 0.013266688
000290 c8 74 65 3e 81 72 3f 3e d3 03 82 3e 89 0a 5c 3e
       0.2240783 0.18696024 0.25393543 0.21488394
0002a0 8e dd c1 3d 6e f9 61 bd 46 93 95 3d ee 45 37 be
       0.09466086 -0.055169515 0.07303481 -0.1789777
0002b0 bf 9e 26 3c 54 67 44 3e d7 44 1b 3e 75 be df 3d
       0.010169684 0.19180042 0.15162979 0.10924999
0002c0 68 c3 74 be 89 47 72 bd 95 c4 50 3d 3b 2e 19 be
       -0.23902667 -0.059150252 0.050968725 -0.14959042
0002d0 2b 62 7f ba 21 15 dc 3c 49 70 16 be cb b2 16 bb
       -0.0009742106 0.026865544 -0.14691271 -0.0022994753
0002e0 77 35 09 bc 60 f4 26 bd 29 d9 08 3e 6b ce 24 3e
       -0.008374563 -0.040760398 0.1336409 0.16094367
0002f0 05 28 f5 3d 7a 61 75 3e c4 71 bf bd b8 1e 9e 3d
       0.11970524 0.23962966 -0.09347871 0.07720703
000300 12 f1 77 bd a1 d0 f5 bd e0 2b 12 bd c6 14 15 bd
       -0.060532637 -0.120026834 -0.035686374 -0.036396764
000310 8e 94 02 3e bd 0a 61 3e 0b a0 45 3e cc 43 92 3e
       0.12751982 0.21976753 0.19299333 0.2856735
000320 8c c1 e0 bd 11 25 5a be 49 63 03 be 00 55 5d be
       -0.10974416 -0.21303202 -0.12830843 -0.21614456
000330 3d c0 e1 bc 52 60 1e 3e cc 2d 4b bd d3 84 e3 3d
       -0.027557487 0.15466431 -0.049604222 0.111093186
000340 a3 fd 48 be e0 9e 3b bd b7 68 8f bd 88 01 44 bd
       -0.19628005 -0.045805812 -0.07002395 -0.047853023
000350 51 16 40 3e ee 37 8c 3e 64 19 2c 3d 6b 24 34 be
       0.18758513 0.2738642 0.042016402 -0.17592017
000360 14 08 9f 3e 8b 7b d7 3c 13 d2 2a 3e 3a 5d ca 3e
       0.3106085 0.026304027 0.166817 0.3952425
000370 77 d7 67 3e 6f e9 4d 3e 6d 2f 49 be b2 31 a8 3d
       0.22640787 0.20108579 -0.19646998 0.08212604
000380 e7 eb 08 3e 73 e3 94 bd 73 ae 1f bd bb 24 0d be
       0.1337124 -0.07269945 -0.038984727 -0.13783543
000390 35 af a7 3c 0b f7 3e 3c f5 72 0e 3d 7a 5d 86 bd
       0.020469287 0.011655579 0.0347776 -0.06560798
0003a0 75 3d 0a be cd 24 33 bd 91 22 ed bd f9 cb 01 bd
       -0.13500006 -0.043736268 -0.11578859 -0.031688664
0003b0 61 6b 2d 3d a8 00 1d be f3 01 99 3b 04 d2 1c be
       0.042338733 -0.15332282 0.004669422 -0.1531449
0003c0 5b af e7 bd 7f b7 f4 bd ca ff b7 bc 5d 94 a1 bd
       -0.11312743 -0.119490616 -0.022460837 -0.07889626
0003d0 b1 86 4d 3d d8 cc 05 3e e9 14 14 3e 51 06 26 3d
       0.05017728 0.13066423 0.14461102 0.040533368
0003e0 d7 58 06 bc 69 19 33 bc 1a 4f 0c 3e 98 b1 8d bd
       -0.008199892 -0.010931351 0.1370205 -0.06918639
0003f0 ec 88 0c 3e f7 00 38 be 83 d6 21 be cd 10 84 3d
       0.13724107 -0.17969118 -0.15804486 0.06448517

up2.bias f4 [8]
000000 f8 4e fd 3c 57 62 7f 3c 0b 78 e2 3b 87 a6 c0 3d
       0.030921444 0.015587411 0.006911283 0.094067626
000010 06 01 8d 3d 78 99 77 3e 25 8a 04 3e 6d a5 60 be
       0.06884961 0.24179637 0.12943323 -0.21938105

conv22.weight f4 [8, 8, 3, 3]
000000 0a ca c0 bd 83 39 25 3d a4 ff 6d 3d 8e e1 e3 bd
       -0.09413536 0.04033805 0.058105126 -0.111270055
000010 88 b3 83 bd 9e 64 3a 3b 52 85 94 3d f0 95 af 3d
       -0.06430727 0.002844132 0.07251991 0.0857352
000020 57 40 27 3c b8 f0 81 3c f0 49 ad bd 6a 2d b0 3d
       0.010208211 0.015861854 -0.08461368 0.08602412
000030 b2 76 fb bd b8 1b ec bc fc 24 f0 bd fd d3 03 be
       -0.12278499 -0.028821811 -0.11725804 -0.12873836
000040 3f 9b 1c be a5 a6 a2 3c c6 17 c4 bc 44 09 19 bd
       -0.15293597 0.019854853 -0.023937117 -0.037362352
000050 f2 49 63 3c c7 f8 d7 3a 8b 16 b9 bd 34 ed 9b 3c
       0.01387261 0.001647734 -0.09037503 0.019034006
000060 01 18 b7 bd f7 37 aa 3c fb 8f a6 bd 74 05 19 be
       -0.08940125 0.02077864 -0.08132931 -0.14943486
000070 cd 56 25 bd a4 0a 31 3d bd 4f db 3d d3 dd 24 3c
       -0.040365983 0.04322304 0.10708568 0.010062653
000080 fd 83 ba 3d cf ad 0a be 77 06 1e 3d de 01 47 3c
       0.09107206 -0.13542865 0.038580384 0.012146441
000090 4c 13 fb bd a8 5c a1 bd 0e 60 a9 3c 3f 62 cb bc
       -0.1225954 -0.07879001 0.020675685 -0.02482712
0000a0 1d d1 b1 bd e6 32 cc bd 5c 9d 9f 3d 63 76 02 3c
       -0.08682463 -0.099706456 0.07793686 0.007962796
0000b0 19 a9 17 bd 6f b7 0d be dd 8a b2 3d 9e 6d c7 bd
       -0.0370265 -0.13839506 0.08717892 -0.09737705
0000c0 be 93 41 bc a6 b5 22 bd ac a0 03 ba 5d f4 21 3c
       -0.01181501 -0.039724015 -0.00050211954 0.009884921
0000d0 d3 32 2e bd 33 8b 95 bd 69 a1 10 3d 70 91 09 be
       -0.04252894 -0.07301941 0.035310183 -0.13434386
0000e0 48 42 1c bd f0 42 f0 bd 7c 4d c2 bd 36 24 ce 3b
       -0.03814915 -0.11731517 -0.09487435 0.006290938
0000f0 20 17 58 bc c4 2f 2f be 37 5f 29 3d 47 8a f1 bc
       -0.013189107 -0.17108065 0.04135057 -0.029484881
000100 53 5e 06 3e ba e4 83 bd fe 3a a5 3d 97 b7 60 bc
       0.1312192 -0.064401105 0.080678925 -0.013715646
000110 04 e2 68 bd 08 3e da 3d 73 2b 25 39 0e 2b 3b bd
       -0.05685617 0.10656363 0.00015751812 -0.045695357
000120 a0 c9 23 3d ea de 7d 3d f5 a3 72 bd a2 66 a9 3d
       0.039987206 0.061980166 -0.059238393 0.08271529
000130 aa 0e ab bb 6b 1d df bd 1a cb cc bd 00 e8 a4 3d
       -0.005220254 -0.10894283 -0.09999676 0.08052063
000140 f0 cc d3 bd f1 f4 5a 3c 58 4e 25 be 7d e3 c9 bc
       -0.10341823 0.013364063 -0.16143167 -0.024644608
000150 41 4a e5 bd b8 8a e0 3c 1a 47 9f 3d d8 bd de 3c
       -0.111958034 0.027409896 0.077772334 0.027190134
000160 31 4b 9a bd c1 1c b6 bd 92 72 59 bd 25 86 1a bd
       -0.07533873 -0.08892203 -0.05308778 -0.037725586
000170 b5 ca c9 3d 9e 84 a0 39 3d 67 0d 3d 9e c3 0f 3e
       0.098531164 0.00030616386 0.034522284 0.14039466
000180 33 74 b8 3d 09 01 a5 bd 2e 6d 31 3d a1 5a 18 bd
       0.09006538 -0.08056838 0.043317012 -0.037195805
000190 4f bb 81 3d fd 2a 58 3c 5e 4b 53 bc 0f 22 ce 3d
       0.063345544 0.013193843 -0.012896387 0.1006509
0001a0 7e d0 4a 3d 5e f6 1f 3d 12 03 9a bd b7 24 ca 3d
       0.04951524 0.039053313 -0.07520117 0.09870284
0001b0 b1 f3 d7 3c e8 69 94 bc 3d 1d de 3c ad c0 97 bd
       0.026361318 -0.018116906 0.027113551 -0.07409797
0001c0 a8 3f 31 ba 1d 15 3a 3d be fb c4 bd 51 c9 2f bd
       -0.00067614997 0.04543029 -0.096183285 -0.0429166
0001d0 48 38 97 3d 46 29 f4 bb c0 41 2b bd 9e 05 8b bc
       0.07383782 -0.0074512092 -0.04181075 -0.016970452
0001e0 f2 59 8f bd d8 c5 95 3d 46 c6 4f bd a4 a0 54 bd
       -0.069995776 0.07313126 -0.050726198 -0.05191101
0001f0 5b a3 fd 3c 05 e4 17 be ad a4 8e bd 10 2a 8e 3c
       0.030961683 -0.14833076 -0.06965003 0.017354041
000200 aa f8 5b bd c5 7c 8a 3d 1c d8 03 be c4 19 08 bd
       -0.05370394 0.06762079 -0.12875408 -0.033227697
000210 2f 6b a9 bd 54 29 24 3d 89 02 28 3d 12 14 fe bd
       -0.08272397 0.040078476 0.041018043 -0.12406172
000220 f5 9d 61 3d ab ef 0f bc 31 9a 24 3e bc bc 8c 3d
       0.05508228 -0.008785169 0.16074444 0.06871936
000230 79 5a 8f bc c6 6a 2b 3d 04 35 c7 bc d4 1e ba bc
       -0.017499195 0.041849874 -0.024317272 -0.022719778
000240 aa 7b 8b 3b 29 42 cd 3d 13 43 c2 3b 21 87 31 be
       0.0042566853 0.10022385 0.005928406 -0.17336704
000250 97 93 81 bd 72 61 69 3d 6c fa c5 bc 77 8f 92 bd
       -0.06326979 0.056977697 -0.024167262 -0.0715627
000260 f6 bf ad bd 6c 39 e4 bd b7 bc e0 bd 35 94 f2 bc
       -0.08483879 -0.11143765 -0.109734945 -0.029611686
000270 bb 8c 34 bc c1 c7 41 3d 25 82 d2 bb d9 4e 8c bd
       -0.011019881 0.04730964 -0.006424206 -0.068509765
000280 61 f2 9c 3c 5f b2 00 3d 97 6c f6 bd 6e fe c7 3d
       0.019158544 0.031420108 -0.120324306 0.097653255
000290 03 a1 1a bd e5 ee 04 3e f8 a4 d2 bd 47 0a ea 3c
       -0.03775121 0.12981756 -0.102853715 0.028569354
0002a0 9c 26 2a bd 1f 72 81 3d 2a 3a 51 bc 3b f7 ef bd
       -0.041540727 0.06320595 -0.012770215 -0.11717077
0002b0 a9 ab 5b 3c b4 d3 71 3d 44 e5 d8 bd 4e 4c e2 bd
       0.013407626 0.059039786 -0.10590604 -0.1104971
0002c0 bd a3 a1 bd e9 de 73 bd 61 82 43 bc f9 dc d8 3b
       -0.07892559 -0.059538756 -0.01193294 0.006618139
0002d0 45 82 6c 3c 96 74 b4 bc 0a 1f 77 3d 71 49 ec 3c
       0.014435356 -0.022028249 0.060332336 0.028843613
0002e0 95 27 9e bd f9 cb 46 bd e1 26 91 bd 41 01 49 bd
       -0.077223934 -0.048534367 -0.07087494 -0.04907346
0002f0 04 dc 0b be c6 88 38 3c a5 89 f4 bd 7e 13 b2 3c
       -0.13658148 0.011263078 -0.11940316 0.02173781
000300 92 44 1c 3c 39 d6 db bd 58 ef 0e be a0 05 f5 bd
       0.009537833 -0.10734219 -0.1395849 -0.119639635
000310 3a 12 2b bc 6c c4 9b bc a2 e2 f6 bd 14 f5 57 3d
       -0.010441357 -0.01901456 -0.120549455 0.05272396
000320 1e 54 df 3b 70 66 b5 bd 58 08 ae bd 4f eb 74 bd
       0.0068154475 -0.08857429 -0.08497685 -0.05979472
000330 53 66 51 bd 68 4d 16 3d 59 0b 0a bd ca a7 e7 bd
       -0.051122975 0.036694914 -0.03370223 -0.113113
000340 9f c4 99 3d c4 50 dd bd df 80 6b ba 1b 96 9e 3a
       0.075082056 -0.108064204 -0.0008983742 0.0012099178
000350 32 16 ba 3d 98 90 18 3e 44 65 1f bd bb 7b 67 3d
       0.09086265 0.14898908 -0.038914934 0.056514483
000360 39 c0 81 bd 44 18 3b 3a 1a 0b f8 bc 98 14 82 3d
       -0.06335492 0.00071371 -0.030278731 0.06351584
000370 3e fe ab bd 41 ed f4 3c 98 84 6d 3d 4c 8f ba 3d
       -0.08398102 0.029898288 0.05798778 0.09109363
000380 18 ee 58 bd 66 e7 2c be 04 82 c9 be 26 cd 8e bd
       -0.05296144 -0.16885146 -0.39357007 -0.06972723
000390 80 c3 a9 be d4 29 5f be bc e3 f8 bb be bf c3 be
       -0.33156967 -0.217933 -0.0075955074 -0.38232225
0003a0 74 7d 37 be 3b c0 17 be 0c 0e 21 bc bd fd 2b 3d
       -0.1791895 -0.14819424 -0.009830009 0.04199003
0003b0 0e c3 59 bd f9 2f 55 bd 55 3f 1c bd d7 d2 03 3e
       -0.053164534 -0.052047703 -0.038146336 0.12873398
0003c0 3a f9 bf 3d e5 a9 cc 3b 8b db 24 3d e7 76 24 be
       0.09373708 0.006245839 0.040248435 -0.16060983
0003d0 66 90 37 be 68 b1 10 be be d2 2f be ae 8a 83 3c
       -0.17926177 -0.14130175 -0.17170236 0.016057339
0003e0 62 5d be bd 31 fa af bd 6d 9e 23 be 51 05 db bc
       -0.09295155 -0.08592642 -0.15978403 -0.026735933
0003f0 08 b9 ec 3b 39 3c 27 bd 9d eb 16 3e d6 f1 df 3d
       0.007224206 -0.040828917 0.14738317 0.109347984

conv22.bias f4 [8]
000000 68 c4 07 bd 4b e8 4e bd f7 80 77 3c df 33 02 bd
       -0.033146292 -0.0505145 0.015106431 -0.03178775
000010 fd 06 06 3c 1f 98 c1 3c a8 53 69 bd 21 d8 8a bd
       0.008180377 0.023632107 -0.056964546 -0.067795046

up1.weight f4 [8, 4, 2, 2]
000000 0c 10 98 3d 8d 1d 94 3d 84 14 9a be 71 1c 70 be
       0.07424936 0.07232199 -0.30093777 -0.2344835
000010 8f a7 8b be 73 b4 44 3d 4b 8d ea 3d fe 70 49 be
       -0.27276275 0.048023652 0.11452731 -0.1967201
000020 e0 6f 15 3d 5a fb af 3d d3 10 18 be fa ee 2a 3c
       0.036483645 0.085928634 -0.14850168 0.010432953
000030 c8 d0 23 3e 06 51 0b 3e e4 7f 49 3e c6 7c af bc
       0.15997612 0.13605127 0.19677693 -0.021421801
000040 33 f9 4c be 8c ef 01 be ed 1c 3d bd 07 35 f5 bd
       -0.20016937 -0.12689036 -0.046170164 -0.11973005
000050 46 56 59 3e ba 30 f5 bd ad 85 2a bd 47 af 12 be
       0.21224317 -0.119721845 -0.04163139 -0.14324676
000060 44 d8 01 be 09 49 4a 3e 1b 18 00 3a 9e be 5c bd
       -0.12680155 0.19754423 0.00048864045 -0.053892724
000070 5b 04 02 be a4 f3 8d be c9 22 63 be 95 1d c9 3d
       -0.12696974 -0.27724946 -0.22181238 0.098200954
000080 e1 54 65 be 9f 20 97 3d 4a 74 1f be 62 d7 45 bc
       -0.2239566 0.07379269 -0.15571705 -0.012075277
000090 95 8f 16 3e 0a da d8 bb a4 c9 88 3c 01 21 25 3e
       0.1470321 -0.006617789 0.016697712 0.16125871
0000a0 14 62 39 be 28 90 0a 3e 34 3c 80 be 6b 0d 0b 3e
       -0.1810382 0.13531554 -0.2504593 0.13579337
0000b0 72 e4 df bd 35 a9 8f bd b1 97 3d 3e 4c 8e 0f 3d
       -0.10932244 -0.070146956 0.18514897 0.035047814
0000c0 7a b9 b2 3e 53 26 ca 3c f3 5f 8d bd 81 52 84 3e
       0.34907132 0.024676478 -0.069030665 0.25844195
0000d0 e8 78 9c bd bd ff 86 3e 12 d1 94 3e a0 42 61 3e
       -0.076402485 0.26366988 0.29065758 0.21998072
0000e0 84 e6 90 3c 9c 14 68 3d fa 5f 5d be 2c cd b6 bd
       0.017688043 0.05666028 -0.21618643 -0.08925852
0000f0 d1 4d 5a 3d da d0 c4 bd d2 8b 5b 3e 9f c8 5b 3e
       0.053296868 -0.09610148 0.21440056 0.2146325
000100 b2 bb b9 bc 3a 44 8d bd 66 a7 50 3e 2a e0 96 bd
       -0.022672508 -0.06897779 0.20376357 -0.07366975
000110 cf 15 ab 3e 65 74 79 3e 1c cb a7 bd 4e 30 70 be
       0.33415076 0.24360807 -0.08193037 -0.23455927
000120 9d f8 4f 3e 47 e8 b4 bd 3b e4 3e 3e 7d 43 6e be
       0.20309682 -0.08833366 0.1864175 -0.23267932
000130 a0 a9 63 3d 8b 84 9b 3d 5a 62 da bc b8 e7 0d 3e
       0.05558169 0.0759364 -0.026658226 0.13857925
000140 c8 17 19 be 1b b7 44 bc db 61 c9 3c 00 cc 6f 3e
       -0.14950478 -0.012006546 0.024582794 0.23417664
000150 a2 72 2f 3e 17 d2 69 3e c1 04 1d 3e b2 a1 8a 3e
       0.17133573 0.22834049 0.15333845 0.2707649
000160 04 3f 80 3c 21 80 30 bd 95 68 a0 bb af 7e 00 3e
       0.015655048 -0.043090943 -0.0048952796 0.12548326
000170 e4 2f b1 3c bf 5c fa 3d dc 74 c5 3d 91 4f 17 3e
       0.021629281 0.12224721 0.0964143 0.14776446
000180 b7 8c a9 3e 8e bd 1a 3e 74 9d 67 3e d6 70 3f bc
       0.3311517 0.15111372 0.22618657 -0.011684617
000190 c2 2b 48 be 88 27 60 3e 57 fa 05 3e 93 f7 72 3e
       -0.19547942 0.2189008 0.13083778 0.23727255
0001a0 17 67 32 3e ba a8 c7 3c 03 99 6a be 6b 87 80 be
       0.17422138 0.024372447 -0.22909932 -0.25103316
0001b0 6d 56 ff 3d 9b bc 86 3e d5 f2 75 3c d8 44 43 bd
       0.12467656 0.2631577 0.015011509 -0.047673076
0001c0 54 7a ae 3d 70 79 0e be 02 03 fe bc 1b f8 9a be
       0.08519426 -0.13913512 -0.031007294 -0.30267414
0001d0 42 13 8b be d9 86 48 be 23 72 16 be b0 fd 2e 3b
       -0.2716313 -0.1958269 -0.14691977 0.0026701503
0001e0 e9 cd 80 bc 21 b0 4e be 8e 23 5e be ea e3 7c 3b
       -0.015723186 -0.20184375 -0.2169325 0.0038587996
0001f0 86 c0 f0 bd f5 be b3 bd da 5a bd 3d a7 a3 1b be
       -0.11755471 -0.087766565 0.09245844 -0.15199147

up1.bias f4 [4]
000000 ed c7 26 3e b5 19 a3 3e dc 22 fc 3d cc e5 64 3d
       0.16287203 0.3185555 0.123113364 0.055883214

conv13.weight f4 [2, 4, 3, 3]
000000 4e 9e 7d bd f6 65 82 bd bb b2 46 bd 1b c2 9f 3d
       -0.06191855 -0.06367104 -0.048510294 0.078006946
000010 8b 99 65 3e 33 f1 fa b9 33 0c 53 3e b3 2c 99 bb
       0.22421853 -0.00047863423 0.20610122 -0.004674518
000020 83 50 2e 3d 29 3c b1 bd a6 10 97 3d be 90 fc 3d
       0.04255725 -0.08654053 0.07376222 0.12332295
000030 68 fa af 3d 9c 2f 0f 3d 60 ec a4 bd ad d4 0b be
       0.08592683 0.034957513 -0.080528975 -0.13655348
000040 72 fc 9f bd ec 28 41 be 0d 82 16 3e e1 74 5f bd
       -0.07811822 -0.18863267 0.14698048 -0.054554824
000050 03 8e 15 bd b9 83 2c be 5a f1 9d bd 80 42 f8 3d
       -0.036512386 -0.16847123 -0.0771205 0.12122059
000060 8e 07 88 3d 24 f4 b6 bb dc 81 50 3d 9b 15 fe 3d
       0.06642066 -0.005583303 0.050905094 0.12406465
000070 f9 65 1a 3e 28 e9 20 be d0 ed 04 3d 67 57 a9 bd
       0.15077962 -0.15713942 0.03245336 -0.08268624
000080 a6 e5 ee bd f3 7a 01 3e d6 84 b2 bd 25 32 8e bd
       -0.11664896 0.12644558 -0.08716743 -0.06943158
000090 75 c2 33 3e 3d 6e 4d 3e 93 cf bb bd 9e 8b 78 bb
       0.17554648 0.20061584 -0.09170451 -0.0037925015
0000a0 f9 38 95 3d 89 6d 4b 3e 1e 00 37 3e 29 b6 07 3e
       0.07286257 0.19866003 0.17871138 0.13253082
0000b0 2c 65 2b 3e 82 2f a1 bb 26 e9 16 3e 3a 50 3b 3c
       0.16737813 -0.0049189935 0.14737377 0.011432702
0000c0 fe 04 54 3d c4 de 9b bc 48 b3 b2 3d 48 f1 e4 3d
       0.051762573 -0.019027121 0.087256014 0.11178833
0000d0 ca 1e 18 3c 7f e7 27 3e 56 df 97 bc ef 31 4b 3d
       0.009284684 0.16396903 -0.018539112 0.049608167
0000e0 7c f3 16 3e b8 85 de 3d ab d2 6b bd ba 67 b0 bd
       0.1474132 0.108653486 -0.057573956 -0.08613534
0000f0 cc 38 4e 3d b2 58 15 bb f8 43 3a 3b 9d f4 32 3e
       0.050347134 -0.0022788462 0.002842186 0.17476125
000100 85 7b 16 3e 97 61 e3 bc 45 82 01 bd 01 a1 72 3e
       0.14695556 -0.027756495 -0.031618375 0.2369423
000110 20 11 98 3d c8 f2 54 bc 07 5b 37 bd eb 25 53 3e
       0.07425141 -0.012997337 -0.044764545 0.20619933

conv13.bias f4 [2]
000000 03 53 23 3d b4 af 80 bd
       0.039874088 -0.06283513

conv14.weight f4 [2, 2, 3, 3]
000000 81 0a 9c be 54 7d 20 3e 6f 3f 78 b9 93 4d 00 be
       -0.30476764 0.15672809 -0.00023674754 -0.12529592
000010 e9 c4 82 be 4f 45 cb 3d 51 3e 95 be 63 81 16 3d
       -0.25540856 0.09925329 -0.29149106 0.036744487
000020 b4 96 9d be 60 52 94 be 55 2a 9e be c6 a4 e0 3d
       -0.3077904 -0.28969097 -0.30891672 0.10968928
000030 1a 67 fc 3d 36 52 98 be 40 28 90 3d 1b 8f 71 be
       0.123243526 -0.29750222 0.07038927 -0.23589747
000040 66 64 9f be 76 c4 75 bb bf 70 54 3e c6 12 70 3e
       -0.31131285 -0.0037501133 0.20746134 0.23444661
000050 d0 67 2e 3e b6 97 88 3e 31 c7 ab bd 64 7c 34 3e
       0.17031789 0.26678246 -0.08387602 0.17625576
000060 90 c7 11 bd a7 02 8d 3d 5b 51 5a 3e cc a8 0f be
       -0.03559071 0.068852715 0.21320097 -0.14029235
000070 f2 d0 00 3e d3 e3 e4 bc 2a bb 37 3e 4f 60 7d 3c
       0.12579706 -0.027940666 0.17942491 0.015464856
000080 b9 97 08 3e bf 90 82 3e ef 84 7b bd d5 de 5a be
       0.13339128 0.25501058 -0.061406072 -0.21374066

conv14.bias f4 [2]
000000 ce 1f 37 3e 1a 62 01 be
       0.17883226 -0.12635079
