output/4040_e/train/model/itn_20.pt (torch_old, 23547 bytes, 23 tensors)

conv11.weight f4 [2, 1, 3, 3]
0	0x3e8cd209	0.27503994
1	0x3e962d1b	0.29331288
2	0xbd84ef2c	-0.06490931
3	0x3ea753bb	0.3268107
4	0xbd664536	-0.05621835
5	0x3da55779	0.08073325
6	0xbe0ebf2c	-0.13940114
7	0x3e5c904c	0.2153942
8	0x3e9eb7e9	0.30999687
9	0xbe74c8b7	-0.23904692
10	0x3e906813	0.28204402
11	0x3d427c2c	0.0474817
12	0x3e826f79	0.25475672
13	0x3d2b57fe	0.041831963
14	0x3e19df18	0.1502651
15	0xbcf8e756	-0.030383747
16	0x3e879b4f	0.2648568
17	0x3d4d8e84	0.05018474

conv11.bias f4 [2]
0	0xbdf05ba9	-0.11736233
1	0x3e2caffe	0.1686401

conv12.weight f4 [4, 2, 3, 3]
0	0xbd985817	-0.07438677
1	0xbbd8e236	-0.0066187633
2	0xbda5114b	-0.08059939
3	0x3e43b93e	0.19113633
4	0xbe2a6ee0	-0.16643858
5	0xbdc5db0b	-0.0966092
6	0xbce0b519	-0.027430104
7	0xbded273f	-0.11579751
8	0x3d261ee1	0.040556792
9	0xbe5706ed	-0.20998736
10	0x3e69801c	0.22802776
11	0xbe41274f	-0.18862651
12	0x3e536151	0.20642592
13	0x3d623959	0.055230472
14	0xbd861104	-0.06546214
15	0x3e34a008	0.17639172
16	0x3d7739c3	0.06035782
17	0x3e552c6e	0.2081773
18	0x3d535b2c	0.05160062
19	0xbd5f530e	-0.054522566
20	0x3da2633e	0.07929085
21	0xbd1c3505	-0.0381365
22	0x3df35f9b	0.1188347
23	0x3e675eef	0.22594808
24	0x3e283997	0.16428219
25	0xbda59297	-0.080846004
26	0x3e1d9773	0.15389805
27	0x3d8337ef	0.06407153
28	0x3e0a8e0f	0.13530754
29	0xbe046e8b	-0.12932794
30	0xbe583160	-0.21112585
31	0xbd999f7f	-0.075011246
32	0xbe29e34c	-0.16590613
33	0x3e5f9b1e	0.21836516
34	0x3db22b8d	0.08699713
35	0x3dec1a72	0.115284815
36	0x3dd6ab02	0.10481836
37	0x3c907601	0.017634394
38	0x3e4cae2f	0.19988321
39	0xbe0c438b	-0.1369764
40	0x3d1690b5	0.036759097
41	0xbe153410	-0.14570642
42	0x3dd6e9aa	0.10493787
43	0xbd6acc00	-0.057323456
44	0x3db6a292	0.089177266
45	0xbcbfd7c0	-0.023418307
46	0x3e597450	0.21235776
47	0xbe0275d6	-0.12740263
48	0xbdea796d	-0.114489414
49	0xbdfc0c1c	-0.12306997
50	0x3e660e04	0.22466284
51	0x3dd98479	0.1062097
52	0x3e7c5c6a	0.24644628
53	0xbe379528	-0.17927992
54	0xbe65ca09	-0.22440352
55	0xbe3ce911	-0.18448283
56	0xbe34f96c	-0.17673272
57	0x3dae5ae1	0.085134275
58	0x3d7b7186	0.06138756
59	0x3e521e06	0.20519266
60	0xbe0bb057	-0.13641487
61	0xbe288d33	-0.16460113
62	0x3e17c5db	0.1482157
63	0xbdb5fa57	-0.08885639
64	0x3e1b7a4a	0.15183368
65	0xbd9e0e7a	-0.07717605
66	0x3e029ba9	0.12754692
67	0xbe4722c6	-0.19446859
68	0xbe0388c5	-0.12845142
69	0x3d5ece1b	0.054395776
70	0x3ce9824f	0.028504519
71	0xbd659b43	-0.056056272

conv12.bias f4 [4]
0	0x3e7ea73e	0.24868485
1	0x3e2596e9	0.16170849
2	0xbe02d30d	-0.12775822
3	0xbc5a53d7	-0.013325653

down1.weight f4 [8, 4, 2, 2]
0	0x3dccb520	0.09995484
1	0xbe5e495d	-0.21707673
2	0xbe54234a	-0.20716587
3	0xbeba0afe	-0.3633651
4	0xbe3b74e5	-0.1830631
5	0x3d2c957b	0.042134743
6	0xbda50142	-0.080568805
7	0xbe55d31f	-0.20881318
8	0xbcbb8194	-0.022888936
9	0xbe3c0902	-0.18362811
10	0xbe7c93e1	-0.24665786
11	0xbe1f8741	-0.15578939
12	0xbeba496e	-0.36384147
13	0xbeb54ebe	-0.35411638
14	0x3e1587a7	0.14602529
15	0xbd38ad38	-0.04508707
16	0x3bd5b138	0.0065213703
17	0xbe9ac2bd	-0.302267
18	0xbe87e4e5	-0.2654182
19	0xbe399e8e	-0.1812689
20	0x3cbe22ac	0.023209892
21	0xbe69ed5b	-0.2284445
22	0xbe0149bc	-0.12625784
23	0xbe2417d7	-0.16024719
24	0xbc2cf122	-0.010555537
25	0xbdc961f4	-0.09833136
26	0xbcfd0ccc	-0.030889891
27	0xbe34ab7d	-0.17643543
28	0xbe8abe22	-0.27098185
29	0xbe97016c	-0.29493272
30	0xbe2053ef	-0.15657018
31	0xbe8654fc	-0.26236713
32	0x3ddf15b4	0.108928114
33	0xbe0ffd9c	-0.14061588
34	0x3dd89c38	0.10576671
35	0xbc8291f3	-0.015938735
36	0xbe7bd866	-0.24594268
37	0x3e158f86	0.14605531
38	0xbddfc1c3	-0.10925629
39	0xbe03be07	-0.12865458
40	0xbe6d836e	-0.23194668
41	0xbe89772b	-0.2684873
42	0x3d311b99	0.04323921
43	0xbd9f26b3	-0.07771053
44	0x3debbda9	0.11510784
45	0xbe8f2010	-0.2795415
46	0x3e3ed694	0.18636543
47	0xbe54a66b	-0.20766608
48	0x3dd8a914	0.10579124
49	0x3e4daefb	0.20086281
50	0x3e961fcf	0.29321143
51	0x3ebad3e3	0.36489782
52	0x3e7824a5	0.24232729
53	0xbe44398f	-0.19162582
54	0x3db18524	0.08667973
55	0xbdbdd318	-0.092687786
56	0xbcb646c5	-0.022250542
57	0xbe3f1385	-0.1865979
58	0x3e742300	0.23841476
59	0xbe36d4ba	-0.17854586
60	0x3e8f40f6	0.2797925
61	0x3e8e1df8	0.2775724
62	0x3e9330f1	0.28748277
63	0x3d5db34e	0.054126076
64	0x3e27bbba	0.16380206
65	0x3baea8bd	0.0053301738
66	0xbc166359	-0.00917896
67	0xbe8a54ef	-0.27017924
68	0x3d8cc488	0.06873423
69	0xbd88d432	-0.06681098
70	0xbe1c26aa	-0.15249124
71	0x3e3ce6b1	0.18447377
72	0x3cbe81f6	0.02325533
73	0xbe2858fd	-0.16440196
74	0xbe250a23	-0.16117148
75	0xbd234a6c	-0.039865896
76	0x3d85d095	0.065339245
77	0xbe49ecf8	-0.19719303
78	0xbe3c61ce	-0.18396685
79	0xbe0495fc	-0.1294784
80	0x39a4a64c	0.00031404418
81	0x3e859f62	0.26098162
82	0x3eb0ac9c	0.3450669
83	0xbd9f1e69	-0.07769472
84	0x3e07b6cf	0.1325333
85	0x3e2dde62	0.16979364
86	0x3e168817	0.14700352
87	0xbc7efca0	-0.01556316
88	0x3e3aecd3	0.18254404
89	0x3e1628e3	0.14664035
90	0x3e2c5fc5	0.16833408
91	0xbb9dbb4d	-0.0048135878
92	0xbd4fe498	-0.050755113
93	0x3de9bf73	0.11413469
94	0x3c97abcc	0.018514536
95	0x3baa608b	0.005199497
96	0x3e3cd440	0.18440342
97	0x3e60a1a0	0.21936655
98	0xbb000e40	-0.0019539744
99	0xbd5d1412	-0.05397422
100	0x3a2dc646	0.00066289713
101	0xbcb736a9	-0.022364931
102	0x3d765248	0.060137063
103	0x3d84dc70	0.064873576
104	0xbe72c021	-0.23706104
105	0xbdd2ad20	-0.10286927
106	0x3e4e9af1	0.20176293
107	0x3db402d6	0.087896034
108	0x3d918376	0.07105152
109	0xbdabfdea	-0.0839804
110	0xbe004c6f	-0.12529157
111	0xbe651948	-0.22372925
112	0xbe6e612d	-0.23279257
113	0xbd731089	-0.05934194
114	0x3c0e82fa	0.008698219
115	0xbcfa90da	-0.030586649
116	0xbe714e7b	-0.23565094
117	0xbe1a1db9	-0.15050401
118	0xbd7ae9e2	-0.061258204
119	0x3e70bac0	0.2350874
120	0x3cf0a801	0.029376986
121	0xbd737363	-0.059436213
122	0x3dbc57e0	0.09196448
123	0xbdbfb3af	-0.09360444
124	0xbe4b35e6	-0.1984478
125	0x3d7a6a08	0.061136276
126	0xbe10b944	-0.14133173
127	0xbdb352e0	-0.087560415

down1.bias f4 [8]
0	0xbeafef7d	-0.34362403
1	0x3d916458	0.07099217
2	0x3daa1863	0.08305433
3	0x3e14208a	0.14465538
4	0xbe965f45	-0.2936956
5	0xbe9bc380	-0.30422592
6	0xbe0ef67d	-0.13961215
7	0x3df7a3a9	0.120917626

conv21.weight f4 [8, 8, 3, 3]
0	0x3d15d4eb	0.036580008
1	0x3dc5e0fa	0.096620515
2	0x3d86e235	0.06586114
3	0x3c005f99	0.007835292
4	0xbb8b1d25	-0.0042454177
5	0xbdae96d0	-0.08524859
6	0xbe02bdf9	-0.12767781
7	0xbdee77f6	-0.116439745
8	0x3d4eea50	0.050516427
9	0xbd9acb32	-0.07558288
10	0xbccdbb04	-0.02511359
11	0xbd815159	-0.06314344
12	0xbd2722f1	-0.040804807
13	0xbdadcb2a	-0.08486016
14	0xbd934f48	-0.07192856
15	0x3c6eed1b	0.014582898
16	0xbd264248	-0.040590554
17	0x3d99739c	0.07492754
18	0xbd702fad	-0.058639217
19	0xbdb87339	-0.09006352
20	0xbc8f0c58	-0.01746194
21	0xbd9fe614	-0.07807556
22	0xbd1b29b8	-0.037881583
23	0xbdda3f58	-0.10656613
24	0x3d24e655	0.040258724
25	0xbdb22225	-0.08697919
26	0x3d80b3db	0.06284305
27	0x3dbf6292	0.09344973
28	0x3d9906ae	0.07471977
29	0xbe0698bd	-0.13144203
30	0x3e1db8f7	0.1540259
31	0xbcf890b4	-0.030342437
32	0x3cf75c5e	0.030195411
33	0x3e433913	0.19064741
34	0x3ca5e4ed	0.020250762
35	0xbbd30be9	-0.006440629
36	0xbd39e7dd	-0.045387138
37	0xbdc8d436	-0.09806101
38	0x3d82d5af	0.06388413
39	0xbe0f7fa3	-0.14013533
40	0x3d92368e	0.07139312
41	0x3dc06715	0.09394661
42	0x3db87347	0.090063624
43	0xbcd76324	-0.026292391
44	0xbdafd966	-0.08586387
45	0x3d46dc47	0.048549917
46	0x3d8da877	0.06916898
47	0xbdf3cc03	-0.119041465
48	0xbb993e8e	-0.0046766466
49	0xbd8cd1ea	-0.068759754
50	0xbc77d359	-0.015126073
51	0xbd0070ba	-0.031357504
52	0xbd34bcbc	-0.044125304
53	0xbd29d336	-0.041461192
54	0xbdc46060	-0.095886946
55	0x3dc189d1	0.094501145
56	0x3db55e13	0.08855834
57	0x3a30764a	0.00067314936
58	0xbc5cde33	-0.013480711
59	0xbd6cf76d	-0.05785315
60	0xbd971990	-0.073779225
61	0xbdd13064	-0.10214308
62	0x3d3a2acf	0.04545098
63	0xbdb318bc	-0.08744952
64	0xbda5d956	-0.08098094
65	0xbbd11e34	-0.0063817743
66	0xbd72b952	-0.059258766
67	0xbd1ee77b	-0.038794976
68	0x3c413769	0.011792996
69	0xbd44bf23	-0.048033845
70	0xbd2e1e3c	-0.042509302
71	0xbd4590d8	-0.048233837
72	0xbdc819b5	-0.09770528
73	0x3d944014	0.072387844
74	0xbda6018c	-0.08105764
75	0x3d0df856	0.03466066
76	0xbd7c698c	-0.061624095
77	0xbcb5162b	-0.022105297
78	0x3e05ecd4	0.13078624
79	0x3d4a64e6	0.04941263
80	0xbdf8dc84	-0.12151435
81	0x3d28a97f	0.04117727
82	0x3dad21db	0.08453723
83	0xbae1276e	-0.0017177889
84	0x3da65562	0.08121754
85	0x3dc0d00c	0.09414682
86	0xbd4c19f8	-0.049829453
87	0x3d361b75	0.04445978
88	0xbdb40ac2	-0.087911144
89	0xbd2ed268	-0.042681128
90	0x3db901a2	0.090335146
91	0x3d15ceb6	0.036574088
92	0xbddef393	-0.10886302
93	0xbdbad439	-0.091225095
94	0xbdcffb61	-0.101553686
95	0xbe18301d	-0.14862104
96	0xbd930f76	-0.07180683
97	0xbd0cd02e	-0.034378223
98	0x3d670e39	0.05641005
99	0xbc0e3612	-0.008679884
100	0xbdc6807b	-0.096924745
101	0xbd959cb4	-0.073052794
102	0x3ca1df90	0.019759923
103	0xbdf03256	-0.11728351
104	0xbc79a821	-0.015237839
105	0x3c2106c6	0.009828275
106	0xbdbaabf6	-0.0911483
107	0xbcacf2f7	-0.021111948
108	0xbceabc58	-0.028654262
109	0xbd7de8ae	-0.06198948
110	0xbdcb678c	-0.099318594
111	0xbdfff93a	-0.12498708
112	0xbe016561	-0.12636329
113	0xbdc4223b	-0.095768414
114	0x3dc3552b	0.09537729
115	0xbdaf0346	-0.08545546
116	0xbddf42fc	-0.10901448
117	0x3cf8bf55	0.030364672
118	0x3d6dd164	0.05806102
119	0x3dc8aab3	0.09798183
120	0x3dbc293a	0.09187551
121	0x3dba474f	0.09095632
122	0xbda789ae	-0.08180557
123	0xbb532ad6	-0.0032221577
124	0x3dacb1bb	0.08432337
125	0x3c882a26	0.01662166
126	0xbd861851	-0.06547607
127	0x3e119975	0.14218695
128	0xbc13cdfc	-0.0090212785
129	0xbda073dd	-0.07834599
130	0xbdbb2dc8	-0.091395915
131	0x3d0cc32f	0.03436583
132	0x3c9a9dda	0.018874098
133	0x3c9f7969	0.019467073
134	0x3d166e4f	0.036726292
135	0xbdb255c8	-0.08707768
136	0xbe04b36b	-0.12959068
137	0xbcd15e8e	-0.025557783
138	0x3dddd166	0.10830955
139	0x3d44e1ed	0.048067022
140	0xbdd1bcf8	-0.10241121
141	0xbbf6faf8	-0.007537242
142	0xbdd0109d	-0.10159419
143	0xbdb1b125	-0.08676366
144	0x3ccfe56c	0.025377952
145	0x3d2787d1	0.04090101
146	0x3d9423ce	0.07233392
147	0xbdc33f5e	-0.09533571
148	0x3d6d4d53	0.05793507
149	0xbdd91946	-0.10600524
150	0x3da0d2f4	0.07852736
151	0x3dbedf98	0.09319991
152	0xbc56067f	-0.013063072
153	0x3ddad985	0.1068602
154	0xbdfe430c	-0.12415132
155	0xbd8d50ae	-0.06900154
156	0x3d9dc600	0.07703781
157	0xbd3eb2bc	-0.046557173
158	0xbd3cdc59	-0.046108577
159	0xbc9951f8	-0.018715844
160	0x3d96c32d	0.073614456
161	0x3d33961c	0.043844327
162	0x3d3f7009	0.046737704
163	0xbdb037ea	-0.08604415
164	0xbdf76033	-0.120788954
165	0x3cde0287	0.027100815
166	0x3ca2b918	0.01986365
167	0xbd9e276e	-0.07722364
168	0xbb424ed2	-0.0029649031
169	0x3d905270	0.07046974
170	0xbbc77d57	-0.0060879397
171	0xbd0c3d2e	-0.034238033
172	0xbd4de102	-0.050263412
173	0xbdd58c62	-0.104271665
174	0xbe248973	-0.16068058
175	0xbdb0cd41	-0.08632899
176	0xbd674067	-0.056457903
177	0xbbd213e2	-0.0064110616
178	0xbd9a20f8	-0.075258195
179	0xbd655ffb	-0.055999737
180	0x3e10126e	0.1406953
181	0x3d2e0931	0.042489234
182	0x3da7a087	0.08184915
183	0xbcfeebf4	-0.03111837
184	0xbd2ea8d4	-0.042641476
185	0x3d303a99	0.043024633
186	0xbd37615c	-0.044770584
187	0xbd8f6c64	-0.07003096
188	0xbb186c26	-0.002325782
189	0xbd4978e2	-0.04918755
190	0xbd71aa14	-0.05900009
191	0x3dcfaedd	0.101407744
192	0x3da1f959	0.079088874
193	0x3d3e5304	0.04646589
194	0x3c1025e1	0.008798094
195	0xbe10995a	-0.14120999
196	0xbcf995d3	-0.03046695
197	0x3d48982b	0.048973244
198	0x3d6adc16	0.057338797
199	0x3b7b185b	0.0038314078
200	0xbcd10974	-0.025517203
201	0x3d4f1692	0.050558634
202	0xbdaa68be	-0.08320759
203	0x3db9204c	0.09039363
204	0xbd92845a	-0.0715415
205	0xbbd303b1	-0.006439649
206	0xbc9655e6	-0.018351506
207	0x3cb206f7	0.021731837
208	0xbd6526a5	-0.055945057
209	0x3d78ddd5	0.06075843
210	0x3c1012ac	0.008793514
211	0x3d91cc01	0.07118989
212	0x3db0f7e0	0.086410284
213	0xbd1c4c6b	-0.038158815
214	0xbdc7582c	-0.09733614
215	0x3d9252a3	0.07144668
216	0x3dddd999	0.10832519
217	0xbdaa2cac	-0.08309302
218	0xbcf4f479	-0.02990173
219	0xbdc31061	-0.095246084
220	0xbd9fbeb2	-0.07800044
221	0x3cc13b96	0.023587983
222	0x3d6f6f1b	0.058455568
223	0x3d616dec	0.05503647
224	0xbc15e9bf	-0.009149968
225	0x3df6d482	0.120522514
226	0x3cb372ad	0.021905268
227	0xbdbd4f4d	-0.09243641
228	0x3c3ebcb0	0.011641666
229	0x3d36f70a	0.04466919
230	0x3d21b5c6	0.039479993
231	0xbd792055	-0.06082185
232	0x3d8ccaee	0.06874643
233	0xbd40b833	-0.047050666
234	0xbda5031b	-0.08057233
235	0xbd7d3ce5	-0.06182565
236	0x3db241f7	0.08703988
237	0x3df1e4e5	0.11811236
238	0x3df548de	0.11976789
239	0x3d854779	0.06507773
240	0x3de296de	0.11063932
241	0x3bcca26a	0.006244947
242	0xbd4b1419	-0.049579713
243	0x3d07446f	0.033024248
244	0xbdd2b353	-0.1028811
245	0xbe565823	-0.20932059
246	0xbd294ca9	-0.041332874
247	0x3c49ef64	0.012325142
248	0xbcafa484	-0.021440752
249	0xbd4604b5	-0.048344333
250	0xbda92c1f	-0.082603686
251	0xbd898257	-0.067143135
252	0xbdafea96	-0.085896656
253	0xbdcdeb25	-0.10054616
254	0x3c1ff373	0.009762633
255	0xbccf1aff	-0.025281427

conv21.bias f4 [8]
0	0x3e3a0443	0.18165688
1	0xbd9fcda8	-0.07802898
2	0xbd616a75	-0.055033166
3	0xbafc0cda	-0.0019229904
4	0x3d987d7d	0.0744581
5	0x3e149b13	0.14512281
6	0x3d2ac11d	0.041688073
7	0x3ded5da3	0.115901254

down2.weight f4 [16, 8, 2, 2]
0	0x3d9a2db1	0.07528246
1	0x3df3fa0c	0.11912927
2	0xbd9e295c	-0.077227324
3	0x3ddb610e	0.10711871
4	0x3dd45c28	0.1036914
5	0x3e1f7297	0.15571056
6	0xbda43c6c	-0.08019337
7	0xbdad5fe4	-0.08465555
8	0xbd1dd22e	-0.03853052
9	0xbbdb1588	-0.0066859163
10	0x3e0da161	0.13831092
11	0xbddfc1fc	-0.109256715
12	0xbc8d9cc9	-0.017286675
13	0xbe2da620	-0.16957903
14	0xbb3f1259	-0.0029155223
15	0xbdf4484f	-0.11927854
16	0x3c310d82	0.010806443
17	0xbdbc9464	-0.09207991
18	0x3da5a3a8	0.080878556
19	0x3e32cf70	0.17461944
20	0xbe0ca6f8	-0.13735569
21	0xbcdabf5c	-0.026702575
22	0x3c38c815	0.011278172
23	0xbdee57b3	-0.11637821
24	0x3ceaf5f9	0.028681742
25	0xbe34eb88	-0.17667973
26	0xbe22bdf7	-0.15892778
27	0xbe322494	-0.17396766
28	0xbdfcaf0a	-0.123380736
29	0xbdf6a488	-0.120431006
30	0xbd9fc00c	-0.07800302
31	0xbdf4718f	-0.11935722
32	0x3dc79f7c	0.09747216
33	0x3e290a6b	0.1650788
34	0x3da5be6d	0.080929615
35	0xbd822f3e	-0.06356667
36	0xbe376740	-0.1791048
37	0x3d8c09e1	0.06837822
38	0xbdd0f117	-0.10202234
39	0x3dbd3be6	0.0923994
40	0x3de735a3	0.11289527
41	0x3db53253	0.08847489
42	0x3e133c46	0.14378461
43	0x3e36d72f	0.17855524
44	0x3e1d623c	0.15369505
45	0xbcc60009	-0.024169939
46	0x3e8f79a5	0.28022495
47	0x3ce5e638	0.028063878
48	0xbe4f5714	-0.20248061
49	0x3e304db9	0.17217149
50	0xbcbc0896	-0.022953313
51	0x3c83b446	0.016077172
52	0x3cba49ec	0.022740327
53	0xbe137717	-0.14400898
54	0xbb6b33ad	-0.0035888955
55	0x3e3537bf	0.17697047
56	0x3d74c08f	0.05975395
57	0x3c6152c7	0.013752646
58	0xbc9468d3	-0.01811639
59	0xbd741810	-0.05959326
60	0x3e286ef4	0.16448575
61	0x3d590c13	0.05299003
62	0x3e445675	0.19173606
63	0x3ca6a6f3	0.02034328
64	0x3dd92fd3	0.10604825
65	0x3da8eb95	0.08248059
66	0x3d6f70da	0.058457233
67	0x3df8547c	0.12125489
68	0x3dbb0eb7	0.09133666
69	0x3e0f0ea9	0.13970436
70	0x3deb3367	0.114844136
71	0xbd8bf0aa	-0.068330124
72	0xbe3ab7aa	-0.18234125
73	0x3d1ca00d	0.038238574
74	0xbd89a2d6	-0.067205116
75	0xbd63b7bd	-0.05559515
76	0x3d4fb8c7	0.050713327
77	0x3d9e4e17	0.07729738
78	0x3e690714	0.22756606
79	0x3e18d46e	0.14924785
80	0xbe8c388b	-0.2738689
81	0xbe15547c	-0.1458301
82	0xbe90dfc9	-0.28295735
83	0xbe639144	-0.22223383
84	0x3e37a061	0.17932273
85	0x3dca7fd8	0.098876655
86	0x3e39fe23	0.18163352
87	0x3bef85ab	0.0073096356
88	0x3d7c06c6	0.061529897
89	0x3d8450ea	0.06460746
90	0xbe0da83f	-0.13833712
91	0x3cae135e	0.02124947
92	0x3d60e034	0.054901317
93	0xbd5e1ea8	-0.054228455
94	0xbd8beb35	-0.068319716
95	0x3e4d43e6	0.20045432
96	0x3e06c82f	0.13162301
97	0x3db78aa7	0.08961993
98	0x3e160446	0.14650068
99	0xbd93cfe3	-0.072173856
100	0x3b9f269e	0.0048568984
101	0x3da143a1	0.07874227
102	0x3bc37e64	0.0059659947
103	0xbc8f1ba3	-0.017469233
104	0xbde0fbe8	-0.10985547
105	0x3c70da8c	0.014700543
106	0xbd084ec9	-0.03327826
107	0xbaf6ea34	-0.0018838109
108	0x3dcef242	0.10104801
109	0xbde846c7	-0.11341625
110	0xbe136f5e	-0.14397952
111	0x3ca3e1d9	0.020005153
112	0x3df760a6	0.12078981
113	0xbc8c262a	-0.017108042
114	0x3ed122ab	0.40846762
115	0x3d320b54	0.043467835
116	0xbe07c107	-0.13257228
117	0xbdc0073f	-0.09376382
118	0xbd843fae	-0.064574584
119	0xbdb034aa	-0.08603795
120	0xbddba3ac	-0.10724577
121	0x3dadfd77	0.0849561
122	0x392d9682	0.00016554634
123	0xbd641474	-0.055683568
124	0xbe5a5424	-0.2132116
125	0xbdfbb322	-0.12290026
126	0xbe1c1964	-0.15244061
127	0xbdf9301a	-0.12167378
128	0xbe3a20e8	-0.18176615
129	0x3cea3d37	0.028593643
130	0xbe1a7b69	-0.1508614
131	0xbe153bb9	-0.14573564
132	0xbe34d90b	-0.1766092
133	0x3d114d84	0.035474315
134	0xbe05f73d	-0.13082595
135	0xbdd79927	-0.10527258
136	0x3dc93c7e	0.09825991
137	0x3d0438ad	0.032280613
138	0x3d9e2251	0.07721389
139	0xbe5fb77f	-0.21847342
140	0xbe7d5c98	-0.24742353
141	0xbe41470a	-0.18874756
142	0x3d164e91	0.03669602
143	0xbdbf2348	-0.09332901
144	0xbdf9c5ee	-0.12195955
145	0xbdf3fd17	-0.119135074
146	0xbdf64b77	-0.120261125
147	0xbe17298b	-0.14761941
148	0xbd87bb65	-0.066275395
149	0x3e11f9c0	0.14255428
150	0x3d1e25cf	0.038610276
151	0xbd2406b0	-0.04004544
152	0x3a87efb8	0.0010371124
153	0xbd6bbfc7	-0.05755594
154	0x3d242fe5	0.04008474
155	0x3d81e594	0.06342617
156	0xbd01a398	-0.031650156
157	0xbe05a2a4	-0.13050324
158	0x3da1dac9	0.07903058
159	0xbd9cc627	-0.07654982
160	0xbd3b8ef8	-0.045790642
161	0x3dee6adc	0.116414756
162	0x3e43c9d5	0.19119962
163	0x3e526e1d	0.20549817
164	0x3ced0688	0.028933778
165	0xbdb7e283	-0.089787506
166	0x3dd470e4	0.10373095
167	0x3e24b47a	0.16084471
168	0xbe8c3587	-0.27384588
169	0xbd7845d6	-0.060613476
170	0xbe8063d5	-0.25076166
171	0xbd085867	-0.033287432
172	0x3e348399	0.17628326
173	0x3d8429e2	0.06453301
174	0x3da2c8f3	0.07948484
175	0x3e318182	0.1733456
176	0xbe651161	-0.22369911
177	0xbe8f5149	-0.27991703
178	0xbd973c17	-0.07384508
179	0xbe91cdbc	-0.28477275
180	0xbbaaef0f	-0.0052164863
181	0x3ca6176f	0.020274846
182	0x3ce3e3ef	0.027818648
183	0xbe0ea83c	-0.13931364
184	0x3dde15db	0.10844012
185	0xbda3b829	-0.0799411
186	0xbd11cde7	-0.035596754
187	0x3d91cc1a	0.071190074
188	0x3ba156b7	0.0049236673
189	0xbd04588d	-0.03231101
190	0x3dafd2b2	0.08585109
191	0x3d01bc05	0.03167345
192	0xbde95296	-0.11392705
193	0xbd87169d	-0.0659611
194	0x3c28b749	0.010297605
195	0xbe1e9801	-0.15487672
196	0xbddb81b4	-0.10718098
197	0xbc0eb385	-0.008709793
198	0x3d23a62b	0.039953392
199	0x3dd57369	0.10422403
200	0xbdeaf2b6	-0.11472075
201	0x3ce62c30	0.028097242
202	0x3e06719f	0.1312928
203	0x3dab6750	0.08369315
204	0xbe74120c	-0.2383501
205	0xbe0d0f18	-0.13775289
206	0xbe851308	-0.25991082
207	0xbe62e049	-0.2215587
208	0x3e8dee0b	0.27720675
209	0xbd38ff67	-0.045165446
210	0x3e96e882	0.29474264
211	0xbd573b5f	-0.052546855
212	0xbb60446f	-0.0034220477
213	0xbdfc2a0f	-0.123127095
214	0x3d81a16d	0.06329618
215	0xbdb192cc	-0.086705774
216	0xbdbf8fbd	-0.09353588
217	0xbe2dea59	-0.16983928
218	0xbd3a974d	-0.045554448
219	0x3e1fd68b	0.15609185
220	0x3c8d124b	0.017220637
221	0xbe179838	-0.1480416
222	0xbd9bed6c	-0.07613644
223	0xbd99f021	-0.07516504
224	0xbdf126dc	-0.1177499
225	0x3e15ee29	0.14641632
226	0x3d02f4a9	0.031971607
227	0x3d470b47	0.04859474
228	0xbdc8f63d	-0.09812591
229	0xbde1629b	-0.110051356
230	0xba86ef49	-0.0010294701
231	0x3d11cb9c	0.035594568
232	0x3b8435a9	0.004034717
233	0xbd9e22cb	-0.0772148
234	0x3ddc5f44	0.10760358
235	0xbd1486ab	-0.036261242
236	0xbd0e5d0a	-0.034756698
237	0xbcce3ac6	-0.02517451
238	0x3e819d58	0.25315356
239	0x3d6b2d2f	0.057416137
240	0xbe6e1d46	-0.23253354
241	0xbe01468b	-0.12624566
242	0xbe94df22	-0.29076487
243	0xbe94b339	-0.29042986
244	0xbdfa989b	-0.122361384
245	0x3de0f895	0.10984913
246	0x3e32177e	0.17391774
247	0x3e370c6a	0.1787583
248	0xbdd548d3	-0.10414281
249	0x3dc257dd	0.09489415
250	0xbd9a4e38	-0.0753445
251	0x3de91ac4	0.11382058
252	0x3e49f1c3	0.19721131
253	0x3e412ab5	0.18863948
254	0x3e4a1c99	0.19737472
255	0x3e1d9a51	0.15390898

down2.bias f4 [16]
0	0xbe8ed6ae	-0.27898163
1	0x3e2f600f	0.17126487
2	0xbd1fbea0	-0.039000154
3	0xbdd88318	-0.10571879
4	0x3c3006fd	0.010743854
5	0x3e86d337	0.2633302
6	0xbe8d857c	-0.27640903
7	0x3e69fa3e	0.22849366
8	0x3e4d4afa	0.20048133
9	0x3db44e2a	0.08803971
10	0x3deafbf6	0.11473839
11	0xbe5f1370	-0.21784759
12	0xbdf91b4b	-0.12163409
13	0x3c016d16	0.007899543
14	0x3deb8b6a	0.115012005
15	0xbd4b14fc	-0.04958056

conv31.weight f4 [16, 16, 3, 3]
0	0xbcdb4d6b	-0.026770314
1	0xbd4b265d	-0.049597133
2	0xbcfffd03	-0.031248575
3	0x3c10ef94	0.008846182
4	0xbd6c28e1	-0.057656173
5	0x3bfdcc42	0.0077452967
6	0xbd31125c	-0.0432304
7	0xbd18da80	-0.037317753
8	0x3cf7df88	0.030257955
9	0x3d5824da	0.05276952
10	0x3d9aeec2	0.07565071
11	0xbab6499a	-0.0013907433
12	0xbcaf286d	-0.021381581
13	0x3d6b037c	0.05737637
14	0x3a8ff47d	0.0010982897
15	0x3ccb6251	0.024827154
16	0xbd281fbe	-0.041045897
17	0x3cca5900	0.024700642
18	0xbcc72a49	-0.024312155
19	0x3d413441	0.047168974
20	0x3d6b2658	0.057409614
21	0xbd333b3f	-0.043757673
22	0xbd6bc656	-0.057562195
23	0xbd855770	-0.06510818
24	0x3ddd694d	0.108111
25	0x3d990113	0.07470908
26	0x3c31cd69	0.010852196
27	0x3d0c7c98	0.03429851
28	0xbd14a5b5	-0.036290843
29	0xbd9d366d	-0.076763965
30	0x3a393edc	0.0007066557
31	0x3d248d13	0.0401736
32	0x3dcebcff	0.10094642
33	0xbd4b77ca	-0.049674787
34	0x3d65933e	0.056048624
35	0x3d4abcdb	0.049496513
36	0x3cfe06b5	0.031009058
37	0xbdbb25b0	-0.09138048
38	0x3d6ead88	0.05827096
39	0xbd95fbb2	-0.07323398
40	0x3dc297d3	0.095016144
41	0x3c0e349b	0.008679534
42	0xbdc013c0	-0.09378767
43	0x3cf7dd15	0.030256787
44	0xbc922e52	-0.017844353
45	0xbd221526	-0.03957095
46	0xbd07937f	-0.033099648
47	0x3ae573c0	0.001750581
48	0x3daabdd1	0.08336986
49	0xbd480e51	-0.04884178
50	0x3ce002a4	0.02734501
51	0x3d64b1c6	0.0558336
52	0x37a4e391	1.9656292e-05
53	0x3c67ec4e	0.0141554605
54	0xbddcb4b4	-0.10776654
55	0xbdbc8d32	-0.09206618
56	0xbd223389	-0.03959993
57	0xbddac404	-0.10681918
58	0xbd0e3a95	-0.034723837
59	0x3c4888a4	0.012239609
60	0xbdbda251	-0.09259475
61	0xbd1296d1	-0.03578836
62	0xbc814895	-0.01578168
63	0x3d075e6a	0.033049025
64	0xbd194409	-0.0374184
65	0x3b018e96	0.0019768826
66	0x3c8fffa7	0.01757796
67	0x3c84c4e4	0.016207166
68	0xbc1c951b	-0.009557034
69	0x3c7cef5e	0.015437929
70	0xbc2b1b1c	-0.010443475
71	0x3c4bc749	0.01243765
72	0xbc2ac52d	-0.010422987
73	0x3bca608a	0.006176059
74	0xbc842ac3	-0.016133672
75	0x3d84122c	0.064487785
76	0x3b75e6c2	0.0037521576
77	0x3d255f54	0.040374115
78	0x3d7e0d1b	0.062024217
79	0xbd4c85f6	-0.049932443
80	0x3d2e6412	0.042575903
81	0xba6b78ed	-0.0008982558
82	0xbb0544d0	-0.0020335205
83	0xbcf1b496	-0.029505055
84	0x3c618053	0.013763505
85	0xbd1bd6ab	-0.03804652
86	0x3d759744	0.05995871
87	0x3df6e5c1	0.12055541
88	0x3d152f5e	0.036422126
89	0x3da657a4	0.08122185
90	0xbca1eeea	-0.019767243
91	0x3d25883c	0.040413126
92	0x3d9776c6	0.07395701
93	0x3dab67e4	0.08369425
94	0xbd93aeb1	-0.07211054
95	0x3cc0545f	0.023477731
96	0xbc972a20	-0.018452704
97	0xbc5c99ce	-0.013464404
98	0xbcb2b41c	-0.021814398
99	0xbe119ee0	-0.14220762
100	0xbdc8c825	-0.098037995
101	0xbd1c28d5	-0.038124878
102	0xbd014ab6	-0.03156539
103	0x3d1030ff	0.035202976
104	0xbcfa264b	-0.030535838
105	0xbdf51890	-0.119675756
106	0xbcbc5370	-0.022989005
107	0xbd3f9f3e	-0.046782725
108	0xbda9d810	-0.08293164
109	0x3ccc67ff	0.024951933
110	0xbc833df3	-0.01602075
111	0xbe3e3e2b	-0.18578403
112	0xbc0194a6	-0.007908976
113	0x3d0668c0	0.03281474
114	0xbd97da2b	-0.07414659
115	0xbd72df16	-0.059294783
116	0xbd68184d	-0.0566638
117	0x3db5f0ad	0.08883796
118	0x3ca7bfb8	0.02047716
119	0xbcbd2c43	-0.023092395
120	0xba5f1e9e	-0.0008511337
121	0xbd493b92	-0.049129076
122	0x3d60065d	0.05469357
123	0x3d2bb9a8	0.041925102
124	0x3d92077c	0.07130334
125	0x3da2d19c	0.07950136
126	0x3d959791	0.073042996
127	0x3d1277a0	0.035758615
128	0xbbf33a9b	-0.007422758
129	0x3de11d8c	0.10991964
130	0xbd98781c	-0.07444784
131	0x3c5f7839	0.013639503
132	0x3d7b3e28	0.061338574
133	0x3d6d5fed	0.05795281
134	0x39eab839	0.00044769215
135	0xbdd9857a	-0.10621162
136	0xbd298dbc	-0.041394934
137	0x3cebc4fc	0.028780453
138	0xbde4e383	-0.11176207
139	0xbd6360d1	-0.055512253
140	0xbbe5270e	-0.006993181
141	0xbdbc9294	-0.09207645
142	0x3ce51023	0.027961796
143	0x3d824c02	0.063621536
144	0xbd477867	-0.04869881
145	0x3dc519d2	0.096240655
146	0x3aa7f77d	0.0012814846
147	0xbdac721e	-0.084202036
148	0xbc944e8e	-0.018103864
149	0xbcce0a46	-0.025151383
150	0xbe07885e	-0.13235614
151	0xbdd3e967	-0.10347252
152	0xbdb64f21	-0.089018114
153	0x3da88756	0.08228938
154	0x3d6a945e	0.0572704
155	0x3d613868	0.054985434
156	0x3e056271	0.13025834
157	0xba47afb9	-0.0007617432
158	0xbc0436c8	-0.0080697015
159	0x3d2f1534	0.04274483
160	0x3d9f33f8	0.07773584
161	0xbd74a8ba	-0.059731223
162	0x3dc1bd60	0.094599485
163	0x3bf2ef40	0.0074137747
164	0x3c17627c	0.009239789
165	0x3d933a8e	0.07188903
166	0xbd71c44a	-0.059025086
167	0x3d54a319	0.051913355
168	0x3ddfd0f7	0.10928529
169	0x3d945b33	0.07243957
170	0x3cd644ed	0.026155913
171	0x3c84e744	0.016223557
172	0x3da58f49	0.0808397
173	0x3d9e1065	0.07717971
174	0x3ce204a1	0.027590098
175	0x3c4a2453	0.012337762
176	0x3db6d000	0.089263916
177	0xbd6752a8	-0.05647531
178	0x3d0030a9	0.031296406
179	0x3d8ee956	0.06978099
180	0xbd5d4872	-0.054024167
181	0xbda791bd	-0.08182094
182	0xbd49816e	-0.0491957
183	0xbd164da8	-0.036695153
184	0xbce35d66	-0.027754497
185	0xbd6b9a94	-0.057520464
186	0xbc7ccbf3	-0.015429485
187	0xbc874bdd	-0.016515667
188	0xbde06627	-0.10956984
189	0x3d4adf73	0.049529504
190	0xbc1acbdf	-0.009448021
191	0xbd3e4a08	-0.04645732
192	0x3d82916e	0.06375395
193	0xbd0b2b42	-0.0339768
194	0xbd0b3bbe	-0.03399252
195	0x3d9458de	0.072435126
196	0x3c21f4b4	0.009885002
197	0x3e039f39	0.12853707
198	0xbc9268b8	-0.0178722
199	0x3dba7c78	0.09105772
200	0x3d22a498	0.03970775
201	0xbc99c175	-0.018769005
202	0x3d7484d8	0.059697002
203	0x3d19f7ce	0.03758984
204	0xbe080357	-0.13282524
205	0xbd6fd856	-0.058555923
206	0xbcec7c9c	-0.028868012
207	0x3d146dfb	0.036237698
208	0x3be18ae4	0.006883012
209	0x3abe6276	0.0014525193
210	0x3dd7588d	0.105149366
211	0xbb2b90b9	-0.002617879
212	0xbd40c6f7	-0.047064748
213	0x3cbad3bd	0.022806043
214	0xbcd87ff5	-0.026428202
215	0xbc8ac155	-0.016937891
216	0x3d8856a5	0.06657151
217	0x3bf9e286	0.0076258807
218	0x3d1dd256	0.03853067
219	0x3c97aff6	0.018516522
220	0xbd296ca9	-0.041363392
221	0xbd49ec69	-0.049297724
222	0x3dba8987	0.091082625
223	0x3d5f65d6	0.054540478
224	0x3ccdd665	0.025126645
225	0x3d80f941	0.062975414
226	0xbc25a902	-0.010111095
227	0xb9589071	-0.00020653174
228	0x3d16734f	0.03673106
229	0xbd956be8	-0.07295972
230	0xbc16c9fa	-0.009203428
231	0x3dc55cce	0.09636842
232	0xbbd48271	-0.0064852764
233	0x3d55f99f	0.05224001
234	0x3d269f04	0.040678993
235	0xbd0d5e97	-0.034514036
236	0xbd5d6dc6	-0.054059766
237	0x3b64fef9	0.0034942015
238	0xbe001c78	-0.1251086
239	0xbc3a0b95	-0.0113553
240	0x3d1f8820	0.03894818
241	0x3c8a115a	0.016853977
242	0xbbea3de7	-0.0071484926
243	0xbdbd6ce3	-0.09249284
244	0xbd0cdc07	-0.034389522
245	0x3d3f86a5	0.046759266
246	0xbe09724a	-0.13422504
247	0x3b2d4270	0.0026437305
248	0x3c42b988	0.011885054
249	0xbe309039	-0.17242517
250	0xbd47a7af	-0.0487439
251	0xbdcbff46	-0.09960799
252	0xbd9b9f5f	-0.07598757
253	0xbb42b4a6	-0.0029709726
254	0xbd4e9b35	-0.050440986
255	0x3c893b89	0.016752021

conv31.bias f4 [16]
0	0x3e2e10f8	0.1699866
1	0x3e16ca71	0.14725663
2	0x3e3617ed	0.17782564
3	0x3e3e2f03	0.18572621
4	0x3e4daf3e	0.20086381
5	0x3e01a772	0.12661532
6	0x3e3a2096	0.18176493
7	0x3d9ae59c	0.07563326
8	0xbd705801	-0.058677677
9	0xbd8735cb	-0.06602057
10	0x3e4ab166	0.19794235
11	0x3d93affe	0.07211302
12	0x3da28d6b	0.079371296
13	0x3e12d090	0.14337373
14	0x3cdc1d23	0.026869362
15	0x3e369745	0.17831142

up2.weight f4 [16, 8, 2, 2]
0	0xbe237100	-0.15961075
1	0x3cb84f74	0.022498824
2	0xbc1621de	-0.009163348
3	0xbda3f4ec	-0.080056995
4	0x3dc3fc14	0.095695645
5	0x3d78294f	0.06058627
6	0xbe2fe44f	-0.17176937
7	0xbe3f15b7	-0.18660627
8	0x3ddd1f27	0.107969575
9	0xbd9bf0ee	-0.07614313
10	0x3d30962e	0.043111973
11	0xbcd201a9	-0.025635557
12	0x3c734ccf	0.014849856
13	0xbe058833	-0.13040237
14	0xbc6dc49d	-0.014512208
15	0xbdbd8821	-0.0925448
16	0xbd9fb5d3	-0.07798352
17	0xbe010b5f	-0.12601994
18	0x3d4eee3d	0.05052017
19	0x3dbc91c8	0.09207493
20	0xbb907b4a	-0.0044092285
21	0xbcd17e86	-0.025573026
22	0x3e2308b3	0.15921287
23	0x3e2238c9	0.15841974
24	0xbcaa2039	-0.020767318
25	0xbe12a99a	-0.1432251
26	0x3c853da5	0.016264746
27	0x3ce9ec19	0.028554963
28	0xbdeae542	-0.11469509
29	0xbe08242e	-0.13295051
30	0x3c7a3130	0.015270516
31	0x3e330f6d	0.17486353
32	0xbe2c6e5b	-0.16838972
33	0xbd9fd903	-0.078050636
34	0x3cbc7152	0.023003254
35	0xbe5109e3	-0.20413928
36	0xbe4430d0	-0.19159245
37	0x3be7c5d2	0.0070731426
38	0x3d8e3072	0.06942834
39	0xbe7a3374	-0.2443369
40	0x3d827c8f	0.06371414
41	0xbd6fe3c5	-0.058566827
42	0x3d8cfd3e	0.068842396
43	0xbd3dac24	-0.046306744
44	0xbe2258b8	-0.15854156
45	0xbe324864	-0.17410427
46	0xbd2a1757	-0.041526165
47	0x3d08d524	0.03340639
48	0xbdb0ad1a	-0.086267665
49	0x3cdb5394	0.026773252
50	0x3e009fa1	0.12560894
51	0x3c1f67c1	0.009729327
52	0x3cff9744	0.031200059
53	0xbc8b0a26	-0.016972613
54	0xbbbf9be7	-0.0058474424
55	0x3dea424b	0.11438426
56	0x3da38ed3	0.07986226
57	0xbe0afae3	-0.13572268
58	0x3e5a03e2	0.21290544
59	0x3e11ebd3	0.14250116
60	0x3c753213	0.014965552
61	0x3e4da2a9	0.20081581
62	0x3ccb0a0c	0.024785064
63	0x3e313fc8	0.17309487
64	0xbe27b771	-0.16378571
65	0x3e1b176d	0.15145655
66	0x3e2362e6	0.15955696
67	0xbe0edfe6	-0.13952598
68	0xbe2f1b78	-0.17100322
69	0xbdce95db	-0.100871764
70	0xbdfa03c8	-0.122077525
71	0x3b9ba689	0.004750077
72	0x3da9747e	0.08274172
73	0x3bf944a5	0.00760706
74	0x3e093db3	0.13402443
75	0x3ccb943f	0.024850963
76	0xbd853c16	-0.06505601
77	0xbe387763	-0.18014292
78	0x3d33b30f	0.043871935
79	0xbe462974	-0.1935175
80	0x3a6c392a	0.00090112037
81	0xbc6d17c3	-0.014470997
82	0xbdb9999e	-0.09062503
83	0x3ceb82fe	0.028748985
84	0x3d045569	0.032308016
85	0x3dc41b20	0.09575486
86	0x3e008c97	0.12553631
87	0xbe020f18	-0.1270107
88	0xbe04a9e3	-0.12955432
89	0xbd80d30e	-0.062902555
90	0xbe1cc3c3	-0.15309052
91	0x3d011505	0.031514186
92	0xbdca9a57	-0.09892719
93	0xbdef57af	-0.11686646
94	0x3d342517	0.043980684
95	0x3dd27880	0.1027689
96	0xbd97ea0b	-0.07417687
97	0xbdee6edb	-0.11642238
98	0xbdd6e1dd	-0.10492299
99	0x3db854b2	0.09000529
100	0x3e778b50	0.24174237
101	0x3e50d631	0.20394208
102	0x3e251cea	0.16124311
103	0xbc7ba610	-0.015359417
104	0x3def4d27	0.116846375
105	0xbdf64100	-0.120241165
106	0xbe20baf9	-0.15696324
107	0x3d9c85db	0.076427184
108	0xbca2ef78	-0.019889578
109	0x3e46d5b1	0.19417454
110	0xbe248378	-0.16065776
111	0x3e201990	0.15634751
112	0x3ebb9e79	0.36644343
113	0x3ea83183	0.32850274
114	0x3eabed1d	0.3357934
115	0x3e03d2ba	0.12873355
116	0x3cda3051	0.026634367
117	0x3e50fa65	0.20408018
118	0x3e1c1277	0.15241419
119	0x3beb2474	0.0071759764
120	0xbcf1a704	-0.029498585
121	0xbe402d1e	-0.18767211
122	0xbe75ad6e	-0.2399194
123	0xbe423892	-0.18966892
124	0xbe51f3ba	-0.2050313
125	0xbe92ef90	-0.28698397
126	0x3cea0023	0.028564518
127	0x3bb48fb9	0.005510297
128	0x3d8c7eb1	0.06860102
129	0xbcac6960	-0.02104634
130	0xbdf33337	-0.11875003
131	0xbe1fcdc2	-0.15605834
132	0x3e3090e3	0.1724277
133	0xbe57b8a4	-0.21066529
134	0x3d1e1f36	0.038603984
135	0x3dc3c53b	0.09559103
136	0x3e006122	0.12537053
137	0xbe00e34b	-0.12586705
138	0xbdc9b485	-0.098488845
139	0xbe26d356	-0.16291556
140	0x3de0e5d2	0.10981335
141	0xbe47068d	-0.19436093
142	0xbe389171	-0.18024231
143	0xbe207066	-0.15667877
144	0x3e1e48ed	0.15457506
145	0x3dad18d5	0.08452002
146	0x3e2148a3	0.15750365
147	0x3e0865ab	0.13320033
148	0xbd76dfe8	-0.060272127
149	0xbdbe5710	-0.092939496
150	0xbdbf24c1	-0.09333182
151	0x3d8a414b	0.06750735
152	0x3d94b568	0.07261163
153	0x3ced3638	0.028956518
154	0xbe2bba53	-0.16770296
155	0xbcfe5d29	-0.031050282
156	0xbdc3652a	-0.0954078
157	0xbc0bbc2b	-0.008528749
158	0xbce0fe2f	-0.027464954
159	0x3d3cd4ee	0.046101503
160	0xbe027477	-0.1273974
161	0x3e1d579b	0.1536545
162	0x3d2695b7	0.040670123
163	0xbcd05214	-0.025429763
164	0x3c3dc977	0.0115836775
165	0xbdb7707d	-0.08957002
166	0x3cb57a8a	0.022153158
167	0xbcb63785	-0.02224327
168	0x3e56fa3d	0.20993896
169	0x3dfe3500	0.12412453
170	0x3e29b96f	0.16574644
171	0xbcad949b	-0.021189025
172	0xbe42d4bc	-0.19026464
173	0xbc058b17	-0.008150837
174	0xbd14a81d	-0.036293138
175	0xbd9b672c	-0.07588038
176	0xbe11a214	-0.14221984
177	0x3d7ac907	0.06122687
178	0x3db1222d	0.08649097
179	0x3a1b27b9	0.00059187
180	0x3d3aac68	0.045574576
181	0x3d96073a	0.07325597
182	0xbe4de63d	-0.2010736
183	0xbd3aa2a6	-0.04556527
184	0xbda814ca	-0.0820709
185	0xbe1ba265	-0.15198667
186	0x3e3390b2	0.17535666
187	0x3e60da2a	0.21958223
188	0x3dcda307	0.100408606
189	0x3e5c676d	0.21523829
190	0xbd98fa06	-0.07469563
191	0x3e11479b	0.14187472
192	0xbd245a88	-0.0401254
193	0xbde05003	-0.10952761
194	0x3dda45df	0.10657858
195	0x3cfb7be4	0.030698724
196	0xbd6b2aff	-0.05741405
197	0xbc1ea60c	-0.009683143
198	0x3d2f2cce	0.04276734
199	0x3db3e668	0.08784181
200	0x3ca3abe9	0.019979434
201	0x3d0826ab	0.03324
202	0xbd18024b	-0.03711156
203	0x3d787484	0.060657993
204	0xbe212501	-0.15736772
205	0xbda78410	-0.08179486
206	0xbe2f3f95	-0.17114098
207	0xbe4d183c	-0.20028776
208	0xbe440a21	-0.19144489
209	0x3d888141	0.06665278
210	0xbe264b6b	-0.16239707
211	0xbd04e171	-0.03244156
212	0x3c353f1f	0.0110624125
213	0x3d8d17da	0.06889315
214	0x3daf8769	0.08570749
215	0xbe165cbd	-0.14683814
216	0x3e06d84f	0.13168453
217	0xbe773468	-0.24141085
218	0xbc7a4637	-0.01527553
219	0x3e14bd5f	0.14525364
220	0x3e261a58	0.16220987
221	0xbc5615a6	-0.013066685
222	0xbddfb0d5	-0.109224
223	0x3dfa67b3	0.1222681
224	0x3d633193	0.0554672
225	0xbe1745b3	-0.14772682
226	0xbe277393	-0.16352682
227	0xbe4135fe	-0.18868253
228	0x3e4538a6	0.19259891
229	0x3e5cbed7	0.21557175
230	0x3e4c33fd	0.19941707
231	0x3d7233e7	0.05913153
232	0xbe83e379	-0.25759485
233	0xbda94a2f	-0.082661025
234	0xbe4320a3	-0.19055419
235	0xbe10d54b	-0.14143865
236	0x3e1a4539	0.15065469
237	0xbd3bc21e	-0.04583942
238	0x3d99eb46	0.07515578
239	0xbdb3a698	-0.087720096
240	0x3c730ef5	0.014835109
241	0xba23326c	-0.000622547
242	0x3db6335d	0.088965155
243	0x3d0af5bb	0.033925753
244	0xbc883a27	-0.016629292
245	0x3d14b48c	0.036304995
246	0x3df4966f	0.119427554
247	0x3c380d68	0.011233665
248	0xbded85ad	-0.11597762
249	0xbdb950e8	-0.09048635
250	0x3c493ae8	0.012282111
251	0xbe841d5b	-0.25803646
252	0x3d9e23cb	0.07721671
253	0xbe69a06f	-0.22815107
254	0xbe426986	-0.18985566
255	0xbbd7e23f	-0.00658825

up2.bias f4 [8]
0	0xbde59502	-0.112100616
1	0x3cd7feae	0.026366558
2	0x3d886b63	0.066611074
3	0x3c5f82cb	0.013642023
4	0x3e78c25d	0.24292894
5	0x3dd63baf	0.104606025
6	0xbd82fc7e	-0.06395815
7	0xbd3886db	-0.045050483

conv22.weight f4 [8, 8, 3, 3]
0	0xbe174bac	-0.1477496
1	0x3d82de36	0.063900396
2	0x3d92146b	0.07132801
3	0xbdd5e825	-0.10444669
4	0x3bfb6dea	0.007673015
5	0xbd0d143e	-0.034443133
6	0x3dd6090b	0.104509436
7	0x3e19cf44	0.15020472
8	0x3de64228	0.11243087
9	0x3d6b8eca	0.05750922
10	0x3ce9e626	0.028552126
11	0x3e145da3	0.14488845
12	0xbc9bc339	-0.019013988
13	0x3dfb6110	0.122743726
14	0xbc5ca8bf	-0.013467967
15	0x3c845004	0.016151436
16	0xbc84c8c9	-0.016209023
17	0x3e377c19	0.17918433
18	0x3c4cc686	0.012498504
19	0x3ce04262	0.027375404
20	0x3d7801ff	0.06054878
21	0x3d8f446f	0.069954745
22	0xbc964ac1	-0.018346192
23	0x3e045d06	0.1292611
24	0xbdcbd387	-0.09952455
25	0x3dc5b8f4	0.09654418
26	0xbbff915e	-0.0077993115
27	0xbc04f706	-0.008115536
28	0x3d62b26a	0.05534593
29	0x3defc16b	0.117068134
30	0x3e24c4c8	0.16090691
31	0x3da52c7e	0.08065127
32	0x3d09a13c	0.03360103
33	0x3cd784bb	0.026308408
34	0x3e0d505d	0.13800187
35	0x3dae18e8	0.08500844
36	0xbe0a2da1	-0.13493969
37	0xbe095cf5	-0.13414367
38	0x3df23516	0.118265316
39	0xbd63a9ce	-0.05558186
40	0xbc75e6e8	-0.015008666
41	0xbd47af17	-0.048750963
42	0x3df6d8a6	0.12053041
43	0xbb1cba8a	-0.0023914897
44	0x3d5e9199	0.05433807
45	0xbe263d58	-0.16234338
46	0x3d9299f0	0.071582675
47	0xbd987c42	-0.07445575
48	0x3c5e40cf	0.013565256
49	0xbc71ec6b	-0.014765839
50	0x3c8140e7	0.015778018
51	0x3dc76aea	0.09737189
52	0x3c3f364a	0.011670658
53	0x3cd1a64e	0.025591996
54	0x3d8a35f8	0.06748575
55	0xbde88b3a	-0.1135468
56	0x3d18343a	0.037159182
57	0xbc870d04	-0.016485699
58	0xbd04b541	-0.03239942
59	0x3deaa80e	0.11457835
60	0x3c8200db	0.015869549
61	0xbe040d22	-0.12895635
62	0x3e1639f0	0.14670539
63	0xbe2d6f6d	-0.16937037
64	0x3d6d567f	0.057943817
65	0xbdd1d5c1	-0.102458484
66	0x3d33b130	0.04387015
67	0xbd78b71a	-0.060721494
68	0x3ce107b2	0.02746949
69	0xbd06076e	-0.03272193
70	0xbc8e59ad	-0.017376745
71	0xbd84ffd1	-0.064941056
72	0x3dace1dd	0.084415175
73	0x3d626e3b	0.055280905
74	0x3bab4d02	0.005227686
75	0x3dac5bc4	0.084159404
76	0xbba71284	-0.005098643
77	0xbddf4638	-0.10902065
78	0xbdb67653	-0.08909287
79	0x3cd3135e	0.025766071
80	0xbd6b7531	-0.05748481
81	0x3e009f4e	0.1256077
82	0xbdca012e	-0.09863506
83	0xbca3bf83	-0.01998878
84	0xbd7f6f50	-0.062362015
85	0xb7f564f0	-2.9253279e-05
86	0x3d514804	0.05109407
87	0x3d310fe6	0.043228053
88	0xbcf4c9eb	-0.029881438
89	0xbe4fa712	-0.20278576
90	0xb94c0f69	-0.00019460697
91	0xbd756b3b	-0.059916716
92	0x3ded4876	0.115860865
93	0xbd3f8d8f	-0.04676586
94	0x3dbc2406	0.091865584
95	0x3ccdd7bb	0.025127282
96	0x3d457be3	0.04821385
97	0xbde86f14	-0.113493115
98	0xbdae627f	-0.085148804
99	0xbd44b108	-0.048020393
100	0x3d863bfd	0.065544106
101	0x3a77d724	0.00094543607
102	0xbc63d38c	-0.013905417
103	0x3dd6abee	0.10482012
104	0x3d2a3f39	0.0415642
105	0x3d6ad077	0.057327714
106	0xbc5c3c61	-0.01344213
107	0x3de4c6a0	0.11170697
108	0x3d6a51b2	0.057206817
109	0x3c203b3c	0.009779748
110	0x3d4fe82e	0.050758533
111	0x3c0f954f	0.008763625
112	0x3c952c38	0.018209562
113	0x3c1c05d4	0.009522874
114	0xbe02bcdd	-0.12767358
115	0xbd0c631b	-0.0342742
116	0x3d1c134f	0.03810435
117	0xbcb85eeb	-0.022506198
118	0xbc386bda	-0.011256183
119	0xbcdd3b65	-0.02700586
120	0xbdc17459	-0.0944602
121	0x3d301cda	0.042996265
122	0xbd7e1f5e	-0.062041633
123	0xbde190cb	-0.11013945
124	0x3c4e6c6e	0.012599094
125	0xbe2c370f	-0.16817878
126	0x3d002244	0.03128268
127	0xbab8ddad	-0.001410415
128	0x3d019543	0.031636488
129	0x3cb61f65	0.022231767
130	0xbde3ecb9	-0.11129136
131	0xbdd3bc9b	-0.10338708
132	0xbd70a071	-0.05874676
133	0x3db71219	0.08938999
134	0x3c61b87f	0.013776897
135	0xbe05ce8c	-0.13067073
136	0xbd6b1b94	-0.057399347
137	0xbd894f79	-0.06704611
138	0x3d944b18	0.072408855
139	0x3db6db85	0.08928589
140	0xbdcab7bf	-0.09898328
141	0x3d829de8	0.063777745
142	0xbdc9eaf6	-0.09859268
143	0xbde39862	-0.11113049
144	0x3d400c87	0.046886947
145	0x3ddba9a1	0.107257135
146	0x3cb293ec	0.02179905
147	0xbe2e263b	-0.17006771
148	0xbd71e718	-0.05905828
149	0x3de2d3e6	0.11075573
150	0xbd571581	-0.052510742
151	0xbd9ade3f	-0.07561921
152	0xbdd8530e	-0.105627164
153	0xbde50211	-0.11182035
154	0xbc85ecb5	-0.016348222
155	0x3e2cfa0a	0.16892257
156	0xbb54187e	-0.0032363231
157	0x3dd1d49f	0.102456324
158	0x3e348fde	0.17633006
159	0xbdf95b60	-0.121756315
160	0x3ce39efa	0.027785767
161	0x3e23294c	0.15933722
162	0xbe02d5e7	-0.1277691
163	0x3d36e228	0.044649273
164	0xbd6d7092	-0.057968684
165	0x3de3566b	0.11100467
166	0xbd107944	-0.035271898
167	0x3ce7d68f	0.028300552
168	0xbcce9fe8	-0.025222734
169	0x3d92b5bd	0.0716357
170	0x3d4de1eb	0.05026428
171	0xbe2104c0	-0.15724468
172	0x3b865e3f	0.0041005905
173	0x3d1198b2	0.035546012
174	0xbdfe2e74	-0.12411204
175	0xbe03157a	-0.12801161
176	0xbdeeba7d	-0.116566636
177	0xbe0ab6e3	-0.13546328
178	0xbd8d5072	-0.06900109
179	0xbcf81b83	-0.030286556
180	0x3cee7976	0.029110651
181	0x3d86e4fb	0.06586643
182	0x3e102411	0.14076258
183	0xbb37bc1c	-0.0028035706
184	0xbd41bbb3	-0.047298145
185	0x3c0fac1d	0.008769062
186	0xbdcdbbf8	-0.10045618
187	0xbd4e9db6	-0.050443374
188	0xbdbe29d0	-0.09285319
189	0x3d417db7	0.04723903
190	0xbdb6e611	-0.089306004
191	0x3d607de5	0.054807562
192	0x3d78ce23	0.060743462
193	0xbdbae2fa	-0.091253236
194	0xbd61dee6	-0.055144213
195	0xbdd272c3	-0.10275795
196	0x3cdc13ed	0.02686497
197	0x3d1b37c4	0.03789498
198	0xbe018b9b	-0.12650912
199	0x3d8756c7	0.06608348
200	0xbd8ca846	-0.06868033
201	0xbe28492c	-0.16434163
202	0xbe1b8b65	-0.15189894
203	0xbe2b70f2	-0.16742304
204	0xbd96098c	-0.0732604
205	0x3d3b47f3	0.045722913
206	0xbdd4a271	-0.10382546
207	0xbda6d410	-0.081459165
208	0x3dc5381c	0.09629843
209	0xbdb0e244	-0.08636907
210	0x3c302769	0.010751584
211	0x3d28df9c	0.041228876
212	0x3e011eaa	0.12609354
213	0x3e116e88	0.1420232
214	0xbc6c2e76	-0.014415374
215	0x3d936eba	0.07198854
216	0xbdef1678	-0.116742074
217	0xbc0ed2a8	-0.008717217
218	0xbd96ac12	-0.073570386
219	0xbc2d3d86	-0.01057375
220	0xbde37d84	-0.111079246
221	0xbd18cc07	-0.03730395
222	0x3d31dc4c	0.043422982
223	0x3d269e45	0.04067828
224	0xbcc620dd	-0.024185592
225	0x3da8c0ad	0.08239875
226	0xbdc10ac8	-0.094258845
227	0x3d1cfc4c	0.038326547
228	0xbd4027cd	-0.046912957
229	0x3c85e928	0.01634653
230	0x3da08edf	0.078397505
231	0xbe62c4e9	-0.22145428
232	0x3d2dadbb	0.04240201
233	0xbdd66a07	-0.10469442
234	0xbd8e6286	-0.069523856
235	0xbc9ae40e	-0.018907573
236	0xbe1243a0	-0.1428361
237	0xbd3c2072	-0.04592938
238	0xbd4c3acb	-0.049860757
239	0x3dc75d34	0.09734574
240	0x3e22a434	0.15882951
241	0xbca0c812	-0.019626651
242	0x3d76e964	0.060281172
243	0xbe40bfc5	-0.18823154
244	0xbe339ca8	-0.17540228
245	0xbe00ec5e	-0.12590167
246	0xbe4e9d33	-0.20177154
247	0x3c1dece5	0.009639
248	0xbdb1b6e4	-0.08677462
249	0xbdfb955e	-0.12284349
250	0xbe2e1139	-0.16998757
251	0xbcc649e3	-0.024205154
252	0x3e11251b	0.14174311
253	0x3d35c70f	0.04437929
254	0x3e47ef48	0.19524872
255	0x3e236dfa	0.15959921

conv22.bias f4 [8]
0	0xbd5328e8	-0.051552683
1	0x3b1e5bcd	0.0024163604
2	0x3bc1c05c	0.0059128236
3	0x3e1247ce	0.14285204
4	0xbdac6c2b	-0.08419069
5	0xbc16dc68	-0.009207822
6	0x3d01bc75	0.031673867
7	0x3d875a2e	0.06608997

up1.weight f4 [8, 4, 2, 2]
0	0x3c9f9305	0.019479284
1	0x3e0a03ea	0.13478056
2	0xbe7a4cc8	-0.24443352
3	0xbe5123f9	-0.20423879
4	0xbe60e79d	-0.21963353
5	0x3e586bf1	0.21134926
6	0x3de7240f	0.112861745
7	0xbe322404	-0.17396551
8	0x3c9e7688	0.01934363
9	0x3e15af08	0.1461755
10	0xbdbc8d7c	-0.092066735
11	0x3e061d01	0.13097002
12	0x3df00c62	0.11721112
13	0x3e913953	0.28364047
14	0x3e22b3a5	0.15888841
15	0x3cbb4973	0.022862172
16	0xbdf04060	-0.117310286
17	0xbdb9b9a6	-0.09068613
18	0x3d92ca62	0.07167508
19	0x3d8aaa9f	0.06770825
20	0x3e349c01	0.17637636
21	0xbe43bc30	-0.19114757
22	0x3dad0f21	0.08450151
23	0xbc80b5bb	-0.015711656
24	0x3d96e6a1	0.07368208
25	0x3e86ce88	0.26329446
26	0x3d82f33e	0.06394051
27	0x3d3e65b2	0.046483703
28	0xbd91ce3d	-0.07119415
29	0xbe9efc5d	-0.31051913
30	0xbe4d1a68	-0.20029604
31	0x3e0db087	0.13836871
32	0xbd9d1647	-0.07670265
33	0x3e81fd46	0.25388545
34	0x3bc64e9d	0.006051852
35	0x3e3aabaa	0.18229547
36	0x3e64608b	0.22302453
37	0x3de44fa9	0.111480065
38	0x3e08be08	0.13353741
39	0x3e8ceb84	0.27523434
40	0xbd0b2079	-0.033966515
41	0x3e60a50e	0.21937963
42	0xbe331ef1	-0.17492272
43	0x3e9c7729	0.30559662
44	0xbb50a8c1	-0.0031838866
45	0x3b803f38	0.0039137863
46	0x3d8624d6	0.06549995
47	0x3d329852	0.043602295
48	0x3e59e085	0.21277054
49	0xbdc7d775	-0.09757892
50	0xbda4c011	-0.08044446
51	0x3e975bda	0.29562265
52	0xbe2afbe0	-0.16697645
53	0x3e3ba806	0.18325815
54	0x3e967e76	0.29393357
55	0x3e5384a6	0.2065607
56	0xbd7bfaa7	-0.061518338
57	0x3d494144	0.049134508
58	0xbe5370d6	-0.20648512
59	0xbdc6dc78	-0.0971002
60	0xbd211368	-0.039325148
61	0xbe42ed60	-0.19035864
62	0x3e175d49	0.14781679
63	0x3e3d9660	0.18514395
64	0xbd82b896	-0.06382863
65	0xbd0c6658	-0.03427729
66	0x3e8f88ee	0.28034157
67	0x3c547ca3	0.012969169
68	0x3e579488	0.21052754
69	0x3e6d963f	0.23201846
70	0xbd729bbc	-0.05923055
71	0xbe588fbe	-0.21148583
72	0x3e93d810	0.2887578
73	0xbe0b20f4	-0.1358679
74	0x3e699ff4	0.22814924
75	0xbdf6267e	-0.120190606
76	0x3dc3124e	0.09524976
77	0x3deba08a	0.1150523
78	0xbc93673b	-0.01799356
79	0x3e4342ef	0.19068502
80	0xbe3d6b1c	-0.1849789
81	0xbd59b4f0	-0.05315107
82	0xbcb10329	-0.021607952
83	0x3e639af9	0.22227086
84	0x3e0f279e	0.13979957
85	0x3e44cf00	0.19219589
86	0x3df2ce75	0.11855785
87	0x3e74e14f	0.23914073
88	0xbcf2ee1f	-0.02965456
89	0xbd41a986	-0.04728081
90	0xbcaf07a4	-0.021365948
91	0x3de174ee	0.11008631
92	0xbd49289d	-0.049110997
93	0x3dd1d12c	0.102449745
94	0x3d85275a	0.06501646
95	0x3dcaf7ab	0.0991052
96	0x3e585a75	0.21128257
97	0x3d892f01	0.066984184
98	0x3e171c27	0.14756833
99	0xbd9fe9c2	-0.07808258
100	0xbe480c50	-0.19535947
101	0x3e2d2d0d	0.16911717
102	0x3dc1e422	0.09467341
103	0x3e4386ce	0.19094393
104	0x3e017107	0.12640773
105	0x3d0a06eb	0.033698004
106	0xbe473502	-0.19453815
107	0xbe84aaf1	-0.25911668
108	0x3da8887d	0.08229158
109	0x3e43fcee	0.19139454
110	0xbd57f3bb	-0.052722674
111	0xbda0c4c8	-0.07850033
112	0xbd4ae14c	-0.049531266
113	0xbea7da74	-0.32783854
114	0xbd4254a2	-0.047443993
115	0xbeb714ca	-0.35758048
116	0xbeb9334a	-0.36171943
117	0xbe8b87e5	-0.27252117
118	0xbe31d4df	-0.1736636
119	0xbd4b0038	-0.049560755
120	0xbdb31df7	-0.0874595
121	0xbe7a0f2e	-0.24419853
122	0xbe52e9bb	-0.20596974
123	0xbc6aa626	-0.014321839
124	0x3cb9632e	0.0226303
125	0xbe4de693	-0.20107488
126	0x3dd90d54	0.10598245
127	0xbdcbe725	-0.09956197

up1.bias f4 [4]
0	0x3e655475	0.22395499
1	0x3e36ea32	0.17862776
2	0x3d92104e	0.07132016
3	0xbe09e9eb	-0.13468139

conv13.weight f4 [2, 4, 3, 3]
0	0xbc28070e	-0.010255588
1	0xbdfd7610	-0.12376034
2	0x3d791326	0.060809277
3	0x3d825e61	0.063656576
4	0x3e5b2413	0.2140048
5	0xbc464e5e	-0.012103645
6	0x3e65aa98	0.22428358
7	0xbce066b5	-0.027392725
8	0x3dc9579f	0.098311655
9	0xbd783959	-0.060601566
10	0x3d67f564	0.056630507
11	0x3dfce5fc	0.123485535
12	0x3db5d987	0.08879381
13	0x3c9bbf4d	0.019012118
14	0xbda8a82c	-0.08235201
15	0xbdfbf564	-0.12302664
16	0xbdeb8b5b	-0.11501189
17	0xbe322209	-0.17395796
18	0x3de28fce	0.11062585
19	0xbdb99f7d	-0.09063623
20	0xbd835172	-0.06412019
21	0xbe56a23a	-0.20960322
22	0xbd84513e	-0.06460808
23	0x3d9c5319	0.07633037
24	0xbb07771f	-0.0020670367
25	0xbd5bcc44	-0.0536616
26	0x3ccbebe0	0.024892747
27	0x3e03d005	0.12872322
28	0x3d5cae11	0.05387694
29	0xbe032aa5	-0.12809236
30	0x3d0d0632	0.034429736
31	0xbda5030b	-0.08057221
32	0xbe0dfd84	-0.1386624
33	0x3e09210e	0.13391516
34	0xbe52b36b	-0.20576255
35	0xbdc9b9a6	-0.09849863
36	0x3dde6400	0.10858917
37	0x3e11300c	0.14178485
38	0xbe3f4298	-0.18677747
39	0xbd2ec8ba	-0.042671897
40	0x3c9515e1	0.01819891
41	0x3e23e1cf	0.16004108
42	0x3e36c499	0.17848434
43	0x3e36d7d4	0.1785577
44	0x3e1da5d7	0.15395294
45	0xbc8dfe10	-0.01733306
46	0x3e111e84	0.14171797
47	0x3c258111	0.010101573
48	0x3d2a1029	0.041519318
49	0xbcbc002f	-0.022949306
50	0x3db3f18d	0.087863065
51	0x3dcfe6c2	0.101514354
52	0x3b53c3cc	0.003231275
53	0x3e27cbf4	0.16386396
54	0xbca8116c	-0.02051612
55	0x3d6e768a	0.058218516
56	0x3e29c827	0.16580258
57	0x3de00982	0.109393135
58	0xbd3ada69	-0.04561845
59	0xbd8608f7	-0.06544679
60	0x3d5d9cb0	0.054104507
61	0x3c6e20e4	0.014534209
62	0x3cddb461	0.02706355
63	0x3df1f91e	0.118150935
64	0x3daa31bd	0.08310268
65	0xbdcb35cd	-0.09922371
66	0xbd5332cc	-0.051562116
67	0x3e6471ea	0.2230908
68	0x3d1df27c	0.03856133
69	0xbd3c2077	-0.0459294
70	0xbdcdc59a	-0.10047455
71	0x3e19db3d	0.15025039

conv13.bias f4 [2]
0	0x3ea388dd	0.31940356
1	0xbd8aefe9	-0.067840405

conv14.weight f4 [2, 2, 3, 3]
0	0xbe307bde	-0.17234752
1	0x3e6a8dc6	0.22905645
2	0x3dfc4fe0	0.123199224
3	0x3da8f8fd	0.08250616
4	0xbe5270cf	-0.20550846
5	0x3e31e6c9	0.17373194
6	0xbdc79401	-0.097450264
7	0x3e368d55	0.17827351
8	0xbe563aae	-0.20920822
9	0xbe36aad9	-0.1783861
10	0xbe84255c	-0.25809753
11	0x3e232f72	0.15936068
12	0x3e952a1f	0.29133698
13	0xbe480f8a	-0.19537178
14	0x3e20660c	0.15663928
15	0xbd86ca24	-0.06581524
16	0xbe4b73d8	-0.1986841
17	0x3dd1144e	0.10208951
18	0x3e797b57	0.24363457
19	0x3e2518e1	0.16122772
20	0x3dfd76d8	0.12376183
21	0x3e87f261	0.26552108
22	0xbdd1bcea	-0.102411106
23	0x3de7272d	0.11286769
24	0x3ccef608	0.025263801
25	0x3d213ec3	0.039366495
26	0x3e5d4c73	0.21611194
27	0xbe162cc4	-0.14665514
28	0x3dfe09a1	0.1240418
29	0xbcf248ea	-0.029575784
30	0x3e3219ef	0.17392705
31	0x3c770bf4	0.015078533
32	0x3e0937af	0.13400148
33	0x3e80fb2f	0.25191638
34	0xbd711423	-0.058857094
35	0xbe574b12	-0.21024731

conv14.bias f4 [2]
0	0x3eb9a976	0.362621
1	0xbd705c4b	-0.058681767

conv15.weight f4 [1, 2, 3, 3]
0	0x3d9bdc56	0.07610385
1	0x3e70ba90	0.23508668
2	0x3c2194da	0.009862149
3	0x3e57e4fc	0.21083444
4	0x3e2f5e02	0.17125705
5	0x3cc6147f	0.024179695
6	0x3d8b880d	0.06813059
7	0x3dcba3ba	0.09943338
8	0x3e6a9181	0.22907068
9	0x3e406569	0.18788685
10	0xbe080a5c	-0.13285202
11	0x3d1cc489	0.038273368
12	0x3e179c29	0.14805664
13	0x3e480576	0.19533333
14	0x3dbf2bb3	0.09334507
15	0x3e049d09	0.12950529
16	0xbc8d1a44	-0.017224438
17	0x3cf31e4d	0.029677534
