output/yhy_e/train/model/stn_1.pt (torch_old, 658934 bytes, 14 tensors)

conv1.weight f4 [8, 2, 5, 5]
00000000: ad59 eb3d f1ad e03d 8729 a3bd cfea febd
00000010: 72b2 da3d a0d8 01be 7372 b63d 80e0 0ebe
00000020: 270d 9bbd 74da 81bd 09a1 063e 88f2 d0bc
00000030: f93b f63d a552 1a3d 68a9 083e eee4 bc3d
00000040: f827 d23d a706 f93d 28cb 32bd 2c94 2dbd
00000050: a6a6 343d 7614 fc3d fdd1 5bbd 677c e7bd
00000060: bd9d e9bd 4de9 89bd e70b a83c b6a6 a3bc
00000070: 2496 29bd 0ded 8ebd ce15 0e3d d2f8 f2bd
00000080: 2ea5 0a3e 5afc d2bc 2d8b b83c 79e8 2f3d
00000090: 6f8c 70bd 26bf dc3d a57f a4bb 1b8f f93b
000000a0: 0098 0dbe 3304 623c ed15 373d 3dd8 803c
000000b0: a3ad 93bc e90d d33d d03f dd3d be6c bf3d
000000c0: c565 eabc c344 a63c d3c5 cebd 0930 ddbd
000000d0: 4d66 dcbc 0c29 5c3c 75f2 adbd cc77 f6bd
000000e0: f4b7 7e3d bd02 4b3d 4804 c4bd 30b4 bb3d
000000f0: 266e ddbd 7e95 d63d 287f 953d 8fc6 4cbd
00000100: 9476 073e 0cc9 a7bd 9106 89bd 196b e23d
00000110: b816 1ebd 2449 73bd 8f31 9d3c f405 d8bc
00000120: 22cb b13d 64f3 e73d 0074 783d 3351 e23c
00000130: b227 053d 3493 263a 6dec 5f3c 6da1 32b9
00000140: 7171 bf3d 82c6 9b3d 0e6a 8dbc 86c1 4e3d
00000150: 8874 a23b 2eb1 403d afbe e73d 7128 cbbd
00000160: 96f5 8c3c a62c 04bd 7f7e 10be 2ab4 0fbe
00000170: 9d86 afbc 6f7a c93d eac8 c4bd b32e 313d
00000180: 7719 a13d 0906 d9bd d441 6d3d 21be c33c
00000190: 38e4 03be c2a7 35bb b409 08be 08f9 fc3d
000001a0: 4e6c 873d 69b3 5d3d 3b42 de3d c85e dd3d
000001b0: e1aa 0f3e c474 6e3d 9740 d1bd 6d78 063e
000001c0: 79c0 203d c797 64bd 1df9 57bd 2b6b 073e
000001d0: 2585 003d 4e77 d23d 2818 343c 04b3 053e
000001e0: 362b d4bd 81d6 093d 851f 0a3d 59c1 d8ba
000001f0: fec6 003e def9 e63c bd61 f33b c228 c53d
00000200: c6f0 3abc 3a23 19bc 2733 efbd 4680 97ba
00000210: 74b4 87bd 8e31 a73d 1988 fb3d 524f 07be
00000220: d739 a8bd b82b 0b3e 5f39 78bd 7b93 003e
00000230: 485d 0e3e d039 12bd 1ef7 eabd c553 903d
00000240: a33a 833d 5144 fb3d d873 a53c defc 9c3d
00000250: 47d1 f8bd 4c03 9e3c 6496 063d 6397 b43d
00000260: 7a0f 9cbd 32aa 8ebc f1b3 adbd 4ac9 c3bd
00000270: 2957 6f3d 55c8 ac3c de17 643d b7a3 75bb
00000280: 577f 7dbb 74ad bfbb ee8c 9b3d 966c c9bd
00000290: 8964 f53c b00a 9e3d 672c a73d b9d6 8bbd
000002a0: b05a df3d 2a1a c2bd 433d 963d c126 ec3d
000002b0: 7df8 873b d9af 2f3d 03b3 09be 4e91 67bd
000002c0: e724 66bd 9474 07be 5683 f9bc 0254 c93d
000002d0: 4e46 67bc c975 0e3e 1cfe 02be 8edf 643d
000002e0: b68c f93d 3f23 0c3e 7b4f 63bd 2b64 03be
000002f0: cc05 57bd 17d1 d53d 360d 413c b3c5 093e
00000300: 03c3 d4bd 0c71 b6bd ecb8 923d 721d 443d
00000310: 307a bdbd 6018 063e 688c 61bd d49e f1bd
00000320: 712e 193d 3ab6 a9bd ce28 95bd d896 adbd
00000330: e112 083d 1a81 833d 35e5 bb3d 56a3 adbd
00000340: f12c 1cbd 942f 023e 4b8e 99bd 3f69 61bd
00000350: 00ca 05bd b50c 06be 7f73 e0bd a7e2 fc3d
00000360: 51dd b73c ba11 b03c 409c 503d fdc5 a63d
00000370: a6d9 bd3d 97d2 c73d 72ea 553d 5bb1 cf3d
00000380: 8166 b33d 73ce cebc e49c 433c 6354 9ebd
00000390: fb78 dfbd 2ba2 063e 2215 dabd 59b6 b4bd
000003a0: 19da 0cbe 2638 e2bd 2370 f53c 84dc 883d
000003b0: cfc9 efbd 0eca 1b3c ca0f d9bd f938 cc3c
000003c0: 23cb aa3d 9338 62bd 8bb0 82bd 1439 b93d
000003d0: 4e6e bebd c1a5 f4bc 748c f2bd bcc3 c73d
000003e0: f073 323d 1d46 6dbd 6447 ce3d 8732 093e
000003f0: 5ab2 6c3d f881 ccbd 6fdd fcbc 5026 e93d
0.11491714 0.10970677 -0.07966905 -0.1244713 0.10678567 -0.12680292 0.08908548 -0.13952827
-0.07570868 -0.06340495 0.13147368 -0.025506273 0.120231576 0.037676472 0.13345873 0.092233524
0.1026153 0.12159472 -0.043650776 -0.042377636 0.04410424 0.1230859 -0.053667057 -0.11303025
-0.11407039 -0.06733952 0.020513488 -0.019976955 -0.04140295 -0.069788076 0.034688763 -0.11863865
0.13539574 -0.025755096 0.022527302 0.042946313 -0.058727678 0.10778646 -0.005020099 0.0076159365
-0.13827515 0.0137949465 0.044698644 0.01572811 -0.018027132 0.103053875 0.10803187 0.09346913
-0.02861298 0.02029646 -0.10096326 -0.108001776 -0.02690425 0.013437521 -0.08493511 -0.12034568
0.06218715 0.04956316 -0.09571129 0.091652274 -0.10812025 0.10477732 0.07299644 -0.049994048
0.13228828 -0.081926435 -0.066907056 0.110555835 -0.038595885 -0.059395924 0.01918867 -0.026370026
0.08681323 0.1132572 0.0606575 0.02762661 0.03250856 0.00063543324 0.013667208 -0.00017035539
0.09347809 0.07606222 -0.017262485 0.050477527 0.0049577393 0.04704397 0.11315667 -0.09919823
0.017206948 -0.032269143 -0.14110754 -0.14033571 -0.021426493 0.098378055 -0.09608634 0.043257426
0.07866185 -0.10596854 0.057924107 0.023894371 -0.12880027 -0.00277184 -0.13284951 0.123521864
0.06612454 0.054126177 0.10852476 0.10809094 0.14030029 0.058216825 -0.10217398 0.13131876
0.039246056 -0.05580881 -0.052727807 0.13224475 0.031376977 0.10276662 0.010992087 0.1305657
-0.10359804 0.033651832 0.033721466 -0.0016537114 0.1257591 0.028195318 0.007427423 0.096269146
-0.011409944 -0.009346778 -0.116796784 -0.0011558614 -0.066262156 0.08163749 0.12281818 -0.13213852
-0.08214157 0.13590896 -0.06060159 0.1255626 0.13902771 -0.035699666 -0.11472915 0.07047228
0.064076684 0.1226889 0.02019684 0.07665418 -0.121492915 0.019288681 0.032858267 0.08817937
-0.076201394 -0.01741514 -0.08481587 -0.09559877 0.05843273 0.02109162 0.055686824 -0.0037481615
-0.0038680637 -0.0058495346 0.075952396 -0.09835164 0.029955165 0.07716882 0.08162766 -0.068280645
0.10905969 -0.09477647 0.073359035 0.11530829 0.004149495 0.04289231 -0.13447194 -0.056535058
-0.056187537 -0.13228065 -0.030458134 0.09830476 -0.014115883 0.13912119 -0.12792248 0.05587726
0.121850416 0.1368532 -0.05549572 -0.1283118 -0.052495763 0.10440271 0.011782935 0.13454323
-0.10388758 -0.08908281 0.07164177 0.047879644 -0.09251821 0.13095236 -0.055065542 -0.11797872
0.037397806 -0.0828671 -0.072831735 -0.08476037 0.03322113 0.064211085 0.09174577 -0.084784195
-0.038128797 0.12713462 -0.07497843 -0.05503201 -0.032663345 -0.13090785 -0.10959529 0.12347918
0.0224444 0.021492828 0.05093026 0.08143232 0.09270029 0.09756964 0.052225538 0.1014125
0.087597854 -0.025244927 0.011939261 -0.07730939 -0.10911747 0.131478 -0.10648562 -0.088238426
-0.13755073 -0.11045866 0.029960698 0.06682685 -0.11708414 0.009508623 -0.10598715 0.02492951
0.083395265 -0.055229735 -0.06381329 0.0904409 -0.09298383 -0.029864194 -0.118431956 0.0975413
0.043567598 -0.057928193 0.100722104 0.13398181 0.057787277 -0.09985727 -0.030867307 0.11384261

conv1.bias f4 [8]
00000000: 7afa 783d 2e64 9bbb 03a4 03bd 2c1d f8bc
00000010: 8a85 f5bd 63bc c93d 4330 033e 35be 03be
0.060785748 -0.004742167 -0.032138836 -0.030287348 -0.11988361 0.09850385 0.12811379 -0.12865527

conv2.weight f4 [16, 8, 5, 5]
00000000: d8b7 89bd c119 87bd e5c6 34bc f993 4939
00000010: 24b3 3bbd 1434 213d 7d04 a23b 4f23 11bd
00000020: 1c58 8bbd 2207 633d 5540 903d b314 e13b
00000030: 8648 09bd dc9f 393d f337 2c3d 35f6 20bc
00000040: be7b 883d a292 54bd bee8 fdbb 22f8 763d
00000050: 43d9 31bd eeb8 afbc 7833 f3bc ed44 eabc
00000060: d249 803d 736a 333d b0fb 82bd 9bd3 2fbd
00000070: 2a64 2cba 1410 babc b998 1ebd 07b5 8dbd
00000080: f6fb 563d 074a 233d 6250 aa3c dd97 80bc
00000090: a6cd 8bbd 76d8 86bb aa9a df3c bbfc a5bc
000000a0: 5de9 643d 8a7a 863c aca6 53bb f6f7 e63c
000000b0: 01fe 173d 506a 53bd d949 b23c 931c 83bd
000000c0: 870c 6fbc 2aaf b9bc fa2c 5e3d 1fdd 8abd
000000d0: dd3d d03c 985d 83bd 9b9f fd3c 1ee1 8f3c
000000e0: 9a7a e1bc 929d ad3c 2ca0 8b3d 67aa 313d
000000f0: d5a0 83bd deb4 93bc 76fe 833d eb8d 383c
00000100: 886f 143c cf03 ae3b 7943 c9bc ea0d 95bc
00000110: ca6e a43b fc74 5b3d 91e9 a0bc 5122 95bc
00000120: 794f 613c 5c74 d1bc 920f 7e3d 763b 5a3d
00000130: 8f50 463b 5a50 3abd e9ba a43c 5e9d 763d
00000140: 8bbc bf3c 9129 f33c d987 18bd 9408 8ebd
00000150: c8a7 d7bc 50e5 1d3b c8ca 803d e35c 743c
00000160: e9d5 4fbc d05f 8fbc 3a6b 5abc 7e46 1bbd
00000170: 7552 f1bc 9e49 5b3c c225 453d 60e2 763d
00000180: 8484 e03c e759 47bd 645b 863d f442 8c3d
00000190: fa88 94bc 2e05 a73b e6fc 883d ab7a b1bc
000001a0: 13c4 143d 34b9 703c 995f 2c3d ac17 e13c
000001b0: 1954 963d 189b 803d ccfd 38bd 626c 393d
000001c0: cfd0 38bc 0566 0abd 9542 723c 05a7 d1bb
000001d0: c31d 31bd 9a10 75bd 7dde 14bd f77e 263c
000001e0: 2a2f 3e3d 9448 373d aca6 b03c e56e 8f3d
000001f0: bcbf 6cbd fdc8 34bd 2168 fc3c 8204 83bd
00000200: 0f8e 893d 3f97 273c 907d d2bc abf1 813d
00000210: feb6 083d f08e 753d 4540 5c3d a17f 43bc
00000220: b429 843d c539 1f3c b003 f03b 2383 cd3c
00000230: a61a 61bd 1ac0 2bbd 28c0 893d b2b1 3bbd
00000240: 9b98 1e3d e6d3 303d 248a 69bd 4410 febb
00000250: 9e67 b0b9 fbe3 583d 1fa1 9bbc 3fac 833d
00000260: a886 71bd 4bdd f43c c9c2 1f3d 60dd cdbc
00000270: 171e bbbc 41ec 36bd aeb8 9c3c 2076 c53c
00000280: 4acb c8bc 03d3 6b3d 9457 2bbc 2a37 2ebc
00000290: 32ee 633d 8cea 503c 1693 1c3d cc2e 2c3d
000002a0: bb01 3cbd 1bc5 f2b9 9bb1 803d 7c91 31bd
000002b0: af11 1d3c 5ca1 583d 9307 073c e514 62bc
000002c0: 5b61 e13c 90b6 67bd 5750 773d d82f 6e3d
000002d0: cb57 91bc e992 c1bc 4a8a 44bc 5fb8 943d
000002e0: 42c7 c8bc 20e5 bd3c b481 85bd da41 bd3c
000002f0: 335b 383d beb5 d03c cf0a c2ba 0245 e73b
00000300: d6a4 803d c0ed 053d e373 63bc 1afa 60bd
00000310: bd12 5b3d a9ac cabc 1b2e 3c3d e82c 42bc
00000320: ccfe fcb9 9249 6bbd 9cc0 eebc 0e47 a23b
00000330: 367e 90bd 1112 86bc 19d7 1b3d 9ef3 493d
00000340: f043 523d 0829 d1bc 4d5d 613b c7eb 72bd
00000350: 34d6 143d e4d1 403c dfe4 613d 392d 52bc
00000360: 3900 8b3d 961c 0f3d cdf0 733d e476 0cbc
00000370: d3e6 6abd 8b96 60bd 745c 88bd 45a7 313c
00000380: b670 70bd aba8 b0bc 2867 033d f368 7c3d
00000390: 35d9 9dbc 7196 453d d8e8 8cbb d708 90bc
000003a0: d31a 32bc 3a12 09bd e4db 983c 2acf a838
000003b0: 35e4 1cbd a03c 2e3d b2ba 07bd e9cd 46bd
000003c0: 38e0 dc3c 076a 05bc ceaa 28bd d911 72bd
000003d0: da37 b1bc a324 55bd 80c4 0d3d 4efb 36bc
000003e0: 8ec1 103d 7639 0b3d d5fb 3a3b d1e3 6abc
000003f0: d67a 1abd bfab 643c 3b70 80bd 5e8e 17bd
-0.067245185 -0.06596709 -0.011033748 0.00019223978 -0.04582514 0.039356306 0.0049443827 -0.035434064
-0.06803915 0.055426724 0.0704352 0.0068689226 -0.03351643 0.04531847 0.042045545 -0.009824325
0.06664227 -0.051897652 -0.0077486923 0.06029523 -0.043420088 -0.021450486 -0.029687628 -0.02859732
0.0626408 0.04380269 -0.06395662 -0.042926412 -0.0006576205 -0.022712745 -0.038719866 -0.06919294
0.052486382 0.03986552 0.020790283 -0.015697414 -0.06826334 -0.0041151596 0.02729543 -0.020262113
0.055886615 0.016415853 -0.003229539 0.028194409 0.03710747 -0.05161506 0.021763729 -0.064019345
-0.014590389 -0.022666533 0.05424211 -0.06780457 0.025420124 -0.06414336 0.030959895 0.017563399
-0.027524281 0.0211933 0.0681766 0.0433754 -0.06427161 -0.01803058 0.06445019 0.011264305
0.009059794 0.0053105126 -0.024568306 -0.018195111 0.00501809 0.053578362 -0.019642623 -0.01820484
0.013751858 -0.02556818 0.062026568 0.053279363 0.003026042 -0.045486785 0.020108657 0.06020867
0.023405334 0.029682906 -0.03723893 -0.0693523 -0.026325122 0.002409298 0.062886775 0.014914724
-0.0126852775 -0.017501742 -0.013331229 -0.037909023 -0.029458264 0.013384251 0.04813171 0.06027448
0.027406938 -0.048669722 0.065604 0.06848708 -0.018131722 0.005097053 0.066888615 -0.021664938
0.036319803 0.014692593 0.042083357 0.027477108 0.07340259 0.06279582 -0.045163915 0.045269378
-0.011280253 -0.0337887 0.014786382 -0.006398084 -0.043241274 -0.059830286 -0.036344994 0.010162107
0.046431698 0.04474695 0.02156385 0.07003573 -0.05780004 -0.04413699 0.030811371 -0.06397344
0.06716549 0.010228931 -0.025694638 0.06344923 0.03337764 0.05995077 0.05377223 -0.011932285
0.06453267 0.009718363 0.0073246583 0.025086945 -0.054957055 -0.04193125 0.06726104 -0.04582376
0.038719755 0.043170832 -0.057016507 -0.007753404 -0.00033646537 0.052951794 -0.018997727 0.06429338
-0.05896631 0.029890677 0.03900412 -0.025129974 -0.022841496 -0.044658903 0.01913103 0.024104178
-0.024510998 0.057574283 -0.010457892 -0.010633269 0.055647083 0.012751233 0.03822621 0.042036816
-0.045900088 -0.00046304692 0.062838756 -0.043351635 0.009586736 0.05288826 0.008241552 -0.013798927
0.027512243 -0.05657059 0.060379352 0.058151096 -0.017742058 -0.023629623 -0.011995861 0.072617285
-0.024509076 0.023180544 -0.065188795 0.02310269 0.04500885 0.025477286 -0.0014804247 0.007057787
0.0628144 0.03269744 -0.01388261 -0.054926015 0.053484667 -0.024740534 0.045942407 -0.011851527
-0.00048255024 -0.05744321 -0.029144578 0.004952318 -0.07055323 -0.016366037 0.03804693 0.049304597
0.05133432 -0.02553226 0.0034387887 -0.059306886 0.036337093 0.011768792 0.05514991 -0.012828165
0.06787152 0.03493937 0.059555817 -0.008573268 -0.057349037 -0.05483107 -0.06658259 0.010843103
-0.05870124 -0.021564802 0.0320808 0.061623525 -0.019268611 0.048239175 -0.004300218 -0.01758234
-0.010870653 -0.033464648 0.01865954 8.0494516e-05 -0.038303573 0.042538285 -0.03313703 -0.048536215
0.026962385 -0.008142955 -0.041178517 -0.059099052 -0.021633077 -0.052036893 0.034611225 -0.011168314
0.035340838 0.033990346 0.0028531451 -0.014336542 -0.0377148 0.013956963 -0.06271406 -0.037001006

conv2.bias f4 [16]
00000000: f5a8 2abd d83a 9e3c 0ab0 5e3d 16bb 1c3c
00000010: c22c d83c 389c 70bd 90f6 5fbd 27d5 31bd
00000020: 42bc 25bd 428d fdbc c7af 3abd 87a1 b3bc
00000030: 55c5 35bd 68ea ab3c a612 bfba c128 b7ba
-0.041665036 0.019315168 0.054367103 0.009566089 0.02638853 -0.05874273 -0.0546785 -0.04341617
-0.04046274 -0.030951146 -0.04557779 -0.021927608 -0.044377644 0.020985797 -0.0014577701 -0.0013973938

conv3.weight f4 [32, 16, 5, 5]
00000000: 1962 af3c e030 38bd 1474 9ebc 292a c2ba
00000010: 55d8 3ebd ee9c db3c ec9c 19bd 58e9 0a3d
00000020: 4587 4b3d 08a4 2b3c e4ea c4bc c4da 103d
00000030: 736b 06bd ee18 233b ae2d 013d 4884 413d
00000040: 8b19 793b 5c55 7bbb e23c 8cbb 32ef 45bd
00000050: 67f0 173c 549f 21bd e4dd 963b 180c 41bc
00000060: 3ee7 023d 889a abbc deb8 0e3d 3a4e 43bc
00000070: 236e debb 4517 38bd 2575 2e3d a4a5 683b
00000080: 1643 3cbd 979b c43b bb09 be3c 5859 37bc
00000090: df94 233d 1a0b b03c 2b02 99bb a0cd 5b3d
000000a0: 0182 0d3d aa72 e4bb 0acf 11bc 2c5f 7f3c
000000b0: 92ae 83bc 6ccc f83c 6991 47bd d22f f2bc
000000c0: 1018 b73c ba0b 3fbd 0d75 8bbc a380 e0bc
000000d0: ce69 dc3c 6415 153b 2078 13bd 2d36 233d
000000e0: d91c c1bc 227a c2bb 08f2 883c e166 0abd
000000f0: 7f36 a5bb 549b 8fbc 418f 4cbc 375d 96bc
00000100: 1aeb 013d f9f0 ccbc 4dab 0cbd 40af aa3c
00000110: 2b7b 813c 1b10 8839 1ec1 6c3b dad2 463d
00000120: 4036 8fbc 0a12 39bd 7d35 4bbd 742f 4b3c
00000130: 5a9d 913c b798 0a3b bfa2 28bd 5b12 1cbd
00000140: 08c2 0cbd ad09 083d b755 4a3c 05af dbbc
00000150: ea7b 3fbd 411a d43c 4c46 c639 0fd8 583d
00000160: d2d3 20bd 52cb 24bd ba27 153c 2fa8 103d
00000170: add2 143d 32d2 593d 3776 083d 9726 e23c
00000180: 12c8 d1bc 0da1 573d a362 90bc 162c 133d
00000190: ad74 a53c fa03 f5bc 18e2 a0bb 9636 91bb
000001a0: cda8 193d 4960 1b3d ccae 2c3c 4896 ecbc
000001b0: 2445 613c 6369 263d b783 dbbc 4ab3 233d
000001c0: 5930 333c d320 de3c d857 883c a8f7 ff3c
000001d0: 81e7 2ebd ba50 a73c 2c91 33bd d8f2 7ebb
000001e0: d68b 1e3d 0358 29bd 46de 1cbd 0c6e b6bc
000001f0: 40f8 cc3a 1d07 debb d03e 20bd 01f2 d13b
00000200: e45d 4bbc 24fd bdbc a33e 2f3a ef00 8c3c
00000210: 899b 023c e590 07bd f9ca 0b3d f034 1d3c
00000220: 0a34 a6bc 365b 313d a6c5 243c 7224 d63c
00000230: d8a6 113d b60b 2dba ce4b 293d 3bb1 8fb9
00000240: 41fc 233d 7d73 ce3b 219e be3c 3ee2 cf3c
00000250: 2dcd e2bc baf7 323d 4042 cc3a 78c3 9a3c
00000260: 89f2 0bbd a64c 6fbc 0b17 133d 5472 fcbc
00000270: 6825 ff3b 4a96 3f3d 94b2 36bd 8754 293b
00000280: e3bd 133c 71ec 0b3d 23d5 67bc 08b0 40bd
00000290: 559f e6bc 0a2c 883c ecc0 0ebd 83d1 22bd
000002a0: 25f5 b33a 8880 893c 3b35 ecbc ceb8 8fbc
000002b0: 34cc 003d e5eb f8bc 6fc8 18bd 49d3 80bc
000002c0: d37e 223d ab1b 7bbc f80d 0ebd d41d 14bd
000002d0: 4278 4dbc 89a9 0e3d 1583 953c 9c45 8fbc
000002e0: 4c78 34bd 931d ffbc 05b8 213c 8461 2a3d
000002f0: 091f cd3c 53a3 e8bb 0d97 d33c 16f5 3e3b
00000300: b4cb d33b c052 b93c 291e 55bc 2d50 653c
00000310: c71e 773b 4e26 723c 21d6 3abc 337d 013d
00000320: 1b64 42bd 92ab f33c 481a 30bd 6773 0ebd
00000330: 4b73 f6bc aa75 c5bb b16e d6bb fb69 54bd
00000340: 4af3 c43c d091 473c 2199 433d 13bf 16bd
00000350: cb80 25bd b214 2d3c 9602 1c3d 2307 003d
00000360: d9ad a03c 668d 103c b8cb dd3c 9c27 a2bc
00000370: 20b4 4bbd 3192 2ebd 22b2 01bd a1e4 723c
00000380: 47e8 413d bd6d 053d c5ac 04bd 6a43 683c
00000390: 7462 363d 7427 cd3a bc29 14bc 82e6 dbbc
000003a0: 289d 5fbb 893a 1b3d 48f4 61bc 093e eebb
000003b0: d5c7 c83c d734 9bbc c8b1 bbbc 4ce6 0e3c
000003c0: cb8d 153d 7550 b83b 7adb e6ba ab0d 22bd
000003d0: 704d f63c 9f81 2b3b 9fa1 b1bc 96f9 32bd
000003e0: 7aad c0bc 0208 0fbd 76c3 4f3c 66c1 223d
000003f0: a85e f2bb 6654 063d ec89 01bc fd5a adbc
0.021409081 -0.044968486 -0.01934246 -0.001481359 -0.04659303 0.026808228 -0.037503168 0.03391394
0.04968955 0.01047612 -0.024037786 0.03536488 -0.032817315 0.0024886685 0.031537704 0.047245294
0.003800961 -0.0038350439 -0.0042797187 -0.048323818 0.009273625 -0.039458588 0.004604088 -0.0117826685
0.03195881 -0.02094771 0.03484427 -0.011920506 -0.0067880317 -0.044944067 0.042592186 0.003549912
-0.045962416 0.005999993 0.023198 -0.011190735 0.039936896 0.021489669 -0.004669448 0.053662896
0.03454781 -0.006971677 -0.00889946 0.015586656 -0.016074453 0.030370913 -0.04872266 -0.029563818
0.022350341 -0.046642043 -0.017023588 -0.027405089 0.02690592 0.0022748346 -0.036003232 0.039846588
-0.023573326 -0.0059349695 0.016716972 -0.03378952 -0.005041897 -0.01753012 -0.012485326 -0.018354995
0.03171835 -0.025017248 -0.034343053 0.020835519 0.015805801 0.0002595194 0.003612585 0.048540927
-0.017481923 -0.04518322 -0.049611557 0.01240145 0.017775226 0.0021148154 -0.04117083 -0.038103443
-0.03436473 0.033212353 0.012349538 -0.026816854 -0.046749033 0.025891425 0.00037817878 0.052940425
-0.039264508 -0.040232964 0.00910371 0.035316642 0.03633373 0.053178973 0.033315863 0.027606292
-0.025608096 0.052643824 -0.017625159 0.035930716 0.020197237 -0.029909123 -0.004909765 -0.004431556
0.037514497 0.03793362 0.010539722 -0.028880253 0.013749395 0.04062785 -0.026796205 0.039965905
0.01093682 0.027115261 0.01664345 0.031246021 -0.042701248 0.020424236 -0.04383962 -0.003890207
0.038707577 -0.0413437 -0.038297914 -0.022269271 0.0015637949 -0.0067757503 -0.039122403 0.006407023
-0.012412522 -0.023191996 0.0006685054 0.017090289 0.007971653 -0.033097167 0.034129117 0.009595141
-0.020288486 0.043299876 0.010056889 0.026140425 0.035559505 -0.00066011713 0.04133206 -0.00027407132
0.04003549 0.0063003884 0.023268761 0.025376435 -0.027685726 0.04369328 0.0015583709 0.018892035
-0.034166846 -0.014605677 0.035910647 -0.030816235 0.0077864416 0.046774186 -0.0446039 0.0025837736
0.0090174405 0.034161035 -0.014149937 -0.047042876 -0.028152147 0.016622562 -0.034851953 -0.039750587
0.0013729675 0.016784921 -0.028833976 -0.017544176 0.031444743 -0.03038592 -0.037300523 -0.015725749
0.03967173 -0.015326421 -0.03468129 -0.03616126 -0.012540879 0.03482965 0.018250981 -0.017489247
-0.044060037 -0.031142032 0.009870534 0.041596904 0.025039213 -0.007099548 0.025828863 0.0029137782
0.0064634923 0.022622466 -0.013007679 0.013996166 0.0037707554 0.01477964 -0.011403591 0.03161354
-0.04745875 0.029744897 -0.042993814 -0.034778025 -0.030084273 -0.0060259895 -0.006543957 -0.051858883
0.02404179 0.0121807605 0.047753457 -0.036803316 -0.04040603 0.010564016 0.038088404 0.031256806
0.019614147 0.0088227745 0.02707468 -0.019794278 -0.049732327 -0.042619888 -0.03166402 0.014825017
0.047340658 0.032575358 -0.03239133 0.014176229 0.044527486 0.0015652017 -0.009043153 -0.026843313
-0.0034120772 0.03789762 -0.013791151 -0.0072705788 0.02450935 -0.018946094 -0.022911921 0.008721899
0.036512177 0.0056248256 -0.0017613017 -0.039563816 0.030066222 0.002616979 -0.021683512 -0.043695055
-0.02352022 -0.034919746 0.012680879 0.03973522 -0.007396538 0.032795332 -0.007906418 -0.02116155

conv3.bias f4 [32]
00000000: d621 bdbc d7a4 86bc c018 32bd 9026 9dbc
00000010: e9af 503b e360 d0bc e586 10bc e9df ecbc
00000020: f771 4b3c 0736 9c3c 7d8b 09bd 132d 91bc
00000030: 7b3d 77bb b156 f7bc fe97 bfbc 475e d03c
00000040: f15c e6bb 00c4 b33c 4b14 c53a d02f 78b9
00000050: 8b76 0cbd a3a7 333b 4db4 4e3d d5f9 443d
00000060: 116c 0d3d 3c71 6cbc ca13 373a 7251 333d
00000070: 5f34 26bc ce70 5c3c 7679 b43b dd51 0b3d
-0.023087423 -0.016436024 -0.043480635 -0.019183427 0.0031843132 -0.025436824 -0.008821224 -0.028915362
0.012417308 0.019068731 -0.033580292 -0.017721688 -0.0037725854 -0.030192705 -0.023387905 0.02543558
-0.0070301224 0.021944046 0.0015035955 -0.00023668935 -0.03429274 0.0027413152 0.050464917 0.04808982
0.03452689 -0.014431294 0.0006983845 0.043778844 -0.010144322 0.013454629 0.0055076433 0.034013618

fc.weight f4 [32, 4608]
00000000: 1e94 38bc 04a5 ceba e7f5 87bc 523d e3bb
00000010: 8a6c b93b 9039 1b3b f412 723c 5b1d 27bc
00000020: e4a9 de3b 2348 9eb9 22b3 6c3c 83c0 3a3c
00000030: 023b 213c e400 46bc 8f90 573c d28e 24bc
00000040: 1f28 f0bb f85e fe3b 9ce2 5dba a9ef cd3b
00000050: 4683 403c ea5f f4ba 5b87 a83b 0e6f 403a
00000060: 9155 1d3c 4d71 fd3b 9cc0 e339 4630 34bc
00000070: 8c5f 853b 369c 0d3c 082f 873a 9f7e d73b
00000080: aea5 613b aba1 c5bb 55b1 f3bb 28e3 85b7
00000090: 6ac8 3bbc a7f2 a038 d8b3 7bbb fae1 59bc
000000a0: 4a72 db3a 7de5 213b 4644 c43b 3b73 d2b9
000000b0: e378 b2bb c83b 09bb b481 38bc 825c 083b
000000c0: 6a9d 283c 34d9 483a a1e9 9f3a 2c3c 3e3c
000000d0: eef0 343c 7986 543c de21 443c 2a5e 063c
000000e0: 529d c238 6b14 67bc b00e 373b 28db 223c
000000f0: be42 4b3b 7418 093c ad1b 37bc 06cb 88ba
00000100: 3001 5b3c e998 65bc a181 13bb 51ee cb3b
00000110: 80e9 6fbc e7a0 bfbb bf67 c8bb 4b62 383c
00000120: 4a10 493a ca55 913a f310 443c 2b77 4e3b
00000130: 7231 b9bb b129 d73b 2ff1 e5bb f476 4a3c
00000140: 5223 9bbb 1926 553c 67af 96bb 4b73 303c
00000150: 5bda 833c fb84 8cbb db73 94ba fa1f dcbb
00000160: 22f5 fa3b 9dd8 aebb 505a 2c3c 1a2b 1abc
00000170: 22ae 97bb 0103 7abb cd28 4d3c f195 373c
00000180: c11b 17ba 728a 093c b874 4abc 57e8 09ba
00000190: 5219 5e3c 69eb 3fbb a0cc 0bbc 4e4e d3bb
000001a0: 3a1e 453c 11db 3f3b 3831 9e3b a5ce 8bbb
000001b0: 8fe8 be3b 8044 a3b9 2cfc 773c eaa3 133c
000001c0: d497 46bc 7c91 523c 5dde 26bc d2d8 90bb
000001d0: 0b5f 403b 360d 26bc 7321 3bb9 858d 03bc
000001e0: d3ff 49ba 7a38 20bb 0d56 1dbb bec5 c63b
000001f0: 1af5 1cbb 1ff7 6d3b 9caf 8e3a 146a 67bb
00000200: bdd1 4abc 4a58 f13b 7a84 77bc 8213 e8ba
00000210: e7e2 143c cc9a 553c d5d0 dcbb 18c9 803c
00000220: fbf8 56bb 6af4 28bb fab5 023c 5415 02ba
00000230: ae2a b0bb 0f6f 9e3b 2743 0f3c d5cd bf3b
00000240: d30d c23a 1ba6 6a3b 5426 f93b 311e 21bc
00000250: 63cb 403c 9db5 c13b 96f9 473c e815 31bc
00000260: 165c da3b 804c 113b b489 6239 c90b 5bbc
00000270: 6c40 74bb 6adb cfbb 4013 02bc 9ad7 3b3c
00000280: ce08 3fbc 0792 373b c4c4 e63b 92bc 663b
00000290: 8207 343c d3b5 753b b827 213c d788 963b
000002a0: c927 2ebc 30b9 5ebc ec19 f5bb 6bd6 edbb
000002b0: 5b90 1bbc 0690 8b3b de6d 2cbc dc2c 27bc
000002c0: ad5d 9bbb 2921 44bc 7995 eabb 6e40 76bb
000002d0: 645c bf3a 9f04 d73b 8a29 5e3c cf8e 01bb
000002e0: 1a45 03bc be4e 07bc 01f2 17bc bb83 273c
000002f0: a226 5d3c e293 a33b 6dc8 b33b 33fb a93b
00000300: 57b0 3a3c 180a 143c 7844 253c e50b aa3b
00000310: 99fa 043b 0dae 56bb 38bc 2a3c 9877 a83b
00000320: 9563 1f3c 3b0d 7d3c cba8 4d3c d499 673c
00000330: da48 5b3c 15fa 2abb 3b56 abbb 2343 463b
00000340: 2702 193c 48c0 40bc c95a ab3b 4335 f43b
00000350: 2884 d8bb cabf cbbb 7f77 b3bb 3c8a 703c
00000360: 344f f33a f761 e6bb c7bb fc3b f649 1fbc
00000370: 6126 61bc b045 283c 5496 363a efcd e23a
00000380: 167a 0f3c ee42 8bba b59a 83b8 bb5a 24bb
00000390: 2fab 243c d91e 04bb ecae c23a 94d0 12bc
000003a0: d7a6 b1bb 982d 46bc 45c7 323c 2725 5e3c
000003b0: 9bd5 db3b a633 ce3b 54f3 abbb 09f1 a43b
000003c0: 2094 e33b fe9b 6f3c aee0 34bc 2802 f2bb
000003d0: 2ea5 c6bb ba3f 453c b6a1 2a3a def6 583c
000003e0: 4629 92bb d877 9cba b8c1 a03b 664b 72bb
000003f0: 0a74 203c a372 343c 5d82 2fbc 0269 aebb
-0.011265783 -0.0015765731 -0.016596748 -0.0069348 0.005658691 0.0023685433 0.014775027 -0.01019987
0.006795155 -0.00030189854 0.014447005 0.011398437 0.009840729 -0.012085173 0.013157024 -0.010043817
-0.0073290016 0.007762786 -0.00084642484 0.006284673 0.011750048 -0.0018644307 0.0051430888 0.0007340767
0.00960292 0.007734454 0.0004344032 -0.010997837 0.004070228 0.008643201 0.0010313699 0.0065763737
0.0034431028 -0.006031235 -0.007436911 -1.5960613e-05 -0.011461357 7.674592e-05 -0.0038406756 -0.013298506
0.0016742435 0.0024703436 0.005989584 -0.00040140175 -0.0054465397 -0.0020940173 -0.011261392 0.0020807092
0.010291437 0.00076617603 0.0012200364 0.011611026 0.01104377 0.012971514 0.011970965 0.008201161
9.279944e-05 -0.014103989 0.0027932338 0.009939946 0.0031015123 0.0083676465 -0.011176032 -0.0010436482
0.013366982 -0.014013507 -0.0022507685 0.006223478 -0.014643073 -0.0058480385 -0.006115883 0.011253904
0.0007669969 0.0011088189 0.011966932 0.0031504135 -0.0056516463 0.0065662493 -0.0070172767 0.012357462
-0.004734435 0.0130095715 -0.0045985463 0.0107696755 0.016095331 -0.0042883134 -0.0011326032 -0.006717679
0.0076586166 -0.005335881 0.010519579 -0.00940969 -0.0046289125 -0.0038148763 0.012521935 0.011205182
-0.00057643285 0.008394824 -0.0123569295 -0.00052607566 0.0135558415 -0.0029284602 -0.008532673 -0.0064485436
0.012031132 0.002927486 0.0048276447 -0.0042665773 0.005826063 -0.0003114082 0.015135806 0.009011248
-0.01212116 0.012852069 -0.0101848515 -0.0044203782 0.0029353525 -0.010134986 -0.0001784617 -0.008029346
-0.0007705662 -0.0024447725 -0.002400759 0.006066053 -0.0023949803 0.0036310626 0.0010886076 -0.003531103
-0.012379107 0.007365261 -0.0151072685 -0.0017706009 0.009087301 0.013037395 -0.006738762 0.015720889
-0.0032802213 -0.0025780448 0.007977957 -0.00049622846 -0.0053761816 0.0048350166 0.008744038 0.0058533945
0.0014805145 0.0035804573 0.007603446 -0.009833858 0.011767241 0.0059115426 0.012205502 -0.0108084455
0.0066638095 0.0022170842 0.00021604338 -0.013369509 -0.0037269844 -0.006343295 -0.00793916 0.011464978
-0.011659814 0.0028010623 0.0070424993 0.0035207612 0.010988118 0.003749241 0.00983613 0.0045939493
-0.010629603 -0.013593957 -0.007479897 -0.0072582266 -0.009494866 0.0042591123 -0.010524241 -0.010203566
-0.0047413916 -0.011970797 -0.007158932 -0.0037575024 0.0014599678 0.00656183 0.013559708 -0.0019768958
-0.008012081 -0.00825852 -0.009274007 0.010224278 0.01349798 0.0049919942 0.005486539 0.005187416
0.011394582 0.00903561 0.010087125 0.005189406 0.002029097 -0.003275755 0.010420851 0.00514121
0.009728332 0.015445049 0.01255245 0.014135797 0.013384068 -0.0026089002 -0.0052287853 0.003025242
0.009338892 -0.011764593 0.0052293283 0.0074526384 -0.006607551 -0.0062179314 -0.0054768915 0.014681395
0.0018563033 -0.0070307213 0.0077128145 -0.0097222235 -0.01374206 0.010270521 0.00069651497 0.0017303805
0.008757135 -0.0010624805 -6.275383e-05 -0.0025078494 0.010050579 -0.0020159988 0.0014853156 -0.008960862
-0.0054215 -0.012095831 0.010911767 0.0135586625 0.0067088134 0.006292778 -0.005247513 0.0050336164
0.006945148 0.014624594 -0.011039896 -0.007385511 -0.0060621714 0.012039119 0.0006509082 0.0132424515
-0.0044604866 -0.0011937572 0.0049059056 -0.003697121 0.009793291 0.01101366 -0.010712233 -0.0053225765

fc.bias f4 [32]
00000000: 75ee 94bb 7be7 743c a8ed 36bb 77ad 6cbb
00000010: 6d5c 353c cc42 963b 3604 4dbc e1b4 3e3c
00000020: 5793 25bc 5e35 e2bb c8e6 3fbb a404 0f3c
00000030: 9088 bfbb 281f 953c ddc7 52bc 52e8 3d3c
00000040: 7457 0dbb ea61 c7bb 4d21 453c f865 2a3c
00000050: 21bd 383c 863b 5bbc ca89 eab8 b466 053b
00000060: 40fc a9ba 03a9 d03b 725f f83b 3536 5dbb
00000070: 518d 5a3c 04e4 8c3c d881 773b 4006 863c
-0.004545028 0.014947767 -0.002791265 -0.0036114135 0.011069399 0.0045855995 -0.012513211 0.011639805
-0.010105929 -0.0069033345 -0.0029281843 0.008729134 -0.005845137 0.018203333 -0.012865034 0.011591034
-0.0021567019 -0.0060846703 0.012031865 0.010400288 0.011275561 -0.013380891 -0.00011183655 0.0020355405
-0.0012968853 0.006367804 0.0075797373 -0.0033754234 0.0133393565 0.01719857 0.0037766602 0.016360402

translation.weight f4 [2, 32]
00000000: f973 ad3b ff8e 933b 0000 0000 066a bd3b
00000010: 73c6 b43b b7c9 88ba d939 e93a 2608 c53b
00000020: ed70 af3b 70c0 c93a 9773 acba 096f cd3b
00000030: 00c8 973b 4cf1 b63b 0000 0000 0b88 d53b
00000040: 0000 0000 35d8 9b3b bd6a 9e3b 9683 b13b
00000050: 0000 0000 0000 0000 7743 cf3b 0000 0000
00000060: 0000 0000 6614 b53b d1b2 a13b 7bc3 983b
00000070: 2bd5 9a3b b6a6 d33b fe5b a13b fd20 bf3b
00000080: 5b5c 50ba c699 a1ba 0000 0000 6a6b 15ba
00000090: 7c43 2dba 0ae5 14bb d6f4 85bb 93bc 15ba
000000a0: fc73 32ba 32c4 62bb 1274 acba 801e d8b9
000000b0: 062e a4ba bfed 2dba 0000 0000 1833 17b9
000000c0: 0000 0000 5e46 9dba 2035 92ba 673b 65ba
000000d0: 0000 0000 0000 0000 dea0 9bb9 0000 0000
000000e0: 0000 0000 b532 45ba ef42 9bba 9061 7bba
000000f0: 8e51 8cba 0abe 80b9 1cf9 8aba ddee 2eba
0.005293366 0.0045031304 0.0 0.0057804612 0.005516821 -0.0010436092 0.0017793729 0.0060129343
0.005354038 0.0015392434 -0.0013157007 0.00626934 0.004631996 0.005582964 0.0 0.0065164617
0.0 0.0047559985 0.0048345015 0.0054172976 0.0 0.0 0.006325181 0.0
0.0 0.0055261133 0.0049346467 0.004661975 0.0047251186 0.0064590825 0.0049242964 0.00583279
-0.00079483323 -0.0012329153 0.0 -0.0005699905 -0.0006609482 -0.0022719526 -0.0040880246 -0.00057119987
-0.0006807444 -0.0034601805 -0.001315715 -0.00041221455 -0.0012525923 -0.0006634853 0.0 -0.00014419516
0.0 -0.001199912 -0.0011154748 -0.00087445084 0.0 0.0 -0.0002968376 0.0
0.0 -0.00075225095 -0.0011845509 -0.0009589428 -0.0010705458 -0.00024555653 -0.0010602805 -0.00066731666

translation.bias f4 [2]
00000000: df4b f13b 3aca 993b
0.007363781 0.0046932967

rotation.weight f4 [1, 32]
00000000: a8c4 5c38 04eb 09ba 0000 0000 f727 9b39
00000010: 9081 3739 d2b4 1abb 04d6 f6ba 90f3 fe39
00000020: 14c4 8e38 4884 65bb 8176 ac3a e830 0b3a
00000030: 208d 00ba 568c 2c39 0000 0000 3c04 343a
00000040: 0000 0000 ee88 c0b9 10c9 d8b8 04cc 5039
00000050: 0000 0000 0000 0000 e329 1c3a 0000 0000
00000060: 0000 0000 d00a 0f39 3f20 92b9 14ea b3b8
00000070: 78b9 42b9 8ff3 223a 0aa9 43b9 e337 dc39
5.2635238e-05 -0.00052611553 0.0 0.0002959368 0.00017500506 -0.0023606312 -0.0018832092 0.00048628123
6.80761e-05 -0.0035021473 0.0013157876 0.0005309717 -0.0004903842 0.00016455477 0.0 0.0006867086
0.0 -0.00036723114 -0.000103371334 0.00019912428 0.0 0.0 0.00059571693 0.0
0.0 0.0001364157 -0.00027871315 -8.5789856e-05 -0.00018570374 0.00062161026 -0.00018659621 0.0004200331

scaling.weight f4 [2, 32]
00000000: a1ef f23b 5d60 e13b 0000 0000 756b ff3b
00000010: 29f4 fc3b a07d 8bba 9098 e83a 3d2b fe3b
00000020: ed48 f73b 6076 023b f764 acba e9a0 003c
00000030: 997a e63b 75ec fa3b 0000 0000 11bd 023c
00000040: 0000 0000 67cc e23b 317a e93b a42a f43b
00000050: 0000 0000 0000 0000 7ec8 023c 0000 0000
00000060: 0000 0000 8e9e ef3b 5fb5 e33b 7147 ed3b
00000070: a869 ed3b 3588 023c 6a06 ed3b 916f fe3b
00000080: 70cb 1a3c fbfd 163c 0000 0000 6500 f13b
00000090: 9daa 1a3c 3b23 b43a 1652 e13b e0e3 1b3c
000000a0: be87 ed3b 925f 5c3b c374 ac3a 5b93 1d3c
000000b0: f357 e43b 0488 1b3c 0000 0000 073e 1f3c
000000c0: 0000 0000 1aa1 183c aa37 173c a418 1b3c
000000d0: 0000 0000 0000 0000 5594 1d3c 0000 0000
000000e0: 0000 0000 913a 1b3c 9fd4 193c bccc de3b
000000f0: 2bd5 dd3b e2a0 1e3c 6a50 e73b f77a 1a3c
0.00741382 0.0068779425 0.0 0.0077947923 0.007719536 -0.0010642298 0.0017745662 0.0077566192
0.007546535 0.0019906983 -0.0013152648 0.007850864 0.0070336577 0.0076575824 0.0 0.007979647
0.0 0.0069213393 0.007125162 0.007451372 0.0 0.0 0.007982371 0.0
0.0 0.0073126024 0.0069491114 0.0072411825 0.007245261 0.007967045 0.0072334306 0.0077647646
0.009447917 0.009215827 0.0 0.0073547834 0.009440091 0.001374341 0.0068762405 0.009514779
0.0072488477 0.00336263 0.0013157356 0.009617652 0.006968492 0.009492878 0.0 0.009719378
0.0 0.009315753 0.00922958 0.009466324 0.0 0.0 0.009617885 0.0
0.0 0.009474413 0.009389072 0.0067993086 0.0067697964 0.009681912 0.0070591467 0.009428731

scaling.bias f4 [2]
00000000: bef2 f93b d895 253c
0.007627814 0.010106526

shearing.weight f4 [1, 32]
00000000: ffb6 433b 9154 883b 0000 0000 3859 463b
00000010: d465 443b a70c 9b3a f0b9 c73b 127f 493b
00000020: 9b4a 423b f0bc 263b 70b3 a23a 7f35 493b
00000030: db39 373b 7e7b 453b 0000 0000 0c97 4a3b
00000040: 0000 0000 fef4 403b 472a 443b d878 493b
00000050: 0000 0000 0000 0000 5901 4a3b 0000 0000
00000060: 0000 0000 87fd 483b ca6c 433b e2d8 8c3b
00000070: 7d12 3d3b b9ab 483b b63d 403b 25e7 473b
0.0029863713 0.0041604717 0.0 0.003026558 0.002996792 0.0011829332 0.0060951635 0.0030745906
0.002964652 0.0025442205 0.0012413096 0.0030702052 0.0027958069 0.0030133422 0.0 0.0030912785
0.0 0.0029442902 0.0029932426 0.0030742195 0.0 0.0 0.0030823557 0.0
0.0 0.0030668692 0.0029819482 0.0042983154 0.0028850131 0.0030619933 0.0029333658 0.0030502763
