output/yhy_e/train/model/stn_10.pt (torch_old, 658934 bytes, 14 tensors)

conv1.weight f4 [8, 2, 5, 5]
0	0x3ddd79ef	0.108142726
1	0x3dd14a5c	0.10219261
2	0xbdb3a365	-0.087713994
3	0xbe080edb	-0.13286917
4	0x3dc9069a	0.09815712
5	0xbe0940fd	-0.13403697
6	0x3da6278b	0.08113011
7	0xbe179048	-0.14801133
8	0xbdad245b	-0.084542
9	0xbd9474e4	-0.072488576
10	0x3dfd532b	0.12369379
11	0xbd0b19ff	-0.03396034
12	0x3de3e18d	0.11127005
13	0x3ce83c3e	0.028349038
14	0x3dfdb631	0.12388266
15	0x3dab9f67	0.08380013
16	0x3dbfb9d9	0.093616195
17	0x3de5a421	0.11212946
18	0xbd5af73d	-0.05345844
19	0xbd5711b3	-0.052507114
20	0x3d0fae23	0.03507818
21	0x3de88a9c	0.11354563
22	0xbd825284	-0.06363395
23	0xbdfc9a9d	-0.12334178
24	0xbdff5bb3	-0.12468662
25	0xbd9d0dde	-0.076686606
26	0x3c323953	0.010877925
27	0xbcf31148	-0.029671326
28	0xbd5057ee	-0.050865106
29	0xbda176de	-0.07884
30	0x3ccd9163	0.02509374
31	0xbe0397e6	-0.12850913
32	0x3e007f3b	0.12548535
33	0xbd1101c6	-0.035402082
34	0x3c5a579d	0.013326553
35	0x3d077e74	0.03307958
36	0xbd8d0e24	-0.06887463
37	0x3dc7ecae	0.0976194
38	0xbc740186	-0.014892941
39	0xbae794cf	-0.001766825
40	0xbe180463	-0.14845423
41	0x3b5a88eb	0.003334577
42	0x3d0c48ae	0.034249
43	0x3bb817e6	0.0056180833
44	0xbce22605	-0.02760602
45	0x3dbd9eec	0.092588276
46	0x3dc74d8b	0.09731587
47	0x3da99cd4	0.08281866
48	0xbd1f4a42	-0.038889177
49	0x3c2d7a9e	0.010588316
50	0xbde46497	-0.111519985
51	0xbdf4712e	-0.1193565
52	0xbd1b863c	-0.037969813
53	0x3b625a74	0.0034538778
54	0xbdbf43e8	-0.09339124
55	0xbe0637c2	-0.13107207
56	0x3d50fbef	0.051021513
57	0x3d1effd7	0.038818207
58	0xbdd7ab2d	-0.10530696
59	0x3daadad6	0.08342521
60	0xbdf3df97	-0.11907881
61	0x3dc119f4	0.09428778
62	0x3d819ff1	0.063293345
63	0xbd6fc9ad	-0.058541942
64	0x3dffc4af	0.12488686
65	0xbdbcc302	-0.09216882
66	0xbd9bdcf1	-0.076105006
67	0x3dd1f68d	0.10252104
68	0xbd3b1672	-0.045675702
69	0xbd86b5c5	-0.065776385
70	0x3c30a7b2	0.010782169
71	0xbd0a597b	-0.03377674
72	0x3da47885	0.080308
73	0x3ddc6ad8	0.10762566
74	0x3d63d466	0.05562248
75	0x3ca3214c	0.019913338
76	0x3cbe5d53	0.02323786
77	0xbc23427d	-0.0099645825
78	0x3b103471	0.0022003914
79	0xbc4106e7	-0.011781431
80	0x3daf6fc5	0.0856624
81	0x3d88b5e3	0.06675317
82	0xbce3c00a	-0.027801532
83	0x3d2072ff	0.03917217
84	0xbbd1ee6a	-0.006406595
85	0x3d20c7cf	0.039253052
86	0x3dd4dcbf	0.103936665
87	0xbde055da	-0.10953875
88	0x3bcd668f	0.0062683295
89	0xbd30ad17	-0.04313382
90	0xbe181e0d	-0.14855213
91	0xbe18a250	-0.14905667
92	0xbcfe7d59	-0.03106563
93	0x3db4db42	0.088308826
94	0xbdd91f89	-0.10601718
95	0x3d15c45e	0.036564223
96	0x3d9127f6	0.070877
97	0xbdea6bce	-0.11446343
98	0x3d49c7e3	0.049262892
99	0x3c7f3fe8	0.015579201
100	0xbe0d1378	-0.13776958
101	0xbc41a427	-0.011818922
102	0xbe116a34	-0.1420067
103	0x3de9f05e	0.114227995
104	0x3d685ca3	0.05672897
105	0x3d3a0341	0.04541326
106	0x3dcc58d5	0.09977881
107	0x3dcb4c02	0.09926607
108	0x3e067f56	0.13134512
109	0x3d4949c4	0.049142614
110	0xbde29caa	-0.110650375
111	0x3dfb8d8c	0.12282857
112	0x3cfb6fa3	0.030692881
113	0xbd84113b	-0.06448599
114	0xbd7c0c04	-0.061534896
115	0x3dfdd92d	0.123949386
116	0x3cbcf7ba	0.023067344
117	0x3dc15476	0.09439938
118	0x3b23dab8	0.0025002193
119	0x3df9bd53	0.12194314
120	0xbde4ebdd	-0.111778
121	0x3cd05ad8	0.025433943
122	0x3cd05b7a	0.025434244
123	0xbc24f898	-0.010069035
124	0x3df00fa2	0.11721732
125	0x3c668b79	0.014071339
126	0xbbdde98c	-0.0067722257
127	0x3da85615	0.08219544
128	0xbcce4350	-0.025178581
129	0xbcba1db5	-0.022719244
130	0xbe06107d	-0.13092227
131	0xbc7b7ec8	-0.015350051
132	0xbda4857e	-0.08033274
133	0x3d8afcd4	0.067865044
134	0x3de01cbc	0.10942981
135	0xbe15c7b4	-0.14626962
136	0xbdc54ad5	-0.09633414
137	0x3df984b8	0.12183517
138	0xbd98591a	-0.0743887
139	0x3de5add7	0.11214798
140	0x3dffcd8b	0.12490376
141	0xbd4c4bf7	-0.049877133
142	0xbe03e2b6	-0.12879452
143	0x3d682714	0.056677893
144	0x3d4f76d0	0.050650418
145	0x3dde6c14	0.10860458
146	0x3bc66f8c	0.006055778
147	0x3d804061	0.06262279
148	0xbe0a8274	-0.13526326
149	0x3bc07eb7	0.0058744806
150	0x3cf19b2c	0.029492937
151	0x3dadcac4	0.0848594
152	0xbda2ca2e	-0.07948719
153	0xbca9d899	-0.020733165
154	0xbdb4a6eb	-0.088208996
155	0xbdca7737	-0.0988602
156	0x3d61f245	0.055162687
157	0x3c91b096	0.017784398
158	0x3d560069	0.052246485
159	0xbbf031c5	-0.0073301517
160	0xbbe358f7	-0.0069380957
161	0xbc1371fa	-0.008999342
162	0x3d94d696	0.072674915
163	0xbdd08777	-0.10182088
164	0x3cd6f917	0.026241822
165	0x3d97f5a7	0.07419901
166	0x3da0e9a1	0.07857061
167	0xbd924f69	-0.071440525
168	0x3dd86288	0.10565668
169	0xbdc9b195	-0.09848324
170	0x3d9020b0	0.07037485
171	0x3de6092f	0.112322204
172	0x3a931a1b	0.001122299
173	0x3d225196	0.039628588
174	0xbe0d697c	-0.1380977
175	0xbd8bca3b	-0.06825682
176	0xbd8be4b6	-0.068307325
177	0xbe140a6e	-0.14457104
178	0xbd2e0e85	-0.042494316
179	0x3db18671	0.08668221
180	0xbcd58bb8	-0.0260676
181	0x3e01ce8b	0.12676446
182	0xbe0fd46f	-0.1404588
183	0x3d32783d	0.0435717
184	0x3de1271f	0.1099379
185	0x3dff9e8b	0.124814115
186	0xbd8b19b1	-0.067920096
187	0xbe104cd4	-0.14091808
188	0xbd84e71b	-0.06489392
189	0x3dbd1039	0.0923161
190	0xb9715b87	-0.00023017648
191	0x3dfa2674	0.122143656
192	0xbdee7cd6	-0.11644904
193	0xbdcfc8d3	-0.10145726
194	0x3d73deaf	0.05953854
195	0x3d136866	0.035988234
196	0xbdd690d7	-0.10476845
197	0x3df2cbe1	0.11855293
198	0xbd89bb4a	-0.06725176
199	0xbe050f3a	-0.1299409
200	0x3d4492bf	0.04799151
201	0xbd93718d	-0.071993925
202	0xbd7e086e	-0.062019758
203	0xbd9802c4	-0.074224025
204	0x3d308e6e	0.04310458
205	0x3d994d9a	0.074855044
206	0x3dd27fb6	0.10278265
207	0xbd96a589	-0.07355792
208	0xbcde39ee	-0.027127232
209	0x3e0cbcc3	0.13743882
210	0xbd846df8	-0.064662874
211	0xbd35acf3	-0.04435439
212	0xbcb0dcfa	-0.021589745
213	0xbdf54582	-0.11976148
214	0xbdcac7f5	-0.0990142
215	0x3e089366	0.13337478
216	0x3d06e111	0.032929484
217	0x3d051bd0	0.032497227
218	0x3d7e96ab	0.062155407
219	0x3dbcc231	0.092167266
220	0x3dd135ea	0.102153614
221	0x3ddc03d3	0.10742917
222	0x3d80a8f4	0.06282225
223	0x3de641c1	0.1124301
224	0x3dc9724c	0.098362535
225	0xbcc7e058	-0.024398968
226	0x3c56d7ab	0.013112943
227	0xbd9ba6d1	-0.07600177
228	0xbdd9fa44	-0.106434375
229	0x3e09fb74	0.13474828
230	0xbdd9dc34	-0.106377035
231	0xbdb29e25	-0.0872157
232	0xbe0be072	-0.13659838
233	0xbddd8375	-0.10816089
234	0x3d069859	0.032860134
235	0x3d86ae4d	0.06576214
236	0xbdef783d	-0.116928555
237	0x3c1cd3ff	0.009572028
238	0xbdd625ab	-0.10456403
239	0x3cdca3ec	0.026933633
240	0x3da5e2e4	0.080999166
241	0xbd6a523f	-0.057207342
242	0xbd862e7c	-0.06551835
243	0x3db8b641	0.09019137
244	0xbdbd032f	-0.09229123
245	0xbd066ad6	-0.03281673
246	0xbdf7bf2e	-0.120970115
247	0x3dc2cd05	0.095117606
248	0x3d2e3df9	0.04253957
249	0xbd6da251	-0.058016125
250	0x3dc9b742	0.09849407
251	0x3e06d678	0.13167751
252	0x3d62b7e0	0.055351138
253	0xbdd20c43	-0.10256245
254	0xbd0ad265	-0.033892054
255	0x3de518aa	0.11186345

conv1.bias f4 [8]
0	0x3d53ae1a	0.051679708
1	0xbb403e82	-0.0029334133
2	0xbd257b52	-0.04040081
3	0xbd04feca	-0.03246955
4	0xbde46a1a	-0.1115305
5	0x3dc467cc	0.0959011
6	0x3dfc96f6	0.12333481
7	0xbdfac026	-0.12243681

conv2.weight f4 [16, 8, 5, 5]
0	0xbd94750c	-0.072488874
1	0xbd906306	-0.07050137
2	0xbc7697b7	-0.01505082
3	0xbb63227b	-0.0034658003
4	0xbd4b5f42	-0.04965139
5	0x3d0ac2e2	0.03387726
6	0x39894c90	0.0002618772
7	0xbd223428	-0.03960052
8	0xbd9301b0	-0.07178056
9	0x3d538ade	0.051646106
10	0x3d848137	0.06469958
11	0x3b025331	0.0019886012
12	0xbd1b0a58	-0.03785166
13	0x3d29b80f	0.041435298
14	0x3d1c6279	0.03817985
15	0xbc805653	-0.015666163
16	0x3d7c9f78	0.06167552
17	0xbd66addd	-0.056318153
18	0xbc4046c7	-0.011735625
19	0x3d66c01e	0.05633556
20	0xbd499a0c	-0.049219176
21	0xbcd82d41	-0.026388766
22	0xbd0bc045	-0.03411891
23	0xbd05ee29	-0.03269783
24	0x3d6f6f29	0.05845562
25	0x3d42799a	0.04747925
26	0xbd792b11	-0.060832087
27	0xbd2601dc	-0.040529117
28	0xb8450b71	-4.6979116e-05
29	0xbcc181a6	-0.023621392
30	0xbd111b0b	-0.03542618
31	0xbd894103	-0.06701853
32	0x3d5ab681	0.053396706
33	0x3d1d830f	0.038455065
34	0x3c90889d	0.017643267
35	0xbc521b27	-0.012823856
36	0xbd88e167	-0.06683617
37	0xbb8e0029	-0.004333515
38	0x3cc890da	0.024483133
39	0xbcc85578	-0.024454817
40	0x3d6f662e	0.058447056
41	0x3c89f0c7	0.016838444
42	0xbba0e1f1	-0.004909747
43	0x3cc29095	0.023750583
44	0x3d02a9e0	0.031900287
45	0xbd4ab15f	-0.04948556
46	0x3cac6d3b	0.021048179
47	0xbd891b50	-0.066946626
48	0xbca51499	-0.020151423
49	0xbceb4b4f	-0.028722433
50	0x3d4db6b2	0.05022306
51	0xbd92a8b2	-0.07161082
52	0x3cb0dfa6	0.021591019
53	0xbd8b9d72	-0.0681714
54	0x3cdae44c	0.026720189
55	0x3c5def31	0.013545797
56	0xbd004719	-0.031317804
57	0x3c8e7408	0.017389312
58	0x3d8371d0	0.064181924
59	0x3d205675	0.03914495
60	0xbd8c2c05	-0.068443336
61	0xbcb40dfe	-0.021979328
62	0x3d77c309	0.060488734
63	0x3be8e203	0.007107021
64	0x3b98249e	0.004643037
65	0x3a66fe2b	0.00088116777
66	0xbcebdd9f	-0.0287922
67	0xbcb7ff3b	-0.02246057
68	0x3a081854	0.00051916135
69	0x3d47ce1a	0.04878054
70	0xbcc79a0a	-0.024365444
71	0xbcba9db4	-0.022780277
72	0x3c1484ef	0.009064897
73	0xbcfa53fb	-0.030557623
74	0x3d683089	0.05668691
75	0x3d4b2033	0.049591254
76	0x3ab4025f	0.0013733617
77	0xbd37a571	-0.04483551
78	0x3cb31122	0.021858755
79	0x3d7e26a1	0.06204856
80	0x3c9c24ee	0.019060578
81	0x3ce0edb2	0.027457092
82	0xbd180dbf	-0.037122484
83	0xbd8afa28	-0.06785995
84	0xbcc81260	-0.024422824
85	0xbb1ad6ab	-0.0023626487
86	0x3d77054c	0.060307786
87	0x3c70822f	0.014679476
88	0xbc3ac52a	-0.011399547
89	0xbc7fe3af	-0.015618249
90	0xbc961dd0	-0.018324763
91	0xbd2688cb	-0.0406578
92	0xbcf4c1ab	-0.029877504
93	0x3c6d447c	0.01448166
94	0x3d4c19ad	0.049829174
95	0x3d62141b	0.055194955
96	0x3cc9dd37	0.024641616
97	0xbd4923c6	-0.04910638
98	0x3d886143	0.06659176
99	0x3d8f2233	0.06988945
100	0x3b696ad3	0.003561665
101	0x3cd6b598	0.026209638
102	0x3db348d8	0.08754128
103	0xbacaa077	-0.0015459199
104	0x3d641ad0	0.055689633
105	0x3d0e60f1	0.03476042
106	0x3d7d43eb	0.06183235
107	0x3d404574	0.046941236
108	0x3dbd0304	0.09229091
109	0x3da54306	0.08069424
110	0xbcd7b8c7	-0.026333226
111	0x3d82dbff	0.06389617
112	0x3be8e8d8	0.0071078353
113	0xbc82b893	-0.015957152
114	0x3d00ec25	0.031475205
115	0x3c45d174	0.012073863
116	0xbccca379	-0.024980294
117	0xbd2b71d0	-0.041856587
118	0xbc9b1daa	-0.018935043
119	0x3cd6a65c	0.026202373
120	0x3d859955	0.065233864
121	0x3d819624	0.06327465
122	0x3d22937e	0.03969144
123	0x3db324c7	0.08747249
124	0xbd2c471d	-0.042060006
125	0xbd42efce	-0.047591977
126	0x3ce5d823	0.028057164
127	0xbd8686bb	-0.065686665
128	0x3d87ab32	0.0662445
129	0x3c1b6b70	0.009486064
130	0xbcec7d33	-0.028868293
131	0x3d7a50a0	0.061112046
132	0x3d037bd7	0.032100525
133	0x3d73f011	0.059555117
134	0x3d5bc45f	0.05365407
135	0xbc75001a	-0.0149536375
136	0x3d7fdf2d	0.062468696
137	0x3c0e6e9f	0.008693366
138	0x3bed63d4	0.0072445665
139	0x3ccfc3b6	0.025361877
140	0xbd6d9bc6	-0.058009885
141	0xbd33e770	-0.043921888
142	0x3d87cae9	0.06630499
143	0xbd3bae02	-0.045820244
144	0x3d202456	0.039097153
145	0x3d235810	0.039878905
146	0xbd725129	-0.05915943
147	0xbc10dde3	-0.008841964
148	0xba086bfe	-0.00052040804
149	0x3d59798f	0.053094443
150	0xbcbc7070	-0.023002833
151	0x3d76e72d	0.06027906
152	0xbd81b712	-0.06333746
153	0x3cccc786	0.024997484
154	0x3d0b3732	0.033988185
155	0xbcf15712	-0.029460464
156	0xbcdf45de	-0.027254995
157	0xbd4a4471	-0.049381677
158	0x3c648394	0.013947386
159	0x3c9a515e	0.018837627
160	0xbceef0f7	-0.029167635
161	0x3d583392	0.052783556
162	0xbc7ec47f	-0.015549778
163	0xbc8444c5	-0.016146073
164	0x3d4d2128	0.05008045
165	0x3c01eadd	0.007929531
166	0x3d07ebb0	0.033183753
167	0x3d15edbb	0.03660367
168	0xbd540d4c	-0.051770493
169	0xbbd089f6	-0.0063641025
170	0x3d6cc2bb	0.057802897
171	0xbd478dac	-0.048719093
172	0x3b730363	0.0037080876
173	0x3d3e5ed1	0.046477143
174	0x3aecbe07	0.0018062004
175	0xbb002827	-0.0019555183
176	0x3d2250e5	0.03962793
177	0xbd32d6f4	-0.043662027
178	0x3d976b11	0.07393468
179	0x3d9461f8	0.072452486
180	0xbbcccedf	-0.006250247
181	0xbc3d84a1	-0.011567266
182	0x3a688826	0.00088703854
183	0x3db07dc4	0.08617738
184	0xbc28ae98	-0.010295533
185	0x3d0da969	0.03458539
186	0xbd58dcc7	-0.052944925
187	0x3d1415ff	0.03615379
188	0x3d708d71	0.05872864
189	0x3d22ad19	0.03971586
190	0x3c20e2dd	0.009819713
191	0x3c9f2976	0.01942895
192	0x3d9b92a5	0.075963296
193	0x3d3e5fbb	0.046478014
194	0x3993a05a	0.00028157496
195	0xbd327524	-0.043568745
196	0x3d87538d	0.06607733
197	0xbc3b25fc	-0.01142263
198	0x3d752da5	0.059857983
199	0x3b16fa86	0.0023037507
200	0x3ad015c1	0.0015875624
201	0xbd39fd91	-0.045407835
202	0xbcce5aa8	-0.025189713
203	0xb9b13b9e	-0.0003380449
204	0xbda491e0	-0.08035636
205	0xbc6b0f5b	-0.014346923
206	0x3d258223	0.04040731
207	0x3d56ba69	0.05242387
208	0x3d403e6e	0.046934538
209	0xbd0487f6	-0.032356225
210	0x3b8526a0	0.0040634423
211	0xbd6fcf75	-0.058547456
212	0x3d140cd8	0.03614506
213	0x3bcf13e7	0.006319511
214	0x3d44b178	0.04802081
215	0xbc5777ea	-0.013151148
216	0x3d8bbee1	0.06823517
217	0x3d079687	0.03310254
218	0x3d5b8078	0.053589314
219	0xbc8f9de1	-0.017531337
220	0xbd68852a	-0.05676762
221	0xbd5d1c59	-0.053982113
222	0xbd8b2ef6	-0.067960665
223	0x3bcd5c9e	0.0062671443
224	0xbd8aa4e3	-0.06769731
225	0xbce29fdc	-0.027664118
226	0x3c86c2fe	0.016450401
227	0x3d2ba998	0.041909784
228	0xbd0d0846	-0.03443172
229	0x3d1817e9	0.037132178
230	0xbc12368e	-0.00892414
231	0xbcf8a925	-0.030354092
232	0xbce8ec57	-0.028433008
233	0xbd43f9ce	-0.047845654
234	0x3c00ed3e	0.007869063
235	0xba1d64f0	-0.00060041156
236	0xbd436fbc	-0.04771398
237	0x3cc76f62	0.024345104
238	0xbd4ef947	-0.0505307
239	0xbd7bd9d4	-0.061487034
240	0x3cff613a	0.03117429
241	0xbc3c977e	-0.011510728
242	0xbd56ff06	-0.052489303
243	0xbd94bfec	-0.07263169
244	0xbcf814da	-0.03028338
245	0xbd4443d8	-0.047916263
246	0x3d0b4d75	0.034009416
247	0xbc8bb5f0	-0.017054528
248	0x3ce31f8f	0.02772501
249	0x3cdd0b94	0.02698306
250	0x3c307ab7	0.010771445
251	0xbc80142d	-0.01563462
252	0xbd3578cd	-0.044304658
253	0x3b8956ae	0.004191241
254	0xbd96fe9e	-0.07372783
255	0xbd0223c7	-0.0317724

conv2.bias f4 [16]
0	0xbd394f73	-0.045241784
1	0x3c811b3d	0.015760059
2	0x3d66f831	0.056389038
3	0x3c3a6a9d	0.011377958
4	0x3cb5cd44	0.022192605
5	0xbd7ffe38	-0.0624983
6	0xbd670cf7	-0.05640885
7	0xbd41c8aa	-0.04731051
8	0xbd2399cf	-0.039941605
9	0xbd105fde	-0.035247676
10	0xbd52969b	-0.05141316
11	0xbcdbb51c	-0.026819758
12	0xbd4e2e9f	-0.05033743
13	0x3c960700	0.018313885
14	0xbc6dfad6	-0.014525136
15	0xbbe5dc5c	-0.0070147943

conv3.weight f4 [32, 16, 5, 5]
0	0x3cc4a0cf	0.02400246
1	0xbd283f54	-0.04107602
2	0xbc7bcaf1	-0.015368209
3	0x3ae0cff8	0.0017151823
4	0xbd38d07e	-0.04512071
5	0x3d08cb29	0.033396874
6	0xbd0092a4	-0.031389847
7	0x3d1ed810	0.038780272
8	0x3d5a11f4	0.053239778
9	0x3c498675	0.012300123
10	0xbc860ada	-0.016362596
11	0x3d29e806	0.04148104
12	0xbcec9dec	-0.028883897
13	0x3bafc35f	0.005363866
14	0x3d08c8a4	0.03339447
15	0x3d61326a	0.05497972
16	0x3c24bd63	0.010054919
17	0xb917451e	-0.0001442623
18	0xbaba4200	-0.0014210343
19	0xbd3b4932	-0.0457241
20	0x3c8d6bb8	0.017263278
21	0xbd036c20	-0.032085538
22	0x3c23c6b0	0.009996101
23	0xbbe74baf	-0.0070585827
24	0x3d173bba	0.036922194
25	0xbcc2e229	-0.023789482
26	0x3d15e9c1	0.03659988
27	0xbbfc4e17	-0.0076997387
28	0xbb398ad8	-0.0028311517
29	0xbd528b86	-0.05140259
30	0x3d31e0ce	0.04342728
31	0x3b27ee3a	0.0025624172
32	0xbd402b9d	-0.046916593
33	0x3cbe0f67	0.023200704
34	0x3cef221b	0.029191067
35	0xbbdd4cc3	-0.0067535355
36	0x3d2a8f94	0.041640833
37	0x3caf5ca3	0.021406477
38	0x3b9035ff	0.004400968
39	0x3d87a3d0	0.06623042
40	0x3d1639fb	0.03667639
41	0xbbb71e07	-0.0055882963
42	0xbc49cf90	-0.012317553
43	0x3c728d92	0.014804261
44	0xbc521766	-0.012822961
45	0x3d069685	0.03285839
46	0xbd3b4b87	-0.045726325
47	0xbcd9524e	-0.026528504
48	0x3cf3fd5c	0.029783897
49	0xbd1b6257	-0.03793558
50	0xbb9ea9d3	-0.004842022
51	0xbc9bc0ad	-0.019012773
52	0x3d0b6285	0.034029502
53	0x3bf8e922	0.007596151
54	0xbcf4ddaf	-0.029890863
55	0x3d53383c	0.0515673
56	0xbc83914e	-0.016060498
57	0x3a59476a	0.00082885346
58	0x3cbaa483	0.022783523
59	0xbcdceff5	-0.02696989
60	0x3bbe83d3	0.0058140545
61	0xbc0fcaf2	-0.008776413
62	0xbba7c076	-0.0051193787
63	0xbc4227e9	-0.011850336
64	0x3d1f9341	0.03895879
65	0xbc9c2444	-0.019060262
66	0xbcf439d8	-0.029812738
67	0x3cb76530	0.022387117
68	0x3c8a4af2	0.01688144
69	0x3b1526d1	0.0022758732
70	0x3baf2b62	0.005345748
71	0x3d4b8f5b	0.04969726
72	0xbc94a453	-0.018144762
73	0xbd3c573f	-0.04598164
74	0xbd4952f2	-0.04915137
75	0x3cdcf35e	0.026971515
76	0x3c767201	0.015041829
77	0x37877c28	1.6151069e-05
78	0xbd240101	-0.04004002
79	0xbce01da5	-0.027357886
80	0xbcbf4866	-0.023349952
81	0x3d0b665a	0.034033157
82	0x3c6604d0	0.014039233
83	0xbcbb3d21	-0.022856297
84	0xbd1d275f	-0.038367625
85	0x3cdc114f	0.026863722
86	0x3b6d74cb	0.0036232944
87	0x3d74a1ae	0.059724502
88	0xbd01a038	-0.031646937
89	0xbd236e9a	-0.0399004
90	0x3c78425b	0.015152539
91	0x3d326465	0.043552775
92	0x3d4223e7	0.04739752
93	0x3d86e976	0.06587498
94	0x3d2e5f3b	0.042571288
95	0x3d4b65b4	0.04965754
96	0xbc65ec9c	-0.014033463
97	0x3d83d36f	0.06436812
98	0xba4eedae	-0.00078936934
99	0x3d434c93	0.04768045
100	0x3caff067	0.021476937
101	0xbceddc76	-0.029035788
102	0xbb6f9b4e	-0.0036561075
103	0xbb3c012a	-0.0028687217
104	0x3d1d1f6e	0.03836005
105	0x3d1e703f	0.038681265
106	0x3c31706b	0.010830025
107	0xbcf305d0	-0.029665858
108	0x3c43a11e	0.011940269
109	0x3d1dcad6	0.038523518
110	0xbcdd0dcf	-0.026984124
111	0x3d20860b	0.039190333
112	0x3c0cd8eb	0.008596639
113	0x3cbdb996	0.023159783
114	0x3c44dc52	0.012015419
115	0x3cee53ba	0.029092658
116	0xbd398235	-0.04529019
117	0x3c9077ac	0.017635189
118	0xbd45b8ee	-0.048272066
119	0xbc193bdb	-0.00935265
120	0x3d0e3f0d	0.0347281
121	0xbd3aed17	-0.045636263
122	0xbd2a182e	-0.041526966
123	0xbcd6418f	-0.026154308
124	0xbb73ff01	-0.0037230852
125	0xbbe2f454	-0.006926099
126	0xbd1b87c8	-0.037971288
127	0x3bf8e9df	0.007596239
128	0xbbd74263	-0.006569193
129	0xbc8b6d7b	-0.017019978
130	0x3b87cadf	0.004144057
131	0x3cb319ae	0.021862831
132	0x3c3a2bba	0.011362964
133	0xbcdc768f	-0.026912002
134	0x3d23e7c3	0.040015947
135	0x3c820419	0.015871095
136	0xbc505b74	-0.012717117
137	0x3d481e9e	0.048857324
138	0x3c86968e	0.016429212
139	0x3d0205a1	0.03174365
140	0x3d32431e	0.04352104
141	0x3c13d111	0.009022013
142	0x3d48c47d	0.04901551
143	0x3bdb50e5	0.006692993
144	0x3d3c6771	0.045997087
145	0x3c78099e	0.015139012
146	0x3d0cb546	0.034352563
147	0x3d0dc6bb	0.034613352
148	0xbc9e593a	-0.019329656
149	0x3d4e5ef3	0.05038352
150	0x3c6af66f	0.014340981
151	0x3d10953e	0.03529858
152	0xbc6a4e3d	-0.01430088
153	0x3ba3edba	0.0050027044
154	0x3d5a1e53	0.053251576
155	0xbc458ac5	-0.012057011
156	0x3ccc35b4	0.024927951
157	0x3d787432	0.060657687
158	0xbd13dbac	-0.036098167
159	0x3c0a3c13	0.008437174
160	0x3cce9c39	0.025220977
161	0x3d3b5f3b	0.045745116
162	0xbc0426d3	-0.008065897
163	0xbd3e6aad	-0.046488453
164	0xbcdc7af3	-0.026914096
165	0x3cf7ff82	0.030273203
166	0xbcc6f5d9	-0.024287151
167	0xbd06b2fb	-0.032885533
168	0x3b924bd7	0.004464607
169	0x3cb1e758	0.021716759
170	0xbc68ca42	-0.014208378
171	0xbb31da52	-0.0027138186
172	0x3d315fab	0.043304127
173	0xbcceffa0	-0.025268376
174	0xbcfe2933	-0.031025505
175	0xbc6862a7	-0.014183677
176	0x3d28fe36	0.04125806
177	0xbcbd710d	-0.023125196
178	0xbd2e7189	-0.042588744
179	0xbd1f50f5	-0.038895566
180	0xbc452db8	-0.012034826
181	0x3d11b6d1	0.035574738
182	0x3c34217f	0.010994314
183	0xbcdae309	-0.026719587
184	0xbd4ae5e8	-0.049535662
185	0xbcffb9b9	-0.03121649
186	0x3c35779e	0.011075882
187	0x3d172433	0.036899757
188	0x3c86159b	0.016367724
189	0xbc62a1c5	-0.013832514
190	0x3cd46218	0.025925681
191	0x3baded92	0.0053078616
192	0x3b204317	0.002445405
193	0x3c4e5360	0.01259312
194	0xbca9e1b5	-0.020737508
195	0x3c6442ab	0.0139319105
196	0x3bd40454	0.0064702425
197	0x3c1d3b28	0.0095966235
198	0xbcc1c13e	-0.023651715
199	0x3cb73715	0.022365132
200	0xbcdd5bf8	-0.027021393
201	0x3d519e6b	0.05117647
202	0xbcda5c6c	-0.026655398
203	0xbca826a8	-0.020526245
204	0xbc9cd307	-0.019143594
205	0x3c5c7321	0.013455183
206	0x3c0543aa	0.008133808
207	0xbd3a0409	-0.045414004
208	0x3ccfb166	0.025353145
209	0x3c418678	0.011811845
210	0x3d6d93fd	0.05800246
211	0xbd116dcc	-0.0355051
212	0xbd2fb13c	-0.042893633
213	0x3c04c146	0.008102721
214	0x3d155de6	0.0364665
215	0x3d21f19e	0.039537065
216	0x3cb546f5	0.022128562
217	0x3c212464	0.009835336
218	0x3cf7f7b0	0.030269474
219	0xbc8ad7c8	-0.016948596
220	0xbd392f01	-0.045210842
221	0xbd27ca77	-0.04096457
222	0xbd030112	-0.031983443
223	0x3c9e927c	0.019356959
224	0x3d605b84	0.054774776
225	0x3ced0732	0.028934095
226	0xbd13c054	-0.03607209
227	0x3c4cba51	0.012495593
228	0x3d332b02	0.043742187
229	0xba496561	-0.0007682648
230	0xbc0e71bd	-0.0086941095
231	0xbcd33f9b	-0.025787165
232	0xbaafb05d	-0.0013404001
233	0x3d227c47	0.0396693
234	0xbc677c64	-0.014128778
235	0xbb7dfe1b	-0.0038756195
236	0x3ce4feb1	0.027953478
237	0xbc81c1b6	-0.015839439
238	0xbcad9b9c	-0.021192364
239	0x3c0d026d	0.008606535
240	0x3d28aa28	0.0411779
241	0x3c1d45b4	0.009599138
242	0x3a9e9d17	0.001210126
243	0xbd1cfef8	-0.038329095
244	0x3cf1ab7a	0.029500712
245	0x3c0412ea	0.00806115
246	0xbc8afbba	-0.016965736
247	0xbd233345	-0.039843816
248	0xbcae2437	-0.021257503
249	0xbd0cb157	-0.034348812
250	0x3c9bb7eb	0.019008597
251	0x3d46f856	0.048576675
252	0x378a0f0f	1.6457894e-05
253	0x3d19d622	0.03755773
254	0xbc1327bf	-0.008981644
255	0xbc39fe09	-0.011352071

conv3.bias f4 [32]
0	0xbcb91282	-0.022591833
1	0xbc6460e0	-0.013939112
2	0xbcfc062a	-0.030764658
3	0xbc4538f9	-0.012037509
4	0x3c2527f8	0.01008033
5	0xbcd65c26	-0.026166987
6	0xbc0c4829	-0.008562126
7	0xbd1577db	-0.036491256
8	0x3cb6cbdf	0.02231401
9	0x3cc34078	0.023834452
10	0xbd10e6db	-0.03537641
11	0xbc51cdd8	-0.012805425
12	0xbb2e7ef9	-0.0026625975
13	0xbd049f9d	-0.03237878
14	0xbca80315	-0.020509282
15	0x3cdeef29	0.02721365
16	0xb9d4cfa5	-0.00040590498
17	0x3d0a413f	0.03375363
18	0x3b4cc4f3	0.003124532
19	0x385a3758	5.2026793e-05
20	0xbd11d161	-0.03560007
21	0x3b5cca76	0.0033690012
22	0x3d7fc7d9	0.06244645
23	0x3d4c1707	0.049826648
24	0x3d3b0f3f	0.045668837
25	0xbc69e984	-0.014276866
26	0x3b571db8	0.003282411
27	0x3d6a29e0	0.05716884
28	0xbc44ae69	-0.012004473
29	0x3c63e1d3	0.013908821
30	0x3bfab784	0.0076512713
31	0x3d11e353	0.035617184

fc.weight f4 [32, 4608]
0	0xbc9c9371	-0.019113274
1	0xbc46060f	-0.012086405
2	0xbcd45a1a	-0.02592187
3	0xbb885841	-0.0041609113
4	0x3d2fd5fd	0.042928685
5	0x3cb32bb1	0.02187142
6	0x3c70ce6b	0.014697651
7	0xbcdab3c8	-0.026697055
8	0xbc662655	-0.014047225
9	0xbc1eb5c3	-0.00968689
10	0x3abe68eb	0.0014527118
11	0xb9efe721	-0.00045757837
12	0x3be9e581	0.0071379547
13	0xbc7d2902	-0.015451672
14	0x3b1a20cf	0.002351809
15	0xbc8de6c8	-0.01732196
16	0xbc5f635d	-0.01363453
17	0xbbd1375c	-0.006384773
18	0xbc8af2a5	-0.016961405
19	0xbc20b635	-0.009809067
20	0xbc0ad77f	-0.00847423
21	0xbc78202e	-0.015144391
22	0xbbca1c04	-0.0061678905
23	0xbc36158c	-0.011113536
24	0xbb71e11b	-0.0036907855
25	0xbbb1413e	-0.005409389
26	0xbc8f5ce1	-0.017500343
27	0xbcbfb8cd	-0.02340355
28	0xbbef4104	-0.0073014516
29	0xbb7f133e	-0.0038921381
30	0xbc4c39ba	-0.012464935
31	0xbb95a517	-0.0045667994
32	0xbc3d2a8a	-0.011545787
33	0xbca6ae71	-0.020346852
34	0xbcb42ef4	-0.021995045
35	0xbba00530	-0.004883431
36	0xbd0492a2	-0.032366402
37	0xbca0d8ce	-0.01963463
38	0xbc8861b3	-0.01664815
39	0xbccba3fd	-0.02485847
40	0xbc0c0a37	-0.008547357
41	0xbc457ca1	-0.01205364
42	0xbbd0a23e	-0.006366997
43	0xbc605e77	-0.013694397
44	0xbc8d2353	-0.017228758
45	0xbc328ef1	-0.010898338
46	0xbc3f8e9e	-0.011691717
47	0x3b38e09a	0.0028210045
48	0xbbb50e37	-0.005525376
49	0xbc5f6b0f	-0.013636365
50	0xbc3e3891	-0.011610166
51	0xb806f9fb	-3.2180902e-05
52	0x3a94b3b3	0.0011345058
53	0x3afce116	0.0019293155
54	0x3a79180e	0.00095021806
55	0xbb840ff2	-0.004030221
56	0xbbdbe9f8	-0.006711241
57	0xbcef1514	-0.029184856
58	0xbb234eca	-0.0024918788
59	0x3c7e999e	0.015539555
60	0x38bfc99c	9.1451424e-05
61	0xbae7265a	-0.0017635331
62	0xbcbce411	-0.02305797
63	0xbc55c989	-0.013048538
64	0x3a090aee	0.0005227764
65	0xbcd50a56	-0.026005905
66	0xbc5a2ec9	-0.0133168185
67	0xbb784dac	-0.0037888093
68	0xbce2a78b	-0.027667781
69	0xbcab790c	-0.020931743
70	0xbc851063	-0.016243165
71	0x3c7c3a22	0.015394719
72	0x3c343f1e	0.011001376
73	0xbb995127	-0.0046788636
74	0x39ba3591	0.00035516595
75	0xbc56b782	-0.013105275
76	0xbc9f38c2	-0.019436244
77	0xbbddd1ea	-0.0067694085
78	0xbc8bf951	-0.017086657
79	0x3aaef097	0.0013346848
80	0xbc887356	-0.016656559
81	0xba77d396	-0.0009453831
82	0xbc97b593	-0.018519199
83	0x3bc5683c	0.0060243886
84	0x3d15ef6e	0.03660529
85	0xbaf2fd60	-0.0018538646
86	0xbc521f20	-0.012824804
87	0xbcab71a7	-0.020928217
88	0xbba73554	-0.0051027928
89	0xbc84045b	-0.016115358
90	0xbb0869ac	-0.0020814938
91	0xbcad2895	-0.021137515
92	0xbc442861	-0.011972518
93	0xbc795840	-0.015218794
94	0x3a8f2a07	0.0010922559
95	0x3b73b773	0.0037188202
96	0x3cd3a7e8	0.0258369
97	0x3c916b66	0.017751407
98	0xbca309de	-0.019902166
99	0xbc35068b	-0.011048923
100	0x3a22caec	0.0006210047
101	0xbc4f17ff	-0.012639998
102	0xbcb3ac69	-0.021932798
103	0xbc930eaf	-0.017951338
104	0x3b607ac7	0.0034252868
105	0x39d8c678	0.000413466
106	0x398ddee7	0.0002705969
107	0xbc4a9c1b	-0.01236632
108	0x3c14d4e4	0.00908396
109	0x3a85b1b6	0.0010200057
110	0x3b4ff5ad	0.0031732128
111	0xbbf81e32	-0.007571959
112	0xbcc4449a	-0.023958493
113	0x3b059741	0.0020384344
114	0xbcb86ce2	-0.022512857
115	0xbc775870	-0.015096769
116	0xbbe9b430	-0.0071320757
117	0xbc6cfbbe	-0.014464317
118	0xbbf868ed	-0.0075808675
119	0xbcc3a58b	-0.023882648
120	0xbc378115	-0.011200209
121	0xbbecbb7f	-0.0072244997
122	0xbc938154	-0.018006004
123	0xbbeade6a	-0.007167627
124	0xbc570d7c	-0.0131257735
125	0xbbb8e167	-0.0056421044
126	0xbb850f69	-0.004060675
127	0xbc192fb5	-0.009349753
128	0xbc987d87	-0.018614544
129	0x399df7a1	0.0003012987
130	0xbcfcf992	-0.030880723
131	0xbc8049c9	-0.015660184
132	0xbbb0e2ad	-0.0053981156
133	0x3ac55a33	0.0015056789
134	0xbcb1a45e	-0.021684822
135	0x3ba2dd19	0.0049702046
136	0xbc405b44	-0.011740509
137	0xbb93f537	-0.004515316
138	0x3c4b5798	0.012411021
139	0x3c4720bb	0.0121538
140	0x3c799f3f	0.015235721
141	0x3c91c81d	0.017795617
142	0xbb9fea37	-0.0048802155
143	0xbaa5c97a	-0.0012648546
144	0xbbba49cb	-0.0056850663
145	0xbc0021a8	-0.007820524
146	0xbc2f2c66	-0.010691738
147	0xbcbaf88e	-0.022823598
148	0x3d0699da	0.032861568
149	0x3d1808f4	0.037117913
150	0x3cc389eb	0.023869475
151	0xbc150c31	-0.009097145
152	0x39b99f66	0.0003540471
153	0xbc00b235	-0.007854988
154	0xbc3531da	-0.011059249
155	0xbcd0c8c3	-0.025486356
156	0xbc6cce1d	-0.014453438
157	0xbca1b824	-0.019741125
158	0xbcca4b57	-0.024694128
159	0x3b61776f	0.0034403463
160	0xbc26b96b	-0.010176043
161	0x3c1210df	0.008915155
162	0x3aab191c	0.0013053748
163	0x3ae41c8e	0.001740353
164	0x3be87b04	0.0070947427
165	0xbb532b67	-0.0032221915
166	0x396118ca	0.00021466907
167	0xbbfd1d88	-0.0077244677
168	0xbcd9f8ae	-0.026607838
169	0xbced97be	-0.02900302
170	0xbc90de1c	-0.017684035
171	0xbc3eb03c	-0.011638697
172	0xbc2c4147	-0.01051361
173	0x3b2202a3	0.002472081
174	0xbc87900f	-0.016548185
175	0xbc671a2c	-0.014105361
176	0xbbaa778b	-0.005202239
177	0xbc7bc6c9	-0.015367218
178	0xbc3d8864	-0.011568163
179	0xbc127f15	-0.0089414315
180	0xbc871203	-0.01648808
181	0xbbed8c0e	-0.007249362
182	0x3bd33262	0.006445215
183	0xbb01d426	-0.0019810288
184	0xbc0f62e9	-0.008751609
185	0xbc2d2b69	-0.010569432
186	0xbc5c8c55	-0.013461192
187	0x3bb117f4	0.0054044668
188	0x3c2d5f2d	0.010581774
189	0x3b46c64f	0.0030330603
190	0x3b3bec10	0.002867464
191	0x3c12d099	0.008960866
192	0xb9d6b4ea	-0.00040952052
193	0xb981f6d3	-0.00024788696
194	0x3b8ded36	0.0043312563
195	0x3b3a0f11	0.0028390328
196	0x3983cecd	0.00025140346
197	0xbbb4a7a3	-0.005513148
198	0x3bf7354e	0.007544196
199	0x3ad8682c	0.0016510538
200	0x3bcf2bd2	0.0063223625
201	0x3c53219a	0.012886429
202	0x3c07b01a	0.008281732
203	0x3c3aeb67	0.011408663
204	0x3c547154	0.012966473
205	0xbc0201e7	-0.007935024
206	0xbc35d116	-0.011097213
207	0xbaafa988	-0.0013401965
208	0x3b9a10d8	0.004701715
209	0xbc7abec3	-0.01530427
210	0x3b68f367	0.003554547
211	0x3baefc4e	0.0053401357
212	0xbc4804bf	-0.012208163
213	0xbc1df94e	-0.009641958
214	0xbc2e7329	-0.0106475735
215	0x3b9249dc	0.004464371
216	0x3c6e5646	0.014546936
217	0xbbff8cbe	-0.00779876
218	0x3ab7ccb5	0.00140228
219	0xbc8064b9	-0.015673028
220	0xbca37236	-0.019951921
221	0x3bc29598	0.005938243
222	0xba937b58	-0.0011251969
223	0xba84caf6	-0.0010131288
224	0x3b93f9af	0.0045158486
225	0xbba0d6a3	-0.004908399
226	0xbb82cc90	-0.003991671
227	0xbc551285	-0.013004904
228	0x3d1b5575	0.037923295
229	0x3b6cf122	0.0036154469
230	0xbb5ae48d	-0.0033400387
231	0xbc75a7eb	-0.014993648
232	0xbc25a789	-0.010110744
233	0xbc8d9cfb	-0.017286768
234	0x3bd2339b	0.0064148433
235	0x3c504993	0.012712854
236	0x3bd3d4ca	0.0064645754
237	0x3b26c55a	0.002544722
238	0xbc056f4a	-0.008144209
239	0xbabb2275	-0.0014277237
240	0x3d556493	0.05209787
241	0x3cde802e	0.02716073
242	0xbc629549	-0.013829538
243	0xbc2b4999	-0.010454559
244	0xbc0154d9	-0.007893764
245	0x3bff4de8	0.0077912696
246	0xbbcace0c	-0.0061891135
247	0x3c276c2a	0.010218659
248	0xbb85b881	-0.0040808325
249	0xba6062d0	-0.0008559646
250	0x3bade53a	0.005306867
251	0xbbedf90a	-0.007262354
252	0x3d274c53	0.040844273
253	0x3c2b96e5	0.010472988
254	0xbc90059e	-0.017580803
255	0xbc30e7d2	-0.010797458

fc.bias f4 [32]
0	0xbb402671	-0.0029319788
1	0x3c817942	0.01580489
2	0xbc1ed0d9	-0.009693348
3	0xbaf08e6c	-0.0018352992
4	0x3c36ebe9	0.011164644
5	0x3ca0539c	0.019571118
6	0xbad5265a	-0.001626204
7	0x3c48bb3d	0.012251672
8	0xbc1acdb2	-0.009448456
9	0x3bfad807	0.007655147
10	0xbbf890e0	-0.00758563
11	0x3c21d632	0.009877728
12	0xbbb0eb2d	-0.005399129
13	0x3c974e92	0.018470082
14	0xbc9c0702	-0.01904631
15	0x3c4483be	0.0119943
16	0xbc1bace2	-0.009501668
17	0x3bc24b8a	0.005929415
18	0x3c25cc85	0.010119562
19	0x3c915d2c	0.017744623
20	0x3b5dfa20	0.003387101
21	0xbc897eab	-0.016784033
22	0x38af6c24	8.364793e-05
23	0xbb0a70bd	-0.0021124326
24	0xbbee3931	-0.0072700013
25	0x3be63394	0.0070251916
26	0x3c868b83	0.016423946
27	0x3b8bfd62	0.004272149
28	0x3c5e9d01	0.013587237
29	0x3c9a5890	0.018841058
30	0x3a076b47	0.0005165827
31	0x3c8800e6	0.01660199

translation.weight f4 [2, 32]
0	0xbab89e30	-0.001408523
1	0xbaea4aa9	-0.0017875034
2	0x3c07558d	0.008260143
3	0xbba49241	-0.0050223176
4	0xbb844323	-0.0040363236
5	0xba298332	-0.0006466388
6	0x3a8f2416	0.0010920789
7	0xbb749d8c	-0.003732535
8	0x3bfe0280	0.007751763
9	0x3afc8a42	0.0019267278
10	0xbc029754	-0.00797065
11	0xbb34331c	-0.0027496284
12	0xbb92cdc2	-0.0044800946
13	0xbb505ec9	-0.0031794778
14	0x3b83bbf4	0.0040202085
15	0xbbec2414	-0.0072064493
16	0x3b871a42	0.004123003
17	0xbb85e950	-0.004086651
18	0xbb1f7339	-0.0024330153
19	0x3a0b8015	0.0005321515
20	0x3c7bbb1c	0.015364435
21	0x3bff3388	0.0077881254
22	0xbb040a96	-0.0020147911
23	0x3b783340	0.0037872344
24	0x3bdc4f8f	0.0067233513
25	0xbaeb96a6	-0.0017973974
26	0xbb0d3728	-0.0021547768
27	0x3ab3ee30	0.0013727602
28	0xbc26401b	-0.01014712
29	0xbbaafc1d	-0.0052180425
30	0x3b1d0da7	0.0023964436
31	0xbc0ca22b	-0.008583586
32	0x3bece4c2	0.0072294185
33	0x3bbbdbe4	0.005733
34	0xbc210d06	-0.009829765
35	0x3b81850f	0.0039526294
36	0xbbd8942b	-0.00660946
37	0xb9972559	-0.0002882879
38	0xba338fb0	-0.0006849719
39	0xbca6088e	-0.020267751
40	0xbbb51aa3	-0.005526857
41	0xb912a670	-0.00013985648
42	0xbc00bb31	-0.00785713
43	0xbc8c4c2b	-0.017126163
44	0xbbe7afd6	-0.007070522
45	0xbba8b813	-0.0051488965
46	0x3bcfc77b	0.0063409186
47	0xbc3d6c8f	-0.011561527
48	0x3b07432b	0.00206394
49	0x3b896721	0.004193202
50	0xbaa67470	-0.0012699496
51	0xba15cd9e	-0.0005714538
52	0xbac21fbd	-0.0014810484
53	0x3c17b81e	0.009260206
54	0xbc8d254a	-0.017229695
55	0x3a0f4954	0.0005465944
56	0xbba7b4b2	-0.005117976
57	0x384faa80	4.9511436e-05
58	0x3b9baa6e	0.0047505414
59	0xba4127e4	-0.000736831
60	0xbb688bf7	-0.0035483816
61	0xba1a1528	-0.00058777863
62	0xbbb40200	-0.0054934025
63	0xbc0733a3	-0.008252057

translation.bias f4 [2]
0	0x3c0e7de0	0.008697003
1	0xbb0fa902	-0.0021920805

rotation.weight f4 [1, 32]
0	0xbcbf25dd	-0.023333484
1	0xbcf5db28	-0.030011728
2	0x3b95f9dd	0.004576905
3	0xbbf30141	-0.007415921
4	0xbce9e610	-0.028552085
5	0xbc87926e	-0.016549315
6	0xbc7cef4c	-0.015437912
7	0xbcb11ec7	-0.021621121
8	0xbcda30de	-0.02663463
9	0xbc8c8bd1	-0.017156513
10	0xbb40a7ed	-0.0029396967
11	0xbc51e2ea	-0.012810448
12	0xbca029b6	-0.01955114
13	0xbce2ff69	-0.02770968
14	0xbb7adb81	-0.0038277807
15	0xbc42ff2c	-0.011901658
16	0xbb1853d1	-0.0023243318
17	0xbc807805	-0.01568223
18	0xbcfe4c0e	-0.031042125
19	0xbc852846	-0.016254555
20	0xb99cdec9	-0.00029920627
21	0x3bd50053	0.006500283
22	0xbc92a844	-0.0179025
23	0xbb5230e7	-0.0032072605
24	0xbbc0816f	-0.0058748047
25	0xbcdba89b	-0.026813796
26	0xbc89e7c6	-0.016834151
27	0xbc856058	-0.016281292
28	0xbc377e38	-0.0111995265
29	0xbc04e9aa	-0.0081123505
30	0xbd057486	-0.03258183
31	0xbc3b851c	-0.01144531

scaling.weight f4 [2, 32]
0	0x3abe5273	0.0014520421
1	0x3bf9e0f7	0.007625695
2	0xbc10eda4	-0.00884572
3	0x3c6bbd6a	0.014388422
4	0xba02453e	-0.00049694243
5	0xbb4b59bc	-0.0031028828
6	0xba52c220	-0.0008039791
7	0xbaca9084	-0.0015454446
8	0xbbc9cf75	-0.006158764
9	0xb813fee4	-3.5284917e-05
10	0x3b84e9fb	0.004056213
11	0x3b89d243	0.0042059734
12	0x3a181c7f	0.0005802586
13	0xbadf8916	-0.0017054405
14	0xbb4d4d2e	-0.003132652
15	0x3b39c44f	0.0028345769
16	0x39c01cbd	0.00036642505
17	0x3be95475	0.0071206638
18	0x3ab4d82e	0.0013797337
19	0xba7dd4f8	-0.0009682919
20	0x3b33afdf	0.002741806
21	0xbb2ff3d0	-0.0026848204
22	0x39e0bf89	0.00042867314
23	0x3b4a0318	0.0030824598
24	0xbbc04bde	-0.005868419
25	0xbb0265d9	-0.0019897132
26	0x3aed35f7	0.0018097748
27	0xba80be1d	-0.0009822283
28	0x39a2d8e9	0.00031060659
29	0x3c71c360	0.014756054
30	0xbaf1df72	-0.0018453433
31	0x3a65e13c	0.0008769219
32	0xb9a8b033	-0.00032174736
33	0x3a241beb	0.00062602636
34	0xbc0f7544	-0.008755986
35	0x3cae7862	0.021297637
36	0xb9fe37fb	-0.00048488364
37	0xbb73a0ae	-0.003717463
38	0xb99e9847	-0.00030249564
39	0x3c3d4a31	0.011553333
40	0xbbede1a1	-0.007259563
41	0xbb861722	-0.004092113
42	0x3c06398f	0.008192434
43	0x3c930d51	0.017950686
44	0x3bc00229	0.0058596325
45	0xba58dc87	-0.0008272607
46	0x3b34aec1	0.0027569982
47	0x3c8d4603	0.017245298
48	0x3b565758	0.003270587
49	0x3bc23d5c	0.0059277248
50	0xbb3a5842	-0.0028433953
51	0x3b8375c1	0.00401184
52	0x3bc306d2	0.005951741
53	0xbaf16114	-0.0018415772
54	0x3c06f0fc	0.008236166
55	0x3bf7b1c3	0.0075590326
56	0xbc0dc9ea	-0.008654097
57	0xbb4e77e3	-0.0031504564
58	0x3b3a829e	0.0028459202
59	0xb6f3b3f4	-7.2629136e-06
60	0x3c34a9f6	0.01102685
61	0x3ccd0769	0.025027948
62	0xbb99c317	-0.004692446
63	0x3c6a7859	0.01431092

scaling.bias f4 [2]
0	0x3bf4cceb	0.007470717
1	0x3c8ab2e0	0.016930997

shearing.weight f4 [1, 32]
0	0xbc9e886a	-0.019352157
1	0xbc4a0177	-0.012329451
2	0x3bf80929	0.0075694514
3	0xb7b7d6e6	-2.191537e-05
4	0xbc6eb690	-0.0145698935
5	0xbcaab99b	-0.020840457
6	0xbc4c62c9	-0.012474724
7	0xbbf731d0	-0.00754378
8	0xbcb6879c	-0.02228146
9	0xbca1f63b	-0.019770732
10	0x3be79d3b	0.007068304
11	0xbbabaa1c	-0.0052387845
12	0xbc217e2e	-0.009856744
13	0xbc64129f	-0.013920455
14	0xbcbc1f65	-0.022964189
15	0xbb8bd769	-0.0042676223
16	0xbbcfc992	-0.0063411677
17	0xbcb2a42b	-0.021806797
18	0xbc72a007	-0.014808661
19	0xbcd5353f	-0.026026366
20	0xbc978c21	-0.018499436
21	0xbc368da5	-0.011142169
22	0xbbb3dd15	-0.0054890015
23	0xbd0e9480	-0.03480959
24	0xbc1ce43b	-0.009575899
25	0xbc99b751	-0.01876417
26	0xbcb1bcff	-0.021696566
27	0xbcdb3496	-0.026758473
28	0xbb6afb99	-0.003585553
29	0xba59e8f1	-0.0008312604
30	0xbc89d732	-0.016826246
31	0xbb726d99	-0.0036991595
