output/Mess6060_10times_e/train/model/itn_1.pt (torch_old, 23547 bytes, 23 tensors)

conv11.weight f4 [2, 1, 3, 3]
000000 b9 5e 8c 3e a1 8f 96 3e 79 52 7a bd 87 cc a6 3e
       0.27416018 0.29406455 -0.06111381 0.32577917
000010 a1 47 64 bd 38 f8 ac 3d 36 92 10 be 54 ec 5b 3e
       -0.055732373 0.084457815 -0.14118275 0.21476871
000020 44 0e a0 3e 37 67 7b be a0 b8 8e 3e 0f bc 3e 3d
       0.31260884 -0.24551092 0.27875233 0.046566065
000030 da 55 81 3e 68 33 2b 3d 0b fd 1a 3e 8e 4b 05 bd
       0.25260812 0.04179707 0.1513559 -0.032542758
000040 eb dc 86 3e 7a 8d 45 3d
       0.26340422 0.048230626

conv11.bias f4 [2]
000000 30 3c fc bd 56 dd 4a 3d
       -0.12316167 0.04952749

conv12.weight f4 [4, 2, 3, 3]
000000 d4 03 a9 bd aa 27 84 bc 6f 3c bf bd 35 de 41 3e
       -0.08252683 -0.016132195 -0.09337699 0.18932422
000010 bf f7 2b be de 9c cd bd 6d 7e c5 bc d5 21 e7 bd
       -0.16793726 -0.10039686 -0.024108136 -0.1128575
000020 ee b6 2b 3d be 07 5d be 2d 78 5f 3e 94 8f 4c be
       0.041922502 -0.21584985 0.21823187 -0.19976646
000030 f0 1d 53 3e 82 87 59 3d 7f e1 8a bd 32 80 3b 3e
       0.20616889 0.053107746 -0.06781291 0.18310621
000040 43 60 83 3d 7c 77 58 3e 92 7b 48 3d eb cb 61 bd
       0.06414845 0.2113933 0.04894597 -0.055126112
000050 1a 7a a6 3d a6 33 23 bd 19 30 f3 3d b0 9f 69 3e
       0.08128758 -0.039844178 0.11874408 0.22814822
000060 f7 92 26 3e dc 9f a6 bd 32 07 1f 3e 59 8b 80 3d
       0.16267 -0.081359595 0.15530089 0.062765785
000070 11 6a 0c 3e f2 d6 01 be 82 33 59 be c7 e3 95 bd
       0.13712336 -0.12679651 -0.21211055 -0.07318836
000080 25 4b 27 be 91 64 5e 3e ab b0 b4 3d 2c 14 f0 3d
       -0.16337259 0.2171805 0.08822759 0.117225975
000090 62 e1 c1 3d da fe 40 3c e9 c8 4a 3e d8 11 16 be
       0.094668165 0.011779511 0.19803204 -0.14655244
0000a0 5c 3b ff 3c 43 d7 16 be cf f4 c2 3d 19 74 81 bd
       0.031156234 -0.14730553 0.0951935 -0.06320972
0000b0 fb a0 b2 3d d1 c3 00 bd f2 63 56 3e c1 5c 02 be
       0.08722111 -0.031436745 0.20936564 -0.12730695
0000c0 a5 a1 fa bd 17 44 01 be 4b 28 66 3e fd 71 c9 3d
       -0.122378625 -0.1262363 0.22476308 0.09836195
0000d0 51 d7 78 3e bb 21 38 be a0 2b 3b be 5d 10 44 be
       0.24300887 -0.17981617 -0.1827836 -0.19146867
0000e0 a9 95 61 be c2 65 1d 3e d5 96 9e 3d f6 86 37 3e
       -0.22029747 0.15370849 0.07743613 0.17922577
0000f0 db d2 27 bd a7 82 0d be bf 08 05 3e 45 ff 60 bd
       -0.04097257 -0.13819371 0.12991618 -0.054930944
000100 ae 19 10 3e 3a 5f e8 bd 65 d9 41 3e ad 77 4c be
       0.14072296 -0.11346288 0.18930586 -0.19967528
000110 56 96 15 be 95 ab 13 3e 17 5e 85 3d ea eb 84 bd
       -0.1460813 0.14420922 0.06512087 -0.064903095

conv12.bias f4 [4]
000000 6d e2 cf 3d fd ee 12 3e df 71 0e be b6 55 92 3c
       0.10150609 0.1434898 -0.13910626 0.017863136

down1.weight f4 [8, 4, 2, 2]
000000 ce a3 5f 3e 17 19 eb bd 6d cc b1 bd 46 29 75 be
       0.2183983 -0.11479395 -0.08681569 -0.23941526
000010 d5 7f 23 be 02 f8 4b 3d c5 63 4f bd be 63 48 be
       -0.15966733 0.049797066 -0.050632257 -0.19569299
000020 81 83 fb bb d7 b6 38 be 33 3f 69 be 4b 1f 19 be
       -0.0076755886 -0.18038498 -0.22778015 -0.14953344
000030 8a 8a a4 be 22 10 73 be 86 88 49 3e 6b e8 ac 3c
       -0.32136947 -0.23736623 0.19680986 0.02110692
000040 b6 a5 2a bb 55 ee 9b be 88 ab 86 be 54 f1 37 be
       -0.0026038713 -0.3045527 -0.26302743 -0.17963153
000050 fa 9d 0a 3d 8c cb 60 be a7 b5 ed bd 83 fc 1b be
       0.033842064 -0.21952647 -0.11606913 -0.15233044
000060 f8 35 8c b8 86 04 b7 bd 51 e3 a9 bc 82 2a 2c be
       -6.685773e-05 -0.0893641 -0.020738276 -0.1681309
000070 0a 9d 7b be f5 51 56 be 97 0b 3b be 95 c2 8d be
       -0.24571624 -0.20929702 -0.1826614 -0.27687517
000080 19 65 18 3e 18 f9 e6 bd 0f 28 1d 3e ec 93 85 3c
       0.14882316 -0.112779796 0.15347312 0.016305886
000090 09 64 70 be f5 5b 1e 3e b8 2d c0 bd a2 d0 ed bd
       -0.2347566 0.15464766 -0.0938372 -0.11612059
0000a0 03 c4 66 be 68 69 86 be d3 ff 53 3d cc bf 8f bd
       -0.2253571 -0.26252294 0.051757645 -0.07019004
0000b0 e7 05 30 3d 28 68 7e be f8 d0 f6 3d 0f a0 7c be
       0.04297438 -0.2484442 0.120515764 -0.24670433
0000c0 c6 62 9d 3d 21 55 2e 3e e1 98 76 3e 40 fb a6 3e
       0.07684855 0.17024662 0.24081756 0.32613564
0000d0 4f 35 85 3e d5 df 30 be fd 34 cc 3d b6 57 9f bd
       0.26017234 -0.17272885 0.09971044 -0.077804014
0000e0 4e f8 6f bb 3c 1f 2d be 1b fd 82 3e 99 1b 25 be
       -0.0036616507 -0.16906446 0.2558373 -0.16123809
0000f0 d1 cb 57 3e 6f 36 19 3e 1b 7e 2b 3e d0 e0 a5 bd
       0.21073844 0.14962171 0.16747324 -0.0809952
000100 0e 6a 2c 3e e7 a6 04 3d 86 07 a5 bb f6 05 85 be
       0.16837332 0.032385733 -0.0050362973 -0.2598111
000110 51 ee b3 3d 39 e6 5b bd 20 9a 04 be da c0 4d 3e
       0.087856896 -0.053686354 -0.12949419 0.20093098
000120 76 8c 1b 3d d9 07 1f be a5 7d 11 be 0c f2 d7 bc
       0.03797575 -0.15530337 -0.14208086 -0.026360534
000130 4c 6e 18 3e 52 75 e3 bc 68 e2 03 be 2a e0 6e bd
       0.14885825 -0.027765904 -0.12879336 -0.05831925
000140 d6 04 73 be 7f 03 76 3c 52 a4 09 3e 23 2c a7 be
       -0.23732314 0.015015482 0.1344159 -0.3265086
000150 f0 0c 7f 3d a4 10 05 3e 98 6e 4d 3d 37 fc b2 bd
       0.062268198 0.12994629 0.0501543 -0.087395124
000160 64 ab 08 3e a1 3b 06 3e e5 3f cb 3d bd 49 30 bd
       0.1334663 0.13108684 0.09924296 -0.043039072
000170 e3 ee 39 be b2 2e bd bd 36 a4 2d be a6 f4 3f be
       -0.18157534 -0.09237422 -0.16957173 -0.1874567
000180 ad be a9 3d 5e 07 0f 3e 65 6b d5 bd f9 54 04 be
       0.08288322 0.13967654 -0.104208745 -0.1292304
000190 50 3e 8a b8 62 18 99 bc da fa 62 3d f8 7c 85 3d
       -6.5919594e-05 -0.018688384 0.055415012 0.065179765
0001a0 e4 05 6a be 5d 20 c1 bd 39 df 54 3e 47 ed c1 3d
       -0.2285381 -0.09430001 0.20788278 0.09469085
0001b0 d3 6b c0 bd 60 78 6f be 3e f8 66 be 8d 8a 95 be
       -0.09395566 -0.23385763 -0.22555634 -0.29207268
0001c0 38 7e 1c be 63 4f 99 3c bf 2e b1 3d 6b f7 27 3d
       -0.15282524 0.018714612 0.08651494 0.04100744
0001d0 07 3b 67 be 6e c9 17 be a6 4b 38 bd 7b d6 78 3e
       -0.22581111 -0.14822933 -0.04499402 0.24300568
0001e0 d3 e5 0a 3d 46 10 79 bd fc 52 ce 3d 3f 0b bc bd
       0.033910584 -0.060806535 0.10074422 -0.091818325
0001f0 57 b7 3f be 79 10 21 3e 30 b3 22 be 38 b3 d3 bd
       -0.18722282 0.1572894 -0.15888667 -0.10336918

down1.bias f4 [8]
000000 11 0b 49 be d4 59 ee 3d 86 6b 26 3e 1d 92 2d 3e
       -0.19633128 0.11638227 0.16251954 0.16950269
000010 3e 3b 70 be 8a 6f ac be 34 85 8f be 56 d0 01 3e
       -0.23460099 -0.33678848 -0.28031313 0.1267713

conv21.weight f4 [8, 8, 3, 3]
000000 38 bf 40 3d a6 78 d1 3d 77 89 95 3d 3a 51 8b 3c
       0.04705736 0.1022809 0.0730161 0.017006505
000010 47 25 a2 ba c3 05 a7 bd a1 43 f6 bd 9f ab ef bd
       -0.0012370729 -0.08155396 -0.12024618 -0.11702656
000020 28 c4 4c 3d 7e fa 88 bd fe 56 9f bc 11 1a 63 bd
       0.049991757 -0.066884026 -0.01945066 -0.05544478
000030 57 6a 10 bd 2f f8 ab bd 7b 22 8e bd 2a 3b 91 3c
       -0.035257664 -0.08396947 -0.069401704 0.017728407
000040 38 36 34 bd 89 91 94 3d 7c 4c 3e bd 29 10 a9 bd
       -0.04399702 0.07254321 -0.04645966 -0.082550354
000050 77 be 09 bc e7 d7 8b bd f9 da 09 bd 21 bc cf bd
       -0.008407227 -0.068282895 -0.033656094 -0.101433046
000060 83 11 48 3d fc 72 af bd e0 6a 84 3d 90 55 c6 3d
       0.048844825 -0.085668534 0.06465697 0.096842885
000070 16 5d e4 3d 4a 52 a7 bd 32 9f 0c 3e 01 47 92 bc
       0.11150567 -0.08169992 0.13732603 -0.017856123
000080 33 46 88 3d f9 31 2e 3e d7 a3 ff 3c 6b fa 01 3d
       0.066540144 0.1701125 0.031206055 0.031732958
000090 9b 13 22 bd 41 59 ca bd 03 85 84 3d f7 26 05 be
       -0.03956948 -0.09880305 0.064706825 -0.13003145
0000a0 d2 51 95 3d 74 f7 c5 3d cb df c9 3d d7 0a e6 bc
       0.072909966 0.096663386 0.09857138 -0.02808134
0000b0 78 ba b4 bd 03 a2 09 3d 60 b3 78 3d f5 4e 04 be
       -0.088246286 0.033601772 0.06071794 -0.12920745
0000c0 2d 48 af bc 4e 3a 9e bd 86 d9 c3 bc da eb 4a bd
       -0.02139672 -0.077259645 -0.023907434 -0.04954133
0000d0 17 f0 55 bd 56 e6 46 bd ab 73 d8 bd b5 3c bc 3d
       -0.05223092 -0.04855951 -0.10568937 0.091912664
0000e0 ad 45 b3 3d 72 66 21 bc 13 1b 74 bc 93 6d 65 bd
       0.08753524 -0.009851085 -0.014899033 -0.0560127
0000f0 9b 76 ba bd 9f 98 de bd de fb 30 3d 6d 65 97 bd
       -0.091046534 -0.10868954 0.04320895 -0.07392392
000100 c8 02 91 bd c4 0a b5 3b 39 18 49 bd cf 4c 07 bd
       -0.070806086 0.005524965 -0.049095366 -0.033032235
000110 f3 1b 95 3c 6e b8 22 bd 36 b4 24 bd 06 21 3d bd
       0.018201804 -0.039726667 -0.040210925 -0.04617407
000120 db 88 dc bd 12 15 94 3d a9 48 94 bd 55 52 f7 3c
       -0.107682906 0.07230581 -0.07240421 0.030190626
000130 eb 91 72 bd 4e 1b 88 bc 3a 22 fb 3d 12 d6 35 3d
       -0.05922119 -0.016614582 0.122623876 0.044393606
000140 2b dc ff bd e8 8d f5 3c 79 54 ae 3d 6a 58 ff 3b
       -0.124931656 0.029974893 0.08512206 0.007792522
000150 54 fe 9f 3d 5b 9b c5 3d e3 71 3c bd 4f 15 13 3d
       0.07812181 0.09648772 -0.04600705 0.035908993
000160 bc 62 be bd c5 90 3b bd c7 7d 9f 3d 90 cb 11 3d
       -0.09296176 -0.04579236 0.07787662 0.035594523
000170 b8 a2 ce bd 3d ab c5 bd cf d9 cc bd be 31 11 be
       -0.1008963 -0.09651802 -0.10002481 -0.14179131
000180 68 1a 9c bd e6 f4 13 bd 30 a1 67 3d 90 dc df bc
       -0.07622224 -0.036122225 0.056550205 -0.027326852
000190 82 15 c3 bd 9b e4 8d bd 79 4f 27 3c 01 49 ed bd
       -0.09525587 -0.06928369 0.010211819 -0.1158619
0001a0 08 c4 cd bc 0e 02 89 bc 7a a8 e1 bd 4f a6 33 bd
       -0.025117889 -0.016724613 -0.110184625 -0.043859776
0001b0 9f 4e e6 bc a6 07 71 bd 8d 91 bc bd cc 0d 07 be
       -0.028113661 -0.058845185 -0.09207449 -0.13188857
0001c0 22 dc fd bd 68 97 ae bd 49 6e c0 3d 6d 58 a6 bd
       -0.123955026 -0.08524972 0.09396035 -0.08122335
0001d0 8b 07 d2 bd 1f 09 27 3d ba da 6c 3d 27 6a b3 3d
       -0.10255345 0.040780183 0.05782578 0.08760481
0001e0 81 01 c9 3d bf 28 b0 3d 7f 2b bf bd 4a 10 91 3a
       0.0981474 0.08601522 -0.09334468 0.0011067477
0001f0 74 2e a9 3d d3 5a 8b 3c 2a e9 81 bd d8 36 0b 3e
       0.08260813 0.017011082 -0.06343301 0.1359514
000200 fd 00 d7 bc 90 0c a0 bd 5f 22 d2 bd a6 a5 d4 3c
       -0.026245588 -0.07814896 -0.10260462 0.025957894
000210 85 2b f8 3c 42 7f ce 3c fa 08 1e 3d 1c 97 cd bd
       0.03029419 0.025207166 0.03858278 -0.100385875
000220 fb 16 0f be 91 a4 aa bc 60 d1 cd 3d 3c 75 49 3d
       -0.1397361 -0.020830425 0.10049701 0.04918407
000230 df 64 bc bd ad 6c 0c bb ee 8e bd bd 04 fb 9a bd
       -0.09198927 -0.002142708 -0.09255777 -0.07567409
000240 3d d4 8c 3c f8 78 5f 3d 37 5b c2 3d 8a d8 d4 bd
       0.017191047 0.054558724 0.09490054 -0.10392864
000250 33 b9 98 3d 58 ae b9 bd 3a 06 55 3d 2f 23 cb 3d
       0.07457199 -0.090664566 0.05200789 0.0991882
000260 77 d9 9c bb a6 64 d0 3d a7 10 e3 bd 2f a9 3e bd
       -0.004786666 0.10175447 -0.110871606 -0.046548065
000270 15 a7 85 3d 4a 67 0d bd cb 14 0f bd 2d 6e 2d bd
       0.06526009 -0.034522332 -0.03493194 -0.0423414
000280 ce af a6 3d 48 6b 52 3d 8b 4c 1a 3d 83 95 84 bd
       0.08139001 0.051371843 0.037670653 -0.064738296
000290 bf 05 ca bd 4c ea 01 3c 65 e0 19 3d d2 e0 6e bd
       -0.09864377 0.007929396 0.037567515 -0.058319874
0002a0 96 0d 23 bd 6a a0 92 3d c6 24 24 3b d5 64 58 3b
       -0.03980788 0.07159503 0.0025046333 0.0033019085
0002b0 e6 7f 09 bd b4 7d c3 bd 9d 6f f3 bd bf 5a 82 bd
       -0.03356924 -0.0954546 -0.11886523 -0.06364965
0002c0 27 8b 60 bd 7c 4f b1 3c 70 5a 42 bd a9 0c 64 bd
       -0.054820206 0.021644346 -0.04744953 -0.055676136
0002d0 32 9d 03 3e dd 7a 78 3d 5a d8 d2 3d 5b d4 31 bd
       0.12852934 0.060664047 0.10295172 -0.04341541
0002e0 44 17 eb bc 6a 1f 80 3d c9 ff 8b bd 8c 22 a1 bd
       -0.028697617 0.06255992 -0.068358965 -0.078679174
0002f0 66 7a a0 3b 5f bb 1d bd 08 6d ad bd 99 e5 94 3d
       0.0048974035 -0.03850877 -0.08468062 0.07270355
000300 00 21 cb 3d 43 f5 e5 3c 38 97 52 bc 5e 80 cd bd
       0.099184036 0.028071051 -0.012853436 -0.1003425
000310 c3 67 0a bd 63 ba 2a 3d f6 58 80 3d 27 80 01 bc
       -0.03379036 0.04168166 0.06266968 -0.007904089
000320 a9 2d 18 bd 02 c8 70 3d dc 7a b0 bd 6a 50 ab 3d
       -0.03715292 0.058784492 -0.086171836 0.08364947
000330 07 55 2c bd ea ac b0 bb 07 eb 72 bc d1 1f 92 3c
       -0.042073276 -0.0053917067 -0.014826543 0.017837437
000340 ce 40 36 bd 56 ec 9e 3d f7 ef d8 bb 7a f5 ab 3d
       -0.044495396 0.07759921 -0.006620403 0.0839643
000350 2f 05 d9 3d 2d 8a 80 bd 5c 26 ba bd ef 91 ac 3d
       0.10596692 -0.06276355 -0.09089348 0.08426272
000360 7b 13 a8 3d 7f e6 b5 bd 6b 4c 06 bc 3d 67 01 be
       0.082068406 -0.08881854 -0.00819693 -0.12637039
000370 e0 5a c1 bd 34 90 bf 3c d0 c5 29 3c 4f 05 7b 3c
       -0.09441161 0.023384191 0.010362104 0.01532109
000380 d9 81 39 bd 6b 7a db 3d ee de f9 3c b2 9c 55 bd
       -0.045289848 0.10716709 0.030501809 -0.05215139
000390 84 8e 4f bc c7 58 1c 3d d4 3e 51 3d 35 6f d6 bd
       -0.012668256 0.038170602 0.05108531 -0.1047043
0003a0 05 36 0f 3d 64 f4 91 bd 32 85 cc bd 84 ee 49 bd
       0.034963626 -0.07126692 -0.099863425 -0.04929973
0003b0 8d 1d 0a 3e 99 a6 d7 3d 33 3f 01 3e cd 82 bf 3d
       0.13487835 0.10529823 0.12621765 0.0935112
0003c0 32 fc ad 3d 44 3a be bb 9c cf 69 bd ee e8 fa 3d
       0.08495368 -0.0058052856 -0.057082757 0.12251459
0003d0 54 99 23 bc 1c 3c 22 bd 70 56 27 3d 81 0d 9b 3d
       -0.009985287 -0.039608106 0.040853918 0.07570935
0003e0 e9 2c d8 3d 6e 16 3d 3d 74 05 dc bb f7 4a 86 3d
       0.10555441 0.04616397 -0.0067145173 0.06557267
0003f0 fc 92 ea bd ca 4b e9 bd f3 89 cd 3c c5 d6 87 bd
       -0.11453816 -0.11391409 0.025090193 -0.06632761

conv21.bias f4 [8]
000000 7f 84 24 3e c4 ed 55 bd ea 7a 84 bd 51 19 22 3e
       0.16066168 -0.052228704 -0.064687565 0.1582997
000010 f2 69 14 3e 1e 80 f4 bb 25 bf fa 3d 49 9e 3d 3d
       0.1449354 -0.007461562 0.12243489 0.04629353

down2.weight f4 [16, 8, 2, 2]
000000 a8 07 81 3d 6c 41 e2 3d e1 cb ba bd 48 91 c3 3d
       0.063002884 0.110476345 -0.09120918 0.095491946
000010 8b 84 e4 3d 62 43 39 3e da e9 a4 bd fe 8f 76 bd
       0.11158093 0.18092111 -0.08052416 -0.060195915
000020 98 71 f3 bc 33 58 d1 3c 63 cc 00 3e 7a db a7 bd
       -0.029717252 0.025554752 0.12577967 -0.08196159
000030 31 6f 0d 3d a2 6e f0 bd 65 4b 59 3d cc 51 85 bd
       0.03452987 -0.117398515 0.053050417 -0.06509742
000040 e2 b4 4a bd 49 ac 0d bd 7a d4 7b bc c0 c2 33 3e
       -0.04948891 -0.034588132 -0.015370483 0.1755476
000050 be 33 0c be d0 b6 b5 bc e0 70 2a 3c 58 80 e7 bd
       -0.13691613 -0.022181898 0.010402888 -0.113037765
000060 ed b5 6c 3c 30 0b 47 be 9d e1 2f be af 20 44 be
       0.014447671 -0.19437861 -0.17175908 -0.19153093
000070 92 51 9f bd 5f 9c 99 bd 65 30 00 bc 9f ed 4f bd
       -0.0777923 -0.075005285 -0.007824038 -0.050763723
000080 d9 69 c8 3d fb c5 26 3e a2 43 ab 3d 37 5a 80 bd
       0.09785814 0.16286461 0.08362509 -0.06267207
000090 04 28 41 be 2d 58 0d 3d af a1 de bd 5c ed 74 3d
       -0.18862921 0.03450792 -0.108706824 0.059796676
0000a0 d0 3b d6 3d e3 bf 54 3d ab 84 1d 3e db 66 1c 3e
       0.10460627 0.05194081 0.1538264 0.15273611
0000b0 28 c4 9e 3d 6a ca c2 bd 58 23 45 3e 33 d1 41 bd
       0.077522576 -0.09511264 0.19251764 -0.04731865
0000c0 ea 76 95 bd 90 65 55 3e d5 a0 04 3e 2b 7b b5 3d
       -0.07298072 0.20839524 0.12951978 0.08861383
0000d0 8a 80 4d 3c a8 f7 20 be ac 43 52 bc df a2 28 3e
       0.012542853 -0.15719473 -0.012833517 0.1646838
0000e0 db c2 87 3d f3 5b b7 3c 73 77 43 bc 66 80 4d bd
       0.066289626 0.022382712 -0.011930334 -0.05017128
0000f0 b8 03 f7 3d 50 9a 42 3c 42 01 0c 3e de 2b c9 bc
       0.12061256 0.011877611 0.13672355 -0.02455705
000100 4a 9f e6 3d 41 21 b1 3d da 1c 8f 3d 53 04 06 3e
       0.11260851 0.08648921 0.06987925 0.13087587
000110 a5 5c b1 3d b1 5f ed 3d be d9 ea 3d 89 a1 ad bd
       0.08660249 0.11590517 0.11467312 -0.08478076
000120 f9 da 2d be 59 a8 86 3c 8b a3 c5 bc 6d be 85 bd
       -0.16978063 0.016437696 -0.024125835 -0.065304615
000130 83 ef ac bd d2 c8 10 bd 27 46 8c 3d 7d e0 15 3c
       -0.08444121 -0.035347767 0.06849318 0.00914776
000140 39 7e 45 be bd 6b 48 be 03 e6 31 be 7f 27 4a be
       -0.19286431 -0.19572349 -0.17372899 -0.19741629
000150 5d 65 32 3e 1c 30 b6 3d 67 a7 38 3e 73 ac 1a 3a
       0.1742148 0.08895895 0.18032609 0.0005900331
000160 53 0f 93 3d ea ba a5 3d 10 e4 01 be 9f d6 26 3d
       0.07180657 0.08092292 -0.12684655 0.040732022
000170 ec a4 bd 3c c8 2f a5 bd 43 0b cc bd 89 2e 36 3e
       0.02314993 -0.08065754 -0.099630855 0.17791189
000180 22 c7 ca 3d 06 4a 6d 3d 9a 15 de 3d 1f 73 ed bd
       0.09901263 0.057931922 0.10843964 -0.11594223
000190 85 ae c7 bc 60 2c a0 3d 4f 12 2b bd 95 8d d6 bc
       -0.02437521 0.07820964 -0.041765507 -0.026190558
0001a0 a4 27 da bd 46 a1 89 3d 1c e6 82 bd ae f3 16 3d
       -0.10652092 0.067202136 -0.06391546 0.036853485
0001b0 c9 ca 3f 3e 25 c8 21 bd 7a 3e d4 bc b4 66 09 3e
       0.187297 -0.039497513 -0.025908697 0.13418084
0001c0 f6 48 59 3d 8d 70 cb 3d 14 c8 8f 3e 4d 26 37 3d
       0.053048097 0.09933577 0.28082335 0.04471426
0001d0 85 d7 1a be f2 7f d7 bd 2c e5 c1 bd 51 19 e4 bd
       -0.15121277 -0.105224505 -0.09467539 -0.11137641
0001e0 3c 7c 0c be d8 88 3a 3d 02 66 eb bc 59 40 cf bd
       -0.13719267 0.04554066 -0.028735165 -0.10119695
0001f0 e5 b3 42 be 68 7d c2 bd ce db 06 be ab 4d da bd
       -0.19013937 -0.094965756 -0.13169786 -0.10659345
000200 95 53 4c be 96 09 97 3c d3 9d 38 be 05 05 2d be
       -0.19953759 0.018437188 -0.18028955 -0.16896446
000210 b5 e7 25 be 75 5b 8f 3d 8c 54 04 be b3 57 ab bd
       -0.1620167 0.06999866 -0.12922877 -0.08366337
000220 5d 1b 09 3e ed d1 a0 3d ec 8d d1 3d bd 06 35 be
       0.13389345 0.0785254 0.102321476 -0.17678352
000230 ee ae 57 be d6 aa 18 be bb a2 72 3d e0 62 85 bd
       -0.21062824 -0.14908919 0.059237223 -0.065129995
000240 f3 23 0a be 8a 2e ec bc b6 08 09 be 88 b9 6f bd
       -0.13490276 -0.028830785 -0.13382229 -0.058526546
000250 47 dc 8f bd df 3b 18 3e 43 26 b8 3c db b4 38 bd
       -0.070244364 0.14866589 0.022479182 -0.045094352
000260 8c a5 aa bc c8 d2 a2 bd d1 da 1a 3c 47 86 01 3d
       -0.020830892 -0.079503596 0.009451584 0.031622197
000270 aa 05 0c bc 74 cc e1 bd fb c0 ba 3d fd 09 94 bd
       -0.008546272 -0.110253245 0.09118839 -0.072284676
000280 38 d4 16 bd 14 6f 05 3e 40 16 3d 3e 6e 90 51 3e
       -0.03682348 0.13030654 0.18465519 0.20465252
000290 59 33 38 3d 2a 98 8f bd 75 0f ed 3d aa 41 35 3e
       0.044970844 -0.07011445 0.11575214 0.1770083
0002a0 f8 e0 3d be a5 eb b2 bc 5b 9b 0f be 39 a0 e6 3c
       -0.1854285 -0.02184088 -0.14024107 0.028152572
0002b0 91 f2 40 3e 1d 81 9d 3d 7e 1d d2 3d 26 0a 3b 3e
       0.18842532 0.07690642 0.102595314 0.1826559
0002c0 7b 03 87 bd b9 8f 4f be d9 48 d8 3d 75 e9 14 be
       -0.06592461 -0.2026967 0.105607696 -0.14542182
0002d0 ee 5b b2 b9 fe cd de 3c 42 2c 89 3c 01 0b 17 be
       -0.000340193 0.027197834 0.016744737 -0.14750291
0002e0 d8 c2 ec 3d f9 e3 76 bd 48 68 4d bd a2 33 8f 3d
       0.11560601 -0.060276005 -0.05014828 0.0699227
0002f0 88 41 7f bd ca 15 83 bd c7 5f e6 bc 5c 88 24 bd
       -0.062318355 -0.0640064 -0.028121842 -0.040169105
000300 29 51 d1 bd 7c e7 80 bd 05 9f 6a 3c 20 cf 25 be
       -0.10220558 -0.06294152 0.01432014 -0.16192293
000310 56 85 b8 bd 08 62 03 3d da 49 32 3d 9e fd 05 3e
       -0.09009807 0.03207591 0.04352746 0.13085029
000320 ab 04 d5 bd 1d 18 92 3d fb ee ed 3d 8a 7b e8 3d
       -0.10401281 0.071335055 0.116178475 0.11351688
000330 48 8b 3a be 6e 6c b5 bd ff 84 31 be 6a b5 12 be
       -0.18217194 -0.08858572 -0.1733589 -0.14327016
000340 56 16 59 3e 02 07 92 3d d8 42 4b 3e 42 97 ee 3b
       0.21199927 0.07130243 0.19849718 0.007281215
000350 04 ef 30 3c 2c 78 e8 bd c6 66 8e 3d 32 fd ae bd
       0.010799173 -0.11351046 0.06953196 -0.08544387
000360 d0 17 9d bd 71 e1 2f be 65 af 0e bd b7 84 15 3e
       -0.076705575 -0.17175843 -0.034835238 0.14601408
000370 77 eb 97 3d 9b 3f c7 bd 0f 5c 8f bc 34 53 c4 bc
       0.07417958 -0.09728929 -0.017499952 -0.023965456
000380 d0 e5 d9 bd 7f 22 21 3e 2e a8 43 3d 84 f9 87 3d
       -0.106395364 0.15735815 0.04776781 0.06639388
000390 58 51 a5 bd 3d 9e d4 bd ce 90 ef 3c d8 db 1b 3d
       -0.08072156 -0.10381744 0.029243853 0.038051456
0003a0 2e 8f b5 3c 28 f6 c4 bd 5d 63 1b 3e 67 96 2f bd
       0.022163 -0.09617263 0.15174623 -0.042868044
0003b0 48 b9 b8 bd bb 66 8f bd 4b 81 3a 3e 06 9f 3f 3c
       -0.090197146 -0.07002016 0.18213384 0.011695629
0003c0 94 c7 17 be 7d 40 3d be d4 95 2c be bc 96 89 be
       -0.14822227 -0.18481632 -0.1685403 -0.26872814
0003d0 6f 9c f7 bd ff ec de 3d 2a 9b 38 3e b3 47 3b 3e
       -0.12090384 0.10885047 0.1802794 0.1828907
0003e0 1f 28 ba bd 9c 86 ed 3d 57 b6 85 bd 0a 47 09 3e
       -0.09089684 0.1159794 -0.06528919 0.13406006
0003f0 17 a9 30 3e 2e 8b 27 3e eb ad 36 3e 91 06 17 3e
       0.17252003 0.16361687 0.17839782 0.14748599

down2.bias f4 [16]
000000 b7 73 61 be e8 66 f6 3d 79 b5 4a be 4a 10 c5 3d
       -0.22016798 0.120313466 -0.19795789 0.096222475
000010 78 b9 1f 3d ec b4 7a 3e f8 5b 0e be 00 13 19 3e
       0.038995236 0.24483079 -0.13902271 0.14948654
000020 05 bf 27 3e 9f 09 f2 3c 7e d9 09 3e c9 ef 20 be
       0.16381462 0.029545603 0.13461873 -0.15716471
000030 ef c3 89 3d b6 35 ea bd a3 e3 bb 3d 80 21 56 3d
       0.067268245 -0.11436026 0.09174278 0.05227804

conv31.weight f4 [16, 16, 3, 3]
000000 0f f0 27 3c 1f 09 54 bd ff 38 2b bd bf 4b 15 3d
       0.0102501055 -0.05176651 -0.041802403 0.03644919
000010 15 00 93 bd 52 c5 48 bc 3f 61 85 3c 42 6d b6 bc
       -0.0717775 -0.012254076 0.016281722 -0.022268895
000020 86 99 1d 3d 23 ce 23 3c be a4 89 3d 16 16 2b 3b
       0.03847649 0.009997877 0.06720875 0.0026105694
000030 05 6e 57 bd 49 5b 83 3d da 28 91 3c 57 02 fd bc
       -0.052595157 0.06413896 0.017719675 -0.030884905
000040 a3 87 68 bd d6 74 a4 3c 4b 56 96 bd 5f e3 12 3d
       -0.05676998 0.020075243 -0.07340678 0.03586137
000050 f9 0c 5c 3d 02 10 96 bd d6 0c 45 bd 0b 0a 5a bd
       0.05372331 -0.07327272 -0.048107944 -0.053232234
000060 46 7e 6e 3d 14 e0 87 3d 9b a5 85 3b fa c3 a2 3d
       0.058225892 0.066345364 0.0040785796 0.07947536
000070 eb a5 04 bd d9 1b ad bd fa 55 10 3d b1 34 fb 3c
       -0.032384794 -0.08452577 0.035238244 0.030664774
000080 bc f1 ab 3d af d0 8b 3c 89 04 9b 3d 22 b8 79 3d
       0.083957165 0.017067282 0.075692244 0.06096662
000090 1e 02 8e 3d 08 c4 b2 bd b2 1f 80 3d cc 7b 48 bd
       0.069339976 -0.08728796 0.062560454 -0.048946187
0000a0 62 58 a3 3d 65 99 4a bb b5 31 2c bd 51 4f 31 3d
       0.07975842 -0.0030914184 -0.04203959 0.043288533
0000b0 c8 ef a5 bb d5 57 be bd 95 66 00 bd 8a 16 21 3c
       -0.0050639845 -0.092940964 -0.03134783 0.009832034
0000c0 46 5e 0d 3d 58 6e 2f bd c5 4f 20 3d 48 fa f1 bc
       0.034513734 -0.04282984 0.039138574 -0.029538289
0000d0 20 3b eb bc 93 58 f6 bb 8a 70 75 bd ec 40 a7 bd
       -0.028714716 -0.007517883 -0.05992178 -0.0816668
0000e0 f2 14 1e bd 31 54 9f bd b8 6e 39 bd 4b 8a 57 bb
       -0.038594194 -0.0777973 -0.045271605 -0.0032888826
0000f0 9e 43 3a bd ce 06 03 bd 65 9e 80 bc 77 6f 7d bb
       -0.04547464 -0.03198891 -0.015700528 -0.0038671175
000100 4b bd 06 bd f8 69 82 3c b0 81 67 bc 92 12 de 3c
       -0.032895368 0.01591967 -0.014130041 0.027108464
000110 4f cf 03 3c 77 b1 5d bd 92 8f 0e bd 4f 12 5f bb
       0.008045032 -0.05412432 -0.034804888 -0.0034038012
000120 27 1c 41 bd fe f3 bf 3c d0 23 1b 3c f0 44 dd 3c
       -0.04714599 0.023431774 0.009468988 0.027010411
000130 61 92 bc 3c be a9 8b 3d 37 46 a0 bc fd 88 8f bd
       0.023019018 0.06819485 -0.019564731 -0.0700855
000140 4c 31 0d 3d 59 9c 56 bd f4 b9 3a 3b fe c3 4a bc
       0.03447084 -0.0523952 0.0028492184 -0.01237583
000150 4e 82 12 bd d9 ee d3 bc d3 b1 ab 3d 57 1e 0c 3d
       -0.0357688 -0.025870727 0.08383527 0.03420862
000160 5b 00 95 3c a2 fa a0 3d db 4c 8a bd ba 73 f2 3c
       0.018188646 0.078603044 -0.0675294 0.029596198
000170 60 dd 89 3d b8 93 77 3d 1f 09 61 bd 28 1c 1f 3d
       0.06731677 0.06044361 -0.05494034 0.03884521
000180 31 19 67 bd 51 d8 a7 bb 42 73 8e bc 4c 06 10 bd
       -0.05642051 -0.0051222225 -0.017388944 -0.035162255
000190 68 69 9c bd 1c 12 7b bd 18 84 9b 3d 91 93 65 3d
       -0.07637292 -0.061296567 0.07593554 0.056048933
0001a0 35 92 88 bd 7d 87 42 3c 6b 3b 05 3d f2 d6 58 bd
       -0.06668512 0.011873123 0.03252737 -0.052939363
0001b0 03 5e 9d bb 0e 54 47 3d d3 80 3b bc a8 1a ff bd
       -0.004802467 0.048664145 -0.011444288 -0.12456256
0001c0 2f e0 e3 bc 67 9b ff bb a3 29 01 bc cf d9 d9 bd
       -0.02781686 -0.007800508 -0.007883462 -0.10637247
0001d0 8e d4 00 be 52 0f 1f 3d 1b 91 98 3c 67 77 48 bc
       -0.12581083 0.03883297 0.01862388 -0.012235499
0001e0 d4 8a 26 bd 31 fe 1f bd a4 78 98 3d 1d d3 f7 bc
       -0.04065974 -0.039060775 0.074448854 -0.030252034
0001f0 72 55 58 3d ae a9 94 3d 50 fd 51 3b d2 17 e2 3c
       0.052815862 0.07258926 0.0032041855 0.027599249
000200 6f 5c 0e 3c d1 fc 3a 3d 84 e0 97 bd 71 6d 20 3d
       0.00868903 0.04565126 -0.0741587 0.03916687
000210 b9 dd 07 bd 74 9c e3 3c b7 4c 86 bb 17 1e f3 bc
       -0.033170436 0.027784564 -0.0040985006 -0.029677434
000220 73 68 b7 bc bd f9 e7 3c dc b7 5b bd a0 2e 78 bd
       -0.022388672 0.028317327 -0.05364214 -0.06059134
000230 fd 3e f0 bc 01 8b 88 bc bd b2 16 3d 39 cb 61 3d
       -0.02932691 -0.016667845 0.03679155 0.05512545
000240 40 cf 1a 3c 3b 58 cc 3d 6a d1 80 bc 82 80 df bc
       0.009448826 0.09977766 -0.015724856 -0.027282957
000250 5c 70 82 bc 0e 7e 1b bd 88 65 21 bd 2b a8 5b bd
       -0.015922718 -0.037962012 -0.03940347 -0.053627174
000260 63 0b 58 bd 41 74 8d 3c 50 1d 3c 3d c4 ac 8f 3d
       -0.052745234 0.017267348 0.045926392 0.07015374
000270 14 88 89 3d c8 2b 30 bc 56 6a 05 3c 60 ed 5b bd
       0.06715408 -0.010752626 0.008143028 -0.053693175
000280 ad a1 dc 3c e3 72 b3 bd 77 8c 07 3d 21 f7 a1 3b
       0.026932562 -0.08762147 0.033092942 0.00494279
000290 c8 23 8e 3c ce 54 c6 3c 9c 68 49 bd d6 2c 7d 3d
       0.017351046 0.02421036 -0.04917203 0.061810337
0002a0 a8 c5 08 3d b7 db 34 3d b6 14 5a ba 7b f0 94 3d
       0.033391625 0.04415485 -0.0008319126 0.072724305
0002b0 cf 45 a1 3d eb 4c 73 3d 76 4a aa 3d 10 e1 0b 3c
       0.07874643 0.059399527 0.083149835 0.008537546
0002c0 c8 cb 9d 3d 92 4c 14 3d c1 91 97 3d e2 d0 d6 3d
       0.07704884 0.036205836 0.07400847 0.1048906
0002d0 b7 a1 8c bb 49 2a 8a bd 4e 38 71 bd 57 3a 23 bb
       -0.004291739 -0.067463465 -0.058891587 -0.00249066
0002e0 c8 4e 8d bc f7 4b 8b bd 58 3e 26 3d 66 d6 cd 3c
       -0.01724948 -0.068015985 0.0405868 0.025126647
0002f0 c6 7a b7 bd c4 9e e1 bb 76 5d 69 bc 40 9d 17 bd
       -0.08958964 -0.0068853814 -0.014243474 -0.0370152
000300 dc fe 69 3c 12 70 02 bd cd a5 01 bd f0 e2 be bc
       0.014281955 -0.03184516 -0.03165226 -0.023301572
000310 3b 4e 0c bd b6 67 a6 3d 46 ba 1e 3d 97 2e bb 3d
       -0.034254294 0.0812525 0.038751863 0.09139746
000320 5b 2b 03 3d ed b8 d3 3c 28 37 37 3d 0f 47 c8 3c
       0.03202377 0.025845015 0.044730335 0.024447946
000330 80 66 6f bd 96 b5 20 bd 77 64 12 bc 76 8f 04 bc
       -0.05844736 -0.039235674 -0.0089350855 -0.008090844
000340 31 69 94 3c ba c0 a4 3c 69 1b 69 3d 48 00 5a 3b
       0.018116565 0.02011143 0.056910906 0.0033264328
000350 ee 31 29 bd 93 0e 92 bd cd 61 98 bd bb 00 83 bd
       -0.041307382 -0.07131686 -0.07440529 -0.06396624
000360 7a 53 9a 3c 71 16 08 3d 6e 12 82 3d 6a b6 08 bd
       0.018838633 0.033224527 0.063511714 -0.03337709
000370 d3 e9 94 bc 2b 7d 11 bd ae b5 f8 bb 98 21 81 3c
       -0.018177902 -0.03551976 -0.0075900173 0.015763089
000380 b5 63 70 bc b9 c6 40 bb 9b 7f b6 ba 4d c1 a7 3c
       -0.0146722095 -0.0029415323 -0.0013923527 0.020477915
000390 72 13 01 bd ff 43 7d bd 17 75 04 3c 93 a9 83 bc
       -0.031512685 -0.061832424 0.008084557 -0.01607207
0003a0 d5 b4 46 bd 1d e6 b0 3c d2 0c 08 bc 93 dc bd bc
       -0.0485123 0.021594102 -0.008303838 -0.023176467
0003b0 cf 8a 44 bd 84 1d ab bc ef 7e aa bd 6d 20 1f 3c
       -0.04798394 -0.020888098 -0.08324992 0.009712321
0003c0 e3 84 00 bc 35 c2 1b 3d a5 72 e3 bb e7 02 43 bb
       -0.007844183 0.038027007 -0.006941157 -0.0029756369
0003d0 3c 0a 9b 3c 66 20 67 3d 27 ea 48 bd 59 b8 36 3d
       0.018925779 0.056427382 -0.04905143 0.0446094
0003e0 bb db 68 3c 60 5f 83 bd f8 d4 ae 3c 94 77 5d bd
       0.014212544 -0.06414676 0.021341786 -0.054069117
0003f0 29 a0 ff bc 57 50 16 bd 0e 62 43 bd 1f 3f 6c 3d
       -0.0312043 -0.03669771 -0.047700934 0.057677384

conv31.bias f4 [16]
000000 a7 2f 98 3c be cd 3e bb bb 6a 1b 3c 60 f4 00 3e
       0.01857741 -0.002911433 0.009485896 0.12593222
000010 0c f6 e5 3d 42 82 d3 3d f6 51 2b 3e 93 18 ca 3d
       0.1122857 0.10327579 0.16730484 0.098679684
000020 b0 38 e3 3d c6 7d 4e bd 07 1d be 3d 81 03 3a 3d
       0.11094797 -0.050412916 0.0928288 0.045413498
000030 87 14 f3 3d a5 af 2e 3d 7d 9f 16 be 4c f7 46 bc
       0.1186915 0.042647976 -0.14709277 -0.012143921

up2.weight f4 [16, 8, 2, 2]
000000 c2 6c 0e be 87 22 f5 3c f8 22 9c bb 06 9c 8b bd
       -0.13908675 0.02992369 -0.004764911 -0.068168685
000010 ce 13 cd 3d 01 39 da 3d 68 4c 23 be c7 b3 1b be
       0.10013543 0.10655404 -0.15947115 -0.15205298
000020 86 c8 da 3d 8c 72 c2 bd 59 cb 30 3d 96 26 14 bd
       0.10682778 -0.09494504 0.043162677 -0.03616961
000030 16 ac a6 3c 39 76 df bd 9e ef 20 bc 1f 78 94 bd
       0.020345729 -0.10911221 -0.009822754 -0.07249474
000040 07 1d 97 bd 9c 80 9a bd 7a 02 3b 3d 67 23 fa 3d
       -0.073785834 -0.075440615 0.04565666 0.12213784
000050 f7 33 e5 3b 6e d9 a4 3a 13 77 1d 3e 1a 86 1c 3e
       0.00699472 0.0012577006 0.15377454 0.1528553
000060 b8 7b eb bc 3b cd 16 be 40 7d 23 3d 96 37 41 3d
       -0.028745517 -0.14726727 0.03991437 0.04717215
000070 84 40 18 be 6a 12 22 be c2 8f e8 3b e6 38 21 3e
       -0.14868361 -0.15827337 0.0070972154 0.15744361
000080 f9 7d 10 be 1d e7 c6 bd a1 44 8b bd 48 ea 30 be
       -0.14110555 -0.0971205 -0.06800199 -0.17276871
000090 83 d6 ea bd 90 76 1e 3e 8d 97 08 3e 5e c5 05 be
       -0.11466696 0.15474916 0.13339062 -0.13063571
0000a0 cc e0 1b 3c e1 0d 0b be 3f d0 ae 3d 6c 16 e1 bd
       0.009514045 -0.13579513 0.085358135 -0.10990605
0000b0 0d 23 cd bd fb c6 b3 bd 77 cc 94 3c 0d f5 e3 3d
       -0.10016451 -0.08778187 0.018163903 0.11130724
0000c0 00 c1 71 bd 0b ec 82 3d 05 e1 24 3e ca 55 cf 3c
       -0.05902195 0.06392678 0.16101463 0.025309462
0000d0 f2 a4 c1 3c 8b 10 5e 3d 4c 07 50 3c 57 ae f2 3d
       0.023638222 0.054214995 0.012697052 0.11849659
0000e0 38 81 bd 3d f7 8e 08 be 5b 4c 0a 3e 30 6b af 3d
       0.09253162 -0.13335787 0.1350569 0.08565366
0000f0 f8 d3 20 bd d8 51 e0 3d 9e 4a 13 bc b7 84 b8 3d
       -0.03926465 0.109531105 -0.008989958 0.09009688
000100 eb f9 18 be 02 36 25 3e 1a 4b 28 3e 80 f0 10 be
       -0.14939086 0.16133884 0.16434899 -0.14154243
000110 16 52 32 be 3d 13 6b bd 18 cf d8 bd 92 43 e5 3c
       -0.17414126 -0.057391394 -0.10586375 0.027986322
000120 48 9c a8 3d df bd 2e bc 06 54 04 3e 98 8a 85 3c
       0.08232933 -0.010665386 0.12922677 0.016301438
000130 bc eb 6e bd ff e2 2d be 40 e0 2f 3d 51 51 32 be
       -0.058330283 -0.16981123 0.04293847 -0.17413832
000140 d9 9e 9a 3a 42 3f de 3c 8f 41 d6 bd 75 21 5a 3d
       0.0011796608 0.027129773 -0.10461723 0.053254563
000150 84 b1 45 3d bf 5b eb 3d 22 7d ef 3d b4 eb 04 be
       0.048264995 0.114921086 0.11693789 -0.12980539
000160 51 d5 13 be d0 33 5e bd 1e c5 02 be 46 45 3a 3d
       -0.14436843 -0.05424863 -0.12770507 0.04547622
000170 56 f6 05 be 0f cd 0a be fe 9d 12 3d 51 c5 b4 3d
       -0.13082251 -0.13554786 0.035795204 0.088266976
000180 bf e2 cb 3d 49 4b 8a be 02 da 9d bd fb 42 6c 3e
       0.09955358 -0.27010563 -0.07707597 0.23072426
000190 a8 21 88 3e 32 ef 94 bc ab 78 27 3d a0 69 2e bd
       0.26588178 -0.018180463 0.040886562 -0.0425812
0001a0 84 62 14 3d 38 62 5c 3b e3 d0 44 3c de 88 cf bc
       0.036226764 0.003362788 0.012012693 -0.025333818
0001b0 e0 71 0c be f3 91 86 3e 38 36 07 b9 b7 4f d2 3d
       -0.13715315 0.26283225 -0.00012894801 0.10269111
0001c0 4c 3b 6a 3e bb 38 e4 3d f7 43 92 3e 6c cf 36 bd
       0.22874182 0.11143633 0.28567478 -0.044631407
0001d0 4e 84 0f be a1 cd 16 3c 24 3f e1 3d 9e 27 60 be
       -0.14015314 0.009204299 0.10998371 -0.21890113
0001e0 23 ec 5c 3e e0 b7 51 be 82 6e b6 bd 9b e1 0d 3e
       0.21574454 -0.20480299 -0.089077964 0.13855593
0001f0 66 d0 91 bd 8b 25 10 bd e9 15 d6 3d a6 c6 1e 3e
       -0.07119827 -0.035192054 0.10453398 0.15505466
000200 07 27 e3 3d 61 4d 86 bc 79 77 aa bd 08 9a c4 bd
       0.11091428 -0.016394319 -0.08323569 -0.09599692
000210 1b 75 d9 3d d6 d7 86 be 7d 31 fd bb 0e 7e dd 3d
       0.10618039 -0.26336545 -0.0077268467 0.10815059
000220 c0 d3 01 3e f1 f6 1c bd 1b d9 60 bc 13 26 20 be
       0.12678432 -0.03832144 -0.013723637 -0.15639524
000230 10 bc a5 3d dd 0b 13 be 84 5f 42 be d3 cd 14 be
       0.08092511 -0.14359994 -0.18981749 -0.1453164
000240 ac 0a 2d 3e 25 82 11 3e 5c 0c f9 3d 2b 7b 14 3e
       0.16898602 0.14209802 0.121605605 0.1450011
000250 5d 2e 05 be 2a e7 34 be be ed 09 be 3b 0c 01 3d
       -0.13005967 -0.17666307 -0.13469598 0.031505805
000260 20 73 c6 3d 7b ee 71 3d bc d0 aa bd 94 3d 4b 3d
       0.09689927 0.059065323 -0.08340594 0.049619272
000270 df 5f 5f bc 9d 38 80 3d 89 4d 4b 3d 11 bb b6 3d
       -0.013633697 0.06260798 0.04963449 0.08922399
000280 72 ba 14 bd 17 cf 10 3e 0a b7 7f bd dc 93 1e 3e
       -0.03631062 0.14141499 -0.06243042 0.15486091
000290 78 fc b6 3d 60 b8 74 bc 9a 9e c2 3c 3c 14 63 3d
       0.08934873 -0.014936537 0.023757268 0.05543922
0002a0 06 7f a4 3d 1f 70 25 3e 1c 60 55 3e a6 3a da bd
       0.0803204 0.16156052 0.20837444 -0.106557176
0002b0 4d 4a 38 be 27 6e 03 3e b1 a9 9c bc 79 d6 73 bd
       -0.17997093 0.12834989 -0.019123884 -0.05953071
0002c0 e0 55 c9 bd 84 ed 07 3e a5 96 42 3e a2 10 f1 3c
       -0.098308325 0.13274199 0.19002779 0.029426876
0002d0 cc 8a 8e bc 85 83 6e 3d c7 4b 37 be c3 01 d2 bd
       -0.017400168 0.058230896 -0.179 -0.10254242
0002e0 0f 7b f8 3c eb 9d e6 bd f4 20 1c 3e a5 56 83 3e
       0.030332116 -0.11260589 0.15246946 0.25652042
0002f0 00 9a e8 3d 25 7b 6f 3e b8 7c 83 bd fc 5c 12 3e
       0.11357498 0.2338682 -0.064202726 0.14293283
000300 81 bc 99 3d 4a 21 0d be 44 03 b8 3c 71 bd 4b 3e
       0.075066574 -0.1378223 0.022462495 0.19896485
000310 33 fc a8 3d a0 47 31 3d bf bb 8b 3c c9 a0 76 3e
       0.08251228 0.043281198 0.017057298 0.24084772
000320 28 82 b0 bd 53 7d 4c 3d 0c 91 22 3d f8 56 9a bd
       -0.08618575 0.049924206 0.03968911 -0.07536119
000330 2f 3a 2e be 7e 84 af 3d 92 21 de bd 17 95 49 be
       -0.17014383 0.08570193 -0.10846247 -0.1968578
000340 6c 3f 5c bd a5 dd 61 3e a2 bd 75 3a 1c 3e 80 3d
       -0.05377142 0.22057207 0.0009374266 0.062618464
000350 6f fe 74 bd e7 2a c7 3d 47 bf e5 3d e0 c5 50 be
       -0.05981296 0.0972498 0.11218124 -0.20387983
000360 a4 78 4b 3e 81 f6 61 be a5 3b d5 3c 92 4c 48 3e
       0.1987024 -0.2206669 0.026029417 0.1956046
000370 bb 2f 40 3e 33 6c a2 3c 7d 54 e0 bd d9 0e 05 3e
       0.18768208 0.019826984 -0.10953615 0.12993945
000380 4f 19 03 3e f1 43 5b be 60 6d 38 be e1 cb 3c be
       0.12802623 -0.21412636 -0.18010473 -0.18437149
000390 0c 97 77 3e 67 eb 3b 3e 45 5b 6f 3e d0 9f dd 3d
       0.24178714 0.18351518 0.2337466 0.108214974
0003a0 bc f3 95 be 89 0c 18 be 60 2e 38 be 56 29 2c be
       -0.29287517 -0.14848532 -0.1798644 -0.16812643
0003b0 e6 78 4b 3e df cd 9d 3c be 74 26 3e b1 c6 83 bc
       0.19870338 0.019263206 0.16255471 -0.016085954
0003c0 ee f1 d1 bc f6 d6 2b bd 4f 30 ab 3d 08 ae cd bc
       -0.025628056 -0.04195305 0.083588235 -0.025107399
0003d0 86 1b 36 bd 93 8e e4 3d 66 cb 09 3e 2b 21 94 bc
       -0.044459842 0.111600064 0.13456497 -0.018082222
0003e0 12 2a 87 bd 65 b7 32 be 41 35 02 3c 82 8f 33 be
       -0.06599821 -0.17452772 0.007947267 -0.17535213
0003f0 b5 a3 c7 3c 6a 83 90 be df 0c 6f be 6e c0 11 bd
       0.024370054 -0.2822526 -0.23344754 -0.035583906

up2.bias f4 [8]
000000 04 eb 0e ba bd ad 00 3e cd 7a a5 bc d6 9c 3a 3e
       -0.000545189 0.12566276 -0.020200158 0.1822389
000010 d1 18 cd 3d ff 59 ba 3d 4b 74 01 3e 44 48 e1 bd
       0.10014499 0.09099197 0.12642018 -0.11000112

conv22.weight f4 [8, 8, 3, 3]
000000 cc 72 82 bd 44 2d 1f 3d 2a e1 ac 3d 50 35 b9 bd
       -0.06369552 0.038861528 0.08441384 -0.09043372
000010 44 4a e7 3a 2b 31 a6 bd a9 8d 20 3e c3 22 c0 3d
       0.0017646034 -0.08114847 0.15679039 0.0938163
000020 47 bb a8 3d b3 4e e3 3d 57 b5 f3 bc 26 2e 12 3e
       0.08238845 0.11098995 -0.029749556 0.14275417
000030 97 d4 08 be 6b 77 42 3d 7c 4d 9b ba cf 8b 81 bd
       -0.13362347 0.047477167 -0.0011848654 -0.063254945
000040 cb 51 d4 bd 66 ca d3 3d cf b7 9c 3d 77 d8 0b be
       -0.10367163 0.10341339 0.07652246 -0.13656794
000050 87 1c 82 3d 2d cd b1 3d a0 af 59 bc b2 f0 81 3d
       0.063530974 0.08681712 -0.013286501 0.06344737
000060 39 25 39 bc ff 14 61 bc 15 05 15 3c a2 fd 28 be
       -0.0113003785 -0.013737916 0.00909545 -0.16503003
000070 7c 26 17 3d d8 11 1a 3e 6b 8f 22 3e af 3e 7a 3d
       0.036901936 0.1504587 0.15875022 0.061094936
000080 80 7e e7 3d 2d 63 22 be 7a dc 00 3e ff 53 6b 3d
       0.11303425 -0.15858145 0.12584105 0.05745315
000090 12 4b 34 bd da 79 e2 bb 9b 73 b4 3d 34 76 fb 3d
       -0.044016905 -0.0069114985 0.088111125 0.12278405
0000a0 8b 26 b9 bb 1a 16 73 bc ed de 2a 3e 5f af ef 3d
       -0.0056503466 -0.014836812 0.16686602 0.11703371
0000b0 80 d2 a7 3d ea f9 30 be 1f 69 9d 3d eb 0b f2 bd
       0.081944466 -0.17282835 0.07686066 -0.118186794
0000c0 f3 62 3f 3d 18 62 88 bd f3 68 86 bc 26 49 14 3d
       0.046725225 -0.06659335 -0.016407466 0.036202572
0000d0 21 b9 11 bd a6 bf 97 bd 4d 6d 25 3e d3 ce fd bd
       -0.035576943 -0.07409601 0.16154976 -0.12392964
0000e0 86 1a ed 3c a9 3d 99 ba dd 81 89 3b b8 6f 34 3d
       0.028943311 -0.001169135 0.004196389 0.044051856
0000f0 63 48 d8 3d 21 9e d6 bd 9b 25 08 3e 93 50 83 3c
       0.10560682 -0.104793794 0.13295595 0.016029632
000100 8e a7 bf 3d 0a 17 8d bd 31 07 25 3e 24 5b db 3d
       0.093581304 -0.0688916 0.16116025 0.10710743
000110 c8 b4 1e bc f8 a0 0a 3e b5 d4 6e 3d 6a 7d 9f bb
       -0.009686656 0.13537967 0.058308322 -0.0048672454
000120 63 e6 55 3c a6 c2 39 3d bb 92 88 bd 28 33 f1 3d
       0.013055417 0.045351647 -0.066686116 0.117773354
000130 c4 d7 6b bd 88 fa cf bd 9c 6f 00 be dd 7a 50 3d
       -0.057578817 -0.10155207 -0.12542576 0.05089842
000140 b2 17 ea bd 37 79 04 3d 70 0a c5 bd 38 d6 bc 3a
       -0.11430301 0.032342162 -0.096211314 0.0014407104
000150 9f af 6c bd e9 e2 3c 3d 4a 30 94 3d 10 e0 fc bb
       -0.057784673 0.046114836 0.07235773 -0.00771714
000160 4b 0e 1c 3d f6 0f 10 be 7f 04 ab bd 51 8a 4d bd
       0.03809957 -0.14068589 -0.08350467 -0.050180737
000170 b9 2a 87 3d 1a a8 d6 bd fc ce c9 3c 98 57 7d 3d
       0.065999456 -0.104812816 0.02463483 0.061851114
000180 98 d8 f8 3b 01 52 b0 bd 41 6f ea bd ec 0d de 3c
       0.0075941794 -0.08609391 -0.11447001 0.027106248
000190 9d b8 a3 3d ff 1d b4 3b a5 9f df bb 86 f3 0d 3e
       0.079941966 0.00549674 -0.006824451 0.13862428
0001a0 8f 9c 99 3d c9 2b 09 3e 87 83 72 bd ca 39 f1 3d
       0.07500564 0.13395609 -0.059207465 0.117786005
0001b0 62 4d a5 3d 89 b7 98 bd c4 cc 4c 3c f0 46 83 bd
       0.080714 -0.074568816 0.012499992 -0.06410015
0001c0 b9 e3 12 3d 4b 3a 69 3c 4f f7 b8 bc 14 6d 09 be
       0.035861704 0.0142350895 -0.022578863 -0.13420516
0001d0 f1 06 3f 3d da 7e 97 bc b1 15 5c bd 18 1a 03 bd
       0.04663748 -0.018493105 -0.053731624 -0.032007307
0001e0 c3 7b 05 be 7d 00 44 3d 8c 2a 8b bd 7e 49 9f bd
       -0.13035493 0.04785203 -0.067952245 -0.077776894
0001f0 7f 36 78 bc 7c 9c 0f be d2 01 c9 bd d2 6f b5 bb
       -0.015149712 -0.14024538 -0.098148 -0.0055370117
000200 86 87 c4 bd 25 c4 d4 3d 3a ee 3d be fe e7 97 bd
       -0.095961615 0.10388974 -0.18547907 -0.07417296
000210 c3 a2 17 be b7 b1 f1 3d 92 c2 2e bd 39 2d 65 bd
       -0.14808182 0.118014745 -0.042666025 -0.05595133
000220 2b a1 15 3d 37 9a 38 bd af 3b 15 3e d6 e1 09 3d
       0.036530655 -0.045068946 0.14573549 0.03366264
000230 62 6c de bd fb 95 10 3e ff 23 ac bc 37 f9 b9 bd
       -0.10860516 0.14119713 -0.021013258 -0.09080737
000240 55 c1 76 bb 3e bf bf 3d ae 79 c5 bc 74 46 0d be
       -0.0037651856 0.093626484 -0.024105873 -0.13796407
000250 d5 ec e3 bc fc ed f7 3d a5 4f f9 bd bb fe 61 bd
       -0.027822891 0.12105939 -0.12173394 -0.05517457
000260 5e 87 f1 bd d1 b4 5c bd cd 55 aa bc 12 97 6f bb
       -0.11793397 -0.053883377 -0.020792866 -0.003655855
000270 fa 5b 5b 3d 2b 64 09 3e 54 50 f9 3d e2 bd 47 bd
       0.053554513 0.13417117 0.121735245 -0.04876507
000280 26 9b 03 3e fd a1 ba 3b a5 0b 2a be a0 be 11 3d
       0.12852153 0.00569558 -0.16606005 0.035582185
000290 f3 39 26 be 8d 12 76 3d ed 1a 8c bd 6c a3 11 bd
       -0.16233043 0.060076285 -0.06841073 -0.035556242
0002a0 47 74 2d bd 92 78 a6 3d 2c b8 28 bd fa 81 7e bd
       -0.04234722 0.08128466 -0.041191265 -0.062135674
0002b0 8f 63 84 3c 0b 4c cb 3d 8e 5f ea bc 01 5d 62 bd
       0.016160754 0.099266134 -0.028610017 -0.055264477
0002c0 f2 56 64 bd c9 0f 5e 3c 24 5d d2 bd 85 a1 73 3d
       -0.05574698 0.013553568 -0.102716714 0.05948021
0002d0 57 90 f7 bc a8 0b 7a bd 11 85 47 3d 2a cc 6a bc
       -0.030220194 -0.061046273 0.048710886 -0.014330903
0002e0 85 f1 4a bd 10 d1 36 39 e6 2e 02 bd c4 9e 4a bc
       -0.049546737 0.00017434754 -0.031783007 -0.012366954
0002f0 c6 37 8d bd bd 4a 57 3b 2a 8a 1c be 4e 6f 75 3c
       -0.068954036 0.0032850944 -0.1528708 0.01498015
000300 8b 1e 19 3d 76 8a 0b be 6b 36 fc bd 1d 3b ad bd
       0.037382644 -0.13627037 -0.12315067 -0.084585406
000310 bd 6b 94 bd ce a0 0a 3d b5 76 f0 bd 0d f0 93 3d
       -0.07247112 0.03384476 -0.117413916 0.072235204
000320 d1 83 ba bc 73 ad d0 bd 5c 63 2e bc 0e 81 13 3b
       -0.022767933 -0.10189333 -0.010643806 0.0022507343
000330 93 c1 ec bd e3 02 cb 3d e8 b6 e1 bd f1 1c 0c be
       -0.11560359 0.0991266 -0.11021215 -0.13682915
000340 58 91 ad 3d 94 bf 97 bd 09 fe 46 bd 62 c5 17 3d
       0.08474988 -0.074095875 -0.04858211 0.037053473
000350 5d aa 20 3e 4c cd fd 3d 83 a1 17 3d 4a 62 b8 3d
       0.15689988 0.12392673 0.037019264 0.09003122
000360 96 81 b5 bd be 4a 82 bd 5d e2 7f bc c2 90 ac 3c
       -0.08862607 -0.06361912 -0.015617934 0.02106512
000370 dc 45 9e bd 51 b6 bc bc 32 52 a6 3d e0 69 8c 3d
       -0.07728168 -0.023036154 0.08121146 0.068561316
000380 91 07 a6 bc 93 d2 7e 3d 25 f4 a3 bd 64 c5 bb 3c
       -0.02026728 0.062212538 -0.08005551 0.022921272
000390 af 78 0d 3d da be 61 bc 4b 08 9f 3d 94 9f 20 be
       0.03453892 -0.013778413 0.07765254 -0.15685874
0003a0 c0 c4 d0 3d ff ed f9 bd 0e dd ae bd a2 7c 6c 3c
       0.10193777 -0.12203597 -0.085382566 0.014434012
0003b0 39 7d 9a bd 06 d0 97 bd f1 1b a5 bd 73 86 2a 3e
       -0.075434156 -0.07412724 -0.0806197 0.16652851
0003c0 bf db b7 3d a2 3d 46 bd 4d 6b 5a 3c ce fd a2 bd
       0.0897746 -0.04839862 0.013331247 -0.07958566
0003d0 e6 61 12 be 6a 91 c1 bd d8 40 2f be b4 d2 af 3d
       -0.14295158 -0.09451564 -0.1711458 0.0858511
0003e0 37 c3 9f bd 92 97 b2 bc ef 93 0f be ad 46 ea 3c
       -0.07800906 -0.02180079 -0.14021276 0.028598154
0003f0 d3 e3 82 bc cb f3 77 bd 3c 9d be 3d c0 d0 d4 3d
       -0.015977776 -0.060535233 0.09307334 0.103913784

conv22.bias f4 [8]
000000 d9 dd 03 3e aa db fb 3c b4 93 af 3c f1 b3 4f 3c
       0.12877597 0.030744392 0.021432735 0.012677179
000010 96 4c 85 3d 0a 45 be bc 41 52 41 3c d7 11 77 3d
       0.06508748 -0.02322628 0.011799396 0.060319748

up1.weight f4 [8, 4, 2, 2]
000000 37 10 fb 3d 27 09 3d 3e c8 17 3b be 78 f6 0a be
       0.12258952 0.18460523 -0.1827079 -0.13570583
000010 0c 22 50 be 87 fc 37 3e 0b 5b 68 3e f7 6f 3b be
       -0.20325488 0.17967425 0.2269098 -0.1830443
000020 27 59 e7 3d 55 40 d5 3d 95 0e f9 bd f8 9d e6 3d
       0.11296301 0.10412661 -0.121609844 0.11260599
000030 fb af 88 3e a2 fb a4 3e bc 90 3a 3e b1 26 7f bc
       0.26696762 0.3222323 0.18219274 -0.01557319
000040 23 af 6a bd ad 9d c0 bc aa fd 69 bd fa d1 e2 3c
       -0.05729593 -0.023512686 -0.05712668 0.027688015
000050 3e 23 83 3e bf fb 0c be 7e b7 65 3c a4 74 9e bd
       0.25612825 -0.13767909 0.014020799 -0.07737091
000060 fb 43 e2 3d cd 16 ac 3e d8 44 ca 3d 18 6e ab bd
       0.110481225 0.33611146 0.09876412 -0.08370608
000070 21 b0 8e 3c d9 3b ab be 89 19 8a be 41 67 d8 3d
       0.01741797 -0.33444098 -0.26972607 0.10566569
000080 d0 ae 17 be e1 df 24 3e 98 8a fb bd 08 d9 12 3e
       -0.1481278 0.16101028 -0.12282294 0.14340603
000090 f2 2e 32 3e 14 c5 97 3d 90 0e 91 bc 97 41 83 3e
       0.1740072 0.074106365 -0.01770714 0.2563598
0000a0 25 bf 74 bd 11 56 50 3e 15 8c 61 be 62 b9 20 3e
       -0.059752602 0.20345332 -0.22026093 0.15695718
0000b0 2f a9 5d bd f7 ed 7c bd 4c 6c c7 3d d8 30 5a b9
       -0.054116424 -0.06175038 0.09737453 -0.00020808296
0000c0 0a da 76 3e 1f a8 c2 bd 1e ee 1c be f2 1b 90 3e
       0.24106613 -0.09504723 -0.1532521 0.2814632
0000d0 2e f5 1d be 97 34 3c 3e 6c 21 76 3e 80 cb 4b 3e
       -0.1542556 0.18379436 0.24036187 0.19901848
0000e0 a8 6b 87 bd f3 d0 9a 3d 42 f1 47 be c2 90 26 be
       -0.06612331 0.07559385 -0.19525626 -0.16266158
0000f0 92 1b 2c 3c 63 bb 61 be f9 25 14 3e d1 da 18 3e
       0.01050462 -0.22044139 0.1446761 0.14927222
000100 99 27 7a bd 3b e9 48 bc ab a4 82 3e f0 8b 7a bc
       -0.06107292 -0.012262638 0.25516257 -0.015292153
000110 12 04 52 3e 16 3f 84 3e f4 d5 87 bd 3c ba 63 be
       0.20509365 0.2582938 -0.06632605 -0.22239012
000120 62 89 79 3e 76 07 f5 bd 35 af 63 3e ff aa 09 be
       0.24368814 -0.11964314 0.22234805 -0.13444136
000130 df d8 ab 3d b8 5b 1a 3e 40 43 35 ba bc a9 60 3e
       0.08390974 0.1507405 -0.0006914623 0.21939749
000140 3f 23 50 be a5 b6 8f bd 9e 7c c0 bc f6 63 51 3e
       -0.20325945 -0.070172586 -0.023496922 0.20448288
000150 e6 93 fe 3d 10 e8 31 3e 0b 69 ee 3d bb 08 70 3e
       0.12430553 0.17373681 0.11641129 0.2344083
000160 b6 40 57 bd 0d 64 94 bd 93 b7 e5 bc 12 ad d8 3d
       -0.052551948 -0.07245646 -0.028041637 0.105798855
000170 73 85 82 bd c8 5e c9 3d 9e c2 92 3d a4 39 af 3d
       -0.0637311 0.09832531 0.071660265 0.08555916
000180 be 63 79 3e 6b d4 a4 3d 26 be 32 3e 64 4f 8c bd
       0.24354455 0.08048328 0.17455348 -0.0685108
000190 67 97 6a be 66 05 25 3e 7f 35 d0 3d 03 8c 5e 3e
       -0.22909318 0.1611534 0.101664536 0.21733098
0001a0 62 a3 b8 3d ae aa 08 bb 2d 25 4a be 73 a0 6e be
       0.09015538 -0.0020853686 -0.19740744 -0.23303394
0001b0 c9 72 7d 3d 9f 65 5d 3e f3 c2 a0 3c 8b 67 4c bd
       0.061877046 0.21620797 0.019624209 -0.049903434
0001c0 77 7b 0a 3d d4 bd 5f be 98 ef af b9 7b 48 ad be
       0.03380915 -0.21849757 -0.00033557112 -0.3384436
0001d0 78 7f a8 be 7a 95 4e be eb ac f9 bd 40 6a 59 bc
       -0.3290975 -0.20174208 -0.121911846 -0.013269961
0001e0 d2 37 85 3d 56 87 8b be 1e af 20 be d0 65 2b 3d
       0.065047875 -0.2725169 -0.15691802 0.041845143
0001f0 57 3e d9 bd 5c bb e0 3c 3d a1 01 3e 1d 9e 4d be
       -0.106075935 0.02743309 0.12659164 -0.20079847

up1.bias f4 [4]
000000 89 f7 dc 3d 08 44 3c 3e 61 a2 7d 3d 6d b3 52 bd
       0.10789401 0.18385327 0.061922435 -0.051440645

conv13.weight f4 [2, 4, 3, 3]
000000 49 76 e6 bd 18 5c ec bd 39 d8 49 bd 73 69 c0 3c
       -0.1125303 -0.11541003 -0.04927847 0.023487782
000010 3f 5b 66 3d 42 c1 08 bd 01 a1 07 3e ea ba a1 bd
       0.056239363 -0.03338743 0.13245012 -0.07896979
000020 4a 43 d0 3c af 94 9f bd 78 f8 4a 3d 5b b1 12 3e
       0.02542271 -0.07792031 0.049553365 0.14325468
000030 57 eb 89 3d 39 92 88 3c 96 f8 7b bd ea 54 02 be
       0.06734341 0.016671287 -0.061516367 -0.12727705
000040 55 1d dc bd 55 7d 12 be 42 03 00 3e 26 82 87 bd
       -0.10747782 -0.14305623 0.12501243 -0.06616621
000050 5a 82 c4 bc 14 73 12 be 6f 6f 32 bd 1e 1d 11 3e
       -0.023987938 -0.14301711 -0.043563303 0.14171264
000060 e8 66 1f 3d e7 89 c9 bc b6 aa ad 3d 66 be 1a 3e
       0.0389165 -0.02460189 0.08479826 0.15111694
000070 58 b9 1f 3e 52 11 ed bd dc 97 c2 3c 7a b6 ff bd
       0.15598047 -0.11575569 0.023754053 -0.124859765
000080 3b 12 e2 bd a3 1e 09 3e d2 a3 26 be 49 47 93 bd
       -0.110386334 0.13390593 -0.1627343 -0.07191331
000090 73 fb f9 3d 24 19 22 3e 7b ee 32 be b4 45 86 bd
       0.12206163 0.15829903 -0.17473786 -0.065562636
0000a0 d0 40 9b bc d6 73 37 3e d1 5f 3a 3e 18 27 4d 3e
       -0.018951803 0.17915282 0.18200614 0.20034444
0000b0 76 17 3c 3e a8 33 a0 bc 8b 96 0f 3e f3 42 35 3c
       0.18368325 -0.019555882 0.14022271 0.011063325
0000c0 c1 aa 1e 3d 6a 03 cf bc 51 32 b3 3d 5d fe cc 3d
       0.038737062 -0.025270183 0.087498315 0.100094534
0000d0 68 6a 82 3b 78 65 2a 3e 65 05 ce bc 1d 27 6b 3d
       0.00397997 0.1664027 -0.025149057 0.05741035
0000e0 66 43 29 3e 90 41 e4 3d a1 dd 39 bd fd ad 7c bd
       0.16529617 0.111453176 -0.045377377 -0.061689366
0000f0 a4 38 5b 3d 65 e4 82 3c d0 a2 dc 3c e9 3c 10 3e
       0.053520814 0.015978048 0.026933104 0.14085735
000100 0a f0 ac 3d 09 89 a2 bd ff 22 cc bd 1f 6f 37 3e
       0.08444221 -0.07936294 -0.099676125 0.17913483
000110 b2 28 84 3c 2f bf 15 bd a5 ca b1 bd 8f 28 40 3e
       0.016132686 -0.03655928 -0.086812295 0.18765472

conv13.bias f4 [2]
000000 62 d9 0d 3d c2 c4 00 be
       0.03463114 -0.12575057

conv14.weight f4 [2, 2, 3, 3]
000000 ca 67 63 be e5 73 31 3e bc e6 80 3d 02 7a 7a bc
       -0.22207561 0.17329367 0.06294009 -0.015287878
000010 5c df 68 be 5f fd e4 3d c5 67 2f be 38 85 cc 3d
       -0.22741455 0.11181139 -0.17129429 0.09986347
000020 de b4 83 be c4 00 64 be 9b 7c 82 be 67 4c 36 3e
       -0.25723928 -0.22265917 -0.2548569 0.17802583
000030 3b 2b 88 3e 20 a7 45 be 66 3f 2e 3e 49 d2 97 bd
       0.26595482 -0.19302034 0.17016372 -0.074131556
000040 d4 2b 31 be 69 5d 11 3e ed d1 0c 3e 13 49 ff 3d
       -0.17301875 0.1419579 0.13751955 0.1246511
000050 86 80 e6 3c 32 e0 64 3e 12 1b 59 be f3 aa bb 3d
       0.028137457 0.22351149 -0.21201733 0.09163465
000060 bd fc ad bd 3f e2 af ba 80 68 1c 3e e6 04 17 be
       -0.084954716 -0.0013418867 0.15274239 -0.14747962
000070 b7 63 fb 3d 43 2d eb bc a4 b3 32 3e 22 fa 69 3c
       0.122748785 -0.028708106 0.1745134 0.014280828
000080 ed 8c 0b 3e 6a 40 80 3e 32 da 7b bd 25 28 57 be
       0.13627978 0.25049144 -0.061487384 -0.21011408

conv14.bias f4 [2]
000000 d5 8e a7 3e 69 31 ab bd
       0.3272616 -0.083590336
