output/2020_e/train/model/stn_10.pt (torch_old, 658934 bytes, 14 tensors)

conv1.weight f4 [8, 2, 5, 5]
0	0x3dd9bcb0	0.106316924
1	0x3dce226e	0.10065161
2	0xbdb62180	-0.08893108
3	0xbe07723d	-0.13227172
4	0x3dca9b26	0.098928735
5	0xbe0b0480	-0.13575935
6	0x3da3572a	0.079756096
7	0xbe189fd3	-0.14904718
8	0xbdab8c7d	-0.083764054
9	0xbd9256d5	-0.07145468
10	0x3df9f383	0.12204649
11	0xbd102d50	-0.035199463
12	0x3de258cd	0.11052094
13	0x3cf08855	0.029361883
14	0x3e001369	0.12507404
15	0x3da8e9bd	0.08247707
16	0x3dbd7493	0.092507504
17	0x3de45191	0.1114837
18	0xbd5c19c1	-0.0537355
19	0xbd50f6b2	-0.051016517
20	0x3d0bf9cf	0.034173783
21	0x3de6aa45	0.11262945
22	0xbd8399d9	-0.064258285
23	0xbdfcd35b	-0.12345
24	0xbdfb97ca	-0.12284811
25	0xbd9ff573	-0.078104876
26	0x3c1e8ded	0.009677392
27	0xbcef510b	-0.029213449
28	0xbd4e42d4	-0.0503567
29	0xbda3cb0f	-0.07997715
30	0x3cc58e85	0.02411581
31	0xbe04473e	-0.12917802
32	0x3e017f92	0.1264632
33	0xbd1315dd	-0.035909522
34	0x3c4f0df3	0.012637603
35	0x3d0b35fb	0.033987027
36	0xbd8a4a22	-0.06752421
37	0x3dcb55d6	0.09928481
38	0xbc735e5d	-0.014854041
39	0xbb0779aa	-0.0020671883
40	0xbe167c04	-0.14695746
41	0x3bab8066	0.005233812
42	0x3d1543f7	0.03644177
43	0x3bcc498a	0.0062343525
44	0xbce050d6	-0.027382296
45	0x3dc25744	0.09489301
46	0x3dcc7476	0.09983151
47	0x3daf063d	0.08546112
48	0xbd1a7a5b	-0.037714344
49	0x3c3cc8d8	0.011522494
50	0xbddb3cbf	-0.10704946
51	0xbde98293	-0.11401858
52	0xbd054a6b	-0.032541674
53	0x3c0bf3f5	0.008542051
54	0xbdb62c55	-0.088951744
55	0xbe014b3e	-0.12626359
56	0x3d6681f2	0.05627627
57	0x3d340393	0.04394872
58	0xbdce4127	-0.100710206
59	0x3db32ca6	0.087487504
60	0xbde93420	-0.11386895
61	0x3dcae223	0.099064134
62	0x3d8a16ed	0.06742654
63	0xbd617db6	-0.055051528
64	0x3e031403	0.12800603
65	0xbdb36777	-0.08759969
66	0xbd947a6e	-0.07249914
67	0x3dd72222	0.10504557
68	0xbd3329a5	-0.043740887
69	0xbd82bad2	-0.063832894
70	0x3c5c640f	0.01345159
71	0xbd0261a2	-0.03183139
72	0x3da6a6ca	0.08137281
73	0x3ddd58fb	0.10807987
74	0x3d65ad15	0.056073267
75	0x3ccc3070	0.02492544
76	0x3cf74ed6	0.03018896
77	0xbac592bf	-0.0015073641
78	0x3c3e5ec5	0.0116192745
79	0xbb008cba	-0.001961513
80	0x3db96a05	0.09053425
81	0x3d967bf0	0.07347858
82	0xbca0506b	-0.019569596
83	0x3d45a653	0.048254322
84	0x3b462cb8	0.0030239057
85	0x3d33c1e9	0.0438861
86	0x3de201c6	0.110354945
87	0xbdd05610	-0.10172665
88	0x3c73a82b	0.014871637
89	0xbd0c7c16	-0.034298025
90	0xbe13f6a5	-0.14449556
91	0xbe12c049	-0.14331163
92	0xbcc5ceb9	-0.024146425
93	0x3dc445d4	0.09583631
94	0xbdc920de	-0.09820722
95	0x3d2292ab	0.039690655
96	0x3d9a9e69	0.075497456
97	0xbddeedb0	-0.10885179
98	0x3d624c29	0.055248413
99	0x3cb0ea55	0.021596113
100	0xbe0d2414	-0.13783294
101	0xbc411b77	-0.011786333
102	0xbe115351	-0.14191939
103	0x3dea1096	0.11428945
104	0x3d689add	0.056788314
105	0x3d3989f6	0.045297585
106	0x3dcc0e1c	0.09963629
107	0x3dcaff88	0.0991202
108	0x3e06558d	0.13118573
109	0x3d4882a9	0.048952732
110	0xbde2ee06	-0.110805556
111	0x3dfae7bd	0.12251232
112	0x3cf7ee52	0.030265007
113	0xbd84deae	-0.06487785
114	0xbd7d9b4f	-0.061915692
115	0x3dfd4055	0.12365786
116	0x3cb98ba3	0.022649592
117	0x3dc029d7	0.0938298
118	0x3af68dc4	0.001881056
119	0x3df87575	0.12131778
120	0xbde5d858	-0.11222905
121	0x3ccc52f9	0.024941908
122	0x3ccb835c	0.02484291
123	0xbc31580a	-0.010824213
124	0x3dee531b	0.11636945
125	0x3c58a196	0.013222119
126	0xbbf81fa1	-0.00757213
127	0x3da67d86	0.081294104
128	0xbcd84faf	-0.026405184
129	0xbcc6a99c	-0.024250798
130	0xbe06ee67	-0.13176881
131	0xbc84d7e1	-0.01621622
132	0xbda67d11	-0.08129323
133	0x3d888223	0.066654466
134	0x3ddd02f2	0.107915774
135	0xbe168c71	-0.14702012
136	0xbdc719e1	-0.09721733
137	0x3df76263	0.12079313
138	0xbd9ac58f	-0.075572126
139	0x3de2ccae	0.11074196
140	0x3dfe440b	0.12415322
141	0xbd4fb0f2	-0.050705858
142	0xbe04e6fe	-0.12978742
143	0x3d6351c0	0.055497885
144	0x3d49bf96	0.049254976
145	0x3ddcbaf9	0.1077785
146	0x3bac397d	0.0052558766
147	0x3d7cdadc	0.061732158
148	0xbe0bb6f9	-0.13644017
149	0x3b90ef71	0.004423075
150	0x3cec9d55	0.028883616
151	0x3dac8a95	0.0842487
152	0xbda404ed	-0.08008752
153	0xbcae93f4	-0.021310784
154	0xbdb6197e	-0.08891581
155	0xbdcc17c6	-0.09965472
156	0x3d5ea4ea	0.054356493
157	0x3c8b82e7	0.017030193
158	0x3d534bdf	0.05158603
159	0xbc039fec	-0.008033734
160	0xbc03cefe	-0.008044956
161	0xbc24f29a	-0.010067606
162	0x3d92d58d	0.07169638
163	0xbdd23333	-0.10263672
164	0x3cd0eeb7	0.025504453
165	0x3d95331d	0.0728514
166	0x3d9e1ced	0.07720361
167	0xbd950337	-0.07276004
168	0x3dd61b09	0.10454375
169	0xbdcb97ab	-0.09941038
170	0x3d8d0a4b	0.06886729
171	0x3de2abf6	0.11067955
172	0xba16046d	-0.00057227054
173	0x3d1c4c58	0.038158745
174	0xbe0ea0b6	-0.13928494
175	0xbd837035	-0.06417886
176	0xbd82bfe4	-0.063842565
177	0xbe0f5baf	-0.13999818
178	0xbd1cc946	-0.038277887
179	0x3db928c8	0.090409815
180	0xbcb30c80	-0.021856546
181	0x3e068365	0.1313606
182	0xbe0afe67	-0.1357361
183	0x3d444e8d	0.047926474
184	0x3de9254c	0.11384067
185	0x3e041b10	0.12900949
186	0xbd81c38b	-0.06336125
187	0xbe0b8279	-0.1362399
188	0xbd77fd54	-0.060544327
189	0x3dc52aba	0.0962729
190	0x3b7ceef6	0.003859458
191	0x3e01a2d4	0.1265977
192	0xbde521b5	-0.1118807
193	0xbdc71756	-0.09721248
194	0x3d81f038	0.06344646
195	0x3d238e7c	0.039930806
196	0xbdcdcb25	-0.10048512
197	0x3dfbc3e7	0.12293225
198	0xbd81720a	-0.06320579
199	0xbe013b85	-0.12620361
200	0x3d36953d	0.04457592
201	0xbd964c39	-0.07338757
202	0xbd7a14e9	-0.061055098
203	0xbd96210c	-0.07330522
204	0x3d323fc8	0.043517858
205	0x3d91b7bc	0.07115123
206	0x3dccf53d	0.10007713
207	0xbd982094	-0.07428089
208	0xbcde41aa	-0.02713092
209	0x3e0cbb72	0.1374338
210	0xbd8b871f	-0.06812882
211	0xbd3fdfd5	-0.046844322
212	0xbcb72fb6	-0.022361618
213	0xbdf4c514	-0.11951652
214	0xbdca3894	-0.09874073
215	0x3e051ec9	0.13000025
216	0x3cf4f0ba	0.029899944
217	0x3cfbe7b9	0.030750142
218	0x3d7afd73	0.061276864
219	0x3dbbd2c7	0.09171062
220	0x3dca48be	0.09877156
221	0x3dd65af5	0.104665674
222	0x3d797ad3	0.06090815
223	0x3de427b3	0.111403845
224	0x3dc86757	0.097853355
225	0xbcc74598	-0.024325177
226	0x3c3c37ed	0.011487943
227	0xbd9e4ceb	-0.07729515
228	0xbde10965	-0.1098812
229	0x3e06b943	0.13156609
230	0xbdddd74a	-0.10832079
231	0xbdbd965d	-0.09257195
232	0xbe121483	-0.14265637
233	0xbde8cbef	-0.11367022
234	0x3cea99cd	0.028637791
235	0x3d739a3c	0.05947326
236	0xbe037344	-0.12836939
237	0xba0c70e3	-0.00053573976
238	0xbde993f7	-0.11405175
239	0x3ca8ea6f	0.0206196
240	0x3d91ce84	0.07119468
241	0xbd8edb79	-0.06975455
242	0xbd9fc3d1	-0.07801021
243	0x3da088ef	0.07838618
244	0xbdceb2a5	-0.100926675
245	0xbd38066c	-0.044928
246	0xbe0ac19c	-0.13550419
247	0x3da93c8f	0.08263504
248	0x3cee718f	0.029106883
249	0xbd8cabbe	-0.06868695
250	0x3dc70d79	0.097193666
251	0x3e05bd38	0.13060462
252	0x3d5ef6f8	0.054434747
253	0xbdd371b9	-0.10324425
254	0xbd0d17d0	-0.034446537
255	0x3de28a3f	0.110615246

conv1.bias f4 [8]
0	0x3d7a92a2	0.061174996
1	0xbb6b765f	-0.003592871
2	0xbd0f5c77	-0.03500029
3	0xbcf52a43	-0.029927379
4	0xbde73616	-0.11289613
5	0x3dc95033	0.0982975
6	0x3dfc1dee	0.12310396
7	0xbdfd83b6	-0.123786375

conv2.weight f4 [16, 8, 5, 5]
0	0xbd9a1703	-0.075239204
1	0xbd96babc	-0.073598355
2	0xbc96f1f7	-0.018425925
3	0xbbe02642	-0.006840498
4	0xbd57a7d7	-0.0526503
5	0x3cff9b43	0.031201964
6	0xbb3209b0	-0.0027166419
7	0xbd2f14d5	-0.042744476
8	0xbd997dd0	-0.074947
9	0x3d47a20c	0.048738524
10	0x3d7e7c39	0.062130187
11	0xba635e88	-0.0008673449
12	0xbd2738c7	-0.04082563
13	0x3d1d6493	0.038425993
14	0x3d10dd0b	0.035367053
15	0xbc94f3ef	-0.018182723
16	0x3d71259d	0.05887376
17	0xbd7291fb	-0.05922125
18	0xbc702896	-0.014658114
19	0x3d5b6071	0.05355877
20	0xbd5421fc	-0.051790223
21	0xbcefabaa	-0.02925666
22	0xbd17e1c7	-0.037080552
23	0xbd11e1d4	-0.035615757
24	0x3d644752	0.05573208
25	0x3d3fd7bd	0.046836603
26	0xbd79f6e9	-0.061026487
27	0xbd25a0fe	-0.040436737
28	0x3a310733	0.0006753087
29	0xbcbb704a	-0.022880692
30	0xbd14024b	-0.036135
31	0xbd88b1e5	-0.06674556
32	0x3d5d0905	0.05396368
33	0x3d21b889	0.039482627
34	0x3c991516	0.018686812
35	0xbc59ad0a	-0.013285885
36	0xbd87b85c	-0.06626961
37	0xbb713a14	-0.00368083
38	0x3cd0c2bf	0.025483487
39	0xbcc2a2f8	-0.02375935
40	0x3d6f21de	0.058381908
41	0x3c93da7c	0.018048517
42	0xbb6b888a	-0.0035939538
43	0x3cd01526	0.02540071
44	0x3d065c4b	0.03280286
45	0xbd48748d	-0.048939276
46	0x3cbbe05c	0.022934131
47	0xbd857604	-0.0651665
48	0xbc9612be	-0.018319484
49	0xbce2a930	-0.027668566
50	0x3d423c0f	0.047420558
51	0xbd9828bf	-0.07429647
52	0x3c9d0a0e	0.019169834
53	0xbd9001ba	-0.07031579
54	0x3ccac056	0.024749916
55	0x3c2e8f52	0.010654287
56	0xbd0b597a	-0.03402088
57	0x3c751606	0.014958864
58	0x3d7deb02	0.0619917
59	0x3d17ecc3	0.037091028
60	0xbd9228bb	-0.07136675
61	0xbcca1f8c	-0.024673246
62	0x3d6dca66	0.05805435
63	0x3b9f7bb8	0.0048670433
64	0x3b249ef6	0.0025119162
65	0xbb03d238	-0.0020114314
66	0xbd00cc8c	-0.03144507
67	0xbccbbd1e	-0.024870452
68	0xbae0d367	-0.0017152847
69	0x3d3f0daf	0.04664391
70	0xbcde9060	-0.027168453
71	0xbccfbdbe	-0.02535903
72	0x3bdc68c9	0.0067263586
73	0xbd060c28	-0.032726437
74	0x3d5fab5c	0.05460678
75	0x3d5095db	0.050924163
76	0x3b143814	0.0022616433
77	0xbd3939a1	-0.045220975
78	0x3cac2060	0.021011531
79	0x3d7b7b52	0.061396904
80	0x3ca8c7ca	0.02060308
81	0x3ceae8bd	0.028675431
82	0xbd17c136	-0.037049495
83	0xbd8c3373	-0.06845751
84	0xbccd4b1f	-0.025060235
85	0xba66fe2a	-0.0008811677
86	0x3d7bbd00	0.06145954
87	0x3c7256b0	0.014791176
88	0xbc44c327	-0.012009419
89	0xbc86630f	-0.016404657
90	0xbc8ae9c6	-0.016957175
91	0xbd22d940	-0.039757967
92	0xbcf557ce	-0.029949095
93	0x3c6197b5	0.01376908
94	0x3d486c4b	0.0489314
95	0x3d671370	0.05641502
96	0x3cce62d8	0.025193617
97	0xbd4b1b48	-0.049586564
98	0x3d865491	0.065590985
99	0x3d8ce84b	0.06880244
100	0x3b8ced2b	0.0043007336
101	0x3ce3aa6d	0.027791226
102	0x3db65bec	0.089042515
103	0xb866669d	-5.493184e-05
104	0x3d6d2a04	0.057901397
105	0x3d14be7f	0.036314484
106	0x3d83a0ef	0.0642718
107	0x3d4a3b46	0.049372934
108	0x3dc21250	0.09476149
109	0x3dabf02b	0.08395418
110	0xbcc2fa1d	-0.023800904
111	0x3d8a0738	0.06739658
112	0x3c32b6bb	0.010907824
113	0xbc460037	-0.012085012
114	0x3d14115e	0.036149375
115	0x3c6fac5d	0.014628497
116	0xbcaec3eb	-0.021333655
117	0xbd19cc68	-0.037548453
118	0xbc6b89b9	-0.014376097
119	0x3d01a830	0.031654537
120	0x3d87be1a	0.06628056
121	0x3d85c40f	0.06531536
122	0x3d2eca5e	0.04267346
123	0x3dba8368	0.09107095
124	0xbd196263	-0.037447345
125	0xbd25599a	-0.040368654
126	0x3d1299be	0.03579115
127	0xbd6ceff2	-0.057846017
128	0x3d979139	0.07400746
129	0x3c8d44bf	0.017244695
130	0xbcb36b82	-0.02190185
131	0x3d8c98b6	0.06865065
132	0x3d234783	0.03986312
133	0x3d8994cb	0.06717833
134	0x3d7a8eeb	0.061171453
135	0xbc0bb89b	-0.0085279
136	0x3d8e7e64	0.06957701
137	0x3c848433	0.016176319
138	0x3c6e2eaf	0.014537497
139	0x3d04c38e	0.032413058
140	0xbd55e3da	-0.05221925
141	0xbd191247	-0.037370946
142	0x3d963abb	0.07335421
143	0xbd1fb958	-0.038995117
144	0x3d3ad4f8	0.04561326
145	0x3d38801e	0.045044057
146	0xbd5a2ea1	-0.053267125
147	0xbb2021be	-0.0024434174
148	0x3bbc1b56	0.0057405634
149	0x3d720bbf	0.059093233
150	0xbcc36d94	-0.023855962
151	0x3d7429ca	0.059610166
152	0xbd823ff0	-0.06359851
153	0x3cccd53a	0.025004018
154	0x3d0b5c1a	0.03402338
155	0xbcf562f6	-0.029954415
156	0xbce16ec6	-0.027518641
157	0xbd4a693b	-0.04941676
158	0x3c65c789	0.014024624
159	0x3c9a8850	0.018863827
160	0xbcf0b7a4	-0.029384442
161	0x3d58200a	0.05276493
162	0xbc7d5453	-0.015461999
163	0xbc839442	-0.016061906
164	0x3d4d1cec	0.05007641
165	0x3c01b0da	0.0079157
166	0x3d087d48	0.033322603
167	0x3d16f82a	0.03685776
168	0xbd534c41	-0.051586393
169	0xbbcea39b	-0.0063061244
170	0x3d6c6e9a	0.057722665
171	0xbd479f4b	-0.048735898
172	0x3b7b1ea6	0.0038317828
173	0x3d3e97af	0.046531375
174	0x3ae12a12	0.0017178676
175	0x3ba762ff	0.005108237
176	0x3d406039	0.046966765
177	0xbd155d1a	-0.03646574
178	0x3da4e20f	0.0805093
179	0x3da04e7f	0.07827472
180	0x3a81df9f	0.0009908563
181	0xbb868afb	-0.004105923
182	0x3c099b49	0.008398839
183	0x3dbe79b7	0.09300559
184	0xbb8dd168	-0.0043279417
185	0x3d29ce6c	0.041456625
186	0xbd3c197d	-0.045922745
187	0x3d31e78d	0.043433715
188	0x3d85b050	0.065277696
189	0x3d39b031	0.045334045
190	0x3c84eb18	0.016225383
191	0x3cd3e028	0.025863722
192	0x3da9983b	0.08280989
193	0x3d57b5da	0.05266366
194	0x3bb42de4	0.0054986347
195	0xbd1bed65	-0.038068194
196	0x3d925115	0.071443714
197	0xbbb504b0	-0.0055242404
198	0x3d859577	0.06522649
199	0x3bde2e62	0.0067804316
200	0xbb92be06	-0.004478219
201	0xbd76e935	-0.060280997
202	0xbcfd9844	-0.030956395
203	0x3ae5de83	0.0017537627
204	0xbd95116a	-0.07278712
205	0xbca1a26c	-0.01973077
206	0x3d16d35d	0.036822665
207	0x3d3b8821	0.04578412
208	0x3d449459	0.047993038
209	0xbcd5537f	-0.02604079
210	0x3a8b6f12	0.001063796
211	0xbd791932	-0.060815044
212	0x3d061833	0.032737922
213	0x3c0b3bb1	0.008498118
214	0x3d60ba21	0.054865006
215	0xbc76f1f1	-0.015072332
216	0x3d82bfce	0.0638424
217	0x3d0044c5	0.031315584
218	0x3d67675e	0.056495063
219	0xbc0d5adb	-0.008627619
220	0xbd744a3a	-0.0596411
221	0xbd71a0af	-0.05899113
222	0xbd8f9c33	-0.070122145
223	0x3c0568f9	0.008142703
224	0xbd6f6126	-0.058442257
225	0xbce13c73	-0.027494645
226	0x3cfe501a	0.031044055
227	0x3d727302	0.05919171
228	0xbcb93ca8	-0.022611931
229	0x3d337f81	0.04382277
230	0xbc19982d	-0.00937466
231	0xbc9812d4	-0.018563665
232	0xbc512427	-0.012764967
233	0xbd1466ac	-0.036230728
234	0x3c7622e3	0.015022966
235	0xbb7a7baf	-0.0038220694
236	0xbd1c727a	-0.03819511
237	0x3d28a314	0.04117115
238	0xbd0ffeca	-0.035155095
239	0xbd536678	-0.051611394
240	0x3cb05afa	0.021527756
241	0xbbfef077	-0.0077801305
242	0xbd2eb73e	-0.042655222
243	0xbd7ae981	-0.061257843
244	0xbccb8b04	-0.024846561
245	0xbd695d12	-0.056973524
246	0x3d0fe893	0.03513391
247	0xbc4e7c65	-0.0126029
248	0x3d062344	0.032748476
249	0x3cfb5cbf	0.030683873
250	0xbb2b29b7	-0.0026117393
251	0xbc82a895	-0.015949527
252	0xbd2b49c7	-0.041818406
253	0x3c22f20c	0.009945404
254	0xbd8b6621	-0.06806589
255	0xbd2b8304	-0.041872993

conv2.bias f4 [16]
0	0xbd2e3505	-0.042531032
1	0x3c8f1db3	0.017470216
2	0x3d6942eb	0.056948584
3	0x3c2ffc8f	0.010741367
4	0x3cdcf102	0.02697039
5	0xbd6c340d	-0.057666827
6	0xbd74c895	-0.059761602
7	0xbd2f65ed	-0.042821813
8	0xbd33c7fa	-0.043891884
9	0xbd07c843	-0.03314997
10	0xbd6048fc	-0.054757103
11	0xbcbdd967	-0.023174955
12	0xbd342eb7	-0.043989863
13	0x3cb87989	0.02251889
14	0xbb973be7	-0.004615295
15	0xbc282d68	-0.010264732

conv3.weight f4 [32, 16, 5, 5]
0	0x3cd60019	0.026123093
1	0xbd1e392c	-0.038628742
2	0xbc579676	-0.013158431
3	0x3b5964a1	0.0033171552
4	0xbd2ffcfc	-0.042965874
5	0x3d09d117	0.03364667
6	0xbcf6a4f5	-0.030107955
7	0x3d2501a0	0.040284753
8	0x3d5b3ed5	0.05352672
9	0x3c468de3	0.012118789
10	0xbc73b598	-0.014874838
11	0x3d321364	0.043475524
12	0xbcdc2a4d	-0.02687564
13	0x3ba5f90e	0.00506509
14	0x3d01e0a5	0.03170838
15	0x3d7195f9	0.058980916
16	0x3c5b010a	0.013366947
17	0x3b280680	0.002563864
18	0xbaa3ce9d	-0.0012497489
19	0xbd41d176	-0.0473189
20	0x3cb8f5fd	0.022578234
21	0xbce87e40	-0.028380513
22	0x3c4bc101	0.012436152
23	0xbbd622b0	-0.006534897
24	0x3d12e751	0.03586513
25	0xbcc74be9	-0.024328189
26	0x3cfbe2d4	0.030747809
27	0xbc87aa31	-0.016560646
28	0xbc5553f9	-0.013020509
29	0xbd469368	-0.04848042
30	0x3d202e8b	0.039106887
31	0xba424b85	-0.0007411766
32	0xbd4d193a	-0.050072886
33	0xba2ce4a7	-0.0006595351
34	0x3c8fe9d9	0.017567562
35	0xbc7128cc	-0.014719199
36	0x3d12e5d7	0.035863724
37	0x3c926845	0.017871985
38	0xbc219e64	-0.009864423
39	0x3d41b744	0.047293916
40	0x3d047378	0.032336682
41	0xbc2c9cc7	-0.0105354255
42	0xbc35d45c	-0.011097994
43	0x3c3d00a5	0.011535798
44	0xbca6ea01	-0.020375254
45	0x3cf80f5c	0.030280761
46	0xbd4e3789	-0.05034593
47	0xbd0353da	-0.03206239
48	0x3ca35686	0.019938719
49	0xbd4dff96	-0.050292574
50	0xbc87c1b7	-0.016571863
51	0xbcd316c9	-0.0257677
52	0x3cd237db	0.0256614
53	0xbb354c69	-0.0027663952
54	0xbd1dfe78	-0.03857276
55	0x3d1de8a9	0.03855196
56	0xbccc6791	-0.024951728
57	0xbc2e5571	-0.010640488
58	0x3c071684	0.008245114
59	0xbd224800	-0.039619446
60	0xbc07016d	-0.008240086
61	0xbcbbeb63	-0.02293939
62	0xbca63c82	-0.020292524
63	0xbce4b922	-0.02792031
64	0x3cd355ba	0.025797714
65	0xbce827ff	-0.028339384
66	0xbd2787de	-0.040901057
67	0x3c54c037	0.012985281
68	0x3bfd2ffe	0.0077266684
69	0xbb5dcf63	-0.0033845536
70	0x3a806000	0.0009794235
71	0x3d2b0af2	0.041758485
72	0xbcd0a393	-0.025468623
73	0xbd58dc5c	-0.052944526
74	0xbd57db2e	-0.05269926
75	0x3ca0634b	0.019578597
76	0x3ca13bf6	0.019681912
77	0xbb8e29aa	-0.004338463
78	0xbd4c3117	-0.049851503
79	0xbd254ffc	-0.040359482
80	0xbd1aea28	-0.037820965
81	0x3cfe7bf4	0.031064965
82	0x3bbb9f31	0.005725764
83	0xbd0bc277	-0.034121003
84	0xbd5e2469	-0.054233942
85	0x3c9b9055	0.018989721
86	0xbae6f140	-0.0017619506
87	0x3d3e8630	0.04651469
88	0xbd3a3a68	-0.045465857
89	0xbd3d8174	-0.046266034
90	0x3af1a2d1	0.0018435364
91	0x3d02c623	0.03192724
92	0x3d01924c	0.03163366
93	0x3d4974b8	0.049183577
94	0x3d0adc26	0.033901356
95	0x3d03e1d6	0.032197796
96	0xbcb06d37	-0.021536453
97	0x3d472701	0.04862118
98	0xbca04bf3	-0.019567465
99	0x3d18f343	0.037341367
100	0x3c7c9bd4	0.015418012
101	0xbcffa490	-0.0312064
102	0xbb85c69f	-0.0040825154
103	0xbac9ab98	-0.0015386222
104	0x3d219798	0.03945121
105	0x3d084822	0.033271916
106	0x3bf995f1	0.0076167514
107	0xbcf9f384	-0.030511625
108	0x3c588291	0.013214723
109	0x3d21652a	0.03940312
110	0xbcefd436	-0.029275995
111	0x3d1b0dbf	0.037854906
112	0x3c074433	0.008256006
113	0x3cc2e254	0.023789562
114	0x3c5ee8bd	0.013605294
115	0x3ce7184d	0.02820983
116	0xbd36f78f	-0.044669684
117	0x3c94ab41	0.018148066
118	0xbd411044	-0.047134653
119	0xbbbd3335	-0.0057739266
120	0x3d0828da	0.033242084
121	0xbd35955b	-0.04433189
122	0xbd24b602	-0.04021264
123	0xbcca4670	-0.02469179
124	0x3a704ecd	0.00091670157
125	0xbbfd89b0	-0.007737361
126	0xbd1b7d2f	-0.03796118
127	0x3c19f847	0.009397573
128	0xbbf6dd25	-0.0075336867
129	0xbc97371d	-0.018458897
130	0x3af1cfab	0.0018448731
131	0x3c9e3ef1	0.019317122
132	0x3c35bbb2	0.011092113
133	0xbceb0c37	-0.028692348
134	0x3d1c0165	0.038087267
135	0x3c733669	0.014844515
136	0xbc784f8d	-0.015155685
137	0x3d42d25d	0.0475639
138	0x3c6e4436	0.01454263
139	0x3cf52e81	0.029929401
140	0x3d3b77ea	0.045768656
141	0x3c196502	0.009362461
142	0x3d4a2bb3	0.04935808
143	0x3be5df0e	0.0070151156
144	0x3d3f0253	0.046633076
145	0x3ca56e20	0.020194113
146	0x3d1853d4	0.03718932
147	0x3d1700f7	0.036866155
148	0xbc8f99bb	-0.01752936
149	0x3d5b4bf4	0.05353923
150	0x3c41d290	0.011829987
151	0x3ced2a82	0.028950933
152	0xbcd9a93d	-0.026569957
153	0xbc00a619	-0.007852101
154	0x3d321e36	0.043485843
155	0xbcad1220	-0.021126807
156	0x3c91e0ed	0.017807448
157	0x3d5fb38a	0.05461458
158	0xbd15fb90	-0.03661686
159	0x3c2a72ed	0.010403377
160	0x3cac0f78	0.02100347
161	0x3d40503d	0.04695152
162	0xbb4dbd32	-0.0031393287
163	0xbd1969e7	-0.037454512
164	0xbc8b6a9f	-0.017018614
165	0x3ce5ab39	0.028035747
166	0xbcbb4c3e	-0.022863504
167	0xbd04a359	-0.032382343
168	0x3c665d3c	0.014060315
169	0x3d08ef9c	0.033431634
170	0xbcaa8206	-0.020813953
171	0xbbd856b4	-0.0066021327
172	0x3d2ca90b	0.0421534
173	0xbc412090	-0.011787549
174	0xbc70c308	-0.014694937
175	0xbc8309ad	-0.015995825
176	0x3d282131	0.04104728
177	0xbc573d2d	-0.013137144
178	0xbcfc0ffa	-0.030769337
179	0xbd008f74	-0.031386808
180	0xbc303c06	-0.010756498
181	0x3d195059	0.03743014
182	0x3cb28fc8	0.021797076
183	0xbc4836b2	-0.012220072
184	0xbd1b379f	-0.03789484
185	0xbcf9266e	-0.030413833
186	0x3c4fcefb	0.012683625
187	0x3d3b6e42	0.045759447
188	0x3cfcfbe3	0.030881828
189	0xb9ba4edd	-0.00035535442
190	0x3cca51a1	0.024697127
191	0x3baa7e16	0.005203019
192	0x3c24b18f	0.010052099
193	0x3ce27263	0.027642434
194	0xbbf2c5fe	-0.0074088564
195	0x3c5055dd	0.012715784
196	0x3bb609ea	0.005555381
197	0x3c8de2a3	0.017319983
198	0xbbfe08b5	-0.007752503
199	0x3d12d8a8	0.03585115
200	0xbd35e02f	-0.04440325
201	0x3d0201c5	0.03173997
202	0xbd1557bc	-0.036460623
203	0xbccf65fc	-0.025317185
204	0xbbe90abd	-0.007111876
205	0x3ba54181	0.005043209
206	0x3ab732f4	0.0013976977
207	0xbd09f906	-0.033684753
208	0x3d229892	0.039696284
209	0x3d13ec94	0.03611429
210	0x3d60dab2	0.054896064
211	0xbcabd8fa	-0.020977486
212	0xbb64cc92	-0.0034911972
213	0x3d2c1817	0.04201516
214	0x3d765568	0.060140043
215	0x3d2c6a5f	0.04209363
216	0x3d108997	0.035287466
217	0x3d053767	0.03252354
218	0x3d3392fa	0.04384134
219	0xbc0ba578	-0.008523338
220	0xbd26cace	-0.040720753
221	0xbd05f146	-0.0327008
222	0xbcc5b9cb	-0.024136445
223	0x3ab28c49	0.001362213
224	0x3d2169c8	0.03940752
225	0x3d06a997	0.032876577
226	0xbcff4897	-0.031162543
227	0x3c877342	0.016534451
228	0x3d3ff685	0.04686596
229	0x3b47ca51	0.003048558
230	0xbbfc386b	-0.0076971552
231	0xbcc9da18	-0.024640128
232	0xb992e9cb	-0.0002802148
233	0x3d270dfa	0.040784813
234	0xbc456446	-0.012047833
235	0xbb90e5ed	-0.0044219405
236	0x3ce5d96d	0.028057778
237	0xbc74c066	-0.0149384495
238	0xbc9fd96c	-0.019512855
239	0x3c2d78ed	0.010587913
240	0x3d2adb9f	0.041713353
241	0x3c361151	0.011112527
242	0x3b617d98	0.0034407135
243	0xbd119255	-0.035539944
244	0x3d044405	0.03229143
245	0x3c18f79b	0.0093363775
246	0xbc72811f	-0.014801293
247	0xbd194543	-0.03741957
248	0xbc97f6f4	-0.018550374
249	0xbd0178f8	-0.031609505
250	0x3c5da618	0.013528369
251	0x3d3c6d87	0.04600289
252	0x39e119e1	0.00042934626
253	0x3d1d2fcf	0.038375672
254	0xb994b32e	-0.0002836226
255	0xbca30c3c	-0.019903295

conv3.bias f4 [32]
0	0xbc84cde7	-0.016211463
1	0xbc81a54f	-0.015825896
2	0xbcf37b3f	-0.029721854
3	0xbc2b769d	-0.010465291
4	0x3bafcae8	0.0053647645
5	0xbd096e26	-0.03355231
6	0xbbff2cea	-0.0077873366
7	0xbd06c4a0	-0.03290236
8	0x3c8af004	0.016960151
9	0x3cdb32bf	0.026757596
10	0xbd302d9f	-0.043012258
11	0xbc9fde25	-0.019515106
12	0xbbd0e56d	-0.006375006
13	0xbcd42d11	-0.025900396
14	0xbc88e6b3	-0.016711568
15	0x3cf147e5	0.029453227
16	0xbb8844a4	-0.004158573
17	0x3cee968e	0.029124524
18	0x3bd32a03	0.006444217
19	0xbb87181f	-0.0041227485
20	0xbcf5e177	-0.030014737
21	0xbad4c6cf	-0.0016233566
22	0x3d706da3	0.058698308
23	0x3d59515c	0.053056106
24	0x3d2e95c1	0.042623285
25	0xbc2795dd	-0.010228601
26	0x3a8dbce2	0.0010813738
27	0x3d49a3e3	0.04922856
28	0xbba85586	-0.0051371483
29	0x3c82195d	0.015881235
30	0x3c2a7fc4	0.010406438
31	0x3d1cf677	0.038320985

fc.weight f4 [32, 4608]
0	0xbbbc90e0	-0.005754575
1	0xbcc2e76f	-0.023791997
2	0xbd1eac5b	-0.03873859
3	0xbc08307b	-0.00831234
4	0x3cbb013f	0.022827743
5	0x3c2cce70	0.010547265
6	0x3c4f9dda	0.012671912
7	0xbc51e0ff	-0.012809991
8	0x3c03e198	0.008049391
9	0x3b63b59b	0.0034745696
10	0x3c4fb8a7	0.012678302
11	0x3bbddf5d	0.0057944492
12	0x3c7ba75e	0.015359728
13	0xbc6019b8	-0.013678007
14	0x3bbeaeec	0.005819192
15	0xbc66c48e	-0.014084948
16	0xbc1fc2c9	-0.00975103
17	0x3badc6cd	0.00530324
18	0xbb866f42	-0.0041026184
19	0x3aa45aea	0.0012539302
20	0x3bc7366a	0.0060794847
21	0xbbb75178	-0.0055944286
22	0x3b3d1c6c	0.0028856052
23	0xbb55c245	-0.0032617014
24	0x3c29605a	0.010337913
25	0x3c05248a	0.008126387
26	0xba78c03b	-0.0009489094
27	0xbc41effb	-0.011837001
28	0x3b9ba47c	0.0047498327
29	0x3c1744f3	0.009232747
30	0x380cd614	3.3577977e-05
31	0x3bd272ba	0.006422368
32	0x3b28fbaa	0.002578477
33	0xbbbb262e	-0.0057113385
34	0xbba72995	-0.0051013925
35	0x3a8b52b0	0.0010629501
36	0xbc4a835e	-0.012360422
37	0x3b2bb0fc	0.002619802
38	0xbb4ee6ce	-0.0031570676
39	0xbc5be9b5	-0.013422419
40	0x3a53b0a3	0.0008075332
41	0x3b1fb51c	0.0024369424
42	0x3ba0ab93	0.0049032657
43	0x396e691f	0.0002273661
44	0xbbbf5471	-0.0058389236
45	0xb94ec72e	-0.00019719891
46	0xbc47435b	-0.012162055
47	0x3bdf7c8d	0.0068202675
48	0x3c66edb5	0.01409476
49	0x3bcbf59e	0.006224348
50	0x3adadd9d	0.0016698126
51	0x3c2fb7d0	0.010724977
52	0x3c31b7f4	0.0108470805
53	0x3c59e267	0.013298607
54	0x3c2ea5b5	0.010659625
55	0x3c05638c	0.00814141
56	0xba887709	-0.0010411452
57	0xbc876cbd	-0.016531343
58	0x3b4db0fb	0.0031386006
59	0x3c918157	0.01776187
60	0x3c837b31	0.016049953
61	0x3c9f02be	0.019410487
62	0xbc3b1ce5	-0.011420463
63	0xbb2bc00d	-0.0026207
64	0x3c3959e4	0.0113129355
65	0xbc82ddbd	-0.015974874
66	0xbb7978d1	-0.0038066397
67	0x3bb29375	0.005449707
68	0xbc886861	-0.016651334
69	0xbc31c899	-0.010851049
70	0xbba51af1	-0.005038612
71	0x3ca5446f	0.020174233
72	0x3ccd83b9	0.025087224
73	0x3c93935d	0.018014604
74	0x3c3cdd42	0.011527361
75	0x3ab0c899	0.0013487517
76	0xbbd1051c	-0.006378783
77	0x3b813b1b	0.0039438135
78	0xbc0c19a9	-0.00855104
79	0x3c5b1b8f	0.01337327
80	0xbb9991ce	-0.0046865707
81	0x3c229f9a	0.009925747
82	0xbb35c7d1	-0.0027737508
83	0x3c994637	0.018710239
84	0x3d4250fe	0.04744052
85	0x3c94e512	0.018175635
86	0xbae6afa1	-0.0017599949
87	0xbc0c793e	-0.008573828
88	0x3bce162c	0.006289264
89	0xbc0c599e	-0.008566288
90	0x3c0a095f	0.008425086
91	0xbc1c217b	-0.009529467
92	0xbb113492	-0.0022156578
93	0xbb51c8ac	-0.003201048
94	0x3c70952f	0.014684006
95	0x3c87bb1c	0.016568713
96	0x3cadd0d7	0.021217747
97	0x3cad7fef	0.021179168
98	0xbc8083ce	-0.01568785
99	0xbac95950	-0.00153617
100	0x3c6625f9	0.014047139
101	0xbb3d9749	-0.0028929284
102	0xbc235980	-0.009970069
103	0xbc08c3e1	-0.008347482
104	0x3c5ee4db	0.013604368
105	0x3bb7c361	0.005608008
106	0x3ba02393	0.0048870533
107	0xbb372ac4	-0.0027949074
108	0xba2f4dbb	-0.0006687303
109	0xbc154d98	-0.009112738
110	0x3bc55699	0.006022286
111	0x3be5fdd4	0.007018784
112	0xbc3032a5	-0.010754262
113	0x3c6d734d	0.014492822
114	0xbc314e9b	-0.010821964
115	0xbbdff30c	-0.0068343934
116	0x3b0c44ba	0.002140327
117	0xbc28e98c	-0.010309588
118	0xbb5fe861	-0.0034165608
119	0xbc18f485	-0.009335642
120	0xbd10b8b8	-0.03533241
121	0xbc614558	-0.013749443
122	0xbc50260a	-0.012704382
123	0xba0c3853	-0.0005348969
124	0xbb717807	-0.0036845224
125	0x3bebf238	0.0072005056
126	0x3bf2cc0d	0.0074095787
127	0x38f5bc25	0.00011717555
128	0xbc08f2b3	-0.008358645
129	0x3c1a90d5	0.009433945
130	0xbcc1a79a	-0.023639489
131	0xbc109bae	-0.008826179
132	0xbcbfd82a	-0.023418505
133	0x3bb22921	0.005437032
134	0xbc7a30c3	-0.015270415
135	0x3c00ca68	0.007860757
136	0xbc019dd9	-0.007911169
137	0x3a764f4d	0.0009395972
138	0x3cb2c495	0.021822253
139	0x3cb2de5f	0.02183455
140	0x3cc4dc8f	0.024030952
141	0x3d0577ec	0.03258507
142	0x3bd66537	0.0065428275
143	0xbcf86e32	-0.030325983
144	0x39ac8694	0.00032906665
145	0xbbc300ab	-0.0059510074
146	0xbbada38d	-0.005299038
147	0xbc611ac2	-0.01373929
148	0x3d0b18c7	0.033959176
149	0x3d0dbfcc	0.03460674
150	0x3cf93971	0.030422898
151	0xbbb688a5	-0.0055704885
152	0x3be2a08c	0.0069161113
153	0x3b19120e	0.0023356709
154	0x3b6ccedd	0.0036134042
155	0xbc76fec6	-0.015075391
156	0x398abd66	0.00026462524
157	0xbc2f89cf	-0.0107140085
158	0xbc81b7b5	-0.015834669
159	0x3c62e257	0.013847909
160	0xbb933675	-0.004492576
161	0x3bc9dace	0.0061601168
162	0x3bd6ac3e	0.0065512946
163	0x3b32b7c9	0.002727019
164	0x3c5e61b9	0.013573104
165	0x3bc94e30	0.006143354
166	0x3c261604	0.010137085
167	0x3b611412	0.0034344238
168	0xbc15c52d	-0.009141249
169	0xbc635ef7	-0.013877622
170	0xbbcd586e	-0.006266645
171	0xbb35746c	-0.00276878
172	0xbbd69a35	-0.0065491446
173	0x3bbdb1f7	0.0057890373
174	0xbc25acb8	-0.01011198
175	0xbc18f836	-0.009336522
176	0xba6a8a11	-0.0008946965
177	0xbc118082	-0.008880736
178	0xbbd06306	-0.0063594608
179	0xb9cf696a	-0.00039560656
180	0x3b189a67	0.002328539
181	0x3c2872ed	0.010281307
182	0x3c9be6ad	0.019030893
183	0x3ae85321	0.001772497
184	0xbb9c7fd1	-0.004775979
185	0xbbbfb8bb	-0.005850879
186	0xbc0436e8	-0.008069731
187	0x3c39dad6	0.011343678
188	0x3c895204	0.01676274
189	0x3c0368b9	0.008020573
190	0x3bed80db	0.007248027
191	0x3c3186d1	0.010835365
192	0x3c89b515	0.01680998
193	0x3c81ff10	0.015868694
194	0x3c609ea1	0.013709695
195	0x3c035cfc	0.008017775
196	0x3ba53804	0.005042078
197	0xba700cdd	-0.000915719
198	0x3c4b68e1	0.012415142
199	0x3bcdbb40	0.0062784255
200	0x3c40e2a8	0.011772789
201	0x3c8cc3e0	0.017183244
202	0x3c59454e	0.013261152
203	0x3c85819c	0.016297154
204	0x3cebbdbc	0.028776996
205	0x3bae0442	0.005310566
206	0xbb780a91	-0.0037848095
207	0x3ba02fd6	0.004888515
208	0x3c3f06b5	0.011659314
209	0xbc1dc217	-0.009628794
210	0x3bfa66c7	0.0076416465
211	0x3c14c54e	0.009080244
212	0xbbc1e7cc	-0.005917525
213	0xbbabf08b	-0.005247181
214	0xbb978ab7	-0.0046246904
215	0x3c81f604	0.01586438
216	0x3cebd761	0.028789224
217	0x3b20a90d	0.0024514825
218	0x3c0119a9	0.007879653
219	0xbc0a9ecf	-0.0084607145
220	0xbc4b15ac	-0.012395304
221	0x3c3bb534	0.011456776
222	0x3b3f147b	0.0029156494
223	0x3b93b5d2	0.0045077587
224	0x3c2f0e3e	0.010684548
225	0x38fddb92	0.00012104878
226	0x3afde349	0.0019370104
227	0x3b12cd3c	0.0022400161
228	0x3d4861ac	0.048921272
229	0x3c1fdba9	0.009756961
230	0x3b03b3e6	0.0020096241
231	0xbbf91b01	-0.007602096
232	0xbb89b25f	-0.0042021717
233	0xbc35c15f	-0.011093467
234	0x3c400870	0.011720762
235	0x3c885396	0.01664142
236	0x3c2a103c	0.010379847
237	0x3c0610f3	0.008182752
238	0xbb190466	-0.002334857
239	0x3c450175	0.012024273
240	0x3d5d2c7c	0.0539975
241	0x3cc7da55	0.024396101
242	0xbc28215e	-0.010261862
243	0xbbb44ce5	-0.0055023306
244	0xbb703a9b	-0.0036656025
245	0x3c5a1efc	0.013313051
246	0x397cce08	0.00024109345
247	0x3c7841a8	0.015152372
248	0xba3b6cd6	-0.00071497017
249	0x3b142228	0.0022603367
250	0x3beeef97	0.007291745
251	0x3a9871bf	0.0011630579
252	0x3d453a6b	0.048151415
253	0x3bb4dc0b	0.005519395
254	0xbc4f3f8c	-0.012649428
255	0xbb9691a3	-0.004594998

fc.bias f4 [32]
0	0x3bd8468d	0.006600207
1	0x3cab94f0	0.020945042
2	0x3a1ac980	0.00059046596
3	0x3c02c4bc	0.007981475
4	0x3cb3c22e	0.021943178
5	0xbb463136	-0.0030241734
6	0xbc2ae68c	-0.010430943
7	0x3c979600	0.018504143
8	0x3aa938bf	0.0012910588
9	0xbc01236b	-0.007881979
10	0xbc22d974	-0.00993954
11	0x3ca24401	0.019807817
12	0x3b9c9e9a	0.004779649
13	0x3cee87e1	0.029117526
14	0xbca4070f	-0.020022897
15	0x3cbca3e3	0.023027366
16	0xbb0d5774	-0.0021567019
17	0x3b9421aa	0.0045206146
18	0x3c80c597	0.015719218
19	0x3c7820b2	0.015144514
20	0x3b21b11a	0.002467221
21	0xbcb77dac	-0.022398792
22	0x3c3674ec	0.011136275
23	0xbb65c6bd	-0.0035061084
24	0xbb0a7302	-0.002112568
25	0x3c8dbb38	0.017301187
26	0x3c9087f8	0.01764296
27	0xbc44cbc9	-0.012011477
28	0x3cae8f71	0.021308633
29	0x3ce94115	0.028473416
30	0x3c72895e	0.014803259
31	0x3cdfa8fa	0.027302254

translation.weight f4 [2, 32]
0	0xba09377f	-0.0005234405
1	0xb9d48116	-0.00040531968
2	0xbb7925e4	-0.003801697
3	0xba18069e	-0.0005799326
4	0xba322113	-0.00067950896
5	0xbc253bc7	-0.010085053
6	0x38f431f3	0.000116441304
7	0xb948f889	-0.00019166073
8	0xba59b067	-0.0008304179
9	0x3b936caf	0.00449904
10	0xbb44464d	-0.002994913
11	0xb99dcf4d	-0.00030099825
12	0xba1c9092	-0.00059724704
13	0xb98c4db6	-0.0002676078
14	0x3c131ecc	0.0089795105
15	0xb98fcd3a	-0.0002742799
16	0x00000000	0.0
17	0xbb203bba	-0.0024449662
18	0xbaba4c50	-0.0014213417
19	0xbab254af	-0.001360556
20	0xbc3331bd	-0.0109371515
21	0x3ca5124f	0.020150332
22	0xb9f89fcc	-0.00047421304
23	0x3c5e1353	0.013554412
24	0x3ace0c4b	0.0015720216
25	0xba380665	-0.0007019996
26	0xb8793dfa	-5.9423946e-05
27	0x3b02ef47	0.0019979046
28	0xba29b9b8	-0.00064745126
29	0xb8fd0ba6	-0.0001206615
30	0xba69f944	-0.0008925388
31	0xb93d3bdf	-0.00018046748
32	0xb8280ed3	-4.0068127e-05
33	0xbc33eb90	-0.010981455
34	0xbd129e75	-0.035795648
35	0xb8198518	-3.6601996e-05
36	0x39db84c4	0.00041869853
37	0xbc2bf026	-0.010494268
38	0x3bd1a785	0.0063981437
39	0xb8d7e07d	-0.00010293813
40	0x390b1575	0.00013264066
41	0x3c0b48f4	0.00850128
42	0xbc08358b	-0.008313547
43	0x3a3716dc	0.00069843023
44	0x3ae24939	0.0017264254
45	0x39c8e7d0	0.00038319686
46	0xbb6079da	-0.0034252317
47	0xb9abcf07	-0.0003276991
48	0x00000000	0.0
49	0x3ada0239	0.0016632742
50	0xbb4ef223	-0.003157743
51	0xbac060e5	-0.0014677314
52	0x3b55d406	0.0032627597
53	0xbc2446cd	-0.010026646
54	0xb5e73bd5	-1.7228255e-06
55	0xbc7a833f	-0.015290081
56	0x3bf797f8	0.007555958
57	0x39a53e20	0.0003151754
58	0x3a5db7f7	0.0008457894
59	0xbc06d6e7	-0.008229948
60	0xba0ec788	-0.00054466026
61	0x395c7c6a	0.00021027183
62	0x3aa56838	0.0012619561
63	0x39a89098	0.00032151188

translation.bias f4 [2]
0	0x38df91f6	0.00010660656
1	0xbc62b5dd	-0.013837305

rotation.weight f4 [1, 32]
0	0xbc36c927	-0.011156357
1	0xbcd77941	-0.026302936
2	0xbd2818b5	-0.041039187
3	0xbc2e38e3	-0.01063368
4	0xbc1eb1af	-0.009685918
5	0xbbfa9f2b	-0.007648369
6	0xbb93b64f	-0.004507817
7	0xbc3435a5	-0.010999118
8	0xbc270f0f	-0.010196461
9	0xbb807008	-0.003919605
10	0x3b83e228	0.0040247627
11	0xbc336cfb	-0.010951276
12	0xbc12582e	-0.0089321565
13	0xbc22fb22	-0.00994757
14	0xba64222e	-0.0008702603
15	0xbc4404e5	-0.011964058
16	0x00000000	0.0
17	0xbc214ac9	-0.00984449
18	0xbc90cdf0	-0.017676324
19	0xbc44b7d5	-0.01200672
20	0x3afd30ce	0.0019316913
21	0xbb0cd8aa	-0.0021491447
22	0xbc3bb09e	-0.011455683
23	0xbb1cd536	-0.0023930795
24	0x3b67d5ea	0.0035375305
25	0xbc273099	-0.010204458
26	0xbc13dbc5	-0.009024565
27	0xbb79fec4	-0.0038146237
28	0xbc31e3d3	-0.01085754
29	0xbc36de53	-0.011161405
30	0xbc0d0941	-0.008608163
31	0xbc242f3e	-0.010021029

scaling.weight f4 [2, 32]
0	0x3a5e7738	0.0008486393
1	0xba161386	-0.0005724955
2	0x3c6a541e	0.014302282
3	0x3a6756d6	0.000882489
4	0x3a307d54	0.00067325425
5	0xbc15e5c5	-0.00914902
6	0xbc011b5c	-0.007880058
7	0x3aa19a46	0.0012329302
8	0x3a5a3275	0.0008323559
9	0xbbdaaa4b	-0.0066731325
10	0xbb8ab5e7	-0.00423311
11	0x39e88e8c	0.00044356694
12	0xbaa0c0cf	-0.0012264493
13	0x3a78b542	0.0009487459
14	0x3b7a0277	0.0038148442
15	0x3aac187b	0.0013129854
16	0x00000000	0.0
17	0x3ab39149	0.0013699915
18	0x3a72e0f7	0.000926509
19	0x3b098919	0.0020986258
20	0xbc376986	-0.011194592
21	0xb90dfb49	-0.00013540419
22	0x3a7a8bc2	0.00095575687
23	0x3b720d1c	0.0036934083
24	0xbbec6be2	-0.007215009
25	0x3a68ae0f	0.00088760344
26	0xba03a6d9	-0.00050221157
27	0x3c038935	0.008028318
28	0x3aa3077a	0.0012438141
29	0x39001fec	0.00012218923
30	0x3995e222	0.00028587977
31	0x3924da92	0.00015721683
32	0xb90ab95a	-0.00013229754
33	0x3ae7607f	0.001765266
34	0x3bd798a0	0.0065794736
35	0x39028188	0.0001244602
36	0x38ea8e00	0.00011184439
37	0x3c34cc88	0.011035092
38	0xbafd8783	-0.0019342754
39	0x37cac280	2.4170848e-05
40	0x399194b2	0.00027767342
41	0xbbe0a307	-0.006855372
42	0x3c167720	0.009183675
43	0xb7b14e04	-2.1136373e-05
44	0xbb1a7bcf	-0.002357233
45	0x391ac5f7	0.00014760332
46	0xbab54bb6	-0.0013831768
47	0x398a5e4f	0.00026391677
48	0x00000000	0.0
49	0xba05dd7f	-0.0005106553
50	0x39059fad	0.00012743352
51	0x3a7d017c	0.0009651405
52	0x3c3ca1e1	0.011513204
53	0x3a85fea0	0.0010222979
54	0x39e2be20	0.00043247733
55	0xba07ad7f	-0.0005175694
56	0xbafdcb02	-0.0019362869
57	0x38adbacd	8.284077e-05
58	0x38d8652c	0.00010318527
59	0x3c0acb2f	0.008471294
60	0x39ed0338	0.0004520656
61	0xb7b64d48	-2.1732078e-05
62	0xb9ae0cc8	-0.0003319739
63	0x39d54114	0.00040675013

scaling.bias f4 [2]
0	0x3c451180	0.012028098
1	0x3c5f935c	0.013645973

shearing.weight f4 [1, 32]
0	0xbc54453b	-0.012955959
1	0xbc3f9a87	-0.011694557
2	0x3d0d42ee	0.034487657
3	0xbc51f448	-0.012814589
4	0xbc503624	-0.012708221
5	0x3bb9f3db	0.005674822
6	0xbc3793a9	-0.0112046385
7	0xbc4a4f00	-0.012347937
8	0xbc51baf0	-0.012800917
9	0xbc1eca11	-0.009691731
10	0xbc742c78	-0.01490318
11	0xbc53a056	-0.012916645
12	0xbc53f8e1	-0.012937755
13	0xbc532fae	-0.012889786
14	0x3b9cf50b	0.0047899536
15	0xbc51d27c	-0.012806531
16	0x00000000	0.0
17	0xbc59f499	-0.0133029455
18	0xbc452442	-0.01203257
19	0xbc45c235	-0.012070228
20	0x39398242	0.000176915
21	0x3c899c1c	0.016798072
22	0xbc4e4fb3	-0.012592244
23	0x3cab6bd2	0.020925436
24	0x3b0cacd8	0.0021465328
25	0xbc5854cf	-0.013203814
26	0xbc568472	-0.013093101
27	0x3adc632b	0.0016814222
28	0xbc4e5548	-0.012593575
29	0xbc4eafde	-0.012615172
30	0xbc528375	-0.012848725
31	0xbc4d2e76	-0.012523284
