output/2020_e/train/model/stn_1.pt (torch_old, 658934 bytes, 14 tensors)

conv1.weight f4 [8, 2, 5, 5]
0	0x3df2c8ea	0.118547276
1	0x3de862a6	0.11346941
2	0xbd9b2c6e	-0.07576834
3	0xbdf3ae30	-0.11898458
4	0x3de6175c	0.11234924
5	0xbdfc5568	-0.123209774
6	0x3dbe174d	0.09281788
7	0xbe0ae464	-0.13563687
8	0xbd8fc78b	-0.07020482
9	0xbd6cca0e	-0.057809882
10	0x3e0a4878	0.13504207
11	0xbcb29b8a	-0.021802682
12	0x3dfe2f9e	0.12411426
13	0x3d30f057	0.043197956
14	0x3e0e6ae6	0.13907966
15	0x3dc43553	0.09580483
16	0x3dd9ad69	0.106287785
17	0x3e007313	0.12543897
18	0xbd226807	-0.03964999
19	0xbd16ab4c	-0.036784455
20	0x3d4364c9	0.047703538
21	0x3e01c482	0.12672618
22	0xbd4c5873	-0.04988904
23	0xbddf6776	-0.109084055
24	0xbdde3435	-0.108498015
25	0xbd8117f6	-0.06303398
26	0x3ccbc9a3	0.024876421
27	0xbc6698ee	-0.014074547
28	0xbd114eae	-0.035475425
29	0xbd85ec95	-0.06539265
30	0x3d20077a	0.03906963
31	0xbde9e00e	-0.11419688
32	0x3e10ccc7	0.14140616
33	0xbcad7684	-0.021174677
34	0x3cddd40d	0.027078653
35	0x3d48253e	0.048863642
36	0xbd58067d	-0.052740563
37	0x3de93538	0.11387104
38	0xb9b15248	-0.00033821375
39	0x3c49125b	0.012272443
40	0xbe0787ce	-0.13235399
41	0x3ca21cc2	0.019789103
42	0x3d5007c6	0.050788663
43	0x3ca74be0	0.020421922
44	0xbc5a911a	-0.013340259
45	0x3ddf530a	0.1090451
46	0x3de9a352	0.11408104
47	0x3dcc04f7	0.099618845
48	0xbcc34ecb	-0.023841282
49	0x3ccd8448	0.02508749
50	0xbdc9054f	-0.09815466
51	0xbdd795cc	-0.10526618
52	0xbcc5ce5f	-0.024146257
53	0x3c85add1	0.016318234
54	0xbda7dc14	-0.081962734
55	0xbdf0a7c0	-0.11750746
56	0x3d84fd79	0.064936586
57	0x3d562979	0.052285645
58	0xbdbe41f6	-0.09289925
59	0x3dc1ad57	0.0945689
60	0xbdd79df8	-0.10528177
61	0x3ddc4073	0.1075448
62	0x3d9b0ba2	0.07570578
63	0xbd417fdc	-0.047241077
64	0x3e0a6294	0.13514167
65	0xbda20a59	-0.0791213
66	0xbd834608	-0.06409842
67	0x3de7ff2d	0.11327968
68	0xbd12f46e	-0.035877638
69	0xbd67dd7c	-0.05660771
70	0x3cb2d50c	0.021830104
71	0xbcc0bdd4	-0.023528017
72	0x3db77a02	0.08958818
73	0x3ded8829	0.11598236
74	0x3d81dd55	0.06341044
75	0x3cf938e9	0.030422645
76	0x3d12c376	0.035830937
77	0x3b8812ed	0.0041526468
78	0x3c8c27d2	0.017108832
79	0x3b4d5591	0.003133152
80	0x3dc50f21	0.09622026
81	0x3da27e65	0.07934264
82	0xbc615f3d	-0.013755617
83	0x3d5cc83d	0.0539019
84	0x3c0740b5	0.008255173
85	0x3d4bb387	0.049731757
86	0x3dee4f77	0.116362505
87	0xbdc41904	-0.09575084
88	0x3ca8cf98	0.0206068
89	0xbced8be7	-0.028997375
90	0xbe0dcd2c	-0.13847798
91	0xbe0c6f85	-0.13714416
92	0xbc93c398	-0.018037602
93	0x3dd05457	0.101723365
94	0xbdbe1c25	-0.09282712
95	0x3d3c34c0	0.045948744
96	0x3da7972d	0.08183131
97	0xbdd21d32	-0.10259475
98	0x3d7ad43c	0.06123756
99	0x3cddf4bf	0.027094243
100	0xbe013bbd	-0.12620445
101	0xb94aeef0	-0.00019353232
102	0xbe05647d	-0.13026614
103	0x3e01288c	0.12613124
104	0x3d8cd3ef	0.068763606
105	0x3d685de4	0.056730166
106	0x3de388f4	0.11110106
107	0x3de2a2b9	0.11066193
108	0x3e125164	0.1428886
109	0x3d792d6c	0.060834333
110	0xbdcbe8d0	-0.09956515
111	0x3e091a8b	0.13389032
112	0x3d2b394c	0.04180269
113	0xbd5a16b2	-0.0532443
114	0xbd4d5b78	-0.05013606
115	0x3e0a1a0e	0.13486502
116	0x3d0b0d4a	0.03394822
117	0x3dd7aeeb	0.1053141
118	0x3c5ddc2e	0.013541264
119	0x3e0855d0	0.13313985
120	0xbdcec42e	-0.10096012
121	0x3d1468a3	0.0362326
122	0x3d148e48	0.036268502
123	0x3a682cfb	0.00088568
124	0x3e0365b8	0.12831771
125	0x3cfe9a7b	0.031079521
126	0x3c2973e0	0.010342568
127	0x3dcb2f6b	0.09921154
128	0xbc0ac399	-0.008469486
129	0xbbd2cb54	-0.00643293
130	0xbde94cc5	-0.11391596
131	0x3ae6082b	0.0017550042
132	0xbd81b056	-0.063324615
133	0x3dad361e	0.08457588
134	0x3e00bfe8	0.12573206
135	0xbe045b7d	-0.12925525
136	0xbda243e0	-0.079231024
137	0x3e0e2d22	0.13884404
138	0xbd6c32ad	-0.057665516
139	0x3e038f4f	0.12847637
140	0x3e11531d	0.14191861
141	0xbd0649ea	-0.032785334
142	0xbde4f38e	-0.11179267
143	0x3d965742	0.07340862
144	0x3d8932a5	0.06699113
145	0x3e0097dc	0.1255793
146	0x3cbd4dd2	0.023108397
147	0x3da2fde1	0.0795858
148	0xbdf2d193	-0.11856379
149	0x3cb5d461	0.022195997
150	0x3d120ac6	0.035654806
151	0x3dba5209	0.09097678
152	0xbd964432	-0.07337226
153	0xbc6e729e	-0.014553694
154	0xbda7d1cc	-0.081943125
155	0xbdbe0a96	-0.09279363
156	0x3d7ad219	0.06123552
157	0x3cc3f104	0.023918636
158	0x3d6fd391	0.058551375
159	0xba638e9c	-0.0008680613
160	0xba8cdf66	-0.001074773
161	0xbb48068e	-0.0030521485
162	0x3da15119	0.07876796
163	0xbdc38d19	-0.095483966
164	0x3d068e19	0.03285036
165	0x3da3c127	0.07995825
166	0x3dace090	0.084412694
167	0xbd861a7c	-0.0654802
168	0x3de52f37	0.11190646
169	0xbdbc299e	-0.09187625
170	0x3d9bf4c6	0.07615046
171	0x3df1d311	0.11807836
172	0x3be32b51	0.006932654
173	0x3d3b4f9d	0.045730222
174	0xbe06ba4e	-0.13157007
175	0xbd5b2eaf	-0.053511318
176	0xbd59c4a1	-0.053166036
177	0xbe0464de	-0.12929103
178	0xbce197fe	-0.027538296
179	0x3dcf3f47	0.10119491
180	0xbc356f0b	-0.011073838
181	0x3e11920e	0.14215872
182	0xbdffd569	-0.12491877
183	0x3d70e080	0.05880785
184	0x3dff7d71	0.12475098
185	0x3e0f3f91	0.13989092
186	0xbd56e41d	-0.05246364
187	0xbe005215	-0.12531312
188	0xbd4b10b0	-0.04957646
189	0x3ddbbd2c	0.10729441
190	0x3c72cac9	0.014818856
191	0x3e0ce12f	0.13757776
192	0xbdce9d34	-0.10088578
193	0xbdb073cd	-0.08615837
194	0x3d98a381	0.07453061
195	0x3d509398	0.050922006
196	0xbdb7419e	-0.08948062
197	0x3e092ba0	0.13395548
198	0xbd5591e9	-0.052141104
199	0xbdebb323	-0.11508777
200	0x3d04e2e4	0.032442942
201	0xbdb0ed2d	-0.08638988
202	0xbd9923da	-0.07477541
203	0xbdb1c5f2	-0.08680333
204	0x3cf9bfce	0.030486967
205	0x3d71ec18	0.059063047
206	0x3db34e99	0.08755226
207	0xbdb3cddc	-0.08779499
208	0xbd27da4b	-0.040979665
209	0x3dfdb7bd	0.12388561
210	0xbda3f871	-0.08006371
211	0xbd716696	-0.058935724
212	0xbd10ad82	-0.03532172
213	0xbe088e34	-0.13335496
214	0xbde6d4f5	-0.11271087
215	0x3df25878	0.1183328
216	0x3c947cb8	0.018125877
217	0x3c94e7eb	0.018176993
218	0x3d43bc16	0.047786795
219	0x3d9f38f5	0.077745356
220	0x3db2e780	0.08735561
221	0x3dbf08de	0.09327863
222	0x3d47d1c5	0.048784036
223	0x3dc93af4	0.098256975
224	0x3dac245a	0.08405371
225	0xbcf642e2	-0.03006119
226	0x3bc9df68	0.0061606653
227	0xbda60849	-0.08107049
228	0xbde94942	-0.11390926
229	0x3e011920	0.1260724
230	0xbde4c905	-0.11171154
231	0xbdc2b2a1	-0.09506727
232	0xbe133575	-0.14375861
233	0xbded7f88	-0.1159659
234	0x3cc52840	0.024067044
235	0x3d7ad0d4	0.06123431
236	0xbdfffd90	-0.12499535
237	0x3b70de12	0.0036753458
238	0xbde5ddaf	-0.112239234
239	0x3c98d982	0.018658403
240	0x3d9e8f9b	0.07742234
241	0xbd7df92d	-0.06200521
242	0xbd8f6ce0	-0.07003188
243	0x3dac3380	0.0840826
244	0xbdcb5395	-0.099280514
245	0xbd14b08c	-0.03630118
246	0xbe00c5be	-0.12575433
247	0x3dbd51d6	0.092441246
248	0x3d175ab1	0.036951724
249	0xbd83dbb5	-0.0643839
250	0x3dd3900f	0.10330211
251	0x3e0bd2df	0.1365466
252	0x3d7731da	0.060350277
253	0xbdc734d2	-0.097268716
254	0xbce77c5a	-0.028257538
255	0x3dee6fd0	0.1164242

conv1.bias f4 [8]
0	0x3d8b04cd	0.06788025
1	0xba7d8fb9	-0.00096726004
2	0xbceaf0e5	-0.02867932
3	0xbcdaf6ce	-0.026729014
4	0xbdfdf4af	-0.12400185
5	0x3dd0b9db	0.10191699
6	0x3e063f48	0.13110077
7	0xbe024f0d	-0.12725468

conv2.weight f4 [16, 8, 5, 5]
0	0xbd83e7d0	-0.06440699
1	0xbd8152b8	-0.063146055
2	0xbc07f6f4	-0.008298624
3	0x3b402d46	0.002932386
4	0xbd306960	-0.043069243
5	0x3d2cc6ab	0.042181652
6	0x3bfe5d73	0.007762605
7	0xbd05e613	-0.03269012
8	0xbd85bec5	-0.06530527
9	0x3d6e3e94	0.058165148
10	0x3d960298	0.073247135
11	0x3c1e87ae	0.009675903
12	0xbcfc03cf	-0.030763535
13	0x3d44d60c	0.048055694
14	0x3d3767d9	0.04477677
15	0xbbe62bcb	-0.0070242635
16	0x3d8e319c	0.06943056
17	0xbd494a13	-0.04914291
18	0xbba3e6f3	-0.0050018965
19	0x3d81161a	0.06303044
20	0xbd266426	-0.040622853
21	0xbc9907a5	-0.018680403
22	0xbcdcbb95	-0.026944915
23	0xbcd3b3d1	-0.02584258
24	0x3d85ebfe	0.065391526
25	0x3d3df9d5	0.046380837
26	0xbd7bd81b	-0.06148539
27	0xbd259cbf	-0.040432688
28	0x3af9e9ff	0.0019066929
29	0xbca52218	-0.020157859
30	0xbd140373	-0.036136102
31	0xbd8899f1	-0.06669987
32	0x3d612b92	0.054973193
33	0x3d2dc7ba	0.042426802
34	0x3cbf5831	0.023357483
35	0xbc569561	-0.013097138
36	0xbd869e92	-0.06573214
37	0xbad23d10	-0.0016039927
38	0x3cf4bf54	0.029876389
39	0xbc90bf70	-0.01766941
40	0x3d6f94ab	0.05849139
41	0x3c9b7a81	0.018979313
42	0xba32a78a	-0.00068151264
43	0x3cfc4efb	0.03079938
44	0x3d22af9b	0.03971825
45	0xbd48c467	-0.04901543
46	0x3cc75d9c	0.024336629
47	0xbd7ba273	-0.06143422
48	0xbc43dcfd	-0.011954543
49	0xbca42e5f	-0.020041643
50	0x3d699970	0.057031095
51	0xbd8544b1	-0.065072425
52	0x3ce6a26f	0.028153626
53	0xbd7b83fd	-0.06140517
54	0x3d09f686	0.03368237
55	0x3ca6be4e	0.020354416
56	0xbccb148d	-0.024790073
57	0x3cc3eff0	0.023918122
58	0x3d9132c8	0.07089764
59	0x3d3cbe7c	0.046080098
60	0xbd7bd400	-0.061481476
61	0xbc7a8600	-0.015290737
62	0x3d89928e	0.06717406
63	0x3c64f69a	0.01397481
64	0x3c408c0a	0.011752138
65	0x3c04989c	0.008093026
66	0xbcb2c64f	-0.021823077
67	0xbc7d5539	-0.015462213
68	0x3bfd570e	0.007731325
69	0x3d6678ef	0.056267675
70	0xbc8a338f	-0.016870288
71	0xbc7d4648	-0.015458651
72	0x3c87285f	0.016498743
73	0xbcbb1942	-0.022839192
74	0x3d848df6	0.064723894
75	0x3d6516e5	0.055930037
76	0x3bbaa25b	0.005695624
77	0xbd30239b	-0.043002706
78	0x3cb86a14	0.02251152
79	0x3d805e45	0.062679805
80	0x3cd53f53	0.026031172
81	0x3d048d11	0.032361094
82	0xbd0e2e11	-0.0347119
83	0xbd89182a	-0.06694062
84	0xbcc39308	-0.02387382
85	0x3ba3f386	0.0050033955
86	0x3d8640ad	0.06555305
87	0x3c8f3274	0.017480113
88	0xbc27ed3b	-0.010249431
89	0xbc769b8e	-0.015051736
90	0xbc30579d	-0.010763076
91	0xbd108180	-0.03527975
92	0xbcdc3127	-0.026878906
93	0x3c81d48a	0.015848417
94	0x3d4f43d7	0.050601806
95	0x3d80adae	0.06283127
96	0x3cf5b2bc	0.029992454
97	0xbd3ce61d	-0.04611789
98	0x3d8b6fff	0.06808471
99	0x3d9164af	0.07099282
100	0xbc866268	-0.016404346
101	0x3be4eee6	0.0069864867
102	0x3d8c41e9	0.06848509
103	0xbca7316c	-0.020409308
104	0x3d1b68a2	0.037941583
105	0x3c8693de	0.01642793
106	0x3d344a1e	0.044015996
107	0x3ceef764	0.0291707
108	0x3d98f36b	0.07468303
109	0x3d83f653	0.06443467
110	0xbd321d0d	-0.043484736
111	0x3d4174ca	0.04723052
112	0xbc1a0444	-0.009400431
113	0xbd04b7a7	-0.032401707
114	0x3c86dc99	0.016462611
115	0xbb9bc55e	-0.0047537526
116	0xbd292c69	-0.04130212
117	0xbd6c9062	-0.05775488
118	0xbd0e6534	-0.034764484
119	0x3c43f1d5	0.011959513
120	0x3d450214	0.048097685
121	0x3d3eeaec	0.046610758
122	0x3cc1f87f	0.023678062
123	0x3d93182b	0.07182344
124	0xbd647d84	-0.055783764
125	0xbd2981ab	-0.041383427
126	0x3d096a17	0.03354844
127	0xbd7b266e	-0.061315946
128	0x3d8ee1c0	0.06976652
129	0x3c51f365	0.012814377
130	0xbcbc02f7	-0.022950632
131	0x3d878e18	0.06618899
132	0x3d13a5b4	0.0360467
133	0x3d8014ea	0.06253989
134	0x3d66bf1a	0.056334592
135	0xbc16c4f0	-0.009202227
136	0x3d89c6d0	0.067273736
137	0x3c4b4107	0.01240564
138	0x3c2261c0	0.009911001
139	0x3ce25878	0.027630076
140	0xbd56020f	-0.052248057
141	0xbd208c83	-0.039196502
142	0x3d8f4cb1	0.069970496
143	0xbd31076b	-0.043219965
144	0x3d2902ed	0.041262556
145	0x3d3bd64b	0.045858663
146	0xbd5e7310	-0.05430895
147	0xbba51bc6	-0.0050387112
148	0x3b164458	0.002292892
149	0x3d6361cc	0.05551319
150	0xbc84cd1d	-0.016211087
151	0x3d893816	0.06700151
152	0xbd663601	-0.056203846
153	0x3d05d0c5	0.0326698
154	0x3d2af2a2	0.0417353
155	0xbcb6fdf4	-0.022337891
156	0xbca4da16	-0.020123523
157	0xbd2ba98f	-0.04190975
158	0x3cb35545	0.021891246
159	0x3cdbb9e1	0.026822032
160	0xbcb1e3a4	-0.021714993
161	0x3d770b21	0.060313348
162	0xbbfc7b1d	-0.007705106
163	0xbc011ff0	-0.00788115
164	0x3d6f082f	0.058357414
165	0x3c7e9557	0.015538535
166	0x3d27decf	0.04098397
167	0x3d3789b6	0.044809066
168	0xbd30b6dc	-0.04314314
169	0x3b13008a	0.0022430741
170	0x3d865e7b	0.065609895
171	0xbd263dcf	-0.04058629
172	0x3c4afaeb	0.012388925
173	0x3d64043a	0.055668093
174	0x3c337098	0.010952137
175	0xbc4c75c1	-0.012479247
176	0x3ced1acc	0.028943442
177	0xbd61def0	-0.05514425
178	0x3d7bb135	0.061448295
179	0x3d7159c5	0.0589235
180	0xbc86ec7f	-0.016470192
181	0xbcb6494f	-0.022251753
182	0xbc2c6284	-0.010521535
183	0x3d96e3d5	0.07367674
184	0xbcc2e9dd	-0.023793155
185	0x3cc87b9a	0.024473
186	0xbd82c018	-0.06384295
187	0x3cc9e994	0.024647512
188	0x3d3ce75e	0.046119086
189	0x3cd6a075	0.026199559
190	0xb8a33dc8	-7.783953e-05
191	0x3c0a211b	0.0084307445
192	0x3d840e54	0.064480454
193	0x3d0b18f5	0.033959348
194	0xbc55f761	-0.013059468
195	0xbd5b26c0	-0.05350375
196	0x3d608580	0.054814816
197	0xbcbd0024	-0.023071356
198	0x3d41bdbd	0.04730009
199	0xbc333ff4	-0.010940541
200	0x3b2202bd	0.002472087
201	0xbd5cae7e	-0.053877346
202	0xbccc5b14	-0.024945773
203	0x3c004399	0.007828617
204	0xbd8814d2	-0.06644596
205	0xbc57a70b	-0.013162385
206	0x3d2fa30b	0.0428801
207	0x3d538923	0.051644456
208	0x3d5d781f	0.054069635
209	0xbca11e77	-0.019667847
210	0x3bede427	0.007259864
211	0xbd60fdcd	-0.054929543
212	0x3d1df666	0.038565062
213	0x3c6dc348	0.014511891
214	0x3d7a5409	0.0611153
215	0xbc171714	-0.009221811
216	0x3d8e5e86	0.06951623
217	0x3d178e12	0.037000723
218	0x3d7f5622	0.062338002
219	0xbb2e34ca	-0.0026581758
220	0xbd5d6913	-0.054055285
221	0xbd5b2c64	-0.05350913
222	0xbd846bc6	-0.06465869
223	0x3c616905	0.013757949
224	0xbd581127	-0.052750733
225	0xbcadfe6d	-0.021239484
226	0x3d1a0416	0.037601553
227	0x3d86e2be	0.065862164
228	0xbc82dd8d	-0.015974784
229	0x3d4ff5f8	0.050771683
230	0xbb628acc	-0.0034567593
231	0xbc4d261d	-0.012521294
232	0xbbdc320f	-0.0067198346
233	0xbcf7cb22	-0.030248228
234	0x3cad8d67	0.02118559
235	0x3ad01309	0.0015874814
236	0xbd06234d	-0.03274851
237	0x3d3f2463	0.04666556
238	0xbcf37cb8	-0.029722556
239	0xbd3c62e9	-0.045992766
240	0x3cda3cdd	0.02664035
241	0xbb274f3a	-0.00255294
242	0xbd186eba	-0.037214972
243	0xbd649229	-0.05580345
244	0xbc9d4fce	-0.019203093
245	0xbd551cd9	-0.052029464
246	0x3d24f974	0.04027696
247	0xbbe80c45	-0.0070815408
248	0x3d1d1549	0.038350377
249	0x3d1558e1	0.036461715
250	0x3b95556b	0.0045573018
251	0xbc132034	-0.008979846
252	0xbd0d9fd2	-0.034576245
253	0x3c913362	0.017724697
254	0xbd747290	-0.059679568
255	0xbd120c6d	-0.03565638

conv2.bias f4 [16]
0	0xbd1c22d9	-0.03811917
1	0x3cbdba1a	0.02316003
2	0x3d6d429c	0.05792485
3	0x3c41b56b	0.011823039
4	0x3cf6877d	0.030093903
5	0xbd60a351	-0.05484325
6	0xbd6da435	-0.05801793
7	0xbd209675	-0.039205987
8	0xbd4b9287	-0.049700286
9	0xbcdfb4ec	-0.02730795
10	0xbd4a2f7c	-0.04936169
11	0xbcb93c41	-0.02261174
12	0xbd266cbc	-0.04063104
13	0x3cc62280	0.024186373
14	0x3ba6d45c	0.005091233
15	0xbb3e510d	-0.002904001

conv3.weight f4 [32, 16, 5, 5]
0	0x3cc7228c	0.024308465
1	0xbd2c1e4d	-0.042021085
2	0xbc87d737	-0.016582115
3	0x3ab06986	0.0013459183
4	0xbd32da66	-0.043665312
5	0x3cf2d126	0.029640745
6	0xbd0d9f95	-0.034576017
7	0x3d1681e8	0.036744982
8	0x3d570b8b	0.052501243
9	0x3c5a7f03	0.013335946
10	0xbcae5580	-0.021281004
11	0x3d1c9ed5	0.03823741
12	0xbcf4cf82	-0.029884104
13	0x3baf7032	0.005353951
14	0x3d0cc8eb	0.034371298
15	0x3d4c9c76	0.0499539
16	0x3bd9335a	0.006628436
17	0xba6cb828	-0.0009030127
18	0xbab2a226	-0.0013628646
19	0xbd3a2f87	-0.04545548
20	0x3c44db8e	0.012015237
21	0xbd161dad	-0.036649395
22	0x3bf440d6	0.007454018
23	0xbc112988	-0.0088599995
24	0x3d0ec747	0.034858014
25	0xbc91f7d7	-0.017818375
26	0x3d1a7712	0.03771121
27	0xbc22e052	-0.009941177
28	0xbbf2b6e8	-0.007407058
29	0xbd3162bf	-0.043307062
30	0x3d3aa40c	0.045566604
31	0x3bd2ae05	0.006429436
32	0xbd30e98c	-0.043191478
33	0x3ba65eb3	0.005077207
34	0x3cbaa0c3	0.022781735
35	0xbc0b458a	-0.008500466
36	0x3d2f1b2f	0.042750534
37	0x3cc951a3	0.02457506
38	0xbb8d01b0	-0.0043031797
39	0x3d563a6c	0.05230181
40	0x3d18b794	0.03728445
41	0xbb8d3d4c	-0.0043102857
42	0xbb95ce7d	-0.0045717345
43	0x3c8c8984	0.017155416
44	0xbc79d3ae	-0.015248222
45	0x3d06ab6d	0.032878328
46	0xbd3cf29a	-0.0461298
47	0xbcdb86a1	-0.026797595
48	0x3cca7c4f	0.024717478
49	0xbd3bacc5	-0.045819063
50	0xbc6567c1	-0.014001788
51	0xbcc63a17	-0.024197621
52	0x3cf22140	0.02955687
53	0x3ba6adf5	0.0050866553
54	0xbd071b9a	-0.032985307
55	0x3d2f4050	0.042785943
56	0xbca743c8	-0.020418063
57	0xbb4a688d	-0.003088507
58	0x3c9f5e4f	0.01945415
59	0xbcfc701f	-0.030815182
60	0xbb0b39ac	-0.0021244092
61	0xbc6cc4c2	-0.014451208
62	0xbc1af90f	-0.009458794
63	0xbc7e474b	-0.015519927
64	0x3d0da60e	0.03458219
65	0xbcb46239	-0.022019492
66	0xbd003232	-0.03129787
67	0x3cc4a043	0.0240022
68	0x3c9a53cb	0.018838784
69	0x3b4eebb1	0.0031573588
70	0x3bdcc3fe	0.0067372313
71	0x3d536784	0.051612392
72	0xbc6a5548	-0.014302559
73	0xbd2bf60f	-0.041982707
74	0xbd3ec7cb	-0.046577256
75	0x3c962f00	0.018332958
76	0x3cc94c0b	0.024572393
77	0x3bc57722	0.0060261646
78	0xbd16c87e	-0.036812298
79	0xbd0cc81e	-0.034370534
80	0xbce8834c	-0.02838292
81	0x3d1a70b8	0.037705153
82	0x3c7a4bd9	0.015276873
83	0xbcbac91f	-0.02280098
84	0xbd2dee96	-0.04246386
85	0x3d0b9bae	0.034084015
86	0x3bca0400	0.0061650276
87	0x3d61ec8b	0.055157226
88	0xbd12a4d0	-0.03580171
89	0xbd125c84	-0.03573276
90	0x3c7022a8	0.0146567
91	0x3d2279e7	0.039667036
92	0x3d1ee48a	0.03879217
93	0x3d6249b1	0.05524606
94	0x3d175c5e	0.036953323
95	0x3cea43cb	0.02859678
96	0xbcc64b61	-0.024205865
97	0x3d6191bf	0.055070635
98	0xbc86b793	-0.016444957
99	0x3d190445	0.037357587
100	0x3cbeb13b	0.02327787
101	0xbcdc6d9c	-0.026907735
102	0xbaeec423	-0.0018216412
103	0xbac9b1bc	-0.0015388052
104	0x3d258148	0.040406495
105	0x3d27c543	0.040959608
106	0x3c5bc6c5	0.01341409
107	0xbcd3567c	-0.025798075
108	0x3c89ac16	0.01680569
109	0x3d328485	0.04358341
110	0xbcc2939d	-0.023752028
111	0x3d2f4c35	0.042797286
112	0x3c648aa8	0.013949074
113	0x3cf7954f	0.030222563
114	0x3ca1df7d	0.019759888
115	0x3d0cbed2	0.034361668
116	0xbd22d4a7	-0.039753582
117	0x3cbf7d67	0.023375226
118	0xbd26d90a	-0.04073433
119	0xba4288ec	-0.00074209156
120	0x3d2bbc89	0.041927848
121	0xbd1c6697	-0.038183775
122	0xbd105ef0	-0.03524679
123	0xbc9d47fd	-0.019199366
124	0x3b9815d3	0.0046412735
125	0xbb7de3db	-0.0038740549
126	0xbd146d60	-0.03623712
127	0x3c1a681b	0.009424235
128	0xbc1de8fc	-0.009638067
129	0xbca6d084	-0.0203631
130	0x3b69dfd9	0.0035686402
131	0x3ca361b9	0.019944059
132	0x3c32c816	0.010911962
133	0xbcf7f5b0	-0.03026852
134	0x3d1700bf	0.036865946
135	0x3c4c05f3	0.01245259
136	0xbc8f8f34	-0.01752434
137	0x3d3d0e67	0.046156313
138	0x3c53a762	0.012918325
139	0x3ced23e6	0.028947782
140	0x3d1d36d2	0.03838236
141	0x3b08a84d	0.0020852268
142	0x3d34aea0	0.044111848
143	0x3b2b467a	0.0026134537
144	0x3d2fe068	0.04293862
145	0x3c157aad	0.0091234865
146	0x3cd5482c	0.02603539
147	0x3ce6a29b	0.028153708
148	0xbccb5404	-0.024820335
149	0x3d3f19ed	0.046655584
150	0x3c02f3db	0.00799271
151	0x3cccad53	0.024984991
152	0xbcf8457e	-0.030306574
153	0xbc41a5bd	-0.0118193
154	0x3d2165a7	0.039403584
155	0xbccd2768	-0.025043204
156	0x3c601a4c	0.013678145
157	0x3d4f8e81	0.05067301
158	0xbd2656ad	-0.040610004
159	0x3bcc0b3a	0.0062269242
160	0x3c6f897a	0.014620179
161	0x3d21e4a1	0.03952468
162	0xbc24381f	-0.010023146
163	0xbd2c3354	-0.042041138
164	0xbcc60e81	-0.024176838
165	0x3cb1ad9f	0.021689234
166	0xbcf517c3	-0.029918557
167	0xbd12f93e	-0.035882227
168	0x3bbcc6ee	0.005761019
169	0x3ca50628	0.020144537
170	0xbcc9d5e1	-0.024638118
171	0xbc4d3020	-0.012523681
172	0x3d0c45c7	0.034246232
173	0xbcdbc93f	-0.02682936
174	0xbd0bcb51	-0.034129445
175	0xbc6374c4	-0.01388282
176	0x3d2f8fca	0.042861737
177	0xbc44aa52	-0.012003498
178	0xbd003e4e	-0.03130942
179	0xbd069972	-0.03286118
180	0xbc146450	-0.0090571195
181	0x3d1c4e86	0.038160823
182	0x3cafa2ba	0.021439899
183	0xbc679d96	-0.0141366925
184	0xbd2720d5	-0.040802795
185	0xbce29968	-0.02766104
186	0x3c584070	0.013198957
187	0x3d370b53	0.044688534
188	0x3ce7c6ae	0.02829298
189	0xbb7c5fdd	-0.0038509287
190	0x3cef3b45	0.029203067
191	0x3bcd04e3	0.006256686
192	0x3c1bdd14	0.009513158
193	0x3cd3c7c5	0.025852093
194	0xbc200ce5	-0.009768699
195	0x3c8d8036	0.01727305
196	0x3be97f1e	0.0071257493
197	0x3c92b27e	0.017907377
198	0xbc04e309	-0.00811077
199	0x3d0eee31	0.034895126
200	0xbd2efd06	-0.04272177
201	0x3d14b635	0.03630658
202	0xbd1822ec	-0.03714268
203	0xbcf48cf8	-0.029852375
204	0xbcd34392	-0.025789056
205	0xb99693d5	-0.00028720373
206	0xbb2ee552	-0.0026686979
207	0xbd3309f7	-0.043710675
208	0x3cf0c484	0.029390581
209	0x3c912bb4	0.017721035
210	0x3d5491d9	0.051896904
211	0xbd06f3ea	-0.03294746
212	0xbd0c0eff	-0.03419399
213	0x3c85ba05	0.016324053
214	0x3d331286	0.043718837
215	0x3d1401dd	0.03613459
216	0x3cb1a068	0.021682933
217	0x3c72f73d	0.014829454
218	0x3cf2d0ef	0.029640643
219	0xbc788289	-0.015167841
220	0xbd40a90d	-0.04703622
221	0xbd209332	-0.039202876
222	0xbcce49ac	-0.025181614
223	0x3c6bc87d	0.014391062
224	0x3d44617c	0.04794453
225	0x3d11677c	0.03549908
226	0xbcf12beb	-0.029439887
227	0x3c8c2875	0.017109135
228	0x3d421de8	0.047391802
229	0x3b909d8e	0.004413313
230	0xbbc7ce44	-0.006097587
231	0xbcc3e1c9	-0.023911374
232	0xb9fd0991	-0.00048263048
233	0x3d270111	0.0407725
234	0xbc334136	-0.0109408405
235	0xbb8e4daa	-0.0043427544
236	0x3ce0a410	0.027421981
237	0xbc835266	-0.016030502
238	0xbca3a7ec	-0.019977532
239	0x3c3e3160	0.011608452
240	0x3d216f82	0.039412983
241	0x3c0b5af4	0.008505572
242	0x3a93c78f	0.0011274683
243	0xbd15f09c	-0.036606416
244	0x3d073535	0.033009727
245	0x3bb4d419	0.005518448
246	0xbc9a076b	-0.018802365
247	0xbd272a53	-0.040811848
248	0xbca89554	-0.020579018
249	0xbd02eeed	-0.03196614
250	0x3c88e769	0.016711907
251	0x3d3071c9	0.043077264
252	0xbb70ecb5	-0.0036762182
253	0x3d15a971	0.036538545
254	0xbb963148	-0.0045835115
255	0xbc8cec58	-0.017202541

conv3.bias f4 [32]
0	0xbc9d599c	-0.019207768
1	0xbc52886a	-0.012849906
2	0xbd235e3b	-0.039884787
3	0xbcbee9f9	-0.023304926
4	0x3b98dc5e	0.0046649417
5	0xbcc31c7b	-0.023817291
6	0xbbdb0d25	-0.0066849166
7	0xbce38fdd	-0.02777856
8	0x3c56d876	0.013113132
9	0x3cb85e61	0.02250594
10	0xbd0babc2	-0.034099348
11	0xbc8cb609	-0.017176645
12	0xbb5d7e78	-0.0033797305
13	0xbccac8e0	-0.024753988
14	0xbc9a988d	-0.01887157
15	0x3ceea86b	0.029133042
16	0xbb65cf02	-0.0035066013
17	0x3cb7cc00	0.022436142
18	0x3baa78f4	0.005202407
19	0xbad8db70	-0.001654489
20	0xbcf94a4c	-0.030430935
21	0x3bd6df92	0.0065574134
22	0x3d4ec2d7	0.050478783
23	0x3d524af4	0.051341012
24	0x3d16e0c5	0.03683545
25	0xbc320816	-0.010866186
26	0x3b911b1d	0.004428281
27	0x3d3bde8a	0.045866527
28	0xbbd77ddd	-0.0065762834
29	0x3c8ba5c7	0.017046822
30	0x3c1450f6	0.009052506
31	0x3d18574e	0.037192635

fc.weight f4 [32, 4608]
0	0xbbe6170d	-0.007021791
1	0x3b7fca39	0.0039030446
2	0xbc4cb04a	-0.012493202
3	0xba96b143	-0.001149692
4	0x3c2fc3e5	0.010727857
5	0x3bbc5b96	0.0057482226
6	0x3c900ce6	0.017584275
7	0xbbeb386b	-0.0071783564
8	0x3c198bfe	0.009371756
9	0x3ae32c76	0.0017331976
10	0x3c821f08	0.015883937
11	0x3c6997eb	0.0142574115
12	0x3c5f412e	0.01362638
13	0xbc0defa5	-0.008663093
14	0x3c85e8f2	0.016346429
15	0xbbd8dd95	-0.0066182115
16	0xbb78f4b6	-0.0037987656
17	0x3c396e4a	0.011317799
18	0x3b2ff402	0.002684832
19	0x3c1fa04f	0.00974281
20	0x3c7ae913	0.015314358
21	0x3a873beb	0.001031754
22	0x3be886cd	0.0070961476
23	0x3b34c68c	0.0027584163
24	0x3c3f212f	0.011665626
25	0x3c20cc08	0.00981427
26	0x3b682088	0.003541978
27	0xbbff1c13	-0.007785329
28	0x3bf72fed	0.007543555
29	0x3c42ca10	0.011888996
30	0x3b8300b6	0.0039978875
31	0x3c1f71db	0.009731735
32	0x3be119b5	0.0068695196
33	0xbb8b22d4	-0.004246095
34	0xbb8c3194	-0.004278371
35	0x3a431a6e	0.0007442598
36	0xbc236395	-0.009972473
37	0x3b319786	0.0027098372
38	0xba2b6b06	-0.000653908
39	0xbc194063	-0.00935373
40	0x3b9bcb96	0.004754494
41	0x3bbe4c97	0.00580747
42	0x3c10df4f	0.008842303
43	0x3b2824f6	0.0025656796
44	0xbb09766c	-0.0020975126
45	0x3a3492f2	0.00068883516
46	0xbc05fb8a	-0.008177647
47	0x3b79e0c9	0.0038128367
48	0x3c3e3054	0.011608202
49	0x3b6d6673	0.0036224395
50	0x3b904c55	0.0044036307
51	0x3c7b4aa7	0.015337623
52	0x3c74e9d3	0.014948326
53	0x3c86fb8f	0.016477374
54	0x3c785253	0.015156346
55	0x3c34bce0	0.011031359
56	0x3b33ab50	0.0027415343
57	0xbc3503b4	-0.011048246
58	0x3ba9d8a6	0.005183297
59	0x3c42fb57	0.011900744
60	0x3b9ef8bd	0.0048514293
61	0x3c3aad74	0.0113938935
62	0xbc077b68	-0.008269168
63	0x3b2035aa	0.0024446049
64	0x3c8dc84d	0.017307425
65	0xbc2dccc3	-0.010607901
66	0x3a496703	0.00076828914
67	0x3c1b013e	0.009460745
68	0xbc38a97a	-0.011270875
69	0xbb4817ad	-0.003053169
70	0xbb4dac0d	-0.0031383068
71	0x3c5e80cc	0.013580512
72	0x3b24027e	0.00250259
73	0x3b8b792f	0.0042563896
74	0x3c755dfd	0.014976022
75	0x3bcfa68b	0.006336992
76	0xbb04f2ec	-0.0020286394
77	0x3c25e7ba	0.010126049
78	0xbb58bdf6	-0.003307221
79	0x3c82382d	0.015895927
80	0xbaba5c60	-0.0014218204
81	0x3c836400	0.016038895
82	0xba95601a	-0.0011396438
83	0x3c444989	0.011980423
84	0x3c9299c1	0.017895581
85	0xbac405e3	-0.0014955368
86	0x3b03f1d8	0.0020133164
87	0xbb840f9e	-0.004030182
88	0x3c2ca733	0.01053791
89	0xbb0de209	-0.002164962
90	0x3c63a5b6	0.013894489
91	0xbbd1a65d	-0.006398006
92	0xbae4e47c	-0.0017463113
93	0xb9207b7a	-0.00015304788
94	0x3c7c53fe	0.015400885
95	0x3c3f27ec	0.011667233
96	0x3b5a3edd	0.003330163
97	0x3c368a8a	0.011141429
98	0xbc1cccf2	-0.009570347
99	0x3b0a6bb0	0.0021121316
100	0x3c862e82	0.016379599
101	0xb9af9a47	-0.00033493547
102	0xbba9a2f0	-0.0051768944
103	0xbb7945b1	-0.0038035924
104	0x3c75766a	0.014981845
105	0x3bb21762	0.0054349164
106	0x3be72282	0.007053674
107	0xbb6b49f7	-0.003590224
108	0x3c2b4804	0.010454182
109	0x3b34e651	0.00276031
110	0x3c8f5cf3	0.017500376
111	0x3c4a80f3	0.012359845
112	0xbc1c96b2	-0.009557413
113	0x3c7a951a	0.015294338
114	0xbbe5cdc3	-0.007013054
115	0xbaf1e4bb	-0.0018455008
116	0x3bb5993b	0.005541948
117	0xbc0be59b	-0.008538629
118	0x3afa0182	0.0019073936
119	0xbbc8e266	-0.0061305044
120	0xba675528	-0.000882464
121	0x3a1a7c6f	0.0005893176
122	0xb996977e	-0.000287231
123	0x3bfff7f6	0.0078115417
124	0xba5f6332	-0.0008521556
125	0x3baf5f5b	0.0053519434
126	0x3b4bf7f4	0.0031123133
127	0xbac06707	-0.0014679142
128	0xbc2863ee	-0.010277731
129	0x3c219de3	0.009864303
130	0xbc3c67d6	-0.011499366
131	0x3aa055ba	0.001223258
132	0x3c20cce4	0.009814475
133	0x3c6c103f	0.01440817
134	0xbbd02488	-0.006352011
135	0x3c75a76d	0.014993531
136	0xbb8d9c7b	-0.0043216324
137	0xbb949d41	-0.0045353477
138	0x3bd981af	0.006637774
139	0xbaa0ccb3	-0.0012268036
140	0xbba264fd	-0.0049558864
141	0x3bf406e5	0.007447111
142	0x3c458735	0.012056162
143	0x3beaabd6	0.0071615977
144	0x3bc77580	0.006087005
145	0x3c103513	0.008801716
146	0x3c50620c	0.012718689
147	0xbb94d521	-0.0045420085
148	0x3c80356a	0.01565047
149	0x3c0ab770	0.0084665865
150	0x3c6b5087	0.014362461
151	0xbc2340ae	-0.009964151
152	0x3bf2b287	0.007406536
153	0x3b1a7e81	0.0023573937
154	0x3afc7c8e	0.0019263194
155	0xbc17e53e	-0.009270964
156	0x38f5a540	0.000117132906
157	0xbaf957b2	-0.0019023328
158	0xbb688de4	-0.0035484964
159	0x3c77b91c	0.015119817
160	0xbc16f0b0	-0.009212658
161	0x3bae5662	0.005320356
162	0x3c248b26	0.010042941
163	0x3bc80267	0.006103802
164	0x3c5cfd8a	0.013488183
165	0x3ba6004f	0.0050659548
166	0x3c403350	0.011730984
167	0x3c1179ba	0.0088791195
168	0xbbf6c92b	-0.0075313053
169	0xbc2c1fdc	-0.010505643
170	0xbb99ef73	-0.004697734
171	0xbba2a2ca	-0.0049632536
172	0xbbefbcb8	-0.007316198
173	0x3bdc1e78	0.0067174993
174	0xbc059be1	-0.00815484
175	0xbbf55380	-0.0074867606
176	0xbaea14e6	-0.0017859011
177	0xbc274e36	-0.010211518
178	0xbbbcc43d	-0.005760698
179	0xb9651766	-0.00021847858
180	0x3b7cd77e	0.0038580592
181	0x3c179e1c	0.009254005
182	0x3c86e11e	0.016464766
183	0x3a1d90cc	0.0006010651
184	0xbbaa83c3	-0.0052036955
185	0xbbbc45a7	-0.005745608
186	0xbbe9378e	-0.0071172183
187	0x3c53f2f0	0.012936339
188	0x3c862556	0.016375225
189	0x3bef69b6	0.007306303
190	0x3beb012d	0.007171771
191	0x3c08c089	0.008346685
192	0x3c614c19	0.013751053
193	0x3c4085a3	0.0117506115
194	0x3c57d507	0.013173348
195	0x3c07c4af	0.008286639
196	0x3ba947e0	0.005166039
197	0xb9fc81de	-0.00048161944
198	0x3c50701d	0.012722042
199	0x3bfc47ac	0.0076989736
200	0x3c4b2afd	0.012400386
201	0x3c902347	0.017594947
202	0x3c6cfad0	0.014464095
203	0x3c8caf24	0.017173357
204	0x3c810bf0	0.015752763
205	0x392ea214	0.00016654312
206	0xbb187e75	-0.0023268734
207	0x3bcf5c27	0.006328124
208	0x3c4ce1af	0.012504979
209	0xbc11b78a	-0.008893857
210	0x3c021b3b	0.007941063
211	0x3c250485	0.010071878
212	0xbb80a48a	-0.0039258646
213	0xbb810468	-0.003937293
214	0xbb5b7b15	-0.003349011
215	0x3c930563	0.017946905
216	0x3b90b5a8	0.0044161864
217	0xbb907b4d	-0.00440923
218	0x3c2c7cac	0.010527771
219	0xbbdb575e	-0.0066937646
220	0xbc31dd2e	-0.010855956
221	0x3c54d53b	0.012990291
222	0x3b63ca20	0.0034757927
223	0x3b95dce9	0.0045734537
224	0x3c3f9b28	0.011694707
225	0x3acbf8eb	0.0015561854
226	0x3b104fab	0.0022020142
227	0x3a75961a	0.0009368375
228	0x3c53e0c0	0.012932003
229	0x3a808568	0.0009805383
230	0x3b91fe84	0.0044553895
231	0xbbd08389	-0.0063633365
232	0xbb475a30	-0.0030418746
233	0xbc16a531	-0.009194658
234	0x3c5e59e1	0.0135712335
235	0x3c82c004	0.0159607
236	0x3c1b349a	0.00947299
237	0x3c13b346	0.00901491
238	0xbb531fa6	-0.003221491
239	0x3c08fc4b	0.008360933
240	0x3c357ffd	0.011077878
241	0x3c9014e7	0.017588092
242	0xbc0a6a95	-0.008448263
243	0xbbab73a5	-0.0052322918
244	0xbb7aeed4	-0.0038289325
245	0x3c76db30	0.015066907
246	0x3b4ab08e	0.0030927989
247	0x3c7b4216	0.01533558
248	0xbae6c4e6	-0.0017606288
249	0x3abae8c7	0.0014260047
250	0x3bc47ada	0.0059960904
251	0xba4882ae	-0.00076488673
252	0x3c76db1f	0.015066891
253	0x3c653ec2	0.013992013
254	0xbc0c9884	-0.008581284
255	0xbb502004	-0.0031757364

fc.bias f4 [32]
0	0xbb01605b	-0.001974127
1	0x3c916e41	0.017752768
2	0xbb36eda8	-0.002791265
3	0xba0951a8	-0.0005238303
4	0x3c6026a2	0.013681086
5	0x3b307d3c	0.0026930114
6	0xbc1fac41	-0.009745658
7	0x3c6a5898	0.014303349
8	0xbbe744c8	-0.00705776
9	0xbbaa765a	-0.005202097
10	0xba8cbeb9	-0.0010737992
11	0x3c3a4098	0.011367939
12	0xbb2f7d4b	-0.0026777561
13	0x3caa78d6	0.020809572
14	0xbc52c7dd	-0.012865034
15	0x3c69197c	0.014227267
16	0xbb0d5774	-0.0021567019
17	0xbb68b142	-0.0035506045
18	0x3c6f1013	0.014591235
19	0x3c5536d3	0.013013559
20	0x3c38bd21	0.011275561
21	0xbc5b3b86	-0.013380891
22	0x3b253f2e	0.002521466
23	0x3b0566b4	0.0020355405
24	0xbaa9fc40	-0.0012968853
25	0x3c1143a7	0.008866227
26	0x3c21c014	0.009872455
27	0xbc26cb7d	-0.010180351
28	0x3c89068f	0.01672676
29	0x3ca28dc9	0.019842999
30	0x3bdead70	0.0067955777
31	0x3c9be2cb	0.019029042

translation.weight f4 [2, 32]
0	0xbaf30972	-0.0018542244
1	0xba8fd161	-0.0010972434
2	0x00000000	0.0
3	0xbadaae2a	-0.0016683985
4	0xbac82d76	-0.0015272337
5	0xbb8ebfc5	-0.004356357
6	0xbb101d42	-0.0021990095
7	0xba86a359	-0.001027207
8	0xbafa0b3c	-0.0019076834
9	0xbaab576a	-0.0013072316
10	0x3b0a752b	0.0021126966
11	0xbab991ec	-0.0014157868
12	0xbb05d273	-0.0020419627
13	0xbab01c7c	-0.0013436223
14	0x00000000	0.0
15	0xbab3643c	-0.0013686488
16	0x00000000	0.0
17	0xbb957eeb	-0.004562249
18	0xbab61d8d	-0.0013894305
19	0xba955410	-0.001139285
20	0x00000000	0.0
21	0x00000000	0.0
22	0xbadac2f0	-0.0016690176
23	0x00000000	0.0
24	0x00000000	0.0
25	0xbaf0c0cd	-0.0018368006
26	0xba806b20	-0.0009797551
27	0x3adac85e	0.0016691794
28	0xba8185bf	-0.0009881778
29	0xbaa43566	-0.0012528121
30	0xbb240fc5	-0.0025033813
31	0xba9d4c28	-0.0012000846
32	0xba0d0e2c	-0.0005380835
33	0xb90a77f0	-0.00013205386
34	0x00000000	0.0
35	0xba26c729	-0.00063620746
36	0xba2ea476	-0.000666208
37	0xbb8ebaa2	-0.0043557445
38	0x3b094688	0.002094658
39	0xba32e83b	-0.0006824766
40	0xba068cf8	-0.00051327003
41	0x3b41106c	0.002945925
42	0x3b118612	0.0022205156
43	0xba36e294	-0.0006976512
44	0xb9ae20e4	-0.00033212372
45	0xba226269	-0.0006194474
46	0x00000000	0.0
47	0xba59a659	-0.0008302681
48	0x00000000	0.0
49	0xb9b80e82	-0.00035106024
50	0xb9e025aa	-0.0004275267
51	0xba187a11	-0.0005816529
52	0x00000000	0.0
53	0x00000000	0.0
54	0xba4ccc7e	-0.0007812454
55	0x00000000	0.0
56	0x00000000	0.0
57	0xba0583b0	-0.00050931703
58	0xb9eba6c0	-0.0004494693
59	0xbbbfa342	-0.0058483193
60	0xb9d0b0ca	-0.0003980457
61	0xba49a7ef	-0.00076925656
62	0xb9decbc0	-0.00042494945
63	0xba3509f3	-0.00069060846

translation.bias f4 [2]
0	0xba5a2a94	-0.00083223847
1	0xbbc92000	-0.006137848

rotation.weight f4 [1, 32]
0	0xbbd1baaa	-0.006400426
1	0xbbc1dada	-0.0059159817
2	0x00000000	0.0
3	0xbbd43b9d	-0.006476833
4	0xbbd48860	-0.0064859837
5	0xbb8ec156	-0.0043565435
6	0xbb552734	-0.0032524588
7	0xbbd53331	-0.0065063466
8	0xbbcf2393	-0.0063213794
9	0xbadc55d6	-0.0016810249
10	0x39a67b10	0.00031753676
11	0xbbd65d5a	-0.00654189
12	0xbbc6e506	-0.006069782
13	0xbbd36525	-0.0064512664
14	0x00000000	0.0
15	0xbbdc6ed3	-0.0067270785
16	0x00000000	0.0
17	0xbbc89805	-0.0061216378
18	0xbbcc99bd	-0.006243913
19	0xbbd1529f	-0.006388023
20	0x00000000	0.0
21	0x00000000	0.0
22	0xbbdabcf3	-0.0066753565
23	0x00000000	0.0
24	0x00000000	0.0
25	0xbbcc5c22	-0.006236569
26	0xbbcb8871	-0.0062113334
27	0xbb120e3e	-0.002228632
28	0xbbcc06fa	-0.0062264176
29	0xbbda9fab	-0.006671866
30	0xbbcc7f47	-0.0062407586
31	0xbbd6ddd9	-0.006557208

scaling.weight f4 [2, 32]
0	0x3aeb11a0	0.001793433
1	0x3a98491a	0.0011618466
2	0x00000000	0.0
3	0x3aec3104	0.0018019979
4	0x3ae50be6	0.001747486
5	0xbb8ebd4d	-0.0043560625
6	0xbb31c436	-0.0027125007
7	0x3af64b52	0.0018790758
8	0x3ae93f5f	0.0017795375
9	0xbb2af79a	-0.0026087523
10	0xbaa1bd4e	-0.0012339742
11	0x3af9a338	0.0019045835
12	0x3ac609af	0.0015109087
13	0x3ae7ce5b	0.00176854
14	0x00000000	0.0
15	0x3b08ce7f	0.0020875034
16	0x00000000	0.0
17	0x3acb3e72	0.0015506281
18	0x3ab83098	0.0014052568
19	0x3ad51a1e	0.0016258394
20	0x00000000	0.0
21	0x00000000	0.0
22	0x3b07072a	0.0020603635
23	0x00000000	0.0
24	0x00000000	0.0
25	0x3af4c211	0.0018673559
26	0x3abe0224	0.0014496488
27	0x3bbb34ff	0.0057131047
28	0x3abd63e9	0.0014449331
29	0x3b014359	0.001972398
30	0x3ada248f	0.0016642975
31	0x3aeaa1be	0.0017900986
32	0x3a4c69a1	0.00077977224
33	0x39f6b0aa	0.000470524
34	0x00000000	0.0
35	0x3a70ffe3	0.00091934035
36	0x3a7a4744	0.00095473626
37	0x3b8eb989	0.0043556136
38	0xbae74972	-0.001764579
39	0x3a8208b6	0.0009920809
40	0x3a52ef12	0.00080464885
41	0xbb27d416	-0.002560859
42	0xba8f7279	-0.001094415
43	0x3a8386a2	0.001003463
44	0xbac9b204	-0.0015388136
45	0x3a6bae32	0.00089904957
46	0x00000000	0.0
47	0x3a957992	0.0011404029
48	0x00000000	0.0
49	0x3a3a37c7	0.00071036484
50	0x3a3f1214	0.00072887656
51	0x3a697190	0.0008905167
52	0x00000000	0.0
53	0x00000000	0.0
54	0x3a8ea4ec	0.0010882891
55	0x00000000	0.0
56	0x00000000	0.0
57	0x3a64e7af	0.00087320333
58	0x3a470696	0.0007592229
59	0x3bc4f0e9	0.006010164
60	0x3a34123b	0.00068691716
61	0x3a8b8dfc	0.0010647173
62	0x3a33a402	0.0006852747
63	0x3a816cb2	0.0009874313

scaling.bias f4 [2]
0	0x3bf15b21	0.0073655997
1	0x3bcf8ef2	0.006334179

shearing.weight f4 [1, 32]
0	0xba9fe08a	-0.0012197655
1	0xbaf3ce1a	-0.0018600852
2	0x00000000	0.0
3	0xba91d875	-0.0011127131
4	0xba8d5e53	-0.0010785557
5	0x00000000	0.0
6	0xbab91420	-0.0014120378
7	0xba995307	-0.0011697718
8	0xbaa036ae	-0.0012223327
9	0xbb0a255b	-0.0021079395
10	0xbb10e8e2	-0.0022111465
11	0xba910f5f	-0.0011067203
12	0xbaa459a8	-0.0012538927
13	0xba8fef90	-0.0010981429
14	0x00000000	0.0
15	0xba865e9c	-0.0010251584
16	0x00000000	0.0
17	0xbadeea38	-0.0017007058
18	0xbabfc160	-0.0014629774
19	0xbaa13ca2	-0.0012301395
20	0x00000000	0.0
21	0x00000000	0.0
22	0xba8a184e	-0.0010535808
23	0x00000000	0.0
24	0x00000000	0.0
25	0xbad185fe	-0.0015985367
26	0xbacbb1be	-0.0015540642
27	0x3a9412e9	0.001129714
28	0xbad3e0c6	-0.001616501
29	0xba8798cc	-0.001034522
30	0xbabe79ab	-0.001453211
31	0xba94e2cc	-0.0011359095
