output/77_2_e/train/model/stn_100.pt (torch_old, 658934 bytes, 14 tensors)

conv1.weight f4 [8, 2, 5, 5]
0	0x3dcad974	0.09904757
1	0x3db71a92	0.08940615
2	0xbdd3ac6c	-0.10335621
3	0xbe1759c2	-0.14780334
4	0x3da347e3	0.07972696
5	0xbe0e6739	-0.13906564
6	0x3d930c40	0.07180071
7	0xbe23ce69	-0.15996708
8	0xbdc671c0	-0.09689665
9	0xbdb24d95	-0.08706204
10	0x3df39dc2	0.11895324
11	0xbd2a5b23	-0.04159082
12	0x3dcca0e5	0.09991626
13	0x3c90230b	0.017594835
14	0x3de1e8b6	0.11030714
15	0x3da443ee	0.08020769
16	0x3db1c130	0.08679426
17	0x3dd2a085	0.10284523
18	0xbd81b5c0	-0.06333494
19	0xbd7e45a1	-0.062078122
20	0x3d0b26f1	0.033972684
21	0x3de18283	0.11011221
22	0xbd8d563c	-0.069012135
23	0xbe042a52	-0.12906769
24	0xbe0683a8	-0.1313616
25	0xbdac711e	-0.08420013
26	0xb9db6835	-0.00041848575
27	0xbd29c6e3	-0.04144944
28	0xbd82c87f	-0.06385898
29	0xbdbd8ada	-0.092549995
30	0x3c8d0a9d	0.017216975
31	0xbe0f1e9b	-0.13976519
32	0x3de90c08	0.11379248
33	0xbd44f5bb	-0.04808591
34	0xbb34c2ea	-0.0027581998
35	0x3cd1fbdc	0.025632791
36	0xbda234ff	-0.079202645
37	0x3dafd79e	0.085860476
38	0xbce08012	-0.027404819
39	0xbc8decce	-0.017324831
40	0xbe20cb31	-0.15702511
41	0xbbfdf7ad	-0.0077504725
42	0x3cb74547	0.022371901
43	0xbbd6df01	-0.006557346
44	0xbd2dffeb	-0.04248039
45	0x3da885f2	0.08228673
46	0x3daeb831	0.085312255
47	0x3d9046a3	0.07044723
48	0xbd5049d1	-0.050851647
49	0xbb6dbce5	-0.003627592
50	0xbde9e738	-0.114210546
51	0xbdf8125f	-0.12112879
52	0xbd22226d	-0.039583612
53	0xbb5e8501	-0.0033953788
54	0xbdd3c98e	-0.10341178
55	0xbe085df5	-0.13317092
56	0x3d40dd86	0.04708626
57	0x3d09ecd3	0.03367312
58	0xbde9e385	-0.11420349
59	0x3d8add41	0.06780482
60	0xbdfed075	-0.12442104
61	0x3daea65f	0.085278265
62	0x3d54ab99	0.05192146
63	0xbd972c71	-0.073815234
64	0x3dd295dc	0.1028249
65	0xbdd0333a	-0.10166021
66	0xbdb93f46	-0.090452716
67	0x3dacfcfe	0.08446692
68	0xbd8afe32	-0.06786765
69	0xbdbdc658	-0.09266347
70	0xbb9bf03b	-0.0047588623
71	0xbd5b4142	-0.05352903
72	0x3d693a0a	0.056940116
73	0x3da3e878	0.08003324
74	0x3cc04ff4	0.023475625
75	0x3c3506f8	0.011049025
76	0x3c872568	0.016497329
77	0xbc578d1f	-0.0131562045
78	0xbb0ee724	-0.002180525
79	0xbc8c5814	-0.017131843
80	0x3d998907	0.07496839
81	0x3d6afca9	0.05736986
82	0xbd122870	-0.035683095
83	0x3d004406	0.031314872
84	0xbc76edd7	-0.015071354
85	0x3ccc9dee	0.02497765
86	0x3db9affb	0.09066769
87	0xbdf4e98f	-0.1195861
88	0xbb60b279	-0.0034286065
89	0xbd5f2079	-0.054474328
90	0xbe28ff7e	-0.16503713
91	0xbe2813b8	-0.16413772
92	0xbd2e678d	-0.042579222
93	0x3d9ebdf6	0.07751076
94	0xbdf12a77	-0.11775678
95	0x3c9f32da	0.019433428
96	0x3d61000d	0.05493169
97	0xbe01e16f	-0.12683652
98	0x3d18eaaf	0.037333187
99	0x3af8c131	0.0018978474
100	0xbe178445	-0.1479655
101	0xbcaeb402	-0.021326069
102	0xbe1b6cc7	-0.15178214
103	0x3dd48f43	0.103788875
104	0x3d3b5347	0.045733716
105	0x3d0c52fd	0.03425883
106	0x3db6e826	0.089309976
107	0x3db57ba3	0.088614725
108	0x3df6a536	0.1204323
109	0x3d1ac9d0	0.03779012
110	0xbdfaa97a	-0.12239356
111	0x3de4ebaf	0.111777656
112	0x3ca18930	0.019718736
113	0xbd9ace96	-0.075589344
114	0xbd9586b9	-0.07301087
115	0x3de4a8e8	0.11165029
116	0x3c40db24	0.011770997
117	0x3daa59f4	0.083179384
118	0xbc107a26	-0.008818185
119	0x3de1bedc	0.11022732
120	0xbdfe6c75	-0.1242303
121	0x3c626bb4	0.013819624
122	0x3c681363	0.014164778
123	0xbcafceb9	-0.021460878
124	0x3dd81e23	0.10552623
125	0x3c40afb3	0.01176064
126	0xbbd85617	-0.0066020596
127	0x3daaa8f5	0.08333007
128	0xbcc3baf7	-0.023892863
129	0xbcb43fef	-0.022003142
130	0xbe078867	-0.13235627
131	0xbc70aa49	-0.014689037
132	0xbda09ba2	-0.078421846
133	0x3d8ed939	0.06975026
134	0x3de3d6b2	0.11124934
135	0xbe1730d8	-0.14764726
136	0xbdc35c21	-0.095390566
137	0x3dfdb078	0.12387174
138	0xbd9308c0	-0.07179403
139	0x3deb4682	0.11488058
140	0x3dfbbc08	0.122917235
141	0xbd4a04bf	-0.049320932
142	0xbe0191ce	-0.12653276
143	0x3d74220a	0.059602775
144	0x3d5ebfed	0.054382253
145	0x3dd96567	0.10615044
146	0x3bcd3d6b	0.006263425
147	0x3d850304	0.06494716
148	0xbe06b3d6	-0.1315454
149	0x3c2e8a69	0.010653117
150	0x3c9191ea	0.017769773
151	0x3d8c4e6f	0.068508975
152	0xbdc67f5d	-0.09692261
153	0xbd18178e	-0.03713184
154	0xbdd20dd5	-0.102565445
155	0xbde0910c	-0.109651655
156	0x3d2413ed	0.040058065
157	0x3a982814	0.0011608624
158	0x3d14cfd1	0.036331
159	0xbcaad7ff	-0.020854948
160	0xbc8a1ed1	-0.016860398
161	0xbcbf77f4	-0.023372628
162	0x3d684f1d	0.056716073
163	0xbdefab66	-0.117026135
164	0x3c5da798	0.013528727
165	0x3d84afb9	0.06478829
166	0x3d85a214	0.065250546
167	0xbdb03f0e	-0.08605777
168	0x3dba625f	0.09100794
169	0xbde11e1c	-0.10992071
170	0x3d805a11	0.06267179
171	0x3dce7ecf	0.100827806
172	0xbc436372	-0.011925565
173	0x3cd74fcb	0.026283165
174	0xbe18d8af	-0.14926408
175	0xbd8ce338	-0.06879276
176	0xbd965005	-0.07339481
177	0xbe1df8b8	-0.1542691
178	0xbd5cb258	-0.05388102
179	0x3d982c14	0.07430282
180	0xbcd39267	-0.025826646
181	0x3df9252f	0.12165295
182	0xbe1927d5	-0.14956601
183	0x3d02c8e8	0.03192988
184	0x3dc8068c	0.09766874
185	0x3e00377f	0.1252117
186	0xbd94ff25	-0.072752275
187	0xbe19e0b5	-0.15027125
188	0xbd9c25f5	-0.07624427
189	0x3da39e79	0.07989211
190	0x3a3da229	0.00072339416
191	0x3def2f46	0.116789386
192	0xbe00dbd5	-0.1258386
193	0xbde81c24	-0.113334924
194	0x3d4134d1	0.04716951
195	0x3d133765	0.0359415
196	0xbde19a20	-0.11015725
197	0x3ddd4e42	0.10805942
198	0xbda1eec2	-0.079068676
199	0xbe120d8a	-0.14262977
200	0x3d0c2804	0.03421785
201	0xbdb0b75e	-0.086287245
202	0xbd973b9c	-0.073844165
203	0xbdaa6d39	-0.08321614
204	0x3d25c667	0.040472414
205	0x3d712c52	0.058880158
206	0x3db24471	0.087044604
207	0xbdb2f2d2	-0.087377205
208	0xbd1b12c3	-0.03785969
209	0x3e078d48	0.13237488
210	0xbda73535	-0.08164445
211	0xbd752307	-0.059847858
212	0xbd0aee23	-0.03391851
213	0xbe03b7cc	-0.12863082
214	0xbdcff6e7	-0.10154515
215	0x3dee7909	0.116441794
216	0x3c90e11b	0.017685464
217	0x3caabda5	0.020842383
218	0x3d5cfbeb	0.053951185
219	0x3db5bd88	0.08874041
220	0x3daeba6f	0.08531653
221	0x3dbdc834	0.09266701
222	0x3d54583f	0.05184197
223	0x3dd83af2	0.10558118
224	0x3dc50f41	0.0962205
225	0xbdb68fab	-0.08914121
226	0xbd5ae4f2	-0.053440996
227	0xbe0fe43b	-0.14051907
228	0xbe30e114	-0.1727336
229	0x3d944988	0.072405875
230	0xbe32da43	-0.17466073
231	0xbe234eb0	-0.15947986
232	0xbe54cb19	-0.207806
233	0xbe35ffa7	-0.17773305
234	0xbd077536	-0.033070765
235	0xb7f1cc60	-2.8824608e-05
236	0xbe428627	-0.18996488
237	0xbd736575	-0.05942293
238	0xbe324c81	-0.17411996
239	0xbd1f7161	-0.038926486
240	0x3cb8aa15	0.022542039
241	0xbdf352bf	-0.11881017
242	0xbe01a6c4	-0.12661272
243	0x3cede143	0.029038077
244	0xbe1d61b0	-0.15369296
245	0xbda9763b	-0.08274504
246	0xbe30f3a0	-0.17280436
247	0x3d345655	0.044027645
248	0xbc371730	-0.011174962
249	0xbde7f627	-0.11326247
250	0x3d9973fc	0.074928254
251	0x3de23af8	0.11046404
252	0x3d199278	0.0374932
253	0xbdee6833	-0.11640968
254	0xbd2dfe5e	-0.04247891
255	0x3db5278c	0.088454336

conv1.bias f4 [8]
0	0x3d447572	0.047963567
1	0xbbbc58bc	-0.0057478826
2	0xbdb40db2	-0.08791675
3	0xbc611cd3	-0.013739782
4	0xbd8e9bc8	-0.06963307
5	0x3de31a17	0.110889606
6	0x3dca99fd	0.09892652
7	0xbda15323	-0.07877185

conv2.weight f4 [16, 8, 5, 5]
0	0xbd922967	-0.07136803
1	0xbd931a07	-0.07182699
2	0xbc90fe32	-0.017699335
3	0xbbaab1b6	-0.005209173
4	0xbd517ac1	-0.051142458
5	0x3d10c580	0.0353446
6	0xba92b186	-0.0011191822
7	0xbd2c5cf0	-0.04208082
8	0xbd95b937	-0.073107176
9	0x3d5075f2	0.05089373
10	0x3d885855	0.06657473
11	0x3a71e2b4	0.0009227202
12	0xbd241518	-0.04005918
13	0x3d2673e0	0.04063785
14	0x3d1ca237	0.038240638
15	0xbc62330b	-0.013806115
16	0x3d79e92b	0.061013382
17	0xbd6de476	-0.058079205
18	0xbc450dae	-0.012027187
19	0x3d6925d8	0.056920856
20	0xbd42f297	-0.047594633
21	0xbcdabec7	-0.026702298
22	0xbd11278f	-0.035438117
23	0xbd04f935	-0.032464225
24	0x3d743169	0.059617434
25	0x3d37af0d	0.044844676
26	0xbd84500c	-0.0646058
27	0xbd363587	-0.04448464
28	0xbb3b20a1	-0.0028553384
29	0xbcc63ff6	-0.02420042
30	0xbd25ba0a	-0.040460624
31	0xbd95376e	-0.07285963
32	0x3d45bea5	0.048277516
33	0x3d1107e3	0.035407912
34	0x3c8c268a	0.01710822
35	0xbca3233d	-0.019914264
36	0xbd98937d	-0.07450006
37	0xbc2f3093	-0.010692733
38	0x3ca7445b	0.020418337
39	0xbcd8c2fb	-0.026460161
40	0x3d481a51	0.048853222
41	0x3c014edc	0.007892337
42	0xbc414492	-0.011796134
43	0x3c9d5437	0.019205196
44	0x3cecb90b	0.02889683
45	0xbd778c61	-0.06043661
46	0x3c408ab2	0.011751818
47	0xbd97ff3c	-0.07421729
48	0xbcceaa79	-0.025227772
49	0xbd04e09c	-0.032440767
50	0x3d31ab7d	0.043376435
51	0xbda121e4	-0.07867792
52	0x3c6e6eae	0.014552755
53	0xbd9bc26e	-0.07605444
54	0x3c92ecbe	0.017935153
55	0x3bf0fde2	0.007354484
56	0xbd1a3e00	-0.037656784
57	0x3c32b827	0.010908163
58	0x3d6820bb	0.05667184
59	0x3cfb482b	0.03067406
60	0xbd97a741	-0.07404948
61	0xbce329a4	-0.027729817
62	0x3d5f12f2	0.054461427
63	0x38b5be01	8.6661435e-05
64	0xbb4bbf18	-0.0031089243
65	0xbb979b47	-0.004626665
66	0xbd0d5e93	-0.03451402
67	0xbce8a169	-0.028397279
68	0xbbcb01e5	-0.006195294
69	0x3d2a895c	0.041634902
70	0xbcf8b58a	-0.030360002
71	0xbcec6322	-0.028855864
72	0x3b431466	0.0029766797
73	0xbd17e7c6	-0.03708627
74	0x3d4d2410	0.05008322
75	0x3d2fd044	0.042923227
76	0xbc1d5d38	-0.009604745
77	0xbd5e31b8	-0.054246634
78	0x3c7c5b69	0.015402653
79	0x3d646b48	0.055766374
80	0x3c50eb69	0.012751439
81	0x3c8e78fa	0.01739167
82	0xbd3b7cdd	-0.045773376
83	0xbd94d492	-0.07267107
84	0xbce431b2	-0.027855728
85	0xbbf2717c	-0.0073987823
86	0x3d51f072	0.051254697
87	0x3bc7a178	0.0060922466
88	0xbc72a263	-0.014809224
89	0xbc889d03	-0.016676432
90	0xbcb8d55d	-0.022562677
91	0xbd45ea8b	-0.04831938
92	0xbd1abbbb	-0.03777669
93	0x3c4d5726	0.012532985
94	0x3d50567e	0.050863735
95	0x3d5311c8	0.05153063
96	0x3c9b8618	0.01898484
97	0xbd62a082	-0.055328853
98	0x3d87216c	0.065981716
99	0x3d95057b	0.07276436
100	0x3b155166	0.0022784113
101	0x3d086230	0.033296764
102	0x3dcebac0	0.100942135
103	0x3c958652	0.018252525
104	0x3da46a1a	0.0802805
105	0x3d15f250	0.03660804
106	0x3d93861b	0.07203313
107	0x3d836099	0.06414909
108	0x3defa072	0.117005244
109	0x3de44eb1	0.11147822
110	0xbcbd4f31	-0.02310905
111	0x3d99bde2	0.075069204
112	0x3cd4f333	0.025994873
113	0x3c384137	0.011246017
114	0x3d85f3d9	0.06540651
115	0x3c4ef1c8	0.012630887
116	0xbc888066	-0.016662788
117	0xbcce42d3	-0.025178349
118	0x3be0fb7b	0.0068659163
119	0x3d738ad1	0.059458558
120	0x3d6e744f	0.05821639
121	0x3d82de46	0.063900515
122	0x3d49d08d	0.049271155
123	0x3ddb9a57	0.10722797
124	0xbc5e292d	-0.013559622
125	0xbd3566ba	-0.04428742
126	0x3cc9ea7d	0.024647946
127	0xbd975944	-0.07390073
128	0x3d69f519	0.05711851
129	0xba59f352	-0.00083141506
130	0xbccc68b8	-0.024952278
131	0x3d6f1e10	0.05837828
132	0x3ccf235a	0.025285412
133	0x3d5621da	0.052278377
134	0x3d3e32dc	0.046435222
135	0xbc2a2b15	-0.010386248
136	0x3d7a0f10	0.06104952
137	0x3b8807e3	0.004151331
138	0x3b3523d2	0.0027639759
139	0x3cb208a7	0.021732641
140	0xbd580a4f	-0.052744206
141	0xbd33a897	-0.04386195
142	0x3d8208d5	0.06349341
143	0xbd443c55	-0.0479091
144	0x3d1d8139	0.038453314
145	0x3d3835fb	0.044973355
146	0xbd71ab55	-0.059001286
147	0xbc397170	-0.0113185495
148	0xbabba4df	-0.0014316103
149	0x3d5d4389	0.054019485
150	0xbcf4492b	-0.029820045
151	0x3d63ed85	0.05564644
152	0xbd8b818e	-0.0681182
153	0x3c5d5f0d	0.013511431
154	0x3c89773f	0.016780494
155	0xbd0eb5e3	-0.03484143
156	0xbd01f435	-0.031727035
157	0xbd63027f	-0.055422302
158	0x3a887f8a	0.0010413986
159	0x3ac7ded6	0.0015248905
160	0xbd0fc320	-0.035098195
161	0x3d3f7c3a	0.04674933
162	0xbcc1e282	-0.023667578
163	0xbcf9d045	-0.030494818
164	0x3d06127a	0.032732464
165	0x38eec7e3	0.00011385956
166	0x3cca712e	0.024712171
167	0x3cd49e74	0.025954463
168	0xbd8a0c64	-0.067406446
169	0xbcc0a743	-0.023517257
170	0x3d45117b	0.048112374
171	0xbd734216	-0.059389196
172	0xbc12b1eb	-0.008953552
173	0x3cf95cd7	0.030439777
174	0xbc6f9f06	-0.0146253165
175	0x3bf01382	0.0073265443
176	0x3d484f89	0.048903976
177	0xbd080086	-0.033203624
178	0x3db00037	0.08593791
179	0x3dac1921	0.084032305
180	0x3c0ed45f	0.008717625
181	0x3b8cab84	0.004292907
182	0x3c96bf23	0.018401688
183	0x3dd799de	0.10527395
184	0x3c069943	0.008215251
185	0x3d5b0843	0.053474676
186	0xbd0640be	-0.032776587
187	0x3d6f8d7d	0.058484543
188	0x3da97c6f	0.08275687
189	0x3d81e702	0.06342889
190	0x3cfa306e	0.030540671
191	0x3d29e7fd	0.041481007
192	0x3dcdf98e	0.100573644
193	0x3d95931c	0.073034495
194	0x3cdcd797	0.02695827
195	0xbccdd6bd	-0.02512681
196	0x3daf3001	0.08554078
197	0x3c32d00f	0.010913863
198	0x3dadb421	0.084816225
199	0x3ce448f9	0.027866827
200	0xbbd58207	-0.0065157446
201	0xbd96d75f	-0.073652975
202	0xbd4710fe	-0.04860019
203	0xbc3b6fc5	-0.011440222
204	0xbdc49443	-0.09598591
205	0xbca8fbc7	-0.02062787
206	0x3ceb30aa	0.028709728
207	0x3d11a405	0.03555681
208	0x3d23818c	0.039918467
209	0xbd2a1c9f	-0.0415312
210	0x3b3b009f	0.0028534306
211	0xbd8096b3	-0.062787436
212	0x3cee6081	0.029098751
213	0x3ba66695	0.0050781467
214	0x3d40d6e7	0.047079947
215	0xbc53a13b	-0.012916858
216	0x3d839060	0.06424022
217	0x3cf492b2	0.029855106
218	0x3d6735d4	0.05644782
219	0xbc207bad	-0.009795112
220	0xbd7aa952	-0.061196633
221	0xbd790ef4	-0.060805276
222	0xbd94d81c	-0.07267782
223	0x3c2e319d	0.010631946
224	0xbd5c0a85	-0.05372097
225	0xbc6821d1	-0.014168219
226	0x3d2d5b12	0.04232318
227	0x3d8836db	0.06651088
228	0xbc874c07	-0.016515745
229	0x3d5d6ccd	0.05405884
230	0x39d17c26	0.00039956084
231	0xbc5636fe	-0.013074635
232	0xbc39f4a0	-0.011349827
233	0xbd0cdb6b	-0.03438894
234	0x3caf4cfb	0.021399012
235	0xba3d3016	-0.0007216943
236	0xbd2ba5d1	-0.04190618
237	0x3d0f6c69	0.035015497
238	0xbd28633a	-0.041110255
239	0xbd571cea	-0.05251781
240	0x3c4c58e1	0.012472362
241	0xbcc271d0	-0.02373591
242	0xbd73ea97	-0.059549894
243	0xbd9f2b40	-0.07771921
244	0xbd113c42	-0.035457857
245	0xbda247af	-0.07923829
246	0x3c19f2f5	0.009396304
247	0xbd1d7c95	-0.03844889
248	0x3bfb2d25	0.0076652938
249	0x3c567ae9	0.0130908275
250	0xbc869c3a	-0.016431917
251	0xbcf94821	-0.030429902
252	0xbd6043bc	-0.054752097
253	0x3b70fb65	0.0036770937
254	0xbd84ee22	-0.06490733
255	0xbd4bf9a7	-0.049798634

conv2.bias f4 [16]
0	0xbc9d8a5d	-0.019231016
1	0x3d424296	0.047426783
2	0x3da7c823	0.0819247
3	0x3cd58431	0.02606401
4	0x3d621f04	0.05520536
5	0xbc906c54	-0.01762978
6	0xbd9c1515	-0.076212086
7	0xbcafdd48	-0.02146782
8	0xbab52941	-0.0013821499
9	0xbc5a609c	-0.0133286975
10	0xbcb2032d	-0.02173003
11	0xbc76fe59	-0.01507529
12	0xbc93af8b	-0.018028041
13	0x3d658420	0.056034207
14	0x3cce3bb7	0.025174959
15	0x3d905b0a	0.07048614

conv3.weight f4 [32, 16, 5, 5]
0	0x3ce5ac04	0.028036125
1	0xbd258b27	-0.04041591
2	0xbc8fb108	-0.01754047
3	0x3b901ca5	0.004397946
4	0xbd20244c	-0.039097115
5	0x3cdf05fa	0.02722453
6	0xbd1c12b8	-0.03810379
7	0x3d1a61af	0.037690815
8	0x3d7959f2	0.060876794
9	0x3cc730d7	0.02431528
10	0xbcf84259	-0.030305075
11	0x3cffc3cb	0.031221291
12	0xbcfe0d2f	-0.031012146
13	0x3c3456d4	0.01100703
14	0x3d37e24c	0.044893548
15	0x3d3066e7	0.043066885
16	0xb91b8bf0	-0.00014834083
17	0xbc0568d7	-0.008142672
18	0xbb1926d8	-0.00233691
19	0xbd199c4b	-0.03750257
20	0x3c26343e	0.010144291
21	0xbd2bc506	-0.041935943
22	0xbb6841e2	-0.003543966
23	0xbc467adc	-0.012114253
24	0x3d2972f9	0.041369412
25	0x3bcd9bb0	0.006274663
26	0x3d7a9956	0.06118139
27	0x3beaf8f7	0.007170792
28	0x3bc34be3	0.005959974
29	0xbcf0797d	-0.029354805
30	0x3d527925	0.051385064
31	0x3c5d1b23	0.013495239
32	0xbce1caaf	-0.027562467
33	0x3ce6afe2	0.02816004
34	0x3d4dfc08	0.050289184
35	0xbd03f4bb	-0.032215815
36	0x3cd586bc	0.026065223
37	0x3cb1c864	0.021701999
38	0x3c4bbc7b	0.012435074
39	0x3da53251	0.08066238
40	0x3cc9780b	0.024593374
41	0xbcaa20ed	-0.020767653
42	0xbcd8efa8	-0.026481465
43	0x3c33cfad	0.010974807
44	0x3a99c77a	0.0011732422
45	0x3d1c3431	0.03813571
46	0xbd60fb97	-0.054927435
47	0xbd5b24b5	-0.053501803
48	0x3c00e4a7	0.007867015
49	0xbd104868	-0.035225302
50	0xbc0dcbe0	-0.008654565
51	0xbcada9a2	-0.021199051
52	0x3cf4d215	0.029885331
53	0x3c3678bd	0.011137185
54	0xbcb88577	-0.022524578
55	0x3d11b1c6	0.03556993
56	0xbcf073a2	-0.029352013
57	0xbc1b6c1b	-0.009486224
58	0x3cd6694c	0.026173256
59	0xbc98c832	-0.018650148
60	0xbc719fe9	-0.014747598
61	0xbcde80cb	-0.027161023
62	0xbcb7ac3a	-0.022420991
63	0xbc74d9a2	-0.014944466
64	0x3d2cc5f0	0.042180955
65	0xbcddb0c1	-0.027061822
66	0xbd119d86	-0.035550617
67	0x3c2e7168	0.010647155
68	0x3c62e56a	0.013848642
69	0x3c14a3e6	0.00907228
70	0x3bc44b09	0.00599039
71	0x3d4bce91	0.049757544
72	0xbcdeb737	-0.027186973
73	0xbd3c47d0	-0.045966923
74	0xbd1c19f0	-0.038110673
75	0x3cb85c74	0.022505023
76	0x3cb15bb9	0.021650182
77	0x3c01365b	0.0078864945
78	0xbd09956c	-0.033589765
79	0xbd0db893	-0.03459985
80	0xbd578667	-0.05261841
81	0x3cb32f69	0.021873193
82	0x3c12d933	0.008962917
83	0xbcd26f77	-0.025687916
84	0xbd36021a	-0.044435598
85	0xbd09a32e	-0.033602886
86	0xbd827530	-0.06370008
87	0x3d166584	0.036717907
88	0xbc90a6f1	-0.017657729
89	0xbceea78d	-0.029132629
90	0xbda7a63d	-0.08186004
91	0xbcfa3ec0	-0.0305475
92	0x3c233b4e	0.00996287
93	0x3d6a2f72	0.057174154
94	0x3ce0d5fb	0.027445784
95	0xbaadf6d2	-0.0013272411
96	0xbd8513fc	-0.06497952
97	0x3cad5c0b	0.021162054
98	0xbd0996c6	-0.033591054
99	0x3bdbf71f	0.0067128087
100	0x3cfa8f02	0.03058577
101	0xbcba5608	-0.022746101
102	0x3a224b0c	0.00061909924
103	0x3b0ce371	0.002149787
104	0x3d456e89	0.048201118
105	0x3d0b9d04	0.03408529
106	0x3b7916ab	0.0038007896
107	0xbd011d89	-0.031522308
108	0x3cb85409	0.022501009
109	0x3d79e404	0.06100847
110	0xbd1e0724	-0.03858103
111	0x3ce59c56	0.028028648
112	0x3b225292	0.0024768454
113	0x3ce158e8	0.027508214
114	0x3d07b709	0.03313354
115	0x3ce5f39d	0.028070265
116	0xbd47e9f9	-0.048807118
117	0x3c53555b	0.012898768
118	0xbd4b98a7	-0.049706127
119	0x3bc78fde	0.0060901484
120	0x3d347b4c	0.044062898
121	0xbd2f0a2d	-0.042734314
122	0xbd382a37	-0.044962134
123	0xbce81e56	-0.028334778
124	0x3c5156fb	0.012777085
125	0x3bbb3dab	0.0057141385
126	0xbd03ea84	-0.032206073
127	0x3c41b365	0.011822556
128	0xbba2708b	-0.004957264
129	0xbc4c6de2	-0.01247737
130	0x3b3c3c74	0.0028722556
131	0x3c8c4f7b	0.017127743
132	0x3c2d7c6b	0.010588746
133	0xbcb1603f	-0.021652339
134	0x3d58357a	0.052785374
135	0x3aebec28	0.0017999457
136	0xbcd8753c	-0.02642309
137	0x3d2814ed	0.04103558
138	0x3c8bd6f9	0.01707028
139	0x3d353ea5	0.044249196
140	0x3d09ef39	0.033675406
141	0xbb7fa308	-0.0039007086
142	0x3d14b47c	0.036304936
143	0x3a16716b	0.00057389465
144	0x3d5d2472	0.053989835
145	0x3c558076	0.013031116
146	0x3cda47cd	0.026645565
147	0x3cb439c4	0.022000201
148	0xbce8aa64	-0.028401561
149	0x3d647ffd	0.05578612
150	0xbc0ca22b	-0.008583586
151	0x3bae6922	0.0053225914
152	0xbcb05068	-0.021522716
153	0xbbd6d98a	-0.0065566944
154	0x3d14d001	0.03633118
155	0xbd2460ab	-0.040131252
156	0x3b96535c	0.004587574
157	0x3d394eab	0.04524104
158	0xbd479b18	-0.048731893
159	0xbc857046	-0.016288888
160	0x3b3c1ee4	0.0028704936
161	0x3cefc593	0.029269015
162	0xbcd23a26	-0.025662493
163	0xbd74294e	-0.059609704
164	0xbd504554	-0.050847366
165	0x3ba7dc03	0.005122663
166	0xbd3de160	-0.046357512
167	0xbd845de2	-0.06463219
168	0xbcb72a97	-0.022359176
169	0xbc9f801f	-0.019470273
170	0xbd4dcf31	-0.05024642
171	0xbce88c02	-0.028387073
172	0x3c85b11e	0.016319808
173	0xbd135c39	-0.035976622
174	0xbd413261	-0.047167186
175	0xbbeb6274	-0.0071833674
176	0x3d37d812	0.044883795
177	0xbc40bc55	-0.011763652
178	0xbcf5b378	-0.029992804
179	0xbcd9b347	-0.026574744
180	0xbc1cefc5	-0.00957865
181	0x3d15875b	0.03650604
182	0x3c7701f3	0.015076148
183	0xbc596f57	-0.013271174
184	0xbcec0e81	-0.02881551
185	0xbd278e50	-0.040907204
186	0x3ac723b5	0.0015193137
187	0x3d0235eb	0.0317897
188	0x3cdd776a	0.02703448
189	0x3c0cf4b3	0.008603263
190	0x3ca0147f	0.019541023
191	0xbb5fb84a	-0.0034136944
192	0xbb079411	-0.002068762
193	0x3cae0b16	0.02124552
194	0x3aee17f0	0.0018165093
195	0x3c9f60d4	0.019455351
196	0x3bc19811	0.0059080203
197	0x3c2d8916	0.010591766
198	0xbc77645b	-0.01509961
199	0x3d32a454	0.043613747
200	0x3d067783	0.03282882
201	0x3c33fcc3	0.010985556
202	0xbd6f43d8	-0.05841431
203	0xbd7453f3	-0.059650373
204	0xbd0770e3	-0.03306664
205	0x3cb95b3e	0.022626515
206	0x3cd686cd	0.026187325
207	0xbd1ff6f5	-0.039053876
208	0xbcdb4a5c	-0.026768856
209	0x3cb73ffe	0.022369381
210	0x3d908df9	0.07058329
211	0xbd8db946	-0.06920104
212	0xbca4079a	-0.020023156
213	0x3cabcd3a	0.020971883
214	0x3d57056f	0.052495416
215	0x3dcf9807	0.10136419
216	0xbdb10a3a	-0.08644529
217	0xbc54de29	-0.01299242
218	0xbae8dacf	-0.0017765405
219	0xbc8d8f66	-0.017280292
220	0xbd42f907	-0.047600772
221	0xbd403878	-0.046928853
222	0xbdbd54ef	-0.092447154
223	0xbd1817cd	-0.037132073
224	0x3d9d6c7f	0.076867096
225	0x3d147a1e	0.036249273
226	0xbce4a957	-0.027912779
227	0x3c9298aa	0.017895062
228	0x3d3d34a3	0.046192776
229	0x3a6a6ec9	0.00089429
230	0xbbae209f	-0.0053139473
231	0xbcb7c003	-0.022430426
232	0x38af1249	8.348056e-05
233	0x3d2cee14	0.042219236
234	0xbc17460a	-0.009233007
235	0xbbecfb2c	-0.0072320905
236	0x3cd79030	0.026313871
237	0xbc889fd6	-0.016677778
238	0xbc910aa8	-0.017705277
239	0x3c771c05	0.015082364
240	0x3d149922	0.03627885
241	0x3bc75bea	0.006083955
242	0xb988cf6b	-0.0002609448
243	0xbd1add1d	-0.037808526
244	0x3d0668c0	0.03281474
245	0x3bbe899d	0.0058147446
246	0xbca52ed4	-0.020163931
247	0xbd304251	-0.043031994
248	0xbcd62499	-0.026140498
249	0xbd103bb8	-0.035213202
250	0x3c20f1af	0.009823247
251	0x3d75b3f5	0.059986074
252	0xbc39285b	-0.011301125
253	0x3bf07f19	0.00733937
254	0x3b464d2e	0.0030258405
255	0xbd1f46ff	-0.038886067

conv3.bias f4 [32]
0	0x3bbab8b2	0.005698287
1	0x3cc8991f	0.024487076
2	0xbcd673a8	-0.026178196
3	0x3c8b237f	0.0169847
4	0x3d873937	0.0660271
5	0xbcc5e8c2	-0.02415884
6	0x3d285bdf	0.04110324
7	0xbaef150c	-0.0018240525
8	0x3bf40b19	0.007447612
9	0x3d85dd04	0.06536296
10	0x3d77efca	0.060531415
11	0xbc9a840b	-0.018861791
12	0x3cd331d1	0.02578059
13	0x3d81ed95	0.06344143
14	0x3d02ec8c	0.03196387
15	0x3d801dd5	0.0625569
16	0x3cde3a69	0.027127462
17	0x3c8ca3bd	0.01716792
18	0x3d21e208	0.0395222
19	0x3c964698	0.018344209
20	0xbb89310a	-0.004186754
21	0x3d2e1559	0.042500827
22	0x3dd30eb8	0.10305542
23	0x3dc0e8f9	0.09419436
24	0x3d89f4c7	0.06736141
25	0x3cb3db10	0.021955043
26	0x3d40dc17	0.047084894
27	0x3dd01050	0.10159361
28	0x3ce396af	0.027781812
29	0x3d598780	0.05310774
30	0x3d104025	0.035217423
31	0x3d904c43	0.07045796

fc.weight f4 [32, 4608]
0	0xbcfc7fa9	-0.030822592
1	0xbc89bae9	-0.016812759
2	0xbce8571c	-0.02836185
3	0xbc542ec7	-0.012950606
4	0x3b58d8fb	0.0033088315
5	0x392b8d20	0.00016360404
6	0x3c82dcf5	0.015974501
7	0xbbf1f147	-0.007383499
8	0x3bd86f7d	0.0066050873
9	0xbb839e8b	-0.0040167025
10	0x3c2a4e3e	0.010394631
11	0xba881111	-0.0010381063
12	0x3aff4756	0.0019476216
13	0xbc650911	-0.013979212
14	0x3c84dbc8	0.016218081
15	0xbb8f6afb	-0.0043767667
16	0xbb3fa53d	-0.0029242777
17	0x3c5186f2	0.012788521
18	0x3b885b07	0.004161242
19	0x3c38bb8d	0.011275184
20	0x3c8cbaae	0.01717886
21	0x3b62ee05	0.0034626734
22	0x3c29b180	0.010357261
23	0x3a920ce1	0.0011142754
24	0x3ba144cb	0.004921531
25	0x3c06aa98	0.008219384
26	0x3baca81b	0.005269063
27	0xbbd88a4a	-0.006608282
28	0x3c0d2130	0.00861387
29	0x3c2735b9	0.01020568
30	0x3b039f0d	0.0020083815
31	0x3baf45ee	0.0053489124
32	0x3c0b2cd8	0.008494578
33	0xbad3c8ae	-0.001615783
34	0xbaea21b2	-0.0017862825
35	0xbbb5ec58	-0.005551856
36	0xbc6ef3d9	-0.014584505
37	0xb9ce235e	-0.00039317732
38	0x38b57ffd	8.654592e-05
39	0xbc113459	-0.008862578
40	0x3bdddb3f	0.006770521
41	0x3bde0d7c	0.00677651
42	0x3c294314	0.010330934
43	0x3a3d0a29	0.0007211292
44	0xbbe1830d	-0.0068820775
45	0xbaab7fdf	-0.0013084373
46	0xbbe46d88	-0.006971065
47	0x3652df76	3.142251e-06
48	0x3be36361	0.006939337
49	0x3a114af7	0.00055424817
50	0x3ba5c633	0.0050590276
51	0x3c5646ca	0.013078401
52	0x3c88991a	0.016674567
53	0x3c8ee0fe	0.017441269
54	0x3c87e263	0.016587442
55	0x3c572ef2	0.013133751
56	0x3b577d36	0.0032881028
57	0xbc1b5aa3	-0.009482059
58	0x3bd4d373	0.0064949333
59	0x3c0bcf92	0.008533375
60	0x39b0af0a	0.0003369975
61	0x3c09488a	0.008379111
62	0xbbe7076e	-0.0070504462
63	0x3b52dcad	0.003217499
64	0x3c84c01e	0.01620489
65	0xbc617e14	-0.0137629695
66	0x3b05fe95	0.0020445932
67	0x3c3d4925	0.011553084
68	0xbc236bf8	-0.009974472
69	0xbaa1c8cb	-0.0012343166
70	0xba57971d	-0.0008224117
71	0x3c424107	0.011856324
72	0xbb39646e	-0.002828862
73	0x3b140843	0.0022587932
74	0x3c8315a1	0.016001524
75	0x3beffa38	0.0073235296
76	0xb970900f	-0.0002294185
77	0x3c2fdb21	0.010733397
78	0xba88290f	-0.0010388213
79	0x3c8b7c9a	0.017027188
80	0xbae3ef46	-0.0017390035
81	0x3c7c5724	0.015401635
82	0xb9c492f8	-0.00037493533
83	0x3c3b6e4b	0.01143987
84	0x3c2cff25	0.010558878
85	0xbb9f67b5	-0.0048646578
86	0x3b09c456	0.0021021566
87	0xbb80d727	-0.003931898
88	0x3c364a6f	0.011126145
89	0xbb53639d	-0.003225542
90	0x3c6b34fe	0.014355896
91	0xbb851e44	-0.004062446
92	0xba9b916e	-0.0011868903
93	0xba6c53d7	-0.00090151787
94	0x3c7c7b80	0.015410304
95	0x3bdc315a	0.0067197504
96	0xbbe99171	-0.0071279337
97	0x3bb6532e	0.005564115
98	0xbc23ca2f	-0.009996935
99	0x3b416b79	0.0029513522
100	0x3c92e5b4	0.017931797
101	0xba0d4d2b	-0.0005390222
102	0xbbf57cb1	-0.007491671
103	0xbb8d6f50	-0.004316248
104	0x3c808f31	0.015693279
105	0x3bcd1a76	0.006259258
106	0x3bebe409	0.007198815
107	0xbc023c18	-0.007948898
108	0xba3268b9	-0.0006805766
109	0xbaf6fda5	-0.0018843903
110	0x3c900101	0.017578604
111	0x3c66e108	0.014091738
112	0xbc018149	-0.007904359
113	0x3c8ebcc5	0.017423997
114	0xbbacf7f8	-0.0052785836
115	0xba16126f	-0.0005724793
116	0x3ba7eaba	0.005124417
117	0xbbd74110	-0.0065690354
118	0xbacf7e9a	-0.0015830577
119	0xbc4f769e	-0.012662558
120	0xbc419c11	-0.011816994
121	0xbc0f4f06	-0.008746868
122	0xbb3d5a52	-0.0028892946
123	0x3b87c6ba	0.004143563
124	0x3ab9a6ed	0.0014164128
125	0x3bf703e9	0.007538308
126	0x3bafd75d	0.0053662495
127	0x3a0932a4	0.00052336813
128	0xbc1371f5	-0.008999337
129	0x3c178eba	0.009250337
130	0xbc8c06fb	-0.017093172
131	0xbca35753	-0.0199391
132	0xbc1e2f4e	-0.009654833
133	0x3b64b111	0.003489558
134	0xbc6e6b91	-0.014552013
135	0x3c105f61	0.008811803
136	0xbbc31a0f	-0.005954034
137	0xbc28f748	-0.010312863
138	0x3baa3a31	0.0051949252
139	0xbbfaa991	-0.0076496084
140	0xbc858fb0	-0.016303867
141	0xbc75bca1	-0.014998586
142	0xbc5363d1	-0.012902216
143	0xbca7a9fa	-0.020466793
144	0xbc885018	-0.016639754
145	0xbc5e582d	-0.013570827
146	0xbc09cf82	-0.00841129
147	0xbcc530d6	-0.024071138
148	0xbb386891	-0.0028138498
149	0xbc0d70ed	-0.008632881
150	0xba4216db	-0.00074039184
151	0xbcbcd2db	-0.023049762
152	0xbbc54c50	-0.00602106
153	0xbc09cad9	-0.008410179
154	0xbc5b64d5	-0.013390739
155	0xbce8638a	-0.028367776
156	0xbca30266	-0.019898605
157	0xbc966846	-0.018360268
158	0xbbe302c4	-0.00692782
159	0x3c6128b5	0.0137426155
160	0xbc2c8aff	-0.010531186
161	0x3bd746c5	0.0065697157
162	0x3c0510fa	0.008121723
163	0x3b31d396	0.0027134172
164	0x3c40270b	0.011728059
165	0x3b57f0c6	0.0032949909
166	0x3ba598ce	0.005053616
167	0xbb3d9605	-0.002892853
168	0xbcc65b3a	-0.024213422
169	0xbca915cc	-0.020640276
170	0xbba194b3	-0.0049310564
171	0xbb403295	-0.0029327024
172	0xbbf91a90	-0.0076020434
173	0x3c15e4f0	0.009148821
174	0xbc4c2995	-0.012461086
175	0xbc2fbd9c	-0.010726359
176	0xbb86d02c	-0.0041141715
177	0xbc9a8bc9	-0.018865483
178	0xbb9d0a69	-0.0047925008
179	0x3a3241bc	0.00067999563
180	0xbc2b4360	-0.010453075
181	0x3a7a606d	0.0009551112
182	0x3c7fcf9a	0.015613461
183	0x3b388468	0.0028155092
184	0xbbf7b20d	-0.007559067
185	0xbbf8b868	-0.0075903423
186	0xbbdd529c	-0.0067542326
187	0x3c48abc9	0.012247988
188	0x3c531c57	0.012885175
189	0xbb212769	-0.002459014
190	0x3bc4c2cb	0.0060046664
191	0x3c2717f2	0.01019858
192	0xb99c3ef8	-0.00029801554
193	0x3b8250de	0.0039769253
194	0x3c46e85f	0.0121403625
195	0x3c2e5516	0.010640403
196	0x3b3c7764	0.0028757686
197	0xbc03a3c1	-0.008034647
198	0x3c7a1d43	0.015265766
199	0x3bd21297	0.0064109075
200	0x3c48effc	0.012264248
201	0x3c7c8ad1	0.015413956
202	0x3c73ec00	0.01488781
203	0x3c975f6f	0.018478123
204	0x3ac87155	0.0015292565
205	0xbbe54527	-0.006996769
206	0xbb0e42fa	-0.0021707402
207	0x3bd18833	0.00639441
208	0x3c3aca18	0.011400722
209	0xbc8cfa51	-0.017209204
210	0x3c1a318f	0.00941123
211	0x3c348537	0.011018089
212	0xbbd2edd7	-0.006437044
213	0xbb38e8ec	-0.0028215004
214	0xbbdfa988	-0.0068256296
215	0x3c908f8f	0.01764658
216	0xbc2228ce	-0.009897424
217	0xbc33b808	-0.010969169
218	0x3c1c23a1	0.009529979
219	0xbc05b737	-0.008161358
220	0xbc0c36f9	-0.008558028
221	0x3c5f31e6	0.013622737
222	0xba790ccc	-0.0009500503
223	0x3bd8c5a4	0.0066153575
224	0x3bffa45b	0.007801575
225	0x3b18d844	0.0023322264
226	0x3a568703	0.00081835705
227	0xbaeb3540	-0.0017944947
228	0xbb1585f3	-0.0022815436
229	0xbbd2a792	-0.0064286673
230	0x3b8708cb	0.0041209213
231	0xbbbadd8e	-0.005702681
232	0xba7f1272	-0.00097302266
233	0xbc011b3e	-0.00788003
234	0x3bef30db	0.007299525
235	0x3c612eeb	0.013744096
236	0x3c148bdf	0.009066551
237	0x3c1af82d	0.009458584
238	0xbbeb8625	-0.007187622
239	0x3ba0afd9	0.004903775
240	0xbbc26f9b	-0.0059337146
241	0x3c1aa501	0.009438754
242	0xbbf8f7ad	-0.0075978846
243	0xbbcc5cb7	-0.0062366384
244	0xbb77fccf	-0.0037839895
245	0x3c85c731	0.016330333
246	0x3acc43f1	0.0015584213
247	0x3c548c0e	0.012972845
248	0x3a461ae4	0.00075571076
249	0x3b1d9cde	0.00240498
250	0x3a407f4c	0.00073431875
251	0xbbb3d6e4	-0.0054882634
252	0xbba0b49a	-0.004904342
253	0x3bef633d	0.0073055313
254	0xbc0902ee	-0.008362515
255	0xbc13cf62	-0.009021612

fc.bias f4 [32]
0	0xbc869c0d	-0.016431833
1	0x3cbab0eb	0.02278944
2	0xbc6d5289	-0.01448501
3	0x3b8c0d51	0.0042740484
4	0x3c9ea675	0.019366482
5	0x3d90e4d8	0.070748985
6	0xbbcf93cb	-0.006334757
7	0x3ca3bc83	0.01998735
8	0xbb8fc260	-0.004387185
9	0x3aac042f	0.0013123805
10	0x3ad0f994	0.0015943521
11	0x3c8ae773	0.016956067
12	0x3d268276	0.04065176
13	0x3cd37f23	0.02581746
14	0xbc96b9e9	-0.018399196
15	0x3c944821	0.0181008
16	0xbc55cf81	-0.013049961
17	0xbba4985f	-0.005023047
18	0x396aea20	0.00022403197
19	0x3c96bcc5	0.01840056
20	0xbb679ad6	-0.0035340092
21	0xbca80b53	-0.020513212
22	0x3be4dfc5	0.006984683
23	0xbbbcb12b	-0.0057584248
24	0xbbeb012d	-0.007171771
25	0xbb45a1ac	-0.0030156178
26	0x3c7f0e9b	0.015567447
27	0xbc44cc4b	-0.012011598
28	0x3cb60c0d	0.022222543
29	0x3bc22477	0.005924757
30	0x3c18b168	0.009319641
31	0x3cca5e89	0.024703281

translation.weight f4 [2, 32]
0	0x391c3d48	0.00014900148
1	0x3a5d5d16	0.0008444352
2	0xbbf7a74b	-0.0075577847
3	0x39490321	0.0001917002
4	0x3840b420	4.594412e-05
5	0xba076ace	-0.00051657564
6	0x39bb5da9	0.00035737202
7	0xba98348b	-0.0011612339
8	0x3967de2e	0.00022112645
9	0x3a81f0c1	0.0009913669
10	0x397223be	0.00023092233
11	0xb981f4b4	-0.00024787115
12	0xbaff81a8	-0.0019493597
13	0x3924b439	0.00015707397
14	0xbbd40687	-0.0064705047
15	0x3b6cfc9a	0.0036161304
16	0xba81148d	-0.0009848044
17	0x3b336397	0.0027372593
18	0xb90d693a	-0.00013486008
19	0x395ca2fb	0.0002104155
20	0x3c29984b	0.010351251
21	0xbbcd1c14	-0.0062594507
22	0x3af17c1b	0.0018423827
23	0xbc0733c8	-0.008252092
24	0xbbe0f3bf	-0.0068649943
25	0x3b83b93e	0.0040198853
26	0x380a2a95	3.294142e-05
27	0x3bb3a00a	0.0054817246
28	0x3890209e	6.8725305e-05
29	0xb9bd19af	-0.00036068025
30	0x3909cc14	0.00013141363
31	0xb8a1bf69	-7.712731e-05
32	0xba7564e1	-0.00093610404
33	0x350409c3	4.9188037e-07
34	0xbc3f3507	-0.011670358
35	0xba744ddc	-0.0009319463
36	0xba2f737f	-0.00066929305
37	0xb7d4db64	-2.5374531e-05
38	0x383c07d8	4.4829998e-05
39	0x3aa79c5a	0.0012787685
40	0xba6992b9	-0.0008910108
41	0xb9566ddd	-0.00020449558
42	0xba20bec8	-0.0006131944
43	0xb9c139de	-0.00036854943
44	0x3a31e35e	0.00067858945
45	0xba7e0920	-0.0009690691
46	0xbba26bae	-0.004956684
47	0xba4ad4de	-0.0007737408
48	0x3c6aede1	0.014338941
49	0xbc3c11f3	-0.011478889
50	0xb9d84fc6	-0.00041258166
51	0xb9abac35	-0.00032743966
52	0x3c36c6b6	0.011155775
53	0xbb6f010d	-0.0036469132
54	0x3a3bc042	0.00071621325
55	0xbb5c4122	-0.0033608158
56	0xbbd73eaa	-0.0065687494
57	0xbb1b4429	-0.002369175
58	0xba08820d	-0.00052073674
59	0xbaac7a4a	-0.0013159004
60	0xb9e991f8	-0.00044549978
61	0xba576a97	-0.0008217482
62	0xba40bffa	-0.00073528255
63	0xba25b857	-0.0006321719

translation.bias f4 [2]
0	0xb9ced181	-0.00039447474
1	0xbb2d9048	-0.0026483703

rotation.weight f4 [1, 32]
0	0xbc4b3505	-0.012402778
1	0xbc5266a0	-0.0128418505
2	0xbba2c5b8	-0.0049674176
3	0xbc587eae	-0.013213797
4	0xbc5a0f51	-0.013309316
5	0xbceb4805	-0.028720865
6	0xbc2b867e	-0.010469077
7	0xbc52934c	-0.012852501
8	0xbc52ec83	-0.012873772
9	0xbc435281	-0.011921526
10	0xbbd65ce2	-0.006541834
11	0xbc5a4896	-0.01332297
12	0x3cbe26fd	0.02321195
13	0xbc53fdf8	-0.012938969
14	0x00000000	0.0
15	0xbc53896a	-0.01291118
16	0x3c0f9393	0.008763212
17	0xbd9f0da4	-0.077662736
18	0xbc4f45dd	-0.012650934
19	0xbc58fa24	-0.013243232
20	0x3c1f315e	0.00971636
21	0x00000000	0.0
22	0xbc51419d	-0.012771991
23	0x00000000	0.0
24	0x3b6328d0	0.0034661777
25	0xbb87d9ba	-0.004145828
26	0xbc5643cb	-0.013077687
27	0xbb66fbc1	-0.0035245272
28	0xbc58535b	-0.013203467
29	0xbc58ce04	-0.013232712
30	0xbc51608e	-0.012779368
31	0xbc5c217a	-0.013435716

scaling.weight f4 [2, 32]
0	0x3bcd8277	0.006271656
1	0x3bcb60a8	0.0062065907
2	0x3c7c5432	0.015400933
3	0x3bc8f611	0.006132849
4	0x3bdaa163	0.006672071
5	0xbaf35da3	-0.0018567335
6	0x3b9077c3	0.004408808
7	0xbb9d3d7f	-0.0047985907
8	0x3bc84b1b	0.006112469
9	0x3bec9220	0.007219568
10	0x3ba5dab6	0.0050614728
11	0x3bd5b3ef	0.006521694
12	0xbb803f1a	-0.0039137723
13	0x3b606f89	0.0034246168
14	0xbb2633ea	-0.0025360533
15	0x3b726c0c	0.003699067
16	0x3c353f45	0.011062448
17	0x3cdbae83	0.026816612
18	0x3bd547ef	0.0065088193
19	0x3c25ee8b	0.010127674
20	0x3c5dae45	0.013530319
21	0xbc03e346	-0.008049792
22	0x3a873149	0.0010314371
23	0xbbf134e3	-0.007361041
24	0x3ba6fa62	0.005095766
25	0x3c0a238d	0.0084313275
26	0x3bd8c9f8	0.0066158734
27	0x3c08dff7	0.008354179
28	0x3bd7f32b	0.006590267
29	0x3be1b430	0.006887935
30	0x3bbab7e0	0.005698189
31	0x3bdedff7	0.006801601
32	0x3bc8e6ad	0.0061310143
33	0x3bc5a78f	0.0060319374
34	0x3a88ed3d	0.0010446679
35	0x3bceb2f4	0.006307954
36	0x3bce2284	0.0062907357
37	0x3a86a8c1	0.0010273681
38	0x3b2ef08c	0.002669367
39	0xbaf4714c	-0.0018649488
40	0x3bcbe8be	0.0062228134
41	0x3b86f11f	0.0041180993
42	0x3be82d25	0.00708546
43	0x3bd2476d	0.006417206
44	0x3b26bb88	0.0025441367
45	0x3c072bba	0.008250171
46	0x3b5e636b	0.003393377
47	0x3ca6de22	0.020369593
48	0xbc69f999	-0.0142807
49	0xbc57b086	-0.013164645
50	0x3bca6f42	0.0061778137
51	0x3b8efa24	0.004363315
52	0x3c2ee5e3	0.010674926
53	0x3b9a4a38	0.0047085546
54	0x3ad7c0e7	0.0016460688
55	0xbc029513	-0.007970112
56	0xbb8e4fff	-0.0043430324
57	0x3befac14	0.0073142145
58	0x3bbae68a	0.005703752
59	0x3bfa1575	0.0076319524
60	0x3bc30cc4	0.0059524495
61	0x3bd336e6	0.0064457534
62	0x3bce95ad	0.006304464
63	0x3bcdfc27	0.0062861624

scaling.bias f4 [2]
0	0x3ccc115d	0.024910623
1	0xbc5cb515	-0.013470908

shearing.weight f4 [1, 32]
0	0xbbcac4e5	-0.0061880224
1	0xbbeab073	-0.0071621477
2	0xbc492d38	-0.012278847
3	0xbbcaed00	-0.0061928034
4	0xbbca7a6c	-0.0061791446
5	0x3b639603	0.0034726865
6	0xbbc02c8d	-0.005864686
7	0xbbbb5683	-0.0057171
8	0xbbcae3b9	-0.0061916974
9	0xbc062fe2	-0.008190127
10	0xbc1f3ea2	-0.009719523
11	0xbbcbb6d4	-0.006216863
12	0x3ccde0f4	0.02513168
13	0xba899fcc	-0.0010499894
14	0x3b556938	0.0032563936
15	0xbb91b126	-0.0044461666
16	0xbca3da32	-0.020001505
17	0x3bbd215c	0.005771799
18	0xbbd79c9d	-0.006579949
19	0xbbab173a	-0.0052212747
20	0xbc834be4	-0.016027398
21	0xbbea6608	-0.0071532764
22	0xbcba74e1	-0.02276081
23	0xbbeddb17	-0.0072587836
24	0xbb9392ad	-0.004503569
25	0x3b932de8	0.0044915564
26	0xbbd4789d	-0.006484105
27	0x3b638cbd	0.0034721338
28	0xbbd57fa2	-0.006515459
29	0xbbca4e18	-0.0061738603
30	0xbbcdba5a	-0.0062783184
31	0xbbcb0788	-0.006195966
