output/77_e/train/model/itn_90.pt (torch_old, 23547 bytes, 23 tensors)

conv11.weight f4 [2, 1, 3, 3]
0.30412874 0.30269948 -0.06099004 0.34847897 -0.058920775 0.082988314 -0.15364899 0.1938257
0.3001451 -0.21564427 0.27114472 0.10767399 0.29346403 0.021816662 0.18221931 -0.033995826
0.20131128 -0.020386826
00000000: c3b6 9b3e 6dfb 9a3e b1d0 79bd d66b b23e
00000010: e956 71bd c7f5 a93d 2956 1dbe 3f7a 463e
00000020: 9eac 993e dad1 5cbe 7bd3 8a3e 2e84 dc3d
00000030: eb40 963e dbb8 b23c b397 3a3e 353f 0bbd
00000040: 8b24 4e3e 4602 a7bc

conv11.bias f4 [2]
-0.15581155 -0.034192696
00000000: 108d 1fbe a40d 0cbd

conv12.weight f4 [4, 2, 3, 3]
-0.10504843 -0.0020049242 -0.0772796 0.127753 -0.21130332 -0.13103351 -0.0931807 -0.17458893
0.008732269 -0.2743042 0.18090479 -0.21687748 0.14751437 0.008964444 -0.107088454 0.1324518
0.012426655 0.1616892 0.053042654 -0.07730179 0.053040445 -0.035742126 0.09959169 0.20662199
0.15891777 -0.10742021 0.12979491 0.052798513 0.10360247 -0.15000142 -0.22617406 -0.10351102
-0.18266702 0.19762793 0.05338332 0.094834276 0.1715325 0.04957428 0.23833944 -0.08739012
0.05817469 -0.109792605 0.12712424 -0.061263073 0.103827424 0.011971907 0.22314619 -0.080084935
-0.09640218 -0.11639155 0.2693802 0.10129611 0.23188625 -0.15690689 -0.2552731 -0.21433161
-0.14018235 0.12928414 0.11293333 0.2804739 -0.1030297 -0.11123433 0.18523987 -0.14406131
0.14913039 -0.048195772 0.20171691 -0.12760416 -0.06735939 0.123330645 0.09713601 -0.0049796402
00000000: a223 d7bd 0c65 03bb c444 9ebd afd1 023e
00000010: e65f 58be a62d 06be 86d5 bebd 71c7 32be
00000020: ca11 0f3c 9a71 8cbe 1b3f 393e 2115 5ebe
00000030: 020e 173e 9adf 123c 3151 dbbd 72a1 073e
00000040: 2b99 4b3c db91 253e 4143 593d 6750 9ebd
00000050: f040 593d 5666 12bd baf6 cb3d b794 533e
00000060: 57bb 223e 21ff dbbd f5e8 043e 4143 583d
00000070: 882d d43d f999 19be 2c9a 67be 96fd d3bd
00000080: 100d 3bbe fa5e 4a3e 78a8 5a3d 7938 c23d
00000090: 37a6 2f3e 660e 4b3d 410f 743e 97f9 b2bd
000000a0: 9548 6e3d f2da e0bd db2c 023e fdee 7abd
000000b0: 79a3 d43d d125 443c 6f80 643e 9203 a4bd
000000c0: 826e c5bd b15e eebd 34ec 893e 5674 cf3d
000000d0: 9773 6d3e 33ac 20be 28b3 82be bf79 5bbe
000000e0: f68b 0fbe 1063 043e 9749 e73d 469a 8f3e
000000f0: 3c01 d3bd d3ce e3bd 85af 3d3e cf84 13be
00000100: a3b5 183e ee68 45bd e18e 4e3e aaaa 02be
00000110: b8f3 89bd c794 fc3d 3fef c63d 402c a3bb

conv12.bias f4 [4]
0.07238986 0.15724897 -0.20504564 -0.12364433
00000000: 2341 943d e005 213e 7cf7 51be 3d39 fdbd

down1.weight f4 [8, 4, 2, 2]
0.2748482 0.0022234826 -0.00038840354 -0.22578692 -0.20517306 -0.0061719506 -0.090914145 -0.22959195
-0.037477035 -0.22095984 -0.26173007 -0.19545466 -0.7121054 -0.77157694 -0.25228932 -0.5845017
0.13622564 -0.13508263 -0.067482196 0.036526006 -0.01240943 -0.26740593 -0.16055608 -0.18295133
-0.03782453 -0.12585539 -0.061904795 -0.2036187 -0.49390504 -0.6016879 -0.5331194 -0.68348956
0.23695797 -0.014587328 0.27655113 0.0936977 -0.2975887 0.08082755 -0.11974855 -0.12262911
-0.34544823 -0.393581 0.0020165113 -0.12883176 -0.023814943 -0.38936856 -0.05653403 -0.39906883
-0.053281013 0.0642224 0.13889536 0.039671894 0.15453011 -0.3018125 0.0026835545 -0.19680595
-0.118619196 -0.30891085 0.15151569 -0.29772174 0.3274184 0.2756565 0.29966018 0.105894186
0.21062358 0.12248494 0.03545879 -0.34586862 -0.0135222105 -0.17031768 -0.30593735 0.07488736
0.044939857 -0.13237396 -0.2285192 -0.0952751 -0.24804443 -0.57967407 -0.6500204 -0.66564554
-0.20446774 0.05533825 0.20967986 -0.20837143 0.1324206 0.19155109 0.117031045 -0.045526132
0.19353257 0.18272474 0.1741721 0.01998157 0.3356197 0.4237278 0.24242678 0.24735087
0.09730325 0.13478197 -0.14794901 -0.1406204 0.050162308 0.03234059 0.11690789 0.110624894
-0.21066156 -0.07033188 0.25383973 0.14167109 0.50785583 0.37064332 0.28675693 0.18622786
-0.0667575 0.13410485 0.21596225 0.17820647 -0.27514866 -0.18888056 -0.091274485 0.21681945
-0.0013440127 -0.08480235 0.046167776 -0.12774844 -0.62965226 -0.26816198 -0.62702173 -0.55855554
00000000: e7b8 8c3e d9b7 113b a4a2 cbb9 b034 67be
00000010: e318 52be 133e cabb 3231 babd 271a 6bbe
00000020: 8581 19bd 4c43 62be 7c01 86be 4425 48be
00000030: 8a4c 36bf 1186 45bf 112c 81be e7a1 15bf
00000040: bc7e 0b3e 1a53 0abe 1b34 8abd 4b9c 153d
00000050: ec50 4bbc 6ee9 88be d068 24be 9857 3bbe
00000060: e5ed 1abd 3ce0 00be e28f 7dbd 6c81 50be
00000070: 1fe1 fcbe 3808 1abf 837a 08bf 2cf9 2ebf
00000080: 1ca5 723e b0ff 6ebc 1c98 8d3e 94e4 bf3d
00000090: 8c5d 98be ea88 a53d ba3e f5bd f924 fbbd
000000a0: 97de b0be 7383 c9be 7227 043b 79ec 03be
000000b0: 8e17 c3bc 515b c7be 3a90 67bd c052 ccbe
000000c0: 313d 5abd 0987 833d 963a 0e3e ff7e 223d
000000d0: 243d 1e3e 2b87 9abe 93de 2f3b 8087 49be
000000e0: 9fee f2bd 9029 9ebe ee26 1b3e fc6e 98be
000000f0: 62a3 a73e d922 8d3e 0f6d 993e 0ddf d83d
00000100: b5ad 573e 62d9 fa3d 3c3d 113d b115 b1be
00000110: 438c 5dbc c267 2ebe d2a3 9cbe 8b5e 993d
00000120: db12 383d 0a8d 07be f000 6abe 971f c3bd
00000130: 5cff 7dbe 8565 14bf bd67 26bf bf67 2abf
00000140: fe5f 51be 5caa 623d 51b6 563e 525f 55be
00000150: 4499 073e f825 443e f9ad ef3d 9c79 3abd
00000160: 672d 463e 321c 3b3e 2c5a 323e 64b0 a33c
00000170: 58d6 ab3e daf2 d83e ba3e 783e 8c49 7d3e
00000180: ed46 c73d 4904 0a3e f27f 17be cbfe 0fbe
00000190: fe76 4d3d 9177 043d 676d ef3d 4e8f e23d
000001a0: aab7 57be 290a 90bd 48f7 813e 3a12 113e
000001b0: d702 023f f6c4 bd3e ced1 923e 84b2 3e3e
000001c0: 28b8 88bd c852 093e 3525 5d3e c27b 363e
000001d0: 49e0 8cbe e869 41be 1eee babd eb05 5e3e
000001e0: 9529 b0ba dbac adbd 6c1a 3d3d 7dd0 02be
000001f0: e430 21bf 874c 89be 7f84 20bf 7ffd 0ebf

down1.bias f4 [8]
-0.24734826 0.14269717 0.19217174 -0.016445447 -0.1166217 -0.3677506 -0.22347343 0.22097073
00000000: dd48 7dbe 351f 123e abc8 443e 9ab8 86bc
00000010: 5cd7 eebd cf49 bcbe 38d6 64be 2746 623e

conv21.weight f4 [8, 8, 3, 3]
0.0432632 0.10203821 0.070376955 -0.0092164455 -0.022305992 -0.10221452 -0.12231765 -0.11025068
0.05211551 -0.08142498 -0.033670142 -0.06965116 -0.06361636 -0.110585496 -0.09284194 0.022571325
-0.03423254 0.07854841 -0.0372736 -0.06987943 -0.00036108115 -0.090124935 -0.049010225 -0.11582248
0.04197472 -0.08287039 0.06217272 0.085409194 0.12188734 -0.042912275 0.091710545 -0.041874748
0.07342252 0.11630868 -0.00035386995 0.01766475 -0.059647992 -0.11098985 0.061180316 -0.16973919
0.04167181 0.06943021 0.08264499 -0.026554301 -0.08890727 0.03822307 0.059091907 -0.1301013
0.020800782 -0.04572873 0.0040096533 -0.024266068 -0.0426742 -0.038633578 -0.06353772 0.1210101
0.11078228 0.03566413 0.02167258 -0.024103696 -0.09039595 -0.12506527 0.030585185 -0.10067481
-0.09796153 -0.024305029 -0.105043426 -0.08644944 -0.02978855 -0.061733525 -0.052600317 -0.058019865
-0.101406604 0.04108932 -0.1158815 0.03753066 -0.08769335 -0.051819675 0.16352713 0.075956374
-0.09261912 0.03052325 0.047570534 -0.041016202 0.08021223 0.06837881 -0.07659527 0.07807631
-0.056863498 -0.009045005 0.08463939 0.0087291775 -0.1375991 -0.09050144 -0.13111249 -0.18379529
-0.046978492 -0.02409839 0.065432526 -0.013187699 -0.15659016 -0.14663659 0.033889372 -0.16252682
-0.07503699 0.060283996 -0.0897773 -0.042700384 -0.012731639 -0.09284647 -0.14424668 -0.10653623
-0.1542777 -0.14437506 0.15206096 -0.054424696 -0.08914265 0.026692789 0.08526011 0.1327647
0.08298228 0.11919761 -0.043383513 -0.037435614 0.06372344 0.0007352526 -0.06612373 0.17977817
0.04215375 -0.09115112 -0.077712595 0.05201474 -0.03863233 -0.048252963 -0.0406803 -0.09541875
-0.16963974 -0.07396761 0.110641815 0.015772041 -0.13986972 0.042321283 -0.06451173 -0.052314226
0.049314007 0.039293416 0.0049909325 -0.021956244 0.10142375 -0.12292074 0.121650934 0.09525258
-0.043083213 0.14212197 -0.12117419 -0.13924192 0.15416646 -0.0014346057 -0.06644781 0.026891345
0.074077144 0.011632008 0.056904644 -0.10907236 -0.20059405 0.09754084 0.057564415 -0.0993296
0.07750564 0.08554499 -0.03235418 -0.0036527212 -0.09841919 -0.24899077 -0.07621814 -0.056619655
-0.14490438 0.074336804 -0.04767582 -0.10695658 0.15395728 0.0011160324 -0.03746204 0.0405776
-0.019532517 -0.041575916 0.0034885658 -0.070971146 -0.07781548 -0.062243197 -0.042115413 0.18279551
-0.0074076243 -0.0060324296 0.027004765 -0.21028827 -0.052645285 0.076015234 -0.03355785 -0.046005398
0.0039033538 -0.064511545 -0.12524763 0.09843124 -0.12648585 0.028769307 0.03524771 0.039309107
-0.07027641 -0.019507559 0.09871698 0.13249353 0.06733073 0.048737183 -0.07079746 0.049016185
0.04260229 -0.12724888 0.08433333 -0.1508989 -0.10813891 0.19012648 -0.037190933 -0.02906611
-0.013966486 0.066553794 -0.006936421 0.06493055 -0.045944296 0.011447793 0.21952432 -0.14156382
-0.011090727 -0.03335593 -0.15946864 -0.10148401 0.21064384 0.081959054 0.11543972 0.2285079
0.0049615316 -0.077778496 -0.027031858 0.018958863 -0.09026517 0.053430233 0.00049007393 0.08972476
0.33805278 -0.10333918 -0.1326343 0.104411654 -0.16544384 -0.1591568 0.11448422 -0.08146116
00000000: c134 313d 69f9 d03d cb21 903d 9300 17bc
00000010: 0ebb b6bc d955 d1bd ad81 fabd 1ccb e1bd
00000020: 1377 553d 24c2 a6bd b4e9 09bd 44a5 8ebd
00000030: 4b49 82bd a67a e2bd ea23 bebd 80e7 b83c
00000040: 6b37 0cbd fddd a03d 34ac 18bd f21c 8fbd
00000050: 7e4f bdb9 6c93 b8bd f2be 48bd 5634 edbd
00000060: afed 2b3d f3b7 a9bd d2a8 7e3d 04eb ae3d
00000070: 12a0 f93d c8c4 2fbd bdd2 bb3d db84 2bbd
00000080: 8c5e 963d 3f33 ee3d 9f87 b9b9 aab5 903c
00000090: 7451 74bd a54e e3bd 3698 7a3d 1cd0 2dbe
000000a0: 0fb0 2a3d 6d31 8e3d c741 a93d 6888 d9bc
000000b0: 0415 b6bd cb8f 1c3d 5b0a 723d 4639 05be
000000c0: 6766 aa3c 0c4e 3bbd 6963 833b a2c9 c6bc
000000d0: 24cb 2ebd 3e3e 1ebd 1020 82bd 25d4 f73d
000000e0: d2e1 e23d 8d14 123d b28a b13c 1d75 c5bc
000000f0: 8321 b9bd 1c11 00be c88d fa3c 982e cebd
00000100: 0ea0 c8bd 571b c7bc 0221 d7bd 670c b1bd
00000110: 1e07 f4bc 4bdc 7cbd 6e73 57bd 3da6 6dbd
00000120: 44ae cfbd 464d 283d 4853 edbd c0b9 193d
00000130: 9298 b3bd de40 54bd a873 273e 048f 9b3d
00000140: 18af bdbd e50b fa3c 52d9 423d 9b00 28bd
00000150: 4f46 a43d 310a 8c3d fbdd 9cbd 79e6 9f3d
00000160: b3e9 68bd 8031 14bc 6b57 ad3d d304 0f3c
00000170: c7e6 0cbe d258 b9bd 5a42 06be d534 3cbe
00000180: 856c 40bd fd69 c5bc 7d01 863d 3811 58bc
00000190: 2c59 20be e727 16be 95cf 0a3d 6e6d 26be
000001a0: feac 99bd 5aec 763d 29dd b7bd 99e6 2ebd
000001b0: 5d98 50bc 4a26 bebd 67b5 13be ab2f dabd
000001c0: f9fa 1dbe 0ed7 13be deb5 1b3e 6eec 5ebd
000001d0: 6c90 b6bd d6aa da3c da9c ae3d 78f3 073e
000001e0: 9df2 a93d e01d f43d e9b2 31bd 1656 19bd
000001f0: 6f81 823d f7bd 403a e16b 87bd c517 383e
00000200: 69a9 2c3d 70ad babd c827 9fbd 680d 553d
00000210: ef3c 1ebd e6a4 45bd 63a0 26bd e86a c3bd
00000220: 0ab6 2dbe 557c 97bd 2d98 e23d 5e34 813c
00000230: 023a 0fbe 1559 2d3d ba1e 84bd 7147 56bd
00000240: 7cfd 493d 22f2 203d fa8a a33b 95dd b3bc
00000250: 41b7 cf3d debd fbbd 2024 f93d c913 c33d
00000260: 0678 30bd 6c88 113e 2c2a f8bd 6f95 0ebe
00000270: d0dd 1d3e 6109 bcba ca15 88bd 3d4b dc3c
00000280: c2b5 973d 2d94 3e3c d814 693d 5461 dfbd
00000290: 8768 4dbe 7ec3 c73d aac8 6b3d 516d cbbd
000002a0: 47bb 9e3d 3632 af3d d185 04bd 7e62 6fbb
000002b0: 0090 c9bd 70f7 7ebe 4218 9cbd 03ea 67bd
000002c0: d061 14be e53d 983d b847 43bd 0d0c dbbd
000002d0: faa6 1d3e d547 923a cc71 19bd b334 263d
000002e0: a802 a0bc 824b 2abd 6ca0 643b 5259 91bd
000002f0: b95d 9fbd b9f2 7ebd 3681 2cbd bf2e 3b3e
00000300: a8bb f2bb b0ab c5bb 1939 dd3c cf55 57be
00000310: 95a2 57bd e0ad 9b3d f573 09bd 2870 3cbd
00000320: 69cf 7f3b a11e 84bd ea40 00be 5196 c93d
00000330: 8285 01be 9cad eb3c e75f 103d 9602 213d
00000340: 14ed 8fbd 51ce 9fbc 212c ca3d 62ac 073e
00000350: b2e4 893d a4a0 473d 42fe 90bd 32c5 483d
00000360: bd7f 2e3d 884d 02be f4b6 ac3d 3e85 1abe
00000370: ef77 ddbd 84b0 423e 8555 18bd 0d1c eebc
00000380: b0d3 64bc 5b4d 883d eb4a e3bb 4ffa 843d
00000390: 1630 3cbd 868f 3b3c fcca 603e 1bf6 10be
000003a0: e1b5 35bc 3aa0 08bd bf4b 23be d9d6 cfbd
000003b0: 05b3 573e 26da a73d a96b ec3d fafd 693e
000003c0: 5894 a23b 554a 9fbd ea71 ddbc 9e4f 9b3c
000003d0: f2dc b8bd a9d9 5a3d 4e78 003a 9dc1 b73d
000003e0: 4115 ad3e 7ea3 d3bd 49d1 07be c7d5 d53d
000003f0: 1c6a 29be 00fa 22be b476 ea3d 1cd5 a6bd

conv21.bias f4 [8]
0.14155799 -0.28899693 0.043827157 0.06178143 0.12381271 0.08332183 0.032797918 0.06273573
00000000: 94f4 103e 68f7 93be 1b84 333d 860e 7d3d
00000010: 8591 fd3d a3a4 aa3d 1c57 063d 977b 803d

down2.weight f4 [16, 8, 2, 2]
0.03357137 0.08579341 -0.110572875 0.088698946 0.106750436 0.1572369 -0.09364062 -0.079449385
0.14335217 0.26011762 0.1833265 -0.0025246656 0.06291393 0.031231247 0.042817302 0.09577072
0.12323902 0.19299282 0.1451611 0.35942957 -0.17259534 -0.043576375 -0.0098043 -0.114463
-0.021140203 -0.2090716 -0.17898214 -0.17635395 0.10999352 0.07330519 0.13611294 0.045688305
0.09030317 0.16264938 0.08926138 -0.0444632 -0.17893825 0.05769724 -0.080219716 0.12533061
-0.14215916 -0.07233072 0.106583856 0.17325172 -0.03378695 -0.15688306 0.2065758 -0.009724564
-0.2080696 0.06254043 0.03341445 0.0025410878 0.016956618 -0.14480637 0.014031429 0.20683438
0.043739025 0.0039240615 -0.0139326975 -0.04781797 0.17946373 0.1220956 0.20563492 0.091094114
0.1352302 0.10931228 0.08412275 0.14294645 0.10927681 0.16023351 0.12797348 -0.041821003
-0.23401688 -0.14119378 0.029547144 -0.05489227 -0.09085625 -0.058745146 0.23380575 0.13992065
-0.26584917 -0.37132984 -0.24432358 -0.31977692 0.20658809 0.117314585 0.20305473 0.02039077
0.12839602 0.121044286 -0.10874493 0.036350086 0.1473924 0.15426558 -0.031293463 0.35192215
0.09686826 0.056214325 0.13810661 -0.07758858 0.015329017 0.09654387 0.027510999 0.0055289264
-0.03812229 0.26924762 -0.0778032 0.11486644 0.20306124 0.28055313 -0.042058684 0.3320879
0.11063578 0.30425832 0.3786526 0.22769892 -0.16633284 -0.111469574 -0.06682263 -0.07173149
-0.15716484 0.046551693 0.003024888 -0.046698608 -0.108996294 -0.060889196 0.06347784 0.03441302
-0.106543966 0.08164562 -0.036771 -0.08057788 -0.1706072 0.06438947 -0.121555865 -0.0972782
-0.11855148 -0.3227856 -0.16099474 -0.5487179 -0.27119243 -0.41534233 0.113915384 -0.17660266
-0.33549225 -0.43721467 -0.49070215 -0.54429096 0.014064967 0.19713081 0.1402642 0.01428675
0.105610766 0.0056517553 0.16206525 0.116602466 0.1667139 0.0072293887 -0.006146853 -0.16348112
-0.035927046 0.08677935 0.22328414 0.18837924 -0.010670517 -0.13704748 0.0589621 0.12060823
-0.37490815 -0.23874979 -0.27598748 -0.13394025 0.13875993 -0.087716 0.23175713 0.18479343
-0.27458724 -0.4478255 -0.10459934 -0.36052406 -0.0002592231 -0.030901304 0.055791803 -0.17718928
0.16221194 -0.07887205 0.037534382 0.07397793 0.06345324 0.09956432 0.06382081 0.108107634
-0.14423266 -0.108746424 -0.008245511 -0.17934418 -0.1363232 -0.034744512 0.02279439 0.08884056
-0.23066849 -0.14119634 0.0143826045 -0.119747534 -0.15142973 -0.008152456 -0.17445947 -0.10353087
0.20794936 0.13161314 0.23497994 0.024610069 -0.042106256 -0.16510719 0.037384283 -0.11093856
-0.12861991 -0.21795109 -0.052408505 0.13860981 0.16634093 -0.039041173 0.13244763 0.093417205
-0.1533001 0.11749623 0.07595266 0.10108924 -0.18998903 -0.14574662 0.02403635 0.09396727
-0.3686267 -0.3554165 -0.112501256 -0.25382152 -0.25939265 -0.24945451 0.24723938 0.008305359
-0.2261409 -0.27839977 -0.25933972 -0.38837382 -0.15530658 0.08505255 0.23840915 0.24925843
-0.13524532 0.069852136 -0.03389989 0.16214901 0.20571654 0.24835198 0.19642977 0.21387789
00000000: 2282 093d 75b4 af3d 0874 e2bd cba7 b53d
00000010: f99f da3d b602 213e a7c6 bfbd 5cb6 a2bd
00000020: e9ca 123e 232e 853e f1b9 3b3e dc74 25bb
00000030: 05d9 803d acd8 ff3c 3261 2f3d 7023 c43d
00000040: bd64 fc3d e99f 453e 1da5 143e 2707 b83e
00000050: d5bc 30be 247d 32bd 37a2 20bc 946b eabd
00000060: 382e adbc de16 56be 1847 37be 2196 34be
00000070: 4844 e13d 0821 963d 3161 0b3e a923 3b3d
00000080: def0 b83d 8f8d 263e acce b63d 0b1f 36bd
00000090: 973b 37be f153 6c3d 3c4a a4bd ab56 003e
000000a0: 2c92 11be 2122 94bd a348 da3d e668 313e
000000b0: 2f64 0abd f4a5 20be 9b88 533e c753 1fbc
000000c0: 3210 55be 3215 803d 97dd 083d 6188 263b
000000d0: 9be8 8a3c 1f48 14be 14e4 653c 64cc 533e
000000e0: b127 333d 6a95 803b f845 64bc c7dc 43bd
000000f0: 57c5 373e 420d fa3d f691 523e 8d8f ba3d
00000100: c979 0a3e 1edf df3d 8c48 ac3d 8e60 123e
00000110: 85cc df3d 4114 243e 7b0b 033e 804c 2bbd
00000120: 1fa2 6fbe 1a95 10be da0c f23c b8d6 60bd
00000130: d712 babd c09e 70bd c66a 6f3e 5c47 0f3e
00000140: 621d 88be f21e bebe f62f 7abe cdb9 a3be
00000150: d48b 533e a142 f03d 94ed 4f3e 8b0a a73c
00000160: 3f7a 033e 11e6 f73d a9b5 debd d4e3 143d
00000170: 09ee 163e ccf7 1d3e 932d 00bd 242f b43e
00000180: de62 c63d fe40 663d d26b 0d3e c3e6 9ebd
00000190: 8f26 7b3c cbb8 c53d bf5e e13c ff2b b53b
000001a0: 1e26 1cbd d3da 893e 4957 9fbd 193f eb3d
000001b0: 49ef 4f3e a9a4 8f3e ba45 2cbd 6d07 aa3e
000001c0: 0395 e23d bfc7 9b3e c1de c13e e829 693e
000001d0: 2853 2abe 294a e4bd 4eda 88bd f6e7 92bd
000001e0: d2ef 20be fdac 3e3d 333d 463b 0a47 3fbd
000001f0: 7339 dfbd f366 79bd ab00 823d abf4 0c3d
00000200: b933 dabd d235 a73d 309d 16bd 0406 a5bd
00000210: a7b3 2ebe a0de 833d 48f2 f8bd cb39 c7bd
00000220: 1ecb f2bd 2744 a5be cedb 24be c778 0cbf
00000230: bcd9 8abe c0a7 d4be 784c e93d 54d7 34be
00000240: a4c5 abbe 9ada dfbe 503d fbbe a756 0bbf
00000250: bf70 663c a9dc 493e 6ba1 0f3e f912 6a3c
00000260: 754a d83d 5c32 b93b 6ff4 253e 46cd ee3d
00000270: 0cb7 2a3e 82e4 ec3b 8a6b c9bb 9867 27be
00000280: 3d28 13bd 5fb9 b13d 99a4 643e 7de6 403e
00000290: 64d3 2ebc 2d56 0cbe 3e82 713d 7301 f73d
000002a0: f6f3 bfbe d37a 74be 3b4e 8dbe a227 09be
000002b0: 1517 0e3e 72a4 b3bd be51 6d3e 7d3a 3d3e
000002c0: b396 8cbe 6249 e5be 2e38 d6bd 9c96 b8be
000002d0: 56e8 87b9 bb24 fdbc f285 643d 1b71 35be
000002e0: e31a 263e ab87 a1bd a7bd 193d be81 973d
000002f0: c6f3 813d 61e8 cb3d 7cb4 823d 8967 dd3d
00000300: bab1 13be 72b6 debd 2e18 07bc 00a6 37be
00000310: 4f98 0bbe 4350 0ebd 4dbb ba3c 0af2 b53d
00000320: 5c34 6cbe c695 10be 04a5 6b3c 323e f5bd
00000330: 6510 1bbe e191 05bc 81a5 32be fe07 d4bd
00000340: adf0 543e 98c5 063e 959e 703e 0e9b c93c
00000350: 9c77 2cbd dc11 29be 4320 193d c133 e3bd
00000360: f0b4 03be 922e 5fbe 4daa 56bd bbef 0d3e
00000370: 4755 2a3e a3e9 1fbd 5aa0 073e 8551 bf3d
00000380: b4fa 1cbe dda1 f03d 118d 9b3d e007 cf3d
00000390: 7c8c 42be 9a3e 15be e1e7 c43c e971 c03d
000003a0: a4bc bcbe 27f9 b5be 0f67 e6bd e5f4 81be
000003b0: 1dcf 84be 0171 7fbe 522c 7d3e 3313 083c
000003c0: 7b91 67be 6a8a 8ebe 2dc8 84be efd8 c6be
000003d0: b008 1fbe 0830 ae3d 8721 743e 9a3d 7f3e
000003e0: c07d 0abe a30e 8f3d 9cda 0abd 640a 263e
000003f0: 5ba7 523e fb4f 7e3e e324 493e ce02 5b3e

down2.bias f4 [16]
-0.16235003 0.11725813 -0.101690196 0.012048543 0.15720628 0.16463089 -0.19048278 0.12607253
0.15479714 0.059753988 0.1564994 -0.09922367 -0.01827165 -0.02193349 0.02184172 -0.00413171
00000000: 163f 26be 0825 f03d f342 d0bd 4167 453c
00000010: affa 203e 0095 283e eb0d 43be 2819 013e
00000020: 2483 1e3e 99c0 743d 6141 203e c835 cbbd
00000030: 6dae 95bc ddad b3bc 68ed b23c 4c63 87bb

conv31.weight f4 [16, 16, 3, 3]
-0.06379299 -0.09517669 -0.097751886 -0.016477825 -0.05704366 0.012876933 -0.03887374 -0.049494743
0.008475093 0.037107863 0.08843954 0.050930608 -0.019829785 0.052343454 0.017829187 0.039031655
-0.025167221 0.05232769 -0.011953024 0.085884176 0.114063606 -0.020016458 -0.05436305 -0.06866686
0.11369945 0.086717926 0.022913558 0.03654149 -0.06255729 -0.09576974 -0.008663693 0.0471923
0.14547776 -0.03160776 0.04959725 0.04827091 0.15316989 -0.035738792 0.03595492 -0.020505719
0.06276393 -0.10174832 -0.080340594 0.028177792 -0.0003399325 -0.04884599 -0.023709789 0.035410527
0.106396586 -0.05113327 -0.005104173 0.039307848 0.004888832 0.013138841 -0.1226582 -0.1530891
-0.1201946 -0.11817537 -0.039807025 0.008180959 -0.081286736 -0.03217038 -0.01995606 0.011892381
-0.051971793 -0.015329968 0.01789469 -0.0016347761 -0.04121712 0.008429071 0.03955698 0.07073508
-0.012637488 0.011894462 -0.008108967 0.090058535 0.008922588 0.01053532 0.03822742 -0.021967089
0.080770396 -0.014591208 0.0027964292 -0.013783758 0.040160675 -0.02964252 0.042718105 0.10260525
0.048784748 0.09748687 -0.00032972408 0.08525079 0.1252416 0.109284624 -0.066225514 -0.0005396657
-0.032802276 -0.0022984433 -0.01081217 0.04233145 0.075380005 0.19247334 -0.040958606 0.04016425
0.1258822 -0.08418523 0.0043992763 0.035536952 -0.036452137 -0.03544732 -0.04083125 -0.148304
-0.008971688 0.1279747 0.025202675 -0.024097234 -0.019098094 0.09764924 0.05933137 0.012024046
0.005578757 -0.05262102 0.02393727 0.034832142 0.08552384 0.08832938 0.09625823 0.06474732
0.0400122 0.12151307 -0.08768344 -0.0051204404 0.03693901 0.049033538 0.011433068 -0.09907248
-0.048222374 0.024300262 -0.14854409 -0.051657602 0.052704483 -0.10267569 0.021149283 0.058461323
0.06255558 0.09679681 -0.05591499 0.010265107 -0.06860523 -0.15528436 -0.020131204 -0.08579344
-0.102742 -0.0026409735 0.0378814 0.07616286 0.055800796 0.03370731 0.090713926 -0.07768555
0.05152179 -0.025444152 -0.026783956 -0.014578219 0.03408237 -0.029025843 -0.0074110585 0.17275998
0.005060497 0.08363141 0.073932245 0.11470081 0.06866133 -0.029323025 0.13404983 -0.049825225
-0.10090729 0.067718826 0.0262207 0.014392337 -0.042324856 -0.034079596 0.09923194 -0.07528943
0.05615249 0.15582892 0.023887668 0.091992095 -0.017838668 -0.046667494 0.017066944 0.004524139
-0.048098072 0.019042218 0.0940398 -0.06649648 0.0019136093 0.15512432 0.093727596 0.121471286
0.02663865 0.071310714 -0.0036226434 -0.08910764 -0.04532003 -0.10339527 -0.09700429 -0.038211714
0.0710257 0.13008516 0.030093366 0.090806656 0.10725089 -0.09363772 -0.05628437 -0.030164288
-0.0233625 0.07139639 0.17148182 -0.09211469 0.039884012 0.124394625 -0.030566828 0.044395108
0.029834714 -0.056173738 0.013365365 0.095394656 -0.09538832 -0.01888625 0.15486209 -0.050408848
-0.017893255 0.093720876 -0.043472998 -0.011072027 -0.0002522541 -0.079814054 -0.032795988 0.14929482
-0.033064988 0.08735257 0.06773167 -0.026642034 -0.03657721 -0.1802538 0.09794007 0.12667777
-0.19285372 0.05716237 0.058475763 -0.13183583 -0.023691047 0.018376336 -0.098166645 0.15553269
00000000: e6a5 82bd ffeb c2bd 2432 c8bd 81fc 86bc
00000010: 9da6 69bd c6f9 523c 123a 1fbd 00bb 4abd
00000020: 1edb 0a3c 6afe 173d ca1f b53d 9d9c 503d
00000030: 1372 a2bc 1766 563d 840e 923c a8df 1f3d
00000040: 7d2b cebc 8f55 563d 9ed6 43bc 0be4 af3d
00000050: 2e9a e93d 8ef9 a3bc caab 5ebd 36a1 8cbd
00000060: 42db e83d 2b99 b13d 37b5 bb3c 88ac 153d
00000070: 091e 80bd ed22 c4bd 2af2 0dbc b74c 413d
00000080: 1ff8 143e 2377 01bd 7c26 4b3d b8b7 453d
00000090: 91d8 1c3e d762 12bd 7745 133d 9cfb a7bc
000000a0: 608a 803d 6c61 d0bd 9c89 a4bd 1dd5 e63c
000000b0: f838 b2b9 bc12 48bd 083b c2bc a10a 113d
000000c0: 74e6 d93d 1f71 51bd e840 a7bb 4401 213d
000000d0: 7f32 a03b 4b44 573c 3934 fbbd 64c3 1cbe
000000e0: 9628 f6bd ee05 f2bd b10c 23bd 6e09 063c
000000f0: a979 a6bd 17c5 03bd e47a a3bc 43d8 423c
00000100: 60e0 54bd 8c2a 7bbc e397 923c fc45 d6ba
00000110: 48d3 28bd 161a 0a3c 8006 223d 8edd 903d
00000120: 770d 4fbc fde0 423c 79db 04bc 9c70 b83d
00000130: 0c30 123c 569c 2c3c 5b94 1c3d 53f4 b3bc
00000140: f36a a53d f60f 6fbc 4c44 373b 45d5 61bc
00000150: 857f 243d dfd4 f2bc 2ef9 2e3d b422 d23d
00000160: 84d2 473d 32a7 c73d d1de acb9 f797 ae3d
00000170: 563f 003e 9ed0 df3d 3ea1 87bd 5a78 0dba
00000180: ae5b 06bd 7ba1 16bb 8725 31bc be63 2d3d
00000190: d560 9a3d bb17 453e 36c4 27bd 4583 243d
000001a0: 43e7 003e 4e69 acbd ce27 903b 328f 113d
000001b0: d64e 15bd 3631 11bd ab3e 27bd 01dd 17be
000001c0: fdfd 12bc cd0b 033e d775 ce3c 9067 c5bc
000001d0: 9b73 9cbc 53fc c73d 7305 733d 8100 453c
000001e0: 01ce b63b 2389 57bd 1818 c43c 26ac 0e3d
000001f0: 1f27 af3d 09e6 b43d 0923 c53d 3e9a 843d
00000200: d5e3 233d d8db f83d 6093 b3bd 5ec9 a7bb
00000210: 5c4d 173d 64d7 483d c351 3b3c 83e6 cabd
00000220: d384 45bd 5811 c73c f11b 18be ec96 53bd
00000230: a8e0 573d a247 d2bd 4341 ad3c 2475 6f3d
00000240: 241d 803d 683d c63d 1e07 65bd fb2e 283c
00000250: e680 8cbd dd02 1fbe 32ea a4bc 79b4 afbd
00000260: 666a d2bd 2f14 2dbb 8729 1b3d 46fb 9b3d
00000270: 608f 643d ad10 0a3d 39c8 b93d 9a19 9fbd
00000280: 8308 533d 4170 d0bc 076a dbbc 7bd9 6ebc
00000290: f599 0b3d 9bc7 edbc 77d8 f2bb fee7 303e
000002a0: 87d2 a53b f246 ab3d ca69 973d 42e8 ea3d
000002b0: 509e 8c3d d736 f0bc 5c44 093e 8915 4cbd
000002c0: 7ba8 cebd 2bb0 8a3d cbcc d63c d6cd 6b3c
000002d0: d45c 2dbd 0c97 0bbd 1e3a cb3d 5831 9abd
000002e0: 2700 663d 9e91 1f3e 12b0 c33c 5a66 bc3d
000002f0: 6622 92bc 6a26 3fbd facf 8b3c 3b3f 943b
00000300: 7c02 45bd 6dfe 9b3c f097 c03d 4e2f 88bd
00000310: 13d2 fa3a e9d8 1e3e 41f4 bf3d f0c5 f83d
00000320: 4c39 da3c 5a0b 923d df69 6dbb 117e b6bd
00000330: 7fa1 39bd e6c0 d3bd 2faa c6bd e383 1cbd
00000340: ec75 913d 0b35 053e 5d86 f63c d7f8 b93d
00000350: 5ba6 db3d 22c5 bfbd 718a 66bd 191b f7bc
00000360: b762 bfbc 4538 923d ee98 2f3e a0a6 bcbd
00000370: 6b5d 233d 9cc2 fe3d 4967 fabc a5d7 353d
00000380: ee67 f43c 6f16 66bd 67fa 5a3c 465e c33d
00000390: f45a c3bd 56b7 9abc 2b94 1e3e 8279 4ebd
000003a0: e094 92bc bbf0 bf3d be10 32bd 7267 35bc
000003b0: f940 84b9 8d75 a3bd 1655 06bd bee0 183e
000003c0: 276f 07bd e7e5 b23d e7b6 8a3d 6540 dabc
000003d0: fcd1 15bd 7494 38be ce94 c83d d1b7 013e
000003e0: 727b 45be 1723 6a3d 4884 6f3d f9ff 06be
000003f0: ba13 c2bc f889 963c 980b c9bd f643 1f3e

conv31.bias f4 [16]
0.13683143 -0.006763414 0.123847015 -0.029659024 0.03897055 -0.03371924 0.03210664 -0.09492129
0.035702102 0.015824428 0.15692638 0.06589791 0.07604069 0.039461806 -0.019538945 0.016417572
00000000: 8a1d 0c3e a19f ddbb 81a3 fd3d 7bf7 f2bc
00000010: 959f 1f3d 301d 0abd 4182 033d 1866 c2bd
00000020: 5e3c 123d 3ba2 813c 4fb1 203e 7cf5 863d
00000030: 39bb 9b3d b4a2 213d 2310 a0bc 257e 863c

up2.weight f4 [16, 8, 2, 2]
-0.17725444 0.09112054 -0.051234674 -0.012939227 0.081170954 0.075764984 -0.19530292 -0.19351624
0.13634206 -0.0507613 0.06182849 0.020589447 -0.0017762465 -0.139268 -0.028819535 -0.10353119
-0.043168843 -0.058244396 0.08241527 0.15635078 0.045180902 -0.0010288235 0.112652436 0.11583308
-0.041357815 -0.18480906 0.025484504 0.01292695 -0.19458658 -0.19622326 0.00237275 0.13050285
-0.17140661 -0.061468467 -0.06171712 -0.07183261 0.019389316 0.27170348 0.33425018 0.047636498
-0.12585221 -0.31741577 -0.1819034 -0.3265805 -0.030400034 0.08680585 0.21187702 0.31258678
-0.12693502 -0.14908668 -0.07716209 -0.25702554 0.09315963 -0.02281963 0.093041696 0.13528463
0.20373276 0.043457795 0.47237343 0.28767422 0.18748653 0.48013875 0.20297547 0.23472038
-0.17337614 0.22594103 0.1140044 -0.071751565 -0.19089384 -0.09360579 -0.15413153 -0.008550784
0.116491295 0.037224043 0.1580462 0.07605038 -0.08648078 -0.19429937 0.022915961 -0.20809813
0.036886055 0.055489797 -0.04958799 0.09608392 0.08304242 0.11060232 0.078452386 -0.17267421
-0.15185747 -0.11022989 -0.14611909 0.015220246 -0.1789244 -0.16810352 0.025730928 0.06574285
-0.00946418 -0.0926942 -0.045894112 0.1485561 0.41397253 0.25689763 0.25005025 0.036108762
0.009262804 -0.33675048 -0.20688334 0.034628022 0.032272045 0.35154784 -0.10884237 0.25540945
0.106489785 -0.19413948 0.17670465 -0.17480695 0.21741432 0.13110715 0.19075133 -0.037456572
0.3262369 0.17064829 0.119434096 0.22988041 -0.21291211 -0.1671441 -0.06537389 -0.13891022
0.10014744 -0.015758868 -0.120253384 -0.1420643 0.22425461 0.058440324 0.11523603 0.18114778
0.096154355 -0.15543884 -0.07190366 -0.19699869 0.17971131 -0.079050645 -0.09639941 -0.057388492
0.114789605 0.06175909 0.07036511 0.10069813 -0.03425215 -0.06584118 -0.07292097 0.10148371
0.14348474 0.095097125 -0.10354445 0.107099146 -0.08437351 -0.003666624 -0.11847871 -0.028518546
-0.16005991 0.09426367 -0.09446048 0.028674264 0.21622187 0.17970318 0.26527038 0.22744367
0.03706066 -0.0676445 0.038827866 -0.20514393 0.01975622 0.1955823 0.14353421 0.119203724
-0.27006656 -0.08313863 -0.033165872 -0.24674252 -0.030065866 0.0060806386 -0.19876942 -0.07854382
0.029738173 0.007403844 0.17947194 0.25843036 0.059492167 0.18844171 -0.17129946 0.03576483
0.026682824 -0.079936765 0.004045813 0.12529188 0.25097188 0.36671624 0.20670028 0.41528982
-0.13967955 -0.19577675 -0.14029068 -0.056051467 -0.031967163 0.21021782 -0.047712483 -0.034838494
-0.27083707 -0.05042082 -0.11939741 -0.038263872 0.17588393 0.19582535 0.047742836 -0.14270619
0.32403734 0.021109143 0.20105821 0.41077998 0.22824648 0.057490975 -0.17102696 -0.057385907
0.13136882 -0.14595704 0.015837945 -0.11227345 -0.026299454 -0.024941238 0.044209886 -0.13553827
-0.15290101 0.014650333 -0.08564449 -0.033614 0.026978405 -0.22201827 -0.01671119 -0.24231982
-0.13420762 -0.04116887 -0.018735679 0.002935525 -0.04717572 0.070616364 0.11197744 0.08420721
0.00471772 -0.08084431 0.052674852 -0.12707129 0.06459514 -0.20818935 -0.11411268 0.06770301
00000000: 3082 35be 689d ba3d 73db 51bd 0dff 53bc
00000010: f53c a63d ac2a 9b3d 7dfd 47be 1f29 46be
00000020: 419d 0b3e 15eb 4fbd df3f 7d3d 33ab a83c
00000030: f1d0 e8ba 459c 0ebe f216 ecbc 2908 d4bd
00000040: d0d1 30bd ad91 6ebd 56c9 a83d 6b1a 203e
00000050: 9c0f 393d 97d9 86ba 52b6 e63d e539 ed3d
00000060: d066 29bd 963e 3dbe e1c4 d03c 8fcb 533c
00000070: b441 47be c0ee 48be 2480 1b3b 8aa2 053e
00000080: 3785 2fbe 5cc6 7bbd 17cb 7cbd fa1c 93bd
00000090: 58d6 9e3c b81c 8b3e d722 ab3e 7d1e 433d
000000a0: 67df 00be 5284 a2be e344 3abe 8f35 a7be
000000b0: 7e09 f9bc 44c7 b13d 4af6 583e 600b a03e
000000c0: 41fb 01be 2eaa 18be 2807 9ebd da98 83be
000000d0: 7aca be3d 3cf0 babc a58c be3d 0e88 0a3e
000000e0: 529f 503e cd00 323d eeda f13e 094a 933e
000000f0: 78fc 3f3e bfd4 f53e cdd8 4f3e 8a5a 703e
00000100: 8489 31be 165d 673e 247b e93d 7cf2 92bd
00000110: ad79 43be 64b4 bfbd a8d4 1dbe 9618 0cbc
00000120: fd92 ee3d 3d78 183d ddd6 213e 4dc0 9b3d
00000130: d61c b1bd 6af6 46be 41ba bb3c ad17 55be
00000140: d515 173d 4549 633d c71c 4bbd a5c7 c43d
00000150: 2512 aa3d 7883 e23d a5ab a03d 82d1 30be
00000160: 8680 1bbe 35c0 e1bd 3ea0 15be 575e 793c
00000170: f537 37be 5423 2cbe abc9 d23c 30a4 863d
00000180: a60f 1bbc 75d6 bdbd 77fb 3bbd 171f 183e
00000190: 35f4 d33e 1688 833e 9606 803e c8e6 133d
000001a0: 04c3 173c 8f6a acbe 3ad9 53be 1dd6 0d3d
000001b0: b12f 043d 14fe b33e c0e8 debd 07c5 823e
000001c0: 5117 da3d 80cc 46be 10f2 343e 9800 33be
000001d0: dca1 5e3e f440 063e 5154 433e 106c 19bd
000001e0: 8608 a73e 6dbe 2e3e dd99 f43d c565 6b3e
000001f0: a205 5abe d327 2bbe bfe2 85bd 7b3e 0ebe
00000200: 1a1a cd3d be18 81bc 6847 f6bd 4e79 11be
00000210: 00a3 653e 1f5f 6f3d de00 ec3d ce7e 393e
00000220: 93ec c43d 5c2b 1fbe 3a42 93bd 06ba 49be
00000230: 3e06 383e 4ee5 a1bd 0e6d c5bd 3210 6bbd
00000240: d016 eb3d 19f7 7c3d 951b 903d d23a ce3d
00000250: fc4b 0cbd bed7 86bd 9757 95bd b1d6 cf3d
00000260: aaed 123e 48c2 c23d 1d0f d4bd cc56 db3d
00000270: 05cc acbd be4b 70bb f7a4 f2bd ba9f e9bc
00000280: bfe6 23be 500d c13d 7f74 c1bd 4ae6 ea3c
00000290: 4469 5d3e 1c04 383e 85d1 873e fee6 683e
000002a0: ebcc 173d 3389 8abd f809 1f3d 4011 52be
000002b0: ccd7 a13c ba46 483e a2fa 123e 1521 f43d
000002c0: 2a46 8abe 9644 aabd f0d8 07bd 12aa 7cbe
000002d0: b14c f6bc 1840 c73b 368a 4bbe 95db a0bd
000002e0: 789d f33c f29b f23b 7ec7 373e fc50 843e
000002f0: 0fae 733d ddf6 403e 2069 2fbe 247e 123d
00000300: f095 da3c e3b5 a3bd bd92 843b 844c 003e
00000310: 637f 803e 3bc2 bb3e 3da9 533e dea0 d43e
00000320: 2808 0fbe b379 48be 5ca8 0fbe 3996 65bd
00000330: 00f0 02bd 5743 573e 2a6e 43bd cfb2 0ebd
00000340: 28ab 8abe 1086 4ebd a186 f4bd 94ba 1cbd
00000350: eb1a 343e 7186 483e fe8d 433d 9221 12be
00000360: 39e8 a53e 15ed ac3c 34e2 4d3e c151 d23e
00000370: 72b9 693e a87b 6b3d b121 2fbe 7c0d 6bbd
00000380: 8c85 063e c375 15be 94be 813c 9fef e5bd
00000390: f471 d7bc 9151 ccbc 6d15 353d 8bca 0abe
000003a0: 1592 1cbe f307 703c 6166 afbd d5ae 09bd
000003b0: d101 dd3c c258 63be e8e5 88bc b022 78be
000003c0: b96d 09be b0a0 28bd 917b 99bc f061 403b
000003d0: 543b 41bd 509f 903d 6e54 e53d d474 ac3d
000003e0: 1b97 9a3b b491 a5bd 96c1 573d fa1e 02be
000003f0: 754a 843d 972f 55be e9b3 e9bd e0a7 8a3d

up2.bias f4 [8]
0.050865278 0.005734664 0.036944076 0.075357325 0.092572175 0.19036657 0.07098756 -0.20764962
00000000: 1c58 503d d9e9 bb3b ac52 173d f154 9a3d
00000010: 7b96 bd3d 74ef 423e ed61 913d 1aa2 54be

conv22.weight f4 [8, 8, 3, 3]
-0.12575452 0.052069213 0.058960814 -0.08795185 0.025751065 -0.053160075 0.062534526 0.08467616
0.040882047 0.055679385 -0.018969184 0.05945965 -0.089870624 -0.051740028 -0.059891544 -0.062401004
-0.057363562 0.0017820698 -0.021329796 -0.08870441 -0.02206694 -0.026062366 -0.09767426 0.07995355
-0.08815135 -0.024773221 -0.09968396 -0.124917194 7.902714e-05 0.07831789 0.1341733 0.048448265
0.07631145 -0.06385622 0.085918106 0.05943811 -0.17636277 -0.14438233 0.0072046164 -0.034829844
-0.10104727 -0.10232107 0.007723458 -0.055481154 -0.043707807 -0.15123571 0.09421715 -0.08381416
-0.014196151 -0.040443372 -0.032250576 0.011119245 -0.024127968 -0.04126512 0.03264844 -0.12820652
-0.0030032434 -0.0154422065 -0.05925345 0.07633019 0.008891244 -0.15304622 0.06753162 -0.050721418
0.13018702 -0.07153855 0.14459732 0.03408484 0.005957374 0.09384639 -0.005070223 -0.06909588
0.051733248 0.06393791 -0.061519425 0.10950295 -0.04508014 -0.06683182 -0.09405561 0.0729769
-0.09950795 0.07982695 -0.14018703 0.037714876 -0.1284579 0.019750599 0.07343072 0.045149747
-0.039259728 -0.09859049 -0.020412516 -0.07458919 0.12334622 -0.005464723 0.05775214 0.047016297
0.05200026 -0.10172978 -0.02226406 -0.07617844 0.069117986 -0.021920824 -0.05003254 0.088121995
0.036143802 0.04501924 -0.039545707 0.08492552 0.010393487 -0.027055614 -0.03531393 -0.07828259
0.013154166 0.016105492 -0.1440069 -0.062393297 -0.021544507 0.00028553535 -0.016114494 -0.025288254
-0.05760833 0.054536838 -0.041404597 -0.073383294 0.025509609 -0.19187127 -0.030753342 -0.049042366
-0.03262007 0.005137981 -0.10097244 -0.08492009 -0.06830415 0.08643751 0.03915075 -0.105678536
0.035049595 0.016770357 0.14204639 0.12654683 -0.02740607 0.082816206 0.002260758 -0.0128340265
0.0013614339 0.13373137 0.0032853037 -0.13618492 0.0015461294 0.048833657 -0.06653953 -0.04374586
-0.076077186 -0.07345309 -0.120535076 0.00387347 0.0392533 0.043322973 0.057373848 0.054495003
0.032892957 0.043636203 -0.11259014 0.042734273 -0.036981676 0.026952453 -0.037937228 0.026440397
-0.032848217 -0.012198652 0.028745724 -0.04509591 0.06590862 0.078185506 0.013266365 -0.034481324
-0.09333231 -0.009313706 0.018164897 0.013760552 -0.0820944 -0.038556766 0.05914079 -0.082032934
-0.08950651 -0.048911825 -0.12739109 -0.08380754 -0.13558654 -0.033824753 -0.10616915 -0.0050512315
-0.016005602 -0.13049419 -0.10460709 -0.1791655 -0.0071852836 -0.01515992 -0.066026665 -0.0019780034
0.026074411 -0.06848608 -0.019494837 -0.06725851 -0.044966485 0.029179797 -0.04149271 -0.051519975
0.054489434 -0.090646066 -0.0015270921 0.06647408 0.0899171 0.11143227 -0.04116895 0.022699058
-0.089257315 -0.027879061 -0.021022165 0.009753574 -0.16805135 -0.02966136 0.038405433 0.11664724
-0.062228967 0.11075823 -0.1363776 -0.036319528 0.031728283 0.05081009 0.032481883 -0.030489663
0.024731295 -0.09255387 -0.12816224 -0.064549044 -0.12892789 -0.12875149 -0.08177132 0.025476087
-0.001972733 -0.10221472 -0.0155208185 -0.05884277 -0.059883326 -0.05493349 -0.08025606 0.094394155
-0.025128134 -0.0012126414 -0.046446744 0.031750787 -0.07719814 -0.08295088 0.07882673 0.043405145
00000000: cbc5 00be 8746 553d e580 713d 1920 b4bd
00000010: e6f3 d23c 61be 59bd 1a12 803d b26a ad3d
00000020: ef73 273d 1110 643d 4365 9bbc f68b 733d
00000030: 170e b8bd 5aed 53bd d650 75bd 3298 7fbd
00000040: 0ef6 6abd 5794 e93a d3bb aebc a8aa b5bd
00000050: bac5 b4bc be80 d5bc 7109 c8bd b0be a33d
00000060: b288 b4bd 36f1 cabc 1b27 ccbd 96d4 ffbd
00000070: 5fbb a538 2165 a03d ba64 093e b071 463d
00000080: 2d49 9c3d 0dc7 82bd d5f5 af3d 6075 733d
00000090: 7198 34be f6d8 13be b414 ec3b bda9 0ebd
000000a0: dff1 cebd b68d d1bd 1015 fd3b 3540 63bd
000000b0: f506 33bd 89dd 1abe ecf4 c03d c2a6 abbd
000000c0: f996 68bc f3a7 25bd 2e19 04bd 7e2d 363c
000000d0: 04a8 c5bc 9d05 29bd 5fba 053d 9248 03be
000000e0: 10d2 44bb 4f01 7dbc bfb3 72bd 0153 9c3d
000000f0: 95ac 113c 26b8 1cbe 054e 8a3d 43c1 4fbd
00000100: bf4f 053e ce82 92bd 5211 143e 8c9c 0b3d
00000110: 1336 c33b 8932 c03d 1d24 a6bb 2482 8dbd
00000120: 3ee6 533d e1f1 823d cbfb 7bbd 1543 e03d
00000130: f4a5 38bd 1fdf 88bd 3aa0 c0bd ea74 953d
00000140: d3ca cbbd 507c a33d 308d 0fbe ea7a 1a3d
00000150: 788a 03be 02cc a13c d862 963d f1ee 383d
00000160: cfce 20bd d0e9 c9bd 2638 a7bc 38c2 98bd
00000170: f19c fc3d 6b11 b3bb 828d 6c3d 2994 403d
00000180: 3afe 543d b457 d0bd 1e63 b6bc 7103 9cbd
00000190: bb8d 8d3d 4d93 b3bc ecee 4cbd 4e79 b43d
000001a0: 860b 143d 1866 383d aefa 21bd 6eed ad3d
000001b0: 7249 2a3c bca3 ddbc 57a5 10bd 9f52 a0bd
000001c0: 9284 573c aaef 833c 8b76 13be 1d90 7fbd
000001d0: 1b7e b0bc e8b3 9539 8b02 84bc 5029 cfbc
000001e0: b6f6 6bbd 0562 5f3d de97 29bd fb49 96bd
000001f0: 87f9 d03c e779 44be 6fee fbbc a6e0 48bd
00000200: 9f9c 05bd 825c a83b a3ca cebd 96ea adbd
00000210: 0ce3 8bbd 2606 b13d 895c 203d fd6d d8bd
00000220: 2a90 0f3d fd61 893c 9c74 113e 7e95 013e
00000230: b282 e0bc 8b9b a93d 3a29 143b cf45 52bc
00000240: 2472 b23a e0f0 083e 404e 573b 0f74 0bbe
00000250: 7ea7 ca3a cd05 483d e145 88bd dc2e 33bd
00000260: 5bce 9bbd 936e 96bd 18db f6bd 0bda 7d3b
00000270: 11c8 203d 6e73 313d d700 6b3d 2736 5f3d
00000280: c4ba 063d e0bb 323d a995 e6bd 220a 2f3d
00000290: 197a 17bd 64cb dc3c 1164 1bbd 8899 d83c
000002a0: da8b 06bd dbdc 47bc 277c eb3c 7db6 38bd
000002b0: 19fb 863d b91f a03d 2b5b 593c 4a3c 0dbd
000002c0: 0325 bfbd 8498 18bc 8dce 943c f073 613c
000002d0: 1c21 a8bd b3ed 1dbd 9d3d 723d e200 a8bd
000002e0: 304f b7bd c457 48bd cf72 02be 4aa3 abbd
000002f0: 33d7 0abe d38b 0abd 366f d9bd cd84 a5bb
00000300: 2e1e 83bc 45a0 05be 3e3c d6bd 2977 37be
00000310: 8772 ebbb 5061 78bc fd38 87bd 64a1 01bb
00000320: 019a d53c 6e42 8cbd a3b3 9fbc d4be 89bd
00000330: c72e 38bd 780a ef3c 43f4 29bd 9c06 53bd
00000340: 5030 5f3d a5a4 b9bd b528 c8ba 9023 883d
00000350: 7526 b83d 9a36 e43d c6a0 28bd 60f3 b93c
00000360: 8acc b6bd a162 e4bc ad36 acbc 74cd 1f3c
00000370: a715 2cbe 61fc f2bc 044f 1d3d c0e4 ee3d
00000380: cde3 7ebd 36d5 e23d 92a6 0bbe c9c3 14bd
00000390: 84f5 013d 3e1e 503d b90b 053d 75c5 f9bc
000003a0: 4999 ca3c e28c bdbd f63c 03be 4a32 84bd
000003b0: ac05 04be 6ed7 03be b977 a7bd 3ab3 d03c
000003c0: f848 01bb f355 d1bd 084b 7ebc 1e05 71bd
000003d0: 3848 75bd f001 61bd 4a5d a4bd b951 c13d
000003e0: 84d9 cdbc 7ef1 9eba f13e 3ebd 1d0d 023d
000003f0: 0f1a 9ebd 27e2 a9bd e96f a13d 98c9 313d

conv22.bias f4 [8]
-0.020583913 0.0018584634 -0.036183126 -0.094833165 0.011737561 0.03991765 -0.042789202 0.009663053
00000000: 989f a8bc af97 f33a c234 14bd e437 c2bd
00000010: e64e 403c b180 233d bb43 2fbd c851 1e3c

up1.weight f4 [8, 4, 2, 2]
0.026327452 0.07497244 -0.26351577 -0.20410672 -0.20813477 0.10863629 0.14081207 -0.19143453
0.039931286 0.04001674 -0.14046513 0.026263447 0.18177591 0.20720002 0.12437492 -0.042528976
-0.26973128 -0.16749465 -0.09971378 -0.12154135 0.12340976 -0.21675056 -0.05610887 -0.0843279
-0.043232936 0.1408768 -0.0941421 -0.12911712 -0.101715006 -0.26245505 -0.2604772 0.067546
-0.17533924 0.07557387 -0.11625341 0.04086641 0.13913707 0.0033886298 0.07201841 0.19334579
-0.09666364 0.09987546 -0.21391998 0.14707458 -0.054144476 -0.03138584 0.16863501 0.012384555
0.17142196 -0.11562281 -0.1538694 0.12902512 -0.1777908 0.16133177 0.22699712 0.10724558
-0.08012364 -0.05280153 -0.2143785 -0.14557408 -0.078399576 -0.15689541 0.08689312 0.071776174
-0.10773666 -0.17933536 0.1525934 -0.07874933 0.19903775 0.17310259 -0.12163031 -0.20968962
0.20752457 -0.120454535 0.20203732 -0.18569376 -0.016228678 0.07148708 -0.059642516 0.08679025
-0.091886535 0.06709945 0.10566053 0.29404002 0.23494329 0.25179997 0.2157029 0.2889532
0.041974474 -0.0037190444 0.05264042 0.14436549 0.091493905 0.1536592 0.15824854 0.2462756
0.42642465 0.22950101 0.38965738 0.111048706 -0.031906713 0.2999642 0.2662336 0.35791045
0.20845225 0.1560793 -0.09354389 -0.20205428 0.27053264 0.3186182 0.15117632 0.1110389
-0.03654995 -0.19519582 -0.013271096 -0.31593394 -0.2312533 -0.15848044 -0.17027567 0.007700787
0.06906679 -0.19341047 -0.07266625 -0.032474056 -0.1723421 -0.05417099 0.03720239 -0.15724511
00000000: abac d73c 278b 993d 8aeb 86be 5a01 51be
00000010: 4821 55be b47c de3d 0a31 103e 6a07 44be
00000020: fd8e 233d 98e8 233d 17d6 0fbe 7126 d73c
00000030: 7723 3a3e 3e2c 543e 47b8 fe3d dd32 2ebd
00000040: 381a 8abe b883 2bbe bd36 ccbd acea f8bd
00000050: 42be fc3d dcf3 5dbe 6ad2 65bd 1bb4 acbd
00000060: 0515 31bd 0242 103e 93cd c0bd 4737 04be
00000070: f54f d0bd 8260 86be 445d 85be 8f55 8a3d
00000080: 218c 33be 79c6 9a3d 4516 eebd 8963 273d
00000090: f379 0e3e c613 5e3b 637e 933d 70fc 453e
000000a0: 96f7 c5bd 818b cc3d d70d 5bbe b89a 163e
000000b0: 99c6 5dbd 708e 00bd a8ae 2c3e 97e8 4a3c
000000c0: 3d89 2f3e a7cb ecbd f18f 1dbe 291f 043e
000000d0: cb0e 36be 2834 253e ef71 683e 92a3 db3d
000000e0: dd17 a4bd 6b46 58bd 0a86 5bbe 5f11 15be
000000f0: f58f a0bd 31a9 20be 05f5 b13d 63ff 923d
00000100: 0aa5 dcbd b0a3 37be 7241 1c3e 5447 a1bd
00000110: 8dd0 4b3e ce41 313e 5019 f9bd e0b8 56be
00000120: 5281 543e deb0 f6bd dfe2 4e3e 8126 3ebe
00000130: 01f2 84bc d167 923d b64b 74bd 16bf b13d
00000140: 022f bcbd 706b 893d 8c64 d83d 6a8c 963e
00000150: f994 703e edeb 803e 39e1 5c3e adf1 933e
00000160: 6ded 2b3d 36bb 73bb 7b9d 573d 8cd4 133e
00000170: 2861 bb3d d658 1d3e e80b 223e ac2f 7c3e
00000180: 5554 da3e 5002 6b3e 2c81 c73e 816d e33d
00000190: 9db0 02bd e894 993e c54f 883e 0a40 b73e
000001a0: 8274 553e 41d3 1f3e f093 bfbd 51e7 4ebe
000001b0: 4183 8a3e ed21 a33e f7cd 1a3e 5d68 e33d
000001c0: 66b5 15bd 6ae1 47be 036f 59bc 18c2 a1be
000001d0: aacd 6cbe b248 22be bf5c 2ebe e256 fc3b
000001e0: e472 8d3d 650d 46be 0bd2 94bd 8403 05bd
000001f0: 737a 30be 66e2 5dbd 8961 183d dd04 21be

up1.bias f4 [4]
0.123296626 0.24737735 0.109539926 0.0040411954
00000000: f182 fc3d 7d50 7d3e 7856 e03d 016c 843b

conv13.weight f4 [2, 4, 3, 3]
-0.051809598 -0.04418861 0.016460078 0.04091753 0.112070315 -0.032400776 0.16402532 0.035028916
0.09060337 -0.0705614 0.03115315 0.11267855 0.051698014 0.016307795 -0.06934939 -0.12304465
-0.11212319 -0.14884984 0.115853556 -0.06240253 -0.0561233 -0.12918203 -0.041493814 0.09762133
0.031484168 0.011258169 0.054637227 0.11806268 0.09704356 -0.1411791 -0.039059505 -0.15182534
-0.10764859 0.10019528 -0.10475173 -0.10633019 0.1690633 0.213554 -0.056402095 0.12092777
0.13947393 0.30457756 0.16499723 0.13096435 0.190871 -0.012992762 0.13252386 -0.0050815623
0.042528246 -0.033978026 0.06952431 0.093940675 -0.011105888 0.14189753 -0.048640814 0.013742203
0.10990516 0.08095353 -0.08547493 -0.114998214 0.020195466 -0.033547435 -0.031690557 0.24528651
0.19928326 0.020575373 0.021029837 0.26016793 0.109967224 0.012879416 -0.023818051 0.23330277
00000000: 4d36 54bd 1eff 34bd 49d7 863c 2499 273d
00000010: 1f85 e53d adb6 04bd 41f6 273e 7b7a 0f3d
00000020: 428e b93d 7f82 90bd e434 ff3c 03c4 e63d
00000030: 4cc1 533d ed97 853c 0e07 8ebd d5fe fbbd
00000040: d8a0 e5bd 186c 18be a144 ed3d cc99 7fbd
00000050: 8ce1 65bd 4b48 04be 6bf5 29bd b1ed c73d
00000060: 8bf5 003d 2f74 383c 49cb 5f3d d9ca f13d
00000070: c6be c63d 4191 10be dcfc 1fbd 1a78 1bbe
00000080: dd76 dcbd 2f33 cd3d 1388 d6bd a5c3 d9bd
00000090: ee1e 2d3e e6ad 5a3e e205 67bd fba8 f73d
000000a0: 41d2 0e3e 97f1 9b3e 09f5 283e 851b 063e
000000b0: b073 433e 98df 54bc 56b4 073e 3c83 a6bb
000000c0: 1932 2e3d 8b2c 0bbd c362 8e3d f863 c03d
000000d0: 78f5 35bc 964d 113e 973b 47bd fa26 613c
000000e0: f515 e13d f7ca a53d 7b0d afbd 2f84 ebbd
000000f0: f670 a53c 0969 09bd f5cd 01bd 632c 7b3e
00000100: e910 4c3e af8d a83c c446 ac3c bb34 853e
00000110: 7f36 e13d 3004 533c 131e c3bc ece6 6e3e

conv13.bias f4 [2]
0.049071778 -0.08290928
00000000: 7dff 483d 57cc a9bd

conv14.weight f4 [2, 2, 3, 3]
-0.22124252 0.13883133 0.047716744 -0.07928215 -0.24918601 0.082655065 -0.19741035 0.036960423
-0.26752856 -0.25744787 -0.2703289 0.16221942 0.15331814 -0.24752808 0.13272496 -0.1914917
-0.26464242 0.066037536 0.05107127 0.0645064 -0.021012101 0.15283373 -0.24428354 0.043844346
-0.13629135 -0.04434532 0.09076108 -0.12658498 0.14607057 0.006059827 0.18846563 0.035328187
0.1693937 0.25518015 -0.047352787 -0.17973197
00000000: 668d 62be cd29 0e3e a272 433d ae5e a2bd
00000010: 9e2a 7fbe 0f47 a93d f025 4abe d063 173d
00000020: 81f9 88be 35d0 83be 8d68 8abe d91c 263e
00000030: 6eff 1c3e 0078 7dbe 0de9 073e 6616 44be
00000040: 367f 87be b03e 873d 1c30 513d ee1b 843d
00000050: 9221 acbc 7280 1c3e 7725 7abe 2196 333d
00000060: f68f 0bbe 70a3 35bd f2e0 b93d 7e9f 01be
00000070: 8693 153e 8391 c63b 22fd 403e 4ab4 103d
00000080: 8b75 2d3e f9a6 823e fff4 41bd a80b 38be

conv14.bias f4 [2]
0.18317562 -0.14704831
00000000: 6492 3b3e d593 16be

conv15.weight f4 [1, 2, 3, 3]
-0.02364301 0.073148265 -0.111583516 0.10493156 0.07863448 -0.12228915 -0.012907045 -0.054508094
0.15133192 0.2023372 -0.12588379 0.06624009 0.15420933 0.1981981 0.12156464 0.11610374
-0.027320672 0.045363527
00000000: fcae c1bc c2ce 953d e685 e4bd 5ce6 d63d
00000010: 1d0b a13d bc72 fabd 1278 53bc e143 5fbd
00000020: c1f6 1a3e 7c31 4f3e aee7 00be e2a8 873d
00000030: 0de9 1d3e 71f4 4a3e e2f6 f83d ccc7 ed3d
00000040: 9acf dfbc 1bcf 393d
