output/big_mess_300300_e/train/model/itn_50.pt (torch_old, 23547 bytes, 23 tensors)

conv11.weight f4 [2, 1, 3, 3]
0	0x3e894f75	0.26818433
1	0x3e93593a	0.28779012
2	0xbd8a05fd	-0.067394234
3	0x3ea36307	0.3191149
4	0xbd7eb83b	-0.062187415
5	0x3da0aad0	0.0784508
6	0xbe1824f6	-0.1485785
7	0x3e559767	0.20858537
8	0x3e9d6b5c	0.3074597
9	0xbe757311	-0.23969676
10	0x3e8d54b3	0.27603683
11	0x3d26df81	0.040740494
12	0x3e847143	0.25867662
13	0x3d24296c	0.040078565
14	0x3e164056	0.1467298
15	0xbca6f4f8	-0.020380482
16	0x3e876bd7	0.26449463
17	0x3d3e28bd	0.04642557

conv11.bias f4 [2]
0	0xbd2835e2	-0.04106701
1	0x3d013653	0.03154595

conv12.weight f4 [4, 2, 3, 3]
0	0xbd8abb65	-0.06774024
1	0x3b8faabd	0.0043843673
2	0xbd868fab	-0.06570371
3	0x3e4d2223	0.20032553
4	0xbe1b2dc5	-0.15154178
5	0xbd9900c3	-0.074708484
6	0xbc34d7b7	-0.011037759
7	0xbdcc3230	-0.0997051
8	0x3d7e1f95	0.062041838
9	0xbe6029e1	-0.21890976
10	0x3e5f1a1f	0.21787308
11	0xbe3dbe65	-0.18529661
12	0x3e619fed	0.22033663
13	0x3d907f00	0.07055473
14	0xbd2ec9b2	-0.04267282
15	0x3e49dfae	0.19714233
16	0x3d9e94fa	0.07743259
17	0x3e6d7181	0.2318783
18	0x3d40e571	0.047093812
19	0xbd6e8fed	-0.058242727
20	0x3da1da14	0.07902923
21	0xbd2e8203	-0.042604458
22	0x3dea6662	0.11445309
23	0x3e65eb62	0.22453073
24	0x3e232742	0.15932944
25	0xbdb13717	-0.08653086
26	0x3e1a67d0	0.15078664
27	0x3d738882	0.059456356
28	0x3e079831	0.1324165
29	0xbe045f42	-0.12926963
30	0xbe5e04d7	-0.21681534
31	0xbda2a10a	-0.07940872
32	0xbe2b1d02	-0.16710284
33	0x3e58bbec	0.21165437
34	0x3da6b50b	0.0814
35	0x3de8004f	0.11328184
36	0x3dc246e9	0.09486181
37	0x3c315a68	0.010824777
38	0x3e4a0136	0.19727024
39	0xbe17f441	-0.14839269
40	0x3ce38883	0.027775055
41	0xbe1a4146	-0.15063962
42	0x3db9b70c	0.090681165
43	0xbd8ced4d	-0.06881199
44	0x3da813e1	0.082069166
45	0xbd05af6d	-0.032638002
46	0x3e5386fd	0.20656963
47	0xbe03dac5	-0.12876423
48	0xbe0119f0	-0.1260755
49	0xbe06a383	-0.13148312
50	0x3e622693	0.22085027
51	0x3dbc5752	0.091963425
52	0x3e711403	0.2354279
53	0xbe3ddf5d	-0.18542238
54	0xbe1b84a1	-0.15187313
55	0xbe46f211	-0.19428279
56	0xbe792089	-0.24328817
57	0x3e450bc3	0.19242768
58	0x3dd3758a	0.10325153
59	0x3e3c6797	0.18398891
60	0xbc4df6db	-0.012571062
61	0xbdc889b3	-0.09791889
62	0x3e1c9dd2	0.15294579
63	0xbd0adeb2	-0.033903785
64	0x3e0f8221	0.14014484
65	0xbe121ca0	-0.14268732
66	0x3e628b7b	0.2212352
67	0xbe40da19	-0.18833198
68	0xbe1b72ba	-0.15180483
69	0x3e353768	0.17696917
70	0x3dc6eddf	0.09713339
71	0xbd2e1d04	-0.04250814

conv12.bias f4 [4]
0	0x3d9eb2dd	0.07748959
1	0x3df2c3ba	0.11853738
2	0xbd7438df	-0.05962455
3	0xbae5bc84	-0.0017527496

down1.weight f4 [8, 4, 2, 2]
0	0x3e80071c	0.25005424
1	0xbd84ea9f	-0.06490063
2	0xbd81f794	-0.0634605
3	0xbe550f7c	-0.20806688
4	0xbe0aad7f	-0.13542746
5	0x3d887ae2	0.06664063
6	0xbcc40081	-0.023926022
7	0xbe31cd6f	-0.17363523
8	0x3c2ce739	0.010553175
9	0xbe2fabab	-0.1715533
10	0xbe5455e1	-0.20735885
11	0xbe0a9ae0	-0.13535643
12	0xbe3ead20	-0.1862073
13	0xbdc46071	-0.09588707
14	0x3ea573da	0.3231495
15	0x3e1a2cf6	0.15056214
16	0x3d5b7d2a	0.053586163
17	0xbe7226d3	-0.23647623
18	0xbe6751c0	-0.22589779
19	0xbdf8ecaf	-0.12154519
20	0x3d82d09c	0.06387445
21	0xbe493ba1	-0.19651653
22	0xbdc5ffe1	-0.09667946
23	0xbe0a2641	-0.13491155
24	0x3d06fadc	0.032954082
25	0xbd8a2ff1	-0.06747425
26	0x3b9ab5e1	0.0047213887
27	0xbe19b2d8	-0.1500963
28	0xbeb6ef46	-0.35729426
29	0xbe7427fb	-0.23843376
30	0xbec821c9	-0.39088276
31	0xbec83b7e	-0.3910789
32	0x3e733be7	0.2375332
33	0xbcd912d7	-0.026498241
34	0x3e760362	0.24024728
35	0x3dce6ac8	0.10078961
36	0xbe62f2fa	-0.22163
37	0x3e25e834	0.1620186
38	0xbda2f75d	-0.07957337
39	0xbddc3c02	-0.10753633
40	0xbe5919bc	-0.21201223
41	0xbe8265e8	-0.25468373
42	0x3d8912c2	0.06693031
43	0xbd786400	-0.060642242
44	0xbd039854	-0.032127693
45	0xbeaded22	-0.3396998
46	0x3d0525b6	0.032506667
47	0xbeb1c84c	-0.34723127
48	0x3c313e0b	0.010818015
49	0x3dcc7ec6	0.099851176
50	0x3e40dfb3	0.18835334
51	0x3e86ee50	0.26353693
52	0x3e831649	0.2560294
53	0xbe3bbc26	-0.18333492
54	0x3dcf0c43	0.101097606
55	0xbdab4290	-0.08362305
56	0xbc4b944f	-0.012425496
57	0xbe3cb9be	-0.1843023
58	0x3e7fc251	0.2497647
59	0xbe3159aa	-0.1731936
60	0x3e9ab69f	0.30217454
61	0x3e62c649	0.22145952
62	0x3e969e6a	0.29417735
63	0x3c8849e3	0.016636794
64	0x3ec1ea70	0.37874174
65	0x3e1ab556	0.15108237
66	0x3e72941c	0.23689312
67	0xbdb3f7a4	-0.08787468
68	0x3da381ac	0.07983717
69	0xbd96554b	-0.07340487
70	0xbdf4e965	-0.11958579
71	0x3e43bd09	0.1911508
72	0x3cb6b8d6	0.022304934
73	0xbe3243f5	-0.17408736
74	0xbe161fda	-0.14660588
75	0xbd21fb53	-0.039546322
76	0x3eb63c7b	0.35593018
77	0x3d956fb6	0.07296698
78	0x3e71e7e2	0.23623613
79	0x3e276f11	0.16350962
80	0xbe0d202a	-0.13781801
81	0x3e0a3552	0.13496903
82	0x3e7cd2ab	0.24689738
83	0xbe4280ee	-0.18994495
84	0x3d2f416f	0.04278701
85	0x3ddeec62	0.1088493
86	0x3d0c38d0	0.034233868
87	0xbdd69a1d	-0.104786135
88	0x3ddc4b66	0.107565686
89	0x3dd56ead	0.104215
90	0x3d9788f1	0.073991664
91	0xbd8c45c5	-0.06849245
92	0x3dd6bf45	0.104857005
93	0x3e341c08	0.17588818
94	0x3e0c7438	0.13716209
95	0x3de32cb8	0.11092514
96	0x3d8bc07f	0.06823825
97	0x3e216667	0.1576172
98	0xbe0c6eb1	-0.137141
99	0xbdf81d17	-0.121149234
100	0xbccbb079	-0.024864422
101	0xbcd3cabb	-0.025853505
102	0x3cac6e23	0.021048611
103	0x3d5b54d1	0.053547684
104	0xbe7ca1b4	-0.2467106
105	0xbdce0209	-0.10058982
106	0x3e3d78fb	0.18503182
107	0x3db2c21d	0.087284304
108	0xbdcc2065	-0.09967116
109	0xbe149105	-0.14508446
110	0xbea322c1	-0.31862453
111	0xbe88119e	-0.2657594
112	0xbd8d589a	-0.06901665
113	0x3de1fad1	0.110341676
114	0x3e29fbdb	0.16599981
115	0x3e0aa972	0.13541201
116	0xbe5a9f20	-0.21349764
117	0xbe0cfc48	-0.13768113
118	0xbcf61fd5	-0.030044476
119	0x3e8406e9	0.25786522
120	0x3d38ded9	0.0451344
121	0xbd5b3dcb	-0.053525727
122	0x3dec36e9	0.11533911
123	0xbda2b906	-0.07945447
124	0xbe9856a1	-0.29753593
125	0x3e05da43	0.13071541
126	0xbead039a	-0.3379181
127	0xbe4ff3fa	-0.20307913

down1.bias f4 [8]
0	0xbe724feb	-0.23663299
1	0x3ea47671	0.32121614
2	0x3e0a44b2	0.13502768
3	0x3dd2dae2	0.10295655
4	0xbeaf4272	-0.3423038
5	0xbe12585a	-0.14291516
6	0xbe53e2d8	-0.20692003
7	0x3e0f4b76	0.1399363

conv21.weight f4 [8, 8, 3, 3]
0	0x3d62086d	0.055183817
1	0x3dd4ad8a	0.103846624
2	0x3dadbc44	0.084831744
3	0x3cc73505	0.024317274
4	0x3b8fdd3a	0.004390386
5	0xbd8e2096	-0.06939809
6	0xbdedafb8	-0.11605781
7	0xbdd6518a	-0.10464771
8	0x3d849d5d	0.06475327
9	0xbd6c7ff9	-0.05773923
10	0xbc3a38c2	-0.011366071
11	0xbd1590bf	-0.036514994
12	0xbcf125b2	-0.02943692
13	0xbd884f39	-0.066557355
14	0xbd3bfad1	-0.045893494
15	0x3af73db2	0.0018862991
16	0xbcd19550	-0.025583893
17	0x3dcbc340	0.0994935
18	0xbd137d7e	-0.03600835
19	0xbda787c0	-0.08180189
20	0x3bcafb41	0.0061945026
21	0xbd6c3895	-0.05767115
22	0xbd086a29	-0.033304367
23	0xbdbbf64e	-0.09177838
24	0x3d6925e0	0.056920886
25	0xbda468c1	-0.08027793
26	0x3d947bc5	0.0725017
27	0x3d8079c7	0.06273227
28	0x3dac306d	0.08407674
29	0xbdb8170c	-0.08988771
30	0x3e02198b	0.12705056
31	0xbd85dc40	-0.0653615
32	0x3ce4f2ff	0.0279479
33	0x3e7a3be5	0.2443691
34	0xbc11bddb	-0.008895363
35	0xbcb430b5	-0.021995882
36	0xbcdd100a	-0.026985187
37	0xbdef6bf2	-0.11690511
38	0x3d2f5142	0.042802103
39	0xbdc124f9	-0.0943088
40	0x3d283267	0.041063692
41	0x3d6e24ff	0.05814075
42	0x3e5fbf61	0.21850349
43	0xbd459952	-0.04824192
44	0xbe0e9529	-0.13924088
45	0x3cdd899f	0.027043162
46	0x3d684874	0.05670972
47	0xbe12cd19	-0.14336051
48	0xbc6dcb75	-0.01451384
49	0xbda5526a	-0.0807236
50	0xbd1b250c	-0.037877128
51	0xbcb485cd	-0.022036457
52	0xbd56258b	-0.052281898
53	0xbd7b17f0	-0.061302125
54	0xbda75b3f	-0.08171701
55	0x3e000ed7	0.12505661
56	0x3e05d8cb	0.13070981
57	0x3ab15f14	0.0013532364
58	0x3cfd4dcd	0.030920887
59	0xb9f69684	-0.0004703292
60	0xbe196622	-0.14980367
61	0xbdb8da0d	-0.09025965
62	0x3db314bf	0.087441914
63	0xbd740969	-0.059579287
64	0xbd88f366	-0.066870496
65	0x3ccb760f	0.024836568
66	0xbd4e6bf0	-0.050395906
67	0xbd1740d2	-0.03692705
68	0x3cd86abc	0.026418082
69	0xbd8b00e3	-0.067872785
70	0xbd5a0143	-0.05322386
71	0xbd37c51f	-0.044865724
72	0xbdeb3e08	-0.11486441
73	0x3d938eb1	0.072049506
74	0xbd951271	-0.07278908
75	0x3ccd5f1a	0.025069762
76	0xbd834911	-0.06410421
77	0xbce979ad	-0.028500402
78	0x3dcf7c89	0.10131175
79	0x3c6a636b	0.01430593
80	0xbe21ceb5	-0.15801509
81	0x3cdbb38f	0.026819019
82	0x3daf7917	0.08568018
83	0x3b5e542e	0.0033924687
84	0x3da001f1	0.0781287
85	0x3db61ab1	0.0889181
86	0xbd8217e6	-0.063522145
87	0x3c854b2d	0.016271198
88	0xbe024c3c	-0.12724394
89	0xbdb0a98f	-0.08626091
90	0x3d8a8f01	0.06765557
91	0x3d0c4ba7	0.034251835
92	0xbdcb0191	-0.09912408
93	0xbdd62d48	-0.104578555
94	0xbdd1ebdd	-0.102500655
95	0xbe1657de	-0.14681956
96	0xbdbe34c3	-0.09287407
97	0xbd53c7f8	-0.051704377
98	0x3d096fd4	0.033553913
99	0xbc03af65	-0.008037423
100	0xbdf900e5	-0.12158374
101	0xbce7c50c	-0.028292201
102	0x3d082d44	0.033246294
103	0xbe076a04	-0.13224036
104	0x3c2da43b	0.010598238
105	0x3c2d0695	0.010560651
106	0xbdde5518	-0.10856074
107	0xbd06bf2f	-0.03289717
108	0xbbc0ca89	-0.005883519
109	0xbc458a78	-0.012056939
110	0xbca133e6	-0.019678067
111	0xbdf10cf3	-0.11770048
112	0xbd8a476f	-0.06751906
113	0x3b7373c4	0.003714786
114	0x3dfb32a9	0.12265522
115	0xbbd3053a	-0.006439832
116	0x3bd880b5	0.00660714
117	0x3d33a96e	0.043862753
118	0x3d4a5066	0.04939308
119	0x3da25a94	0.07927433
120	0x3dc51efa	0.09625049
121	0x3d9dc0b3	0.0770277
122	0xbdc9cf27	-0.09853964
123	0xbbbc615a	-0.00574891
124	0x3da09166	0.078402326
125	0x3ce6e161	0.02818364
126	0xbd9ec00c	-0.07751474
127	0x3de6a453	0.11261811
128	0xbd5da688	-0.054113895
129	0xbdac2bef	-0.08406817
130	0xbdf4afa6	-0.11947565
131	0x3badd4ad	0.005304894
132	0x3d55509b	0.052078824
133	0x3ced951f	0.02900177
134	0x3d00dd62	0.031461127
135	0xbe07e7e5	-0.13272054
136	0xbe14fb26	-0.1454893
137	0xbc9dc4f4	-0.019258954
138	0x3da78ff1	0.081817515
139	0x3d6f7243	0.058458578
140	0xbd9c5ba9	-0.0763467
141	0x3bc6e15b	0.006069345
142	0xbd87ed29	-0.066370316
143	0xbd41b530	-0.047291934
144	0x3cd81f88	0.026382223
145	0x3d94cb40	0.07265329
146	0x3df9d9e6	0.12199764
147	0xbdd56209	-0.10419089
148	0x3da4878f	0.08033668
149	0xbd979c4e	-0.0740286
150	0x3d5c60a9	0.05380312
151	0x3dd69483	0.10477545
152	0x3c041f32	0.008064078
153	0x3de4b6d5	0.11167685
154	0xbdc36ceb	-0.09542259
155	0xbcb29346	-0.021798741
156	0x3d8f41b7	0.06994956
157	0xbce06509	-0.027391927
158	0xbc8db971	-0.01730034
159	0xbd276b4a	-0.040873803
160	0x3daeaec9	0.085294314
161	0x3d8228e7	0.06355458
162	0x3d3c08c1	0.045906786
163	0xbd577193	-0.052598547
164	0xbd949dec	-0.07256684
165	0x3c552a50	0.013010576
166	0x3d2e30f7	0.042527165
167	0xbd272516	-0.040806852
168	0xbd21bf00	-0.039488792
169	0x3d9a604d	0.07537899
170	0x3c794cba	0.015216047
171	0x3d3d23d2	0.04617674
172	0x3cd0703a	0.025444139
173	0xbdd9ac11	-0.10628522
174	0xbdc3fc4a	-0.09569605
175	0xbaaf9547	-0.0013395929
176	0xbc432758	-0.011911236
177	0x3c8ad550	0.016947418
178	0xbb7df091	-0.0038748125
179	0xbad9e22e	-0.0016623193
180	0x3e023cdf	0.12718533
181	0x3d7b59f0	0.061365068
182	0x3ddb8172	0.10718049
183	0xbd45572f	-0.048178848
184	0xbcf1ef8e	-0.029533174
185	0x3d9a0c41	0.075218685
186	0xbd8d248d	-0.06891737
187	0xbd9205a5	-0.07129983
188	0x3cbb3e76	0.022856932
189	0xbd49068b	-0.049078505
190	0xbdcc0f8a	-0.09963901
191	0x3d484c97	0.048901167
192	0x3dbef0ca	0.093232706
193	0x3c938abe	0.018010493
194	0xbcfa56db	-0.030558994
195	0xbdd374f9	-0.10325045
196	0xbd1bd215	-0.038042147
197	0x3cf5d729	0.030009823
198	0x3d80db64	0.062918454
199	0xbc02c480	-0.00798142
200	0xbd0b80ea	-0.03405849
201	0x3d7ea42a	0.062168278
202	0xbdae7f46	-0.08520369
203	0x3db62ca4	0.08895233
204	0xbd26a421	-0.04068387
205	0xbb4ae727	-0.0030960531
206	0xbc187238	-0.009304576
207	0x3cacaa2c	0.021077238
208	0xbcf78527	-0.03021486
209	0x3dceaa45	0.1009107
210	0xbabf17ec	-0.0014579273
211	0x3dbcd16f	0.09219634
212	0x3df39539	0.11893696
213	0xbd803656	-0.06260364
214	0xbdbb332e	-0.09140621
215	0x3dc596bf	0.09647893
216	0x3ddd6194	0.10809627
217	0xbda26bc9	-0.07930715
218	0xbc0cbe90	-0.0085903555
219	0xbdc50983	-0.09620955
220	0xbda920c0	-0.082582
221	0x3c9d6ae5	0.01921601
222	0x3d069f48	0.032866746
223	0x3d0bc0ee	0.03411954
224	0xbd3722f4	-0.04471107
225	0x3e063482	0.13105968
226	0x3d17e01e	0.03707897
227	0xbd8f30de	-0.069917426
228	0x3ab14e08	0.0013527283
229	0x3d7b7e4c	0.061399743
230	0x3d57e32a	0.052706875
231	0xbe17b3ab	-0.14814632
232	0x3d2f9471	0.042866174
233	0xbd8172a0	-0.06320691
234	0xbd9e9955	-0.077440895
235	0xbd46cd50	-0.048535645
236	0x3e02ddb9	0.12779893
237	0x3e0dedad	0.13860197
238	0x3e04d01f	0.12970017
239	0x3d94da74	0.07268229
240	0x3dda83f4	0.10669699
241	0x3c42660e	0.011865152
242	0xbd7f16c5	-0.062277574
243	0x3dbd1129	0.09231789
244	0xbd867429	-0.065651245
245	0xbd364832	-0.044502445
246	0x3d309725	0.043112893
247	0x3bf51b09	0.0074800295
248	0x3d63308a	0.055466212
249	0x3e318188	0.17334569
250	0xbbcafde4	-0.006194817
251	0x3d09b9fa	0.033624627
252	0xbdd96a59	-0.10615987
253	0xbde7c6d6	-0.11317222
254	0x3db186ab	0.08668264
255	0xbcc6c16a	-0.024262149

conv21.bias f4 [8]
0	0xbc119f8e	-0.008888138
1	0x3dc1d2aa	0.09464009
2	0xbd2aa789	-0.04166368
3	0x3cfc9712	0.030833755
4	0x3daa059d	0.08301852
5	0xbcf463d0	-0.02983275
6	0x3de69f82	0.112608925
7	0xbcd8209d	-0.026382739

down2.weight f4 [16, 8, 2, 2]
0	0x3daceb11	0.08443273
1	0x3e0910ab	0.13385265
2	0xbdb591c1	-0.08865691
3	0x3de7ff93	0.11328044
4	0x3df7f730	0.12107694
5	0x3e29c239	0.16577996
6	0xbd8012b9	-0.06253571
7	0xbd7708ec	-0.060311243
8	0xbcad738d	-0.021173263
9	0x3d6d52b0	0.057940185
10	0x3e03c531	0.12868191
11	0xbd5de929	-0.054177437
12	0x3d047e82	0.03234721
13	0xbd4a24b3	-0.049351405
14	0xbdeb0a56	-0.11476581
15	0xbd9d02e0	-0.07666564
16	0xbdb08093	-0.086182736
17	0xbd021453	-0.031757664
18	0xbd78427b	-0.060610276
19	0x3e15552b	0.1458327
20	0xbdf07209	-0.117405005
21	0xbb848323	-0.004043953
22	0x3d0688f7	0.032845464
23	0xbdc7da74	-0.097584635
24	0x3d0f2586	0.034947895
25	0xbe2aad04	-0.16667563
26	0xbe330886	-0.1748372
27	0xbe2d0b67	-0.16898881
28	0xbd96e3c8	-0.073676646
29	0xbd74791e	-0.05968582
30	0xbd351169	-0.044206057
31	0xbd62ed41	-0.055402044
32	0x3db42dfd	0.08797834
33	0x3e04082f	0.12893747
34	0x3dd7e1d9	0.10541124
35	0xbdb01809	-0.08598334
36	0xbe453e7a	-0.19262114
37	0x3d3674c9	0.04454497
38	0xbde858ca	-0.1134506
39	0x3da727ce	0.08161889
40	0x3df63e11	0.12023557
41	0x3d394d65	0.045239825
42	0x3e2ceeb3	0.16887932
43	0x3e1c3b1b	0.15256922
44	0x3d75c480	0.06000185
45	0xbe573c8c	-0.2101919
46	0x3ee67190	0.45008516
47	0xbd35093a	-0.044198252
48	0xbe001aab	-0.12510173
49	0x3dc9c339	0.09851689
50	0x3dbd6018	0.09246844
51	0x3c87778f	0.016536502
52	0xbc0f15a8	-0.008733191
53	0xbe399e6d	-0.18126841
54	0xbd261394	-0.040546015
55	0x3e125070	0.14288497
56	0x3d7113e8	0.058856875
57	0xbc904d36	-0.017614942
58	0x3caa16b1	0.020762773
59	0xbda02905	-0.07820324
60	0x3dfef345	0.12448744
61	0xbca5626f	-0.020188538
62	0x3e54551b	0.2073559
63	0xbccacd92	-0.024756227
64	0x3dfbc82c	0.12294039
65	0x3d8a96cd	0.06767044
66	0x3de8845c	0.113533705
67	0x3df86047	0.121277384
68	0x3bc50fdc	0.0060138535
69	0x3d5f9fd0	0.05459577
70	0x3c9bfbfe	0.019041058
71	0xbe146c98	-0.1449455
72	0xbe06ba47	-0.13156997
73	0x3cca85a7	0.024721934
74	0x3c848ad3	0.016179478
75	0xbd3888fb	-0.04505251
76	0xbcc6e58b	-0.024279376
77	0xbe19b530	-0.15010524
78	0x3eaef3ed	0.34170476
79	0x3b09c7c4	0.002102361
80	0xbdec5129	-0.115389176
81	0xbe0902fc	-0.13380045
82	0xbdcf37ed	-0.10118089
83	0xbdf41416	-0.119178936
84	0x3e16ed73	0.14739017
85	0x3d765b21	0.0601455
86	0x3e156cd1	0.14592291
87	0xbd011c46	-0.031521104
88	0x3df00145	0.11718992
89	0x3dabe87e	0.08393954
90	0xbd32b404	-0.043628708
91	0x3d5453af	0.05183762
92	0x3d3b3425	0.045704026
93	0xbde35bf4	-0.11101523
94	0xbcdcd37b	-0.02695631
95	0x3e2d1b3f	0.16904925
96	0x3e1e6561	0.1546836
97	0x3db3df41	0.08782817
98	0x3e27f1f7	0.16400896
99	0xbdaac88c	-0.083390325
100	0x3c741016	0.014896413
101	0x3dae4f96	0.085112736
102	0x3d34dead	0.044157673
103	0x3cd81fec	0.026382409
104	0xbe166634	-0.14687425
105	0xbb42207d	-0.0029621415
106	0xbdbb5fb8	-0.09149116
107	0xbc8b0c99	-0.01697378
108	0x3d903001	0.07040406
109	0xbe026801	-0.12734987
110	0xbe6224ba	-0.22084323
111	0xbc24d535	-0.010060598
112	0xbcd374ab	-0.025812468
113	0x3cf1d30b	0.029519578
114	0x3e2ee582	0.17079738
115	0xbd5a83ac	-0.05334823
116	0xbde387e5	-0.11109904
117	0xbdb8a7b6	-0.09016363
118	0xbd5327ff	-0.051551815
119	0xbdc00dcf	-0.09377634
120	0xbd98cb73	-0.0746068
121	0x3da25b40	0.07927561
122	0x3d0d269a	0.03446064
123	0xbd84e6d8	-0.064893425
124	0xbdf18a0f	-0.11793911
125	0xbd85717f	-0.06515788
126	0xbd8a6c3b	-0.067589246
127	0xbd86e032	-0.065857306
128	0xbe3ecb5a	-0.1863226
129	0x3d5166e9	0.051123533
130	0xbe435c30	-0.19078135
131	0xbe0dc735	-0.13845523
132	0xbdfb1cd9	-0.12261362
133	0x3de438c5	0.111436404
134	0xbdc6b700	-0.09702873
135	0xbd836dbc	-0.064174145
136	0x3dbc44b2	0.0919279
137	0x3e2080ca	0.15674129
138	0x3d32c2ff	0.043642994
139	0xbe127efa	-0.1430625
140	0xbe411703	-0.18856435
141	0xbd40bbfe	-0.047054283
142	0xbe0a476c	-0.13503808
143	0xbd5d53c1	-0.054034952
144	0xbdedd9bd	-0.11613796
145	0x3d4af3fc	0.049549088
146	0xbdff4dab	-0.12465986
147	0xbca7bc2c	-0.02047547
148	0xbd305a19	-0.043054674
149	0x3e3faeb3	0.18718986
150	0x3d774df9	0.060377095
151	0xbc136560	-0.008996338
152	0xbc838259	-0.016053366
153	0xbd4def1a	-0.050276853
154	0xbc578301	-0.013153792
155	0x3d7e729b	0.062121015
156	0xbc7b64a6	-0.015343821
157	0xbdbf9654	-0.09354845
158	0x3ce43e90	0.027861863
159	0xbd9259ff	-0.07146072
160	0xbd3c6ae5	-0.04600038
161	0x3df38c1e	0.118919596
162	0x3e3adb89	0.18247809
163	0x3e464386	0.19361696
164	0x3df4e66f	0.11958014
165	0x3a14df2c	0.0005679007
166	0x3e224486	0.15846452
167	0x3e63e2f1	0.2225454
168	0xbe2c1f50	-0.1680882
169	0xbdbafa32	-0.09129752
170	0xbdcf5f74	-0.10125628
171	0xbc8e1b3d	-0.017346973
172	0x3e062136	0.13098606
173	0xbcdd9fcf	-0.027053742
174	0x3e22e6f7	0.15908419
175	0x3e157670	0.14595962
176	0xbcbbe9c0	-0.02293861
177	0xbe32c380	-0.1745739
178	0x3e1c9515	0.15291245
179	0xbdcfb93e	-0.10142754
180	0xba99551f	-0.0011698342
181	0x3cfb4a62	0.030675117
182	0x3c0865f7	0.008325092
183	0xbe18b468	-0.1491257
184	0x3dc784b9	0.09742112
185	0xbdab3376	-0.08359425
186	0xbd66e842	-0.056373842
187	0x3d488e68	0.048963934
188	0xbd693714	-0.056937292
189	0xbd81a8d4	-0.063310295
190	0xba8031ee	-0.0009780505
191	0xbd073274	-0.0330071
192	0xbdb4960e	-0.08817683
193	0xbd507c20	-0.050899625
194	0x3cdc265a	0.026873756
195	0xbe1753e5	-0.14778097
196	0xbd6cbf21	-0.057799462
197	0x3d35d30f	0.044390734
198	0x3daa4ae4	0.083150655
199	0x3e12acf1	0.14323784
200	0xbe0fe485	-0.14052017
201	0x3d367f32	0.044554897
202	0x3dad0111	0.08447469
203	0x3db5e013	0.088806294
204	0xbe84982e	-0.25897354
205	0xbe013d0f	-0.12620948
206	0xbea140c8	-0.31494737
207	0xbe4c58f4	-0.19955808
208	0x3dfab5f0	0.12241733
209	0xbc7eef95	-0.0155600505
210	0x3de66fb2	0.11251773
211	0xbdb4845b	-0.08814307
212	0x3d039478	0.032124013
213	0xbdd1aa28	-0.10237533
214	0x3dc78677	0.09742444
215	0xbd940aff	-0.0722866
216	0xbd9cd382	-0.076575294
217	0xbe2c84f6	-0.16847596
218	0xbd1a1646	-0.037618898
219	0x3e1b56bf	0.1516981
220	0x3db22871	0.0869912
221	0xbda74ab5	-0.08168546
222	0xbc6b1abb	-0.014349635
223	0xbc3a8e39	-0.011386448
224	0xbdd58f52	-0.10427727
225	0x3dcd3d4e	0.100214586
226	0x3e32c666	0.17458495
227	0x3da198a1	0.0789044
228	0xbe192328	-0.14954817
229	0xbe1756e0	-0.14779234
230	0xbc5b3f34	-0.013381768
231	0x3d28869d	0.041144002
232	0x3da7d9dc	0.0819585
233	0xbda38f6b	-0.07986339
234	0x3e62f4ea	0.2216374
235	0xbc7188ee	-0.014742119
236	0xbc2b6c08	-0.010462768
237	0xbdb60389	-0.08887393
238	0x3f11b9c8	0.56924105
239	0x3dacf172	0.084444895
240	0xbe12ec76	-0.14348015
241	0xbe31748b	-0.17329614
242	0xbe26fafb	-0.16306679
243	0xbe5f6a1f	-0.21817826
244	0xbe45d1aa	-0.19318262
245	0x3d85ea7e	0.065388665
246	0x3e0b4484	0.13600355
247	0x3e392476	0.18080315
248	0xbd664895	-0.056221563
249	0x3da9cf2c	0.08291468
250	0x3db5d2c7	0.08878093
251	0x3e2885cf	0.16457294
252	0x3e7fae64	0.24968868
253	0x3e291c74	0.1651476
254	0x3ed410b1	0.41418985
255	0x3e782f2e	0.24236748

down2.bias f4 [16]
0	0xbdd86aea	-0.10567267
1	0xbd19f23b	-0.037584525
2	0xbed009dd	-0.40632525
3	0x3cee46ce	0.029086497
4	0x3e57e5a9	0.21083702
5	0x3e4bec32	0.1991432
6	0xbe3da599	-0.18520202
7	0xbe65b236	-0.22431263
8	0xbb44dc47	-0.0030038522
9	0xbe367c4f	-0.17820857
10	0x3e4fe5a9	0.20302452
11	0x3d551dc8	0.052030355
12	0x3c622ab3	0.013804126
13	0xbeb2474a	-0.34820014
14	0xbd7c6437	-0.06161901
15	0x3eb60962	0.35554034

conv31.weight f4 [16, 16, 3, 3]
0	0x3cd26d6c	0.025686942
1	0xbd22ff6f	-0.03979438
2	0xbd2fe2ed	-0.042941023
3	0x3d12c592	0.03583295
4	0xbdab38c1	-0.08360434
5	0xbcf6998a	-0.03010251
6	0xb8b6cc70	-8.716516e-05
7	0xbd444e11	-0.047926012
8	0x3cb2cd0d	0.021826291
9	0xbb1adce0	-0.0023630187
10	0x3d6c84cd	0.057743836
11	0x3c58f0f5	0.013241042
12	0xbd5f9b69	-0.05459157
13	0x3da581a9	0.08081371
14	0x3d557255	0.05211099
15	0xbc901fb2	-0.017593239
16	0xbd2d41fc	-0.042299256
17	0x3d162400	0.036655426
18	0xbdbe2dc1	-0.092860706
19	0x3caafed8	0.020873472
20	0x3d4229bd	0.047403086
21	0xbdb23dc4	-0.08703187
22	0xbd221acc	-0.039576337
23	0xbd1a2eab	-0.037642162
24	0x3d71b21f	0.05900776
25	0x3dad6553	0.08466592
26	0x3ca77b43	0.020444518
27	0x3dc89d91	0.097956784
28	0xbc89330f	-0.01674798
29	0xbd97f3fa	-0.07419582
30	0x3d1d6d24	0.038434163
31	0x3c983f23	0.018584793
32	0x3d9ccd9d	0.07656405
33	0xbaab71a0	-0.0013080128
34	0x3d6fad3e	0.058514826
35	0x3d843d83	0.06457045
36	0x3db9082f	0.09034764
37	0xbd9c96b4	-0.07645932
38	0x3d78c6dc	0.060736522
39	0xbd5e00b3	-0.054199886
40	0x3d8158b5	0.06315748
41	0xbcb1b91b	-0.02169471
42	0xbd647c97	-0.05578288
43	0x3cba3719	0.02273135
44	0xbc4d0cb4	-0.012515236
45	0xbdb2b652	-0.08726181
46	0xbcc5fc0c	-0.024168037
47	0x3cdc3765	0.026881883
48	0x3d80ac76	0.06282894
49	0xbb8dd314	-0.004328141
50	0x3d8d1378	0.06888479
51	0xbb248937	-0.00251062
52	0x3c30472a	0.010759154
53	0x3c30552a	0.010762492
54	0xbd40e937	-0.04709741
55	0xbd9eb95e	-0.077502
56	0xbd2a9926	-0.04164996
57	0xbd9a9e06	-0.07549672
58	0xbd7c5b98	-0.061610788
59	0xbced2f75	-0.028953293
60	0xbd78fc00	-0.0607872
61	0xbd329b1f	-0.043604966
62	0xbcd234b9	-0.025659906
63	0xbd0ad1ac	-0.033891365
64	0xbd3fe538	-0.04684946
65	0x3c9bd798	0.019023702
66	0xbcfe00d3	-0.031006252
67	0x3d7f6e8b	0.06236128
68	0x3d3fefec	0.046859667
69	0xbd808591	-0.06275476
70	0xbcbe18c7	-0.023205174
71	0xbb16ea40	-0.0023027807
72	0xbd890e43	-0.06692173
73	0x3ca74f35	0.020423511
74	0x3c89e107	0.016830934
75	0x3d1027e4	0.035194293
76	0x3d8e23d9	0.06940431
77	0x3dd4eabb	0.10396334
78	0xbbf27166	-0.007398772
79	0xbd3e26de	-0.046423785
80	0x3d22c4c4	0.03973843
81	0xbd9d2381	-0.076727875
82	0xbc7e28d6	-0.015512666
83	0xbc8b3603	-0.016993528
84	0xbd88ea7d	-0.0668535
85	0xbb0e6752	-0.0021729064
86	0x3df61919	0.12016506
87	0x3bf2f03e	0.007413893
88	0x3d0a2f90	0.033736765
89	0x3dc4c627	0.09608107
90	0xbd9d1b31	-0.07671202
91	0x3cb5dc1e	0.022199687
92	0x3d45e9eb	0.048318785
93	0x3d51dd52	0.051236458
94	0xbd8347b0	-0.06410158
95	0x3ceaf3ff	0.0286808
96	0xbd4548d5	-0.04816516
97	0x3c89ea67	0.016835405
98	0x3c12d6ab	0.008962314
99	0xbcc76c66	-0.02434368
100	0xbd94cca0	-0.072655916
101	0xbd86aa45	-0.06575445
102	0x3dbb73d9	0.091529556
103	0x3bfe4651	0.007759847
104	0xbe048b31	-0.12943722
105	0x3d09aa54	0.033609703
106	0x3bd6e6cf	0.0065582762
107	0xbdcc7cfc	-0.099847764
108	0xbbe3f1ca	-0.0069563137
109	0x3d7de49f	0.06198561
110	0x3cd12594	0.025530614
111	0xbdde5489	-0.108559676
112	0x3cea272b	0.02858313
113	0x3d589574	0.052876905
114	0x3bd6ecbe	0.0065589836
115	0xbd8ec59f	-0.06971287
116	0xbdc56cca	-0.096398905
117	0xbb292d28	-0.0025814269
118	0xbc3e2cf3	-0.011607396
119	0xbcc24430	-0.023714155
120	0xbdb4e5cf	-0.08832895
121	0xbd007802	-0.03136445
122	0x3def8585	0.11695389
123	0xbd930e95	-0.07180516
124	0x3d4f75d9	0.050649498
125	0x3dd38691	0.10328401
126	0xbc2dab9f	-0.0106
127	0x3caa897f	0.020817516
128	0x3c44b777	0.012006632
129	0x3d14e7b5	0.036353786
130	0xbd49a051	-0.049225155
131	0x3d952eeb	0.072843395
132	0xbd18d919	-0.037316415
133	0x3d341ce5	0.04397287
134	0x3c970968	0.018437102
135	0x3c97b2c7	0.018517865
136	0x3c9424e0	0.01808399
137	0x3d5f9d48	0.054593354
138	0x3cb7d21a	0.022439051
139	0xbd56bf44	-0.0524285
140	0xbd8c855e	-0.06861375
141	0x3d57d4f9	0.05269334
142	0x3d009afc	0.031397805
143	0xbbcf8126	-0.0063325344
144	0x3c06a9ef	0.008219226
145	0x3dd0a10d	0.10186968
146	0xbcae5db6	-0.02128492
147	0xbca45726	-0.020061087
148	0xbc8b6492	-0.01701573
149	0xbd70e433	-0.058811378
150	0xbcffbc0e	-0.031217601
151	0xbd8e7608	-0.069561064
152	0xbdb17db1	-0.08666552
153	0x3c7b6677	0.015344254
154	0x3d67d81d	0.056602586
155	0x3d9b1602	0.07572557
156	0x3d4fd58e	0.05074077
157	0xbb5baf7c	-0.0033521345
158	0x3d06fb90	0.032954752
159	0xbd882a1e	-0.06648658
160	0x3d039174	0.032121137
161	0xbd4b2c05	-0.049602527
162	0x3d83ffcd	0.064452745
163	0x3c5808de	0.013185708
164	0x3caa32ee	0.020776238
165	0x3ccdabb6	0.025106292
166	0xbd0635af	-0.03276604
167	0x3dbc7d4a	0.092035845
168	0x3c546a73	0.012964833
169	0x3d9a6556	0.075388595
170	0x3d8560b4	0.06512585
171	0x3d858225	0.06518964
172	0x3d861652	0.06547226
173	0x3d00577c	0.03133343
174	0x3db6dfed	0.08929429
175	0xbc92bebc	-0.017913215
176	0x3ca1923a	0.019723047
177	0x3d17d675	0.037069757
178	0x3ccf061a	0.025271464
179	0x3d026708	0.03183654
180	0x3b23a557	0.0024970376
181	0xbd4a8780	-0.04944563
182	0xbcf224a9	-0.029558497
183	0x3c6cd9c9	0.014456221
184	0xbab4a509	-0.0013782094
185	0xbd640753	-0.055671047
186	0x3d57a4af	0.05264729
187	0x3cd25a52	0.025677834
188	0xbdbe0cb4	-0.09279767
189	0xbc2a2372	-0.010384427
190	0xbccfe066	-0.025375556
191	0xbd72f63e	-0.059316866
192	0x3bf4cd74	0.007470781
193	0xbd24b753	-0.040213894
194	0xbd142475	-0.03616758
195	0xbca03af9	-0.01955937
196	0xbc8d718e	-0.017266061
197	0x3dc4337e	0.09580134
198	0x3c63c7f8	0.013902657
199	0x3d6f5b8e	0.058436923
200	0x3c92f6bb	0.017939916
201	0x3d198afc	0.03748606
202	0x3b8da0c0	0.0043221414
203	0xbd0ff99b	-0.03515015
204	0xbd0996f8	-0.03359124
205	0xbd97c955	-0.07411448
206	0xbdc8c5bc	-0.0980334
207	0x3c26a1ff	0.010170459
208	0x3c7d423c	0.015457686
209	0x39aae316	0.0003259412
210	0x3d0201bb	0.03173993
211	0x3d57b733	0.052664947
212	0x3c90a341	0.01765597
213	0xbdf2986e	-0.1184548
214	0xbafe4f99	-0.0019402384
215	0x3d710c70	0.058849752
216	0x3cfa8ef1	0.030585738
217	0x3cd29b33	0.02570877
218	0x3d56c928	0.05243793
219	0xbd484003	-0.04888917
220	0x3c895512	0.016764197
221	0x3c14ec0a	0.009089479
222	0xbd3a9886	-0.045555614
223	0x3da895a9	0.082316704
224	0x3daf51f0	0.0856055
225	0x3cbf1a8e	0.023328092
226	0xbc1d1b64	-0.00958905
227	0xbc946467	-0.018114282
228	0xbd22c2d1	-0.039736573
229	0xbd59eea8	-0.053206116
230	0x3ca1c118	0.019745395
231	0xbd8ef743	-0.06980755
232	0xbcf3202a	-0.029678423
233	0x3da467ca	0.08027609
234	0x3c9cf775	0.019160965
235	0xbccfdd1a	-0.025373984
236	0xbd42cdb0	-0.04755944
237	0xbad4411b	-0.0016193719
238	0xbd9a7eb5	-0.07543699
239	0xbb0e529b	-0.0021716717
240	0xbca64257	-0.020295305
241	0x3d49fd16	0.049313627
242	0x3c48d440	0.012257636
243	0xbc88fa34	-0.016720869
244	0x3d781430	0.060566127
245	0x3e2b81cb	0.16748731
246	0x3c731b74	0.014838088
247	0x3d5234a8	0.05131975
248	0x3cf79250	0.030221134
249	0x3da9b97e	0.08287333
250	0x3d6e4cef	0.05817884
251	0xbdd8555e	-0.105631575
252	0xbcf63132	-0.030052755
253	0xbd5d8d1c	-0.05408965
254	0xbd96b215	-0.07358185
255	0x3d304fba	0.043044783

conv31.bias f4 [16]
0	0x3bfc63bc	0.007702319
1	0x3d8bb019	0.06820697
2	0xbd26d648	-0.0407317
3	0x3d7e18d5	0.0620354
4	0x3e241702	0.16024402
5	0x3d6475c1	0.05577636
6	0x3e33b1d7	0.1754831
7	0x3e95b9fc	0.29243457
8	0x3dab2145	0.08355955
9	0x3d027c1f	0.031856652
10	0x3df5d02c	0.12002596
11	0x3dd13ae6	0.10216312
12	0x3d8520d0	0.06500399
13	0x3dc18c49	0.094505854
14	0x3dbe1945	0.092821635
15	0x3d362f4d	0.044478703

up2.weight f4 [16, 8, 2, 2]
0	0xbe44e89e	-0.19229361
1	0x3b4ad47d	0.0030949407
2	0xbcd3f85b	-0.025875261
3	0xbdc309b7	-0.09523337
4	0x3dfe677d	0.124220826
5	0x3e03edba	0.12883654
6	0xbe2485c0	-0.16066647
7	0xbe17c185	-0.14819916
8	0x3e0a3105	0.13495262
9	0xbdc447e6	-0.09584026
10	0x3d52908e	0.05140739
11	0xbcf8c4ed	-0.030367339
12	0x3beef40c	0.0072922762
13	0xbde57050	-0.112030625
14	0xbc356b38	-0.011072926
15	0xbda02e98	-0.07821387
16	0xbdff8776	-0.12477009
17	0xbdc8cc38	-0.09804577
18	0xbb2e2012	-0.0026569408
19	0x3db702a1	0.08936048
20	0xbd00fd69	-0.03149167
21	0xbb9e77b7	-0.0048360485
22	0x3e0d7530	0.13814235
23	0x3e0d98d1	0.13827826
24	0x39f020ab	0.00045800707
25	0xbe1288ce	-0.1431
26	0x3d5dd49b	0.054157835
27	0x3d5c1111	0.053727213
28	0xbdfc8a72	-0.12331094
29	0xbe1a2e12	-0.15056637
30	0x3cd54966	0.026035976
31	0x3e28da9b	0.16489641
32	0xbe61e007	-0.22058116
33	0xbe055c5d	-0.13023515
34	0xbe1e5be3	-0.1546474
35	0xbe61d31c	-0.22053188
36	0xbdb15d11	-0.08660329
37	0x3e229249	0.15876116
38	0x3e2912ef	0.16511129
39	0xbdea0e4c	-0.11428508
40	0x3cda37cb	0.026637932
41	0xbe23c209	-0.15991987
42	0x3dd853e7	0.10562878
43	0xbde719b5	-0.112842
44	0xbda73bfc	-0.08165738
45	0xbd2be50c	-0.041966483
46	0x3cce9250	0.025216252
47	0x3e0b201b	0.13586466
48	0xbdc63335	-0.09677736
49	0x3cab3dc3	0.020903474
50	0x3d8e7b9b	0.069571696
51	0xbd340160	-0.043946624
52	0xbc42f60d	-0.011899483
53	0x3c433bd1	0.011916117
54	0xbd08b9da	-0.033380367
55	0x3dbf72d5	0.09348074
56	0x3df0f0d8	0.11764687
57	0xbdd015ff	-0.101604454
58	0x3e517abe	0.20456979
59	0x3dda4c78	0.106591165
60	0xbd0d71ee	-0.03453248
61	0x3e0b79bf	0.13620661
62	0x3c89c120	0.016815722
63	0x3dae0f4e	0.08499013
64	0xbe1e2103	-0.1544228
65	0x3e0b072b	0.13576953
66	0x3e1f401b	0.15551798
67	0xbe1fbfc2	-0.15600494
68	0xbe3c3733	-0.18380432
69	0xbd6e2843	-0.058143865
70	0xbe10987a	-0.14120665
71	0x3cffa8da	0.031208444
72	0x3da87cc1	0.0822692
73	0x3a8f28ba	0.0010922172
74	0x3df9fb71	0.12206162
75	0x3ce8a395	0.028398314
76	0xbd8008b0	-0.06251657
77	0xbe332f0c	-0.17498416
78	0x3d6b2c99	0.05741558
79	0xbe3c5a1a	-0.18393746
80	0xbd23f004	-0.04002382
81	0xbbc418d5	-0.0059844055
82	0xbe15bca6	-0.14622745
83	0xb99c89dd	-0.00029857355
84	0x3cf1de6a	0.029525
85	0x3dd496e6	0.10380344
86	0x3df63e9e	0.12023662
87	0xbe160eb0	-0.1465404
88	0xbe0cb3a2	-0.137404
89	0xbd848282	-0.06470205
90	0xbe1646c0	-0.14675426
91	0x3d4ea92c	0.050454304
92	0xbe0634ce	-0.13106081
93	0xbdfdfbdf	-0.12401556
94	0x3ceddadc	0.029035024
95	0x3dcdd6a5	0.10050706
96	0xbde9f1ca	-0.11423071
97	0xbe761960	-0.24033117
98	0x3bcc5923	0.006236212
99	0xbc240d60	-0.0100129545
100	0x3e69a9c6	0.2281867
101	0x3e06e8a3	0.13174681
102	0x3e6579ce	0.22409746
103	0xbd878d1e	-0.06618713
104	0x3e853927	0.26020166
105	0x3c815d74	0.015791632
106	0xbc3b949d	-0.011449006
107	0x3e5fe916	0.21866259
108	0xbda6cef0	-0.08144939
109	0xbc9984ee	-0.018740144
110	0xbe35fd39	-0.17772378
111	0x3da18c12	0.078880444
112	0x3d59e288	0.053194553
113	0xbe4a865a	-0.19777814
114	0x3de9b1e3	0.11410882
115	0xbe8a1c05	-0.26974502
116	0xbe127db8	-0.1430577
117	0xbdca66bd	-0.09882877
118	0x3ce185ef	0.027529685
119	0xbdf996ba	-0.12186952
120	0x3e6eaf2c	0.2330901
121	0x3d5d9fdb	0.05410753
122	0x3d4dd40d	0.050251056
123	0x3de86cc9	0.11348874
124	0xbdf10f66	-0.11770515
125	0xbd948e27	-0.07253676
126	0x3dce865e	0.10084222
127	0x3da27f36	0.0793442
128	0x3e43e9fc	0.19132227
129	0xbd654164	-0.055970564
130	0xbd7496b1	-0.059714023
131	0xbd8d30ec	-0.06894097
132	0x3c822370	0.015886039
133	0xbe9bca7b	-0.30427918
134	0xbd84c681	-0.06483174
135	0x3ca2f88b	0.019893905
136	0xbdd4c7b9	-0.103896566
137	0xbeb0dc54	-0.34543097
138	0xbe77cfd6	-0.24200377
139	0xbec9d083	-0.39416894
140	0x3ea45b47	0.3210089
141	0x3e166366	0.14686355
142	0x3d2dc202	0.04242135
143	0x3dbb2b19	0.091390796
144	0x3d96f0fa	0.073701814
145	0x3ddf2089	0.108948775
146	0x3c915796	0.01774196
147	0x3daaf484	0.08347419
148	0x3ae9d6cc	0.0017840504
149	0x3d062767	0.03275242
150	0xbcba0766	-0.022708606
151	0x3e09567f	0.13411902
152	0xbe00f401	-0.1259308
153	0xbe691c89	-0.22764792
154	0xbe86fbf6	-0.26364106
155	0xbe3008ee	-0.17190906
156	0xbe8bd7d4	-0.273131
157	0xbe5a2909	-0.21304716
158	0xbe265e2e	-0.16246864
159	0xbe1fa217	-0.15589176
160	0xbe64f8c2	-0.22360519
161	0x3d851888	0.064988196
162	0x3be2891c	0.0069133174
163	0xbd695519	-0.05696592
164	0x3e0e0064	0.13867337
165	0x3e5c68f4	0.21524411
166	0x3de5a653	0.112133645
167	0x3e4c80e6	0.19971046
168	0x3e889b7c	0.26681125
169	0x3e720e21	0.23638202
170	0x3e844053	0.25830325
171	0x3d42ab02	0.047526367
172	0xbe3fc5ea	-0.18727842
173	0xbddb9b04	-0.10722926
174	0xbda4eb4d	-0.080526926
175	0xbdcb5081	-0.09927464
176	0xbe299e3b	-0.16564266
177	0xbdfb57cf	-0.122726075
178	0x3e26d46b	0.16291969
179	0xbe019c26	-0.12657222
180	0xbdc72b10	-0.097250104
181	0xbdb09d8a	-0.08623798
182	0xbe7b94f5	-0.24568541
183	0xbde0f50c	-0.10984239
184	0x3ddce976	0.10786717
185	0x3dd1ec61	0.10250164
186	0x3e8d878f	0.27642485
187	0x3ea4e1fb	0.3220366
188	0x3e04aa50	0.12955594
189	0x3e743306	0.23847589
190	0xbc671df3	-0.014106262
191	0x3e4b2863	0.19839625
192	0xbd9fc123	-0.0780051
193	0xbe568b2d	-0.20951529
194	0x3dafd809	0.08586127
195	0xbc24e18f	-0.010063543
196	0x3d4b7a8a	0.04967741
197	0x3e6ae9e3	0.22940783
198	0x3db995c8	0.09061772
199	0x3e67f382	0.22651485
200	0x3db6ebff	0.089317314
201	0x3dd79e5c	0.105282515
202	0x3dbb934b	0.09158953
203	0x3ddf493f	0.109026425
204	0xbe5735e3	-0.2101665
205	0xbe4145c9	-0.18874277
206	0xbe7a1e67	-0.2442566
207	0xbe5dfd90	-0.21678758
208	0xbe849f4a	-0.25902778
209	0xbd9f1b20	-0.077688456
210	0xbe1d4d9a	-0.15361634
211	0xbe249796	-0.1607345
212	0xbdc0279b	-0.09382554
213	0x3c2989ee	0.010347826
214	0x3bb50e1d	0.005525364
215	0xbe7b85bd	-0.24562736
216	0x3e93427f	0.2876167
217	0xbc952c29	-0.018209534
218	0x3e15caaf	0.14628099
219	0x3e8cd434	0.27505648
220	0x3e64d865	0.22348173
221	0x3db32e03	0.087490104
222	0xbd4c310e	-0.04985147
223	0x3e3b38b9	0.18283357
224	0x3e341506	0.17586145
225	0xbd2e4a34	-0.042551234
226	0xbde1ab6e	-0.11019026
227	0xbe44d343	-0.19221215
228	0x3d59453f	0.053044554
229	0x3d1addcc	0.03780918
230	0x3db7d39a	0.08975907
231	0xbdc29e11	-0.09502805
232	0xbec55c62	-0.38547045
233	0xbed34fcc	-0.41271818
234	0xbe907330	-0.2821288
235	0xbe6631ef	-0.22479986
236	0x3ec8a57b	0.39188752
237	0x3e5fb940	0.21848011
238	0x3e63af21	0.22234775
239	0x3df7e350	0.12103903
240	0xbdaa3736	-0.08311312
241	0x3c0abf5e	0.008468477
242	0xbe0805f2	-0.13283518
243	0xbd86f19f	-0.06589054
244	0x3e03dfd8	0.12878358
245	0x3e22f8f8	0.15915287
246	0x3dedc96f	0.11610686
247	0x3da39478	0.079873025
248	0xbe5dc149	-0.21655764
249	0xbe9340a4	-0.28760254
250	0xbcea3dd6	-0.028593939
251	0xbe94eba8	-0.2908604
252	0xbe089d71	-0.13341309
253	0xbed6208a	-0.418217
254	0xbe948b3b	-0.29012474
255	0xbe4ec137	-0.20190893

up2.bias f4 [8]
0	0xbe24343c	-0.16035551
1	0x3e14810e	0.14502355
2	0x3d354995	0.044259626
3	0x3e1466d8	0.14492357
4	0xbe891373	-0.2677265
5	0x3d1dc64a	0.03851918
6	0x3e56cef3	0.20977382
7	0xbdbbc9fc	-0.09169385

conv22.weight f4 [8, 8, 3, 3]
0	0xbdcb9bd9	-0.09941835
1	0x3d149967	0.03627911
2	0x3d71829f	0.05896246
3	0xbdf711fe	-0.120639786
4	0xbcc91c8f	-0.02454975
5	0xbd9804c2	-0.074227825
6	0x3d8d540c	0.06900796
7	0x3d5b638e	0.05356174
8	0x3d123e1d	0.035703767
9	0x3d9f8222	0.07788493
10	0x3b67bec9	0.003536152
11	0x3e116a22	0.14200643
12	0xbd8840c2	-0.066529766
13	0x3d033f7f	0.032042976
14	0x3b6ff5e2	0.0036615063
15	0xbd48a747	-0.048987653
16	0xbcef6145	-0.029221186
17	0x3d9760c6	0.07391505
18	0x3d416435	0.047214705
19	0xbcbe3300	-0.023217678
20	0x3d8edb2c	0.069753975
21	0x3df3cbb5	0.119040884
22	0xbbf731ab	-0.0075437627
23	0x3e26c49a	0.16285935
24	0x3c8692cd	0.016427422
25	0x3dae6c07	0.08516698
26	0xbc249d75	-0.010047306
27	0xbdcd18e0	-0.1001451
28	0xba499f14	-0.0007691246
29	0x3d9285b5	0.07154409
30	0x3d78218c	0.060578868
31	0x3d39caf3	0.045359563
32	0x3d95b35b	0.073096
33	0xbe27dbe9	-0.16392483
34	0x3d83ea81	0.064412124
35	0x3d835f1d	0.06414626
36	0xbe100fad	-0.1406848
37	0xbda37c6e	-0.079827175
38	0x3d97d08e	0.074128255
39	0xbd6c52a6	-0.057696007
40	0xbd7b51b7	-0.061357226
41	0xbd5fd769	-0.05464879
42	0x3c8ad113	0.016945397
43	0x3c5eedbf	0.013606488
44	0x3d21fa0b	0.0395451
45	0xbe12a5e3	-0.14321093
46	0x3d86fd36	0.06591265
47	0xbde5b24e	-0.112156495
48	0x3c50ea3d	0.012751159
49	0xbd4a23f2	-0.049350686
50	0xbd035db5	-0.032071788
51	0x3c7e07bf	0.0155047765
52	0xbd87d73c	-0.066328496
53	0xbd7055ea	-0.058675684
54	0x3db13b87	0.08653932
55	0xbde5ac9d	-0.11214564
56	0x3c93dd2d	0.0180498
57	0xbc6e1ae2	-0.014532777
58	0xbd5a92d9	-0.0533627
59	0x3d48a685	0.04898693
60	0x3ce24381	0.027620079
61	0xbdfe1b93	-0.12407603
62	0x3d983fe5	0.07434062
63	0xbd0ec923	-0.034859788
64	0x3dede8a4	0.11616638
65	0xbd27db12	-0.040980406
66	0x3e146f0a	0.14495483
67	0x3d6d8619	0.057989214
68	0x3bdc9229	0.006731291
69	0x3d9e4c57	0.077294044
70	0x3c1c38b1	0.009535001
71	0xbd2b2051	-0.041778866
72	0x3e362b67	0.17789994
73	0x3d210ca3	0.039318692
74	0xbe0093e8	-0.12556422
75	0x3d4727b2	0.04862184
76	0xbdf16a55	-0.11787859
77	0xbe43e4b5	-0.19130214
78	0xbe6c235c	-0.23060364
79	0xbd8cf7e5	-0.0688322
80	0xbe093ed4	-0.13402873
81	0x3e097b5f	0.13425969
82	0xbdc8e6d0	-0.09809649
83	0xbcaa1d4c	-0.020765923
84	0xbbdc2071	-0.0067177345
85	0x3d8ba7a8	0.06819087
86	0x3dc5bce8	0.09655172
87	0x3e878d4c	0.26474988
88	0x3d79fd4e	0.061032586
89	0xbd6cf989	-0.057855163
90	0x3d5a9a83	0.05337001
91	0xbc6ccd1a	-0.014453197
92	0x3de1b731	0.11021269
93	0x3d6729d1	0.056436364
94	0x3de170e3	0.110078596
95	0x3dac6b6c	0.084189266
96	0x3e871031	0.2637954
97	0xbd3cfd2c	-0.04613988
98	0x3bbbf77d	0.00573629
99	0xbc6af0c7	-0.014339632
100	0x3dc97f4f	0.09838735
101	0x3d21c078	0.039490193
102	0xbd13f3c0	-0.03612113
103	0x3e01210f	0.12610267
104	0x3db395ea	0.08768828
105	0xbd97f93a	-0.07420583
106	0xbcfc20ac	-0.030777298
107	0x3e21fbb3	0.15818672
108	0x3d3cfc08	0.046138793
109	0xbd8adc57	-0.06780308
110	0xbdb7af1a	-0.08968945
111	0xbd88638a	-0.066596106
112	0xbcc99405	-0.024606714
113	0xbd7ea408	-0.06216815
114	0xbe902f4a	-0.2816108
115	0xbdd14251	-0.10217727
116	0x3c602f45	0.013683145
117	0xbd190ec3	-0.037367593
118	0xbd961d25	-0.07329778
119	0xbdc6a27c	-0.0969896
120	0xbdee2c11	-0.11629499
121	0x3d0b8ebe	0.034071676
122	0xbdc0aedb	-0.09408351
123	0xbe3691e1	-0.17829086
124	0x3c0c00c3	0.0085451035
125	0xbdd82df9	-0.105556436
126	0x3ce27b1d	0.027646596
127	0xbbb0e90f	-0.0053988765
128	0xbd6e9c5d	-0.05825459
129	0x3dc8c5e0	0.09803367
130	0xbdfdaadd	-0.12386105
131	0xbda77668	-0.08176881
132	0x3cb4edc3	0.02208603
133	0x3dbe15f3	0.0928153
134	0x3bcc57e7	0.0062360647
135	0xbbd4db2e	-0.006495855
136	0x3d82862f	0.0637325
137	0xbc995dc1	-0.018721463
138	0x3e28fdb0	0.16503024
139	0x3dad0aa6	0.08449297
140	0xbda19b99	-0.07891006
141	0x3e59d7ca	0.21273723
142	0x3ad58413	0.0016289972
143	0xbaca7ea8	-0.0015449123
144	0x3dc9e156	0.098574325
145	0x3e318d35	0.17339022
146	0xbcd8cf5f	-0.02646607
147	0xbe18adf8	-0.14910114
148	0x3da93baf	0.08263337
149	0x3e97b4cf	0.29630134
150	0xbe729845	-0.23690899
151	0xbe1bbbc1	-0.15208341
152	0xbc594cfb	-0.0132629825
153	0xbe0ed850	-0.13949704
154	0xbe020d58	-0.12700403
155	0x3d83576f	0.06413161
156	0x3d3d934d	0.046283055
157	0x3d401729	0.046897087
158	0x3d9ea0e0	0.07745528
159	0x3e08cabd	0.13358589
160	0x3e0e1242	0.13874152
161	0x3dd56cde	0.104211554
162	0xbe622a7c	-0.22086519
163	0x3c29a397	0.010353944
164	0x3b897feb	0.004196157
165	0x3d5fecd0	0.0546692
166	0xbe018b02	-0.12650684
167	0xbc87c230	-0.016572088
168	0x3dd56027	0.1041873
169	0x3d0c73fb	0.034290295
170	0xbd81415e	-0.06311296
171	0x3d12ca2e	0.035837345
172	0x3d88b0f4	0.06674376
173	0x3b873b9a	0.004126978
174	0x3d3bc131	0.04583854
175	0x3d638d9b	0.055554967
176	0x3e0b0f7a	0.13580123
177	0xbe1fd8ca	-0.15610042
178	0x3c0fded8	0.008781157
179	0x3e36af62	0.1784034
180	0x3d667c33	0.05627079
181	0xbc1bac8a	-0.009501586
182	0xbe12c43a	-0.14332667
183	0xbcad4d52	-0.021155033
184	0xbd9efefd	-0.07763479
185	0x3d5a7e8b	0.053343337
186	0xbea7aaf9	-0.3274763
187	0xbe270902	-0.1631203
188	0xbde5d808	-0.11222845
189	0x3db07185	0.08615402
190	0xbdac4f37	-0.084135465
191	0xbd313a6e	-0.043268614
192	0x3e08d665	0.13363035
193	0xbd6f9369	-0.05849019
194	0xbcbaa0b1	-0.022781702
195	0xbe4018fe	-0.18759534
196	0x3d71932c	0.058978245
197	0x3ddabf73	0.10681047
198	0xbe22f8fb	-0.15915291
199	0x3d391adf	0.045191642
200	0x3e05c395	0.1306289
201	0xbe0d46be	-0.13796517
202	0xbdb2f83a	-0.08738752
203	0xbd0e2140	-0.03469968
204	0x3c415178	0.011799209
205	0x3d0d25cf	0.034459885
206	0xbd8c1ccc	-0.0684143
207	0xbe2cb07e	-0.16864201
208	0x3d486398	0.048923105
209	0x3d7f1164	0.062272444
210	0xbd6a7427	-0.057239678
211	0x3d3e59c1	0.046472315
212	0x3e2b0fad	0.16705199
213	0x3e26c196	0.16284785
214	0x3c75cba5	0.015002166
215	0x3d9b9c04	0.07598117
216	0xbe2ec428	-0.17067015
217	0xbd9fa5b6	-0.07795279
218	0x3d438744	0.04773642
219	0xbc049cd0	-0.008094028
220	0xbdaf28b0	-0.085526824
221	0x3d5e43b4	0.054263785
222	0x3dbc9f18	0.09210032
223	0x3e04ed5b	0.12981169
224	0xbd4e2d3a	-0.0503361
225	0x3d1110b5	0.035416324
226	0xbd36c34c	-0.044619843
227	0x3e1c4b9c	0.15263218
228	0xbc50dd4e	-0.012748076
229	0x3b32a69a	0.0027259947
230	0x3e5ca1ba	0.21546069
231	0xbe1eb2e6	-0.15497932
232	0xbacb65a5	-0.0015517963
233	0xbd0c5672	-0.03426213
234	0xbe19c5da	-0.1501688
235	0x3e073b74	0.13206273
236	0x3e19c79a	0.15017548
237	0xbe1d1a55	-0.15342076
238	0x3bb8a705	0.0056351447
239	0x3e9b48f9	0.3032911
240	0x3ca88c6a	0.020574767
241	0xbc80ccdd	-0.015722686
242	0x3e888412	0.26663262
243	0xbdd4d61a	-0.10392399
244	0xbe0a47b6	-0.13503918
245	0xbe783258	-0.24237955
246	0xbe351704	-0.17684561
247	0xbd4b7adb	-0.04967771
248	0xbe1a769f	-0.15084313
249	0xbdff4437	-0.12464183
250	0xbe61abbe	-0.2203817
251	0xbd8062bc	-0.06268832
252	0xbe1c7cf7	-0.15282045
253	0x3d2b4d23	0.04182161
254	0x3e5578d2	0.2084687
255	0xbc8f9036	-0.01752482

conv22.bias f4 [8]
0	0xbc46d005	-0.012134557
1	0x3eb78e21	0.35850623
2	0x3dedbc16	0.1160814
3	0xbee2d23c	-0.4430102
4	0x3ddcbd60	0.10778308
5	0x3c984ffc	0.018592827
6	0xbcd72a05	-0.026265154
7	0xbe15c975	-0.14627631

up1.weight f4 [8, 4, 2, 2]
0	0x3dae0920	0.08497834
1	0x3e16fd48	0.14745057
2	0xbe8e808d	-0.2783245
3	0xbd9adceb	-0.07561668
4	0xbe5587c6	-0.20852575
5	0x3df493a2	0.11942221
6	0x3e46901a	0.19390908
7	0xbe6263c8	-0.22108376
8	0x3d9195fc	0.071086854
9	0x3dd0ca44	0.10194829
10	0xbdee26b8	-0.11628479
11	0x3d9f6c27	0.077843
12	0x3e1e9e48	0.15490067
13	0x3e8df184	0.27723324
14	0x3e0df90b	0.13864534
15	0xbdaf7820	-0.08567834
16	0xbd0397fb	-0.03212736
17	0x3d96f212	0.0737039
18	0x3b869d45	0.0041081035
19	0x3dca61e6	0.09881954
20	0x3e91cc59	0.28476217
21	0xbe9a2164	-0.301036
22	0x3da9e1ef	0.082950465
23	0xbdd25e98	-0.102719486
24	0x3e00b585	0.12569244
25	0x3e72d20b	0.23712938
26	0x3dd4f2ab	0.10397848
27	0xbd25a025	-0.04043593
28	0xbe60cbb9	-0.21952714
29	0xbb0a11b3	-0.0021067678
30	0xbea56e38	-0.32310653
31	0x3e58132b	0.21101062
32	0x3b9608da	0.004578692
33	0x3e7ef9e1	0.24900009
34	0xbcc8fd26	-0.024534773
35	0x3e531a86	0.20615587
36	0x3eb7341f	0.35781953
37	0xbe52913e	-0.20563218
38	0x3da26a8a	0.07930477
39	0x3e2b76e8	0.16744578
40	0x3ad4c54b	0.0016233114
41	0x3e34177b	0.17587082
42	0xbe3cb23a	-0.18427363
43	0x3e892528	0.2678616
44	0x3d8668e3	0.06562974
45	0x3e895ef1	0.26830247
46	0x3e414b72	0.18876436
47	0x3e9b83c6	0.30373973
48	0x3df68ea4	0.12038925
49	0xbe5b6c35	-0.21427996
50	0xbdc53632	-0.096294776
51	0x3e7095ff	0.23494719
52	0xbea872c5	-0.32900062
53	0x3e6a3327	0.22871076
54	0x3e877e34	0.26463473
55	0x3ebae711	0.36504415
56	0xbd9f7deb	-0.07787689
57	0x3e83f81f	0.2577524
58	0xbe95736b	-0.2918962
59	0xbdec8da6	-0.11550455
60	0x3c19144a	0.009343216
61	0xbd944f63	-0.07241704
62	0x3e8b3b79	0.27193812
63	0x3db7cf9c	0.08975145
64	0x3d8b4f7e	0.06802271
65	0x3d229278	0.039690465
66	0x3e9c1d21	0.30490974
67	0x3dfd54f6	0.12369721
68	0x3ea0db55	0.31417337
69	0x3e8335da	0.25627023
70	0x3d15b7c2	0.0365522
71	0xbe12774f	-0.14303325
72	0x3e9d23ed	0.30691472
73	0xbd923cda	-0.07140513
74	0x3eae7816	0.34075993
75	0xbde46d1d	-0.11153624
76	0x3deaeb46	0.11470656
77	0x3e88d3b1	0.26724008
78	0x3d3090aa	0.043106712
79	0x3ea647fa	0.3247679
80	0xbe4ea600	-0.20180511
81	0xbd3c798a	-0.046014346
82	0xbc863fe5	-0.01638789
83	0x3e54c4af	0.20778154
84	0x3e036714	0.1283229
85	0x3e3ecc33	0.18632583
86	0x3dedfecc	0.11620864
87	0x3e7e8571	0.24855591
88	0xbd67869d	-0.05652486
89	0xbd865774	-0.06559649
90	0xbc70291f	-0.0146582415
91	0x3de879a4	0.11351326
92	0xbd4f1ed2	-0.050566502
93	0x3dcc4814	0.09974685
94	0x3d7edfdd	0.06222521
95	0x3de1fd87	0.11034685
96	0x3e8fd87e	0.28094858
97	0x3dda425f	0.106571905
98	0x3e88cee5	0.26720348
99	0xbbbaf976	-0.0057060076
100	0xbddfbaf3	-0.109243296
101	0x3e398c52	0.18119934
102	0x3e311f6e	0.17297146
103	0x3e8708f0	0.26374006
104	0x3e153bb5	0.14573558
105	0x3ca7ee0e	0.020499256
106	0xbdbbf748	-0.091780245
107	0xbe593b3c	-0.21214002
108	0x3de29e91	0.110654004
109	0x3e932b6c	0.28744066
110	0x3c7a13c1	0.015263499
111	0x3d74c727	0.05976024
112	0xbdbebdf6	-0.09313576
113	0xbe79ac79	-0.243822
114	0xbe6e5ed5	-0.23278363
115	0xbecb9a73	-0.39766273
116	0xbeb6a289	-0.3567088
117	0xbea16892	-0.31525093
118	0xbe6f1a56	-0.2334989
119	0xbe090c3f	-0.13383578
120	0xbdb641ab	-0.08899244
121	0xbea7640b	-0.32693514
122	0xbe6788e4	-0.22610813
123	0xbe383708	-0.17989743
124	0xbdb54cab	-0.08852514
125	0xbe8cda12	-0.27510124
126	0xbcac8369	-0.021058755
127	0xbe8332eb	-0.25624785

up1.bias f4 [4]
0	0x3de8bca9	0.11364109
1	0x3e299b17	0.16563068
2	0x3c6c91e5	0.014439081
3	0xbda99e64	-0.08282164

conv13.weight f4 [2, 4, 3, 3]
0	0xbe065a08	-0.13120282
1	0xbdb59df3	-0.08868017
2	0xbcea1000	-0.028572083
3	0x3c973ab4	0.018460609
4	0x3deb9f0f	0.115049474
5	0xbd1242e7	-0.035708334
6	0x3deb9cdd	0.11504529
7	0xbd9772a4	-0.07394913
8	0xb9c933f5	-0.00038376419
9	0xbd97db11	-0.074148305
10	0x3d544909	0.051827464
11	0x3e168ea5	0.14702852
12	0x3d880583	0.06641676
13	0x3c9da845	0.019245276
14	0xbd70f378	-0.05882594
15	0xbe04bf7c	-0.1296367
16	0xbdd9664b	-0.10615214
17	0xbe0e4f56	-0.13897452
18	0x3dfeef1a	0.12447949
19	0xbd728732	-0.059210964
20	0xbcb0f92d	-0.021603191
21	0xbe10ab89	-0.14127935
22	0xbd1e88ce	-0.038704686
23	0x3e11cde7	0.14238702
24	0x3d3576d4	0.044302776
25	0xbc9d7388	-0.019220129
26	0x3db84160	0.08996844
27	0x3e3772cf	0.1791489
28	0x3ddc07e4	0.107436925
29	0xbd70905b	-0.058731418
30	0x3d3d65db	0.046239715
31	0xbe25f000	-0.16204834
32	0xbdc1f76e	-0.094710216
33	0x3e5ce981	0.2157345
34	0xbe41e111	-0.18933512
35	0xbd7525eb	-0.059850615
36	0x3d75a42f	0.05997103
37	0x3dee27a1	0.11628652
38	0xbe53cbf9	-0.20683278
39	0xbdeeb63d	-0.11655853
40	0xbd9f2381	-0.07770444
41	0x3db80b62	0.08986546
42	0x3dce682c	0.10078463
43	0x3dc4e9ef	0.09614932
44	0x3dadcc3d	0.08486221
45	0xbc96f951	-0.01842943
46	0x3e0f0283	0.13965802
47	0x3c16fb41	0.009215177
48	0x3d1e5334	0.038653567
49	0xbce083c4	-0.02740658
50	0x3dac3e97	0.084103756
51	0x3dccf1fc	0.10007092
52	0x3a01287e	0.0004926993
53	0x3e259bdb	0.16172735
54	0xbcc57e6f	-0.02410814
55	0x3d53e34d	0.051730443
56	0x3e229e4a	0.15880695
57	0x3ddee1cb	0.1088291
58	0xbd496e9b	-0.049177747
59	0xbd8d500f	-0.069000356
60	0x3d4d715b	0.050156932
61	0x3c377b6e	0.0111988615
62	0x3ca0a6a6	0.019610714
63	0x3e12cfd7	0.14337097
64	0x3dd3354f	0.10312902
65	0xbd82c85f	-0.06385874
66	0xbd29ca00	-0.041452408
67	0x3e4e2448	0.20131028
68	0x3d42ab0b	0.0475264
69	0x3b5c8973	0.0033651262
70	0xbd3cce7b	-0.046095353
71	0x3e533401	0.20625307

conv13.bias f4 [2]
0	0xbdd8bd29	-0.105829544
1	0xbe23ccb8	-0.15996063

conv14.weight f4 [2, 2, 3, 3]
0	0xbe51e42f	-0.20497201
1	0x3df8edc8	0.12154728
2	0x3c5fbe85	0.013656263
3	0xbbe6ca82	-0.007043184
4	0xbe248f31	-0.16070248
5	0x3c7b75f0	0.015347943
6	0xbdadc197	-0.0848419
7	0x3e8ce337	0.275171
8	0xbea5fc62	-0.32419115
9	0xbe3da8fa	-0.1852149
10	0xbe8ecda4	-0.27891266
11	0x3e0a571c	0.13509792
12	0x3e89de5f	0.26927468
13	0xbe68ab02	-0.22721484
14	0x3e0e9dfc	0.13927454
15	0xbcbbface	-0.022946741
16	0xbe2e5974	-0.17026311
17	0x3e21fcb8	0.15819061
18	0x3e21c3d8	0.15797365
19	0x3df2f46a	0.118630245
20	0x3ac77e8f	0.0015220213
21	0x3e84c79e	0.25933546
22	0xbe4d7eac	-0.20067853
23	0x3d4fa4bb	0.05069421
24	0xbc687f00	-0.014190435
25	0x3c85aefe	0.016318794
26	0x3ddc308a	0.107514456
27	0xbe15a554	-0.14613849
28	0x3e01ac34	0.12663347
29	0xbcc03ba3	-0.023465937
30	0x3e3224b6	0.17396817
31	0x3c8ef33c	0.017449968
32	0x3e0f19a3	0.13974623
33	0x3e800a80	0.2500801
34	0xbd71268b	-0.058874648
35	0xbe534dac	-0.20635098

conv14.bias f4 [2]
0	0x3f43c04e	0.7646531
1	0xbad771b7	-0.0016437088

conv15.weight f4 [1, 2, 3, 3]
0	0x3f0aafa0	0.5417423
1	0x3f223454	0.63361096
2	0x3eddbabf	0.43306538
3	0x3f2dce77	0.67893165
4	0x3f261ddc	0.6488931
5	0x3edee81b	0.43536457
6	0x3f0e5a50	0.55606556
7	0x3f03e314	0.5151837
8	0x3f36966d	0.7132328
9	0x3e37fb4a	0.17966953
10	0xbe0eaab0	-0.139323
11	0x3d18a8c7	0.037270334
12	0x3e142750	0.14468122
13	0x3e45e7c0	0.19326687
14	0x3dc26bd5	0.094932236
15	0x3df7d6ba	0.12101503
16	0xbcc2ae83	-0.023764854
17	0x3cb82b2b	0.022481522
