output/big_mess_300300_e/train/model/itn_70.pt (torch_old, 23547 bytes, 23 tensors)

conv11.weight f4 [2, 1, 3, 3]
00000000: 83e4 873e c6a1 913e 0b18 92bd 66f8 a13e
00000010: d188 85bd 4d05 9a3d 05dc 1abe 703d 533e
00000020: 8c46 9c3e c907 74be 2d45 8b3e 3127 103d
00000030: a81f 863e 855c 1e3d 8bcf 123e ba22 5cbc
00000040: 12d6 873e 1964 383d
0.26541528 0.28443736 -0.07133492 0.31634825 -0.06520236 0.07520542 -0.15122993 0.20628905
0.30522573 -0.23831095 0.27201214 0.035193626 0.26196027 0.038662452 0.14336984 -0.013436014
0.2653051 0.045017336

conv11.bias f4 [2]
00000000: f57c 71bb 7d4f 843c
-0.0036848162 0.016151184

conv12.weight f4 [4, 2, 3, 3]
00000000: 1f40 8dbd 02ed 603b 2f6b 83bd 2518 4c3e
00000010: b9e0 1cbe a9bd 97bd dfb2 19bc 0a1c cfbd
00000020: ce9c 7c3d b8ac 61be 777c 5e3e 0982 3bbe
00000030: 7366 603e adab 8d3d edd2 2abd a88a 4b3e
00000040: d037 9d3d bdf6 6d3e 6ab0 3b3d 31e3 75bd
00000050: ad72 9f3d 1bb4 33bd c340 e63d c919 643e
00000060: 06fa 213e 49a9 b5bd d640 183e 8c70 6c3d
00000070: 2c31 053e 4ba2 05be 4822 60be 6e81 a8bd
00000080: 18fb 2cbe 30a7 563e c4dd a03d 2766 e43d
00000090: 64b1 c13d e3ae 1d3c 96bb 483e f5f0 18be
000000a0: 0a34 d23c 8fbc 1cbe faff b53d b621 92bd
000000b0: 4735 a23d e237 0abd 1014 513e cd7c 05be
000000c0: b207 03be 0aec 09be 5783 5f3e f792 b63d
000000d0: 6d28 6d3e 98e9 40be ebea 1cbe be88 4bbe
000000e0: 5356 7fbe 242c 453e e315 cd3d 028f 363e
000000f0: 9c5f 34bc 850f cbbd f79b 183e 14a7 13bd
00000100: 1b7e 0a3e b841 18be e49b 613e 86ac 44be
00000110: d15f 21be 05ee 353e 05ab c23d b862 3fbd
-0.06896996 0.0034320955 -0.06416928 0.19931085 -0.153201 -0.07409222 -0.009381025 -0.1011277
0.061672978 -0.22038543 0.21727167 -0.18311323 0.21914081 0.0691751 -0.04170506 0.19877112
0.07676661 0.23238654 0.04582254 -0.06003112 0.077855445 -0.043872934 0.11242821 0.22275461
0.15818033 -0.08870179 0.14868483 0.05772452 0.13007039 -0.13050191 -0.21888077 -0.08227812
-0.1689266 0.20962214 0.078547984 0.111522965 0.09457663 0.009624216 0.19602808 -0.14935668
0.02565958 -0.15306304 0.08886714 -0.07135336 0.07920318 -0.0337447 0.2041781 -0.13035889
-0.12795904 -0.13468948 0.21827446 0.0891475 0.23159952 -0.18839109 -0.15323989 -0.19876382
-0.24935274 0.1925512 0.1001394 0.1782799 -0.011009123 -0.099150695 0.14903246 -0.03604801
0.13524668 -0.1486882 0.22032124 -0.19206437 -0.15759207 0.17766578 0.09505276 -0.046725005

conv12.bias f4 [4]
00000000: 36ea 543d 9249 1f3e 83fc b4bc 89cc c43c
0.051981173 0.15555409 -0.022093063 0.024023311

down1.weight f4 [8, 4, 2, 2]
00000000: baf8 823e 939b 58bd 3959 7ebd c290 4bbe
00000010: 47e5 06be 44dc 8a3d f3d0 adbc 54d6 2fbe
00000020: fb79 4d3c aecb 31be 9cb3 51be f354 0abe
00000030: d84f 4cbe 061b c5bd e017 993e 6123 103e
00000040: d69e 423d b7be 6ebe f5a4 7dbe 19c7 05be
00000050: 77fb 8d3d 3cc0 46be 83ac c7bd 5ebd 0abe
00000060: 995e 253d 7100 8abd 5614 fa3b bc21 1bbe
00000070: c20b c4be e42a 6fbe 488d e9be 1e2c d1be
00000080: 5483 7a3e 51c0 9abc 1138 7c3e a1de da3d
00000090: 0c9a 61be 6e2e 273e ff73 9fbd 13cd d8bd
000000a0: a8ef 56be 854e 81be 5e27 8f3d c671 6bbd
000000b0: f0ee 56bd 6002 b8be e602 4dbb 239b c6be
000000c0: c8ee 0f3c 710d c13d d312 423e 9c23 853e
000000d0: 825f 823e 2963 3ebe 8bdb cf3d a584 aebd
000000e0: 9caa 80bc 581b 40be f092 7d3e 27dc 33be
000000f0: 15d8 963e 83ff 523e 759a 963e 38a5 c73b
00000100: 2ce7 c63e 3237 023e 9ffa 923e 0a3a a2bd
00000110: e0ee 993d ca7d a4bd b625 ebbd cf82 403e
00000120: 95ec 8c3c 98a7 30be 8f2a 19be 8b2e 25bd
00000130: 6970 bb3e cd2d 3b3d 416b ab3e 1705 353e
00000140: 8a72 10be 09fc 043e 50c0 7a3e 340b 46be
00000150: e3e9 223d 8676 d73d 117d 023d 7d02 ddbd
00000160: 1531 d13d 1d5a ca3d 5883 8c3d d7f1 97bd
00000170: 2a6e 1d3e d5a9 5a3e c24d 513e 5e25 233e
00000180: ecf3 9c3d 7f22 3b3e 4650 1dbe e292 eabd
00000190: cc0b 8abc 4144 7cbc 8604 c73c 2b85 803d
000001a0: af37 76be b00c c7bd 2e41 443e b73d c13d
000001b0: ee84 eebd 8d2d 08be dfd1 d5be 4761 98be
000001c0: c68c 8fbd 2d93 f23d 1b3e 233e 9b5f 0e3e
000001d0: 5a4d 5abe d6d6 09be 982e f5bc 1ffc 853e
000001e0: 305d 3b3d 66b5 54bd d114 f03d 4ba8 9abd
000001f0: 0371 aebe a4c0 f83d 2e17 d3be 3e3d 6abe
0.25580388 -0.052882742 -0.062096808 -0.1987944 -0.131734 0.067802936 -0.021217799 -0.17171603
0.012541289 -0.17362854 -0.20478672 -0.13508968 -0.19952333 -0.09624295 0.29901028 0.14075996
0.04751476 -0.2331494 -0.24769957 -0.13064231 0.06932729 -0.19409269 -0.09749701 -0.135488
0.04037342 -0.067383654 0.0076318188 -0.15149587 -0.3829022 -0.23356205 -0.45615602 -0.4085397
0.2446416 -0.018890532 0.24630763 0.10686994 -0.2203142 0.16326305 -0.077857964 -0.1058599
-0.20989859 -0.25255218 0.069899306 -0.05748155 -0.052473962 -0.35939312 -0.0031282245 -0.38790235
0.008784957 0.09426392 0.18952493 0.2600373 0.25463492 -0.18592514 0.101492964 -0.08521394
-0.015706353 -0.18760431 0.24763083 -0.1756445 0.29461733 0.20605282 0.29414716 0.0060926937
0.38848245 0.12716368 0.28706834 -0.07921226 0.07516265 -0.08031805 -0.11481802 0.187999
0.017202655 -0.17251432 -0.14957641 -0.04032759 0.366092 0.045697976 0.33480266 0.17677723
-0.14106193 0.12986769 0.24487424 -0.19340211 0.039773833 0.105206534 0.031857554 -0.1079149
0.1021444 0.09880469 0.06860989 -0.07419174 0.15374056 0.21353848 0.20439819 0.15932223
0.07663712 0.18274878 -0.15362653 -0.11453797 -0.016851328 -0.015397132 0.02429415 0.062754
-0.24044679 -0.09719217 0.19165489 0.09435599 -0.11646448 -0.13298626 -0.4176168 -0.29761717
-0.07009272 0.11844478 0.1594166 0.13903658 -0.2131857 -0.1346086 -0.029929444 0.26168916
0.045743167 -0.051930808 0.117227204 -0.075516306 -0.34070596 0.12146118 -0.41228622 -0.22874925

down1.bias f4 [8]
00000000: a20b 97be f1eb ae3e 8ce3 923d a5bb 9d3d
00000010: 1212 ccbe 4e4d b8bd 65bd a4be 0704 983d
-0.29501063 0.34164384 0.07172307 0.07701806 -0.39857537 -0.0899912 -0.32175747 0.07422643

conv21.weight f4 [8, 8, 3, 3]
00000000: fd50 523d 0577 be3d 5d34 a03d 1c3b 9e3c
00000010: ea90 a7bb 8ac2 9dbd a086 fcbd 5458 e0bd
00000020: 3186 743d 102b 7abd e6bb b4bc a86e 33bd
00000030: 5a30 eebc 78d6 85bd c0f9 36bd e42e bcbb
00000040: 6310 a2bc a5b5 dd3d c5b9 14bd 6b81 b8bd
00000050: 5d22 ea3b b799 78bd 868b 40bd 02c0 cabd
00000060: 6a28 683d b10c b7bd ba7f 813d 5f1e 413d
00000070: c347 bb3d 5550 80bd de81 e73d cbbe abbd
00000080: e2b3 ce3c 627c 843e 5cae f2bc c4dd 39bd
00000090: e58b 02bd 7793 d0bd de88 9d3d 88fb debd
000000a0: da24 1c3c c880 303d cef3 6d3e 12f8 aebd
000000b0: bef7 40be da70 ce3c f918 823d 9c86 0ebe
000000c0: 5d88 3bbc 36b0 9ebd d619 1ebd 746d 44bc
000000d0: b54a 51bd d102 84bd e4c8 6cbd b02a 153e
000000e0: 3091 133e c277 923c 337e 813d 2f6a 393d
000000f0: dd9e 28be 6764 a1bd ad76 f93d 71a0 21bd
00000100: 9ecd 77bd 85e3 463d 57f9 59bd 9f21 58bd
00000110: 8b4b fe3c 0898 8fbd da5d 87bd 6e43 48bd
00000120: 1a6d e7bd eeda 983d 156e 90bd 5e8e ec3c
00000130: 9284 7abd eb5d d9bc 6b3f d83d 8107 843c
00000140: cd64 21be 9d5e f73c f986 b63d cdc8 b13b
00000150: 6c12 a83d 6d06 bb3d 3c93 81bd 4260 a23c
00000160: 741b 02be 52ef b5bd a8a1 883d 1c76 0e3d
00000170: 812f c9bd 0a5c d2bd 0343 cdbd 5e6d 14be
00000180: 8c2e b7bd a646 49bd 71ce 103d 0e99 23bc
00000190: b757 febd 7f5a 01bd 54c6 f93c ee25 08be
000001a0: 7022 413c c659 de3b a0c5 dabd 34a5 d7bc
000001b0: 6bf2 86bc d340 b1bc 184e d5bc e207 00be
000001c0: 3f11 92bd 27e6 a53b a705 f03d fe3b 8fbb
000001d0: b62d 8a3c 358c 2b3d a53b 3c3d cc37 9c3d
000001e0: 4576 bc3d 901c 953d 85c9 cebd a568 38bc
000001f0: 6f2d 993d 7e53 df3c ad34 b6bd 2cf0 cf3d
00000200: 533c 89bd 866c c8bd 73fd 07be 09a6 7cbc
00000210: 197e 263d c17f 763c 3e38 ef3b 5561 20be
00000220: bb95 20be 2eb3 eebc fc44 8c3d e9cc 753d
00000230: c296 9cbd d838 8b3b a5f6 64bd c453 1cbd
00000240: 67f8 c73c 881f 873d 126d bd3d 7493 d6bd
00000250: 44da a03d da58 c1bd 84b9 5a3d fac4 d53d
00000260: 903f 0ebb 71be e23d f5e2 cfbd 137b 6abd
00000270: 7b1a 903d b523 e6bc 27c5 30bd 5be2 24bd
00000280: b677 b03d c38e 493d 6416 353d fb5f 6ebd
00000290: d683 c2bd 95b6 553c 1b6b 263d 0a76 64bd
000002a0: 8a94 20bd 3773 9a3d 40ba 0c3c d97b 753c
000002b0: 3a4d d7bc 8aa2 8cbe 2404 c4bd 117a aabc
000002c0: 9cd7 56be 26b0 a43c 86ad 6d3b 4282 18be
000002d0: 2944 e53d 638b 103d 1a99 d83d c6d6 5cbd
000002e0: dc62 3cbd b2ff 323d c84c 97bd b4ad 9cbd
000002f0: eda8 02bc 0d62 40bd 75cf bbbd bc66 8d3d
00000300: 5d82 be3d 65bf a73c 1256 61bc 6d99 d4bd
00000310: 08c2 1dbd 1312 1e3d 9437 723d 7429 46bc
00000320: e5c7 e3bc 0c2a 773d 8866 b7bd 0a3b ae3d
00000330: 3b83 2cbd 32dc 9ebb 0906 6dbc 84a9 9c3c
00000340: 74cb 16bd 09a2 c03d 443b 88ba eaa9 b73d
00000350: 96a2 e03d 36b3 7ebd 772c babd edfc bb3d
00000360: 5525 e63d df59 b8bd b4f3 12bd d58e b5bd
00000370: 08ea b8bd 2dac d5bb 1d9e 1b3d 4c85 f63c
00000380: 3b3f 85bd 614a 143e 1d8c d33c 88e0 d0bd
00000390: c8c2 843c 9017 883d 6c74 233d 1834 1abe
000003a0: 9413 463d bdac 86bd bc9b 89bd c9ae 43bd
000003b0: 093f fb3d 5b7c 1e3e 1c35 f93d d1e2 543d
000003c0: b42e fb3d 341f 473c 8312 a7bd a77c 813d
000003d0: 3000 84bd fe6d c0bc fb5c 8b3c 5e44 8abc
000003e0: e7ed 253d e11e 343e 8e0f c0bc 07dc 053c
000003f0: 6697 0ebe f0fb cfbd 0dd2 0b3e a8d0 4bbd
0.051346768 0.09300045 0.078224875 0.019315295 -0.0051137106 -0.07703121 -0.12330365 -0.10954347
0.059698287 -0.061076224 -0.022062253 -0.043806702 -0.02907579 -0.06535047 -0.044671774 -0.0057428945
-0.019783204 0.108256616 -0.036309976 -0.090090595 0.0071452097 -0.06069347 -0.04700806 -0.09899904
0.056679167 -0.089379676 0.0632319 0.047148105 0.09144547 -0.06265322 0.11304067 -0.08386
0.02523226 0.25876147 -0.029624157 -0.045377508 -0.031871695 -0.10184377 0.07692121 -0.108878195
0.0095302705 0.043091565 0.23237535 -0.085434094 -0.18844506 0.025200296 0.063524194 -0.13918537
-0.011446086 -0.07748453 -0.038598858 -0.011988986 -0.051096637 -0.0644585 -0.05780877 0.14567065
0.14410853 0.01787937 0.06322899 0.04526728 -0.16466852 -0.07880478 0.12180839 -0.03945965
-0.060498826 0.048556823 -0.053216305 -0.05276644 0.031041881 -0.070114195 -0.06609698 -0.04889243
-0.11300106 0.074636325 -0.070522465 0.02887648 -0.061161585 -0.026534041 0.10558971 0.01611686
-0.15761109 0.030196482 0.08912463 0.0054255486 0.08206639 0.09132085 -0.06326911 0.01982129
-0.12705785 -0.08883537 0.066714585 0.034780607 -0.09823514 -0.10271461 -0.10022547 -0.14494845
-0.08944425 -0.04913964 0.035353128 -0.009985222 -0.12419074 -0.031580444 0.030490078 -0.13295719
0.011787996 0.006785604 -0.10682225 -0.026323892 -0.016473016 -0.021637356 -0.026038215 -0.12503007
-0.07132196 0.0050628367 0.11719828 -0.0043711653 0.0168675 0.04188176 0.04595532 0.0762783
0.092022456 0.072808385 -0.100970306 -0.011255418 0.07479369 0.027261492 -0.08896766 0.10153231
-0.06700959 -0.09786324 -0.13280277 -0.015420445 0.0406476 0.015045107 0.0073004058 -0.15662129
-0.15682118 -0.029138174 0.06849095 0.06000987 -0.07645942 0.0042487197 -0.05589928 -0.038165823
0.02441044 0.06597811 0.09249319 -0.10477343 0.07854131 -0.09440775 0.053399578 0.10437961
-0.0021705367 0.1107148 -0.101507105 -0.05724628 0.07036301 -0.028093198 -0.04315677 -0.040254932
0.08616583 0.049208414 0.044210806 -0.058197003 -0.09497802 0.013044019 0.040629487 -0.055776633
-0.039204158 0.07541507 0.008589327 0.014983141 -0.026281942 -0.27467757 -0.09571102 -0.020810159
-0.20980686 0.020103525 0.0036266758 -0.1489344 0.11194641 0.03528918 0.10576077 -0.05391576
-0.045992717 0.04370088 -0.07387692 -0.07650319 -0.007974845 -0.04696851 -0.09170429 0.06904361
0.093022086 0.020477006 -0.013753431 -0.10380826 -0.03851512 0.038591456 0.059135035 -0.012094844
-0.027805278 0.060342833 -0.08955103 0.085073546 -0.04211734 -0.0048480267 -0.014466771 0.0191238
-0.03681512 0.09405906 -0.0010393639 0.089679554 0.10968511 -0.062182628 -0.09090512 0.09179101
0.11237589 -0.090015166 -0.035876945 -0.08865134 -0.09029013 -0.006520769 0.037992585 0.030092858
-0.06506201 0.14481498 0.025823647 -0.10199076 0.01620616 0.06645119 0.03990595 -0.15058935
0.048358515 -0.06575916 -0.06719157 -0.04777411 0.122678824 0.15477125 0.12168333 0.05197412
0.12264767 0.0121534355 -0.08157828 0.06322604 -0.06445348 -0.023489948 0.01701211 -0.016878303
0.040510084 0.17589904 -0.023444917 0.008170134 -0.13924941 -0.10155475 0.13654347 -0.049759537

conv21.bias f4 [8]
00000000: 5f61 76bd 368d 423e b40e 943d 44a1 6e3d
00000010: 8e23 e03d 4104 81bd 1d15 ef3d 8dde 3cbc
-0.060151454 0.1899918 0.07229367 0.058259264 0.109442815 -0.062996395 0.11673949 -0.01152767

down2.weight f4 [16, 8, 2, 2]
00000000: 27d9 b63d ac01 0b3e a65a b0bd a258 f13d
00000010: 6fb5 093e 648b 393e 1e95 56bd 9445 4abd
00000020: 74b1 abbd 5ee9 8e3d 51ea 8b3d 4306 55bd
00000030: 354e 583d fa01 f4bc aecb fcbd 7eb5 54bd
00000040: 70de b7bd 0ac8 cbbc c668 82bd fae2 163e
00000050: 0090 f4bd b3a5 32bb 7934 0b3d 8a96 c3bd
00000060: 7c7b 313d 4b02 28be fb3b 29be 67b6 23be
00000070: 241a 66bd 7db0 44bd e3e1 f7bc 2f99 2abd
00000080: 4aa6 ba3d 18f3 f53d 9bb7 fa3d 65b7 b8bd
00000090: 716f 53be f03e 0b3d c596 f9bd 09e0 ab3d
000000a0: 4302 963e a269 be3c a3da b53e 73c8 083e
000000b0: b192 9e3c bd6e 7abe 87d0 fc3e f123 90bd
000000c0: c02a fdbd b93e d83d 41c3 a53d 6346 f23c
000000d0: 0ec0 2fbc befd 3abe 6edb 46bd 4def 0f3e
000000e0: d73f 513d 6d16 05bd 3edc c93c 5f31 bfbd
000000f0: fb66 df3d 36c6 2ebd 6c5d 593e 192b 27bd
00000100: 216c 0c3e d81b 933d 92f8 0f3e 7d00 053e
00000110: 4345 aa3b e3d4 583d c167 9e3c 09a9 0fbe
00000120: 5bac f33b 165c 073d bee6 273e 6b2f b1bc
00000130: 5557 fcbd d3ad 52be 3fb9 9a3e dc8e b0bd
00000140: b320 cabd 12fa fabd d05f c5bd f9a9 d7bd
00000150: d171 233e cb2b 8b3d c89c 183e e577 e5bc
00000160: d354 ff3d c643 b33d d561 dabc 76a9 523d
00000170: 55eb 193d 17ac febd ec0d 99bc 4130 1e3e
00000180: 66af 283e e5e3 c63d ffea 2c3e 29a9 a2bd
00000190: f788 b43c f4ec b73d b3e2 3a3d e5a2 d43c
000001a0: b443 1dbe 4279 63bc 6208 c3bd 2dcd 8fbc
000001b0: 5c6d dd3c 7ec5 27be 9e2f 98be 7945 86bd
000001c0: b685 9cbc 60db 023d eb9a 313e 7a66 68bd
000001d0: 4581 d8bd fcbe b6bd 6726 4dbd a2a6 c8bd
000001e0: a24c 81bd e788 b53d 3bea 2f3d 4e06 71bd
000001f0: 8ceb e0bd 4563 73bd 2016 8bbd 0058 88bd
00000200: 13ae 36be fcea 6e3d 8b57 42be 88ef 02be
00000210: 11d0 e7bd fb79 ff3d f0a6 b7bd 7ad0 6bbd
00000220: 1fb4 25be f031 893e ce84 4abe 0eba b6bd
00000230: f750 0abe aff3 25bc 153e e8bd 4809 f43a
00000240: 473b febd d521 573d 6b1f 06be d221 d1bc
00000250: 13dd 31bd 3f5a 433e c9cb 833d a17d 26bb
00000260: ce69 83bb 81d5 31bd 9772 95bb 0944 9d3d
00000270: 20d4 103c 3d37 9abd 77b6 453d 432a 38bd
00000280: d8b4 3fbd 45ab f23d be9a 3b3e 324c 443e
00000290: e6e0 e73d c52b cebb 78c6 1b3e 2f84 5d3e
000002a0: c83b 05be d83b 57be 50e9 63bd 8174 02be
000002b0: 9ac5 e43d ded1 29bd a6a6 273e 6daa 053e
000002c0: 0243 a3bc d5ad 32be fc65 1b3e be9a d2bd
000002d0: e693 53ba 43f7 f33c 40a2 c43b bcb7 1bbe
000002e0: 2583 bb3d 1f4f b5bd 4541 7bbd f483 2b3d
000002f0: a619 89bd 78c5 92bd c7e6 12bc 9e6c 2dbd
00000300: cebe bbbd 6f64 32bd 680d c83c 482c 12be
00000310: ca4b 25bd 7772 783d 0283 d13d caee 1f3e
00000320: a05b 3dbe 07a9 b03d 64ee 323d 24a6 053e
00000330: 7a3d 90be 330c 17be d63a bebe d447 66be
00000340: 8813 073e 1c54 00bc 8229 073e 4523 a4bd
00000350: 05fa 313d d395 bcbd c237 e93d 2afc 78bd
00000360: a67c 8cbd e8c2 19be bb08 f7bc 8577 2e3e
00000370: e700 ce3d 72b9 71bd bcc7 06bc b3e3 853b
00000380: db23 e0bd 24c9 8e3d 5680 5c3e 0f32 a03d
00000390: cdce 1fbe 8365 18be 97a2 dcbb 214d 7f3d
000003a0: 32f0 7b3e c82e 00be 5570 d03e de07 56bd
000003b0: 25df 3fbc 8295 c8bd be86 2b3f 23e1 9f3d
000003c0: 4657 13be d104 2abe d82b 2fbe dd93 48be
000003d0: e281 4abe 2864 933d 25e3 043e d1c5 463e
000003e0: 05f8 90bd 1617 733d ee27 db3d a243 1a3e
000003f0: 02d2 703e 7d48 0e3e 6523 e73e 3245 743e
0.08928137 0.13574857 -0.0861104 0.117844835 0.13448118 0.1811958 -0.052388303 -0.04938276
-0.08383456 0.06978105 0.06831802 -0.052007925 0.05280896 -0.029786099 -0.12343536 -0.051930897
-0.089779735 -0.02487566 -0.0636764 0.14735022 -0.11941528 -0.002725941 0.03398559 -0.095501974
0.043330655 -0.16407125 -0.16526787 -0.1598755 -0.056177273 -0.048019875 -0.030259078 -0.041649994
0.09113748 0.12009257 0.12242051 -0.09019355 -0.2064798 0.03399557 -0.1218696 0.08392341
0.292986 0.023243729 0.3551837 0.13357715 0.019357057 -0.24456306 0.49377844 -0.07038105
-0.123616695 0.105588384 0.08093882 0.029574579 -0.010726942 -0.18260857 -0.04854911 0.1405613
0.051086273 -0.03249209 0.024641152 -0.09335589 0.10908314 -0.042669497 0.21227044 -0.040812586
0.13713123 0.07183045 0.14059666 0.12988468 0.005196245 0.0529374 0.019336583 -0.14029326
0.007436318 0.033046804 0.16396615 -0.021629056 -0.12321345 -0.20574121 0.30219457 -0.08620998
-0.09869518 -0.122547284 -0.096374154 -0.105304666 0.15961386 0.06795462 0.14903557 -0.028011272
0.12467351 0.08753161 -0.026657978 0.05143114 0.037577946 -0.12435167 -0.018683396 0.15448095
0.16473159 0.09711436 0.16886519 -0.07942421 0.022037966 0.08980742 0.045626353 0.02595658
-0.15357858 -0.013883891 -0.09523083 -0.01755389 0.027029686 -0.16383931 -0.2972383 -0.065562196
-0.019106727 0.031947494 0.17344253 -0.056738354 -0.10571531 -0.08923146 -0.05008545 -0.09797408
-0.06313445 0.08864003 0.04294799 -0.058843903 -0.10982427 -0.059420843 -0.067913294 -0.0665741
-0.17839842 0.058329567 -0.18978707 -0.12786686 -0.113189824 0.12474438 -0.08967388 -0.057571866
-0.16181992 0.26795912 -0.19777223 -0.08922206 -0.13507448 -0.0101288995 -0.11339966 0.0018618489
-0.1241365 0.0525225 -0.13097923 -0.025528822 -0.043423723 0.19077395 0.06435353 -0.002540447
-0.0040104156 -0.043416504 -0.0045607793 0.07678992 0.008839637 -0.07530067 0.048269715 -0.04496218
-0.046803325 0.11849073 0.18320748 0.19169691 0.11322193 -0.006291839 0.15212429 0.21632455
-0.13011086 -0.21018922 -0.055642426 -0.12739755 0.11170502 -0.04145991 0.16372165 0.13053294
-0.019929413 -0.17449124 0.15175623 -0.10283421 -0.000807105 0.02978099 0.006000787 -0.15206808
0.09155873 -0.08852982 -0.061341543 0.041873887 -0.06694345 -0.071665704 -0.008966154 -0.042339914
-0.091672525 -0.043552812 0.024420455 -0.14274704 -0.04035548 0.060656037 0.10230066 0.15618435
-0.18491983 0.086259894 0.04368438 0.13051659 -0.28171903 -0.14750747 -0.37154263 -0.22488338
0.13191044 -0.007832553 0.13199428 -0.0801454 0.043451328 -0.09208264 0.11387588 -0.060787357
-0.06859712 -0.15015757 -0.03015553 0.1703778 0.10058766 -0.059014745 -0.008226331 0.0040859818
-0.10944339 0.06971958 0.21533331 0.07822048 -0.15606232 -0.14882474 -0.0067332494 0.062329415
0.24603346 -0.12517846 0.40710703 -0.052253596 -0.011710917 -0.09794141 0.67002475 0.07806613
-0.14388761 -0.166034 -0.17106569 -0.19587655 -0.19776109 0.07196838 0.12977274 0.19411398
-0.07078556 0.05934819 0.10700975 0.15064862 0.23517612 0.1389484 0.4514419 0.23854521

down2.bias f4 [16]
00000000: b924 bdbd b8d6 02be 7e79 03bf 94fe 38bb
00000010: 171c a73e 51ed 633e 3b44 79be 276d b3be
00000020: 0b2c 4f3b 2d9e 72be cc68 8a3e 3a3c 403e
00000030: 38be 743d 2c4d edbe 3450 0ebe cced ff3e
-0.0923552 -0.12777221 -0.5135726 -0.0028227912 0.32638618 0.22258498 -0.24342434 -0.35044214
0.0031611945 -0.23693152 0.2703308 0.18772975 0.05975172 -0.4634794 -0.13897783 0.49986112

conv31.weight f4 [16, 16, 3, 3]
00000000: 42e0 103d c8a3 e0bc 831f 1abd 6562 4d3d
00000010: fbac 98bd a021 f3bc f20e 9c3c 57bf 37bd
00000020: c7ff 743c 8292 77bc 93af 183d 587b b43c
00000030: 5f31 98bd e14e 7f3d 19d5 963d 4b06 cabc
00000040: c4fb 67bd 17c7 3e3d f1c7 cabd 8635 803c
00000050: 6b82 303d d0fe dabd 452d 42bd da4a 06bd
00000060: b69a 0f3d e860 963d 8ee6 9e3c 1e5c f83d
00000070: 046c 9cbb 78e7 85bd 3362 853d 7ce1 cd3c
00000080: 6bc4 7d3d 54a5 9f3c 0420 743d e97f 403d
00000090: bfa5 c33d 92c8 93bd 32ee 7c3d b8e9 41bd
000000a0: 2409 973d 4cf7 f6bc 7a51 4bbd 6e0f c33c
000000b0: 2b5e 8bbc 8dab c4bd 2235 dabc b429 d43c
000000c0: ce67 4f3d d13f 35bc fc2b a13d f0fc 59bc
000000d0: eff2 4b3c 9055 653c 5221 b6bc ba2d c3bd
000000e0: d7f7 53bd 7623 2cbd a59f 6cbd 6fa0 8bbd
000000f0: 5838 2ebd 294e 09bd 97c3 22bd 9a60 67bd
00000100: 35f7 61bd 0da5 8c3c e137 a1bd 73d6 6d3d
00000110: 344c 9d3d 4a14 c9bd a09b 2bbd dcfe 473c
00000120: 7d48 c3bd ce72 e43c 72f0 ae3c 752f 3abc
00000130: 1e02 ae3d 002a 103e cacc 47bd 8d02 5dbd
00000140: 7fa4 853d 4996 a4bd d068 d6bb b28d 0a3c
00000150: 0010 e7bd ecdc 2d3c ae1d 233e 2d02 4fbd
00000160: d158 2f3c c175 da3d 521d 9bbd 7404 3d3d
00000170: 7262 193d ef49 583d 1a5c 2ebd 3361 053c
00000180: 0137 85bd bc9f 9a3c c2db cd3b e907 a3bc
00000190: 6094 bfbd 4945 9abd 74fb 203e b2e9 b6ba
000001a0: 64fc 2cbe bea2 bd3d b24a 403d e7f1 dabd
000001b0: d7e8 d0bc 9df1 773d 9868 893c ee58 13be
000001c0: 37d8 8b3c 650d 973d a959 8abc 3dbc a7bd
000001d0: 6478 b5bd 1873 e1ba f8c6 4f3a f1e6 1abb
000001e0: e123 14be 13bc 03bd 4958 243e a741 06be
000001f0: 0e20 1ebc 4125 d33d 02c9 babc 78de c73c
00000200: da58 a43b 5f5d 8dbb 297e 74bd e4ae c33d
00000210: c661 88bd 312c c93c 508e b33c 6ccf b3bb
00000220: b605 aa3a 8232 fb3c 4c43 8f3d 5cd1 69bd
00000230: 6d14 bbbd fe92 e73d e5e2 d23d dc3b 5f3c
00000240: d57c 993b f7ee d93d 21d2 9dbc 5715 1ebc
00000250: 805d 0ebc 3db9 89bd cdab 5abc 5e4c 8cbd
00000260: c443 ccbd ae82 943c 4169 8e3d 68de 933d
00000270: ae91 cf3c b43f 17bc 0cf8 533d d89b c1bd
00000280: 1992 7e3c ba39 22bd f1b2 a83d 3c48 123c
00000290: 936b d43b d64f 123c 400a 49bd 4114 bf3d
000002a0: 61e7 f8bc 4310 5e3d cf50 903d 124d a33d
000002b0: 08df 983d 810a f93c 59b9 f03d 9039 66bc
000002c0: eb82 0fbb a16c 7a3d 4f4f 8d3c 57ed 693b
000002d0: ea0c 1bbc 6b97 72bd 6cfa f4bc 7c03 a03c
000002e0: 1e41 c439 d670 8ebd 6784 7b3d 6d07 da3c
000002f0: 3f3c d8bd 0586 7cbb 9348 35bc bb76 5dbd
00000300: ca94 08bc 904e 2abd 0436 47bc 8171 14bd
00000310: 5de8 85bc 5c29 df3d 5262 cd3b 85ff 973c
00000320: e775 2d3c e07f be3d d392 bcbc aa7a c1bd
00000330: 6102 0e3d eec3 b1bd 04e6 13be 8694 263c
00000340: f85a 273c 3445 26bc fa0e c8bb 6272 433d
00000350: 4988 1c3d 3384 2dbe 05cf 74bc 4537 a03d
00000360: 3e77 d73c f645 b63c 3961 4d3d 1576 aebd
00000370: 9df5 ce3c 38ac 243d 95d3 e5bd bac5 a93d
00000380: db65 f23d 2670 303d eae7 75bc 48bf 1abd
00000390: f631 d8bd e83c 97bd 0b10 1c3d 12de 69be
000003a0: 79d9 afbd f1c4 bc3d 16b9 ce3d 2a30 4abd
000003b0: 0949 31bd bfc0 b33d 8458 fbbc acd1 40bd
000003c0: ba4e 92bc 6289 b43d 0910 3b3d 8a0f 8abd
000003d0: 80dc 513d 2eea 503e f74e 853d 837b 403d
000003e0: c8d8 5d3c 1ea7 853e 24b5 fa3d f7e6 eebd
000003f0: b2c0 d6bc f32c 55bd a98e abbd 4ddb 3f3c
0.03537012 -0.027421847 -0.03762771 0.050142664 -0.074548684 -0.02967912 0.019050095 -0.04486021
0.01495356 -0.015110614 0.037276816 0.022031471 -0.07431292 0.062331084 0.07364864 -0.024661204
-0.056636587 0.046576586 -0.09901417 0.015650522 0.043093126 -0.10693133 -0.047406454 -0.032786228
0.035059653 0.07342702 0.019397046 0.12126945 -0.0047736187 -0.0653829 0.06512871 0.025131933
0.061954897 0.019488014 0.059600845 0.046996985 0.09553098 -0.0721599 0.0617506 -0.047342032
0.0737479 -0.030147217 -0.04963825 0.023811068 -0.017012676 -0.09603033 -0.026636664 0.025898792
0.050636105 -0.011062578 0.078697175 -0.013304934 0.012448057 0.0139974505 -0.022232685 -0.09530206
-0.05175003 -0.042026006 -0.057769436 -0.0681771 -0.042534202 -0.033521805 -0.03973731 -0.05648861
-0.055167396 0.017168546 -0.07871986 0.058065843 0.0768055 -0.09818323 -0.041896462 0.012206759
-0.095353104 0.027886774 0.021354888 -0.011363854 0.084964976 0.14078522 -0.048779286 -0.05395751
0.06525516 -0.08036477 -0.0065432563 0.008456634 -0.11282349 0.010611754 0.1592929 -0.050539184
0.010702328 0.10666991 -0.07573952 0.046146825 0.0374474 0.052804884 -0.042568304 0.00814085
-0.06504632 0.018874995 0.0062823007 -0.019901233 -0.09354472 -0.07532746 0.15720922 -0.0013955145
-0.16893154 0.09259556 0.046946235 -0.106906705 -0.025501652 0.060533155 0.016773507 -0.14389393
0.017070873 0.07375602 -0.016888456 -0.081902005 -0.08860853 -0.0017200438 0.0007926072 -0.0023636187
-0.14466812 -0.032161783 0.16049303 -0.13110982 -0.009651197 0.1030984 -0.022800926 0.024398074
0.0050154747 -0.004314109 -0.05969063 0.09554842 -0.06659274 0.024557205 0.021918446 -0.005487373
0.0012971673 0.030663732 0.06995258 -0.057084426 -0.09134755 0.113073334 0.10297183 0.013625111
0.0046840706 0.10641282 -0.019265236 -0.0096486425 -0.008689284 -0.067247845 -0.013346625 -0.068505034
-0.09973863 0.01812872 0.06953669 0.07220155 0.02533802 -0.009231497 0.051750228 -0.09453553
0.015537762 -0.039605834 0.08237255 0.008928355 0.0064825504 0.008930167 -0.04908204 0.09330035
-0.030383768 0.054214727 0.07046663 0.07973684 0.07464415 0.030400516 0.11754102 -0.01405181
-0.0021898102 0.061138753 0.017249731 0.0035694444 -0.009463528 -0.059226435 -0.029904567 0.019532911
0.0003743255 -0.069551155 0.061405566 0.026614869 -0.10558366 -0.003853203 -0.011064666 -0.05406831
-0.008336255 -0.04157883 -0.012158874 -0.03624106 -0.016346151 0.108965605 0.006267824 0.018554458
0.010587192 0.09301734 -0.02301923 -0.094472244 0.034670237 -0.08679949 -0.14443213 0.010167247
0.01021456 -0.010148335 -0.006105301 0.047716506 0.03821591 -0.16944961 -0.014941935 0.07823042
0.026301976 0.022250157 0.050141547 -0.08518616 0.025263602 0.040203303 -0.11221997 0.082896665
0.11835834 0.043075703 -0.015008906 -0.037780076 -0.10556404 -0.07384664 0.038101237 -0.2283862
-0.085864015 0.09217251 0.10093896 -0.04936234 -0.043282542 0.08776998 -0.030681856 -0.04707496
-0.017859805 0.08815266 0.04566959 -0.06741245 0.051235676 0.20401832 0.06509202 0.04699279
0.013540454 0.26104063 0.12241581 -0.11665147 -0.026214931 -0.05204482 -0.0837682 0.01171

conv31.bias f4 [16]
00000000: 13a5 693d 6358 883e 8bdc adbd 216c 0c3e
00000010: 7b94 bb3d 1e51 fa3d 5d1d 723e e8a2 903e
00000020: d00e 1e3e b669 ef3d a475 353e d2b0 2c3e
00000030: 0add 713c 3e12 d0bd f22b 353e 0a6e c03c
0.057042193 0.26629934 -0.08489331 0.13713123 0.0915918 0.12222503 0.23644014 0.28249288
0.15435338 0.11690085 0.17720658 0.16864327 0.0147621725 -0.101597294 0.17692545 0.02348997

up2.weight f4 [16, 8, 2, 2]
00000000: e46a 65be 938b cabc 088f 47bd 7350 06be
00000010: f905 143e 24a7 153e 72b0 1cbe 79fe 13be
00000020: 889d 203e fbfd 9bbd 74d1 833d f0b2 77bc
00000030: 4946 c0bb 81a9 ffbd 4712 97bc 57de b8bd
00000040: de1f 21be 3815 09be ba71 01bd 25e0 8b3d
00000050: d3eb 4dbd c17a 9fbc f1b7 023e b405 003e
00000060: 9294 a33c b439 09be a6a8 8a3d cee0 823d
00000070: 78c9 c8bd 774a 0bbe f68a 2d3d fa1d 303e
00000080: e518 a8be 2837 69be ce25 97be e7f3 9dbe
00000090: dcf7 13b9 9b37 763e 37d0 693e 5d45 50bd
000000a0: 519a a53d 0c2d f4bd a3f4 223e 1754 89bd
000000b0: 3732 c3bd 572d 0bbd 1e4e 48bb c646 f73d
000000c0: 3704 47be 328d 42bd de75 30bd b300 c2bd
000000d0: e118 c4bd e4f0 00bd b45a b8bd cafd 373d
000000e0: eadd 2c3e 7e54 8fbd 0961 823e a066 163e
000000f0: 8850 243d cd6e 383e 9790 983d 3be3 063e
00000100: 6eea 20be 790d ed3d 5847 063e 3d6f 3abe
00000110: 7af2 48be 5586 7abd 219a 21be f728 ba3c
00000120: a396 9f3d 23c0 a93b 27de e63d b872 023d
00000130: a8b9 83bd 5766 40be 3369 713d 5d85 44be
00000140: a9cd 40bd e11d 28bd 723a 46be 17a5 f0bc
00000150: 95b9 fa3c 4ede bb3d 0ba7 ec3d c00a 20be
00000160: a1b4 12be cfe6 89bd 0122 20be 431e 533d
00000170: 52d6 09be 8d98 f5bd beee b33c 27b9 c63d
00000180: ea41 fcbd 7a27 71be 580e 52bc a047 2eb7
00000190: ed88 653e 1389 033e 4126 6d3e 1368 8fbd
000001a0: 43ea 823e 0521 943c ef03 5bbc 48c2 5f3e
000001b0: 5369 8cbd 50b7 0bbd 27db 38be fd06 943d
000001c0: 2e06 353d 9c9c 5cbe 1bbb c33d b5e7 87be
000001d0: dbfa 14be d722 debd a936 e33c 3239 e4bd
000001e0: 9b2a 6b3e 54d4 673d e44f 573d 46e1 e43d
000001f0: 06a5 ffbd ec63 81bd 9831 c93d 1f4f 943d
00000200: 6b2e 563e 4382 6cbd b845 82bd 4409 8ebd
00000210: d0d9 733c 02d2 9bbe 0aef 8cbd 3fd4 d33b
00000220: 612e 0cbe 22eb c7be f5ac 7fbe 0af7 d2be
00000230: 7147 bc3e f964 4e3e 725e 903d b074 fb3d
00000240: 827f 9e3c 5878 af3d 3db7 203d fc84 f33d
00000250: 4d97 80bb 1a5f 1c3d 82e3 bebc 6dc7 f73d
00000260: 642d 10be 32a3 8cbe 5c41 86be ab2c 3ebe
00000270: 45d4 8ebe f6fe 88be 06d1 29be 817c 44be
00000280: 571d 66be 21eb 8e3d 278b 2aba a086 4ebd
00000290: 6f8a 0d3e 159b 5a3e 484c fc3d 283a 4b3e
000002a0: 935c 853e 9e76 713e 6b4e 843e b57b 493d
000002b0: 2327 2bbe e298 dcbd 0e39 a1bd ec5c c2bd
000002c0: 733b 23be 8a60 06be 676e 2e3e a807 f7bd
000002d0: 552d c6bd fc73 c1bd ef0e 7bbe a7e5 d1bd
000002e0: a540 d73d 87d4 d63d 17e8 8e3e 2aa8 a33e
000002f0: 6d96 f23d 4819 773e 175e 85bc 20fb 443e
00000300: d049 9fbd b2de 50be 2caf a53d f0f1 8838
00000310: 9b02 4b3d 0145 6a3e bd8c cf3d 9947 673e
00000320: eae4 af3d 7536 d83d 8414 bd3d 2da4 df3d
00000330: 4ed1 49be 9714 47be 19f5 7abe cbd0 5dbe
00000340: 897c 81be 4886 adbd 5edf 0fbe 91b8 14be
00000350: 80f0 bdbd 332a e23b 8afa dc3b f491 70be
00000360: 3f10 923e 819b 81bc 269f 183e 76a5 8b3e
00000370: fb92 5c3e ece0 bb3d 37d8 53bd 8910 343e
00000380: cb7f 273e c4ea 9fbd 1503 20be 49a4 57be
00000390: 5844 b43d 61fa ae3d 5d52 ee3d 9a71 94bd
000003a0: 3eb8 d5be 4aee e4be a257 91be f89a 6ebe
000003b0: b499 ea3e e033 903e 6793 863e 0efb 223e
000003c0: 7727 43be be90 17bd 1a2a 24be 0742 35bd
000003d0: f7ad a93d fb76 0f3e d622 b73d f88a 3c3d
000003e0: 74ac 66be 341c a9be 45ac a0bc eb35 98be
000003f0: 5052 edbd 7cc5 ebbe a0ff 89be ffa3 5fbe
-0.22404057 -0.024724757 -0.04872039 -0.13116626 0.14455403 0.1461454 -0.15301684 -0.14452542
0.15685093 -0.07616802 0.064364344 -0.015118346 -0.0058677536 -0.12483502 -0.018441333 -0.09026783
-0.15734813 -0.13387 -0.0316026 0.068298616 -0.050273728 -0.019467713 0.1276548 0.12502176
0.019968305 -0.13400918 0.067704484 0.06390534 -0.09804052 -0.13602625 0.04236885 0.17198935
-0.32831493 -0.22774947 -0.2952103 -0.30850145 -0.00014111347 0.2404465 0.22833334 -0.0508474
0.08086074 -0.119226545 0.15913634 -0.06705492 -0.09531062 -0.033978786 -0.003056414 0.12074046
-0.19435202 -0.047497936 -0.043081157 -0.094727896 -0.09575058 -0.03147973 -0.09001675 0.044919766
0.16881528 -0.069985375 0.25464657 0.14687586 0.040115863 0.18011017 0.07449453 0.13172619
-0.15714428 0.11574835 0.13113153 -0.18206497 -0.19623747 -0.061163265 -0.15781452 0.022724612
0.077924035 0.005180375 0.11272841 0.031847686 -0.064318955 -0.1878904 0.058938216 -0.19191499
-0.047071133 -0.04104412 -0.19358233 -0.029375596 0.03060607 0.09173261 0.115552984 -0.15629101
-0.14326717 -0.06733476 -0.15637971 0.05154253 -0.13460663 -0.119919874 0.021964427 0.09703284
-0.123172596 -0.23550215 -0.012820803 -1.0387885e-05 0.22415514 0.12845258 0.23159124 -0.070022725
0.25569353 0.018082151 -0.013367637 0.21851456 -0.068560265 -0.034110367 -0.1805235 0.072278954
0.044195347 -0.21544117 0.09557172 -0.26543966 -0.14548819 -0.10846489 0.027736025 -0.11143722
0.22965471 0.056598976 0.052566424 0.1117578 -0.124826476 -0.06317887 0.098239124 0.07241654
0.20916145 -0.057741415 -0.06360954 -0.06935361 0.0148834735 -0.3043366 -0.068815306 0.0064645107
-0.13689567 -0.3904658 -0.24968322 -0.412041 0.36773255 0.20155706 0.07049264 0.12278116
0.01934791 0.085678756 0.03923725 0.11890599 -0.0039242865 0.038176633 -0.023301844 0.12098584
-0.14079815 -0.27468258 -0.2622174 -0.18571727 -0.27896324 -0.2675702 -0.16583642 -0.1918812
-0.2247213 0.06978441 -0.00065057207 -0.050421357 0.1382234 0.21348222 0.12319237 0.19846404
0.2604719 0.23580405 0.25841078 0.04919024 -0.16714148 -0.107713476 -0.078722104 -0.0949038
-0.15940647 -0.13122764 0.17034303 -0.12062007 -0.09676615 -0.094459504 -0.24517415 -0.10248881
0.10510377 0.10489755 0.27911445 0.31964236 0.11845098 0.24130738 -0.016280217 0.19236422
-0.077777505 -0.20397452 0.08090052 6.53005e-05 0.04956303 0.22877885 0.101342656 0.22585906
0.08588584 0.10557262 0.09232429 0.10919986 -0.1970875 -0.19441448 -0.2450756 -0.2166168
-0.25290325 -0.08472878 -0.14050052 -0.14523531 -0.09274387 0.006902003 0.006743734 -0.23493177
0.2852802 -0.01582122 0.1490446 0.27274674 0.21540444 0.0917376 -0.05171987 0.17584433
0.16357343 -0.0780845 -0.15626176 -0.21058764 0.08802098 0.0854385 0.11636803 -0.0724823
-0.41742128 -0.4471305 -0.2838717 -0.23301303 0.4582039 0.28164577 0.26284334 0.15916082
-0.19058023 -0.03700327 -0.16031685 -0.04425242 0.08285134 0.14010231 0.08942191 0.04603097
-0.22526723 -0.3302933 -0.019613395 -0.29728636 -0.115879655 -0.46049106 -0.2695284 -0.21839903

up2.bias f4 [8]
00000000: 9afc 83be 8505 643e 0a0b d03d 960b 193e
00000010: 406e d3be 9e8c 5dbd dbcf 863e 9c04 9bbc
-0.25778657 0.2226773 0.101583555 0.14945826 -0.41295052 -0.05408918 0.26330456 -0.018923096

conv22.weight f4 [8, 8, 3, 3]
00000000: 41a8 b0bd 8e3d 4c3d ce55 5f3d a42b e1bd
00000010: d4fe 1ebc ba65 63bd 3363 893d 5c6e 583d
00000020: e04b df3c 9397 8f3d bfe4 713b 3d6a 193e
00000030: 986a 9bbd e4ed bb3c bd92 243b c6ef 65bd
00000040: 2aeb 27bd 29a9 8a3d 20f9 4b3d a74e dfbc
00000050: 9d78 af3d 5e07 f83d 6057 9dbc c6d1 223e
00000060: 781d cd3c 9465 933d ac36 86bc 2227 bfbd
00000070: e319 c33c 3708 783d 2ec8 9c3d a871 aa3d
00000080: 2291 db3d 5dac 1ebe 7511 d53d 3f99 b83d
00000090: 38f3 2fbe d288 d9bd 87b4 523d 704c c7bd
000000a0: 2289 9dbd aad7 90bd a0dd 02bd 18fa 18bb
000000b0: 49cd ad3c 6db3 11be 4bae 783d 6f49 01be
000000c0: ae28 983c 9a78 2fbd f6ab 06bd 84f7 ce3c
000000d0: bdea 58bd a36c 38bd f109 bf3d 9913 dabd
000000e0: 0f85 e93c f440 03bc 5a45 55bd ca1b 573d
000000f0: a373 003d 8e05 01be 8184 933d 0c0b dabc
00000100: d6e8 fe3d 77f7 07bd 299e 1a3e f209 7e3d
00000110: 3ade 583c 9b3c ad3d e9a4 093c a6b9 1dbd
00000120: 6f5d 5a3e ae55 3d3c 28d7 45be 9a57 883d
00000130: 0ef1 f8bd 663f 79be 5c25 88be cdab febd
00000140: e6c5 53be 9ca9 0d3e 41f0 b3bd afda f9ba
00000150: d525 f4bb 1a49 903d 8039 d43d 51e5 883e
00000160: 9476 843d f231 48bd 753e 4a3d 50de 55bc
00000170: 09f8 ea3d 0b30 5e3d f85e db3d 9ca0 cb3d
00000180: 1aaf 863e 2471 54bd e1f3 973c 7f08 503c
00000190: b33f ec3d 4845 513d 1673 abbc 4138 113e
000001a0: 0a34 953d 3dba 8dbd 8384 86bc d99e 063e
000001b0: d4a3 013d 5f70 bdbd 367b 07be cfaf 90bd
000001c0: ff8b 14bd d6d3 b6bd 59fe 93be 4656 e9bd
000001d0: 3235 fb3a 360f 51bd 47d4 cabd c293 03be
000001e0: 3cb6 02be 98b7 8b3c cf59 04be 1c94 42be
000001f0: 8553 16bc 002f 07be 8dae 1a3d 64c0 8a3a
00000200: ec2a 59bd 86df d43d ee93 fabd b339 8bbd
00000210: 0b01 b13c 8010 b63d c9c6 1f3c 73b8 323b
00000220: 82d9 923d aacb 16bc a391 263e f05e a23d
00000230: 9021 a1bd d845 543e b035 a0bb 7248 1ebc
00000240: 5ebe f73d 076d 3c3e 8167 ffbc 4dfb 1cbe
00000250: 96f0 ae3d 8f61 953e 209f 7fbe 6321 20be
00000260: 096f fcbb fd38 16be 6645 05be 31b6 883d
00000270: 00dd 0a3d 58ca 553d 2b1a a63d b27c 023e
00000280: dc24 0d3e 0839 df3d 0927 61be 4c2a be3c
00000290: f8cb 3b3d 8ad1 703d 8a79 06be 705f c4bb
000002a0: 3978 e63d 6090 e63c 32b0 93bd 9aa2 5d3d
000002b0: de0f c33d 8d4b 29bd 8a44 703d 09bf 173e
000002c0: 08a4 593e f1f8 2abe 37e5 863d 979d 923e
000002d0: ac34 453d f6a0 3cbc 60de 2fbe 76cb 7ebd
000002e0: ef54 d6bd cce6 673d 8e51 d7be 9370 5dbe
000002f0: c9d3 fbbd aa10 ac3d 544e b4bd 88ea 60bd
00000300: 553b fe3d 8de9 86bd 6340 d2bc 4061 45be
00000310: e63f 513d 13d0 dc3d cfbc 24be f227 423d
00000320: abb5 0c3e f47b 0ebe 6c7a b4bd 293b 14bd
00000330: 6b2e 423c 3689 153d fd5c 94bd ce82 32be
00000340: 24f8 443d 3ccd 773d 21e7 63bd 0039 4c3d
00000350: fd7b 2b3e 7509 263e fa88 a43c 4d32 a23d
00000360: 4ba1 21be 920b 86bd 4436 763d 1214 35bc
00000370: 8d24 a7bd a843 6e3d b69b b13d e386 0c3e
00000380: fa93 35bd f1bd fd3c 9fe2 30bd 4409 1b3e
00000390: 667f a7bc 4771 893b 7cc1 5d3e fa65 22be
000003a0: 8a0d 16bc 20bb 20bd 65af 24be 955c 1d3e
000003b0: 96e3 2a3e addd 2dbe 2171 953c 6d26 993e
000003c0: bbe8 4a3c a568 fcbb 0ca4 823e 3c5f d6bd
000003d0: 2e66 1fbe da1e 89be cb88 30be ac17 85bd
000003e0: 98d3 0fbe 4e7f 00be 3a01 64be 2dd0 f1bc
000003f0: 0331 13be a0cf 363d 4748 5d3e 1fac 98bc
-0.08625842 0.04986339 0.05452519 -0.10994652 -0.00970431 -0.055516936 0.06708374 0.052839622
0.02725786 0.07011332 0.0036910025 0.14981933 -0.075886905 0.022940584 0.0025111877 -0.05613687
-0.040995754 0.06770546 0.04979813 -0.027259184 0.08567927 0.1211078 -0.019206703 0.15900335
0.025038466 0.07197109 -0.016383491 -0.09333636 0.023816055 0.06055471 0.07655369 0.083224595
0.10721041 -0.15495439 0.1040372 0.090136044 -0.17182624 -0.106217995 0.051441696 -0.09731376
-0.07692172 -0.07072385 -0.03194964 -0.0023342427 0.021216052 -0.14228602 0.060713094 -0.12625669
0.018574085 -0.042839624 -0.03287884 0.025264509 -0.05295824 -0.04502548 0.09328068 -0.10648269
0.02850583 -0.0080110915 -0.052068092 0.052516736 0.03136028 -0.12599775 0.072030075 -0.026616596
0.12446754 -0.033194985 0.15099396 0.062021203 0.013236577 0.08458825 0.008401134 -0.038507126
0.21324705 0.011556072 -0.19320357 0.06657334 -0.121553525 -0.24340591 -0.26591003 -0.12435112
-0.20680961 0.13834232 -0.08786059 -0.0019062365 -0.007450799 0.07045193 0.1036253 0.26737455
0.064679295 -0.048875757 0.04937597 -0.013053492 0.1147309 0.054245036 0.10711473 0.09942743
0.26305467 -0.05186571 0.018548908 0.012697338 0.11535587 0.051091462 -0.0209289 0.14181615
0.07285316 -0.06920288 -0.016420608 0.13146533 0.03165038 -0.09249949 -0.13230595 -0.07064783
-0.036266323 -0.08927123 -0.2890499 -0.113934085 0.0019165634 -0.051039897 -0.0990377 -0.12849334
-0.1276483 0.017055318 -0.12924884 -0.19001812 -0.009175186 -0.13201523 0.03776412 0.0010585901
-0.05301945 0.10394196 -0.122352466 -0.06798115 0.021606943 0.08889866 0.009751984 0.0027270585
0.071703926 -0.009203831 0.16266493 0.07928264 -0.0786773 0.20729768 -0.0048892125 -0.009660827
0.120968565 0.18400966 -0.031177284 -0.15330239 0.08541982 0.29175994 -0.24963045 -0.15637736
-0.007703666 -0.14670177 -0.13014755 0.06675375 0.03390217 0.052194923 0.0811046 0.1274288
0.13783592 0.1089955 -0.21987547 0.023213528 0.045848817 0.058793582 -0.13132301 -0.0059928223
0.112533994 0.028145015 -0.07211341 0.054110147 0.09524511 -0.041331816 0.058659114 0.14818968
0.21253979 -0.16696526 0.06586688 0.28635857 0.048145935 -0.011512985 -0.17174673 -0.062205754
-0.104654185 0.05661659 -0.4205441 -0.21624975 -0.12296254 0.08401616 -0.088040024 -0.054911166
0.124136604 -0.06587515 -0.025665468 -0.19275379 0.05108633 0.107818745 -0.1608765 0.047401376
0.13741176 -0.13914472 -0.088124126 -0.036189232 0.011851887 0.036507808 -0.072442986 -0.1743271
0.048088208 0.06049846 -0.055640344 0.049859047 0.16746517 0.16214545 0.020084847 0.0791975
-0.15784185 -0.065451756 0.060110345 -0.011052148 -0.081612684 0.05816999 0.08672278 0.1372333
-0.044330575 0.03097436 -0.043184873 0.15140253 -0.02044649 0.004194412 0.2165584 -0.15859213
-0.009158501 -0.039240956 -0.16082533 0.15367348 0.1668838 -0.16979094 0.01824242 0.2991213
0.012384589 -0.0077029043 0.25515783 -0.10467383 -0.15566322 -0.2678135 -0.17239682 -0.06498656
-0.1404556 -0.12548563 -0.22266093 -0.029518211 -0.14374165 0.0446316 0.21609603 -0.018636761

conv22.bias f4 [8]
00000000: fa92 df3d 511a fc3e e7e4 663e fbd3 f6be
00000010: 5e6e 323e 313f 293d 13fc 033c 7876 36be
0.109167054 0.49238828 0.22548257 -0.48208603 0.17424914 0.04132003 0.008055705 -0.1781863

up1.weight f4 [8, 4, 2, 2]
00000000: b5a5 bc3d 2d16 233e 01ee 96be 6292 b0bd
00000010: 14cd 4cbe 937c 093e e5a9 4c3e 1bec 63be
00000020: ef12 933d 262a c53d 91b9 c5bd 89e1 963d
00000030: 810d 303e 12af 8c3e 7ccb 1c3e c48e aebd
00000040: feab 96bd 6b88 e03d ddff bdbc 413f 8c3d
00000050: 8192 923e c6d1 a1be 4003 b33d f8c1 f5bd
00000060: 10a8 003e e1f6 643e 2e36 013e 238d 66bd
00000070: 27ef 86be c38b d3bc b14e babe d436 373e
00000080: 5e21 e93a f710 aa3e 93ed d6bc e8da 5b3e
00000090: 8f7d be3e 2899 29be 4545 f23d 0fe5 4a3e
000000a0: 4ec5 a23c b002 873e c717 13be a48d a93e
000000b0: 65ee d23d b076 a73e cf33 563e 7875 b03e
000000c0: fdec bf3d 4f57 56be cf70 a9bd 424e 543e
000000d0: e460 a7be a019 6f3e 869e 893e 29fc c13e
000000e0: 470c 9bbd 6453 823e 5eef 92be f515 d2bd
000000f0: 0ef4 8f3c 07a8 a6bd 1849 8d3e 0be6 ac3d
00000100: b01b 5d3d d4ba 2f3d 8b68 973e ffa8 f43d
00000110: fe93 a13e 0e9e 7f3e 53a8 1c3d 8f96 12be
00000120: c20c 9d3e c72c 95bd 22ff b03e 6dd9 f6bd
00000130: 73c7 eb3d 8aff 863e becf 2b3d 735a a33e
00000140: a851 54be 943f 1fbd 67d6 77bc e90a 4c3e
00000150: c62d 013e 295b 403e 1583 ed3d ce87 7e3e
00000160: f5d7 77bd 9df1 8dbd d617 3abc 9937 ef3d
00000170: e93c 41bd e175 c23d 9170 6e3d aa73 ea3d
00000180: 0f5b 8a3e ca97 e03d 54ec 8a3e e362 5abc
00000190: b724 e0bd fcfc 373e ea1c 323e f7fc 883e
000001a0: 2a7b 133e 408e a43c ae93 b5bd ce52 54be
000001b0: cfc8 e43d caa1 913e 84e6 643c a0e9 6c3d
000001c0: 4d2d 50be fbbc 85be c390 b0be 214a d4be
000001d0: 010f b5be 8fe6 a8be 6035 5bbe d6d2 21be
000001e0: eb82 27be 976a b8be 2d88 84be d598 6ebe
000001f0: 4bc8 afbd 5440 a7be 8404 d6bc 2a00 95be
0.092112936 0.15926428 -0.29478458 -0.0862167 -0.20000106 0.13426428 0.19986685 -0.22258036
0.07181346 0.0962718 -0.096545346 0.07367236 0.17192651 0.27477318 0.15311998 -0.08523324
-0.07357024 0.1096352 -0.023193294 0.06848002 0.286274 -0.31605357 0.08740854 -0.11999887
0.12564111 0.22359802 0.12618324 -0.056286942 -0.26354334 -0.02582348 -0.36388162 0.17892009
0.0017786433 0.33216068 -0.026236331 0.21470225 0.3720517 -0.1656233 0.11829618 0.19813941
0.019869473 0.26369238 -0.14364539 0.33115876 0.102993764 0.3270774 0.20918201 0.34464622
0.09371374 -0.20931743 -0.0827347 0.20732978 -0.3269111 0.23349619 0.26878756 0.37887695
-0.07570701 0.25454247 -0.28698248 -0.10258094 0.017572429 -0.081375174 0.2759483 0.08442315
0.053981483 0.042902783 0.29571947 0.11946296 0.31558222 0.24962637 0.038246464 -0.14315246
0.30673796 -0.07283931 0.3456965 -0.120531894 0.11512651 0.26366836 0.041946165 0.31904945
-0.20734274 -0.038878992 -0.015126801 0.19926037 0.12615117 0.18784775 0.115972675 0.24856493
-0.060508687 -0.0693085 -0.011358222 0.11680526 -0.04717723 0.0949514 0.05821282 0.114478424
0.27022597 0.109664515 0.2713343 -0.0133292405 -0.10944503 0.179676 0.17393842 0.26755497
0.14402452 0.020087361 -0.08866058 -0.20734712 0.11171114 0.28443748 0.013970975 0.05783999
-0.20329781 -0.26120743 -0.34485444 -0.41462806 -0.3536301 -0.32988402 -0.2140708 -0.15803084
-0.16358535 -0.36018822 -0.25885144 -0.23300488 -0.08583125 -0.32666266 -0.0261252 -0.29101688

up1.bias f4 [4]
00000000: d990 0e3e 3a55 4d3e e3c1 543d ae7d dfbc
0.13922442 0.20052043 0.051942717 -0.027281608

conv13.weight f4 [2, 4, 3, 3]
00000000: dd99 05be 3ce5 9abd 9008 8fbb ddee 0c3b
00000010: 4d25 f53d 93fb cbbc d2f1 fc3d 84e4 adbd
00000020: 8aa9 3a3c fc04 94bd a254 513d 6683 133e
00000030: a17a 853d 55d9 913c 8500 83bd a9aa 06be
00000040: 36fc d9bd d670 11be 4806 003e 27f7 6bbd
00000050: d61d afbc d2ec 11be 1453 27bd a0a0 0b3e
00000060: dade 4a3d d233 92bc 6949 bb3d 91d6 2e3e
00000070: 6343 d63d 46bf 38bd 5182 fa3c 0cea 4cbe
00000080: ce24 c0bd 4685 5a3e 29ca 43be d0d8 77bd
00000090: bba4 6d3d 2dfb e63d 9b83 58be 1572 f0bd
000000a0: 703d a6bd 9dd1 aa3d dc81 d03d f206 c13d
000000b0: b0fe a23d abb1 8ebc 66e2 0c3e f202 053c
000000c0: 00dd 1d3d f232 f3bc da1b a93d 48ea cc3d
000000d0: 8724 eaba 09ca 233e fd12 bfbc f567 413d
000000e0: 233f 1f3e 8eff dc3d ba64 5abd cf27 95bd
000000f0: 1fcf 4e3d c468 ed3b 4d06 883c 4c9b 113e
00000100: 3b97 e33d 8a32 8cbd bc0c f2bc ed12 563e
00000110: a69a 283d cdd5 ac3c 2480 0ebd 909a 473e
-0.13046975 -0.07563254 -0.0043650344 0.0021504678 0.11970005 -0.024900233 0.12350811 -0.084908515
0.01139296 -0.07227513 0.051106103 0.14405593 0.0651753 0.017803827 -0.063965835 -0.13151039
-0.106438085 -0.142032 0.12502396 -0.05760875 -0.021376532 -0.14250496 -0.040850714 0.13635492
0.049528934 -0.017846975 0.09144861 0.17074038 0.10462072 -0.045104288 0.030579718 -0.20011157
-0.0938202 0.21339902 -0.19120087 -0.060509503 0.058018427 0.11278377 -0.21143954 -0.117405094
-0.08117187 0.08340762 0.10181019 0.09425153 0.07958734 -0.017418703 0.13758239 0.008118378
0.03854084 -0.029687379 0.082572654 0.10005623 -0.0017863669 0.15995039 -0.023324484 0.04721828
0.15551428 0.10790931 -0.053318717 -0.072829835 0.050490495 0.007245155 0.016604567 0.14219397
0.11112829 -0.06845577 -0.029547088 0.20905657 0.04116311 0.021098042 -0.034790173 0.19492555

conv13.bias f4 [2]
00000000: b638 7dbd 3515 efbd
-0.061821662 -0.11673967

conv14.weight f4 [2, 2, 3, 3]
00000000: 23a6 e9bd e772 0a3e 97a3 583d 90e1 7b3d
00000010: aed4 27be a1ff 8abc 29b8 a23d afa6 8e3e
00000020: f09d a8be 2b36 3dbe a738 95be e91a e53d
00000030: ee0f 873e 2735 74be 8504 fe3d 7ebd dbbc
00000040: af2f 34be 63b8 1a3e c595 1f3e eb64 0b3e
00000050: 0add 00bc 4fc1 803e 832c 42be edf3 cd3c
00000060: fddf b63b ddb8 d33c 73ec a43d 1a2a 15be
00000070: 893e 023e 1143 bcbc ba2c 323e 3699 933c
00000080: 6854 0f3e 9671 803e 4825 6cbd ebf7 51be
-0.11408641 0.13520394 0.052890386 0.06149441 -0.16389725 -0.016967596 0.07945282 0.27861544
-0.32932997 -0.18477695 -0.29144785 0.11186773 0.2637934 -0.23848401 0.12403206 -0.026823755
-0.17596315 0.151094 0.15584476 0.13612716 -0.0078652 0.25147483 -0.18962292 0.025140727
0.0055809007 0.025844986 0.080529116 -0.14566842 0.12719168 -0.022981199 0.17399874 0.018017393
0.13997042 0.2508666 -0.05765274 -0.2050473

conv14.bias f4 [2]
00000000: c943 4e3f 67d9 4d3d
0.8057218 0.05025616

conv15.weight f4 [1, 2, 3, 3]
00000000: 16d0 113f ae19 2b3f 488f eb3e 4aff 363f
00000010: 9c19 303f 26da f03e db17 173f 5e5c 0e3f
00000020: 7d80 3e3f 8945 373e 53c5 0ebe 0189 133d
00000030: c8a7 133e 4b2f 443e 8f71 bf3d bda4 f93d
00000040: 9ce5 bfbc 8d88 b53c
0.5695814 0.6683606 0.46007752 0.7148329 0.68789077 0.47041434 0.59020776 0.5560969
0.7441481 0.1789762 -0.1394246 0.03601933 0.14419472 0.19158666 0.093478315 0.121896245
-0.023424916 0.022159839
