output/yhy_blur_e/train/model/itn_60.pt (torch_old, 23547 bytes, 23 tensors)

conv11.weight f4 [2, 1, 3, 3]
0	0x3e93f263	0.28895864
1	0x3e9cc7c6	0.30621165
2	0xbd313213	-0.043260645
3	0x3eae38d6	0.34027737
4	0xbd3340db	-0.043763023
5	0x3dd0d3f8	0.1019668
6	0xbe03b2f5	-0.12861235
7	0x3e66393c	0.2248277
8	0x3ea7c90e	0.3277058
9	0xbe5b8f1c	-0.2144131
10	0x3e9ba25a	0.30397302
11	0x3d8f309a	0.06991692
12	0x3e90707a	0.28210813
13	0x3d84d882	0.06486608
14	0x3e33a0f5	0.17541869
15	0xbca39491	-0.019968303
16	0x3e893736	0.26799935
17	0x3d59ed8c	0.053205058

conv11.bias f4 [2]
0	0xbdc5e269	-0.09662325
1	0x3e08c64c	0.13356894

conv12.weight f4 [4, 2, 3, 3]
0	0xbdf46f2f	-0.11935269
1	0xbd147835	-0.03624745
2	0xbdd5772b	-0.1042312
3	0x3dff9466	0.12479477
4	0xbe582e40	-0.21111393
5	0xbe0500bc	-0.12988561
6	0xbdc9124f	-0.09817945
7	0xbe2bad86	-0.16765413
8	0x3c3965c2	0.011315765
9	0xbe515286	-0.20441636
10	0x3e8110db	0.25208172
11	0xbe2f1d3e	-0.17100999
12	0x3e359fcb	0.17736737
13	0x3d03a139	0.032136176
14	0xbda02af8	-0.07820696
15	0x3e08d1d2	0.1336129
16	0x3cc090da	0.02350657
17	0x3e3c3e17	0.1838306
18	0x3d81727e	0.06320666
19	0xbd409463	-0.047016513
20	0x3db754d4	0.089517266
21	0xbce3f53c	-0.027826898
22	0x3e004d6d	0.12529536
23	0x3e70e58e	0.23525068
24	0x3e2ffba2	0.17185834
25	0xbd9e8454	-0.07740083
26	0x3e2454a1	0.16047908
27	0x3d91a127	0.071108155
28	0x3e10e5dd	0.14150186
29	0xbdf43fe3	-0.11926248
30	0xbe53ae26	-0.20671901
31	0xbd8ff4aa	-0.07029088
32	0xbe2114ca	-0.15730587
33	0x3e6239e8	0.22092402
34	0x3db6e293	0.08929934
35	0x3df9ecbc	0.122033566
36	0x3e063eaf	0.1310985
37	0x3d393ed3	0.04522593
38	0x3e6faae7	0.23405038
39	0xbdea6ff9	-0.11447138
40	0x3d786d60	0.060651183
41	0xbdeb5703	-0.114912055
42	0x3df6768e	0.12034331
43	0xbd2a1d0b	-0.041531604
44	0x3de54832	0.11195411
45	0x3a09402c	0.00052356976
46	0x3e764e07	0.24053203
47	0xbdbb0226	-0.09131269
48	0xbdc40d19	-0.09572811
49	0xbdcccd14	-0.10000053
50	0x3e82f486	0.25577182
51	0x3df14258	0.11780232
52	0x3e85d707	0.26140615
53	0xbe2034f9	-0.15645207
54	0xbded1f56	-0.115782425
55	0xbe37650f	-0.17909645
56	0xbe56dd66	-0.20982894
57	0x3da958d4	0.08268896
58	0x3d86e1a9	0.0658601
59	0x3e6f5c62	0.23375085
60	0xbdc8b878	-0.098008096
61	0xbdcd363c	-0.1002011
62	0x3e382d13	0.17985944
63	0xbd6d6a41	-0.05796266
64	0x3e406bcf	0.18791126
65	0xbe02a5d9	-0.12758578
66	0x3e084f2a	0.13311449
67	0xbe48f630	-0.19625163
68	0xbe0ab29d	-0.13544698
69	0x3d8c00ae	0.06836067
70	0x3d93ac6b	0.072106205
71	0xbb8ad182	-0.004236401

conv12.bias f4 [4]
0	0x3e32bfb3	0.1745594
1	0x3e44efbd	0.19232078
2	0xbe1082f1	-0.1411245
3	0xbdff3fb0	-0.12463319

down1.weight f4 [8, 4, 2, 2]
0	0x3e65e344	0.22449976
1	0xbda88522	-0.08228518
2	0xbda3ac64	-0.07991865
3	0xbe7dc476	-0.24781975
4	0xbe5271d2	-0.20551232
5	0xbc15a033	-0.009132433
6	0xbdb438f1	-0.08799923
7	0xbe774435	-0.24147113
8	0xbd74cec6	-0.059767507
9	0xbe7c612a	-0.2464644
10	0xbe8d8972	-0.27643925
11	0xbe5a221c	-0.21302074
12	0xbee9b7dd	-0.4564809
13	0xbed1189d	-0.4083909
14	0x3cc2a656	0.023760956
15	0xbe1a4baf	-0.15067933
16	0x3d976ca6	0.0739377
17	0xbe67a876	-0.22622856
18	0xbe2cd280	-0.16877174
19	0xbdc132ed	-0.094335414
20	0xbcb9d83a	-0.022686113
21	0xbe9009cf	-0.28132483
22	0xbe23d440	-0.15998936
23	0xbe4b7df8	-0.19872272
24	0xbd7b1f4d	-0.061309148
25	0xbe20b61e	-0.15694472
26	0xbda3b3d4	-0.07993284
27	0xbe6c8197	-0.2309631
28	0xbeb7a322	-0.35866648
29	0xbeab4125	-0.3344814
30	0xbeaf190f	-0.34198806
31	0xbeda3ad8	-0.4262302
32	0x3e676992	0.22598866
33	0xbd103616	-0.03520783
34	0x3e833fb2	0.25634533
35	0x3dc6e15d	0.097109534
36	0xbea46455	-0.32107797
37	0x3d67aafe	0.056559555
38	0xbe1a9a01	-0.1509781
39	0xbe36f4be	-0.17866799
40	0xbea75aa5	-0.32686344
41	0xbec234af	-0.3793082
42	0xbd192e6b	-0.037397783
43	0xbe2ff3ba	-0.17182818
44	0xbdb94bbc	-0.09047648
45	0xbed0c97b	-0.40778717
46	0xbd17fac9	-0.0371044
47	0xbeccb870	-0.39984465
48	0xbd945c72	-0.07244195
49	0x3c269800	0.010168076
50	0x3deb9705	0.11503414
51	0x3e2784a4	0.16359192
52	0x3e1020dc	0.14075035
53	0xbea6096c	-0.32429063
54	0xbcc41b3d	-0.02393877
55	0xbe67f0fe	-0.22650525
56	0xbdea921d	-0.1145365
57	0xbe9f5d4e	-0.31125873
58	0x3e07239e	0.1319718
59	0xbea4a75f	-0.32158944
60	0x3caa2597	0.020769877
61	0xbe1d36c6	-0.15352926
62	0xba9bd4a0	-0.0011888929
63	0xbe850a04	-0.25984204
64	0x3e4cf482	0.20015147
65	0x3d1ade93	0.03780992
66	0xbd850290	-0.064946294
67	0xbeb08f0c	-0.34484136
68	0xbd347949	-0.04406098
69	0xbe683072	-0.2267473
70	0xbe961ce9	-0.29318932
71	0x3c2eb2a5	0.010662709
72	0xbda88e13	-0.082302235
73	0xbea0db35	-0.31417242
74	0xbe969ad2	-0.29414994
75	0xbe57d6b9	-0.21078004
76	0xbe3bb95c	-0.18332428
77	0xbec1af69	-0.3782914
78	0xbef95d4e	-0.48703998
79	0xbed4b386	-0.41543216
80	0xbe496ff1	-0.19671609
81	0x3d979a28	0.0740245
82	0x3e4f55f9	0.2024764
83	0xbe67d585	-0.22640045
84	0x3de4f522	0.11179568
85	0x3e2b40e7	0.16723977
86	0x3dca1dbc	0.09868953
87	0xbd63b7ba	-0.055595137
88	0x3e300810	0.17190576
89	0x3e22d230	0.15900493
90	0x3e1ddad0	0.15415502
91	0xbb5b17bf	-0.0033430902
92	0x3e80855d	0.25101748
93	0x3eb3edbb	0.3514231
94	0x3e88cc3a	0.26718313
95	0x3e4b1f0d	0.19836064
96	0x3e08c9f8	0.13358295
97	0x3e3a8ead	0.18218489
98	0xbd162314	-0.036654547
99	0xbd4dff28	-0.050292164
100	0x3d74d6d7	0.0597752
101	0x3ced7090	0.028984338
102	0x3dee6792	0.11640848
103	0x3de76739	0.11298985
104	0xbe3eb2aa	-0.18622842
105	0xbd6de11d	-0.058076013
106	0x3e884efa	0.26622754
107	0x3e10c39e	0.14137122
108	0x3e577c97	0.21043621
109	0x3d80d50a	0.06290634
110	0x3e8863c9	0.2663863
111	0x3e08b75e	0.13351199
112	0xbd8a223f	-0.06744813
113	0x3dc1e8c3	0.09468224
114	0x3e4a4d67	0.19756089
115	0x3e09741b	0.13423197
116	0xbe9d93b6	-0.30776757
117	0xbe6f41e7	-0.23364983
118	0xbdda2914	-0.10652366
119	0x3e3c2ea4	0.18377167
120	0xbd79cb7a	-0.060985066
121	0xbe1f9c8a	-0.15587059
122	0x3c350609	0.011048802
123	0xbe36e9d9	-0.17862643
124	0xbee1d514	-0.44107878
125	0xbd984a04	-0.07435992
126	0xbeb89e46	-0.36058253
127	0xbe98a2bb	-0.29811653

down1.bias f4 [8]
0	0xbe889999	-0.26679686
1	0x3e0acf9a	0.13555756
2	0x3e53ca99	0.20682754
3	0x3db0f6a2	0.086407915
4	0xbdd57fb3	-0.10424747
5	0xbeacf630	-0.33781576
6	0xbe4f667c	-0.20253938
7	0x3e55f6af	0.20894884

conv21.weight f4 [8, 8, 3, 3]
0	0x3cf33eab	0.029692968
1	0x3d4cd737	0.050009932
2	0x3a8f1a02	0.0010917785
3	0x3a2f1e66	0.000668025
4	0xbd0718ca	-0.032982625
5	0xbdf6724b	-0.120335184
6	0xbde549bb	-0.111957036
7	0xbdd1e1c8	-0.102481425
8	0x3d840eca	0.06448133
9	0xbdb6929c	-0.08914682
10	0xbd9b29de	-0.07576345
11	0xbe02c705	-0.12771232
12	0xbd49cf52	-0.04926998
13	0xbde868b3	-0.11348095
14	0xbdd38121	-0.10327364
15	0x3d00d9c5	0.03145768
16	0xbccc20a0	-0.0249179
17	0x3db8e79d	0.09028552
18	0xbd7eed5f	-0.062238093
19	0xbe09bc70	-0.1345079
20	0xbda85a92	-0.082204
21	0xbdb808c7	-0.08986049
22	0xbd971310	-0.07376683
23	0xbe1a70d4	-0.15082103
24	0x3d4816bb	0.048849802
25	0xbda7fa15	-0.08201996
26	0x3d8ae626	0.067821786
27	0x3cc66079	0.024215924
28	0x3c9a365f	0.018824754
29	0xbe1e97ef	-0.15487646
30	0x3d73f730	0.05956191
31	0xbdc4bdd5	-0.0960652
32	0x3bd4cbe4	0.006494032
33	0x3de2e504	0.110788375
34	0xbbef0b2f	-0.0072950344
35	0x3bc51904	0.006014945
36	0xbd872f11	-0.06600774
37	0xbe264162	-0.16235879
38	0xbc901fa1	-0.017593207
39	0xbe233c2e	-0.15940925
40	0x3ccb19ea	0.02479263
41	0x3d396565	0.045262713
42	0x3dbc2ca8	0.09188205
43	0xbce4e3df	-0.027940689
44	0xbdae15bb	-0.085002385
45	0x3d54df25	0.05197062
46	0x3df59d72	0.11992921
47	0xbd3359a0	-0.043786645
48	0x3c57d327	0.013172901
49	0xbcb3196e	-0.021862712
50	0x3d2b1d90	0.04177624
51	0xbd0aaeb7	-0.033858027
52	0xbd280f64	-0.041030303
53	0xbd1d673c	-0.03842853
54	0xbd9e9f95	-0.077452816
55	0x3e15d4eb	0.14632003
56	0x3e209396	0.156813
57	0x3b0b1f2d	0.00212283
58	0xb9a6fedc	-0.00031851872
59	0xbd26134a	-0.04054574
60	0xbddd84d5	-0.10816351
61	0xbe13e12e	-0.14441368
62	0x3b3f10f1	0.0029154385
63	0xbdb8b0c0	-0.090180874
64	0xbe073a9a	-0.13205948
65	0xbda90ee3	-0.082547925
66	0xbda343d9	-0.07971925
67	0xbdb1eabd	-0.08687351
68	0xbd33b3ee	-0.043872766
69	0xbd3464fb	-0.044041615
70	0xbd30b67d	-0.043142784
71	0xbd473862	-0.048637755
72	0xbd90a56f	-0.07062804
73	0x3da04b5c	0.07826874
74	0xbdb809d6	-0.08986251
75	0x3d6a7da6	0.057248734
76	0xbd77b1d1	-0.060472313
77	0xbd0dd559	-0.034627292
78	0x3e1741a9	0.14771141
79	0x3d57b42d	0.052662063
80	0xbdfc7f14	-0.12328926
81	0x3d86d27a	0.06583114
82	0x3db2627a	0.08710189
83	0xbc4f98d9	-0.012670719
84	0x3dcd7a28	0.10033065
85	0x3dbea7d5	0.09309355
86	0xbd7f906a	-0.062393583
87	0x3d76ea56	0.060282074
88	0xbdac4634	-0.08411828
89	0xbd3b2d80	-0.04569769
90	0x3df41122	0.1191733
91	0x3d3d7700	0.046256065
92	0xbde729cd	-0.1128727
93	0xbd8402d5	-0.06445853
94	0xbdc7bfa7	-0.09753352
95	0xbe241309	-0.16022886
96	0xbd480495	-0.048832495
97	0xbcf5f439	-0.030023681
98	0x3d5c6b31	0.053813163
99	0x3c61ffa6	0.0137938615
100	0xbe06dc49	-0.1316997
101	0xbe06fdff	-0.1318283
102	0x3d5381a7	0.051637318
103	0xbe0cf2d0	-0.137645
104	0xbd8516c6	-0.06498484
105	0x3d7cd71a	0.061728574
106	0xbdae3ea9	-0.08508045
107	0xbd48068b	-0.048834365
108	0x3ca30866	0.019901466
109	0xbd4feee8	-0.050764948
110	0xbddfba07	-0.10924154
111	0xbdb4d813	-0.088302754
112	0xbe04a77e	-0.12954518
113	0xbdfeac25	-0.12435178
114	0x3e0a062c	0.13478917
115	0xbda9def2	-0.082944766
116	0xbdff1bc5	-0.124564685
117	0xbbe35668	-0.0069377907
118	0x3d389950	0.045068085
119	0x3dd20b62	0.10256077
120	0x3d721051	0.05909759
121	0x3dafc7f4	0.0858306
122	0xbd8a4731	-0.0675186
123	0xbcee0810	-0.029056579
124	0x3da06e23	0.07833507
125	0x3cc14412	0.023592029
126	0xbdba8d7e	-0.09109019
127	0x3e116edc	0.14202446
128	0x3c48ee83	0.012263897
129	0xbdc44325	-0.09583119
130	0xbdb66b76	-0.08907215
131	0x3d4b414d	0.049622823
132	0x3bdf8d4d	0.0068222643
133	0x3c4df59b	0.012570764
134	0x3cda4018	0.02664189
135	0xbd68b131	-0.056809608
136	0xbe017cb1	-0.12645222
137	0xbd23e316	-0.040011488
138	0x3e0c2cb5	0.1368893
139	0x3d3bd078	0.04585311
140	0xbdf520fa	-0.119691804
141	0x3cbd507a	0.023109663
142	0xbdc07ec8	-0.093991816
143	0xbdb7a636	-0.08967249
144	0x3cfdb7e2	0.030971471
145	0x3dd2a092	0.102845326
146	0x3e1e2250	0.15442777
147	0xbe1bf2c5	-0.15229328
148	0x3db604a2	0.088876024
149	0xbd54649b	-0.051853757
150	0x3ce18855	0.027530828
151	0x3dd22e30	0.10262716
152	0x3b0fda4a	0.0021950179
153	0x3de943c4	0.113898784
154	0xbd6c12e6	-0.05763521
155	0x3c7097f6	0.014684668
156	0x3c12f78b	0.008970152
157	0xbc60abf9	-0.0137128765
158	0x3c2d6828	0.010583915
159	0xbd95d8d1	-0.07316745
160	0x3d9fc988	0.07802111
161	0x3d86eb83	0.06587889
162	0x3d22acc4	0.039715543
163	0xbc9b44c2	-0.018953685
164	0xbce33ec3	-0.027739888
165	0xbcf3b963	-0.029751485
166	0x3d6bee36	0.057600223
167	0xbbb26403	-0.005444051
168	0xbd75437a	-0.059878804
169	0x3dc63410	0.09677899
170	0x3caab21e	0.020836886
171	0x3d03a14c	0.032136247
172	0x3ce05c50	0.027387768
173	0xbd3c625b	-0.045992237
174	0xbe1af230	-0.1513145
175	0xbd004c73	-0.031322908
176	0xbc902bfd	-0.0175991
177	0x3bdb102e	0.0066852784
178	0xbd22352b	-0.039601486
179	0xbcf65662	-0.030070487
180	0x3de50ae3	0.11183717
181	0x3d6a41f9	0.057191823
182	0x3dfd5f8f	0.12371742
183	0xbdbda19c	-0.0925934
184	0xbd1b2be1	-0.037883643
185	0x3d56beaa	0.052427925
186	0xbdc60150	-0.09668219
187	0xbd90deaa	-0.0707372
188	0xbcd71a3a	-0.026257623
189	0xbd248cf7	-0.040173497
190	0xbe0a5b61	-0.13511421
191	0x3bd1579b	0.006388617
192	0x3e2366cb	0.15957181
193	0xbaafa386	-0.0013400174
194	0xbd8e1ce1	-0.06939102
195	0xbd42af46	-0.047530435
196	0xbd551975	-0.05202623
197	0x3c89a3c8	0.01680173
198	0x3dc05a76	0.09392254
199	0xbd2dff06	-0.042479537
200	0xbdddc2bc	-0.10828158
201	0x3e0b5ac2	0.1360884
202	0xbdb041f5	-0.0860633
203	0x3d4e5479	0.05037353
204	0xba9448bd	-0.0011313182
205	0x3bfee4c4	0.007778736
206	0xbcdce716	-0.02696566
207	0x3c2933ae	0.010327263
208	0x3c8142e9	0.015778976
209	0x3e213d6b	0.15746085
210	0xbd3be508	-0.045872718
211	0x3dec937f	0.1155157
212	0x3e2ea2be	0.17054269
213	0xbdc59323	-0.09647205
214	0xbda08113	-0.07837119
215	0x3dea3bf4	0.114372164
216	0x3c96d3ed	0.018411601
217	0xbdda4900	-0.10658455
218	0x3d4d6ced	0.050152708
219	0xbe130c0a	-0.14360061
220	0xbdaddc39	-0.0848927
221	0x3e207949	0.15671267
222	0xbd719294	-0.05897768
223	0xbd24f0a0	-0.04026854
224	0x3d04939c	0.032367334
225	0x3d4dffd8	0.05029282
226	0x3c855637	0.016276462
227	0x3ae4cdfa	0.0017456405
228	0xbce66bda	-0.0281276
229	0x3d59b56d	0.053151537
230	0x3e4b54a0	0.198565
231	0xbe2fc02f	-0.17163156
232	0xbbc2fbe0	-0.005950436
233	0x3cced0d5	0.025246063
234	0xbe2f46b9	-0.17116822
235	0xbda9092d	-0.08253703
236	0x3e3540b2	0.1770046
237	0x3dadff98	0.08496016
238	0x3e036fb4	0.1283558
239	0x3e6af0c7	0.22943412
240	0x3c58af3e	0.013225375
241	0xbd6a7431	-0.057239715
242	0x3aca46b6	0.001543245
243	0xbb8f5c41	-0.004375011
244	0xbd8c1682	-0.068402305
245	0xbc82a6e3	-0.015948718
246	0xbd16df90	-0.0368343
247	0x3db5caf8	0.08876604
248	0x3e80909a	0.25110322
249	0xbdef3aae	-0.11681114
250	0xbdd78d26	-0.10524969
251	0x3e026a49	0.12735857
252	0xbe3c04f9	-0.18361272
253	0xbe01b395	-0.12666161
254	0x3db224a6	0.086983964
255	0xbd8ad71e	-0.067793116

conv21.bias f4 [8]
0	0x3dd1413f	0.10217523
1	0xbe3555ad	-0.17708464
2	0xbc09c740	-0.008409321
3	0x3d96c5a1	0.073619135
4	0x3e0d85d7	0.13820587
5	0x3d87521c	0.06607458
6	0x3d0bde0e	0.034147315
7	0xbcfaa39f	-0.030595599

down2.weight f4 [16, 8, 2, 2]
0	0x3d8708a7	0.06593447
1	0x3df9e960	0.12202716
2	0xbd87936b	-0.066199146
3	0x3e06250c	0.1310007
4	0x3dfe853d	0.12427757
5	0x3e567d30	0.20946193
6	0xbd507bd0	-0.050899327
7	0xbd3348bc	-0.043770537
8	0xbce1a966	-0.027546596
9	0x3d9fe94a	0.07808168
10	0x3db711a1	0.08938909
11	0xbe050550	-0.12990308
12	0x3e277ceb	0.16356246
13	0x3e8d34c3	0.27579316
14	0x3e07f150	0.13275647
15	0x3e77789e	0.24167106
16	0x3e2b92ef	0.1675527
17	0x3e393a47	0.18088637
18	0x3e280a8b	0.16410272
19	0x3ea634b7	0.32462093
20	0xbe1318ac	-0.1436488
21	0xbc922e16	-0.017844241
22	0x3ce56d35	0.028006176
23	0xbdb19b92	-0.08672251
24	0x3d53695f	0.05161416
25	0xbe2d21c9	-0.1690742
26	0xbe145a73	-0.14487629
27	0xbe3dd908	-0.18539822
28	0xbdcab466	-0.098976895
29	0xbdb598ea	-0.08867057
30	0xbbc74202	-0.006080867
31	0xbd02cbc2	-0.0319326
32	0x3dd0a415	0.10187546
33	0x3e3acd08	0.18242276
34	0x3da00e81	0.078152664
35	0xbd66ebef	-0.056377348
36	0xbe2105fd	-0.1572494
37	0x3d9b99de	0.07597707
38	0xbdc7851b	-0.09742185
39	0x3daa30e0	0.083101034
40	0x3e0d0532	0.13771513
41	0x3e027e81	0.1274357
42	0x3e75799e	0.23972175
43	0x3e8f9d70	0.28049803
44	0x3b9e0b2d	0.0048231096
45	0xbe2a6298	-0.16639173
46	0x3e0f1051	0.13971068
47	0xbde45805	-0.11149601
48	0xbe0fbdf6	-0.14037308
49	0x3ddc0887	0.10743814
50	0x3d5d9d29	0.054104958
51	0x3c68ab31	0.014200971
52	0x3cf89c1f	0.030347882
53	0xbe050603	-0.12990575
54	0xbb7b956c	-0.0038388623
55	0x3e3707f6	0.1787413
56	0x3cd95b27	0.026532723
57	0x39ddd009	0.00042307403
58	0xbd0b0274	-0.033937886
59	0xbd560769	-0.05225316
60	0x3de0f3e8	0.109840214
61	0x3c93400e	0.01797488
62	0x3dfd13b5	0.123572744
63	0xbd1a3d60	-0.037656188
64	0x3de945b4	0.11390248
65	0x3dccd4ab	0.10001501
66	0x3d9fe9da	0.078082755
67	0x3e1f6e15	0.15569337
68	0x3e0e6276	0.13904747
69	0x3e25838e	0.16163465
70	0x3e2a00c2	0.16601852
71	0xbca690a4	-0.020332642
72	0xbe22ffb7	-0.1591786
73	0x3d96a207	0.07355123
74	0xbbad6d87	-0.0052925977
75	0x3d0ee00a	0.03488163
76	0xbdaa47a9	-0.08314449
77	0xbd05f1b7	-0.03270122
78	0x3e22308c	0.15838832
79	0x3db0e6c3	0.08637764
80	0xbe65c0ba	-0.224368
81	0xbe90589b	-0.281926
82	0xbe49ba52	-0.19699982
83	0xbe726a9e	-0.23673484
84	0x3e48e6f7	0.19619356
85	0x3dfd77db	0.12376376
86	0x3e54bfe1	0.20776321
87	0x3d1bfcf3	0.038083028
88	0x3ce4be60	0.02792281
89	0x3d406be5	0.046977896
90	0xbe3399bb	-0.17539112
91	0x3c0cc968	0.008592941
92	0x3d07417e	0.033021443
93	0xbcf41149	-0.029793398
94	0xbd991ee8	-0.07476598
95	0x3e606460	0.2191329
96	0x3e05f304	0.13080984
97	0x3dc99996	0.09843747
98	0x3e1fc230	0.1560142
99	0xbd7f29ae	-0.06229561
100	0x3ce20796	0.027591508
101	0x3dfa83a5	0.122321405
102	0x3cc50495	0.024050036
103	0x3c185730	0.009298131
104	0xbd59bd6d	-0.053159166
105	0x3e1b6622	0.1517568
106	0xbde5b234	-0.1121563
107	0x3b869897	0.0041075456
108	0x3e6a0baa	0.22856012
109	0x3e738e7e	0.23784825
110	0xbd4820cd	-0.048859406
111	0x3ea75c76	0.3268773
112	0x3e48bd37	0.1960343
113	0x3eca5074	0.39514506
114	0x3ed5b110	0.4173665
115	0x3e86d401	0.2633362
116	0xbe0df1d4	-0.13861781
117	0xbdaceee8	-0.08444005
118	0xbd5f8f06	-0.054579757
119	0xbd8af805	-0.06785587
120	0xbd8e6d21	-0.069544084
121	0x3dc6c6e0	0.09705901
122	0x3d5ebc22	0.054378636
123	0xbd395737	-0.04524919
124	0xbe56b872	-0.20968798
125	0xbdaa1ec5	-0.0830665
126	0xbdf40261	-0.11914516
127	0xbd4841f6	-0.04889103
128	0xbe0ca3bb	-0.13734333
129	0x3d12d394	0.035846308
130	0xbdc2ad63	-0.09505727
131	0xbe0a641b	-0.1351475
132	0xbe3bda19	-0.18344916
133	0x3cf66418	0.030077025
134	0xbe181648	-0.1485225
135	0xbdf5e263	-0.120060705
136	0x3cef225a	0.029191185
137	0xbd365767	-0.044516947
138	0xba48d95a	-0.00076617824
139	0xbeacdf2c	-0.33764017
140	0xbe0eaf1d	-0.13933988
141	0xbe7a3ddf	-0.24437664
142	0x3e119629	0.14217438
143	0xbe0a9a81	-0.13535501
144	0xbecb4e49	-0.39708164
145	0xbeac26d3	-0.3362337
146	0xbed152b2	-0.40883404
147	0xbec1d6cf	-0.37859198
148	0xbcda5dda	-0.02665608
149	0x3e1de58b	0.15419595
150	0x3dad0f0e	0.08450137
151	0xbcd918de	-0.026501115
152	0x3d6331e0	0.055467486
153	0xbd2f4a60	-0.04279554
154	0x3dff13c8	0.12454945
155	0x3deed232	0.11661185
156	0x3e2b6b4e	0.16740152
157	0xbc5a593e	-0.013326941
158	0x3e8ea6ed	0.2786173
159	0x3d0eeea9	0.034895573
160	0xbd2c16d4	-0.042013958
161	0x3e391095	0.18072732
162	0x3e0c6e80	0.13714027
163	0x3e6669e3	0.2250133
164	0x3e15f5c4	0.14644533
165	0x3d698510	0.057011664
166	0x3e2a3d46	0.16624936
167	0x3e89c74d	0.26909867
168	0xbd8e9a42	-0.06963016
169	0x3da9b240	0.082859516
170	0xbd2169c2	-0.0394075
171	0x3e0968be	0.13418862
172	0x3dfa385a	0.122177795
173	0x3e0eaccf	0.13933109
174	0x3d662722	0.056189664
175	0x3e7bc2f2	0.24586084
176	0x3e85c6a7	0.26128122
177	0x3e88ca6c	0.26716936
178	0x3ee35efb	0.44408402
179	0x3ebd3fb8	0.36962676
180	0x3a946580	0.0011321753
181	0x3d972e5c	0.07381889
182	0xb9b4b3a3	-0.00034466115
183	0xbde01929	-0.10942299
184	0x3dd41a07	0.10356527
185	0xbd44ad60	-0.048016906
186	0xbd935e03	-0.07195666
187	0x3d92b236	0.07162897
188	0xbe7ffb89	-0.24998297
189	0xbe0c6735	-0.13711245
190	0xbe478cd9	-0.19487323
191	0xbdb4e113	-0.08831992
192	0xbdc7f671	-0.09763802
193	0xbda34f0f	-0.079740636
194	0xbbf34984	-0.007424535
195	0xbe454dcf	-0.19267963
196	0xbe1365d8	-0.14394319
197	0xbd183080	-0.03715563
198	0xbacea0dc	-0.0015764493
199	0x3d919d61	0.07110096
200	0xbdf51379	-0.11966605
201	0xbbc76ad4	-0.006085733
202	0x3def2a9e	0.116780505
203	0x3cc61dc7	0.02418412
204	0xbd822703	-0.06355097
205	0x3d481fa1	0.04885829
206	0xbdf2ded8	-0.1185891
207	0xbcb5c9c0	-0.022190928
208	0x3e7f6f50	0.24944806
209	0x3dff836c	0.124762386
210	0x3e844333	0.2583252
211	0x3cf3e362	0.02977151
212	0xbc81c694	-0.01584176
213	0xbe1a5449	-0.15071215
214	0x3d160a08	0.03663066
215	0xbdf47b9a	-0.119376376
216	0xbd34b27e	-0.044115536
217	0xbe18c1bd	-0.14917655
218	0x3b9fc697	0.0048759687
219	0x3e268c10	0.16264367
220	0x3d2e1b28	0.042506367
221	0xbe16b4e5	-0.14717443
222	0xbc98ceb8	-0.018653259
223	0xbd3c594b	-0.045983594
224	0xbe0e9b08	-0.13926327
225	0x3e00277d	0.12515064
226	0x3c88a322	0.01667935
227	0x3d0d94f9	0.0345659
228	0xbe08db90	-0.13365006
229	0xbe0c8053	-0.13720827
230	0xbc886005	-0.016647348
231	0x3cf5ca0b	0.030003568
232	0xbd566226	-0.052339695
233	0xbe31a03d	-0.17346282
234	0x3e256ddc	0.1615519
235	0xbe06356e	-0.1310632
236	0xbe13841b	-0.14405863
237	0xbe39d0d6	-0.18146071
238	0x3e4ec8a0	0.2019372
239	0xbde23e6a	-0.11047061
240	0xbeb423f2	-0.35183674
241	0xbeef6128	-0.46753812
242	0xbece25bd	-0.40263167
243	0xbf0d21cd	-0.551297
244	0xbe09ed9d	-0.13469549
245	0x3dc2dc21	0.095146425
246	0x3e29cebe	0.16582772
247	0x3e2c7412	0.16841152
248	0xbdf89777	-0.121382646
249	0x3dc9c796	0.09852521
250	0xbdbc6ff2	-0.092010394
251	0x3e060428	0.13087523
252	0x3e29f463	0.16597132
253	0x3e1d1fb1	0.1534412
254	0x3e4607f2	0.19338968
255	0x3e0576c4	0.13033587

down2.bias f4 [16]
0	0xbe269e69	-0.16271366
1	0x3da024ba	0.07819505
2	0xbe107736	-0.14107975
3	0x3cc75750	0.024333626
4	0x3e622a0d	0.22086354
5	0x3e4fc8b3	0.20291404
6	0xbe0e753c	-0.13911909
7	0x3de2bb94	0.11070934
8	0x3d7e0b7f	0.062022682
9	0x3ce28b4c	0.027654313
10	0x3d9109c8	0.07081944
11	0xbe10cecb	-0.14141385
12	0xbc7dd614	-0.015492935
13	0xbd8c858b	-0.06861409
14	0x3c5c2f21	0.013438971
15	0x3d03439e	0.032046907

conv31.weight f4 [16, 16, 3, 3]
0	0xbc85f73f	-0.016353248
1	0xbd4ca6f1	-0.049963895
2	0xbd67aae0	-0.056559443
3	0xbbf31a28	-0.0074188896
4	0xbd88d8db	-0.06681987
5	0x3cc982b8	0.024598464
6	0xbd054bcc	-0.03254299
7	0xbd305886	-0.043053173
8	0x3d376d28	0.044781834
9	0x3c8196ee	0.01581904
10	0x3d92cd9d	0.07168124
11	0x3ca1e920	0.019764483
12	0xbc9f18a9	-0.019420939
13	0x3d894f6a	0.067046
14	0x3bff9e64	0.007800864
15	0x3c5c1446	0.013432568
16	0xbd1e0be0	-0.038585544
17	0x3d0ba0ca	0.034088887
18	0xbd7e7139	-0.062119696
19	0x3d289053	0.041153263
20	0x3d9b3f07	0.07580381
21	0xbd0a9dba	-0.033841826
22	0xbd507cc6	-0.050900243
23	0xbd78dee7	-0.06075945
24	0x3dd7f6f6	0.10545151
25	0x3dac3c23	0.08409908
26	0x3cd9325e	0.026513275
27	0x3d1cb3a1	0.038257245
28	0xbd27af1b	-0.040938478
29	0xbdb4e4ff	-0.0883274
30	0xbc9e64d3	-0.019335186
31	0x3ce5033e	0.027955648
32	0x3de56c8a	0.11202343
33	0xbd312b93	-0.043254446
34	0x3d5732ec	0.052538797
35	0x3d53396d	0.051568437
36	0x3e157744	0.14596277
37	0xbd9ef001	-0.07760621
38	0x3c5257bd	0.012838301
39	0x3d329e63	0.04360808
40	0x3dac0f79	0.08401389
41	0xbdc09c36	-0.09404795
42	0x3c498d65	0.0123017775
43	0x3cfb6586	0.030688059
44	0xbd8421db	-0.0645177
45	0xbda4fe1e	-0.080562815
46	0xbb53f89c	-0.0032344228
47	0x3d45d77f	0.048301216
48	0x3c995f0d	0.018722082
49	0xbc8d34ab	-0.017237028
50	0x3de3049f	0.11084866
51	0xbcf65be9	-0.030073123
52	0x3b4cecde	0.0031269114
53	0x3d3e4693	0.046454024
54	0xbd6a8425	-0.05725493
55	0xbdb50749	-0.0883928
56	0xbd87d9ad	-0.06633315
57	0xbdd7a28f	-0.105290525
58	0xbd286532	-0.041112132
59	0x3b417cf4	0.002952394
60	0xbda3a3d2	-0.079902306
61	0xbd2907c9	-0.04126719
62	0xbcfa0fd9	-0.030525135
63	0x3d0801cc	0.03320484
64	0xbcf2784d	-0.02959838
65	0x3c82dad6	0.01597349
66	0x3d115077	0.035477128
67	0x3ce1330e	0.027490165
68	0xbcb02cb3	-0.02150569
69	0x3b6381dc	0.0034714853
70	0xbc08ab5a	-0.008341635
71	0x3c3f1933	0.011663723
72	0xbcd40ecf	-0.025885968
73	0x3c42b345	0.0118835615
74	0xbbe284bf	-0.006912797
75	0x3d921d75	0.07134525
76	0x3c73d153	0.01488145
77	0xbbfa2825	-0.00763418
78	0x3ce7e5f6	0.028307896
79	0xbd4c2184	-0.04983665
80	0xbc666c93	-0.014063972
81	0x3b516a1f	0.0031954122
82	0xb9a8b1ce	-0.00032175932
83	0xbd4096df	-0.047018882
84	0x3d365b4e	0.04452067
85	0xbcacfc4d	-0.0211164
86	0x3c958f07	0.018256677
87	0x3de56fee	0.112029895
88	0x3d148d3d	0.036267508
89	0x3d4ddc52	0.050258942
90	0xbdbafb46	-0.09129958
91	0x3d2c631b	0.0420867
92	0x3daf6885	0.085648574
93	0x3dbb1e61	0.09136654
94	0xbd6cf5d8	-0.057851642
95	0x3b1ce396	0.0023939363
96	0xbd1098f8	-0.035302132
97	0xbc779f20	-0.015113622
98	0xbd430c9f	-0.04761946
99	0xbdaa8bee	-0.08327471
100	0xbd6bc0c4	-0.057556883
101	0xbc95d993	-0.018292224
102	0xbd03607c	-0.032074437
103	0x3d595f87	0.053069618
104	0x3c260017	0.010131857
105	0xbdbf0932	-0.09327926
106	0x3c288e2e	0.0102878045
107	0xbcad423d	-0.021149749
108	0x3d268981	0.040658478
109	0x3d60fd77	0.054929223
110	0xbca063c1	-0.019578816
111	0xbde439c1	-0.11143828
112	0x3c539ff5	0.012916555
113	0x3d4db543	0.050221693
114	0x3cf3fa84	0.029782541
115	0xbd343264	-0.04399337
116	0xbd6cad8e	-0.057782702
117	0x3d3008d7	0.04297718
118	0x3ce7f969	0.02831717
119	0x3bde53e2	0.006784902
120	0x3b3b45bd	0.0028575503
121	0xbd1a8df1	-0.037733022
122	0x3d57078e	0.05249744
123	0x3ca5113a	0.020149816
124	0x3d9087ba	0.07057138
125	0x3d8da610	0.069164395
126	0x3d602f16	0.054732405
127	0x3ca65e74	0.02030871
128	0xbc4854bb	-0.012227233
129	0x3df89944	0.12138608
130	0xbda0c8d5	-0.07850806
131	0xbc38a8f8	-0.011270754
132	0x3d27a786	0.040931247
133	0x3d2f4a29	0.042795334
134	0xbc40318e	-0.011730565
135	0xbd5ba9cf	-0.05362874
136	0xbd1667db	-0.036720138
137	0x3cc278af	0.023739187
138	0xbe078f7d	-0.1323833
139	0xbd8b4cac	-0.068017334
140	0x3c1b97b9	0.009496623
141	0xbda6a922	-0.08137728
142	0x3d0c542f	0.03425997
143	0x3dac8e89	0.08425624
144	0x3c9a78c1	0.018856408
145	0x3db300c0	0.087403774
146	0xba2d8b92	-0.0006620224
147	0xbcf9ba79	-0.030484425
148	0xbcc1879c	-0.023624234
149	0xbcea2692	-0.028582845
150	0xbd3c3dcd	-0.045957375
151	0xbd8cfea9	-0.0688451
152	0xbd4f7bbd	-0.050655115
153	0xbc31be6f	-0.010848626
154	0x3b8fae7e	0.0043848148
155	0x3c16240b	0.009163867
156	0x3d583564	0.052785292
157	0xbd13c585	-0.03607704
158	0xbd4e585e	-0.050377242
159	0xbd9d14f2	-0.076700106
160	0xbad6a815	-0.0016376997
161	0xbe1596e3	-0.1460834
162	0x3c8f14fb	0.017466059
163	0xbc047190	-0.008083716
164	0xbd12efd9	-0.035873268
165	0x3c60d939	0.013723665
166	0xbd7a62f2	-0.061129518
167	0x3c65a360	0.014016002
168	0x3cbc8802	0.023014072
169	0x3d056aed	0.032572675
170	0xbd2d33b0	-0.04228562
171	0x3dbca93d	0.09211967
172	0x3daf41c4	0.08557466
173	0x3d8e3a06	0.06944661
174	0x3dbe4e5d	0.0929229
175	0x3c725e80	0.014793038
176	0x3db60144	0.0888696
177	0x3d257fb3	0.040404987
178	0x3d880001	0.06640626
179	0x3ddd512c	0.10806498
180	0xbd22d2e6	-0.03975191
181	0xbd10499b	-0.035226446
182	0x3bde1089	0.0067768735
183	0xbc38652e	-0.011254592
184	0x3c244c7e	0.010028003
185	0xbbc24eb7	-0.0059297937
186	0x3d2f8a5a	0.04285655
187	0x3d7581dd	0.0599383
188	0xbce3f8aa	-0.027828533
189	0x3d4da0dd	0.05020224
190	0x3c0c9a3f	0.008581697
191	0xbda20a24	-0.079120904
192	0x3d3d83ea	0.04626838
193	0xbc093cc9	-0.008376309
194	0xbd750e82	-0.05982829
195	0xbbe3a84d	-0.0069475533
196	0xbccb2174	-0.024796225
197	0x3d8caab5	0.06868497
198	0x3d62edbe	0.05540251
199	0x3deb3318	0.11484355
200	0x3dbd1d60	0.092341185
201	0x3cef6bff	0.029226301
202	0x3d634b2b	0.055491608
203	0x3da3229d	0.07965586
204	0xbd4ade43	-0.04952837
205	0xbcc9f2bc	-0.024651878
206	0x3d2ed310	0.042681754
207	0xbcd4ca55	-0.025975386
208	0x3cd3ff28	0.025878504
209	0x3b97eb0e	0.004636175
210	0x3d4b064b	0.04956655
211	0x3bee9d33	0.007281923
212	0xbd62c94b	-0.05536775
213	0xbd945153	-0.07242074
214	0xbd81653f	-0.06318139
215	0xbd8edb65	-0.0697544
216	0x3c831db0	0.016005367
217	0x3d717a8b	0.058954757
218	0x3d33e58f	0.043920096
219	0xbcc54091	-0.02407864
220	0x3a606f37	0.0008561494
221	0xbd0419aa	-0.032251038
222	0x3bf81ddf	0.0075719203
223	0x3d182ebf	0.037153956
224	0x3c1e3b83	0.009657743
225	0xbcb3e1a3	-0.021958178
226	0x3c93c71c	0.018039279
227	0x3d18575f	0.0371927
228	0xbd1cedcf	-0.03831273
229	0xbd45010d	-0.048096705
230	0x3d38ba9a	0.045099832
231	0xbca816c0	-0.02051866
232	0xbcfaabae	-0.030599441
233	0x3d864de8	0.06557828
234	0xbc2a5866	-0.010397052
235	0xbc3efb04	-0.0116565265
236	0xbd54a73e	-0.051917307
237	0xbc29970e	-0.010350956
238	0xbd85155e	-0.06498216
239	0x3c74e9bb	0.014948304
240	0x3bc4bf3f	0.0060042436
241	0x3d69d77e	0.057090275
242	0x3b0a1cee	0.0021074372
243	0x3c329e30	0.010901973
244	0xbce17670	-0.027522296
245	0x3d019abb	0.031641703
246	0xbd80a1f2	-0.062808886
247	0x3c35aabe	0.011088071
248	0xbd01916a	-0.03163282
249	0xbd9da1c0	-0.07696867
250	0xbbedb7ee	-0.007254592
251	0xbdc5390b	-0.09630021
252	0x3bc8c540	0.0061270297
253	0xbb8dca66	-0.0043271063
254	0x3bc64d04	0.0060516614
255	0x3db6fe00	0.089351654

conv31.bias f4 [16]
0	0x3dd676ae	0.10471855
1	0x3ce2e625	0.027697632
2	0x3dbbd7b5	0.09172002
3	0xbc87569f	-0.016520796
4	0x3d8ac891	0.06776536
5	0x3cc11c7b	0.02357315
6	0x3d961251	0.07327712
7	0xbe45344f	-0.19258235
8	0xbe26a394	-0.16273338
9	0xbc930acb	-0.017949482
10	0x3dfbc020	0.12292504
11	0x3cdf36f9	0.027247893
12	0x3d5c1ad3	0.05373652
13	0xbc20350c	-0.009778272
14	0xbd6c3d2e	-0.057675533
15	0x3c19da54	0.009390432

up2.weight f4 [16, 8, 2, 2]
0	0xbe01c392	-0.1267226
1	0x3d443781	0.047904495
2	0xbcc68ead	-0.024237955
3	0xbd9360e2	-0.07196213
4	0x3daf7882	0.08567907
5	0x3db484ee	0.08814417
6	0xbe3b18a1	-0.18271114
7	0xbe37923d	-0.17926879
8	0x3e01850d	0.12648411
9	0xbd76318d	-0.06010585
10	0x3d0f5311	0.034991328
11	0xbc696e90	-0.014247552
12	0xbb63bdb9	-0.0034750535
13	0xbe08687e	-0.1332111
14	0xbc9cc427	-0.019136501
15	0xbdba4704	-0.090955764
16	0xbd58bf15	-0.052916605
17	0xbd659b1a	-0.05605612
18	0x3d669094	0.056290224
19	0x3e002c98	0.12517011
20	0x3d57e4b6	0.05270835
21	0x3a2410a7	0.0006258585
22	0x3e217526	0.15767345
23	0x3ded65de	0.11591695
24	0xbcd61ae3	-0.026135867
25	0xbe22e40c	-0.15907305
26	0x3d51e80e	0.051246695
27	0x3d5f5a69	0.05452958
28	0xbe0aecbd	-0.13566871
29	0xbe24e96f	-0.16104673
30	0x3c38a820	0.011270553
31	0x3deaffec	0.114745945
32	0xbe1b29f7	-0.15152727
33	0xbda84f80	-0.082182884
34	0xbd4d0527	-0.05005374
35	0xbe09bdca	-0.13451305
36	0xbdfdfc01	-0.124015816
37	0x3df57717	0.11985605
38	0x3e071720	0.13192415
39	0xbe16b939	-0.14719094
40	0x3caca310	0.021073848
41	0xbde597e3	-0.11210611
42	0x3ddb8219	0.107181735
43	0xbdd88313	-0.105718754
44	0xbdc1061b	-0.09424993
45	0xbdc623fb	-0.096748315
46	0x3c78da04	0.015188698
47	0x3dc956cf	0.098310106
48	0xbd88d132	-0.06680526
49	0x3d951743	0.072798274
50	0x3e2ef3e7	0.17085229
51	0x3be14ce1	0.0068756198
52	0x3cf21d2e	0.02955493
53	0x3d41f477	0.04735228
54	0x3c900008	0.01757814
55	0x3e060ecf	0.13091587
56	0x3dbb0e14	0.091335446
57	0xbdd93760	-0.10606265
58	0x3e1f165b	0.15535872
59	0x3dba5a63	0.09099271
60	0xbd13ef87	-0.036117103
61	0x3e11b9d8	0.1423105
62	0xbc5d4fd0	-0.013507798
63	0x3db2e6c4	0.08735421
64	0xbdfbaf6f	-0.12289321
65	0x3e38b18e	0.18036482
66	0x3e0350c5	0.1282378
67	0xbdf99075	-0.12185756
68	0xbe42c205	-0.19019325
69	0xbdb1059b	-0.08643647
70	0xbe12557c	-0.14290422
71	0xbb956380	-0.0045589805
72	0x3ddb5819	0.10710163
73	0x3d0f17ff	0.034934994
74	0x3e0a1081	0.13482858
75	0x3d50597e	0.050866596
76	0xbdbdc062	-0.0926521
77	0xbe452675	-0.19252951
78	0x3ce26d4e	0.027640011
79	0xbe5348b7	-0.20633207
80	0x3d037a16	0.032098852
81	0x3d8e3998	0.06944579
82	0xbda06e29	-0.078335114
83	0x3da37c23	0.079826616
84	0x3daf87f7	0.08570855
85	0x3e02f07f	0.12787054
86	0x3df4e16d	0.11957059
87	0xbe22ea7e	-0.15909764
88	0xbe084efc	-0.1331138
89	0xbdc1d0f2	-0.09463681
90	0xbe005b75	-0.12534888
91	0x3d41ce3c	0.04731582
92	0xbdda14e7	-0.10648518
93	0xbe1a21bd	-0.15051933
94	0x3d5fccc4	0.05463864
95	0x3d296d0f	0.041363772
96	0x3d6cc23b	0.05780242
97	0xbd1aba70	-0.037775457
98	0x3e01c638	0.1267327
99	0x3e17579d	0.14779516
100	0x3ea08fb4	0.31359637
101	0x3e2a2917	0.16617237
102	0x3e3b80bf	0.18310831
103	0xbd972fd9	-0.07382173
104	0x3dc70137	0.097170286
105	0xbe2b6df2	-0.1674116
106	0xbdfdf075	-0.12399379
107	0x3dda68eb	0.10664543
108	0x3cbc0eb3	0.022956228
109	0x3e8b6649	0.27226475
110	0xbe0e4f2e	-0.13897392
111	0x3e344876	0.17605767
112	0x3e4e4814	0.20144683
113	0xbc9842e8	-0.01858659
114	0x3e578072	0.21045092
115	0xbdd24602	-0.10267259
116	0x3de2417d	0.11047647
117	0x3d5b906b	0.053604525
118	0x3e38a4de	0.18031642
119	0xbd983ebc	-0.07433841
120	0x3e9b047b	0.30276856
121	0x3db66a69	0.08907015
122	0x3d16d472	0.036823697
123	0x3e12ecad	0.14348097
124	0xbe6c52d3	-0.2307847
125	0xbe26ca93	-0.16288213
126	0xbcdc5ab0	-0.026898712
127	0xbdd16f3e	-0.10226296
128	0x3cf11196	0.029427331
129	0xbd90deb3	-0.070737265
130	0xbe07dfd8	-0.13268983
131	0xbe5d32c6	-0.216014
132	0x3e35184c	0.1768505
133	0xbdef4d11	-0.11684621
134	0x3da27657	0.07932728
135	0x3e2f36e1	0.17110778
136	0x3e0790c3	0.13238816
137	0xbe188e7f	-0.14898108
138	0xbdd3e75d	-0.103468634
139	0xbe1e3839	-0.15451135
140	0x3e0f8589	0.14015783
141	0xbe0f46ce	-0.13991854
142	0xbdf94292	-0.121709004
143	0xbd99aaa7	-0.075032525
144	0x3df1703b	0.117889844
145	0x3de5cae7	0.11220341
146	0x3dd6a036	0.104797766
147	0x3e148443	0.14503579
148	0xbdbeda8b	-0.093190275
149	0xbdaefbd5	-0.08544127
150	0xbdeb7143	-0.11496212
151	0x3d9928da	0.07478495
152	0x3d947fef	0.07250964
153	0x3d6da6ba	0.05802033
154	0xbdfd464b	-0.12366923
155	0x3cfb0684	0.030642755
156	0xbdb60117	-0.088869266
157	0xbd3f2ebd	-0.046675432
158	0xbcbd8391	-0.023134025
159	0xbbe7bb3e	-0.0070718816
160	0xbe829ad9	-0.25508764
161	0xbc94b834	-0.018154241
162	0xbdfc68bf	-0.12324666
163	0xbd888ae3	-0.066671155
164	0x3e66e62e	0.22548744
165	0x3e0b0553	0.1357625
166	0x3e9ccc9b	0.30624852
167	0x3e62a3a3	0.22132735
168	0x3d00251a	0.031285383
169	0xbd799d7d	-0.06094121
170	0xbd7bd4b1	-0.061482135
171	0xbe2cfff5	-0.16894515
172	0x3da527d5	0.08064238
173	0x3e54f484	0.207964
174	0x3e9d2bcd	0.3069748
175	0x3e1feb47	0.15617095
176	0xbed09920	-0.40741825
177	0xbdee07ce	-0.116225824
178	0xbde59076	-0.11209194
179	0xbe6658b7	-0.2249478
180	0xbe33a147	-0.17541991
181	0xbe0e7045	-0.13910015
182	0xbe79fc7b	-0.2441272
183	0xbe1cc067	-0.1530777
184	0xbd7e88a7	-0.06214204
185	0xbd384e3c	-0.044996485
186	0x3e2a618e	0.16638777
187	0x3e35cd0f	0.17754005
188	0x3d9b15a2	0.075724855
189	0x3e4325be	0.19057366
190	0xbd5af74e	-0.053458504
191	0x3dc66278	0.0968675
192	0xbab8ed12	-0.0014108738
193	0xbe17e616	-0.14833865
194	0x3b923111	0.0044614156
195	0x3ce65997	0.028118892
196	0x3e1282ae	0.14307663
197	0x3e813089	0.25232342
198	0x3e42434c	0.18970984
199	0x3eb07b9a	0.344693
200	0xbd5b60e8	-0.053559214
201	0xbdedee08	-0.116176665
202	0xbd80c087	-0.06286722
203	0xbdb377b0	-0.08763063
204	0xbdda483e	-0.1065831
205	0x3e58a9e8	0.21158564
206	0xbde008c5	-0.10939173
207	0xbc170835	-0.009218265
208	0xbe301bd0	-0.1719811
209	0x3ccf4a6a	0.025304038
210	0xbd8d118b	-0.06888112
211	0xbd261929	-0.04055134
212	0x3e35af33	0.17742614
213	0x3e38838c	0.18018931
214	0x3dba2d18	0.09090632
215	0xbe07509d	-0.13214345
216	0x3e877e10	0.26463366
217	0xbc8617b2	-0.01636872
218	0x3e5618a2	0.20907834
219	0x3eacc714	0.33745635
220	0x3dcf923e	0.10135315
221	0xbd8f2256	-0.06988971
222	0xbe360abc	-0.17777532
223	0xbda41fbf	-0.080138676
224	0xbdd01cac	-0.10161719
225	0xbe899bbf	-0.26876637
226	0xbd20122b	-0.039079826
227	0xbe89ca17	-0.26911995
228	0x3dcaf31a	0.09909649
229	0x3dcfa77e	0.101393685
230	0x3e4ff615	0.20308717
231	0xbc8d88b1	-0.017277094
232	0xbe962d20	-0.29331303
233	0xbe297a23	-0.16550498
234	0xbea3bbbf	-0.31979176
235	0xbdde01f2	-0.10840215
236	0x3e567ed7	0.20946823
237	0xbd8e76f2	-0.06956281
238	0x3e3d54a2	0.18489316
239	0xbd607d35	-0.054806907
240	0xbe983284	-0.2972604
241	0xbea18bdd	-0.3155202
242	0xbe87494e	-0.26423115
243	0xbe9e5ca3	-0.3093005
244	0xbd9e4b92	-0.07729258
245	0xbc86816f	-0.01641914
246	0xbc6ea07c	-0.01456463
247	0xbd9184e3	-0.07105424
248	0x3e09bfda	0.13452092
249	0x3da2d827	0.07951384
250	0x3e676f2c	0.22601002
251	0xbd81c6eb	-0.06336769
252	0x3e29ac61	0.16569664
253	0xbcf7ad47	-0.030233992
254	0xb9bc9966	-0.00035972445
255	0x3e43d2d0	0.19123387

up2.bias f4 [8]
0	0x3c976702	0.018481735
1	0x3d181422	0.037128575
2	0x3c29493e	0.010332404
3	0x3dc93983	0.098254226
4	0x3dbb649f	0.09150051
5	0x3e5a8190	0.21338487
6	0x3ddddd3c	0.10833213
7	0xbe6949c1	-0.22782041

conv22.weight f4 [8, 8, 3, 3]
0	0xbdc38682	-0.0954714
1	0x3c8748a1	0.016514124
2	0x3cda8e5a	0.026679207
3	0xbdedcc3b	-0.116112195
4	0xbd8f9752	-0.07011284
5	0xbd2f74c5	-0.04283597
6	0x3dafd816	0.08586137
7	0x3d6bbce1	0.057553176
8	0x3a98f7d7	0.0011670542
9	0xbbfd4b9a	-0.0077299597
10	0xbd65d1ba	-0.056108214
11	0xbc600355	-0.013672669
12	0xbd4bb6c6	-0.049734853
13	0xbd561b15	-0.05227192
14	0xbdf149f0	-0.117816806
15	0xbdf72d75	-0.12069217
16	0xbdb4352b	-0.087992035
17	0xbd7524ad	-0.05984943
18	0xbd5abbbf	-0.053401705
19	0xbd883849	-0.066513605
20	0xbb7fe0b3	-0.0039043843
21	0x3c87c46a	0.01657315
22	0xbd9e344c	-0.077248186
23	0x3d876724	0.066114694
24	0xbe19299f	-0.14957283
25	0xbcc1b2d8	-0.02364485
26	0xbdaff66c	-0.08591923
27	0xbdd46fc0	-0.10372877
28	0x3bca890b	0.0061808876
29	0x3de4569d	0.11149333
30	0x3dc11f1d	0.094297625
31	0x3bf6f16d	0.0075361044
32	0x3dca6853	0.098831795
33	0xbd6bb7b6	-0.057548247
34	0x3db3246c	0.08747181
35	0x3db1a7af	0.08674561
36	0xbe243ec8	-0.16039574
37	0xbdb6a77a	-0.08918662
38	0xbd200e84	-0.039076343
39	0xbc9cb99d	-0.019131476
40	0xbde392c6	-0.11111979
41	0xbdb7307f	-0.08944797
42	0x3d0711e6	0.032976054
43	0xbc16df90	-0.009208575
44	0xbdacbb27	-0.08434134
45	0xbe00ea76	-0.1258944
46	0x3d0433fe	0.032276146
47	0xbe155c71	-0.14586045
48	0x3c0fe402	0.008782389
49	0xbcf2be44	-0.029631741
50	0xbd465591	-0.048421446
51	0x3cc23266	0.023705672
52	0xbdb82400	-0.089912415
53	0xbde1c333	-0.110235594
54	0x3d849519	0.064737506
55	0xbdd6a9a6	-0.104815766
56	0x3c2be6be	0.010492025
57	0xbd1c5edc	-0.038176402
58	0xbdc360b7	-0.09539931
59	0x3cf3e4f7	0.029772265
60	0x3c934c02	0.01798058
61	0xbdf32f9d	-0.11874316
62	0x3d9e3e94	0.077267796
63	0xbdadb071	-0.08480919
64	0x3dc1934e	0.09451924
65	0xbd9cf33f	-0.07663583
66	0x3d921375	0.071326174
67	0xbd4e67a1	-0.050391797
68	0xbd9a4962	-0.07533528
69	0x3c93cd0d	0.018042112
70	0xbd469049	-0.048477445
71	0xbe0ba091	-0.1363547
72	0x3cd7d8bd	0.026348466
73	0x3da35ba7	0.07976466
74	0xbdd1bc3e	-0.102409825
75	0x3da5cc77	0.08095639
76	0xbd21efc8	-0.039535314
77	0xbdcbd47c	-0.099526376
78	0xbd86a6d3	-0.06574788
79	0x3df0a8d1	0.11750949
80	0xbd9e7e14	-0.07738891
81	0x3d5b913f	0.053605314
82	0xbe30993c	-0.17245954
83	0xbd6fce21	-0.05854619
84	0xbd91758e	-0.071025
85	0x3dc92a60	0.098225355
86	0x3de9bc4c	0.11412868
87	0x3db9501b	0.09048482
88	0xbd844faf	-0.06460511
89	0xbe1836c9	-0.14864649
90	0xbc3a6066	-0.011375522
91	0xbdc92b93	-0.09822764
92	0x3e05dc09	0.13072218
93	0xbd3c4cf2	-0.04597182
94	0x3d53dcd3	0.051724266
95	0x3d0f34f5	0.034962613
96	0x3d9e7017	0.07736223
97	0xbde7877b	-0.11305138
98	0x3c174c95	0.009234567
99	0xbd517076	-0.05113264
100	0x3db3278a	0.08747776
101	0xbbb7f182	-0.005613507
102	0x3c7cfaa3	0.015440616
103	0x3dbe78da	0.09300394
104	0x3dbf8680	0.09351826
105	0x3d880529	0.06641609
106	0xbd27c70f	-0.04096132
107	0x3dce426c	0.10071263
108	0x3d016772	0.031592794
109	0xbc06c1e6	-0.00822494
110	0xbcfb92b9	-0.030709611
111	0xbddb4f81	-0.107085235
112	0x3c220a4a	0.009890148
113	0xbcad98c5	-0.02119101
114	0xbdf724be	-0.12067555
115	0xbcd36840	-0.025806546
116	0x3d03afd2	0.032150097
117	0xbd337276	-0.04381033
118	0xbca00d62	-0.019537631
119	0xbd60ed8f	-0.054914054
120	0xbd87f1e9	-0.066379376
121	0x3d7a8107	0.061158206
122	0xbd264f89	-0.040603194
123	0xbd999ae2	-0.07500245
124	0x3d7ee679	0.062231515
125	0xbe25e0cb	-0.16199033
126	0x3b8c7362	0.0042862156
127	0xbc0ebe74	-0.0087124
128	0x3ba2d41f	0.0049691345
129	0x3cf89ce0	0.030348241
130	0xbdb7b06a	-0.08969195
131	0xbd9aebb5	-0.07564489
132	0xbcd10ab7	-0.025517805
133	0x3df0b025	0.11752347
134	0x3e1a51d9	0.15070285
135	0xbdb7f267	-0.089817815
136	0x3cebe98a	0.028797884
137	0x3be73835	0.007056261
138	0x3ddcdfe4	0.10784891
139	0x3d934f58	0.07192868
140	0xbdcba6f7	-0.099439554
141	0x3de3ac25	0.11116818
142	0xbc06fb0c	-0.008238565
143	0xbca0fa22	-0.019650523
144	0xbcb7cecb	-0.022437474
145	0x3da4aaaf	0.08040368
146	0xbbafe983	-0.005368413
147	0xbe207a6d	-0.15671702
148	0xbdc1b1d4	-0.09457746
149	0x3da7876c	0.081801265
150	0xbdc91aaf	-0.098195426
151	0xbdaf4902	-0.08558847
152	0xbe04eb6e	-0.12980434
153	0xbd6feff1	-0.058578435
154	0xbd6fdd85	-0.058560867
155	0x3ce447ca	0.027866263
156	0x3d6ae3ae	0.05734604
157	0x3e05f90d	0.13083287
158	0x3ceda934	0.029011346
159	0x3cdc6a73	0.026906228
160	0x3da3f6bd	0.08006046
161	0x3d87efac	0.06637511
162	0xbdd95fea	-0.10613997
163	0x3c8bd953	0.017071402
164	0xbd9ac806	-0.07557683
165	0x3d37e364	0.04489459
166	0xbd8803fb	-0.06641384
167	0xbc677b12	-0.014128463
168	0xbd8602de	-0.065435156
169	0xbc544b82	-0.012957456
170	0x3be96338	0.0071224235
171	0xbd788519	-0.060673807
172	0x3d90198c	0.07036123
173	0x3dd13702	0.1021557
174	0xbc6476c6	-0.013944333
175	0xbda4459a	-0.08021088
176	0xbd3a3f0a	-0.045470275
177	0xba5e59ab	-0.00084819895
178	0x3d199da8	0.03750387
179	0x3d554599	0.052068327
180	0xbd69d20d	-0.057085086
181	0xbd455a44	-0.048181787
182	0x3ca097d7	0.019603653
183	0xbd256179	-0.04037616
184	0xbe091643	-0.13387398
185	0xbdc22d39	-0.09481282
186	0xbe18f41b	-0.14936869
187	0xbda3b58d	-0.079936124
188	0xbe4666ba	-0.19375125
189	0xbcaa620a	-0.020798702
190	0xbdc42d6d	-0.09578977
191	0x3b7d4a0a	0.0038648867
192	0x3c5e6b85	0.013575439
193	0xbdfb43c2	-0.12268783
194	0xbdbebe3f	-0.0931363
195	0xbe144a56	-0.14481482
196	0x3c94fd0b	0.018187067
197	0xbcacbe51	-0.021086844
198	0xbdae283d	-0.085037686
199	0x3d0af0b2	0.03392095
200	0x3d5d7401	0.054065708
201	0xbdbc657e	-0.091990456
202	0x3c683f69	0.014175274
203	0xbde0b567	-0.109721
204	0xbc11a3f2	-0.008889185
205	0x3d65df47	0.056121137
206	0xbaaeb52a	-0.0013329138
207	0xbda0aed4	-0.07845846
208	0x3d8f1ce5	0.06987933
209	0xbda21f34	-0.07916108
210	0x3c03aefd	0.008037326
211	0x3dae7155	0.0851771
212	0x3dc7e23a	0.09759946
213	0x3e073779	0.13204755
214	0xbce1d1de	-0.027565893
215	0x3d9de7ff	0.07710265
216	0xbde6b987	-0.11265855
217	0xbcf13bb4	-0.029447414
218	0xbd9330b5	-0.071870245
219	0xbc9a399e	-0.018826302
220	0xbe43aa3f	-0.19107912
221	0xbc1a6b40	-0.009424984
222	0x3c658bc9	0.014010378
223	0x3dd6ca10	0.10487759
224	0xbd76e3c1	-0.060275797
225	0x3df3c4cc	0.119027704
226	0xbdf23170	-0.11825836
227	0xbb4c5d5e	-0.003118358
228	0x3d216025	0.03939833
229	0x3c7c6f61	0.015407414
230	0x3d34a601	0.044103626
231	0xbd346928	-0.044045597
232	0x3d1ff4ab	0.039051693
233	0xbdbf069f	-0.09327435
234	0xbdd4505a	-0.10366888
235	0xbda6e459	-0.081490226
236	0xbdb38b33	-0.087667845
237	0xbe2e9d37	-0.1705216
238	0xbd90eb07	-0.07076078
239	0x3d71125f	0.05885541
240	0xbd42c1ac	-0.04754798
241	0xbdd5d5b1	-0.10441149
242	0xbc5b97e9	-0.013402917
243	0xbd4ae057	-0.049530353
244	0xbd053ba2	-0.032527573
245	0xbd3b4a15	-0.045724947
246	0xbd67cdc0	-0.056592703
247	0x3db9e9ec	0.0907782
248	0xbc223966	-0.00990138
249	0x3be03a7c	0.0068429094
250	0xbce758ea	-0.02824064
251	0x3d39e5d5	0.0453852
252	0xbd825a71	-0.063649066
253	0xbdd4e10b	-0.10394486
254	0x3bd23ed2	0.00641618
255	0x3d4214d5	0.04738315

conv22.bias f4 [8]
0	0xbd994696	-0.07484166
1	0xbe04777b	-0.12936203
2	0xbd3b97c6	-0.04579904
3	0xbd981121	-0.07425142
4	0x3c6afa8d	0.0143419625
5	0x3c690c15	0.014224072
6	0xbdafa418	-0.0857622
7	0x3b498e94	0.003075515

up1.weight f4 [8, 4, 2, 2]
0	0x3dbfead8	0.09370965
1	0x3e41ede1	0.189384
2	0xbe2c322a	-0.16816011
3	0xbe28ad50	-0.16472363
4	0xbe4e0817	-0.20120274
5	0x3d893933	0.06700363
6	0x3e3bf454	0.18354923
7	0xbe500384	-0.20313841
8	0x3c392942	0.011301341
9	0x3d1a6d6d	0.037702013
10	0xbe0a4584	-0.1350308
11	0xbcb1a042	-0.021682862
12	0x3e4cdcd4	0.20006114
13	0x3e556f0b	0.20843141
14	0x3dbf629c	0.0934498
15	0xbdbf4d8d	-0.093409635
16	0xbd89f42d	-0.06736026
17	0x3c9937e1	0.018703403
18	0x3d9b4fb4	0.075835615
19	0x3d4217ab	0.047385853
20	0x3e1b6a63	0.15177302
21	0xbe85799b	-0.2606934
22	0xbd1f6cfb	-0.03892229
23	0xbe097484	-0.13423353
24	0xbcd1f56b	-0.02562972
25	0x3e205a31	0.15659405
26	0xbd15c390	-0.036563456
27	0xbdf5093d	-0.11964653
28	0xbe3dfcaf	-0.18553422
29	0xbea6ff10	-0.32616472
30	0xbe9e0e57	-0.30870315
31	0x3c70099f	0.014650731
32	0xbe079569	-0.13240589
33	0x3e665791	0.22494341
34	0xbcd0c948	-0.025486603
35	0x3dbad3d4	0.09122434
36	0x3e3fde94	0.1873725
37	0x3c844d9b	0.016150286
38	0x3d9790ac	0.07400641
39	0x3e4032c6	0.18769369
40	0xbe07e447	-0.13270675
41	0x3d9af132	0.075655356
42	0xbe9bebb3	-0.30453262
43	0x3dd925b2	0.10602893
44	0xbd920dcf	-0.0713154
45	0x3bac257a	0.005253491
46	0x3e2e0c1c	0.16996807
47	0x3d0f806f	0.035034593
48	0x3e72040c	0.23634356
49	0x3acf84a2	0.0015832374
50	0xbda93557	-0.08262127
51	0x3e2b85f0	0.16750312
52	0xbe269dc9	-0.16271128
53	0x3e0415ed	0.12898989
54	0x3e52b25b	0.2057585
55	0x3e0803fa	0.13282767
56	0xbe0dbb9d	-0.138411
57	0xbd87e407	-0.0663529
58	0xbe2394d3	-0.1597474
59	0xbe351480	-0.17683601
60	0xbd7caf7f	-0.061690804
61	0xbe27c579	-0.16383924
62	0x3e04de34	0.12975389
63	0x3e0473ce	0.12934801
64	0xbbf3304f	-0.0074215303
65	0x3b3188ba	0.0027089552
66	0x3e720484	0.23634535
67	0xbcac4fa0	-0.021034062
68	0x3e36811b	0.17822687
69	0x3e3bd3a7	0.18342458
70	0xbdf31f4d	-0.118712045
71	0xbe9362ea	-0.28786403
72	0x3e315326	0.17316875
73	0xbe30424f	-0.17212795
74	0x3e578f6e	0.21050808
75	0xbe496d72	-0.19670656
76	0xbae5e188	-0.0017538527
77	0xbb467983	-0.003028483
78	0xbda85052	-0.08218445
79	0x3e094a70	0.13407302
80	0xbe7d0946	-0.24710569
81	0xbdb2eaf0	-0.08736217
82	0xbd9862bb	-0.07440706
83	0x3e069759	0.13143672
84	0x3e526c04	0.20549017
85	0x3e813f0e	0.2524342
86	0x3e4da73e	0.20083329
87	0x3e9f3d5d	0.31101504
88	0x3d041459	0.032245968
89	0xbbb99cf2	-0.0056644613
90	0x3d78e5b6	0.060765944
91	0x3e2eed51	0.17082717
92	0x3d83cbb5	0.064353384
93	0x3e1ca735	0.1529816
94	0x3e10cd0b	0.14140718
95	0x3e55dc41	0.20884801
96	0x3e89df98	0.269284
97	0x3e010efd	0.12603374
98	0x3e5f9c39	0.21836938
99	0xbd3c3b89	-0.045955215
100	0xbe8cf36d	-0.2752947
101	0x3de8a14e	0.113588914
102	0xbc017406	-0.007901197
103	0x3de9ca1b	0.11415502
104	0x3d0bd749	0.03414086
105	0xbd0f045b	-0.034916263
106	0xbe91a94d	-0.2844948
107	0xbeae8a6d	-0.34089985
108	0x3c94f0c1	0.018181207
109	0x3e0f039e	0.13966224
110	0xbdff82b0	-0.124760985
111	0xbe13a766	-0.14419326
112	0x3e7767fb	0.24160759
113	0x3b2249c6	0.002476321
114	0x3dd3cdff	0.10342025
115	0xbe1c1591	-0.15242602
116	0xbec1f07f	-0.37878796
117	0xbe89219c	-0.26783454
118	0xbe501617	-0.20320927
119	0xbd07eef1	-0.033186857
120	0xbd786156	-0.0606397
121	0xbeae7afb	-0.34078202
122	0xbe2e1554	-0.17000324
123	0xbda76314	-0.081731945
124	0xbe51c28f	-0.20484374
125	0xbe08f03f	-0.13372897
126	0xbd793505	-0.06084158
127	0xbe650623	-0.22365622

up1.bias f4 [4]
0	0x3e561fb5	0.20910533
1	0x3e85b536	0.26114815
2	0x3deb4178	0.114870965
3	0x3d0f7b5d	0.035029758

conv13.weight f4 [2, 4, 3, 3]
0	0xbdc623b2	-0.09674777
1	0xbdef878c	-0.116957754
2	0xbc81d60c	-0.015849136
3	0x3cc9f4b1	0.02465281
4	0x3d80cc2f	0.06288945
5	0xbd2aa64b	-0.041662496
6	0x3de47fd2	0.11157192
7	0xbd9a185c	-0.075241774
8	0x3bdb8642	0.0066993544
9	0xbda16ffd	-0.07882688
10	0x3d34a1e7	0.044099715
11	0x3dfda7c3	0.12385514
12	0x3d8d10ed	0.06887994
13	0x3cb3b7d6	0.021938246
14	0xbd8f0736	-0.06983797
15	0xbdf7bcc9	-0.12096555
16	0xbdc61757	-0.096724205
17	0xbe164cbb	-0.14677708
18	0x3e04f9cb	0.12985913
19	0xbd2c21bf	-0.04202437
20	0xbca819c5	-0.0205201
21	0xbdf6ad06	-0.1204472
22	0xbd13df66	-0.03610172
23	0x3e10d612	0.14144161
24	0x3d8597c2	0.06523086
25	0x3b64e2e5	0.0034925279
26	0x3dc01319	0.093786426
27	0x3e0447e4	0.12918049
28	0x3df74a3d	0.12074707
29	0xbdf4b98e	-0.11949454
30	0xb9ad489d	-0.00033051232
31	0xbe15dc52	-0.14634827
32	0xbdffc8d3	-0.12489476
33	0x3df72c0d	0.12068949
34	0xbdf0914a	-0.11746462
35	0xbd855013	-0.065094136
36	0xbd4a4772	-0.04938454
37	0xbd0dfb46	-0.03466346
38	0xbeb8b5a7	-0.3607609
39	0xbe3aa2c2	-0.1822615
40	0xbdb5d0a2	-0.08877684
41	0x3c921733	0.017833328
42	0xbd1b25a0	-0.03787768
43	0xbd7bb30e	-0.061450057
44	0xbd9858ac	-0.07438788
45	0xbb02c53f	-0.0019953994
46	0x3e1790b4	0.14801294
47	0x3c8a38b1	0.016872736
48	0x3d56e9fa	0.05246923
49	0xbc8dccda	-0.017309595
50	0x3db70330	0.08936155
51	0x3de4bd5d	0.11168931
52	0x3c07d83d	0.008291301
53	0x3e2c6fe9	0.16839565
54	0xbb39bdd7	-0.0028341913
55	0x3d7c698d	0.0616241
56	0x3e2b67e1	0.16738845
57	0x3dfc3586	0.12314896
58	0xbd3951e5	-0.045244116
59	0xbd89c9bf	-0.06727933
60	0x3d82510c	0.06363115
61	0x3c3f3abd	0.011671719
62	0x3ca0944a	0.01960196
63	0x3e64223d	0.22278686
64	0x3e45b2e3	0.19306521
65	0x3c9a229b	0.01881533
66	0xbafd9e21	-0.0019349494
67	0x3e8d2c18	0.27572703
68	0x3de070fa	0.109590486
69	0x3d020c6d	0.03175013
70	0xbbb0275d	-0.005375786
71	0x3e8043aa	0.25051624

conv13.bias f4 [2]
0	0x3d87c110	0.066286206
1	0xbd89ef26	-0.06735067

conv14.weight f4 [2, 2, 3, 3]
0	0xbe876a1e	-0.26448148
1	0x3e0cb8a0	0.13742304
2	0x3cb7d55f	0.02244061
3	0xbdc93496	-0.09824483
4	0xbe7890fb	-0.24274056
5	0x3d7c8aff	0.061655995
6	0xbe35f735	-0.17770083
7	0x3d4ce7e6	0.050025843
8	0xbe88f1a4	-0.26746857
9	0xbe81558f	-0.2526059
10	0xbe8f6d32	-0.28012997
11	0x3e1362a8	0.14393103
12	0x3e26ffdc	0.1630854
13	0xbe7e779c	-0.24850315
14	0x3de7d2d2	0.11319508
15	0xbe40b33f	-0.18818377
16	0xbe8a6f6d	-0.27038136
17	0x3d4ec8c1	0.050484423
18	0x3d5ec205	0.05438425
19	0x3d7fcccf	0.06245118
20	0xbc9b5e2e	-0.018965807
21	0x3e23c5b7	0.15993391
22	0xbe6b1936	-0.22958836
23	0x3d720564	0.059087172
24	0xbdf8b716	-0.12144296
25	0xbd290bf1	-0.041271154
26	0x3db04ca5	0.08608369
27	0xbe0499b8	-0.12949264
28	0x3e11c964	0.1423698
29	0xbbef392b	-0.007300516
30	0x3e41ecc9	0.18937983
31	0x3d097ad0	0.03356439
32	0x3e1f044f	0.15528987
33	0x3e86ae87	0.2630503
34	0xbd39aed2	-0.045332737
35	0xbe442e69	-0.19158329

conv14.bias f4 [2]
0	0x3e3d30f1	0.18475701
1	0xbdfae83b	-0.12251326

conv15.weight f4 [1, 2, 3, 3]
0	0x3a627adc	0.00086395233
1	0x3dbeb439	0.093117185
2	0xbdc53920	-0.09630036
3	0x3d82edd2	0.06393017
4	0x3d3f2932	0.046670146
5	0xbdedcf5e	-0.11611818
6	0x3c519789	0.012792476
7	0xbd507522	-0.050892957
8	0x3e05b615	0.1305774
9	0x3e4ec416	0.20191988
10	0xbded1ed5	-0.11578146
11	0x3d769f00	0.060210228
12	0x3e26a12d	0.16272421
13	0x3e56cccd	0.20976563
14	0x3ded4c5b	0.11586829
15	0x3e0ad1d2	0.13556603
16	0xbbbbb132	-0.0057279104
17	0x3d340193	0.043946814
