output/yhy_blur_e/train/model/stn_50.pt (torch_old, 658934 bytes, 14 tensors)

conv1.weight f4 [8, 2, 5, 5]
000000 01 7c bc 3d d1 10 b0 3d 97 8f d9 bd 00 3d 1a be
       0.09203339 0.085969575 -0.10623091 -0.15062332
000010 ae c0 98 3d e8 96 15 be a8 b6 88 3d c7 57 26 be
       0.07458626 -0.14608347 0.06675464 -0.16244422
000020 16 34 ce bd 83 62 b8 bd 68 d3 e6 3d 35 28 35 bd
       -0.10068528 -0.090031646 0.11270791 -0.044227798
000030 3b 55 c8 3d ec 77 84 3c c1 e3 db 3d 1c 1f 9e 3d
       0.097818814 0.016170464 0.107368 0.077207774
000040 d2 b9 ad 3d a1 52 d2 3d fe df 83 bd e4 cd 80 bd
       0.08482708 0.102696665 -0.064392075 -0.062892705
000050 12 91 f8 3c 7d 83 dd 3d b4 30 90 bd ff 06 05 be
       0.030342612 0.10816095 -0.070405394 -0.1299095
000060 a5 e7 08 be cb 84 a4 bd 47 c2 c4 3b 75 a4 0d bd
       -0.13369615 -0.08033141 0.006004605 -0.034580667
000070 00 2d 5f bd ce 82 a6 bd 2e 74 ba 3c a3 96 06 be
       -0.054486275 -0.08130418 0.022760477 -0.13143401
000080 be 20 fa 3d 8c 7b 17 bd 15 a4 50 3c 3d 8e 0c 3d
       0.12213276 -0.036983058 0.012734433 0.034315336
000090 93 58 8a bd ae 5b c6 3d 4b 24 69 bc c6 f1 6b b9
       -0.067551754 0.09685455 -0.014229844 -0.00022501414
0000a0 0f 62 14 be 01 ad cc 3b c5 d2 11 3d cc 3d 0a 3c
       -0.14490531 0.0062462096 0.035601396 0.008437585
0000b0 41 cc c0 bc b5 69 c8 3d 61 67 d1 3d 2b 0c b1 3d
       -0.023534896 0.09785787 0.10224796 0.08644899
0000c0 f9 fb 08 bd 87 bd 72 3c c7 de f0 bd 1a 0c 00 be
       -0.033443425 0.014815695 -0.117612414 -0.12504616
0000d0 b6 b5 35 bd 6f 1a 6e bb f5 fb cd bd 78 8e 08 be
       -0.044362746 -0.0036331674 -0.100578226 -0.13335598
0000e0 59 78 42 3d a6 b3 0e 3d 2c 98 e6 bd b2 1c 9e 3d
       0.047478054 0.034839295 -0.11259493 0.07720317
0000f0 3e 8d f2 bd 92 df be 3d 08 4b 73 3d 4c 24 84 bd
       -0.11843346 0.093199864 0.059397727 -0.064522356
000100 97 aa f2 3d 2b 2d bf bd 65 b8 a0 bd ce 17 c9 3d
       0.11848944 -0.09334787 -0.078476705 0.098189935
000110 7a 1f 5b bd 2a 2c 98 bd 31 f5 fe 3b 7e 58 19 bd
       -0.053496815 -0.074302986 0.007780694 -0.03743791
000120 57 18 97 3d d1 85 cc 3d aa d3 3b 3d b6 1f 42 3c
       0.07377689 0.09986461 0.045856155 0.011848381
000130 c4 cb 80 3c 89 15 ab bc c8 5e 25 bc 06 e1 eb bc
       0.015722163 -0.020884292 -0.010093398 -0.028793823
000140 f8 4e 9b 3d d3 95 68 3d 93 bc 28 bd 31 4c c3 3c
       0.075834215 0.05678351 -0.041195463 0.023840042
000150 f8 bd d9 bc 46 6b ca 3c b9 98 b9 3d f3 65 02 be
       -0.026579842 0.024709355 0.09062333 -0.12734203
000160 3e 3e 4c bc ef ea 87 bd 28 7b 2c be cb 65 2c be
       -0.012466012 -0.06636607 -0.16843855 -0.16835706
000170 00 83 56 bd 50 f3 85 3d 37 8c 07 be 56 57 70 3c
       -0.052371025 0.06540549 -0.13237081 0.01466926
000180 fe bb 49 3d 6b d3 0e be d1 93 bc 3c 9a 67 62 bc
       0.04925155 -0.13947837 0.023019703 -0.013818646
000190 74 fd 1c be 70 5d f1 bc 21 68 26 be b9 09 bc 3d
       -0.1533106 -0.0294635 -0.1625066 0.09181542
0001a0 a8 af 06 3d 7e bf f2 3c b0 f5 a6 3d 51 af 9f 3d
       0.032882363 0.029632326 0.0815233 0.07797111
0001b0 2d 04 dd 3d c4 03 ca 3c 44 23 03 be 7e a2 d2 3d
       0.10791812 0.024659999 -0.12806422 0.10284899
0001c0 0f d9 ef 3b 3c ca b7 bd 26 81 b4 bd 13 a7 d8 3d
       0.0073195766 -0.0897412 -0.088136956 0.10578742
0001d0 7e 22 0e 3b 7f 83 90 3d 15 4b c0 bc ad 14 c2 3d
       0.002168804 0.07056331 -0.023473302 0.094766
0001e0 fe 0a 07 be 99 5b 34 3b 53 62 1a ba 5f 5a 1a bd
       -0.13187787 0.0027520417 -0.0005889285 -0.03768384
0001f0 b8 ef b4 3d 21 0b 0c 3c f1 41 5a bc ae d7 96 3d
       0.08834785 0.008547575 -0.013321386 0.073653564
000200 29 66 10 bd 1a e3 0e bd a0 29 0b be 03 5c b4 bc
       -0.035253678 -0.03488455 -0.13590097 -0.02201653
000210 56 ef b5 bd e7 46 6a 3d 1c 1f c7 3d 01 2c 1c be
       -0.0888354 0.057196524 0.097227305 -0.15251161
000220 1c 7c d4 bd 75 97 e5 3d e1 aa af bd 61 11 ca 3d
       -0.103752345 0.11210529 -0.085775144 0.09866596
000230 14 3e f3 3d 23 ac 6b bd 62 39 0d be e9 5d 39 3d
       0.11877075 -0.05753721 -0.13791421 0.045255575
000240 24 46 19 3d ed cb cf 3d 46 5c 0a bb 37 63 56 3d
       0.037420407 0.10146318 -0.0021112128 0.052340712
000250 e7 90 16 be a9 ad 03 bc 03 08 dc 3c 57 2b a9 3d
       -0.14703713 -0.008037009 0.026859289 0.082602195
000260 7c 56 a6 bd 4f c5 ac bc a1 de b2 bd 37 5d cf bd
       -0.08121964 -0.021090178 -0.08733869 -0.10125201
000270 0f ea 59 3d 0b 4e 85 3c dc c5 55 3d 31 64 cf bb
       0.05320173 0.016272565 0.052190647 -0.0063290824
000280 11 c9 17 bc 93 4a 36 bc e0 4d 91 3d fb 7a d1 bd
       -0.009264247 -0.011126178 0.070949316 -0.10228535
000290 38 c8 dc 3c 79 b4 92 3d a7 ca 9b 3d e1 82 97 bd
       0.02695094 0.07163329 0.07607012 -0.0739801
0002a0 aa 4e d6 3d 45 d9 c9 bd c0 ea 89 3d fd 3a df 3d
       0.10464223 -0.09855894 0.06734228 0.10899923
0002b0 5e af 1c bb 28 89 18 3d dd c4 0e be a6 26 a1 bd
       -0.0023908238 0.037240177 -0.13942285 -0.078687
0002c0 2e 12 a2 bd 2f 86 22 be 64 ec 74 bd 3f 4b 86 3d
       -0.07913624 -0.158715 -0.059795752 0.06557321
0002d0 83 bf 1b bd d9 3f e7 3d ed f0 20 be 88 c5 b8 3c
       -0.038024437 0.11291475 -0.15716906 0.022555128
0002e0 97 c2 ad 3d ee ed e0 3d 25 51 ab bd 1a 9f 25 be
       0.08484381 0.109828815 -0.083650865 -0.16173974
0002f0 0e f4 b7 bd e0 46 80 3d 76 df 8a bc 13 ba d1 3d
       -0.089820966 0.06263518 -0.016952258 0.10240569
000300 6a 57 10 be f4 42 06 be 19 d9 c9 3c f3 3c 82 3c
       -0.14095846 -0.13111478 0.024639653 0.015898203
000310 59 84 01 be ad f9 b7 3d 79 ef cf bd 74 b4 2d be
       -0.12648143 0.08983169 -0.10153098 -0.16963369
000320 27 cd 2c 3c a0 41 ce bd 23 58 a0 bd 35 34 a5 bd
       0.010546959 -0.10071111 -0.07829311 -0.08066598
000330 98 8b 2d 3d 91 66 31 3d ec 29 a5 3d 1b db b0 bd
       0.042369455 0.043310706 0.080646366 -0.08635541
000340 dc 24 03 bd 02 eb 0c 3e e4 b5 b8 bd 2b 2b 7a bd
       -0.032017574 0.13761523 -0.09019068 -0.061076324
000350 a6 a5 f5 bc f2 70 fc bd e5 89 ca bd dd de e9 3d
       -0.029986214 -0.1232623 -0.098895825 0.11419461
000360 5c 0d aa 3c d6 59 da 3c 23 9d 73 3d b3 25 bd 3d
       0.020758323 0.026654165 0.05947603 0.09235706
000370 2b 44 b3 3d 43 75 ca 3d 82 63 72 3d 58 e1 e2 3d
       0.087532364 0.09885647 0.05917693 0.11078137
000380 d6 f0 c9 3d 59 2a 92 bd ad ed 0b bd 2f 51 e9 bd
       0.09860389 -0.071369834 -0.034162212 -0.11392438
000390 82 f0 18 be bf b3 ab 3d e8 9e 1f be 4a 02 10 be
       -0.14935496 0.08383893 -0.15587962 -0.14063373
0003a0 0f ae 3d be bb 72 1d be a3 a4 34 bc 42 d4 ba 3c
       -0.1852343 -0.15375797 -0.011025581 0.02280629
0003b0 52 09 22 be 87 f5 d4 bc 05 9d 13 be 0e e2 51 bc
       -0.15823868 -0.025995983 -0.14415367 -0.012810243
0003c0 18 94 81 3d f2 76 91 bd 9e e2 9f bd 6d 33 8d 3d
       0.06327075 -0.07102765 -0.07806896 0.06894574
0003d0 e0 2e f3 bd 41 c4 36 bd a3 78 05 be 11 a1 b2 3d
       -0.11874175 -0.044620756 -0.130343 0.08722127
0003e0 67 9a f7 3c 10 91 98 bd d4 2e b2 3d fe ce f6 3d
       0.030224992 -0.074495435 0.08700338 0.120511994
0003f0 1b 1a 38 3d e4 f8 e5 bd 78 d8 2e bd a4 46 cf 3d
       0.04494677 -0.11229113 -0.04268691 0.101208955

conv1.bias f4 [8]
000000 16 e9 60 3d 63 5f a5 3c 6e e4 7f bd f5 a8 88 bc
       0.054909788 0.020187085 -0.062473707 -0.016682127
000010 7d da ca bd b7 30 c8 3d 54 7e ef 3d 2d c0 fd bd
       -0.099049546 0.097749166 0.11694017 -0.1239017

conv2.weight f4 [16, 8, 5, 5]
000000 28 1f a7 bd a5 60 a0 bd 4e 76 bd bc d0 de 3b bc
       -0.081602395 -0.078309335 -0.023127701 -0.011466697
000010 31 4b 72 bd 72 ac c6 3c 8a 04 ff bb 68 e9 41 bd
       -0.05915374 0.02425215 -0.0077825235 -0.047341734
000020 f6 cb a2 bd a8 6c 2d 3d 28 d9 65 3d d1 b2 aa bb
       -0.07949059 0.04233995 0.0561153 -0.005209305
000030 9e ff 35 bd 69 4e 0f 3d 6c ce f3 3c eb f9 bd bc
       -0.04443323 0.034986887 0.029761516 -0.02319046
000040 16 79 61 3d 6a 38 7d bd 7d d0 89 bc fb 4b 49 3d
       0.055047117 -0.06182138 -0.016823048 0.049144726
000050 97 09 67 bd ce b8 06 bd 15 41 22 bd 43 85 17 bd
       -0.05640563 -0.032891087 -0.03961285 -0.036992323
000060 49 74 56 3d 7c f2 65 3d 84 a6 5b bd 65 b5 14 bd
       0.052356992 0.056139454 -0.0536256 -0.036305804
000070 d0 47 88 3b 17 ae 95 bc 51 76 f0 bc dc 14 7c bd
       0.0041589513 -0.01827149 -0.029353293 -0.06154333
000080 85 83 69 3d 79 01 30 3d 49 57 ba 3c 5b 90 1a bc
       0.057010192 0.042970154 0.022746699 -0.009433831
000090 b5 c6 81 bd e2 6e e3 ba ad fa e5 3c d1 3f ac bc
       -0.063367285 -0.0017351771 0.028073633 -0.021026524
0000a0 ec 20 72 3d 2f 49 97 3c 13 19 59 bb d1 27 db 3c
       0.059113428 0.018467514 -0.0033126518 0.026752384
0000b0 17 d8 0c 3d 95 bb 4d bd 95 16 b6 3c a2 cc 86 bd
       0.034385767 -0.05022772 0.022227565 -0.06581999
0000c0 38 11 91 bc 73 65 de bc f8 80 32 3d 91 c9 9f bd
       -0.017708406 -0.027147984 0.043580025 -0.078021176
0000d0 4c 22 57 3c da 56 a1 bd 14 f2 74 3c 71 8f fb 3b
       0.013130736 -0.07877894 0.014950294 0.0076770117
0000e0 38 a9 18 bd 3a a2 1a 3c 39 46 5c 3d cb b1 e2 3c
       -0.037270755 0.009438092 0.053777907 0.027672669
0000f0 8e 73 97 bd df 82 e1 bc d4 de 58 3d d2 a3 29 bb
       -0.07395087 -0.027528225 0.05294688 -0.0025884998
000100 4b cc d0 bb cd a8 8d bb 60 43 0b bd 44 bc ee bc
       -0.00637201 -0.004323101 -0.0339998 -0.029142506
000110 9b ed 08 bc 28 1b 1e 3d d9 da f0 bc ac 1c e1 bc
       -0.008357431 0.038600117 -0.02940123 -0.027479492
000120 94 ac 50 3b f9 6c 1c bd 7e 8a 42 3d 2a 60 63 3d
       0.0031841146 -0.038189862 0.047495358 0.05551163
000130 c1 db 27 3b 27 33 32 bd 3f d5 ac 3c cc 1f 78 3d
       0.0025613161 -0.043505814 0.021097777 0.0605772
000140 d9 2b c2 3c 84 90 ee 3c d0 9e 11 bd c9 19 8b bd
       0.023702549 0.029121645 -0.035551846 -0.067920275
000150 74 e8 cb bc c8 be 33 39 21 49 7a 3d d3 fa 81 3c
       -0.024891116 0.00017141842 0.061104897 0.015866673
000160 30 83 42 bc 75 db 85 bc 64 d9 a2 bc 1a 2d 2e bd
       -0.011872098 -0.016339997 -0.01987905 -0.04252348
000170 b1 b5 fc bc 4f fe 42 3c 50 c8 40 3d ba 99 48 3d
       -0.030848356 0.011901452 0.047066033 0.04897473
000180 5f 9a a0 3c c6 9a 57 bd 0f 2b 7b 3d 41 95 83 3d
       0.01960486 -0.052637838 0.06132036 0.06424952
000190 fb 37 5c 3b 1e fb e8 3c 4c e7 bc 3d 20 29 00 3c
       0.0033602703 0.028440055 0.09223804 0.007822305
0001a0 8d 0d 95 3d 7e 3e 06 3d 21 36 82 3d 1a 6b 53 3d
       0.07277975 0.03277444 0.063579805 0.051615812
0001b0 fc 54 cd 3d 82 81 c0 3d 8e 2e ee bc fb 69 84 3d
       0.10025975 0.09399702 -0.029074933 0.06465527
0001c0 44 01 2f 3c fb d1 20 bc 4c 32 35 3d 9f cf 45 3b
       0.010681454 -0.009815688 0.04423742 0.0030183566
0001d0 b8 1c f9 bc a5 98 34 bd 40 e0 98 bc 4d 4c 0d 3d
       -0.030409202 -0.044090886 -0.018661618 0.034496594
0001e0 17 d4 39 3d a2 dd 41 3d 3e 6e da 3c 4d b0 99 3d
       0.04536828 0.047330506 0.026663896 0.0750433
0001f0 29 82 68 bd 34 ea 24 bd 8c a1 08 3d ee 46 77 bd
       -0.056764755 -0.040262416 0.033357188 -0.06037038
000200 c9 0c 93 3d aa 41 7b 3c e5 c5 b3 bc e5 5c 88 3d
       0.07180173 0.01533548 -0.02194495 0.06658343
000210 32 3e 1a 3d 7f 10 86 3d 4a c4 75 3d 1e 92 18 bc
       0.03765697 0.06546115 0.06000165 -0.009312181
000220 b1 bf 89 3d 3d e6 60 3c b8 e4 53 3c 26 05 01 3d
       0.06726015 0.013726768 0.012932949 0.03149905
000230 3d 5c 61 bd e3 25 28 bd 64 f4 8e 3d c5 86 29 bd
       -0.055019606 -0.041051757 0.069802076 -0.041388292
000240 3a 0f 33 3d 47 84 1f 3d 9e e8 72 bd d5 1a ff bb
       0.043715693 0.03894451 -0.059303872 -0.007785181
000250 c8 bf e7 3a bd cc 62 3d 55 bb a1 bc cd 23 80 3d
       0.0017681057 0.055371035 -0.019742647 0.062568285
000260 0c 74 87 bd 8c e9 86 3c 65 9e ba 3c 63 a0 d5 bc
       -0.06613931 0.016468786 0.022780607 -0.026077455
000270 06 b9 cb bc f6 91 54 bd 1a f1 c0 3b 48 07 05 3c
       -0.0248685 -0.05189701 0.0058881165 0.008119412
000280 82 4d d4 bc fb 9c 61 3d 1b bf 91 bc 55 1b c4 bc
       -0.025915865 0.05508135 -0.017791322 -0.023938814
000290 c5 09 22 3d 56 2e 2c 3c 9e 3b 0f 3d d9 e3 0c 3d
       0.0395601 0.010509094 0.034968965 0.03439698
0002a0 28 11 74 bd 13 c0 87 bc ed f9 72 3d 4d be 42 bd
       -0.059586674 -0.01657108 0.05932038 -0.047544766
0002b0 d7 52 bf 3a 2d 83 1d 3d fd 34 0f bc 30 9f b0 ba
       0.0014596832 0.038455177 -0.008740661 -0.0013475176
0002c0 1b 28 1e 3d 13 5d 41 bd b4 6b 8a 3d 26 88 77 3d
       0.038612466 -0.047207903 0.06758824 0.060432576
0002d0 53 f2 96 bb 79 e6 30 bc e3 43 87 ba 3f e6 a1 3d
       -0.004606524 -0.010797136 -0.0010319914 0.07905244
0002e0 ec b8 b9 bc ee 9d 14 3d 89 9a 55 bd 4d ed 0b 3d
       -0.022671185 0.036283426 -0.05214933 0.034161855
0002f0 d9 c1 4e 3d a9 eb ee 3c 9c 9b 17 3c dc 0f 95 3c
       0.050477836 0.029165106 0.009253409 0.018196039
000300 01 61 94 3d 66 99 18 3d d2 a3 24 bc e3 7d 41 bd
       0.072450645 0.037255667 -0.010048823 -0.047239196
000310 af fd 7d 3d 1c 6e 8d bc be ab 46 3d 59 44 28 bc
       0.06200951 -0.017264418 0.04850363 -0.010270202
000320 6d bb 7a bc 51 1a 97 bd 02 e0 07 bd cc 9f 5f ba
       -0.015303475 -0.07378066 -0.033172615 -0.00085305865
000330 34 e2 a7 bd e7 c7 d8 bc ad 7a e2 3c 6c e3 3a 3d
       -0.08197442 -0.026462508 0.027646387 0.045627043
000340 91 70 42 3d b3 3b 04 bd ba 8f 6c bb 32 01 8a bd
       0.047470633 -0.032283496 -0.003609641 -0.06738509
000350 6c d2 08 3d 1d 50 1e 3c a9 44 50 3d 36 4c d1 bc
       0.0334038 0.009662655 0.05084673 -0.025549036
000360 41 86 5b 3d 14 02 f0 3c 7c 89 6a 3d ac 37 50 bc
       0.05359483 0.029297866 0.05726002 -0.012708586
000370 0a 43 91 bd 05 7f 87 bd 49 46 87 bd 1c 78 89 3c
       -0.07092865 -0.06616024 -0.06605203 0.016780905
000380 19 17 5c bd d1 4b 92 bc d8 80 15 3d a4 16 79 3d
       -0.053732965 -0.017858418 0.036499828 0.060812607
000390 e1 e4 d3 bc 5d ff 18 3d 4b 9e 86 bb 85 44 85 bc
       -0.025865974 0.03735291 -0.0041082255 -0.016268024
0003a0 9b cb 41 bc fb 90 20 bd 0d fd 34 3c e1 77 08 bc
       -0.0118283285 -0.039200764 0.01104666 -0.008329363
0003b0 54 68 2b bd 67 98 20 3d 4e 99 1a bd d0 cf 58 bd
       -0.041847542 0.039207842 -0.03774386 -0.05293256
0003c0 ab 1c 6a 3c c8 fa 2d bc ab e8 27 bd 4e 0f 73 bd
       0.014289062 -0.010618873 -0.040993374 -0.059340768
0003d0 52 71 a7 bc 1b 54 74 bd e6 5b 15 3d c4 75 d5 bb
       -0.020439778 -0.05965052 0.036464594 -0.006514283
0003e0 0d 9f 1a 3d 33 b9 16 3d eb d3 40 bc 73 94 f3 bc
       0.03774934 0.036797713 -0.011769275 -0.029733872
0003f0 5d 1b 7e bd a4 40 55 bc 62 59 b5 bd 64 c0 3d bd
       -0.062037814 -0.0130159 -0.08854939 -0.046326056

conv2.bias f4 [16]
000000 dc b6 40 bd 04 01 89 bc f6 b9 62 3d 16 d9 b4 3a
       -0.04704939 -0.016724117 0.055353127 0.0013797607
000010 12 9b a5 3c 1f 73 77 bd c3 34 94 bd c0 37 0e bd
       0.020215545 -0.060412522 -0.07236626 -0.034721136
000020 d6 fd 10 bd 2f 20 15 bd cb bc 14 bd 57 bb de bc
       -0.035398327 -0.036407646 -0.03631286 -0.02718894
000030 e6 9a 2f bd a2 63 90 bb fe f8 18 3a aa 81 c6 bb
       -0.042872332 -0.0044064084 0.00058354426 -0.0060579376

conv3.weight f4 [32, 16, 5, 5]
000000 30 1d 8e 3c 4f de 41 bd 2f a9 bf bc ed 51 7e bb
       0.017347902 -0.04733115 -0.023396103 -0.0038806156
000010 32 64 31 bd 70 37 df 3c 7a 5e 11 bd 45 af 10 3d
       -0.043308444 0.027248114 -0.03549049 0.0353234
000020 27 fd 66 3d d8 58 ba 3c 68 45 d6 bc 13 51 0c 3d
       0.05639377 0.022747442 -0.026156142 0.034257006
000030 e2 6f 10 bd 59 34 6e 3b 58 77 17 3d 4f 74 42 3d
       -0.03526295 0.003634712 0.03697905 0.0474742
000040 3a 3d 8b 3b 2f 80 d3 bb 83 06 d3 bb d3 71 3d bd
       0.004249242 -0.0064544897 -0.0064399852 -0.04625113
000050 5e f2 75 3c 75 92 0a bd 50 3d b6 3b 78 33 47 bc
       0.015011398 -0.03383108 0.0055615082 -0.012158267
000060 89 43 16 3d d8 16 62 bc ec 87 17 3d 04 5a ad bc
       0.0366855 -0.013799392 0.03699486 -0.021161087
000070 f7 71 77 bc 1a 40 03 bd ce b8 76 3d 3c b6 64 3c
       -0.015102855 -0.032043554 0.060234837 0.013959464
000080 d8 bb 4d bd 8c 74 23 bb 4d d7 e4 3c d0 48 f6 b8
       -0.05022797 -0.0024941294 0.027934695 -0.000117437565
000090 70 fa 43 3d 5f 0f 9b 3c bc 23 6e bc b9 14 4d 3d
       0.047846258 0.018928228 -0.014534887 0.05006859
0000a0 95 92 14 3d 87 10 2d bc da d5 9f bc 06 6c 9e 3a
       0.036272604 -0.010563022 -0.019511152 0.0012086637
0000b0 85 5e be bc 4f 25 1a 3d 5b e2 3c bd 87 69 0f bd
       -0.02323843 0.037633236 -0.046114307 -0.035012748
0000c0 b6 e4 24 3c 93 6a 5c bd bb e5 bc bc de 66 18 bd
       0.010064295 -0.053812575 -0.023058763 -0.037207477
0000d0 78 73 af 3c 2e 30 9a 3b d8 44 19 bd 14 ea 0a 3d
       0.021417364 0.0047054505 -0.03741917 0.03391464
0000e0 82 b6 10 bd db 81 5a bc fb 46 96 3c 30 e1 10 bd
       -0.035330303 -0.013336624 0.018344393 -0.035371006
0000f0 18 cf 84 bc 1b 3f 05 bd b9 d2 c1 bc e8 5e 88 bc
       -0.016212031 -0.032530885 -0.02366005 -0.016646817
000100 74 95 fa 3c c8 9f 20 bd 24 57 50 bd 64 f9 50 3b
       0.030588843 -0.03921488 -0.050864354 0.003188693
000110 08 2a 42 3c d6 0c a9 bb ab d1 d6 bb 15 dc 0a 3d
       0.011850841 -0.005159001 -0.006555756 0.033901293
000120 f9 02 1c bd 0d 31 60 bd 15 29 67 bd 74 32 f7 3a
       -0.038088772 -0.05473428 -0.056435663 0.0018859641
000130 17 67 23 3c b6 c8 df 3a b2 7a 3e bd 12 88 49 bd
       0.009973309 0.0017073366 -0.04650373 -0.049202032
000140 f8 e3 84 bd 2e 35 a4 39 43 b3 94 3c 35 08 4c bc
       -0.06488794 0.0003132014 0.018151885 -0.012453129
000150 af e4 15 bd b7 b1 7e bc b3 98 fb bc ff e9 6b 3d
       -0.036595043 -0.0155453 -0.030712461 0.057596203
000160 3c 66 f3 bc 1c 9c bf bc 5b 8a cb bc 55 b1 75 3c
       -0.029711835 -0.023389868 -0.024846246 0.0149958925
000170 d6 eb bb 3c 42 5a c1 3c d2 89 a1 3c 2b f7 97 3c
       0.022939604 0.023602609 0.019719038 0.018550476
000180 31 21 f7 bc c8 dd 4b 3d 8d a9 fa bc fe 5b d8 3c
       -0.030167194 0.049772054 -0.030598426 0.026411053
000190 42 36 92 3c 20 01 01 bd 1b cd 03 bc 89 07 1e bc
       0.017848138 -0.031495214 -0.008044506 -0.009645351
0001a0 60 db 14 3d a9 d4 16 3d 3a a8 0e 3c 0b 17 00 bd
       0.036342025 0.036823902 0.0087071005 -0.031271975
0001b0 5e e2 19 3c 1f b6 23 3d 98 1e f3 bc 51 9a 1c 3d
       0.009392349 0.039968606 -0.029677674 0.038233105
0001c0 eb 6a 1e 3c a5 a3 c5 3c b8 33 92 3c a8 d6 d5 3c
       0.009669046 0.024125883 0.017846927 0.026103333
0001d0 c6 7a 3a bd fc f9 9e 3c 78 81 2d bd d6 60 b3 3a
       -0.045527242 0.019406311 -0.0423598 0.0013685476
0001e0 ec 22 0f 3d 5d 32 31 bd e9 5c 1e bd d9 98 a6 bc
       0.034945413 -0.04326092 -0.038662825 -0.020336555
0001f0 00 a7 d2 3b 77 a6 c9 bc e7 10 61 bd e4 2b d8 bb
       0.0064285994 -0.02461551 -0.05494776 -0.006597029
000200 98 da bc bc 4b 74 03 bd 1f 18 91 bc 80 b5 50 ba
       -0.023053452 -0.032093327 -0.017711697 -0.0007961616
000210 e2 63 03 bc d7 b7 3f bd 9a 43 c8 3c 51 98 c8 bb
       -0.008019419 -0.046806183 0.024446297 -0.006121673
000220 c8 0c 0d bd db a4 f0 3c 6f d6 95 bb dd ca 78 3c
       -0.034436017 0.029375484 -0.0045726816 0.015185085
000230 b2 ca dd 3c 8f 92 09 bc 8f 24 04 3d 84 e8 51 bc
       0.027074192 -0.008396759 0.032261427 -0.012811784
000240 54 d3 ee 3c a6 43 56 3b 07 da a7 3c e6 5f ad 3c
       0.029153503 0.003269413 0.020489706 0.021163892
000250 88 22 15 bd e3 64 0f 3d ca 6d ea ba 58 a1 8d 3c
       -0.036409885 0.035008322 -0.0017885503 0.017288849
000260 b2 5d 2d bd bb 32 d1 bc df 1c 9f 3c cb d0 b8 bc
       -0.042325683 -0.025536885 0.019422946 -0.022560498
000270 eb 14 4b 3c d4 12 31 3d 63 c2 5a bd 49 97 2d bc
       0.012395124 0.043230847 -0.053408038 -0.010595151
000280 46 ce f6 ba 2c 79 a0 3c a0 bb 06 bd 7b 7e 7b bd
       -0.0018829785 0.01958903 -0.032893777 -0.061399918
000290 4a 50 44 bd 17 a9 44 3b a8 6e 3b bd 53 62 54 bd
       -0.047928132 0.0030008012 -0.045759827 -0.05185158
0002a0 f0 18 da bb ff 1c bc 3a b6 68 0c bd 3a 65 b6 bc
       -0.006655805 0.0014351903 -0.034279548 -0.022265065
0002b0 19 5f e1 3c 05 06 14 bd 2b 43 4f bd 21 c9 ab bc
       0.027511166 -0.036138553 -0.050601166 -0.02096993
0002c0 9f 31 2d 3d 6c 9d 3a bc 74 32 03 bd 3e 2a 16 bd
       0.04228365 -0.011390071 -0.032030538 -0.03666138
0002d0 00 1b a1 bc ed fa 22 3d 3f c8 c2 3c 42 b0 88 bc
       -0.019666195 0.039790083 0.023777125 -0.016685609
0002e0 a1 0d 4b bd 81 88 17 bd 13 a6 a2 3c 8c 79 40 3d
       -0.049573544 -0.036995415 0.019854581 0.046990916
0002f0 c1 70 c2 3c c7 58 58 bc 45 f2 d7 3c 11 06 9b 3c
       0.023735406 -0.01320476 0.02636064 0.018923791
000300 79 c9 2a 3c 50 70 a3 3c ef 86 91 bc 6b 62 c5 3b
       0.010424011 0.019951016 -0.017764537 0.006023695
000310 14 f7 4d 3c c7 6a 58 3c f9 55 88 bc 27 5f d0 3c
       0.012571115 0.013209051 -0.016642557 0.025435997
000320 9a da 9f 3c c5 d7 c7 3d 24 c8 83 3c 3d bf 6a 3c
       0.019513417 0.09757952 0.016086645 0.014327821
000330 b7 16 c7 3c c8 fc 2c 3d fe e6 09 3d 52 01 48 bc
       0.024302823 0.04223326 0.033667557 -0.012207346
000340 16 3b 5f 3d c6 d0 2b 3d 40 b0 a1 3d c5 f2 c9 bc
       0.054499708 0.04194715 0.07894945 -0.024651894
000350 bd 5f 0c bd d6 75 e4 3b 6b 99 4d 3d 1b e0 96 3d
       -0.03427099 0.006972055 0.05019514 0.073669635
000360 5c 9a 3e 3d 1f a0 f2 3c 11 71 22 3d 81 90 3f 3c
       0.046533927 0.029617367 0.03965861 0.011692167
000370 62 f2 51 bc df 11 2e bc 28 4c f5 bb 09 61 1c 3d
       -0.012814136 -0.010624378 -0.007485885 0.038178477
000380 ca 66 b7 3d a1 ab e0 3c 77 eb 14 bd 09 79 28 3c
       0.08955152 0.027425589 -0.03635737 0.010282763
000390 ae 75 28 3d d2 4f 67 bb 8c 6d 60 bc 8e 3a f8 bc
       0.041127853 -0.003529538 -0.013697993 -0.030301359
0003a0 c4 e1 e9 bb 24 72 0f 3d 7d 7e 93 bc e9 12 34 bc
       -0.007137509 0.035020962 -0.01800465 -0.010990837
0003b0 98 8b af 3c ea 8b ba bc cf 95 cf bc be 61 af 3b
       0.021428868 -0.022771794 -0.025339989 0.005352228
0003c0 d1 7f 05 3d d7 02 14 3b e2 86 c9 bb 7d 26 2f bd
       0.0325926 0.00225847 -0.0061501125 -0.042761315
0003d0 10 5a d3 3c 4a 7f bc 3a 39 3e ba bc 67 b2 3d bd
       0.025799781 0.0014381197 -0.022734748 -0.046312716
0003e0 50 9a d2 bc 24 04 1e bd e0 f7 fe bb 34 52 c4 3c
       -0.025708348 -0.038578168 -0.007781014 0.023964979
0003f0 21 95 e8 bb 63 31 e0 3c b2 61 8e bc f5 1b 00 bd
       -0.0070978557 0.0273673 -0.01738057 -0.031276662

conv3.bias f4 [32]
000000 3d f8 71 bc cc 62 d1 bb a2 7b 22 bd fa bd 95 bc
       -0.014768657 -0.0063899513 -0.039668687 -0.018279064
000010 1a 3e 6f 3b 0c d8 b1 bc 9f db 8d bb 10 24 e8 bb
       0.0036505521 -0.021709464 -0.0043291594 -0.007084377
000020 3a 2f f4 3c 0b 1c 11 3d 31 f6 f3 bc c4 1e 46 bc
       0.029807676 0.035427134 -0.02978048 -0.012092296
000030 2a 90 28 bc 45 f7 04 bd 93 57 82 bc e4 3c 0b 3d
       -0.010288278 -0.032462377 -0.0159109 0.033993617
000040 3f 42 c8 bb dc 4b f3 3c bc ad 37 3c 8a ab 33 3d
       -0.006111413 0.029699259 0.011210855 0.043864764
000050 94 f7 aa bc d1 f3 87 3c f2 6c 81 3d 81 bc 74 3d
       -0.020870008 0.016595753 0.06319608 0.059750084
000060 98 6a 60 3d b9 dd 9f bb a9 5e 66 3c eb d5 60 3d
       0.054789156 -0.0048787263 0.014060655 0.054891508
000070 7e 49 14 ba 8e 0a c4 3c 65 16 3a 3c b3 c1 34 3d
       -0.0005656703 0.023930814 0.011357878 0.04413004

fc.weight f4 [32, 4608]
000000 39 5d 71 bc 87 f3 b8 bb 64 8f b1 bc 03 00 1b bb
       -0.014731699 -0.005644265 -0.02167482 -0.002365113
000010 38 a2 36 3c 92 93 5b 3b 5d 11 1e 3c 40 a5 06 bd
       0.011147074 0.0033504707 0.009647694 -0.03287244
000020 aa 82 86 bb cd 32 b2 bb 06 38 23 bb 7e fe af 3c
       -0.004104932 -0.005438185 -0.0024905219 0.021483656
000030 9a c0 89 3c 64 01 2e bb 43 37 82 3c bf d8 2d bc
       0.016815472 -0.0026551122 0.015895491 -0.010610758
000040 3d 9a 31 bc b3 45 d8 3a 66 9b 07 bc 67 2a ec bb
       -0.010839996 0.0016500264 -0.008276796 -0.007207203
000050 7e 69 94 38 eb c8 ce bb 44 74 bc 3a 73 ff c9 3b
       7.0768394e-05 -0.0063105724 0.0014377912 0.006164485
000060 3a 28 4b 3c 65 c8 ce ba 3d 7d 16 bb a9 e5 5c bc
       0.0123997275 -0.0015776275 -0.0022962831 -0.01348249
000070 86 b9 e1 3b 99 1c eb 3b 92 dc 98 ba ae c7 d3 3b
       0.006888571 0.00717504 -0.0011662415 0.0064630127
000080 7c e1 c9 ba 4f af 2c bc 8b c8 5e bc 4c 0e d0 3b
       -0.0015402283 -0.010539844 -0.013597618 0.0063493606
000090 4a af b9 bc 52 5b 7d bc ff 74 cf bb ff ea 33 bc
       -0.022666592 -0.015463667 -0.0063310857 -0.01098132
0000a0 66 91 2c 3b e9 40 c2 3a 5c 44 83 3b 9b 70 c3 ba
       0.0026331781 0.001482037 0.004005952 -0.0014910878
0000b0 a2 e9 af bb d9 3d c8 ba c2 8f 63 bc b6 d1 4f 3b
       -0.0053684274 -0.0015277221 -0.013889255 0.003171069
0000c0 cc 0a cb 3a da 23 4e bb 17 9a b3 3a 36 ec 4d 3c
       0.0015490889 -0.0031454475 0.0013702539 0.012568524
0000d0 3c 70 42 3c c8 9a 69 3c ed 43 3b 3c dd 61 07 3c
       0.011867579 0.014258094 0.011429769 0.0082630785
0000e0 f1 31 d4 39 fb 0a 73 bc 04 07 8e 3b 1b 48 86 3c
       0.00040473 -0.014834161 0.0043343324 0.016391804
0000f0 c8 01 2a 3c a9 2b 41 3c 0a 9b 2e bc 2f 63 3a ba
       0.010376401 0.011790195 -0.010657081 -0.00071101164
000100 25 65 46 3c 3e 10 47 bc e6 20 8b ba 71 c1 e9 3b
       0.012109076 -0.0121498685 -0.0010614663 0.0071336557
000110 ba 5f 6e bc 3b 21 ee bb 92 6b 9a bb 34 ad a2 3c
       -0.01454919 -0.007267145 -0.0047125304 0.01985798
000120 d4 4c 34 3c 6c 03 c4 3b 4a ec 3a 3c 63 94 8d ba
       0.011004645 0.005981853 0.011408875 -0.0010801669
000130 64 0a 10 bc 8a 77 b4 3b 15 8c b9 bb 36 1e 38 3c
       -0.00879154 0.005507414 -0.005662451 0.011237672
000140 55 8b 85 bb 80 73 32 3c 02 5e 51 bb ed 97 7f 3c
       -0.0040754476 0.010891795 -0.0031946902 0.015600187
000150 fe 39 bb 3c a1 73 c5 3a 53 01 47 b9 82 8b 14 bc
       0.022854801 0.0015064367 -0.00018978612 -0.009066464
000160 30 64 8e 3b 2d 62 1b bc a9 82 11 3c 63 f5 57 bc
       0.0043454394 -0.009483856 0.008881249 -0.013181063
000170 89 05 21 bb 14 53 5c bb 9e 50 8a 3c 76 46 87 3c
       -0.002456995 -0.0033618854 0.016884144 0.01651309
000180 b8 89 1b 3c 65 2b 83 3c eb c7 08 bc ce 6b 2f 3a
       0.009493284 0.016011903 -0.008348445 0.00066917844
000190 49 0b 45 3c 75 e9 8a bb 3f 41 f2 bb 4e 62 ff bb
       0.012026616 -0.004239256 -0.007393032 -0.0077937013
0001a0 ad fa 6c 3c 28 9a d7 3b fc 53 2a 3c c6 9c 3b bb
       0.014464063 0.006579656 0.010396 -0.002862738
0001b0 62 1e c0 3c 31 79 ef 3b 4d a9 a4 3c 82 2b 2b 3c
       0.023451988 0.0073081483 0.02010026 0.010447385
0001c0 f4 e5 18 bc ca c6 67 3c 0d 8c 23 bc 17 13 54 bb
       -0.009332169 0.014146516 -0.009982121 -0.0032360011
0001d0 8a a9 c5 3b fd f7 e3 bb 43 6f 8f 3b d9 45 34 bc
       0.0060321735 -0.0069570527 0.004377277 -0.011002981
0001e0 78 c9 41 3c 1f 0d 7e 3b fa fa a9 3b 38 a5 e3 3b
       0.011827819 0.0038765145 0.0051873894 0.006947186
0001f0 00 11 3c 39 7f 82 e6 3b e5 3c ac 3b 91 7b 54 3b
       0.0001793541 0.0070345993 0.0052562826 0.0032422284
000200 2b 6f de bb 58 bd 89 3c 03 57 f6 bb 84 47 96 3b
       -0.0067881546 0.016813919 -0.007517697 0.004586162
000210 e9 45 ce 3c 47 78 bf 3c 83 94 5c 3b df 32 b7 3c
       0.02517982 0.023372782 0.0033657856 0.022363124
000220 3c 6f 3d bb c8 3d 0a bb be 7e 1e 3c 9e 66 97 3b
       -0.0028905412 -0.0021093953 0.009673772 0.004620387
000230 ed 0e 1b 3b 1c 48 7f 3c 03 9f 8f 3c 9c 36 0e 3c
       0.002366002 0.015581157 0.017531877 0.008680012
000240 19 73 50 3c bb d4 16 3c 17 6c 08 3c 13 d7 ad 3b
       0.012722754 0.009205992 0.008326552 0.00530518
000250 ee 7c 01 3d 80 bd 91 3c 64 a8 98 3c f2 65 ea bb
       0.031613283 0.017790556 0.018634982 -0.007153266
000260 02 a3 ce 3b 2f b4 d0 3a bc 9a ee 3b 88 8c 08 3b
       0.006306053 0.001592284 0.0072816294 0.0020835716
000270 7c 3b 18 3c d3 0a 09 bb 97 cf 90 ba ce 1b d4 3c
       0.009291526 -0.0020910993 -0.0011048195 0.025892165
000280 0e 3d 26 bb 98 ef 23 3c 5f 21 62 3c 9a 75 51 3c
       -0.0025365981 0.010005854 0.013801902 0.012784386
000290 64 66 93 3c ca 92 d2 3b ac 41 9e 3c 4e db 9e 3c
       0.01799316 0.00642619 0.019318424 0.019391682
0002a0 1b 8a 77 bc 4d 7e 57 bc cb 35 44 3b 48 4c 8d 3a
       -0.0151086105 -0.013152671 0.002993929 0.001078018
0002b0 f3 a9 5d bb 3b a3 37 3c b6 ff 9a bb b1 0b 2a bb
       -0.0033823221 0.011208351 -0.00473019 -0.002594691
0002c0 86 c2 3e 3b 96 5a e4 bb 93 d0 b3 3a b4 e6 27 3c
       0.0029107644 -0.0069688065 0.0013718776 0.010247875
0002d0 73 8e 58 bc 82 47 e5 3b 2e 13 b6 3c 28 8a be 3b
       -0.013217556 0.00699705 0.022225942 0.0058148094
0002e0 11 52 49 ba a1 2f c3 ba 5c ee 3e bb 89 48 89 3c
       -0.00076797704 -0.0014891514 -0.0029133772 0.01675822
0002f0 c8 72 ac 3c cc 03 46 3c 9e e9 5e 3c 34 4f 94 3c
       0.021050826 0.012085866 0.013605503 0.018104173
000300 01 d4 af 3b 43 df 57 3c 5b 3d 99 3c b9 82 4d 3c
       0.005365849 0.013175788 0.018706014 0.012543374
000310 e7 a7 22 3c 86 68 88 3b 86 0f 8f 3c c0 96 42 3c
       0.009927726 0.004162851 0.017463457 0.011876762
000320 6a 44 8c 3c 8b 8f b7 3c 21 a5 a1 3c 6d 97 c7 3c
       0.017122466 0.022407314 0.01973206 0.024364198
000330 64 f9 8f 3c e8 0d 74 3b 92 ff 2a 3b ff 4a 28 3c
       0.017574973 0.0037239734 0.0026092273 0.010271787
000340 e6 e3 87 3c 40 fd 85 bb c4 12 51 3c dd f6 70 3c
       0.016588163 -0.0040890276 0.012760822 0.014707294
000350 1a 5b 0c ba 2b 35 20 3a 01 66 0d 3b 2f 91 c4 3c
       -0.00053541514 0.0006111438 0.0021575692 0.02399501
000360 a9 de 53 3c f0 27 49 3a 94 af 63 3c 34 1c 5e bb
       0.012931504 0.00076734927 0.013896842 -0.0033891322
000370 54 fa e9 bb f5 e0 91 3c f0 d1 0b 3c 9a e4 11 3c
       -0.007140437 0.017807463 0.00853394 0.0089046005
000380 49 79 6f 3c f4 94 bb 3b a3 1c 03 3c e6 a8 01 3c
       0.014616319 0.0057245437 0.008002433 0.007913804
000390 ea 9d dd 3c d1 4b 0d 3c 5e 58 0e 3c ba 6f 5b bb
       0.027052838 0.008624033 0.008688061 -0.0033483342
0003a0 88 ff 0e 3a 82 2e a2 bb 0a 84 96 3c fc 96 ae 3c
       0.0005454947 -0.004949392 0.018373508 0.02131223
0003b0 8a 61 5e 3c 19 86 5d 3c a3 08 41 3b 9d c3 82 3c
       0.01357306 0.013520741 0.002945461 0.015962416
0003c0 cd 2d ea 3c 9e 03 f0 3c fd bd 01 bb 44 75 03 b7
       0.028586293 0.0292986 -0.001979708 -7.8355115e-06
0003d0 9d 7a 03 3a 81 95 9b 3c 95 f7 ec 3b 25 a4 ac 3c
       0.0005015524 0.018992187 0.0072316625 0.021074364
0003e0 c4 fc 73 3b d9 80 e4 3b 66 c8 4b 3c be 38 be 3b
       0.0037229517 0.0069733677 0.012437915 0.005805104
0003f0 69 54 f3 3c cd 45 c0 3c 8d 0f 21 bb 0e c4 0c 3b
       0.029703336 0.023470784 -0.002457592 0.0021479162

fc.bias f4 [32]
000000 ac e5 05 3a 1a bf ca 3b c8 11 33 bc eb 49 46 3c
       0.0005107771 0.006187332 -0.010929532 0.012102584
000010 c1 c7 28 3c f1 2e 1b 3c 75 9c a5 bc 07 51 bf 3b
       0.010301531 0.009471641 -0.020216206 0.0058385166
000020 c1 d1 b6 bb 1f f9 dd bb 2b cc 03 bc 52 19 3c 3c
       -0.005579204 -0.0067740823 -0.008044283 0.011480646
000030 db df ec bb dc 64 b8 3c f9 86 98 bc fa 6d 00 3d
       -0.007228834 0.022509031 -0.018619047 0.03135488
000040 b7 81 62 bc f9 8d 02 3d 6f e6 86 3c 37 b3 c7 3c
       -0.013824872 0.031873677 0.016467301 0.024377448
000050 a5 1c 6b 3b 1a fd aa bc f0 f6 04 3c b7 1b be bb
       0.0035875228 -0.020872641 0.008115515 -0.0058016437
000060 c8 2f e2 bb a4 a1 45 bb 3b 7e 45 3d 4c cc 44 bc
       -0.0069026686 -0.003015616 0.048216086 -0.012011599
000070 b4 3a 9d 3c 99 6f aa 3c 14 33 34 3d 7a 3f 9f 3c
       0.01919303 0.020805167 0.043994024 0.019439448

translation.weight f4 [2, 32]
000000 65 2d 70 bb 39 6c d2 3b 90 6f c2 3b d9 d4 ee ba
       -0.003664815 0.0064215926 0.0059337094 -0.0018221393
000010 ca ee 9b bb 3f da b7 bb 20 bf 39 bc 62 2c 23 bb
       -0.0047586905 -0.0056107338 -0.011337072 -0.002489828
000020 77 ab 95 bb ea 85 07 3b 51 80 89 bb 29 8c 8b bb
       -0.0045675593 0.0020679184 -0.0041962047 -0.0042586518
000030 92 50 b0 bb af 69 8a bb 07 c0 4a bc 6a 92 a6 ba
       -0.0053806985 -0.0042240242 -0.012374884 -0.001270843
000040 b0 39 5e 3c e6 6a 58 39 a6 b6 4d bb 00 71 ec 3b
       0.013563558 0.00020639188 -0.0031389385 0.007215619
000050 7a ef 17 3c 6b 0a d0 3b 55 a8 4b bb 75 4d c1 3b
       0.009273404 0.006348898 -0.0031075676 0.005899126
000060 98 f6 c7 bb a5 c4 ce 3b 33 7c 63 b9 51 28 af 3b
       -0.0061023943 0.006310063 -0.00021694675 0.0053453823
000070 4c 54 2a bb a0 85 33 bb 73 35 b0 39 3c b7 7c bb
       -0.0025990186 -0.002739288 0.0003360916 -0.0038561365
000080 47 0b d4 b7 9f fe 86 3b 07 13 3e 3c 45 6b 94 bb
       -2.527762e-05 0.0041197087 0.011601216 -0.004529389
000090 ad ce 73 3a 93 ce 91 ba 54 a5 77 3b 73 cc 57 ba
       0.00093005114 -0.0011124186 0.0037787752 -0.00082320644
0000a0 dc d7 a1 39 4a 9b 76 ba 15 8c 8b 3b eb d4 ad 3a
       0.0003086914 -0.0009407295 0.0042586424 0.0013262307
0000b0 50 5e 6d b9 4c 87 3b 3a c1 a6 0d bc 37 5c 0a 3b
       -0.00022637215 0.00071536447 -0.008645714 0.0021112093
0000c0 ec 30 f2 3b a6 03 06 3a 21 10 51 39 df 0f 2b bc
       0.007391086 0.0005112238 0.00019937802 -0.010440796
0000d0 38 34 32 3c 1d a0 8c 3b 73 de 4f 3b d9 72 63 bc
       0.010876708 0.004291548 0.0031718283 -0.013882362
0000e0 0a 92 08 3c 50 c1 03 3b 17 4d 71 3b af cb 74 3b
       0.0083356 0.0020104237 0.003681963 0.003735285
0000f0 bd 07 cf 39 1f 74 89 3a e8 59 0b 3b 53 a2 30 3a
       0.00039487882 0.0010486877 0.0021263305 0.00067380554

translation.bias f4 [2]
000000 1f 01 33 bc 2c da 5e bc
       -0.01092556 -0.013601821

rotation.weight f4 [1, 32]
000000 c2 bf 8a bc d5 42 2d 3b 2e 56 28 3c 27 a1 5a bd
       -0.01693714 0.002643754 0.010274453 -0.053376343
000010 0f 29 35 bc be 50 9a bc 5a 51 9b 3b d9 17 83 bc
       -0.011057152 -0.018837329 0.0047399225 -0.016002582
000020 a1 3b 88 bc a1 fd df 39 9a 0f 25 3a 7e e5 19 bc
       -0.016629996 0.00042722843 0.00062965753 -0.009393094
000030 01 29 99 bc a3 e6 7b bc f0 a7 9e 3c ba b6 46 bd
       -0.01869631 -0.015374812 0.019367188 -0.048514105
000040 5b 48 d1 3b 71 bd dc bc 98 39 7c bc fa 08 55 bd
       0.0063867993 -0.026945801 -0.015394591 -0.052010514
000050 03 a9 50 bb 84 ed ef bb ec 63 0d bd 22 6e 1f bd
       -0.003183902 -0.0073220152 -0.03451912 -0.03892339
000060 24 59 1a bc d6 fa 52 bb a1 c4 3a bc fe ee 3a bb
       -0.009420667 -0.0032192967 -0.011399419 -0.0028523798
000070 bc f0 8f bc 57 f3 99 bc ec 63 bb bc dc 09 7d bc
       -0.017570846 -0.018792791 -0.022874795 -0.015444245

scaling.weight f4 [2, 32]
000000 50 ab 07 3b 6c 92 df 3b 31 88 cf bb 69 89 9a 3b
       0.0020701475 0.006822875 -0.006333374 0.0047160876
000010 d9 d5 8e 3b fa 7b 9a 3b 4a bd c1 3c 49 28 fe 3a
       0.0043589887 0.004714486 0.02364983 0.0019390668
000020 ce dc 88 3b a2 1f 98 3b 75 02 01 bb 37 a6 3c 3b
       0.0041767126 0.004642443 -0.0019685302 0.0028785595
000030 ee 8e 04 3c 95 5d 4a 3b 36 36 1d bc 8f 57 19 bb
       0.008090718 0.0030878533 -0.009595444 -0.0023398136
000040 23 77 78 bc f5 f1 82 b9 8a 62 2b 3b 33 b9 90 3d
       -0.015165123 -0.00024975804 0.0026151263 0.07066574
000050 b6 58 7a bb 34 38 dc 3b 50 5f e4 bb 82 d0 51 3c
       -0.0038199848 0.006720567 -0.00696937 0.01280606
000060 93 cf 89 bb de c6 0a 3c ee 7a 32 ba 30 d5 09 3c
       -0.004205653 0.008470265 -0.0006808479 0.008412644
000070 9c 7d 01 3b 8a 95 88 b9 04 84 7e ba ee 42 1c 3b
       0.0019758707 -0.00026051357 -0.0009709003 0.0023843604
000080 99 80 1e 3b c8 62 ed 3b ea ae af bb 91 29 f0 ba
       0.0024185537 0.0072444417 -0.0053614276 -0.0018322935
000090 62 9e 56 3b 51 30 3c 3b 38 ff 47 3c 77 19 6e 3b
       0.0032748212 0.0028715322 0.012206845 0.0036331096
0000a0 34 a6 5c 3b 7f 24 90 3b 8d 9b 96 bb 88 c8 1a 3b
       0.00336684 0.004398882 -0.00459618 0.002361806
0000b0 eb 23 c1 3b 4c be 3f 3b fb 1b c0 3a 70 b2 22 3b
       0.0058941743 0.0029257713 0.0014656776 0.0024825595
0000c0 39 76 68 bc e4 e8 b9 b8 52 73 56 3b 07 78 ea bc
       -0.014188343 -8.864867e-05 0.0032722545 -0.028621687
0000d0 db ac 06 bc ee d5 ce bb 46 5b b1 3b 3e 7c 5d bc
       -0.008219923 -0.0063121235 0.005412492 -0.013518391
0000e0 ef 65 e1 bb 6d a4 02 3c 73 e6 28 3b 96 a4 fd 3b
       -0.0068786065 0.0079737725 0.0025772124 0.0077405674
0000f0 e0 46 4b 3b 74 0d 02 3a 34 76 88 3a 09 32 21 3b
       0.0031017587 0.0004961111 0.0010411204 0.0024596474

scaling.bias f4 [2]
000000 c8 36 14 3c 8e 09 31 bb
       0.009046264 -0.0027013752

shearing.weight f4 [1, 32]
000000 87 e2 ff bb 00 00 00 00 50 b8 3d 3c 93 2d fe bb
       -0.0078089866 0.0 0.011579588 -0.0077568977
000010 b7 b2 ec bb cb 44 03 bc bd 3d 3b 3c 9b c9 fb bb
       -0.007223453 -0.008012007 0.011428294 -0.0076839454
000020 16 73 f5 bb 57 11 e7 bb 04 1f b6 3b 29 a0 ee bb
       -0.007490526 -0.0070516276 0.0055578966 -0.007282276
000030 79 75 fb bb 0d 7f f8 bb 7f 04 e3 3b 1a ed 6c 3c
       -0.007673916 -0.007583505 0.006928026 0.014460826
000040 d5 fb 3a 3a 81 e7 69 3a 7f 82 0b bc da cd 0f bb
       0.0007132863 0.00089227414 -0.008514999 -0.0021942765
000050 65 ae a2 39 25 1e 64 3c 74 92 3f 3c be d3 95 3c
       0.00031028982 0.013923203 0.011692632 0.018289443
000060 fd 8f 00 3c 00 00 00 00 a5 c3 08 bb 00 00 00 00
       0.0078468295 0.0 -0.0020868566 0.0
000070 4e 8d 11 bc d9 38 d3 bb 61 e5 be b9 6a 93 e9 bb
       -0.008883787 -0.0064459858 -0.00036410525 -0.007128169
