output/1010_e/train/model/stn_30.pt (torch_old, 658934 bytes, 14 tensors)

conv1.weight f4 [8, 2, 5, 5]
0.1018441 0.09603819 -0.09394759 -0.13764511 0.091534816 -0.14009538 0.075072356 -0.15398018
-0.089158066 -0.0787788 0.11780083 -0.039772507 0.10542798 0.02409314 0.11782969 0.078415684
0.088076435 0.106686026 -0.058915447 -0.056490835 0.030108806 0.10849791 -0.068722405 -0.1283151
-0.12830383 -0.078014925 0.010148472 -0.029956339 -0.050992515 -0.07908501 0.024173321 -0.12883274
0.1256881 -0.035018805 0.013601806 0.034015063 -0.06879293 0.098229825 -0.014028949 -0.0010593658
-0.14707272 0.003869044 0.0353188 0.0068828794 -0.026452878 0.092850894 0.09825991 0.08424289
-0.037293315 0.012029187 -0.109448925 -0.11730441 -0.037149917 0.0030386501 -0.09514972 -0.12974045
0.053971473 0.040927418 -0.10479733 0.082771875 -0.11640912 0.098024614 0.06575527 -0.05766125
0.1242968 -0.08902999 -0.07409128 0.10441767 -0.045510087 -0.06672572 0.012996416 -0.032848842
0.07964733 0.10671046 0.053323276 0.014365725 0.018643357 -0.014196862 -0.0024477514 -0.01746625
0.080513746 0.06262044 -0.031535864 0.035097495 -0.011619528 0.034283664 0.09993724 -0.113181524
0.0021942223 -0.04853274 -0.15377405 -0.15331395 -0.035298634 0.08343832 -0.11216273 0.030468768
0.06558133 -0.11988035 0.04276977 0.0074614193 -0.15249123 -0.026909908 -0.15725677 0.09867669
0.041044395 0.030630989 0.0846002 0.08383939 0.11563985 0.033311304 -0.12554467 0.10753299
0.015144933 -0.080358446 -0.07752435 0.10886609 0.007577655 0.078670405 -0.013541548 0.10579536
-0.12702224 0.009792017 0.009568638 -0.02621874 0.10099796 -0.0014485386 -0.02207614 0.06688414
-0.040833987 -0.038861614 -0.14622182 -0.030484319 -0.09549746 0.052300066 0.093374066 -0.16129103
-0.11118116 0.10689203 -0.08974577 0.09623373 0.11018581 -0.06450825 -0.14352027 0.04145284
0.03488661 0.09415724 -0.008345477 0.04803831 -0.15033597 -0.009765752 0.025892843 0.08128568
-0.08295274 -0.024148148 -0.09159895 -0.102301694 0.051775746 0.014668537 0.049173895 -0.010293008
-0.0102867 -0.01212218 0.06981501 -0.10454512 0.023654953 0.07094339 0.075460635 -0.07426088
0.10300171 -0.10087497 0.067177586 0.109300725 -0.0017068097 0.037020005 -0.14039019 -0.07217851
-0.071666576 -0.14813463 -0.046681374 0.0811584 -0.029488109 0.12361272 -0.14350928 0.039541967
0.104696356 0.121828355 -0.07048591 -0.14366654 -0.06843407 0.087402366 -0.0026275357 0.11987437
-0.1187131 -0.10479865 0.055040497 0.034255818 -0.1063221 0.11679022 -0.0700027 -0.1339738
0.036147285 -0.080766395 -0.06605045 -0.075086616 0.04419591 0.063863024 0.09485748 -0.07735189
-0.027427621 0.13954833 -0.074188754 -0.049982578 -0.022878971 -0.11809461 -0.09568627 0.12581925
0.028692937 0.03205778 0.06434033 0.09593378 0.0957546 0.10506035 0.063551925 0.115359925
0.10256878 -0.052256837 -0.016471367 -0.10246846 -0.13285767 0.10875017 -0.13642955 -0.12053865
-0.16620845 -0.13717784 0.0048827576 0.035727296 -0.15061323 -0.019221265 -0.13220005 -0.0005760583
0.05402226 -0.085664675 -0.092475794 0.06444374 -0.11640848 -0.057622105 -0.14807117 0.069607474
0.018777553 -0.07974668 0.091154955 0.12479385 0.048989527 -0.108462796 -0.03926455 0.10492396
00000000: a493 d03d acaf c43d 9867 c0bd d7f2 0cbe
00000010: 9b76 bb3d 2a75 0fbe 89bf 993d fbac 1dbe
00000020: 8198 b6bd c856 a1bd 9041 f13d 7fe8 22bd
00000030: a0ea d73d fa5e c53c b150 f13d 6798 a03d
00000040: 6b61 b43d 347e da3d 5351 71bd ef62 67bd
00000050: bea6 f63c 2734 de3d 55be 8cbd 0965 03be
00000060: 1462 03be 4ac6 9fbd c745 263c ff66 f5bc
00000070: 87dd 50bd 52f7 a1bd 2107 c63c bbec 03be
00000080: 62b4 003e e16f 0fbd 1cda 5e3c 6153 0b3d
00000090: 4fe3 8cbd b82c c93d add9 65bc 6bda 8aba
000000a0: 3b9a 16be c98f 7d3b 72aa 103d c789 e13b
000000b0: b5b3 d8bc 9c28 be3d 7e3c c93d 8987 ac3d
000000c0: e0c0 18bd 1116 453c c226 e0bd 4b3d f0bd
000000d0: 832a 18bd 1724 473b dbdd c2bd aeda 04be
000000e0: 3111 5d3d 82a3 273d fc9f d6bd 4d84 a93d
000000f0: e867 eebd 21c1 c83d b3aa 863d 342e 6cbd
00000100: 528f fe3d 5b55 b6bd 2bbd 97bd eed8 d53d
00000110: c968 3abd 7fa7 88bd ebee 543c 828c 06bd
00000120: 241e a33d 038b da3d 8269 5a3d 385e 6b3c
00000130: f4b9 983c f499 68bc 746a 20bb 6215 8fbc
00000140: 64e4 a43d 253f 803d c02b 01bd 64c2 0f3d
00000150: d55f 3ebc 076d 0c3d e5ab cc3d b7cb e7bd
00000160: f1cc 0f3b 44ca 46bd f276 1dbe 55fe 1cbe
00000170: 4d95 10bd b6e1 aa3d 93b5 e5bd a399 f93c
00000180: 814f 863d d483 f5bd 5b2f 2f3d ec7e f43b
00000190: a926 1cbe 2b72 dcbc eb07 21be 0117 ca3d
000001a0: 2b1e 283d d7ed fa3c df42 ad3d fcb3 ab3d
000001b0: 96d4 ec3d 6f71 083d c88e 00be 423a dc3d
000001c0: 7422 783c f892 a4bd 16c5 9ebd 2ff5 de3d
000001d0: fa4d f83b f31d a13d 5edd 5dbc 3dab d83d
000001e0: 1e12 02be b26e 203c c7c5 1c3c afc8 d6bc
000001f0: 05d8 ce3d e4dc bdba 05d9 b4bc 8dfa 883d
00000200: 8a41 27bd 5b2d 1fbd 2cbb 15be 40ba f9bc
00000210: 2c94 c3bd 9838 563d e73a bf3d 7a29 25be
00000220: f3b2 e3bd 35ea da3d a1cc b7bd 3116 c53d
00000230: 19a9 e13d e71c 84bd faf6 12be 74ca 293d
00000240: 43e5 0e3d 83d5 c03d 78bb 08bc d2c3 443d
00000250: acf1 19be 8800 20bc 3a1d d43c 1b79 a63d
00000260: 20e3 a9bd 56d2 c5bc 3b98 bbbd 8d83 d1bd
00000270: ce12 543d 4e54 703c 916a 493d 01a4 28bc
00000280: 8c89 28bc 1c9c 46bc 2cfb 8e3d c01b d6bd
00000290: 08c8 c13c c54a 913d 1b8b 9a3d 1716 98bd
000002a0: 8ff2 d23d 8997 cebd 6794 893d 0fd9 df3d
000002b0: 08b7 dfba 4aa2 173d 72c2 0fbe 54d2 93bd
000002c0: edc5 92bd 9bb0 17be f834 3fbd 6036 a63d
000002d0: 0c91 f1bc aa28 fd3d 19f4 12be c2f6 213d
000002e0: 0b6b d63d 2581 f93d eb5a 90bd 521d 13be
000002f0: 2927 8cbd 0300 b33d bc32 2cbb b280 f53d
00000300: db1f f3bd ada0 d6bd 2572 613d d44f 0c3d
00000310: 67bf d9bd b62f ef3d 935d 8fbd 6e30 09be
00000320: 2d0f 143d da68 a5bd 7545 87bd 03c7 99bd
00000330: c506 353d 9eca 823d a344 c23d ab6a 9ebd
00000340: e4af e0bc c2e5 0e3e 46f0 97bd 88ba 4cbd
00000350: ae6c bbbc 96db f1bd 2af7 c3bd c3d6 003e
00000360: 730d eb3c 054f 033d ddc4 833d ee78 c43d
00000370: fd1a c43d e129 d73d 8327 823d d341 ec3d
00000380: 950f d23d 440b 56bd f6ee 86bc fcda d1bd
00000390: d70b 08be 69b8 de3d 30b4 0bbe f8dc f6bd
000003a0: 8c32 2abe 5978 0cbe 8aff 9f3b c956 123d
000003b0: 5b3a 1abe ea75 9dbc 735f 07be 9e02 17ba
000003c0: 7246 5d3d f670 afbd f363 bdbd 14fb 833d
000003d0: 9267 eebd 2805 6cbd f89f 17be 5d8e 8e3d
000003e0: 62d3 993c 3a52 a3bd 73af ba3d eb93 ff3d
000003f0: 3ea9 483d be21 debd ddd3 20bd 60e2 d63d

conv1.bias f4 [8]
0.056992665 -0.0034501748 -0.04431689 -0.024081344 -0.09985656 0.10912779 0.11246306 -0.10629507
00000000: 2471 693d 541c 62bb a185 35bd 3d46 c5bc
00000010: 9981 ccbd 647e df3d 0853 e63d 3bb1 d9bd

conv2.weight f4 [16, 8, 5, 5]
-0.07464891 -0.072963454 -0.017856805 -0.006647909 -0.05294578 0.03182517 -0.002019119 -0.04212368
-0.07477341 0.048417218 0.0628707 1.6290527e-05 -0.039981034 0.038784113 0.035246126 -0.017212747
0.060089312 -0.05798552 -0.013943034 0.05385158 -0.050520316 -0.027648358 -0.035422966 -0.034474857
0.056582488 0.05193721 -0.055943187 -0.035692647 0.005672279 -0.017633772 -0.03073911 -0.061607804
0.058878366 0.04487943 0.024175204 -0.0082133785 -0.06154202 0.00090630964 0.030403493 -0.01907867
0.06258799 0.021914082 0.00012158238 0.02922224 0.036123797 -0.04607333 0.02566537 -0.06260359
-0.015766632 -0.02562556 0.047367226 -0.07416708 0.019619377 -0.06958195 0.025652071 0.0111187715
-0.033407453 0.01588087 0.063223146 0.038519863 -0.070345506 -0.023538692 0.059491042 0.0066166534
0.0044543534 -0.0005161607 -0.029864281 -0.022998689 0.00044453572 0.048958924 -0.025392918 -0.02350094
0.008872309 -0.030323911 0.057116304 0.0487893 0.00014145445 -0.046132714 0.02106767 0.06265584
0.018145137 0.026317574 -0.038169183 -0.06851059 -0.023849016 -0.0034350401 0.05919809 0.013669021
-0.012031534 -0.015177485 -0.019614993 -0.04183658 -0.030981887 0.013729334 0.05006458 0.05375884
0.023443496 -0.05029236 0.065729395 0.07000894 0.012689359 0.037750654 0.1006123 0.013231758
0.07216427 0.044822585 0.07395956 0.060264055 0.10693251 0.09692158 -0.015553001 0.07633565
0.02038315 -0.0020809728 0.04658204 0.022527896 -0.013286105 -0.029790154 -0.0070964904 0.0389333
0.074346304 0.073251456 0.049558334 0.09649045 -0.032281555 -0.04408268 0.032096013 -0.06054176
0.07185542 0.015890954 -0.025488459 0.065182716 0.037461333 0.06550798 0.060517628 -0.0117121395
0.06652218 0.014214631 0.013485439 0.032566506 -0.05511362 -0.04009995 0.07175559 -0.039466787
0.04646734 0.04235123 -0.055663966 -0.003610227 0.005811728 0.060477823 -0.019152772 0.06393835
-0.059722055 0.028616052 0.036568545 -0.02502543 -0.023110377 -0.045541465 0.017481918 0.021249935
-0.02452333 0.05699342 -0.011783127 -0.013013123 0.05206257 0.012261231 0.036952145 0.040012464
-0.049143657 -0.004856606 0.061680548 -0.045433756 0.0067457976 0.04880907 0.0030742472 0.003777094
0.047772907 -0.033081286 0.08592269 0.08613838 -0.00042183566 -0.0032438887 0.01197337 0.0987733
0.00402067 0.04010223 -0.044864487 0.047382485 0.07164146 0.054381408 0.014647925 0.026884725
0.08699468 0.059418187 0.014939775 -0.039615452 0.07272282 -0.00091929943 0.07239247 0.016396232
-0.003320011 -0.06033038 -0.032760438 0.0021161605 -0.074583516 -0.018686546 0.035960726 0.04437788
0.046983458 -0.027951602 0.0014950607 -0.06127839 0.031128062 0.0076164817 0.05302353 -0.0144426
0.06369686 0.0311859 0.055970676 -0.010121089 -0.05810549 -0.057598084 -0.06868127 0.009212491
-0.059465125 -0.024510862 0.032129735 0.062525995 -0.0171753 0.05107486 -0.0056081084 -0.016333498
-0.008451888 -0.031000445 0.0202503 -0.00010619973 -0.036280196 0.04451322 -0.03221758 -0.04883568
0.02542622 -0.0055454196 -0.0396875 -0.0591226 -0.022171866 -0.053048793 0.037459463 -0.010182673
0.034422908 0.033427216 -0.003520558 -0.019922014 -0.046749037 0.004260309 -0.072319955 -0.042849503
00000000: 87e1 98bd dd6d 95bd 6f48 92bc b4d6 d9bb
00000010: addd 58bd 1c5b 023d 3253 04bb e189 2cbd
00000020: cd22 99bd 2251 463d 5bc2 803d a4a7 8837
00000030: 27c3 23bd 17dc 1e3d 3e5e 103d bf01 8dbc
00000040: 3620 763d 3a82 6dbd 5371 64bc 7993 5c3d
00000050: 64ee 4ebd cf7e e2bc ac17 11bd 8235 0dbd
00000060: 0ac3 673d 1dbc 543d af24 65bd 7432 12bd
00000070: 86de b93b b374 90bc 96d0 fbbc 7758 7cbd
00000080: 712a 713d 7ed3 373d 140b c63c 6891 06bc
00000090: 7c13 7cbd 6995 6d3a bf10 f93c df4a 9cbc
000000a0: 222e 803d 2985 b33c 0bfa fe38 7b63 ef3c
000000b0: 8cf6 133d 63b7 3cbd 2f40 d23c 5036 80bd
000000c0: 0629 81bc b2ec d1bc 2304 423d e9e4 97bd
000000d0: d1b8 a03c fb80 8ebd 4b24 d23c 822b 363c
000000e0: 41d6 08bd 9918 823c 237b 813d 01c7 1d3d
000000f0: 4e11 90bd 37d4 c0bc e1ac 733d 83d0 d83b
00000100: d3f5 913b f54e 07ba f0a5 f4bc bf67 bcbc
00000110: 9310 e939 2789 483d cf04 d0bc 0b85 c0bc
00000120: 295d 113c da69 f8bc c9f2 693d 4ad7 473d
00000130: 6453 1439 a8f5 3cbd 1b96 ac3c b451 803d
00000140: 1ca5 943c f497 d73c 4a57 1cbd 484f 8cbd
00000150: 035f c3bc 691e 61bb b279 723d 08f4 5f3c
00000160: e91f 45bc fcaa 78bc 9faf a0bc d55c 2bbd
00000170: bacd fdbc 00f1 603c 8410 4d3d 3b32 5c3d
00000180: 930c c03c 5dff 4dbd 229d 863d d960 8f3d
00000190: 07e7 4f3c 6ea0 1a3d d20d ce3d 04ca 583c
000001a0: dcca 933d e397 373d 1c78 973d 71d7 763d
000001b0: 6fff da3d d27e c63d 04d2 7ebc de55 9c3d
000001c0: 90fa a63c ee60 08bb cfcc 3e3d 6c8c b83c
000001d0: f7ad 59bc 7b0a f4bc ad89 e8bb 8678 1f3d
000001e0: e042 983d dc04 963d aefd 4a3d c99c c53d
000001f0: aa39 04bd 0a90 34bd 1c77 033d a3fa 77bd
00000200: ef28 933d bf2d 823c 2ccd d0bc 847e 853d
00000210: 0e71 193d 0c29 863d 55e1 773d 46e4 3fbc
00000220: c83c 883d 7ce4 683c 08f2 5c3c 7564 053d
00000230: d2be 61bd d83f 24bd 98f4 923d eda7 21bd
00000240: 8a54 3e3d 7c78 2d3d e6ff 63bd 8f99 6cbb
00000250: 4f70 be3b 98b7 773d 46e6 9cbc 1cf2 823d
00000260: 1d9f 74bd 366c ea3c e6c8 153d 2102 cdbc
00000270: f951 bdbc b089 3abd 3d36 8f3c 5814 ae3c
00000280: 27e5 c8bc ef71 693d 040e 41bc fe34 55bc
00000290: 903f 553d 55e3 483c 225b 173d 1ce4 233d
000002a0: dc4a 49bd 2a24 9fbb bea4 7c3d bf18 3abd
000002b0: da0b dd3b 05ec 473d 4f79 493b 1f89 773b
000002c0: 86ad 433d 3e80 07bd 3cf8 af3d 5269 b03d
000002d0: d329 ddb9 6c97 54bb f42b 443c a849 ca3d
000002e0: d3bf 833b 3c42 243d d3c3 37bd 2314 423d
000002f0: c2b8 923d 0abf 5e3d dafd 6f3c 5b3d dc3c
00000300: 442a b23d 7c60 733d f5c5 743c d043 22bd
00000310: b4ef 943d 24fd 70ba 8142 943d 6451 863c
00000320: 8b94 59bb fd1c 77bd cf2f 06bd 48af 0a3b
00000330: 3ebf 98bd 8714 99bc 8e4b 133d 94c5 353d
00000340: ba71 403d c2fa e4bc eaf5 c33a 0dff 7abd
00000350: 4700 ff3c ae93 f93b 332f 593d a8a0 6cbc
00000360: 8073 823d 9379 ff3c 8241 653d edd2 25bc
00000370: 0600 6ebd f8eb 6bbd c4a8 8cbd fdef 163c
00000380: b491 73bd 01cb c8bc 789a 033d a10d 803d
00000390: 37b3 8cbc df33 513d 39c4 b7bb d4cd 85bc
000003a0: ca79 0abc a5f4 fdbc f5e3 a53c 8cb7 deb8
000003b0: 8b9a 14bd 7f53 363d 95f6 03bd ec07 48bd
000003c0: a64a d03c 5ab6 b5bb 5c8f 22bd 8a2a 72bd
000003d0: c6a1 b5bc b149 59bd 186f 193d 3ad5 26bc
000003e0: 09ff 0c3d faea 083d 29b9 66bb 7e33 a3bc
000003f0: eb7b 3fbd 109a 8b3b 7c1c 94bd f682 2fbd

conv2.bias f4 [16]
-0.03235691 0.017733699 0.067323014 -0.00011337661 0.029431852 -0.044916615 -0.07250543 -0.042136233
-0.038049966 -0.030670218 -0.06327211 -0.023107545 -0.031026842 0.030748455 0.018873917 -0.0039565004
00000000: ae88 04bd 4346 913c a6e0 893d 9bc4 edb8
00000010: 111b f13c 7cfa 37bd ba7d 94bd 0b97 2cbd
00000020: 48da 1bbd 1c40 fbbc cf94 81bd 094c bdbc
00000030: 012c febc 2fe4 fb3c 799d 9a3c 88a5 81bb

conv3.weight f4 [32, 16, 5, 5]
0.017628208 -0.047001027 -0.02093412 -0.003870261 -0.047777493 0.02632954 -0.036740903 0.03479712
0.049709532 0.011215904 -0.02275792 0.036682855 -0.031927735 0.0027920925 0.032477077 0.049020708
0.005036562 -0.0034505376 -0.0044119516 -0.047097556 0.012606156 -0.036353994 0.006827593 -0.010205934
0.035075884 -0.023854865 0.03221921 -0.0171785 -0.013642616 -0.04519494 0.04126891 0.004591243
-0.046413954 0.003834929 0.029012013 -0.00748838 0.042918112 0.020324823 -0.009442694 0.052499298
0.035832554 -0.0058328295 -0.009954797 0.008733184 -0.017089525 0.03814661 -0.039662775 -0.020373015
0.027018279 -0.0373572 -0.016510604 -0.028040221 0.022580078 -0.0043991427 -0.040124193 0.04083007
-0.024762012 -0.011227239 0.007941924 -0.04029103 -0.0051582847 -0.021281177 -0.018695347 -0.028793475
0.02254828 -0.026886359 -0.03873301 0.015170342 0.005384696 -0.009275546 0.0013402128 0.04437857
-0.022231637 -0.05472502 -0.058131646 0.05721021 0.04384096 0.017229715 -0.023923358 -0.009294553
-0.0006440915 0.062825106 0.03779165 -0.0016272397 -0.015765162 0.03752102 0.028549276 0.0888867
-0.0013503258 -0.0027296555 0.021640934 0.061659433 0.06738711 0.08247293 0.06711019 0.038793024
-0.0062524765 0.07176451 -0.0043737614 0.057321135 0.023976453 -0.027715636 0.0015750524 0.0042598583
0.04500847 0.045167714 0.01618725 -0.021146644 0.021980505 0.047152895 -0.01819475 0.048281234
0.019828698 0.03429198 0.021885233 0.04199723 -0.029630529 0.03428659 -0.032678597 0.0038691997
0.049889296 -0.026003404 -0.021504916 -0.008227977 0.011050938 -0.014137426 -0.04667323 0.0008548338
-0.014553793 -0.023374869 -0.0032085415 0.012976208 0.0048902766 -0.033125184 0.035568718 0.0080166515
-0.02180314 0.041582182 0.010533137 0.028133001 0.035701845 0.00025051163 0.04122552 0.0008306235
0.042354703 0.008086399 0.026455987 0.027256167 -0.02495482 0.04733464 -0.0027479816 0.009017043
-0.042799827 -0.02485996 0.023262903 -0.03451198 -0.0030263446 0.04010726 -0.052418478 -0.0056535327
0.004331484 0.026786514 -0.024592973 -0.05059232 -0.036958825 0.0056618927 -0.04600546 -0.04675411
-0.0034025828 0.011327178 -0.04746652 -0.03755028 0.027143613 -0.027914971 -0.029945511 -0.0100570405
0.04443042 -0.013990216 -0.03456917 -0.035009895 -0.0068011344 0.04010692 0.02017229 -0.016829386
-0.042972952 -0.025407868 0.014886337 0.043959722 0.026634349 -0.0058750063 0.030379407 0.0068968544
0.008247711 0.023942584 -0.012217104 0.017856149 0.0075526973 0.016198084 -0.010453692 0.032235425
-0.033351924 0.04433644 -0.033850342 -0.02653395 -0.023213103 0.003732498 -0.0024478463 -0.063253954
-0.0007739092 -0.0049537816 0.027497 -0.068453774 -0.08014049 -0.026068535 0.02638196 0.023271127
0.0068107895 -0.0041687456 0.03004391 0.007107931 -0.037325803 -0.03401948 -0.03453345 0.011822062
0.07231425 0.028515285 -0.036335398 0.0109906485 0.041660104 -0.0018896278 -0.010517919 -0.028122734
-0.0041224854 0.03737822 -0.014907817 -0.007365869 0.024558036 -0.018939538 -0.023016682 0.007891339
0.036284123 0.005596791 -0.002473144 -0.040705077 0.0282984 0.0035304937 -0.020307226 -0.043023583
-0.023315718 -0.035359852 0.016913876 0.040518973 -0.010951012 0.024688743 -0.00896318 -0.015715418
00000000: 0869 903c 2684 40bd 087e abbc 34a4 7dbb
00000010: 55b2 43bd 0cb1 d73c a17d 16bd 6d87 0e3d
00000020: 399c 4b3d e9c2 373c d16e babc c340 163d
00000030: a8c6 02bd 8afb 363b af06 053d f0c9 483d
00000040: bf09 a53b 6a22 62bb 2292 90bb 5ee9 40bd
00000050: 0d8a 4e3c ede7 14bd 00ba df3b ca36 27bc
00000060: bbab 0f3d 476b c3bc 4af8 033d edb9 8cbc
00000070: 4785 5fbc 541e 39bd 9709 293d 2372 963b
00000080: 8f1c 3ebd 6f53 7b3b 9aaa ed3c 1661 f5bb
00000090: e7ca 2f3d 3e80 a63c 87b5 1abc 8109 573d
000000a0: 28c5 123d 5221 bfbb 7219 23bc a115 0f3c
000000b0: 55ff 8bbc 9f3f 1c3d 6f75 22bd 4fe5 a6bc
000000c0: 7055 dd3c dd03 19bd 3f41 87bc 9bb4 e5bc
000000d0: dbf9 b83c af26 90bb 4459 24bd 6e3d 273d
000000e0: b4d9 cabc 74f2 37bc d81e 023c 3508 25bd
000000f0: d406 a9bb dd55 aebc fc26 99bc 4be0 ebbc
00000100: 2cb7 b83c c840 dcbc 81a6 1ebd 078d 783c
00000110: 1b72 b03b 76f8 17bc 14aa af3a 4ec6 353d
00000120: 1f1f b6bc 5827 60bd 731b 6ebd 4155 6a3d
00000130: 9492 333d 5525 8d3c ebfa c3bc 2e48 18bc
00000140: 40d8 28ba 73aa 803d 6bcb 1a3d 1b49 d5ba
00000150: f125 81bc a4af 193d 2ce0 e93c 3b0a b63d
00000160: 6afd b0ba 05e4 32bb 5448 b13c 9a8e 7c3d
00000170: 4102 8a3d 91e7 a83d 1171 893d 6fe5 1e3d
00000180: 93e1 ccbb 45f9 923d c551 8fbb 91c9 6a3d
00000190: 446a c43c e70b e3bc fd71 ce3a 4896 8b3b
000001a0: cd5a 383d c801 393d 209b 843c ba3b adbc
000001b0: 7610 b43c 6523 413d 280d 95bc 8bc2 453d
000001c0: cb6f a23c bf75 0c3d a948 b33c 4a05 2c3d
000001d0: b9bb f2bc 1870 0c3d fed9 05bd 6692 7d3b
000001e0: b858 4c3d 1705 d5bc 142b b0bc a3ce 06bc
000001f0: fe0e 353c aaa0 67bc 6e2c 3fbd ed16 603a
00000200: 0873 6ebc a77c bfbc 6546 52bb 299a 543c
00000210: 9d3e a03b 46ae 07bd 81b0 113d 4658 033c
00000220: 809c b2bc 1452 2a3d 2e93 2c3c 2e77 e63c
00000230: 193c 123d 1a57 8339 17dc 283d 33be 593a
00000240: 207c 2d3d d17c 043c 3aba d83c 5348 df3c
00000250: 0d6e ccbc f8e1 413d 7b17 34bb 38bc 133c
00000260: df4e 2fbd 1da7 cbbc d891 be3c 6f5c 0dbd
00000270: a355 46bb 8347 243d c2b4 56bd 4541 b9bb
00000280: 1fef 8d3b 646f db3c 3477 c9bc e439 4fbd
00000290: 2362 17bd 6687 b93b 3970 3cbd 3d81 3fbd
000002a0: defd 5ebb a195 393c 416c 42bd 53ce 19bd
000002b0: 485c de3c f0ad e4bc 4a50 f5bc 49c6 24bc
000002c0: acfc 353d 3837 65bc 6798 0dbd 8966 0fbd
000002d0: 0ddc debb 2747 243d 5c40 a53c c8dd 89bc
000002e0: 6804 30bd 2924 d0bc d3e5 733c 1c0f 343d
000002f0: 4730 da3c 2083 c0bb 3cde f83c 02ff e13b
00000300: 6821 073c 3d23 c43c 402a 48bc 0f47 923c
00000310: 9e7c f73b d8b1 843c f645 2bbc 4b09 043d
00000320: 079c 08bd 209a 353d a8a6 0abd ba5d d9bc
00000330: 6829 bebc ed9c 743b 0c6c 20bb 4a8b 81bd
00000340: 2be0 4aba 5553 a2bb 6341 e13c 7e31 8cbd
00000350: b220 a4bd ae8d d5bc fb1e d83c 17a3 be3c
00000360: 0b2d df3b f999 88bb a51e f63c a6e9 e83b
00000370: f1e2 18bd 0358 0bbd f272 0dbd 52b1 413c
00000380: 7e19 943d e398 e93c 6dd4 14bd 1f12 343c
00000390: c9a3 2a3d 63ad f7ba 5a53 2cbc a661 e6bc
000003a0: ea15 87bb e819 193d eb3f 74bc 635d f1bb
000003b0: ef2d c93c 1727 9bbc 7b8d bcbc ad4a 013c
000003c0: a99e 143d 4965 b73b 7914 22bb 5eba 26bd
000003d0: 0cd2 e73c db5f 673b 575b a6bc 7f39 30bd
000003e0: 9b00 bfbc 7ed5 10bd f88e 8a3c 39f7 253d
000003f0: e06b 33bc 0c40 ca3c 4dda 12bc 9fbd 80bc

conv3.bias f4 [32]
-0.015305013 -0.0009781794 -0.022645557 0.0036809472 0.032967977 -0.019083126 0.0075249253 -0.012725352
0.012713069 0.01259731 -0.04216866 -0.00569058 0.008471771 -0.01904237 -0.012103308 0.041326422
0.007988409 0.026685216 0.017427273 -0.020932866 -0.018770752 0.016098408 0.056358997 0.06384985
0.018224806 -0.002120756 0.018160034 0.040059496 -0.00073431374 0.03376612 0.016858157 0.048198745
00000000: e1c1 7abc 4136 80ba 2d83 b9bc 0c3c 713b
00000010: 6e09 073d 3754 9cbc a693 f63b ff7d 50bc
00000020: 7a4a 503c f364 4e3c 0bb9 2cbd 0b78 babb
00000030: 2fcd 0a3c bffe 9bbc f44c 46bc e545 293d
00000040: d1e1 023c f49a da3c a4c3 8e3c 677b abbc
00000050: 1fc5 99bc cfe0 833c b1d8 663d b6c3 823d
00000060: 304c 953c 62fc 0abb 5ac4 943c 6d15 243d
00000070: f67e 40ba 584e 0a3d 1e1a 8a3c 0c6c 453d

fc.weight f4 [32, 4608]
-0.014119352 -0.005849573 -0.021914298 0.0005266248 0.013009634 0.0008660761 0.009570221 -0.014916545
0.0026284358 -0.007686054 0.006090474 0.0012629076 0.005977663 -0.022838553 0.0052720793 -0.01515359
-0.01234779 0.002946996 -0.0050559067 0.00072989374 0.006992675 -0.006527102 -0.0017125391 -0.0046595526
0.0019527848 0.0007376586 -0.0052114744 -0.016034385 -0.00070091983 0.004144748 -0.00403931 0.0010959764
-0.0010004569 -0.010722851 -0.012536276 -0.0051022586 -0.0201913 -0.006974264 -0.009226724 -0.017141309
-0.0030350313 -0.0016310653 0.0007468618 -0.005054367 -0.010220418 -0.0064246287 -0.014153254 -0.0028277654
0.00045999684 -0.0054285717 -0.004082407 0.007041943 0.006755575 0.008706362 0.0073696403 0.0034909258
-0.0055467533 -0.019139774 -0.0016969104 0.006142215 0.004226943 0.0033980778 -0.016589997 -0.0058974954
0.008904585 -0.019322516 -0.0072284397 0.001630501 -0.019846037 -0.011518195 -0.011302427 0.0075912043
0.006628506 -0.00079856423 0.0067901746 -0.0019372576 -0.010234151 0.001926298 -0.011726505 0.007891763
-0.009641115 0.008288921 -0.008777245 0.0048978524 0.018784257 -0.0002716689 -0.0057773823 -0.012180096
0.002387913 -0.010184648 0.0056684217 -0.014365386 -0.008935466 -0.007941463 0.007511717 0.0040928824
-7.486773e-05 0.014662525 -0.015954439 -0.005374864 0.008324057 -0.008191033 -0.012962799 -0.011713741
0.007131627 -0.0014701863 -0.0009755424 -0.011845049 0.0078099654 -0.0012105721 0.011249568 0.0043461793
-0.017505946 0.007826818 -0.014991888 -0.009629303 -0.0025389486 -0.01598917 -0.006678989 -0.016646607
-0.0010451677 -0.014074051 -0.008579866 -0.0001493408 -0.008742397 -0.002223927 -0.004522342 -0.008795815
-0.018293647 0.002407893 -0.023792975 -0.012552267 -0.0077396575 0.0019490663 -0.018821994 0.0076593254
-0.011800555 -0.012651279 -0.0006473842 -0.007113823 -0.009292525 0.0048801363 -0.00083217036 -0.008489087
-0.0072977366 -0.0065489924 -0.004759795 -0.013696087 0.014109235 0.0044459687 0.006811335 -0.017544366
-0.0009885055 -0.005531617 -0.00612209 -0.022688609 -0.010954442 -0.016517619 -0.016416727 0.007896879
-0.015651433 -0.0026805347 0.00188974 -0.0006065017 0.0057530575 -0.0031675508 0.0041397205 -0.002269155
-0.017595628 -0.021063987 -0.012910554 -0.012254307 -0.014651435 -0.0011562443 -0.015675949 -0.014919617
-0.009893782 -0.01789626 -0.011987876 -0.007659423 -0.0061476845 -3.0128906e-05 0.008483067 -0.0066478504
-0.012375308 -0.013294002 -0.014374435 0.005169124 0.008687282 -3.303099e-05 0.00021331426 0.0015666327
0.0035184575 0.0031678134 0.005430764 0.00073506165 -0.0023382897 -0.0080144955 0.005431925 4.028982e-06
0.0049484964 0.010141111 0.006927735 0.009514328 0.007160887 -0.007445085 -0.009960533 -0.0014902405
0.00469848 -0.016536996 0.0005605553 0.0024756808 -0.011785093 -0.011658434 -0.010631695 0.010423485
0.0030509934 -0.011381993 0.0028511665 -0.014485411 -0.018716259 0.0053609335 -0.0039324546 -0.0028583058
0.0039291778 -0.006294706 -0.005071147 -0.006187206 0.019946368 -0.005307978 -0.003143881 -0.01400576
-0.010806007 -0.01702254 0.006091042 0.008701444 0.0021942384 0.0015202054 -0.010447608 0.0007283687
0.01927731 0.012315844 -0.0153941205 -0.012513264 -0.011376448 0.007283133 -0.004474619 0.007962012
-0.00888186 -0.005729911 -0.0009767353 -0.009165891 0.02058058 0.00804946 -0.015466428 -0.010619791
00000000: db54 67bc c6ad bfbb 9d85 b3bc 310d 0a3a
00000010: 5c26 553c 6209 633a 6bcc 1c3c 8664 74bc
00000020: d641 2c3b 4bdb fbbb 9992 c73b 2688 a53a
00000030: 46e0 c33b eb17 bbbc 68c1 ac3b c346 78bc
00000040: 634e 4abc 6322 413b 05ac a5bb 5756 3f3a
00000050: cf22 e53b 4de1 d5bb 4777 e0ba 29af 98bb
00000060: 96f4 ff3a 6e5f 413a 04c5 aabb 8b5a 83bc
00000070: efbd 37ba abd0 873b 305c 84bb dea6 8f3a
00000080: c321 83ba e6ae 2fbc f464 4dbc d930 a7bb
00000090: 3a68 a5bc 5e88 e4bb af2b 17bc ee6b 8cbc
000000a0: 60e7 46bb 78c9 d5ba 0cc9 433a 1a9f a5bb
000000b0: 8a73 27bc b185 d2bb 0de3 67bc 0852 39bb
000000c0: bb2b f139 29e2 b1bb b6c5 85bb 19c0 e63b
000000d0: df5d dd3b 21a5 0e3c 067d f13b 04c8 643b
000000e0: 8ac1 b5bb 04cb 9cbc dd6a deba a244 c93b
000000f0: 2b82 8a3b 49b2 5e3b bfe7 87bc c73f c1bb
00000100: 89e4 113c 414a 9ebc 8cdc ecbb 89b6 d53a
00000110: 2894 a2bc d0b6 3cbc d12d 39bc a3bf f83b
00000120: f033 d93b bd56 51ba 1d80 de3b 94eb fdba
00000130: 24ad 27bc d67b fc3a 8720 40bc 744c 013c
00000140: c4f5 1dbc 41ce 073c 6fce 0fbc 2a7e a03b
00000150: 71e1 993c c86e 8eb9 3250 bdbb 068f 47bc
00000160: 887e 1c3b 83dd 26bc 2bbe b93b cc5c 6bbc
00000170: 1066 12bc e91c 02bc d924 f63b 961d 863b
00000180: 4e02 9db8 163b 703c e2b2 82bc a11f b0bb
00000190: a061 083c af33 06bc eb61 54bc feea 3fbc
000001a0: 6cb0 e93b 44b3 c0ba 8bbb 7fba bd11 42bc
000001b0: bdea ff3b 0fac 9eba 1c50 383c 656a 8e3b
000001c0: a168 8fbc 0e3c 003c 89a0 75bc 39c4 1dbc
000001d0: 7d64 26bb b8fb 82bc 6cdb dabb 775e 88bc
000001e0: 02fe 88ba d996 66bc 9192 0cbc 5e98 1cb9
000001f0: 453c 0fbc 4ebf 11bb 2730 94bb 521c 10bc
00000200: 8fdc 95bc becd 1d3b 7ce9 c2bc 06a8 4dbc
00000210: f49c fdbb d077 ff3a 9530 9abc 14fb fa3b
00000220: 1d57 41bc 4f47 4fbc 38b5 29ba 131b e9bb
00000230: ad3f 18bc 8de9 9f3b 0226 5aba d015 0bbc
00000240: da21 efbb ee98 d6bb 0ef8 9bbb 8d65 60bc
00000250: 6c2a 673c 7daf 913b 9f31 df3b 34b9 8fbc
00000260: be90 81ba 9142 b5bb d09b c8bb 76dd b9bc
00000270: 437a 33bc f54f 87bc 5f7c 86bc e961 013c
00000280: 6f37 80bc e9ab 2fbb 27b1 f73a a4fd 1eba
00000290: 2584 bc3b af96 4fbb 7ea6 873b 1bb6 14bb
000002a0: b524 90bc 628e acbc ca86 53bc 4ac6 48bc
000002b0: 930c 70bc 1f8d 97ba d96a 80bc 6971 74bc
000002c0: 8819 22bc 2d9b 92bc cc68 44bc e6fb fabb
000002d0: 8472 c9bb 55bd fcb7 90fc 0a3c 36d6 d9bb
000002e0: cec1 4abc 16cf 59bc c082 6bbc c161 a93b
000002f0: 1a55 0e3c c18a 0ab8 1cad 5f39 7857 cd3a
00000300: ec95 663b 179b 4f3b 8df4 b13b 27b1 403a
00000310: fe3d 19bb 3b4f 03bc 4afe b13b b130 8736
00000320: ff26 a23b e726 263c 0e02 e33b fce1 1b3c
00000330: e0a5 ea3b e6f5 f3bb 8131 23bc 2c54 c3ba
00000340: b5f5 993b 9878 87bc 3bf2 123a 083f 223b
00000350: 4316 41bc 0403 3fbc 9030 2ebc 44c7 2a3c
00000360: 2df3 473b 8a7b 3abc a3da 3a3b 3854 6dbc
00000370: d752 99bc c5aa af3b d2db 80bb 6a52 3bbb
00000380: 55c0 803b d243 cebb dd2b a6bb 0cbe cabb
00000390: 9166 a33c 8cee adbb 9209 4ebb 6a78 65bc
000003a0: ae0b 31bc db72 8bbc 5d97 c73b 8090 0e3c
000003b0: 36cd 0f3b a141 c73a 722c 2bbc ffef 3e3a
000003c0: 73eb 9d3c 65c8 493c 9f37 7cbc 6f04 4dbc
000003d0: 4864 3abc 59a7 ee3b d39f 92bb 1973 023c
000003e0: 3985 11bc fac1 bbbb cc05 80ba 892c 16bc
000003f0: 9b98 a83c e2e1 033c e766 7dbc a2fe 2dbc

fc.bias f4 [32]
-0.0017681747 0.048358887 -0.012225201 -0.00039072096 0.013820211 0.007955128 0.026765173 0.01850087
-0.0067991777 -0.0044408045 -0.008044252 0.011416975 -0.0024622995 0.020897178 -0.019061066 0.014259078
-0.009323047 -0.0020211677 0.014615154 0.028066415 0.04810486 -0.016157448 0.0026062704 0.016078534
-0.007552261 0.0105115175 0.009290731 0.0016188737 0.016739907 0.025073353 0.026726348 0.029200783
00000000: 19c2 e7ba f813 463d 364c 48bc aed9 ccb9
00000010: 2b6e 623c 3a56 023c a342 db3c 238f 973c
00000020: a3cb debb 2b84 91bb 0acc 03bc 440e 3b3c
00000030: 885e 21bb 8f30 ab3c f425 9cbc e89e 693c
00000040: b1bf 18bc 9175 04bb 6674 6f3c 8aeb e53c
00000050: 9a09 453d a05c 84bc f6cd 2a3b 21b7 833c
00000060: f578 f7bb 8038 2c3c 2638 183c 6330 d43a
00000070: 2122 893c a266 cd3c 37f1 da3c 7b36 ef3c

translation.weight f4 [2, 32]
-0.0019220804 -0.0035309116 0.0067000105 -0.0019917714 -0.0015219306 -0.0075379857 -0.0017446271 -0.005050027
-0.0021529403 -0.000101854515 -0.00695584 -0.0017577833 -0.0021851873 -0.0014985622 -0.006601035 -0.0021786045
0.0036487223 -0.002614609 -0.0013876976 -0.0014254221 0.002505233 0.003019859 -0.00182981 0.0059113596
0.00019301464 -0.0025359388 -0.0051464178 -0.0026366282 -0.0013052757 -0.0032075525 -0.0024802196 -0.0036954768
-0.0015557009 0.0035683615 -0.010305765 -0.0018884855 -0.0012296936 -0.018259326 0.0032301084 -0.01786767
-0.0014874369 0.00032748145 0.0031748863 -0.0012933114 -0.0011122774 -0.0011251785 -0.009896205 -0.0016834111
-0.005501902 -0.00085158035 -0.0015433773 -0.0015394457 0.00035212125 -0.0040261205 -0.0017487224 -0.0031444211
0.00038760682 -0.0015110035 -0.013249233 -0.0015235387 -0.0016845411 -0.013702718 0.0030511564 -0.013964297
00000000: 51ee fbba de66 67bb c38b db3b 6188 02bb
00000010: 847b c7ba 3501 f7bb f9ab e4ba b27a a5bb
00000020: 5818 0dbb ba9a d5b8 d1ed e3bb 6c65 e6ba
00000030: 5c35 0fbb 676b c4ba 7f4d d8bb ebc6 0ebb
00000040: 671f 6f3b dc59 2bbb 68e3 b5ba 3bd5 baba
00000050: d62e 243b d4e8 453b 3cd6 efba 14b4 c13b
00000060: f963 4a39 fe31 26bb 48a3 a8bb 48cb 2cbb
00000070: c915 abba cd35 52bb 2e8b 22bb d02f 72bb
00000080: a9e8 cbba 2cdb 693b 83d9 28bc 0f87 f7ba
00000090: ac2d a1ba 9594 95bc 3ab0 533b 385f 92bc
000000a0: 1af6 c2ba d1b1 ab39 c111 503b 5484 a9ba
000000b0: d6c9 91ba ba7a 93ba b123 22bc e7a5 dcba
000000c0: 4d49 b4bb 973c 5fba 264b caba 3ac7 c9ba
000000d0: ea9c b839 8ced 83bb 6335 e5ba a212 4ebb
000000e0: b537 cb39 dd0c c6ba 5013 59bc 7ab1 c7ba
000000f0: d2cb dcba 5d81 60bc e9f5 473b 82ca 64bc

translation.bias f4 [2]
-0.014495901 -0.018463068
00000000: 3780 6dbc dc3f 97bc

rotation.weight f4 [1, 32]
-0.009256218 -0.019254806 0.009762064 -0.009780429 -0.010184833 -0.014512355 -0.016161658 -0.015666831
-0.008243688 -0.0058419234 -0.0040359297 -0.009911717 -0.007224163 -0.010294853 0.015334199 -0.009526422
-0.007106135 -0.0063815136 -0.010491619 -0.028635234 -0.027223643 -0.008493126 -0.01024013 -0.007889662
-0.0020305302 -0.007432591 -0.008474343 -0.006908674 -0.010407344 -0.013900946 -0.022654297 -0.05240606
00000000: 64a7 17bc 41bc 9dbc 10f1 1f3c 183e 20bc
00000010: 49de 26bc 3bc5 6dbc 7465 84bc ba57 80bc
00000020: 8910 07bc 9b6d bfbb d53f 84bb c164 22bc
00000030: acb8 ecbb beab 28bc 4b3c 7b3c b614 1cbc
00000040: 95da e8bb 041c d1bb 0ae5 2bbc 7094 eabc
00000050: 1e04 dfbc c126 0bbc 38c6 27bc a443 01bc
00000060: a512 05bb 188d f3bb f9d7 0abc 2862 e2bb
00000070: 9183 2abc cbc0 63bc 8195 b9bc bda7 56bd

scaling.weight f4 [2, 32]
-0.00032330616 0.00035595644 0.011917359 -0.00030283714 0.0024113387 0.005228433 0.0038672253 0.012028425
-0.00010968575 0.008523512 -0.0038481208 0.00051339396 -0.00046011343 0.0010591332 0.013939877 -2.616537e-05
0.006545259 -3.6420697e-05 0.00035582797 0.007786047 -0.005870657 0.019653864 0.0003293549 -0.00110741
0.0062261284 -7.8889934e-05 0.0066720955 -4.8226386e-05 -0.0003609204 0.022382021 0.0025932374 0.005930381
-0.0009280748 0.00091078377 -0.0060596415 -0.0010535538 -0.00033349585 0.0032306775 0.0006925081 -0.0034167836
-0.00057840114 -0.0013397633 -0.0069668745 -0.0006782006 -0.00046602794 -0.0006960018 0.008205462 -0.0009024566
0.0055481247 -5.2616648e-05 -0.0010734301 -0.0028838108 0.00085766055 0.0048198416 -0.00090321724 -0.0019478907
0.00027770278 -0.0006063651 -0.0018719296 -0.00043364728 -0.0012828796 -0.00028401223 -8.816589e-05 -0.0033938668
00000000: 6b81 a9b9 aa9f ba39 0741 433c 1dc6 9eb9
00000010: 8d07 1e3b 4653 ab3b 4671 7d3b df12 453c
00000020: 1707 e6b8 33a6 0b3c c130 7cbb 4995 063a
00000030: 613b f1b9 9dd2 8a3a 1564 643c b47d dbb7
00000040: 9d79 d63b 6dc2 18b8 6c8e ba39 1922 ff3b
00000050: a45e c0bb 2401 a13c 44ad ac39 8326 91ba
00000060: 8d04 cc3b b671 a5b8 98a1 da3b b046 4ab8
00000070: eb39 bdb9 805a b73c 4ef3 293b a453 c23b
00000080: 0c4a 73ba aac1 6e3a f58f c6bb 6617 8aba
00000090: 0ed9 aeb9 c6b9 533b 6f89 353a 1eec 5fbb
000000a0: d89f 17ba ff9a afba 614a e4bb 46c9 31ba
000000b0: 3655 f4b9 e473 36ba 3470 063c d692 6cba
000000c0: 0bcd b53b b2b0 5cb8 56b2 8cba 51fe 3cbb
000000d0: a0d4 603a c3ef 9d3b e2c5 6cba 5e50 ffba
000000e0: a398 9139 79f4 1eba 895b f5ba 275b e3b9
000000f0: 4c26 a8ba 7ae7 94b9 b4e5 b8b8 a36b 5ebb

scaling.bias f4 [2]
0.013983144 -0.0023836698
00000000: 8f19 653c 5837 1cbb

shearing.weight f4 [1, 32]
-0.010027237 -0.0144858165 -0.010257021 -0.009962808 -0.009805432 -0.00031372023 -0.014560887 -0.011208542
-0.01030552 -0.008566802 0.0038984679 -0.00985736 -0.010467396 -0.009681208 -0.008273947 -0.010123957
0.0018295358 -0.010934725 -0.009498296 -0.00078327494 0.013636432 0.025826477 -0.009795807 0.031873774
-0.0024250504 -0.0105574215 -0.014571264 -0.010790045 -0.009424601 0.0027630716 -0.008767794 -0.002188211
00000000: 4849 24bc eb55 6dbc 100d 28bc 0c3b 23bc
00000010: f6a6 20bc d17a a4b9 c990 6ebc 08a4 37bc
00000020: 7cd8 28bc c65b 0cbc 707d 7f3b c480 21bc
00000030: 717f 2bbc ee9d 1ebc 738f 07bc f4de 25bc
00000040: 09cd ef3a 9027 33bc be9e 1bbc b154 4dba
00000050: 576b 5f3c 0c92 d33c 987e 20bc 138e 023d
00000060: 98ed 1ebb 09f9 2cbc 50bc 6ebc bbc8 30bc
00000070: a469 1abc a614 353b cba6 0fbc 1768 0fbb
