output/1010_e/train/model/stn_70.pt (torch_old, 658934 bytes, 14 tensors)

conv1.weight f4 [8, 2, 5, 5]
0	0x3dd48047	0.103760295
1	0x3dc86be6	0.09786205
2	0xbdbe68ed	-0.09297357
3	0xbe0c8781	-0.13723566
4	0x3db86f26	0.09005575
5	0xbe0d56b5	-0.13802607
6	0x3d9d3760	0.076765776
7	0xbe1cc4c2	-0.15309432
8	0xbdb62065	-0.088928975
9	0xbda3b436	-0.07993357
10	0x3df476d4	0.11936727
11	0xbd1c82fe	-0.03821086
12	0x3dd93f76	0.10607807
13	0x3cc7bd2c	0.024382196
14	0x3dee8676	0.1164674
15	0x3da398be	0.07988118
16	0x3db711bb	0.08938929
17	0x3ddbd333	0.107336424
18	0xbd704918	-0.058663458
19	0xbd6adeb6	-0.0573413
20	0x3d001639	0.031271193
21	0x3de0fad7	0.10985344
22	0xbd8b3854	-0.06797853
23	0xbe02e8b5	-0.12784083
24	0xbe046592	-0.12929371
25	0xbda4e94c	-0.0805231
26	0x3c0aa1fb	0.008461471
27	0xbcf935ca	-0.030421156
28	0xbd4d6765	-0.050147433
29	0xbd9dba9f	-0.07701611
30	0x3cafc193	0.021454608
31	0xbe05efda	-0.13079777
32	0x3dffcfde	0.124908194
33	0xbd0d2813	-0.034462046
34	0x3c805bd9	0.015668796
35	0x3cfd6297	0.0309308
36	0xbd919eac	-0.071103424
37	0x3dc6d9e6	0.097095296
38	0xbc60c548	-0.0137189105
39	0x3a4c5efe	0.00077961374
40	0xbe1a272e	-0.15054008
41	0x3a984a10	0.0011618752
42	0x3d0a6012	0.033783026
43	0x3bdfcd9c	0.0068299305
44	0xbccae5a4	-0.024767704
45	0x3db5fc00	0.08885956
46	0x3dc2c5a2	0.09510352
47	0x3da87d09	0.082269736
48	0xbd1a1c06	-0.03762438
49	0x3c5a9214	0.013340492
50	0xbde7da9c	-0.11320993
51	0xbdfa7f26	-0.12231283
52	0xbd32a4c8	-0.04361418
53	0xbb94e02b	-0.0045433245
54	0xbdd3e397	-0.10346144
55	0xbe095047	-0.1340953
56	0x3d4569e1	0.048196677
57	0x3d0b64a6	0.034031533
58	0xbde72607	-0.1128655
59	0x3d985e33	0.07439842
60	0xbdf77f3f	-0.12084817
61	0x3dbcc899	0.092179485
62	0x3d71437d	0.058902252
63	0xbd86613f	-0.06561517
64	0x3ded2c26	0.11580686
65	0xbdbf04f8	-0.093271196
66	0xbda40c60	-0.08010173
67	0x3dc7beda	0.09753199
68	0xbd5bf387	-0.053699043
69	0xbd9aa0c7	-0.07550197
70	0x3c0f14c4	0.008732978
71	0xbd203b48	-0.039119035
72	0x3d93e22a	0.07220872
73	0x3dc8e88a	0.09809978
74	0x3d33dcba	0.043911673
75	0x3c2e1386	0.010624772
76	0x3c68b491	0.014203207
77	0xbc91378d	-0.017726684
78	0xbbe9bab3	-0.007132852
79	0xbcb33e32	-0.021880243
80	0x3d9d977d	0.0769491
81	0x3d6f9ecb	0.058501046
82	0xbd0dfac6	-0.034662984
83	0x3cfe3c39	0.031034576
84	0xbc7ac369	-0.0153053785
85	0x3cfc8144	0.030823357
86	0x3dc44910	0.09584248
87	0xbdede241	-0.1161542
88	0xbad37a46	-0.0016134463
89	0xbd551ada	-0.05202756
90	0xbe216a0b	-0.15763108
91	0xbe212f39	-0.1574067
92	0xbd1e1429	-0.038593445
93	0x3da29abc	0.079396695
94	0xbded45d5	-0.11585585
95	0x3cd3981f	0.025829373
96	0x3d79444a	0.06085614
97	0xbdfd5809	-0.12370307
98	0x3d1c6c29	0.038189087
99	0x3b45c104	0.003017486
100	0xbe1f3618	-0.15547979
101	0xbcf5d9b7	-0.030011041
102	0xbe23fa56	-0.16013464
103	0x3dc59ca9	0.09649021
104	0x3d221980	0.0395751
105	0x3ce6bfdf	0.028167663
106	0x3da822fb	0.08209797
107	0x3da71033	0.08157387
108	0x3de94fe3	0.1139219
109	0x3d03af0b	0.032149356
110	0xbe02840c	-0.12745684
111	0x3dd828b7	0.10554641
112	0x3c596168	0.013267852
113	0xbda72b98	-0.08162612
114	0xbda07e5a	-0.078366
115	0x3ddbc9a0	0.10731816
116	0x3bc7b6c3	0.006094785
117	0x3d9e49f2	0.07728948
118	0xbc6d4864	-0.014482591
119	0x3dd73a3d	0.10509155
120	0xbe032652	-0.12807587
121	0x3c101ced	0.008795959
122	0x3c0c1965	0.008550976
123	0xbcdafc42	-0.026731614
124	0x3dcdf996	0.1005737
125	0xbab27682	-0.001361564
126	0xbcafaf6e	-0.021445956
127	0x3d8abbd6	0.06774108
128	0xbd21ead1	-0.03953058
129	0xbd1a6036	-0.03768941
130	0xbe157bed	-0.14598055
131	0xbcf309a9	-0.029667692
132	0xbdc13e7a	-0.094357446
133	0x3d5bdbb8	0.053676337
134	0x3dc1d88a	0.0946513
135	0xbe24bbc3	-0.1608725
136	0xbde1a182	-0.11017133
137	0x3ddd3989	0.108019896
138	0xbdb494d6	-0.08817451
139	0x3dc7c575	0.09754459
140	0x3de26ad5	0.11055533
141	0xbd820c8b	-0.06350049
142	0xbe11bae5	-0.14231451
143	0x3d2f951e	0.04286682
144	0x3d13a20a	0.036043204
145	0x3dc16412	0.09442915
146	0xbbf3e172	-0.0074426467
147	0x3d486140	0.04892087
148	0xbe189f99	-0.14904632
149	0xbc121037	-0.008914999
150	0x3c8c3374	0.017114379
151	0x3d95bb5c	0.073111266
152	0xbdb8cc3f	-0.09023332
153	0xbcf58781	-0.02997184
154	0xbdc474b2	-0.0959257
155	0xbde4d868	-0.11174089
156	0x3d30b6a9	0.04314295
157	0x3be3cdb0	0.00695201
158	0x3d304c1c	0.043041334
159	0xbc763e2c	-0.015029471
160	0xbca4f5d3	-0.02013675
161	0xbcad725d	-0.021172697
162	0x3d7d26d4	0.061804608
163	0xbde38d0f	-0.11110889
164	0x3c983127	0.018578125
165	0x3d788b11	0.0606795
166	0x3d875e44	0.066097766
167	0xbda954d2	-0.08268131
168	0x3dc50114	0.09619346
169	0xbdd9c57e	-0.10633372
170	0x3d671bfa	0.056423165
171	0x3dcbaed3	0.099454544
172	0xbc2c17e7	-0.010503746
173	0x3cf3b01a	0.029747058
174	0xbe15aba9	-0.14616264
175	0xbd9daa79	-0.07698531
176	0xbd9c2418	-0.07624072
177	0xbe1c8e76	-0.1528872
178	0xbd5546a2	-0.052069314
179	0x3d99e8fd	0.07515142
180	0xbd0d72e7	-0.034533408
181	0x3df343c8	0.118781626
182	0xbe181fe1	-0.14855911
183	0x3d0a4170	0.033753812
184	0x3dc8ec7c	0.09810731
185	0x3deec6a9	0.11658985
186	0xbd9abd37	-0.07555621
187	0xbe189815	-0.14901765
188	0xbd98bdd4	-0.07458082
189	0x3da4eadf	0.080526106
190	0xbc04b216	-0.0080991
191	0x3deaa7d9	0.11457796
192	0xbdfecca8	-0.12441379
193	0xbde3c211	-0.111209996
194	0x3d43c40c	0.047794387
195	0x3ceae88e	0.028675344
196	0xbde4fd1e	-0.11181091
197	0x3de2ffa3	0.11083915
198	0xbd9d1003	-0.076690696
199	0xbe10ccb6	-0.14140591
200	0x3ce71fee	0.028213467
201	0xbdb8a41f	-0.090156786
202	0xbd9a55a9	-0.0753587
203	0xbdac5786	-0.08415131
204	0x3d167282	0.036730297
205	0x3d6233b5	0.055225093
206	0x3dadb261	0.08481289
207	0xbdb2e8a6	-0.087357804
208	0xbd17bd59	-0.03704581
209	0x3e06d8f5	0.131687
210	0xbdaa65f9	-0.08320231
211	0xbd77168a	-0.06032423
212	0xbd07b8bb	-0.033135157
213	0xbe0316a1	-0.12801601
214	0xbdd4fc17	-0.10399645
215	0x3def1b2f	0.11675107
216	0x3c95fbb7	0.018308504
217	0x3cb16ad3	0.021657383
218	0x3d5e790a	0.05431465
219	0x3db31977	0.087450914
220	0x3db18d9e	0.086695895
221	0x3dc20b38	0.09474796
222	0x3d59a90b	0.053139728
223	0x3dd781dd	0.10522816
224	0x3dc00bfb	0.09377285
225	0xbd90b722	-0.0706618
226	0xbd1f81b8	-0.03894207
227	0xbe01507d	-0.1262836
228	0xbe1fed0e	-0.15617773
229	0x3db1f6fd	0.086896874
230	0xbe1fb7b5	-0.15597422
231	0xbe13e48a	-0.1444265
232	0xbe43d7b7	-0.19125257
233	0xbe25bf84	-0.16186339
234	0xbc940701	-0.018069746
235	0x3c854e3e	0.01627266
236	0xbe325d83	-0.17418484
237	0xbd347125	-0.044053216
238	0xbe209f65	-0.15685804
239	0xbcc3adfa	-0.02388667
240	0x3d12f203	0.03587533
241	0xbddc7e98	-0.10766333
242	0xbdecab27	-0.11556082
243	0x3d27546d	0.040852
244	0xbe0e8c81	-0.13920785
245	0xbd9704e9	-0.073739834
246	0xbe2b76d7	-0.16744553
247	0x3d49531c	0.049151525
248	0xbb262db9	-0.0025356843
249	0xbdcefc7a	-0.1010675
250	0x3daaed44	0.08346036
251	0x3df04bb2	0.11733188
252	0x3d2e3e5a	0.04253993
253	0xbde862fa	-0.11347003
254	0xbd2d0937	-0.042245116
255	0x3dc6e4ed	0.09711633

conv1.bias f4 [8]
0	0x3d2f1420	0.042743802
1	0xbc3c2a3c	-0.011484679
2	0xbd514d17	-0.05109891
3	0xbcd74d58	-0.026281998
4	0xbda7b056	-0.0818793
5	0x3dfa4be9	0.1222151
6	0x3ddd20be	0.10797261
7	0xbdb4c9cf	-0.088275544

conv2.weight f4 [16, 8, 5, 5]
0	0xbd8c4ef2	-0.06850995
1	0xbd8c7f50	-0.068602204
2	0xbc917867	-0.017757608
3	0xbc2bece6	-0.010493493
4	0xbd7412c7	-0.05958822
5	0x3d1dc26d	0.038515497
6	0x3b1f00bd	0.0024261915
7	0xbd2ccd69	-0.042188082
8	0xbda0dea0	-0.07854962
9	0x3d2c8965	0.042123217
10	0x3d8e2087	0.06939798
11	0x3b86e397	0.0041164863
12	0xbd2537d1	-0.040336434
13	0x3d0f5afc	0.03499888
14	0x3cf09a5a	0.029370476
15	0xbc35beb8	-0.011092834
16	0x3d82e1f5	0.06390754
17	0xbd6eaf16	-0.058272444
18	0xbc8c4735	-0.017123798
19	0x3d495a7e	0.049158566
20	0xbd38e34c	-0.045138642
21	0xbcc55941	-0.024090411
22	0xbd109b1c	-0.035304174
23	0xbd1621d4	-0.036653355
24	0x3d5a889c	0.053352937
25	0x3d60d52e	0.054890804
26	0xbd5cebe2	-0.053935893
27	0xbd0c9011	-0.03431708
28	0x3beced07	0.0072304043
29	0xbc802c03	-0.015645986
30	0xbced7854	-0.028988041
31	0xbd795cac	-0.060879394
32	0x3d70e7b9	0.058814738
33	0x3d37b952	0.04485447
34	0x3cc855be	0.024454948
35	0xbc016683	-0.007897976
36	0xbd7f528c	-0.062334582
37	0xba3b24d6	-0.0007138973
38	0x3cea794a	0.028622288
39	0xbca8c43f	-0.02060139
40	0x3d7c63b5	0.061618526
41	0x3ca2e5b6	0.019884925
42	0xbb35d1e3	-0.002774351
43	0x3cd77b3c	0.02630388
44	0x3d097a6b	0.033564012
45	0xbd4279d7	-0.047479477
46	0x3cbd716b	0.023125371
47	0xbd86f528	-0.065897286
48	0xbc9d3c96	-0.019193929
49	0xbceb912a	-0.028755743
50	0x3d3652b4	0.044512466
51	0xbd9f33f3	-0.077735804
52	0x3c83b9ba	0.016079772
53	0xbd949dac	-0.07256636
54	0x3cbfafd0	0.023399264
55	0x3c08505b	0.0083199395
56	0xbd17107f	-0.036880966
57	0x3c4dcb8a	0.0125607345
58	0x3d77bb80	0.06048155
59	0x3d157a36	0.036493503
60	0xbd95d074	-0.0731515
61	0xbcdcc232	-0.026948068
62	0x3d66c682	0.056341656
63	0x3b854ee1	0.004068241
64	0x3b2bf431	0.0026238079
65	0xbb59e285	-0.0033246588
66	0xbd07f7c5	-0.033195276
67	0xbcd4fa6d	-0.025998319
68	0xbafc86d7	-0.001926626
69	0x3d41cac9	0.04731253
70	0xbce6b853	-0.028164065
71	0xbcdaceed	-0.026709998
72	0x3bc57329	0.006025691
73	0xbd052395	-0.032504637
74	0x3d63f136	0.05564996
75	0x3d6183ad	0.055057216
76	0x3bb6d19d	0.005579187
77	0xbd21fc21	-0.03954709
78	0x3cc8bdd0	0.024504572
79	0x3d81a73a	0.06330724
80	0x3cbafd8f	0.022825984
81	0x3cf5848f	0.029970435
82	0xbd0853d5	-0.033283073
83	0xbd871fb5	-0.065978445
84	0xbcbeff61	-0.023315134
85	0xba0abd88	-0.00052925246
86	0x3d7b4fd7	0.061355438
87	0x3c89d7ed	0.016826594
88	0xbc2b3af4	-0.010451067
89	0xbc75b0a5	-0.014995729
90	0xbc9a77a9	-0.018855887
91	0xbd28837d	-0.041141022
92	0xbcf0a132	-0.029373739
93	0x3c6df0b0	0.014522716
94	0x3d4c8791	0.049933974
95	0x3d556eaa	0.05210749
96	0x3cb8ad0f	0.022543458
97	0xbd4c5e03	-0.049894344
98	0x3d87052c	0.06592783
99	0x3d8e7e15	0.06957642
100	0x3c81e215	0.015854875
101	0x3d20b958	0.039239258
102	0x3dd3b9fa	0.103382066
103	0x3c9520db	0.018204143
104	0x3d9f4f37	0.07778781
105	0x3d3e419b	0.046449285
106	0x3d984116	0.07434289
107	0x3d7ec88b	0.06220297
108	0x3de3f9a9	0.11131603
109	0x3dd14444	0.10218099
110	0xbc7e0e66	-0.015506363
111	0x3d9a9eff	0.07549857
112	0x3cafa957	0.021443052
113	0x3adbea90	0.0016778279
114	0x3d52ca70	0.05146259
115	0x3ca8e950	0.020619065
116	0xbc7e4ab2	-0.015520738
117	0xbcf3ffc7	-0.02978505
118	0xbb863efe	-0.0040968647
119	0x3d315f06	0.043303512
120	0x3d90d636	0.070721075
121	0x3d8f3f11	0.06994451
122	0x3d489d49	0.048978124
123	0x3dcb2aa5	0.09920243
124	0xbce5fdff	-0.028075216
125	0xbd32d3d9	-0.043659065
126	0x3cf8435c	0.030305557
127	0xbd8033b8	-0.062598646
128	0x3d8ff5db	0.07029315
129	0x3c65b89f	0.014021068
130	0xbcc877a8	-0.024471119
131	0x3d8101b0	0.0629915
132	0x3d0d95de	0.034566753
133	0x3d81e50b	0.063425146
134	0x3d7024ae	0.05862873
135	0xbc28488b	-0.010271202
136	0x3d83ac85	0.0642939
137	0x3c34a211	0.011024968
138	0x3c3bba92	0.011458056
139	0x3cfeafd7	0.031089706
140	0xbd5b2aab	-0.05350749
141	0xbd2cf6fd	-0.042227734
142	0x3d8c66d8	0.068555534
143	0xbd28d9f6	-0.04122349
144	0x3d3a7c98	0.045528978
145	0x3d3294fd	0.043599118
146	0xbd6d6bbd	-0.057964075
147	0xbbdc6236	-0.006725575
148	0x3b94e27d	0.004543601
149	0x3d76f83a	0.06029532
150	0xbc9368d2	-0.017994318
151	0x3d82ae05	0.06380848
152	0xbd774aa7	-0.06037393
153	0x3ce1fdfe	0.027586933
154	0x3d132a5d	0.035929073
155	0xbcc2d654	-0.02378384
156	0xbcbcd247	-0.023049487
157	0xbd3c9ffc	-0.04605101
158	0x3c84a8d5	0.016193787
159	0x3ca4179d	0.020030791
160	0xbcbf8f10	-0.023383647
161	0x3d69a3b5	0.05704089
162	0xbc4e6b59	-0.012598836
163	0xbc713a32	-0.0147233475
164	0x3d4f03fc	0.05054091
165	0x3c5a320d	0.013317597
166	0x3d1617a2	0.03664363
167	0x3d1dec75	0.03855558
168	0xbd51cf54	-0.051223114
169	0xbbd24087	-0.0064163837
170	0x3d814b60	0.06313205
171	0xbd3b3a50	-0.045709908
172	0x3bab3f0d	0.005226022
173	0x3d3ef94d	0.04662447
174	0x3ace6b2f	0.0015748496
175	0x3b025031	0.0019884224
176	0x3d3755ff	0.044759747
177	0xbd0ff849	-0.035148893
178	0x3daee75a	0.085402206
179	0x3db0ccef	0.08632838
180	0xbacb9507	-0.0015532085
181	0xbbcd38cb	-0.0062628738
182	0x3c1f156c	0.009709697
183	0x3dc92ba3	0.09822776
184	0x3b8e4f63	0.0043429597
185	0x3d204c85	0.039135475
186	0xbd44787a	-0.047966458
187	0x3d384358	0.0449861
188	0x3d91e241	0.07123233
189	0x3d615d3d	0.05502056
190	0x3c5eca7c	0.013598081
191	0x3cc07f75	0.023498276
192	0x3dacd19e	0.08438419
193	0x3d720288	0.059084445
194	0x3c81fd06	0.015867721
195	0xbd28b0c1	-0.04118419
196	0x3d8d04b1	0.068856604
197	0xbb729693	-0.0037016019
198	0x3d93ecf2	0.07222928
199	0x3c90f507	0.017694963
200	0xbbb105d5	-0.0054023066
201	0xbd7a033a	-0.061038233
202	0xbcc7e9d8	-0.024403498
203	0x3c627f1f	0.013824253
204	0xbd97710b	-0.07394608
205	0xbcb40557	-0.021975202
206	0x3cfd55e8	0.030924752
207	0x3d3572f8	0.044299096
208	0x3d54a35e	0.05191361
209	0xbcfd511f	-0.03092247
210	0xba9f427f	-0.0012150555
211	0xbd885721	-0.066572435
212	0x3cdfbdff	0.027312277
213	0x3c1937da	0.009351695
214	0x3d4e5785	0.050376434
215	0xbc8b546b	-0.017008027
216	0x3d777685	0.060415763
217	0x3cf31ad7	0.029675884
218	0x3d702d91	0.058637206
219	0xbc3144a4	-0.010819588
220	0xbd7cfe06	-0.061765693
221	0xbd6ff2d6	-0.058581196
222	0xbd84968b	-0.06474026
223	0x3c78fc6e	0.015196903
224	0xbd687d9f	-0.056760427
225	0xbcb535b1	-0.022120329
226	0x3d0d51dd	0.0345019
227	0x3d860efe	0.06545828
228	0xbc6d1600	-0.014470577
229	0x3d5db01e	0.054123037
230	0xbb43b6e7	-0.0029863657
231	0xbc67796e	-0.014128072
232	0xbbb3339e	-0.0054687997
233	0xbce8a37d	-0.02839827
234	0x3cbb4870	0.02286169
235	0x3a2d905b	0.0006620937
236	0xbd132ed1	-0.03593332
237	0x3d38fb0c	0.045161292
238	0xbd0136bd	-0.031546343
239	0xbd464ca2	-0.048412926
240	0x3cd0f3ad	0.025506819
241	0xbbc00b07	-0.0058606896
242	0xbd22eb1a	-0.03977499
243	0xbd72bd01	-0.05926228
244	0xbcbc4db0	-0.022986263
245	0xbd59ec31	-0.053203765
246	0x3d199098	0.03749141
247	0xbc244e9a	-0.010028506
248	0x3d0899bf	0.03334975
249	0x3d03ba7a	0.03216026
250	0xbbffa066	-0.0078011034
251	0xbcb3a405	-0.021928797
252	0xbd482c0d	-0.048870135
253	0x3935cc83	0.00017337692
254	0xbd9cf01b	-0.07662984
255	0xbd405037	-0.0469515

conv2.bias f4 [16]
0	0xbc731b04	-0.014837984
1	0x3cf58d39	0.029974567
2	0x3dafd605	0.08585743
3	0x3c8fdc27	0.017561032
4	0x3d3273b4	0.043567374
5	0xbcd3308d	-0.025779987
6	0xbd9920a7	-0.07476931
7	0xbcfbd4e3	-0.03074116
8	0xbce1fde9	-0.027586894
9	0xbc681154	-0.014164288
10	0xbd89f51c	-0.06736204
11	0xbce4bdaf	-0.02792248
12	0xbcf8daa5	-0.030377695
13	0x3d065f0d	0.03280549
14	0x3d651be3	0.055934798
15	0xbc835404	-0.016031273

conv3.weight f4 [32, 16, 5, 5]
0	0x3ca49c7e	0.020094153
1	0xbd3b2d96	-0.04569777
2	0xbcc0026c	-0.023438655
3	0xbb05cd0a	-0.0020416402
4	0xbd0a71f6	-0.033800088
5	0x3ce05426	0.027383875
6	0xbd0fab65	-0.035075564
7	0x3d0fff1a	0.035155393
8	0x3d5b87fb	0.053596478
9	0x3cb7bbc7	0.022428406
10	0xbcdce4db	-0.026964596
11	0x3d04693f	0.032326933
12	0xbd139e78	-0.0360398
13	0x3ae4f106	0.001746685
14	0x3d1cc4ec	0.038273737
15	0x3d292b76	0.041301213
16	0xbb75fba0	-0.0037534013
17	0xbc357ec3	-0.011077586
18	0xbc09eced	-0.008418304
19	0xbd3073ca	-0.043079175
20	0x3bf89412	0.0075860107
21	0xbd2bca39	-0.0419409
22	0x3b0a904f	0.0021143144
23	0xbc2e6be6	-0.010645842
24	0x3d2e05dc	0.042486057
25	0xbd067036	-0.032821856
26	0x3cd267f3	0.025684332
27	0xbd0918ad	-0.0334708
28	0xbc7d3408	-0.0154543
29	0xbd4a4be1	-0.04938877
30	0x3d392860	0.04520452
31	0x3bfaca96	0.0076535447
32	0xbd53791c	-0.05162917
33	0x3bc7deb0	0.0060995445
34	0x3cfd6ce4	0.030935712
35	0xba8060e0	-0.0009794496
36	0x3d2af913	0.041741442
37	0x3c5d300a	0.013500223
38	0xbc225d9f	-0.009910016
39	0x3d4d6be0	0.050151706
40	0x3d280d6d	0.04102843
41	0x39b0c34f	0.00033714852
42	0xbbfef978	-0.007781204
43	0x3c248a3a	0.010042721
44	0xbcb3c326	-0.02194364
45	0x3d39a7c4	0.04532601
46	0xbce5f448	-0.028070584
47	0xbc63fdc8	-0.013915487
48	0x3cf865b2	0.03032193
49	0xbd1ff46f	-0.03905147
50	0xb9ef34c2	-0.0004562494
51	0xbcdce54e	-0.02696481
52	0x3ba90508	0.0051580705
53	0xbcaa1427	-0.020761563
54	0xbd3bd093	-0.04585321
55	0x3d6dc2e2	0.058047183
56	0xbc9393c7	-0.018014802
57	0xbcfaa95d	-0.030598337
58	0xbc4a478d	-0.012346161
59	0xbd57293a	-0.05252955
60	0x3c255542	0.010091128
61	0xbc516ea9	-0.012782731
62	0xbd104da8	-0.03523031
63	0xbd3e558a	-0.046468295
64	0x3bd44786	0.006478253
65	0xbc9c18fc	-0.019054882
66	0xbd1774b9	-0.03697655
67	0x3beb198f	0.0071746777
68	0xbc0dc1ec	-0.008652192
69	0xbccd1f96	-0.025039475
70	0x3b92f6b3	0.0044849752
71	0x3d2a1302	0.041522034
72	0xbcf2f303	-0.029656893
73	0xbd885872	-0.066574946
74	0xbd975955	-0.073900856
75	0x3d13415d	0.035951007
76	0x3cfc141d	0.03077131
77	0x3c855e52	0.016280327
78	0xbcfed74d	-0.031108523
79	0xbca5f729	-0.020259457
80	0xbc878494	-0.01654271
81	0x3d6124ad	0.054966617
82	0x3d1f674e	0.03891688
83	0xbb8b2ad8	-0.0042470507
84	0xbcc217f0	-0.023693055
85	0x3c8cc05c	0.017181568
86	0x3c999277	0.018746598
87	0x3dad27ee	0.084548816
88	0xbb091052	-0.0020914269
89	0xbc4bddc0	-0.012443006
90	0xb93f4cfc	-0.00018243858
91	0x3d500687	0.050787475
92	0x3d7a407c	0.061096653
93	0x3da3f8be	0.08006428
94	0x3d6fc12d	0.058533836
95	0x3c8f803c	0.017517202
96	0xbc209d94	-0.009803195
97	0x3d8c596d	0.06852994
98	0xbc55bf66	-0.013046121
99	0x3d1c0a8f	0.038096007
100	0x3cdce0e6	0.026962709
101	0xbccb4927	-0.024815155
102	0x3bb3c1ac	0.005485734
103	0x3c02c6b5	0.007981946
104	0x3d5f5e9b	0.054533582
105	0x3d358e41	0.044325117
106	0x3c898189	0.0167854
107	0xbc9c285f	-0.01906222
108	0x3cc58513	0.024111306
109	0x3d5a61a7	0.053315785
110	0xbcc33f81	-0.023833992
111	0x3d2fb9aa	0.042901672
112	0x3c677a54	0.014128286
113	0x3ce78d3f	0.028265594
114	0x3cadc6e0	0.021212995
115	0x3d189c43	0.037258398
116	0xbd15c397	-0.036563482
117	0x3cd9f661	0.02660674
118	0xbd24baa3	-0.040217053
119	0x3b0aa17c	0.002115338
120	0x3d4674d5	0.048451263
121	0xbcf52df7	-0.029929144
122	0xbcd70145	-0.026245723
123	0xbc4e7aa6	-0.012602484
124	0x3c517ab1	0.0127856
125	0xbc5510be	-0.01300448
126	0xbd38fc8f	-0.045162734
127	0x3b27b2cd	0.0025588751
128	0xbc4d6354	-0.012535889
129	0xbc6b6358	-0.014366947
130	0xbba9de62	-0.005183981
131	0x3c4d2e1d	0.012523201
132	0x3bc93f84	0.006141605
133	0xbcfa272e	-0.03053626
134	0x3d2e0de8	0.04249373
135	0x3a34e3fe	0.00069004286
136	0xbce38641	-0.027773978
137	0x3d187ded	0.037229467
138	0x3c182f1c	0.0092885755
139	0x3d017e1b	0.031614404
140	0x3cd90f4d	0.026496554
141	0xbc105d08	-0.008811243
142	0x3d06f05a	0.03294406
143	0xbb35416c	-0.0027657403
144	0x3d36d584	0.044637218
145	0x3b006dd8	0.0019596722
146	0x3ca00e40	0.019538045
147	0x3ca9d38e	0.02073076
148	0xbcdaa1d4	-0.026688494
149	0x3d569285	0.052385826
150	0x3d1c3fa9	0.03814665
151	0xbb9baed6	-0.0047510667
152	0xbd837e26	-0.06420545
153	0xbce44171	-0.027863236
154	0xbc156896	-0.0091191735
155	0x3cb3b1a4	0.021935292
156	0xbce72772	-0.028217051
157	0xbc22857d	-0.009919521
158	0xbdc21e42	-0.094784275
159	0xbd1d58d4	-0.03841479
160	0x3cffa0de	0.031204637
161	0xbc855a5d	-0.01627844
162	0xbda12344	-0.078680545
163	0xbd97984e	-0.07402097
164	0xbd5dc624	-0.05414404
165	0x3d5b3a67	0.053522494
166	0xbd8e8b7a	-0.06960197
167	0xbd9b2b16	-0.07576577
168	0xbc5f1b2b	-0.013617317
169	0xbc27da9e	-0.0102449935
170	0x3c917a9e	0.017758664
171	0xbd3856d8	-0.045004696
172	0xbc30506b	-0.010761361
173	0xbd6fda76	-0.05855795
174	0xbd519956	-0.051171623
175	0xbc027efc	-0.007964846
176	0x3d29e90b	0.041482013
177	0xbc83f155	-0.016106287
178	0xbd15c4bc	-0.036564574
179	0xbd2068c1	-0.0391624
180	0xbb5d63ac	-0.0033781333
181	0x3d1f3a7b	0.03887413
182	0x3c98690d	0.01860478
183	0xbc9743b5	-0.018464902
184	0xbd4180bb	-0.047241908
185	0xbcbb1110	-0.022835284
186	0x3c83070b	0.01599457
187	0x3d39ae32	0.04533214
188	0x3cdc4727	0.026889397
189	0xbc206ad5	-0.009791096
190	0x3ce2c626	0.027682375
191	0x3bd14416	0.0063862903
192	0x3c357ca5	0.011077081
193	0x3cd1ec47	0.025625361
194	0xbc666b27	-0.014063633
195	0x3c459ed8	0.012061797
196	0x3bd227b0	0.0064134225
197	0x3c8bbb2c	0.017057024
198	0xbc206d24	-0.009791646
199	0x3cf837da	0.03030007
200	0xbd2e5f1f	-0.042571183
201	0x3d0aa16a	0.033845343
202	0xbd1cc4bc	-0.038273558
203	0xbd060c24	-0.032726422
204	0xbd305d22	-0.04305757
205	0xbc0f3785	-0.008741264
206	0xbc66f6d2	-0.0140969325
207	0xbd92a146	-0.07159667
208	0xbc916276	-0.017747145
209	0xbcdb9a1f	-0.02680689
210	0x3cad70ce	0.021171954
211	0xbda43a66	-0.08018951
212	0xbdc394f9	-0.09549899
213	0xbd0f72b9	-0.035021517
214	0xbc0267a3	-0.007959279
215	0x3d06eee2	0.03294266
216	0x3c1e74ac	0.009671371
217	0xbb89acb1	-0.0042014946
218	0x3d2cedbc	0.04221891
219	0xbba282e4	-0.004959451
220	0xbce1cf61	-0.027564706
221	0xbc93bf65	-0.0180356
222	0xbcd90418	-0.02649121
223	0x3c9b7628	0.01897724
224	0x3d6dc6d1	0.058050934
225	0x3cf268b8	0.02959095
226	0xbd12e4f9	-0.035862897
227	0x3c34f808	0.011045463
228	0x3d2263f4	0.039646104
229	0xba4f49fd	-0.00079074485
230	0xbc2112ff	-0.009831189
231	0xbcdb3a87	-0.026761306
232	0xbaff3ca6	-0.0019473031
233	0x3d1ec347	0.03876045
234	0xbc2500cc	-0.010070991
235	0xbc264abe	-0.010149656
236	0x3cb9b501	0.022669317
237	0xbcaa5f19	-0.0207973
238	0xbccbffa0	-0.024902165
239	0x3c1dd6fe	0.009633778
240	0x3cfebbb5	0.031095365
241	0x38402c80	4.581781e-05
242	0xbc0fe88f	-0.008783474
243	0xbd3d8ee7	-0.04627886
244	0x3cddc001	0.027069094
245	0x38990c7c	7.297934e-05
246	0xbccc6c56	-0.024954002
247	0xbd46a267	-0.048494723
248	0xbce0380a	-0.027370472
249	0xbd0e0644	-0.034673944
250	0x3cc2ed9a	0.023794938
251	0x3d362dec	0.04447739
252	0xbc686371	-0.014183865
253	0x3ca9a407	0.020708097
254	0xbd016757	-0.031592693
255	0x3ab45e69	0.0013761047

conv3.bias f4 [32]
0	0xbc967840	-0.018367887
1	0x3c16e918	0.009210847
2	0x3c2415be	0.010014949
3	0x3c8c54cf	0.017130284
4	0x3d681856	0.056663834
5	0xbcd2e0d8	-0.02574198
6	0x3cd27dba	0.025694717
7	0x3b29926b	0.0025874625
8	0x3c1e68c5	0.009668534
9	0x3ced7eb8	0.028991088
10	0xbd72e3b0	-0.05929917
11	0x3c2c377d	0.010511276
12	0x3cc50d02	0.024054054
13	0xbc7eecc5	-0.01555938
14	0xbb9423b4	-0.0045208577
15	0x3d4cbb11	0.049983088
16	0x3cb3251d	0.021868283
17	0x3cc8b73c	0.024501435
18	0x3ce32dbd	0.02773177
19	0xbcab7b67	-0.020932866
20	0xbb4bc44b	-0.0031092342
21	0x3cb0c748	0.0215794
22	0x3d83fdc1	0.06444884
23	0x3da10528	0.078623116
24	0x3d29725b	0.041368823
25	0x3ca2697d	0.019825691
26	0x3d08cef0	0.033400476
27	0x3d327925	0.043572564
28	0x3c973c6c	0.018461429
29	0x3d854946	0.065081164
30	0x3cbe0834	0.02319727
31	0x3d8221e1	0.06354118

fc.weight f4 [32, 4608]
0	0xbc6754db	-0.014119352
1	0xbbbfadc6	-0.005849573
2	0xbcb3859d	-0.021914298
3	0x3a0a0d31	0.0005266248
4	0x3c55265c	0.013009634
5	0x3a630962	0.0008660761
6	0x3c1ccc6b	0.009570221
7	0xbc746486	-0.014916545
8	0x3b2c41d6	0.0026284358
9	0xbbfbdb4b	-0.007686054
10	0x3bc79299	0.006090474
11	0x3aa58826	0.0012629076
12	0x3bc3e046	0.005977663
13	0xbcbb17eb	-0.022838553
14	0x3bacc168	0.0052720793
15	0xbc7846c3	-0.01515359
16	0xbc4a4e63	-0.01234779
17	0x3b412263	0.002946996
18	0xbba5ac05	-0.0050559067
19	0x3a3f5657	0.00072989374
20	0x3be522cf	0.006992675
21	0xbbd5e14d	-0.006527102
22	0xbae07747	-0.0017125391
23	0xbb98af29	-0.0046595526
24	0x3afff496	0.0019527848
25	0x3a415f6e	0.0007376586
26	0xbbaac504	-0.0052114744
27	0xbc835a8b	-0.016034385
28	0xba37bdef	-0.00070091983
29	0x3b87d0ab	0.004144748
30	0xbb845c30	-0.00403931
31	0x3a8fa6de	0.0010959764
32	0xba8321c3	-0.0010004569
33	0xbc2faee6	-0.010722851
34	0xbc4d64f4	-0.012536276
35	0xbba730d9	-0.0051022586
36	0xbca5683a	-0.0201913
37	0xbbe4885e	-0.006974264
38	0xbc172baf	-0.009226724
39	0xbc8c6bee	-0.017141309
40	0xbb46e760	-0.0030350313
41	0xbad5c978	-0.0016310653
42	0x3a43c90c	0.0007468618
43	0xbba59f1a	-0.005054367
44	0xbc27738a	-0.010220418
45	0xbbd285b1	-0.0064246287
46	0xbc67e30d	-0.014153254
47	0xbb395208	-0.0028277654
48	0x39f12bbb	0.00045999684
49	0xbbb1e229	-0.0054285717
50	0xbb85c5b6	-0.004082407
51	0x3be6c019	0.007041943
52	0x3bdd5ddf	0.006755575
53	0x3c0ea521	0.008706362
54	0x3bf17d06	0.0073696403
55	0x3b64c804	0.0034909258
56	0xbbb5c18a	-0.0055467533
57	0xbc9ccb04	-0.019139774
58	0xbade6add	-0.0016969104
59	0x3bc944a2	0.006142215
60	0x3b8a822b	0.004226943
61	0x3b5eb249	0.0033980778
62	0xbc87e7bf	-0.016589997
63	0xbbc13fc7	-0.0058974954
64	0x3c11e489	0.008904585
65	0xbc9e4a41	-0.019322516
66	0xbbecdc8c	-0.0072284397
67	0x3ad5b689	0.001630501
68	0xbca29428	-0.019846037
69	0xbc3cb6d0	-0.011518195
70	0xbc392dd1	-0.011302427
71	0x3bf8bfa3	0.0075912043
72	0x3bd933f0	0.006628506
73	0xba5156bd	-0.00079856423
74	0x3bde801d	0.0067901746
75	0xbafdeb94	-0.0019372576
76	0xbc27ad24	-0.010234151
77	0x3afc7bd6	0.001926298
78	0xbc402087	-0.011726505
79	0x3c014c74	0.007891763
80	0xbc1df5c4	-0.009641115
81	0x3c07ce41	0.008288921
82	0xbc0fce6f	-0.008777245
83	0x3ba07e2a	0.0048978524
84	0x3c99e171	0.018784257
85	0xb98e6ec8	-0.0002716689
86	0xbbbd5032	-0.0057773823
87	0xbc478f06	-0.012180096
88	0x3b1c7e88	0.002387913
89	0xbc26dd83	-0.010184648
90	0x3bb9be2b	0.0056684217
91	0xbc6b5ccc	-0.014365386
92	0xbc126610	-0.008935466
93	0xbc021ce9	-0.007941463
94	0x3bf624d9	0.007511717
95	0x3b861d96	0.0040928824
96	0xb89d024e	-7.486773e-05
97	0x3c703b16	0.014662525
98	0xbc82b2e2	-0.015954439
99	0xbbb01fa1	-0.005374864
100	0x3c0861a0	0.008324057
101	0xbc0633af	-0.008191033
102	0xbc5461eb	-0.012962799
103	0xbc3feafe	-0.011713741
104	0x3be9b06c	0.007131627
105	0xbac0b344	-0.0014701863
106	0xba7fbb8b	-0.0009755424
107	0xbc4211bd	-0.011845049
108	0x3bffeabd	0.0078099654
109	0xba9eac0f	-0.0012105721
110	0x3c38501c	0.011249568
111	0x3b8e6a65	0.0043461793
112	0xbc8f68a1	-0.017505946
113	0x3c003c0e	0.007826818
114	0xbc75a089	-0.014991888
115	0xbc1dc439	-0.009629303
116	0xbb26647d	-0.0025389486
117	0xbc82fbb8	-0.01598917
118	0xbbdadb6c	-0.006678989
119	0xbc885e77	-0.016646607
120	0xba88fe02	-0.0010451677
121	0xbc6696d9	-0.014074051
122	0xbc0c9291	-0.008579866
123	0xb91c985e	-0.0001493408
124	0xbc0f3c45	-0.008742397
125	0xbb11bf4e	-0.002223927
126	0xbb943027	-0.004522342
127	0xbc101c52	-0.008795815
128	0xbc95dc8f	-0.018293647
129	0x3b1dcdbe	0.002407893
130	0xbcc2e97c	-0.023792975
131	0xbc4da806	-0.012552267
132	0xbbfd9cf4	-0.0077396575
133	0x3aff77d0	0.0019490663
134	0xbc9a3095	-0.018821994
135	0x3bfafb14	0.0076593254
136	0xbc41571d	-0.011800555
137	0xbc4f474f	-0.012651279
138	0xba29b538	-0.0006473842
139	0xbbe91b13	-0.007113823
140	0xbc183fad	-0.009292525
141	0x3b9fe98d	0.0048801363
142	0xba5a2602	-0.00083217036
143	0xbc0b15d0	-0.008489087
144	0xbbef21da	-0.0072977366
145	0xbbd698ee	-0.0065489924
146	0xbb9bf80e	-0.004759795
147	0xbc60658d	-0.013696087
148	0x3c672a6c	0.014109235
149	0x3b91af7d	0.0044459687
150	0x3bdf319f	0.006811335
151	0xbc8fb934	-0.017544366
152	0xba8190be	-0.0009885055
153	0xbbb54291	-0.005531617
154	0xbbc89bd0	-0.00612209
155	0xbcb9dd76	-0.022688609
156	0xbc337a43	-0.010954442
157	0xbc874ff5	-0.016517619
158	0xbc867c5f	-0.016416727
159	0x3c0161e9	0.007896879
160	0xbc80376f	-0.015651433
161	0xbb2fabe9	-0.0026805347
162	0x3af7b127	0.00188974
163	0xba1efda4	-0.0006065017
164	0x3bbc8425	0.0057530575
165	0xbb4f96af	-0.0031675508
166	0x3b87a67e	0.0041397205
167	0xbb14b61b	-0.002269155
168	0xbc9024b5	-0.017595628
169	0xbcac8e62	-0.021063987
170	0xbc5386ca	-0.012910554
171	0xbc48c64a	-0.012254307
172	0xbc700c93	-0.014651435
173	0xba978d1f	-0.0011562443
174	0xbc806ad9	-0.015675949
175	0xbc747169	-0.014919617
176	0xbc221988	-0.009893782
177	0xbc929b2d	-0.01789626
178	0xbc4468cc	-0.011987876
179	0xbbfafbe6	-0.007659423
180	0xbbc97284	-0.0061476845
181	0xb7fcbd55	-3.0128906e-05
182	0x3c0afc90	0.008483067
183	0xbbd9d636	-0.0066478504
184	0xbc4ac1ce	-0.012375308
185	0xbc59cf16	-0.013294002
186	0xbc6b82c0	-0.014374435
187	0x3ba961c1	0.005169124
188	0x3c0e551a	0.008687282
189	0xb80a8ac1	-3.303099e-05
190	0x395fad1c	0.00021331426
191	0x3acd5778	0.0015666327
192	0x3b6695ec	0.0035184575
193	0x3b4f9b17	0.0031678134
194	0x3bb1f48d	0.005430764
195	0x3a40b127	0.00073506165
196	0xbb193dfe	-0.0023382897
197	0xbc034f3b	-0.0080144955
198	0x3bb1fe4a	0.005431925
199	0x368730b1	4.028982e-06
200	0x3ba226ff	0.0049484964
201	0x3c2626e7	0.010141111
202	0x3be3020e	0.006927735
203	0x3c1be1fc	0.009514328
204	0x3beaa5e0	0.007160887
205	0xbbf3f5e6	-0.007445085
206	0xbc233181	-0.009960533
207	0xbac3542c	-0.0014902405
208	0x3b99f5b5	0.00469848
209	0xbc877898	-0.016536996
210	0x3a12f23b	0.0005605553
211	0x3b223f08	0.0024756808
212	0xbc411643	-0.011785093
213	0xbc3f0304	-0.011658434
214	0xbc2e3090	-0.010631695
215	0x3c2ac744	0.010423485
216	0x3b47f32d	0.0030509934
217	0xbc3a7b8a	-0.011381993
218	0x3b3adaa3	0.0028511665
219	0xbc6d5438	-0.014485411
220	0xbc9952d7	-0.018716259
221	0x3bafaac5	0.0053609335
222	0xbb80dbd2	-0.0039324546
223	0xbb3b526a	-0.0028583058
224	0x3b80c055	0.0039291778
225	0xbbce43d2	-0.006294706
226	0xbba62bdd	-0.005071147
227	0xbbcabe0c	-0.006187206
228	0x3ca36691	0.019946368
229	0xbbadee8c	-0.005307978
230	0xbb4e0992	-0.003143881
231	0xbc65786a	-0.01400576
232	0xbc310bae	-0.010806007
233	0xbc8b72db	-0.01702254
234	0x3bc7975d	0.006091042
235	0x3c0e9080	0.008701444
236	0x3b0fcd36	0.0021942384
237	0x3ac741a1	0.0015202054
238	0xbc2b2c72	-0.010447608
239	0x3a3eefff	0.0007283687
240	0x3c9deb73	0.01927731
241	0x3c49c865	0.012315844
242	0xbc7c379f	-0.0153941205
243	0xbc4d046f	-0.012513264
244	0xbc3a6448	-0.011376448
245	0x3beea759	0.007283133
246	0xbb929fd3	-0.004474619
247	0x3c027319	0.007962012
248	0xbc118539	-0.00888186
249	0xbbbbc1fa	-0.005729911
250	0xba8005cc	-0.0009767353
251	0xbc162c89	-0.009165891
252	0x3ca8989b	0.02058058
253	0x3c03e1e2	0.00804946
254	0xbc7d66e7	-0.015466428
255	0xbc2dfea2	-0.010619791

fc.bias f4 [32]
0	0xbae7c219	-0.0017681747
1	0x3d94a585	0.07258133
2	0xbc484c36	-0.012225201
3	0xb9ccd9ae	-0.00039072096
4	0x3c626e2b	0.013820211
5	0x3c1a610b	0.009422551
6	0x3d516553	0.05112202
7	0x3cb8f27e	0.022576567
8	0xbbdecba3	-0.0067991777
9	0xbb91842b	-0.0044408045
10	0xbc03cc0a	-0.008044252
11	0x3c3b0e44	0.011416975
12	0xbb215e88	-0.0024622995
13	0x3cab308f	0.020897178
14	0xbc9c25f4	-0.019061066
15	0x3c699ee8	0.014259078
16	0xbc18bfb1	-0.009323047
17	0xbb047591	-0.0020211677
18	0x3c6f7466	0.014615154
19	0x3d066e53	0.032820057
20	0x3d813ab3	0.06310024
21	0xbc845ca0	-0.016157448
22	0x3b2acdf6	0.0026062704
23	0x3d10010d	0.035157252
24	0xbbf778f5	-0.007552261
25	0x3c2c3880	0.0105115175
26	0x3c8097f4	0.015697457
27	0x3ad43063	0.0016188737
28	0x3c892221	0.016739907
29	0x3cfd5a15	0.030926744
30	0x3ccdf045	0.025138984
31	0x3ce99df3	0.028517699

translation.weight f4 [2, 32]
0	0xbafbee51	-0.0019220804
1	0xba16d8ec	-0.000575437
2	0x3bdb8bc3	0.0067000105
3	0xbb028861	-0.0019917714
4	0xbac77b84	-0.0015219306
5	0xbc370e95	-0.01117291
6	0xbac8e79b	-0.0015327813
7	0xbc490610	-0.012269512
8	0xbb0d1858	-0.0021529403
9	0xb8d59aba	-0.000101854515
10	0xbbe3edd1	-0.00695584
11	0xbae6656c	-0.0017577833
12	0xbb0f355c	-0.0021851873
13	0xbac46b67	-0.0014985622
14	0xbbd84d7f	-0.006601035
15	0xbb0ec6eb	-0.0021786045
16	0x3b6f1f67	0.0036487223
17	0xbb2b59dc	-0.002614609
18	0xbab5e368	-0.0013876976
19	0xbabb1aac	-0.0014274917
20	0x39938892	0.00028139778
21	0x3b45e8d4	0.003019859
22	0xbaefd63c	-0.00182981
23	0xba33a40f	-0.0006852755
24	0x394a63f9	0.00019301464
25	0xbb2631fe	-0.0025359388
26	0xbbdc7e45	-0.0067289197
27	0xbb2ccb48	-0.0026366282
28	0xbaab15c9	-0.0013052757
29	0x3b190fe6	0.0023355423
30	0xbaa0b3be	-0.0012260599
31	0x388f736c	6.84027e-05
32	0xbacbe8a9	-0.0015557009
33	0x3ad3cfc7	0.0016159945
34	0xbc28d983	-0.010305765
35	0xbaf7870f	-0.0018884855
36	0xbaa12dac	-0.0012296936
37	0xbcaf5be8	-0.021406129
38	0x39ffce14	0.0004879093
39	0xbd1f992f	-0.038964447
40	0xbac2f61a	-0.0014874369
41	0x39abb1d1	0.00032748145
42	0x3b5011c1	0.0031748863
43	0xbaa98454	-0.0012933114
44	0xba91c9d6	-0.0011122774
45	0xba937aba	-0.0011251785
46	0xbc2223b1	-0.009896205
47	0xbadca5e7	-0.0016834111
48	0xbbb4494d	-0.005501902
49	0xba5f3c97	-0.00085158035
50	0xbaca4b26	-0.0015433773
51	0x3b41fde0	0.0029600784
52	0x39cb4be1	0.0003877571
53	0xbb83ed8c	-0.0040261205
54	0xbae53563	-0.0017487224
55	0x3ae0d900	0.0017154515
56	0x39cb37b5	0.00038760682
57	0xbac60cdd	-0.0015110035
58	0xbcbd4fa5	-0.023109267
59	0xbac7b17a	-0.0015235387
60	0xbadccbd2	-0.0016845411
61	0xbc47a9c5	-0.012186472
62	0x3b41fb79	0.0029599352
63	0xbc204d4a	-0.009784052

translation.bias f4 [2]
0	0xbbfe66c8	-0.0077637173
1	0xbbde91e5	-0.0067922943

rotation.weight f4 [1, 32]
0	0xbc17a764	-0.009256218
1	0xbca6c4e2	-0.020357553
2	0x3c1ff110	0.009762064
3	0xbc203e18	-0.009780429
4	0xbc26de49	-0.010184833
5	0xbc73d033	-0.0148811815
6	0xbc7a996f	-0.0152953705
7	0xbc833c3e	-0.016019937
8	0xbc071089	-0.008243688
9	0xbbbf6d9b	-0.0058419234
10	0xbb843fd5	-0.0040359297
11	0xbc2264c1	-0.009911717
12	0xbbecb8ac	-0.007224163
13	0xbc28abbe	-0.010294853
14	0x3c7b3c4b	0.015334199
15	0xbc1c14b6	-0.009526422
16	0xbbe8da95	-0.007106135
17	0xbbd11c04	-0.0063815136
18	0xbc2be50a	-0.010491619
19	0xbd197823	-0.037468087
20	0xbcdae16d	-0.02671882
21	0xbc0b26c1	-0.008493126
22	0xbc27c638	-0.01024013
23	0xbbd18aa7	-0.0063947025
24	0xbb0512a5	-0.0020305302
25	0xbbf38d18	-0.007432591
26	0xbc3c08f7	-0.011476747
27	0xbbe26228	-0.006908674
28	0xbc2a8391	-0.010407344
29	0xbc9bb0fd	-0.019005293
30	0xbcd9db48	-0.02659382
31	0xbd9c2463	-0.07624128

scaling.weight f4 [2, 32]
0	0xb9a9816b	-0.00032330616
1	0xbac7df2a	-0.0015249003
2	0x3c434107	0.011917359
3	0xb99ec61d	-0.00030283714
4	0x3b1e078d	0.0024113387
5	0x3bec26c2	0.0072067687
6	0x3ae24e21	0.0017265716
7	0x3be90f68	0.0071124323
8	0xb8e60717	-0.00010968575
9	0x3c0ba633	0.008523512
10	0xbb7c30c1	-0.0038481208
11	0x3a069549	0.00051339396
12	0xb9f13b61	-0.00046011343
13	0x3a8ad29d	0.0010591332
14	0x3c646415	0.013939877
15	0xb7db7db4	-2.616537e-05
16	0x3bd6799d	0.006545259
17	0xb818c26d	-3.6420697e-05
18	0x39ba8e6c	0.00035582797
19	0x3b258607	0.0025256888
20	0xbaf4af58	-0.0018667979
21	0x3ca10124	0.019653864
22	0x39acad44	0.0003293549
23	0xba0f7f8d	-0.00054740236
24	0x3bcc048d	0.0062261284
25	0xb8a571b6	-7.8889934e-05
26	0x3c26f90f	0.010191216
27	0xb84a46b0	-4.8226386e-05
28	0xb9bd39eb	-0.0003609204
29	0x3d569e10	0.052396834
30	0xbb1dfd76	-0.0024107373
31	0x3bd229c9	0.0064136726
32	0xba734a0c	-0.0009280748
33	0x3a84e70e	0.001013966
34	0xbbc68ff5	-0.0060596415
35	0xba8a1766	-0.0010535538
36	0xb9aed90e	-0.00033349585
37	0x3b0cb680	0.0021471083
38	0xb74de44c	-1.2272107e-05
39	0x3bbeaddb	0.005819065
40	0xba179fd8	-0.00057840114
41	0xbaaf9aff	-0.0013397633
42	0xbbe44a61	-0.0069668745
43	0xba31c946	-0.0006782006
44	0xb9f45536	-0.00046602794
45	0xba3673e4	-0.0006960018
46	0x3c067034	0.008205462
47	0xba6c92d6	-0.0009024566
48	0x3bb5cd0b	0.0055481247
49	0xb85cb0b2	-5.2616648e-05
50	0xba8cb256	-0.0010734301
51	0xbb7ce1ae	-0.0038586664
52	0x3ab3ab69	0.00137077
53	0x3b9defc3	0.0048198416
54	0xba6cc5e2	-0.00090321724
55	0xb9ad5f8c	-0.0003306832
56	0x399198a3	0.00027770278
57	0xba1ef479	-0.0006063651
58	0xbbf86799	-0.007580709
59	0xb9e35b27	-0.00043364728
60	0xbaa8264c	-0.0012828796
61	0xbc2fff0b	-0.010741959
62	0x3b0e9521	0.0021756368
63	0xbb893300	-0.004186988

scaling.bias f4 [2]
0	0x3c0d3a13	0.008619803
1	0xbb58d16e	-0.0033083814

shearing.weight f4 [1, 32]
0	0xbc244948	-0.010027237
1	0xbc266646	-0.01015622
2	0xbc280d10	-0.010257021
3	0xbc233b0c	-0.009962808
4	0xbc20a6f6	-0.009805432
5	0x3aecb73e	0.0018059982
6	0xbc2bdee9	-0.010490158
7	0xbc540851	-0.012941436
8	0xbc28d87c	-0.01030552
9	0xbc0c5bc6	-0.008566802
10	0x3b7f7d70	0.0038984679
11	0xbc2180c4	-0.00985736
12	0xbc2b7f71	-0.010467396
13	0xbc1e9dee	-0.009681208
14	0xbc078f73	-0.008273947
15	0xbc25def4	-0.010123957
16	0x3aefcd09	0.0018295358
17	0xbc332790	-0.010934725
18	0xbc1b9ebe	-0.009498296
19	0x3b987904	0.004653098
20	0x3c843829	0.01614006
21	0x3cd3920c	0.025826477
22	0xbc207e98	-0.009795807
23	0x3d21f4c0	0.039540052
24	0xbb1eed98	-0.0024250504
25	0xbc2cf909	-0.0105574215
26	0xbcaf6383	-0.021409756
27	0xbc30c8bb	-0.010790045
28	0xbc1a69a4	-0.009424601
29	0x3b41b63e	0.0029558088
30	0xbbc24539	-0.005928662
31	0x38d67f8a	0.00010228071
