output/Mess6060_i/train/model/itn_290.pt (torch_old, 23547 bytes, 23 tensors)

conv11.weight f4 [2, 1, 3, 3]
0.25479668 0.26170784 -0.10036037 0.31751132 -0.079737686 0.046591256 -0.12510692 0.21063255
0.2921289 -0.20137145 0.24447586 0.0028976665 0.30869213 0.034507696 0.1263592 0.07262466
0.2857178 0.061501868
00000000: b674 823e 92fe 853e bd89 cdbd d890 a23e
00000010: 834d a3bd 79d6 3e3d 071c 00be 0fb0 573e
00000020: eb91 953e 5134 4ebe e157 7a3e c7e6 3d3b
00000030: e50c 9e3e f157 0d3d 4e64 013e 3dbc 943d
00000040: 9a49 923e 62e9 7b3d

conv11.bias f4 [2]
-0.019052507 0.24726704
00000000: 0114 9cbc 9233 7d3e

conv12.weight f4 [4, 2, 3, 3]
-0.074836254 0.0039926604 -0.058084015 0.17174284 -0.17535456 -0.08963841 -0.04465194 -0.13404638
0.035390995 -0.20890364 0.22820051 -0.1772347 0.18574163 0.035894673 -0.07204061 0.15665245
0.037598226 0.20403093 0.0537226 -0.07720648 0.055089578 -0.029589454 0.095373996 0.19599013
0.18941681 -0.093020596 0.12862095 0.05831143 0.105114095 -0.15524392 -0.21155797 -0.104435675
-0.19553788 0.23443455 0.07228147 0.09572103 0.112685174 -0.0020124484 0.17912224 -0.113085255
0.027223943 -0.16436747 0.15203764 -0.048041172 0.08361893 -0.02135298 0.18871014 -0.14443192
-0.09587803 -0.13471141 0.21110556 0.14695188 0.25515574 -0.17348889 -0.15420635 -0.16186292
-0.1747414 0.1618823 0.10292544 0.20959923 -0.059891626 -0.12958278 0.145926 -0.028554793
0.15586627 -0.08652 0.18845652 -0.19019672 -0.12556438 0.11622088 0.058838453 -0.048062515
00000000: c043 99bd ddd4 823b 81e9 6dbd 5bdd 2f3e
00000010: 2590 33be 5894 b7bd f4e4 36bd 7443 09be
00000020: 26f6 103d d6ea 55be 65ad 693e 037d 35be
00000030: 0e33 3e3e 4b06 133d 078a 93bd 8069 203e
00000040: 9900 1a3d 7ced 503e 3b0c 5c3d 6e1e 9ebd
00000050: 9ca5 613d 9565 f2bc 7153 c33d a3b1 483e
00000060: 7bf6 413e 9581 bebd 36b5 033e f7d7 6e3d
00000070: 0f46 d73d 43f8 1ebe a7a2 58be 5fe2 d5bd
00000080: 153b 48be 9c0f 703e 4f08 943d 6309 c43d
00000090: 7cc7 e63d 48e3 03bb d26b 373e 3e99 e7bd
000000a0: bf04 df3c f24f 28be c1af 1b3e d2c6 44bd
000000b0: 6740 ab3d 72ec aebc 3b3d 413e f6e5 13be
000000c0: b35b c4bd caf1 09be 0e2c 583e 8e7a 163e
000000d0: c6a3 823e 12a7 31be 45e8 1dbe 65bf 25be
000000e0: 69ef 32be 79c4 253e 93ca d23d 2ea1 563e
000000f0: ec50 75bd 59b1 04be a06d 153e beeb e9bc
00000100: 689b 1f3e 6631 b1bd bffa 403e eec2 42be
00000110: f393 00be 3605 ee3d 9700 713d 33dd 44bd

conv12.bias f4 [4]
0.395509 0.088679545 -0.03822997 0.27366748
00000000: 2880 ca3e 9f9d b53d 0797 1cbd 251e 8c3e

down1.weight f4 [8, 4, 2, 2]
0.14397162 -0.117515735 -0.29781 -0.36752486 -0.18353209 0.04212887 -0.10739736 -0.22996864
-0.017218284 -0.17560227 -0.25773662 -0.16438138 -0.27653113 -0.15521185 0.097165555 -0.030652268
0.07999595 -0.19140701 -0.286747 -0.13210638 0.018040068 -0.23027447 -0.14194587 -0.17302781
-0.011387047 -0.095384374 -0.036417805 -0.17848271 -0.11651363 -0.057744496 -0.13878939 -0.18337925
0.31558204 0.027239274 0.31561762 0.06384099 -0.2604392 0.13693926 -0.14453912 -0.15687095
-0.24389699 -0.2708002 0.020604141 -0.0960417 0.21982016 -0.0746021 0.3224472 -0.15591526
0.014966518 0.037294988 0.31015468 0.2802367 0.2511445 -0.20936552 0.15439534 -0.0780036
-0.016079187 -0.21574526 0.28097323 -0.1795396 0.14362182 0.036074407 0.21607272 -0.08383619
0.14285444 0.047059115 -0.12194036 -0.31822762 0.03790286 -0.08235207 -0.20341012 0.1513372
-0.0017446695 -0.17500979 -0.1950171 -0.0585122 0.14317493 0.022436248 -0.20977588 -0.06605188
-0.33068514 -0.19667533 0.20814838 -0.29915345 0.19809744 0.132553 0.31291592 0.0072948975
0.23392768 0.109884 0.2712815 -0.0062589264 -0.3103682 -0.4707554 -0.06670361 -0.20719723
0.17001069 0.16928071 0.21926391 0.078028925 0.01215419 -0.01887577 0.12662113 0.11089275
-0.23480025 -0.11262236 0.23998858 0.11317661 -0.10659598 -0.30087164 -0.01522325 -0.15027568
-0.0897663 0.09958211 0.07369283 0.08181722 -0.2506536 -0.15937158 -0.08631875 0.22029182
0.012733774 -0.06849209 0.0731906 -0.10407016 -0.1334558 0.2569288 -0.18136851 -0.060007032
00000000: 4c6d 133e 17ac f0bd 8d7a 98be 382c bcbe
00000010: d6ef 3bbe 528f 2c3d 26f3 dbbd e67c 6bbe
00000020: 5c0d 8dbc 15d1 33be 0ef6 83be 9853 28be
00000030: 7d95 8dbe dbef 1ebe bcfe c63d 771a fbbc
00000040: ebd4 a33d 3300 44be 81d0 92be e546 07be
00000050: c4c8 933c 12cd 6bbe 425a 11be 342e 31be
00000060: bd90 3abc e258 c3bd d62a 15bd 2cc4 36be
00000070: b39e eebd 7e85 6cbd ce1e 0ebe c5c7 3bbe
00000080: f893 a13e e624 df3c a298 a13e 11bf 823d
00000090: 4958 85be ce39 0c3e 1002 14be c7a2 20be
000000a0: 22c0 79be 53a6 8abe 04ca a83c 83b1 c4bd
000000b0: 8918 613e fcc8 98bd cd17 a53e 40a8 1fbe
000000c0: 2036 753c a1c2 183d 98cc 9e3e 2f7b 8f3e
000000d0: 0396 803e ea63 56be d019 1e3e 5ac0 9fbd
000000e0: 80b8 83bc 53ec 5cbe b9db 8f3e 3bd9 37be
000000f0: 9911 133e c2c2 133d 2b42 5d3e 4fb2 abbd
00000100: 6f48 123e 0fc1 403d debb f9bd bbee a2be
00000110: 0840 1b3d 34a8 a8bd be4a 50be 24f8 1a3e
00000120: 65ad e4ba c435 33be 90b2 47be 7daa 6fbd
00000130: 739c 123e 39cc b73c 7dcf 56be 3546 87bd
00000140: 904f a9be 4265 49be d924 553e a42a 99be
00000150: 0eda 4a3e f9bb 073e 8436 a03e 090a ef3b
00000160: bd8a 6f3e dd0a e13d 69e5 8a3e ae17 cdbb
00000170: 95e8 9ebe da06 f1be e79b 88bd 832b 54be
00000180: 4817 2e3e ec57 2d3e b886 603e a1cd 9f3d
00000190: 5e22 473c 5ca1 9abc f8a8 013e bd1b e33d
000001a0: 7a6f 70be 8da6 e6bd 91bf 753e 23c9 e73d
000001b0: fe4e dabd d90b 9abe f06a 79bc dee1 19be
000001c0: 65d7 b7bd b5f1 cb3d 44ec 963d c98f a73d
000001d0: ab55 80be 4e32 23be e3c7 b0bd 2e94 613e
000001e0: 52a1 503c 9545 8cbd f4e4 953d bc22 d5bd
000001f0: a3a8 08be 2c8c 833e abb8 39be efc9 75bd

down1.bias f4 [8]
-0.45290494 -0.098787345 0.20382103 0.43786255 -0.5425194 -0.7518899 -0.15834303 0.18517283
00000000: 28e3 e7be 0551 cabd 76b6 503e 852f e03e
00000010: 8de2 0abf db7b 40bf ad24 22be f29d 3d3e

conv21.weight f4 [8, 8, 3, 3]
0.042314902 0.09969231 0.061741855 0.028921476 -0.0017335117 -0.103063755 -0.12080902 -0.13630466
-0.0007087999 -0.06476141 -0.018559037 -0.06529395 -0.01992532 -0.084591694 -0.09272652 0.017530462
-0.066329435 0.017893257 -0.0681678 -0.09858133 -0.030752756 -0.06510427 -0.036079377 -0.12129379
0.048194345 -0.100664064 0.021581942 0.027871037 0.005984143 -0.1810587 0.070732996 -0.09128168
0.022138141 0.14322124 -0.03659359 0.005740188 -0.042529408 -0.09496129 0.064150274 -0.11493814
0.08130969 0.08577581 0.09556002 -0.043510538 -0.13122497 0.06174729 0.082258455 -0.10171464
-0.019913116 -0.07244149 0.0010412763 -0.043238513 -0.034871627 -0.0012762401 -0.10938801 0.09174579
0.10046224 -0.018835645 -0.007162128 -0.020599457 -0.06976867 -0.07125441 0.11474889 -0.09099489
-0.07831611 -0.004990143 -0.040358856 -0.025880909 0.007018453 -0.029836414 -0.041062173 -0.07698368
-0.08588568 0.08545965 -0.07092937 0.04077186 -0.05610364 -0.027084235 0.12562114 0.04059353
-0.14784682 0.046448186 0.09371909 0.00087635237 0.08727323 0.09864667 -0.057664506 0.036156565
-0.095956765 -0.06928951 0.10193054 0.055247813 -0.08688924 -0.08549218 -0.098862745 -0.15144359
-0.0764241 -0.045776457 0.027722996 -0.02180881 -0.024644488 0.036558576 -0.004296505 -0.1952024
-0.043733787 -0.09571379 -0.19919978 -0.16491446 -0.0033446955 -0.051300734 -0.09761064 -0.11337882
-0.1085044 -0.08926537 0.11982375 -0.07318942 -0.10685632 0.015987778 0.034957893 0.07398351
0.09427593 0.09328002 -0.078144096 0.0057156254 0.1026977 0.053282388 -0.071190044 0.13691269
-0.009823888 -0.07487172 -0.092074044 0.046366747 0.031960916 0.045792814 0.0764895 -0.07013731
-0.11452754 -0.012416075 0.10967914 0.052149285 -0.09802868 0.0035519602 -0.09040389 -0.083724216
0.0046591987 0.09039196 0.072332345 -0.18072021 0.07451886 -0.011151839 -0.08922597 0.081070185
0.031215461 0.11288595 -0.019203193 0.011138997 -0.004166682 -0.0016550343 0.1272432 -0.18697388
0.073673375 0.12524731 0.07378644 -0.0137862405 0.034124523 0.053861376 0.14051554 0.22350141
-0.096886195 0.13179262 0.2221488 0.08234626 -0.0426821 0.08386387 0.06101036 -0.012587023
0.0071983337 0.30400115 0.047249336 0.014525622 0.06725361 0.024201123 -0.02756113 -0.18842864
-0.08581507 0.013953894 -0.26136485 -0.15964507 -0.05679289 -0.0811404 -0.28942928 -0.13365722
0.07019866 -0.14980786 -0.3041057 -0.07306096 -0.20348902 -0.24546418 0.05771617 -0.18215258
-0.10273058 0.14712267 -0.13919875 -0.15589097 0.11935148 0.01390643 -0.10213252 0.044821262
0.12010503 0.19853476 -0.0531711 0.17305559 0.23442602 -0.18298505 -0.035017483 0.311211
0.056887235 -0.08552865 -0.023570232 -0.08677735 0.0006619109 0.089304134 -0.026194181 0.06489182
-0.058575425 0.11136766 0.078636706 -0.0046226913 0.042476106 0.13560984 0.12172388 -0.13948646
0.098224096 -0.09207872 -0.20169847 -0.1353266 -0.02822824 0.20005842 0.28470698 0.15178306
0.17167622 0.08973207 -0.02054949 0.09015907 -0.09510095 -0.0746494 0.08991048 -0.03388255
0.03588396 0.21259008 -0.049263358 0.02720031 -0.15527852 -0.10534778 -0.0040140427 -0.07249872
00000000: 6452 2d3d 7b2b cc3d 07e5 7c3d bbec ec3c
00000010: 0037 e3ba 1713 d3bd b86a f7bd 7393 0bbe
00000020: c2ce 39ba a1a1 84bd 1f09 98bc d6b8 85bd
00000030: 6d3a a3bc 693e adbd 67e7 bdbd 0b9c 8f3c
00000040: bad7 87bd e194 923c 8f9b 8bbd 02e5 c9bd
00000050: 34ed fbbc 6355 85bd f8c7 13bd e168 f8bd
00000060: 6f67 453d f628 cebd 9dcc b03c cd51 e43c
00000070: a116 c43b 7467 39be 76dc 903d e4f1 babd
00000080: 0c5b b53c 97a8 123e 29e3 15bd 3018 bc3b
00000090: 5133 2ebd 117b c2bd 3861 833d b064 ebbd
000000a0: b285 a63d 3aab af3d f9b4 c33d 1b38 32bd
000000b0: d75f 06be baea 7c3d 1f77 a83d c44f d0bd
000000c0: d520 a3bc 345c 94bd 6f7b 883a de1a 31bd
000000d0: 8dd5 0ebd 8347 a7ba d206 e0bd 37e5 bb3d
000000e0: 26bf cd3d 364d 9abc 49b0 eabb 31c0 a8bc
000000f0: e0e2 8ebd d5ed 91bd 7701 eb3d 875b babd
00000100: 3264 a0bd 5a84 a3bb 544f 25bd 3304 d4bc
00000110: 0dfb e53b 7f6b f4bc cf30 28bd 9fa9 9dbd
00000120: d5e4 afbd 7805 af3d 6b43 91bd 6500 273d
00000130: eecc 65bd c2df ddbc d4a2 003e 6745 263d
00000140: 2865 17be 7440 3e3d cbef bf3d 03bb 653a
00000150: 4fbc b23d 4407 ca3d 9e31 6cbd e818 143d
00000160: fb84 c4bd a9e7 8dbd f5c0 d03d 884b 623d
00000170: fcf2 b1bd 8616 afbd 8d78 cabd 0714 1bbe
00000180: 3d84 9cbd 1880 3bbd 561b e33c 64a8 b2bc
00000190: 3de3 c9bc 72be 153d b2c9 8cbb 23e3 47be
000001a0: 3322 33bd 9705 c4bd 07fb 4bbe 56df 28be
000001b0: ae32 5bbb b820 52bd 16e8 c7bd 2833 e8bd
000001c0: 8e37 debd c3d0 b6bd 2766 f53d 56e4 95bd
000001d0: 7cd7 dabd cdf8 823c 0230 0f3d ab84 973d
000001e0: bd13 c13d 9809 bf3d 030a a0bd 244a bb3b
000001f0: 2c53 d23d a23e 5a3d 16cc 91bd d732 0c3e
00000200: 5ff4 20bc 5856 99bd 5191 bcbd 0feb 3d3d
00000210: 73e9 023d 3f91 3b3d 87a6 9c3d 26a4 8fbd
00000220: 6a8d eabd cb6c 4bbc 759f e03d 7d9a 553d
00000230: 43c3 c8bd 01c8 683b ad25 b9bd 9a77 abbd
00000240: 31ac 983b 6c1f b93d fb22 943d b80e 39be
00000250: 589d 983d 34b6 36bc 1bbc b6bd 2008 a63d
00000260: 91b7 ff3c c030 e73d 0450 9dbc 5780 363c
00000270: a988 88bb bced d8ba 0b4c 023e 1576 3fbe
00000280: 11e2 963d d540 003e 581d 973d afdf 61bc
00000290: 28c6 0b3d bf9d 5c3d 4ee3 0f3e 8edd 643e
000002a0: 456c c6bd a5f4 063e fa7a 633e 28a5 a83d
000002b0: 6dd3 2ebd d2c0 ab3d 00e6 793d cd39 4ebc
000002c0: 00e0 eb3b 0aa6 9b3e 8588 413d e0fc 6d3c
000002d0: 43bc 893d 6f41 c63c e1c7 e1bc 70f3 40be
000002e0: d0bf afbd e09e 643c 9dd1 85be ff79 23be
000002f0: a99f 68bd f02c a6bd 1330 94be 70dd 08be
00000300: 51c4 8f3d 3b67 19be beb3 9bbe fca0 95bd
00000310: 6d5f 50be f65a 7bbe ca67 6c3d 3586 3abe
00000320: 6964 d2bd 53a7 163e 1e8a 0ebe e2a1 1fbe
00000330: 8c6e f43d ccd7 633c db2a d1bd 8096 373d
00000340: a0f9 f53d b24c 4b3e f0c9 59bd 7c35 313e
00000350: 600d 703e 6f60 3bbe 7e6e 0fbd 0c57 9f3e
00000360: 9702 693d a529 afbd 5c16 c1bc 53b8 b1bd
00000370: 1784 2d3a 16e5 b63d 2e95 d6bc 01e6 843d
00000380: c9ec 6fbd ba14 e43d 480c a13d f279 97bb
00000390: 6dfb 2d3d 4edd 0a3e 5f4a f93d 8ad5 0ebe
000003a0: b729 c93d c593 bcbd 0b8a 4ebe 0e93 0abe
000003b0: e93e e7bc 1ddc 4c3e 1dc5 913e 056d 1b3e
000003c0: e4cb 2f3e 73c5 b73d 6757 a8bc 52a5 b83d
000003d0: 49c4 c2bd c9e1 98bd fc22 b83d 6ec8 0abd
000003e0: 0ffb 123d 37b1 593e 60c8 49bd 2fd3 de3c
000003f0: 5501 1fbe 94c0 d7bd 3b88 83bb 357a 94bd

conv21.bias f4 [8]
0.1855511 -0.07758021 0.33238098 0.29943004 0.7336217 -0.108501494 0.18487021 0.07464603
00000000: 1c01 3e3e 60e2 9ebd d72d aa3e e54e 993e
00000010: a2ce 3b3f 0836 debd 9e4e 3d3e 05e0 983d

down2.weight f4 [16, 8, 2, 2]
0.06849979 0.11363659 -0.08521225 0.09507779 0.10437655 0.15919471 -0.07291364 -0.083264515
-0.23778924 -0.1124758 -0.1589562 -0.25108057 -0.13799949 -0.19205835 -0.32977137 -0.22811992
-0.088739514 -0.18561834 0.041114166 0.047605664 -0.14268605 -0.029237635 0.0016902171 -0.12708786
0.01672349 -0.1893101 -0.17467298 -0.1920066 -0.068124555 -0.06362091 -0.012477127 -0.05551124
0.09672723 0.17063738 0.08760566 -0.04446516 -0.17397323 0.0773168 -0.095396936 0.11161764
0.31447184 0.16358432 0.47222432 0.31345254 0.33348292 0.02014481 0.6035355 0.08548393
-0.051857423 0.34140044 0.11116863 0.22946884 0.022751473 -0.13923222 0.0054864665 0.1964677
0.06594113 0.028149474 -0.003193203 -0.032885563 0.11332958 0.011927137 0.14582582 -0.005524834
0.13285705 0.087760806 0.080479294 0.12291796 0.0886876 0.13161232 0.09185677 -0.08932954
0.008973615 0.17697108 0.18138109 0.09917971 0.45721793 0.08195065 0.5572015 0.16776413
-0.4152783 -0.16593613 -0.6352533 -0.26017886 0.19875738 0.09467591 0.20291387 0.004944292
0.09996886 0.07831542 -0.095400445 0.036111653 0.04087757 -0.092495434 -0.06937246 0.17209713
0.10315354 0.06177143 0.115612075 -0.10921562 -0.030479519 0.049677424 -0.019630972 -0.04442247
-0.31839463 -0.024870247 -0.38903445 -0.12773427 -0.14416304 -0.15555482 -0.5805048 -0.074831344
0.003194243 -0.10617157 0.39818063 -0.121121205 -0.16004594 -0.11622076 -0.09899628 -0.12029225
-0.13759828 0.05221705 -0.034195345 -0.094767384 -0.18109718 -0.07985147 -0.14179076 -0.101825036
-0.16220373 0.038641565 -0.14434788 -0.15798618 -0.16083047 0.026987541 -0.1334388 -0.14289695
-0.10566477 -0.08377591 -0.16496968 -0.36918485 -0.38213125 -0.2865796 -0.17250629 -0.22914752
-0.23244622 -0.14227587 -0.3960769 -0.25022066 -0.049475484 0.15086563 0.042025603 -0.05404734
0.019419394 -0.05583062 0.049148224 0.047247462 0.042485695 -0.073580906 0.13130076 -0.049886465
-0.05056573 0.1306986 0.1749463 0.21894014 0.047308337 -0.034765985 0.108408995 0.20469043
-0.063835695 0.058180247 -0.014939516 0.1169839 0.31125703 0.13584517 0.22455573 0.21790972
-0.035890896 -0.085209295 0.2270683 -0.016904635 -0.0016073162 0.039959453 0.021613698 -0.117855705
0.10249715 -0.05848847 -0.060013246 0.08510303 -0.08234117 -0.061903868 -0.03969449 -0.023751698
-0.13584824 -0.077261716 0.010078873 -0.14697799 -0.12612069 -0.0043181176 0.04446135 0.12509598
-0.17038785 -0.11657329 0.06345972 -0.06261738 -0.40711552 -0.07909062 -0.17135121 -0.019226324
0.31483102 0.020426378 0.4746433 -0.006559952 -0.022613715 -0.12714751 0.060626898 -0.07552822
-0.114679135 -0.18293983 -0.050715894 0.15874806 0.045291398 -0.0962316 -0.026499733 -0.0018922639
-0.10529379 0.1653168 0.055900324 0.085924804 -0.07591573 -0.070685245 0.030913029 0.09012725
0.19903971 -0.029608225 0.43923384 0.0944354 0.18484274 0.09991296 0.75060254 0.2504991
-0.082260594 0.021468284 -0.26635465 -0.098547064 -0.10714773 0.12964499 0.20379816 0.21907175
-0.087106496 0.120911136 -0.047629856 0.15318114 0.16974257 0.16598521 0.20267744 0.17553276
00000000: 9e49 8c3d 4dba e83d c383 aebd 25b8 c23d
00000010: 5fc3 d53d f003 233e bf53 95bd 9686 aabd
00000020: 067f 73be b659 e6bd 6ac5 22be a28d 80be
00000030: bd4f 0dbe f2aa 44be cbd7 a8be 4598 69be
00000040: 10bd b5bd bc12 3ebe 5467 283d 28fe 423d
00000050: 4b1c 12be c483 efbc 468a dd3a 5223 02be
00000060: b3ff 883c 82da 41be 79dd 32be 619d 44be
00000070: e384 8bbd ae4b 82bd dd6c 4cbc c15f 63bd
00000080: ed18 c63d 91bb 2e3e 996a b33d 1a21 36bd
00000090: 0a26 32be 4558 9e3d 785f c3bd ca97 e43d
000000a0: 7402 a13e a682 273e 63c7 f13e da7c a03e
000000b0: 46be aa3e bb06 a53c 4d81 1a3f 3312 af3d
000000c0: 7368 54bd 0acc ae3e 61ac e33d e1f9 6a3e
000000d0: 4c61 ba3c e492 0ebe d1c7 b33b d42e 493e
000000e0: 250c 873d ba99 e63c 0e45 51bb 03b3 06bd
000000f0: 5719 e83d 0a6a 433c 5d53 153e ab09 b5bb
00000100: ae0b 083e f0bb b33d 54d2 a43d 69bc fb3d
00000110: d8a1 b53d 61c5 063e 671f bc3d 68f2 b6bd
00000120: 1206 133c e837 353e f7bb 393e bb1e cb3d
00000130: 7818 ea3e bed5 a73d c2a4 0e3f 5cca 2b3e
00000140: 5b9f d4be 29eb 29be f69f 22bf 2a36 85be
00000150: 0e87 4b3e 72e5 c13d a7c8 4f3e ba03 a23b
00000160: 79bc cc3d d663 a03d 4f61 c3bd d0e9 133d
00000170: 3d6f 273d 3f6e bdbd 2613 8ebd 3b3a 303e
00000180: 2a42 d33d 0a04 7d3d 06c6 ec3d 70ac dfbd
00000190: 2fb0 f9bc 8e7a 4b3d 22d1 a0bc 56f4 35bd
000001a0: 9f04 a3be b0bc cbbc 862f c7be c6cc 02be
000001b0: 7a9f 13be c349 1fbe f69b 14bf 2d41 99bd
000001c0: 8156 513b 7b70 d9bd 55de cb3e 650e f8bd
000001d0: 15e3 23be 2605 eebd 90be cabd c85b f6bd
000001e0: 90e6 0cbe 8ce1 553d 6b10 0cbd 6715 c2bd
000001f0: 8a71 39be 2b89 a3bd 9931 11be a589 d0bd
00000200: bc18 26be 9e46 1e3d eecf 13be 21c7 21be
00000210: beb0 24be fa14 dd3c 2ea4 08be 9453 12be
00000220: c566 d8bd b492 abbd d0ed 28be cc05 bdbe
00000230: b5a6 c3be 90ba 92be 7da5 30be a6a5 6abe
00000240: 6206 6ebe c4b0 11be 97ca cabe ec1c 80be
00000250: cea6 4abd 857c 1a3e 0a23 2c3d be60 5dbd
00000260: 6c15 9f3c a6ae 64bd a64f 493d 8e86 413d
00000270: 7b05 2e3d 96b1 96bd b573 063e c055 4cbd
00000280: 031e 4fbd dbd5 053e 1f25 333e d831 603e
00000290: 63c6 413d c766 0ebd 8905 de3d 5e9a 513e
000002a0: 4abc 82bd 694e 6e3d dfc4 74bc 4195 ef3d
000002b0: 155d 9f3e ff1a 0b3e f0f1 653e ba23 5f3e
000002c0: 5502 13bd 3682 aebd 9884 683e 977b 8abc
000002d0: 95ac d2ba 86ac 233d 360f b13c 555e f1bd
000002e0: 07ea d13d 9b91 6fbd 73d0 75bd 7f4a ae3d
000002f0: 7da2 a8bd e98e 7dbd b196 22bd ec92 c2bc
00000300: cd1b 0bbe 643b 9ebd db21 253c 6681 16be
00000310: c825 01be ff7e 8dbb 1b1d 363d 2919 003e
00000320: 277a 2ebe fabd eebd 2bf7 813d 8a3d 80bd
00000330: 7271 d0be 43fa a1bd b176 2fbe 8680 9dbc
00000340: 8831 a13e 3855 a73c 7204 f33e def4 d6bb
00000350: 6640 b9bc f532 02be e953 783d 8aae 9abd
00000360: e5dc eabd 9454 3bbe 78bb 4fbd da8e 223e
00000370: 7983 393d 1315 c5bd f815 d9bc d705 f8ba
00000380: 45a4 d7bd cf48 293e bdf7 643d 58f9 af3d
00000390: b579 9bbd 6dc3 90bd 523d fd3c a394 b83d
000003a0: 11d1 4b3e f38c f2bc 42e3 e03e 5967 c13d
000003b0: 6a47 3d3e 2a9f cc3d 7d27 403f 6b41 803e
000003c0: 3e78 a8bd 41de af3c a35f 88be 0bd3 c9bd
000003d0: 4570 dbbd a8c1 043e 77b0 503e 5854 603e
000003e0: e464 b2bd 42a0 f73d 8617 43bd 84db 1c3e
000003f0: ffd0 2d3e 07f8 293e ad8a 4f3e dcbe 333e

down2.bias f4 [16]
-0.36628187 0.332941 -0.027982462 -0.22371446 -0.20319463 0.45242617 -0.38809174 0.3280727
0.119005084 0.1220086 -0.2174034 -0.25780833 0.13902819 -0.4480915 0.2485295 0.038912863
00000000: 4c89 bbbe 3e77 aa3e 7a3b e5bc 6715 65be
00000010: 4112 50be 67a4 e73e f6b3 c6be 25f9 a73e
00000020: f0b8 f33d a5df f93d ff9e 5ebe 74ff 83be
00000030: 685d 0e3e 406c e5be 847e 7e3e 1863 1f3d

conv31.weight f4 [16, 16, 3, 3]
-0.03264219 -0.06000767 -0.049407654 0.02684896 -0.05872388 -0.010106383 -0.009874177 -0.030941337
0.0124609005 0.058990777 0.077185385 0.014751973 -0.0271071 0.04610676 0.012299027 0.01848685
-0.03976049 0.04497646 -0.019440945 0.049611807 0.057967857 -0.07155899 -0.05872525 -0.0564334
0.07136748 0.05407194 0.018695531 0.03176824 -0.04290647 -0.090469494 0.027752522 0.046041295
0.084908955 -0.012965393 0.07837409 0.03899612 0.052355427 -0.08368505 0.037176322 -0.052116625
0.10282647 -0.0118300505 -0.048693188 0.007751473 -0.05043197 -0.039881535 -0.017722173 0.023089841
0.054170758 -0.04337936 0.046551716 -0.016795928 0.0013411293 0.037175827 -0.11841266 -0.09681347
-0.04313123 -0.07923396 -0.032526083 -0.00086447527 -0.057172682 -0.010835681 -0.023993695 0.025622187
-0.035571977 0.012206089 -0.015144152 0.013616584 0.0076240455 -0.029493289 -0.029061703 0.02776547
-0.021875814 0.0106047895 -0.004968973 0.024437483 0.0097316755 0.065241046 0.006290968 -0.06273139
0.0657181 -0.010402717 0.0011284547 -0.024397133 -0.029671192 -0.040314082 0.07351757 0.069820665
0.013029938 0.0904011 -0.011289594 0.044899326 0.06322281 0.036770836 -0.03301117 0.06118609
-0.08005019 -0.055338982 -0.008355353 -0.11441456 -0.07826483 -0.039594624 0.035334587 0.060375776
-0.052417044 -0.045441903 0.023634225 -0.058751453 0.03305702 0.011973568 -0.047518518 -0.06530102
-0.027080107 -0.012819174 0.09333137 -0.022206593 -0.056450646 0.10121393 0.033536203 -0.026990958
-0.045800842 -0.039000213 0.07190753 -0.011308049 0.011979561 0.07859696 0.06808457 0.037491348
0.0011645763 0.07000348 -0.08512088 0.025990644 0.007387659 0.02672381 0.0049728546 -0.12830539
-0.05052371 0.030086355 -0.07976356 -0.05787224 -0.021163316 -0.045753885 0.06944789 0.073298134
-0.06581903 0.07893524 -0.01589214 -0.054365277 -0.006004949 -0.006345098 -0.06289482 -0.018332487
0.0442787 0.109935746 0.058036223 0.0632925 0.11809186 -0.039765082 -0.038162343 -0.030312954
-0.03129639 -0.20356512 0.1325209 0.05005151 0.051432084 0.07431385 -0.03967994 0.060898256
0.08447439 0.04429672 -0.052167762 -0.033576936 0.048020627 0.04200294 0.028434401 0.015537598
0.09738026 -0.0075524454 0.09693873 0.19016694 -0.05309876 -0.07742533 0.0059704413 0.01136876
0.029939054 0.04910893 0.08545803 0.13795352 0.1070628 0.061328586 0.03295318 -0.03403624
0.024098089 -0.0256029 -0.06810361 -0.015612962 -0.07103836 -0.021512521 -0.06978144 0.04413328
-0.011357028 -0.031412877 0.03703939 0.01633383 -0.11104066 -0.044956155 0.021954542 0.058051754
0.037736133 0.031428758 0.08661743 -0.00040249666 -0.068202846 -0.042767 -0.1027126 -0.16866167
0.07149209 0.047805436 0.06869991 -0.01668082 -0.02748151 -0.061001264 0.016222576 -0.016922254
-0.11211589 0.08505106 0.024768567 0.03921999 0.023231251 -0.06200179 0.0081807 0.04182507
-0.05443748 -0.027811658 0.11994231 0.017485108 0.023933845 0.06683158 -0.07785893 0.041763134
0.09063682 0.08776603 0.03872273 -0.12016038 -0.014336939 0.030157514 -0.116144404 0.04531076
0.00444548 -0.12160041 0.021783637 -0.035486322 0.07725112 -0.04253694 -0.071067326 0.14728156
00000000: d1b3 05bd 9aca 75bd ae5f 4abd 5af2 db3c
00000010: 7488 70bd 3e95 25bc 4dc7 21bc b078 fdbc
00000020: ce28 4c3c 50a0 713d 5f13 9e3d 42b2 713c
00000030: b50f debc 71da 3c3d dc81 493c bc71 973c
00000040: e5db 22bd 3d39 383d 9e42 9fbc c035 4b3d
00000050: b46f 6d3d 858d 92bd e389 70bd b526 67bd
00000060: 1d29 923d 8a7a 5d3d 5f27 993c 6a1f 023d
00000070: b2be 2fbd 1248 b9bd 4259 e33c cc95 3c3d
00000080: bfe4 ad3d cd6c 54bc 9882 a03d 65ba 1f3d
00000090: a572 563d 1163 abbd 3346 183d 3e78 55bd
000000a0: af96 d23d d4d2 41bc 8272 47bd 1200 fe3b
000000b0: c191 4ebd d25a 23bd 172e 91bc e826 bd3c
000000c0: 28e2 5d3d 8eae 31bd 03ad 3e3d 9d97 89bc
000000d0: d5c8 af3a ae45 183d 5682 f2bd 2446 c6bd
000000e0: 5faa 30bd 6a45 a2bd 123a 05bd f49d 62ba
000000f0: e72d 6abd 2488 31bc 6d8e c4bc 9fe5 d13c
00000100: ecb3 11bd 0cfc 473c 2d1f 78bc 1818 5f3c
00000110: 21d3 f93b e99b f1bc cf12 eebc 6974 e33c
00000120: e834 b3bc b6bf 2d3c c4d2 a2bb 1e31 c83c
00000130: 9b71 1f3c 199d 853d 7724 ce3b 5179 80bd
00000140: 3697 863d 2870 2abc a8e8 933a 7fdc c7bc
00000150: 0011 f3bc 6120 25bd 6190 963d 23fe 8e3d
00000160: 857b 553c 3624 b93d fdf7 38bc 5be8 373d
00000170: f67a 813d 049d 163d b836 07bd 449e 7a3d
00000180: 5bf1 a3bd 21ab 62bd e4e4 08bc 2e52 eabd
00000190: 5049 a0bd f92d 22bd 00bb 103d 974c 773d
000001a0: 41b3 56bd 4a21 3abd 909c c13c 5da5 70bd
000001b0: cc66 073d c92c 443c c7a2 42bd 8bbc 85bd
000001c0: 1ad7 ddbc 8307 52bc 8424 bf3d 9aea b5bc
000001d0: cb38 67bd 4049 cf3d 425d 093d 241c ddbc
000001e0: aa99 3bbd b0be 1fbd 4144 933d 6545 39bc
000001f0: ec45 443c 71f7 a03d ec6f 8b3d 8790 193d
00000200: b2a4 983a fc5d 8f3d db53 aebd 55ea d43c
00000210: 2d14 f23b e4eb da3c 54f3 a23b 7d62 03be
00000220: f3f1 4ebd a977 f63c 145b a3bd 710b 6dbd
00000230: b15e adbc 6d68 3bbd b23a 8e3d 551d 963d
00000240: 21cc 86bd cda8 a13d 3c30 82bc 20ae 5ebd
00000250: 2ac5 c4bb 8aea cfbb 00cf 80bd 032e 96bc
00000260: 955d 353d fe25 e13d 64b7 6d3d 809f 813d
00000270: 25da f13d b6e0 22bd 1e50 1cbd df52 f8bc
00000280: a530 00bd 6073 50be 8fb3 073e d002 4d3d
00000290: 73aa 523d dc31 983d 6f87 22bd 7370 793d
000002a0: e900 ad3d 7a70 353d ddad 55bd f887 09bd
000002b0: 47b1 443d 460b 2c3d 43ef e83c 6991 7e3c
000002c0: 4d6f c73d 817a f7bb d087 c63d 1fbb 423e
000002d0: 167e 59bd 2c91 9ebd b1a3 c33b 0944 3a3c
000002e0: bf42 f53c 7226 493d 9f04 af3d b043 0d3e
000002f0: be43 db3d af33 7b3d eaf9 063d 9669 0bbd
00000300: 5b69 c53c 2cbd d1bc e879 8bbd 82cd 7fbc
00000310: 8f7c 91bd 073b b0bc 92e9 8ebd 19c5 343d
00000320: d412 3abc caaa 00bd 9eb6 173d 86ce 853c
00000330: 4969 e3bd f223 38bd 03da b33c adc7 6d3d
00000340: 3491 1a3d 71bb 003d 7b64 b13d 3006 d3b9
00000350: efad 8bbd 732c 2fbd fc5a d2bd a5b5 2cbe
00000360: 726a 923d a2cf 433d 8ab2 8c3d 37a6 88bc
00000370: e720 e1bc 76dc 79bd 35e5 843c 8aa0 8abc
00000380: 049d e5bd 402f ae3d 73e7 ca3c 24a5 203d
00000390: 774f be3c 97f5 7dbd 5808 063c c450 2b3d
000003a0: d6f9 5ebd 46d5 e3bc 50a4 f53d ee3c 8f3c
000003b0: e910 c43c ffde 883d 8174 9fbd d20f 2b3d
000003c0: cc9f b93d adbe b33d ba9b 1e3d a516 f6bd
000003d0: 7be5 6abc e40c f73c 1edd edbd c797 393d
000003e0: 64ab 913b a309 f9bd 9973 b23c 1b5a 11bd
000003f0: d635 9e3d 373b 2ebd bf8b 91bd fad0 163e

conv31.bias f4 [16]
0.27488303 -0.24564847 0.24365729 0.33521423 0.33041304 0.27132678 0.3504192 0.3316919
0.11503729 -0.5472481 0.29092038 -0.20007789 0.45473936 0.25347412 0.2585088 0.12332078
00000000: 78bd 8c3e 468b 7bbe 4c81 793e 33a1 ab3e
00000010: e62b a93e 58eb 8a3e 256a b33e 85d3 a93e
00000020: ac98 eb3d 7418 0cbf 84f3 943e 38e1 4cbe
00000030: 99d3 e83e 5cc7 813e 445b 843e 9b8f fc3d

up2.weight f4 [16, 8, 2, 2]
-0.15634425 0.04143978 -0.0071458565 -0.0752324 0.02815008 0.053213086 -0.16932814 -0.17228211
0.10608798 -0.06351113 0.0017379296 -0.02140224 0.026048932 -0.1272541 -0.008786503 -0.09059304
-0.0834912 -0.07218021 0.02886514 0.12631935 -0.0011943306 -0.041745435 0.15258215 0.13946146
0.002705889 -0.15021539 0.05924456 0.039457995 -0.16914959 -0.13846041 0.028905269 0.15259564
-0.07131154 0.008096475 0.010969072 -0.25936332 -0.5346571 0.017530002 0.27096096 -0.32597458
-0.23625515 -0.37463635 -0.21630536 -0.1803542 0.14620134 -0.051105 0.1591809 0.11788239
-0.38625517 -0.108841166 -0.07356715 -0.08281932 0.18748252 -0.4031232 -0.014798574 0.122731484
0.060843572 0.017193284 0.36142752 -0.05505727 -0.6631853 0.34224954 0.06899334 0.07338263
-0.16198762 0.16108696 0.14926776 -0.1433753 -0.22944479 -0.099677116 -0.13443857 0.018481335
0.09094637 0.03086448 0.115854606 0.033789597 -0.06319212 -0.18040027 0.044158455 -0.19553235
0.0031529847 0.042914774 -0.10441666 0.06705444 0.03328034 0.08982096 0.08687906 -0.14762634
-0.10468275 -0.06951727 -0.115919404 0.037017 -0.13778266 -0.12132162 0.059798192 0.09226337
0.19665608 -0.22513884 -0.006647935 0.35735646 0.28773645 -0.11225844 0.032044537 -0.12280859
0.23083061 0.028678391 0.028803019 0.1293347 -0.106422625 0.075168766 -0.15364346 0.10958922
0.27904063 0.091973774 0.19408938 -0.078217275 -0.17629988 -0.03558117 0.04622964 -0.13585752
0.107334204 -0.15427187 -0.14473508 0.019131534 0.04565546 -0.1557008 0.10688132 0.11519853
0.063698255 0.00389226 -0.10171748 -0.21505174 0.020582888 -0.26908758 0.019022863 0.11648018
0.15840997 -0.058762614 -0.08586326 -0.09995629 0.109708175 -0.21897364 -0.18311362 -0.16538426
0.1542314 0.14906906 0.09646097 0.17721255 -0.10878695 -0.18201093 -0.15451649 0.020310743
0.09047462 -0.0015213498 -0.11176084 0.02091425 -0.12361488 0.031600688 0.0047376356 0.06410076
-0.016466836 0.10565856 -0.086860895 0.20437476 0.08147506 -0.055581238 0.04548525 0.113164224
0.17172833 0.18534794 0.20897108 -0.06830453 -0.1644063 0.036804363 -0.016634565 -0.051385645
-0.06989073 0.12176849 0.16343443 0.034831606 -0.04310603 0.026430415 -0.20908509 -0.08391129
-0.0028819093 -0.1640098 0.11961647 0.17848396 0.11915209 0.14937867 -0.07601865 0.09428592
0.062299747 -0.14184648 0.039114326 0.12430743 -0.06392133 -0.021696208 0.026295312 0.1342009
0.037762675 0.10161399 0.05997444 0.035935998 -0.14657982 -0.07098022 -0.15881306 -0.16649842
-0.11781281 0.16112252 -0.105134785 0.030801132 -0.049369983 0.09771894 0.050015792 -0.18541598
0.21997137 -0.2455819 0.010657346 0.14958958 0.18586884 0.018245472 -0.06553876 0.10967863
0.22984806 -0.12239344 -0.0020576452 -0.03977859 0.02862789 0.5721061 0.23524924 -0.0006775821
-0.40334627 -0.8023024 -0.40317854 -0.29416457 0.22311968 0.14557448 0.19620875 0.040151622
-0.35339916 -0.33653525 -0.12051972 -0.20994627 0.2216326 0.34661412 0.39391297 0.03576484
-0.22945166 0.109430864 0.1283389 -0.3219732 -0.0008246297 -0.26515 -0.11662395 -0.08743707
00000000: b518 20be c2bc 293d ca27 eabb 7213 9abd
00000010: ff9a e63c f7f5 593d 5b64 2dbe b96a 30be
00000020: a844 d93d 2012 82bd 3ecb e33a c053 afbc
00000030: 9264 d53c e64e 02be 44f5 0fbc d888 b9bd
00000040: 6ffd aabd 38d3 93bd 9676 ec3c dc59 013e
00000050: 168b 9cba 43fd 2abd 7f3e 1c3e fcce 0e3e
00000060: 4955 313b 10d2 19be 6caa 723d b59e 213d
00000070: 8d35 2dbe 91c8 0dbe beca ec3c 0842 1c3e
00000080: c90b 92bd 14a7 043c 9fb7 333c 45cb 84be
00000090: 4adf 08bf 149b 8f3c 65bb 8a3e 24e6 a6be
000000a0: dfec 71be 56d0 bfbe 277f 5dbe c5ae 38be
000000b0: ceb5 153e 7a53 51bd 5100 233e 536c f13d
000000c0: 3dc3 c5be 1ee8 debd 60aa 96bd 2d9d a9bd
000000d0: 6bfb 3f3e 2a66 cebe b875 72bc a55a fb3d
000000e0: 1c37 793d eed8 8c3c 070d b93e bb83 61bd
000000f0: 83c6 29bf 553b af3e 614c 8d3d a249 963d
00000100: 15e0 25be fbf3 243e a6d9 183e fad0 12be
00000110: 93f3 6abe 8423 ccbd 44aa 09be 2b66 973c
00000120: 1742 ba3d 82d7 fc3c 2e45 ed3d f666 0a3d
00000130: df6a 81bd d9ba 38be 7fdf 343d a239 48be
00000140: 4ea2 4e3b 67c7 2f3d 67d8 d5bd d753 893d
00000150: f750 083d 0df4 b73d a6ed b13d 5c2b 17be
00000160: e963 d6bd 125f 8ebd 2767 edbd 239f 173d
00000170: e616 0dbe 7877 f8bd f3ee 743d 94f4 bc3d
00000180: 3660 493e cc8a 66be ecd6 d9bb 6df7 b63e
00000190: 3152 933e c1e7 e5bd 2241 033d 1283 fbbd
000001a0: dc5e 6c3e f2ee ea3c 4ff4 eb3c 5170 043e
000001b0: 1bf4 d9bd 15f2 993d b654 1dbe 5070 e03d
000001c0: 6ade 8e3e bf5c bc3d 5ebf 463e 6130 a0bd
000001d0: f587 34be 90bd 11bd 4a5b 3d3d 3c1e 0bbe
000001e0: 09d2 db3d 72f9 1dbe 6f35 14be bcb9 9c3c
000001f0: 3801 3b3d 0870 1fbe 98e4 da3d 35ed eb3d
00000200: 3b74 823d 4915 7f3b 4151 d0bd 8636 5cbe
00000210: 729d a83c d9c5 89be d6d5 9b3c 298d ee3d
00000220: 3936 223e 11b1 70bd 14d9 afbd e2b5 ccbd
00000230: aeae e03d a03a 60be 2382 3bbe 7e5a 29be
00000240: d6ee 1d3e 8fa5 183e 548d c53d 3577 353e
00000250: b1cb debd 1361 3abe 9239 1ebe b762 a63c
00000260: c24a b93d 0768 c7ba dee2 e4bd 5c54 ab3c
00000270: cc29 fdbd b96f 013d 2b3e 9b3b 4247 833d
00000280: 75e5 86bc 8463 d83d 20e4 b1bd 9e47 513e
00000290: 65dc a63d 27a9 63bd be4e 3a3d a5c2 e73d
000002a0: 8dd9 2f3e dacb 3d3e 84fc 553e 3fe3 8bbd
000002b0: 205a 28be 2cc0 163d 3645 88bc c179 52bd
000002c0: df22 8fbd c261 f93d 5b5b 273e 96ab 0e3d
000002d0: f38f 30bd 9984 d83c 671a 56be afd9 abbd
000002e0: 6ade 3cbb 2ff2 27be 7bf9 f43d 80c4 363e
000002f0: 0306 f43d b9f6 183e aaaf 9bbd fa18 c13d
00000300: 052e 7f3d 3440 11be 5836 203d e594 fe3d
00000310: 30e9 82bd 3fbc b1bc 4469 d73c f66b 093e
00000320: 09ad 1a3d ff1a d03d c2a7 753d a031 133d
00000330: 0519 16be 145e 91bd e49f 22be 907e 2abe
00000340: d847 f1bd 4dfd 243e e850 d7bd a852 fc3c
00000350: 2e38 4abd de20 c83d 5cdd 4c3d b0dd 3dbe
00000360: 2d40 613e d279 7bbe 269c 2e3c 032e 193e
00000370: 6754 3e3e 8777 953c 2f39 86bd 319f e03d
00000380: 4a5d 6b3e 69a9 fabd 8fd9 06bb e0ee 22bd
00000390: 0985 ea3c 8c75 123f 2de5 703e c49f 31ba
000003a0: 6783 cebe b163 4dbf 6b6d cebe bd9c 96be
000003b0: 7c79 643e 7a11 153e f2ea 483e 0776 243d
000003c0: bcf0 b4be 594e acbe 0bd3 f6bd 28fc 56be
000003d0: a8f3 623e 6877 b13e f6ae c93e 277e 123d
000003e0: 60f5 6abe 4a1d e03d 466b 033e acd9 a4be
000003f0: f62b 58ba bec1 87be 8ad8 eebd 3512 b3bd

up2.bias f4 [8]
-0.4309735 0.49064714 0.026163336 -0.10387209 0.36754215 -0.2420048 -0.22777078 -0.5168543
00000000: 8fa8 dcbe 1a36 fb3e 7e54 d63c e4ba d4bd
00000010: 7c2e bc3e 1bd0 77be be3c 69be 9050 04bf

conv22.weight f4 [8, 8, 3, 3]
-0.19043152 0.041356523 0.038338233 -0.14620078 -0.060572244 -0.083349615 0.09296061 0.079456
0.08921853 0.15234685 0.014421724 0.15846844 -0.08825692 0.10199854 -0.023316186 -0.0126532465
-0.10556765 0.13926753 0.034285877 -0.11323302 0.016040437 0.021178914 -0.036806777 0.09156804
0.015059555 0.04178355 0.02431775 -0.14279611 -0.018634537 0.09336777 0.07047949 0.0067135044
0.08795683 -0.14450046 0.026612557 0.012776344 -0.09163847 -0.072964385 0.059219334 0.07685821
-0.053151906 -0.05301868 0.1702101 0.08957197 0.062194116 -0.11111114 0.08586999 -0.11592942
0.056196187 -0.053587697 -0.013509205 0.0030907264 -0.016450318 -0.09552557 0.07647356 -0.120507285
0.024668153 -0.14867522 -0.053555213 -0.009535755 0.06457183 -0.27247313 0.12649086 -0.06895931
0.01970078 -0.07375445 0.015877428 0.00916655 -0.07528946 0.08798771 -0.077125035 -0.04295804
0.101122476 0.108952306 0.011434323 0.14497043 0.06290529 -0.03244931 -0.070646904 0.07975925
-0.05262496 0.05981991 -0.115331724 -0.015696945 -0.09690834 0.04906856 0.06479784 0.25918746
0.026762286 -0.04865784 -0.041721437 -0.058847606 0.13692437 -0.0728212 0.05481892 0.0747206
-0.047785565 -0.13704081 -0.08953273 -0.03377024 0.06942434 -0.0207578 -0.0019165812 0.09814104
0.024858689 0.08231415 -0.020635476 0.106383026 0.0797957 -0.02244801 0.041048963 -0.05418396
0.04560487 0.04218509 -0.09766763 -0.069605485 0.0665147 0.005786054 0.022761265 0.061152425
-0.03889955 0.1092844 0.029032653 -0.03233133 0.072142266 -0.06429356 0.00465819 0.009685897
-0.027337966 0.052689075 -0.0685681 0.006845696 -0.042127535 0.09544056 0.046773862 -0.050670117
0.03969232 0.034981884 0.14653626 0.11515749 -0.04155935 0.09957848 -0.04533441 -0.031469233
0.027504288 0.055364355 0.031475816 -0.15636052 -0.043142974 0.07970584 -0.03567535 -0.08439047
-0.08440787 -0.09891981 -0.063790105 0.0051978207 0.09073277 0.09087639 0.11587802 -0.12750547
0.079500966 0.027100664 -0.12273593 0.08017825 -0.10704557 0.121192634 -0.066549495 0.028311485
0.12522964 0.087183595 0.035273954 -0.15943107 0.00082895317 0.03111008 -0.13293901 -0.106055014
-0.13131987 -0.13183925 -0.059255406 -0.019364543 0.049871024 -0.02310571 0.09981279 0.061897334
-0.06719861 -0.00089465635 0.00015445688 -0.022531806 -0.084318474 0.03978856 -0.07712433 0.045161992
0.05992835 -0.08450451 -0.080780424 -0.090429 0.008745245 0.030964177 -0.20445107 0.07055788
-0.013201678 -0.081153505 -0.07754293 -0.041731324 -0.2914112 0.07252548 -0.11182557 -0.10857858
0.07653624 -0.12420697 -0.005462775 0.010373386 0.123075105 0.11918458 -0.0188574 0.0062369127
-0.09146077 -0.08190601 0.0014670473 -0.04677024 -0.09168142 -0.031283654 0.07065973 0.07320921
-0.009124977 0.097937845 -0.042205956 -0.019006755 0.1087915 0.019609615 0.13713145 -0.19778638
0.17026216 -0.13287202 -0.15306316 0.033002473 -0.15517665 -0.04428968 -0.09367108 0.12763408
0.18312223 0.008660204 0.053191666 -0.15225548 -0.1254711 -0.10106969 -0.175618 0.060065366
-0.07594363 -0.10117629 -0.14446628 0.006170114 0.0067600873 -0.071836464 0.07178871 0.14583366
00000000: 7b00 43be 7565 293d 8d08 1d3d a8b5 15be
00000010: 9a1a 78bd 34b3 aabd 2262 be3d d4b9 a23d
00000020: 34b8 b63d d000 1c3e 1849 6c3c 8d45 223e
00000030: 0bc0 b4bd 9ce4 d03d 9601 bfbc 904f 4fbc
00000040: da33 d8bd 269c 0e3e 596f 0c3d b7e6 e7bd
00000050: 3c67 833c 677f ad3c b4c2 16bd 0688 bb3d
00000060: 5abc 763c 3a25 2b3d 0536 c73c 2539 12be
00000070: 75a7 98bc 9a37 bf3d 8d57 903d f5fc db3b
00000080: b622 b43d eef7 13be 9402 da3c df53 513c
00000090: f3ac bbbd 5a6e 95bd f98f 723d d667 9d3d
000000a0: d0b5 59bd 1e2a 59bd 8e4b 2e3e 8271 b73d
000000b0: 42bf 7e3d 3d8e e3bd 9bdc af3d 676c edbd
000000c0: f92d 663d c67e 5bbd b655 5dbc c98d 4a3b
000000d0: d1c2 86bc e9a2 c3bd 2b9e 9c3d 86cc f6bd
000000e0: de14 ca3c 513e 18be b65c 5bbd db3b 1cbc
000000f0: 3c3e 843d 9981 8bbe d286 013e 8a3a 8dbd
00000100: 8863 a13c 930c 97bd 6111 823c 4c2f 163c
00000110: 5c31 9abd e732 b43d bbf3 9dbd c5f4 2fbd
00000120: 4d19 cf3d 6322 df3d 0757 3b3c 2173 143e
00000130: 7dd4 803d 91e9 04bd 53af 90bd d158 a33d
00000140: 458d 57bd b905 753d 0a33 ecbd e196 80bc
00000150: e177 c6bd 1dfc 483d bbb4 843d 38b4 843e
00000160: 953c db3c 714d 47bd 19e4 2abd 300a 71bd
00000170: e735 0c3e 4823 95bd ce89 603d 1d07 993d
00000180: ccba 43bd 6d54 0cbe f05c b7bd aa52 0abd
00000190: 592e 8e3d 430c aabc cb35 fbba 2bfe c83d
000001a0: 73a4 cb3c 5294 a83d bb0b a9bc 58df d93d
000001b0: ee6b a33d e4e4 b7bc f522 283d 00f0 5dbd
000001c0: 2ccc 3a3d 46ca 2c3d f705 c8bd 528d 8ebd
000001d0: dc38 883d f098 bd3b d575 ba3c f77a 7a3d
000001e0: 2255 1fbd 80d0 df3d e3d5 ed3c db6d 04bd
000001f0: 53bf 933d 58ac 83bd bba3 983b 99b1 1e3c
00000200: dff3 dfbc 80d0 573d 6f6d 8cbd dc51 e03b
00000210: ec8d 2cbd 5776 c33d f395 3f3d 788b 4fbd
00000220: 6a94 223d 2a49 0f3d 9a0d 163e b1d7 eb3d
00000230: 233a 2abd cdef cb3d 93b0 39bd e2e5 00bd
00000240: ac50 e13c bcc5 623d c9ec 003d f91c 20be
00000250: b0b6 30bd d13c a33d 5120 12bd e9d4 acbd
00000260: 09de acbd 7896 cabd 63a4 82bd 7b52 aa3b
00000270: 1ad2 b93d 671d ba3d 7551 ed3d cb90 02be
00000280: 67d1 a23d 3602 de3c fa5c fbbd 7f34 a43d
00000290: b53a dbbd d833 f83d 1a4b 88bd 7ded e73c
000002a0: 333c 003e 508d b23d 6c7b 103d e641 23be
000002b0: 1b4e 593a 91da fe3c 2a21 08be 5f33 d9bd
000002c0: b778 06be de00 07be ccb5 72bd 64a2 9ebc
000002d0: 8f45 4c3d 3048 bdbc a66a cc3d 0f88 7d3d
000002e0: 6d9f 89bd 5f87 6aba b4f5 2139 9f94 b8bc
000002f0: 2aaf acbd 54f9 223d 5cf3 9dbd c8fb 383d
00000300: 6e77 753d b310 adbd 3570 a5bd d732 b9bd
00000310: 3748 0f3c 96a8 fd3c 9f5b 51be a680 903d
00000320: da4b 58bc cf33 a6bd d4ce 9ebd 77ee 2abd
00000330: d933 95be 3d88 943d ce04 e5bd 725e debd
00000340: 08bf 9c3d 3960 febd 1401 b3bb 22f5 293c
00000350: cd0e fc3d 0c17 f43d d67a 9abc 045f cc3b
00000360: c94f bbbd 57be a7bd f049 c03a 2792 3fbd
00000370: 78c3 bbbd 4a23 00bd 0cb6 903d b6ee 953d
00000380: ed80 15bc a393 c83d 27e0 2cbd 0eb4 9bbc
00000390: 14ce de3d 58a4 a03c 306c 0c3e 8388 4abe
000003a0: 3459 2e3e 9a0f 08be 97bc 1cbe 9a2d 073d
000003b0: a1e6 1ebe 1869 35bd a0d6 bfbd 82b2 023e
000003c0: 6584 3b3e 87e3 0d3c 81df 593d dce8 1bbe
000003d0: 7f7b 00be a0fd cebd 34d5 33be 1a07 763d
000003e0: 5588 9bbd 8435 cfbd f8ee 13be ab2e ca3b
000003f0: b983 dd3b ff1e 93bd f605 933d 6b55 153e

conv22.bias f4 [8]
0.3575694 -0.2997304 0.12075443 0.27768743 -0.20572478 0.05806442 0.25961354 0.47253972
00000000: 5613 b73e 4376 99be 194e f73d 0c2d 8e3e
00000010: 84a9 52be f5d4 6d3d 11ec 843e baf0 f13e

up1.weight f4 [8, 4, 2, 2]
0.23352265 0.26626575 -0.070535764 -0.026139485 -0.20396996 0.21200448 0.28935787 -0.1373758
0.13216583 0.19467 -0.22648622 0.11279778 0.32011873 0.15622866 0.27547437 0.16800833
-0.2455922 -0.13547878 -0.026477706 -0.028095271 0.15642901 -0.22688016 -0.111110315 -0.07569094
-0.03441695 0.23966996 -0.06549453 -0.05135751 -0.129831 -0.16734834 -0.16742285 0.10963499
-0.089127034 0.24722813 -0.05404879 0.18278247 0.2134725 0.08227932 0.2604507 0.25456634
-0.026504925 0.18256001 -0.10985382 0.31331104 -0.028272819 0.122905135 0.11688545 0.03607512
0.29489827 0.09016956 -0.098838165 0.31716612 -0.13372126 0.26211783 0.3835624 0.22235814
-0.03140757 0.07020616 -0.14820176 -0.018248921 0.046973202 -0.07529163 0.14352342 0.1902573
-0.00019215976 0.0055127135 0.22556405 -0.04579301 0.32515174 0.21616693 0.07035532 -0.32105458
0.24747661 -0.23428173 0.3868906 -0.17212051 -0.0035332881 0.23865308 -0.054854654 0.15081169
-0.10835773 -0.02114499 -0.024974674 0.24250902 0.16703525 0.2068595 0.14374936 0.24542776
-0.02923994 -0.02874833 0.016390458 0.11625993 -0.03747699 0.14900772 0.0708231 0.1264695
0.29904744 0.12640284 0.19564718 -0.0258701 -0.2176719 0.19413714 0.08930157 0.23407745
0.097924456 0.043867294 -0.20713879 -0.22834353 0.086495236 0.22324082 0.019429294 -0.017900769
0.34795287 -0.21232791 -0.073422715 0.11204076 -0.44441065 -0.10506485 -0.05314859 0.09868912
0.37632373 -0.17755497 -0.32537493 0.26590505 -0.030914871 0.2309657 0.3756373 -0.22544625
00000000: 9020 6f3e fc53 883e 0e75 90bd 7922 d6bc
00000010: 80dd 50be b417 593e b726 943e 3eac 0cbe
00000020: 7b56 073e 9357 473e 01ec 67be 8602 e73d
00000030: 9ae6 a33e 68fa 1f3e fa0a 8d3e 600a 2c3e
00000040: 867c 7bbe f3ba 0abe c6e7 d8bc 0e28 e6bc
00000050: ed2e 203e 4653 68be ce8d e3bd da03 9bbd
00000060: caf8 0cbd 0b6c 753e ff21 86bd 415c 52bd
00000070: 6bf2 04be 5d5d 2bbe e570 2bbe 4f88 e03d
00000080: 3c88 b6bd 5f29 7d3e 4462 5dbd 542b 3b3e
00000090: 8998 5a3e 0f82 a83d cb59 853e 8556 823e
000000a0: db20 d9bc 03f1 3a3e 0afb e0bd 4e6a a03e
000000b0: 669c e7bc b0b5 fb3d a461 ef3d 81c3 133d
000000c0: e8fc 963e d1aa b83d aa6b cabd 9963 a23e
000000d0: 3aee 08be 4f34 863e 4a62 c43e dab1 633e
000000e0: 39a5 00bd 3fc8 8f3d 34c2 17be c37e 95bc
000000f0: f966 403d 8032 9abd cef7 123e cfd2 423e
00000100: 7e7e 49b9 fea3 b43b 43fa 663e 7491 3bbd
00000110: 4a7a a63e dd5a 5d3e 7316 903d 4461 a4be
00000120: 826a 7d3e 8de7 6fbe 8616 c63e 5c40 30be
00000130: bd8e 67bb 7961 743e 46af 60bd 616e 1a3e
00000140: a8ea ddbd 4238 adbc b097 ccbc 4954 783e
00000150: 4a0b 2b3e fad2 533e 0833 133e 6a51 7b3e
00000160: 9988 efbc 9e81 ebbc 4845 863c b019 ee3d
00000170: 7981 19bd 7b95 183e b40b 913d 3881 013e
00000180: bf1c 993e bf6f 013e bc57 483e 88ed d3bc
00000190: 62e5 5ebe e3cb 463e bee3 b63d 00b2 6f3e
000001a0: 9e8c c83d 31ae 333d 311c 54be e3d2 69be
000001b0: 6a24 b13d 3e99 643e 2f2a 9f3c a2a4 92bc
000001c0: e126 b23e 7d6c 59be a65e 96bd a075 e53d
000001d0: cb89 e3be 3d2c d7bd 56b2 59bd 851d ca3d
000001e0: 81ad c03e f8d0 35be 8b97 a6be b524 883e
000001f0: 2f41 fdbc 4682 6c3e 8853 c03e 62db 66be

up1.bias f4 [4]
0.31082776 0.12187387 -0.04704635 0.08877589
00000000: d124 9f3e 0299 f93d acb3 40bd 22d0 b53d

conv13.weight f4 [2, 4, 3, 3]
-0.012592529 -0.14809161 -0.0061422517 0.033735745 0.1965598 -0.08094645 0.25105703 -0.08482208
0.14413948 0.0010566689 0.012807388 0.046812773 0.09687695 -0.00011882192 -0.13134837 -0.2298944
-0.12628315 -0.28928748 0.19170316 -0.11584226 -0.031228298 -0.12076813 0.04158351 0.041807346
0.052791014 -0.019510597 -0.0015798005 0.123007886 0.12896109 -0.19839588 0.09040221 -0.17239226
-0.1259906 0.1835996 -0.11238083 -0.11223966 0.11546499 0.06264999 -0.17780346 0.010988072
-0.0022506008 0.11955245 0.2063325 0.16889766 0.14196363 -0.01016473 0.126664 -0.0004724083
0.055602606 -0.060056623 0.06858443 0.11105544 -0.011859146 0.1471486 -0.0075246072 0.01751058
0.14816263 0.10453515 -0.08279925 -0.07974507 0.0542317 -0.085366674 -0.0005587635 0.11900656
0.13421693 -0.06566208 -0.04532505 0.13817142 0.010376544 0.005824762 0.024880059 0.16287266
00000000: e550 4ebc 54a5 17be f144 c9bb 7e2e 0a3d
00000010: f946 493e 41c7 a5bd 8c8a 803e 33b7 adbd
00000020: 4d99 133e ed7f 8a3a 14d6 513c c0be 3f3d
00000030: 6c67 c63d 0830 f9b8 3080 06be 7069 6bbe
00000040: 5f50 01be 7d1d 94be d54d 443e b53e edbd
00000050: 7dd2 ffbc 4855 f7bd 7853 2a3d 2e3e 2b3d
00000060: 643b 583d b0d4 9fbc 4f11 cfba 8feb fb3d
00000070: 600e 043e 4a28 4bbe cb24 b93d 9987 30be
00000080: ae03 01be 8901 3c3e ec27 e6bd e8dd e5bd
00000090: e978 ec3d a34e 803d 1c12 36be 5007 343c
000000a0: d17e 13bb ead7 f43d d448 533e 82f3 2c3e
000000b0: ea5e 113e f889 26bc 35b4 013e 92ad f7b9
000000c0: 8fbf 633d effd 75bd fe75 8c3d 0971 e33d
000000d0: dd4c 42bc 1fae 163e fb90 f6bb 5972 8f3c
000000e0: f2b7 173e 8616 d63d a792 a9bd 6251 a3bd
000000f0: 0f22 5e3d b9d4 aebd fc79 12ba b6b9 f33d
00000100: 2a70 093e d779 86bd c2a6 39bd cf7c 0d3e
00000110: 6102 2a3c a5dd be3b 44d1 cb3c 17c8 263e

conv13.bias f4 [2]
0.4362262 0.037082445
00000000: 0a59 df3e c3e3 173d

conv14.weight f4 [2, 2, 3, 3]
-0.25577632 0.28084457 0.24700803 0.19262002 0.009940035 0.39325628 0.16893199 0.31308892
0.02619407 -0.18608016 -0.2620672 0.16453509 0.27391198 -0.20835598 0.15955119 -0.046462532
-0.1754748 0.1498453 0.34607932 0.19007318 0.13029648 0.3236153 0.019382592 0.09743354
0.2419024 0.16819507 0.27897808 -0.14557044 0.12643889 -0.03969442 0.17307834 0.023954371
0.12470562 0.2610776 -0.037959557 -0.20236969
00000000: 1df5 82be dcca 8f3e acef 7c3e 2f3e 453e
00000010: 87db 223c e358 c93e 82fc 2c3e 314d a03e
00000020: f294 d63c cc8b 3ebe ac2d 86be e37b 283e
00000030: 313e 8c3e 455b 55be 6361 233e 7f4f 3ebd
00000040: aaaf 33be 0c71 193e 4f31 b13e 8ba2 423e
00000050: 716c 053e e8b0 a53e 3ec8 9e3c 3c8b c73d
00000060: 43b5 773e 543b 2c3e 37d6 8e3e 6b10 15be
00000070: 3279 013e 9e96 22bd 733b 313e f53b c43c
00000080: a965 ff3d f7ab 853e 7b7b 1bbd 003a 4fbe

conv14.bias f4 [2]
0.44334584 0.054196466
00000000: 3afe e23e 1dfd 5d3d

conv15.weight f4 [1, 2, 3, 3]
0.061765824 0.17516924 0.023964299 0.07276238 0.21926583 0.035862178 0.13442118 0.15852942
0.2109342 0.18130071 -0.112611756 0.023160709 0.15120386 0.1830154 0.07151605 0.1639971
0.003149181 0.03666989
00000000: 29fe 7c3d 915f 333e c750 c43c 7104 953d
00000010: 3987 603e 38e4 123d b5a5 093e 8955 223e
00000020: 23ff 573e e5a6 393e fea0 e6bd 87bb bd3c
00000030: 2fd5 1a3e 6468 3b3e 0277 923d dbee 273e
00000040: 7d62 4e3b 2b33 163d
