output/Mess6060_i/train/model/itn_200.pt (torch_old, 23547 bytes, 23 tensors)

conv11.weight f4 [2, 1, 3, 3]
0.25817907 0.26703382 -0.09235602 0.31855434 -0.07711558 0.053966556 -0.12999503 0.20955451
0.29639682 -0.21433437 0.2589362 0.01769095 0.2939956 0.040388115 0.13711685 0.041553415
0.28406075 0.0591649
00000000: 0c30 843e a8b8 883e 2725 bdbd 8e19 a33e
00000010: c6ee 9dbd 090c 5d3d 6b1d 05be 7595 563e
00000020: 53c1 973e 787a 5bbe 4993 843e 9cec 903c
00000030: 9786 963e 026e 253d 5c68 0c3e ea33 2a3d
00000040: 6970 913e e556 723d

conv11.bias f4 [2]
-0.047778394 0.2232406
00000000: 47b3 43bd 2f99 643e

conv12.weight f4 [4, 2, 3, 3]
-0.07504686 0.00086986757 -0.063842036 0.17720155 -0.17410463 -0.09267407 -0.039752778 -0.1294568
0.035914138 -0.20844156 0.22837977 -0.17993866 0.19206019 0.04123988 -0.06982084 0.16259354
0.043991163 0.20513828 0.053368285 -0.0710828 0.06049611 -0.031680286 0.102587864 0.2030922
0.18177085 -0.08933142 0.13469097 0.059638247 0.11376386 -0.14965954 -0.2124117 -0.096336804
-0.18917091 0.22807184 0.07524133 0.09893298 0.112113565 0.005162575 0.18469203 -0.11842062
0.031815525 -0.15885592 0.13949592 -0.04861732 0.0864266 -0.021345919 0.19692951 -0.13999325
-0.10049256 -0.13017188 0.21496849 0.13581279 0.25395867 -0.17526834 -0.15829986 -0.16666006
-0.17957571 0.1613149 0.10172707 0.2081157 -0.05649936 -0.12420287 0.14865306 -0.032294244
0.1541751 -0.08895909 0.19078417 -0.18805717 -0.124395944 0.12314623 0.066673495 -0.04391207
00000000: 2bb2 99bd d307 643a 9dbf 82bd 5374 353e
00000010: 7c48 32be e7cb bdbd cfd3 22bd 5390 04be
00000020: b41a 133d b471 55be 63dc 693e d741 38be
00000030: 6dab 443e 26eb 283d 3bfe 8ebd ec7e 263e
00000040: 1430 343d c50f 523e b498 5a3d dc93 91bd
00000050: c5ca 773d 30c3 01bd 9619 d23d 67f7 4f3e
00000060: 2322 3a3e 64f3 b6bd 6eec 093e 3c47 743d
00000070: 07fd e83d 5a40 19be 7482 59be 3b4c c5bd
00000080: 05b6 41be aa8b 693e 2018 9a3d 609d ca3d
00000090: cc9b e53d d12a a93b e81f 3d3e 8386 f2bd
000000a0: ff50 023d 20ab 22be 05d8 0e3e f422 47bd
000000b0: 6e00 b13d a3dd aebc e4a7 493e 645a 0fbe
000000c0: 0bcf cdbd c74b 05be b320 5c3e 8212 0b3e
000000d0: df06 823e 8b79 33be 5c19 22be efa8 2abe
000000e0: b2e2 37be bc2f 253e 4856 d03d 481c 553e
000000f0: df6b 67bd 135e febd 8238 183e f846 04bd
00000100: 14e0 1d3e 2f30 b6bd ed5c 433e 0f92 40be
00000110: 4dc3 febd 1734 fc3d 1d8c 883d 25dd 33bd

conv12.bias f4 [4]
0.344356 0.04710279 -0.045072407 0.18406723
00000000: 6e4f b03e dbee 403d d89d 38bd 1f7c 3c3e

down1.weight f4 [8, 4, 2, 2]
0.14819409 -0.12111587 -0.2896531 -0.36660495 -0.18423495 0.040921014 -0.10074654 -0.22546263
-0.02033801 -0.18020564 -0.25678667 -0.16389956 -0.27517623 -0.1664174 0.100767456 -0.035773132
0.071646586 -0.20232365 -0.27841416 -0.13965803 0.015598759 -0.23308933 -0.1403128 -0.17156744
-0.015961036 -0.100674175 -0.0389114 -0.18127364 -0.1289684 -0.07845607 -0.1373453 -0.19435559
0.26631176 -0.023047403 0.22592399 0.019200794 -0.26218218 0.13369516 -0.14088926 -0.15513538
-0.24666865 -0.27688038 0.01951925 -0.09780758 0.18235542 -0.12424897 0.22881934 -0.20231582
0.022551905 0.04706251 0.31669194 0.30328104 0.25402388 -0.19654796 0.1288139 -0.07660775
-0.016427053 -0.19962466 0.26615787 -0.17383818 0.14981253 0.042374674 0.21418415 -0.08222275
0.13566878 0.040215436 -0.1282794 -0.32169065 0.038491618 -0.08339038 -0.19903569 0.153666
-0.0021840923 -0.1777113 -0.19438678 -0.059448335 0.13368374 0.007461703 -0.21659325 -0.07584129
-0.29428962 -0.1596642 0.22302485 -0.30009818 0.19787112 0.14749055 0.29040015 0.010523017
0.22964202 0.124148354 0.2609236 0.0007321969 -0.25683573 -0.37111896 -0.0467765 -0.18966596
0.15135026 0.16021578 0.18788414 0.061940916 0.021520738 -0.010830097 0.11447987 0.10442562
-0.22248982 -0.098418064 0.23927656 0.11365887 -0.10222776 -0.2863673 -0.03553452 -0.16546667
-0.11760527 0.09130118 0.045131523 0.06844927 -0.25091118 -0.162626 -0.08354731 0.21880959
0.011687888 -0.07345105 0.072649166 -0.10851177 -0.14831848 0.2357434 -0.19243823 -0.07458376
00000000: 31c0 173e 990b f8bd 694d 94be a5b3 bbbe
00000010: 16a8 3cbe cb9c 273d 3454 cebd addf 66be
00000020: e69b a6bc d487 38be 8b79 83be 49d5 27be
00000030: e6e3 8cbe 5369 2abe 2b5f ce3d d986 12bd
00000040: 72bb 923d ee2d 4fbe 4d8c 8ebe 8402 0fbe
00000050: f091 7f3c f8ae 6ebe 29ae 0fbe 60af 2fbe
00000060: b8c0 82bc 432e cebd 8f61 1fbd cc9f 39be
00000070: 4b10 04be 93ad a0bd 3fa4 0cbe 2705 47be
00000080: 045a 883e e8cd bcbc 9e58 673e fc4a 9d3c
00000090: be3c 86be 62e7 083e 4645 10be cfdb 1ebe
000000a0: b596 7cbe 44c3 8dbe d6e6 9f3c 574f c8bd
000000b0: 61bb 3a3e 3e76 febd 9e4f 6a3e e12b 4fbe
000000c0: c6be b83c 9ec4 403d 7225 a23e a747 9b3e
000000d0: 6b0f 823e de43 49be cae7 033e 86e4 9cbd
000000e0: 0792 86bc 686a 4cbe d845 883e a302 32be
000000f0: 7568 193e 1191 2d3d 1753 5b3e 6764 a8bd
00000100: c2ec 0a3e f1b8 243d ad5b 03be a3b4 a4be
00000110: 63a9 1d3d 93c8 aabd 03d0 4bbe 9f5a 1d3e
00000120: fd22 0fbb f3f9 35be 540d 47be 1980 73bd
00000130: 64e4 083e 4d81 f43b 9fca 5dbe ae52 9bbd
00000140: 21ad 96be 037f 23be a060 643e 78a6 99be
00000150: ba9e 4a3e c307 173e 54af 943e bb68 2c3c
00000160: 4727 6b3e 7e41 fe3d c797 853e e7f0 3f3a
00000170: f97f 83be 4e03 bebe b798 3fbd cb37 42be
00000180: 90fb 1a3e 9b0f 243e b364 403e c2b5 7d3d
00000190: 424c b03c b870 31bc 6c74 ea3d 19dd d53d
000001a0: 5fd4 63be 698f c9bd ea04 753e fbc5 e83d
000001b0: ca5c d1bd bc9e 92be a58c 11bd 1870 29be
000001c0: 08db f0bd 1dfc ba3d d5db 383d 222f 8c3d
000001d0: 6e77 80be 6e87 26be da1a abbd 9f0f 603e
000001e0: 8e7e 3f3c 816d 96bd 16c9 943d 6b3b debd
000001f0: cde0 17be b866 713e 870e 45be 5fbf 98bd

down1.bias f4 [8]
-0.3869833 -0.06052671 0.19408174 0.25207302 -0.46832323 -0.7207022 -0.17370324 0.19655456
00000000: ad22 c6be dbea 77bd 5dbd 463e b70f 813e
00000010: 10c8 efbe f07f 38bf 43df 31be 9945 493e

conv21.weight f4 [8, 8, 3, 3]
0.039638318 0.09395521 0.055584606 0.02321922 -0.0049936497 -0.10366265 -0.12758121 -0.13671854
0.0062811584 -0.06863233 -0.02465437 -0.07128704 -0.025661904 -0.08731472 -0.09234526 0.011271488
-0.06560141 0.026122537 -0.066879325 -0.10124531 -0.034006212 -0.069255054 -0.040386114 -0.12408732
0.04314191 -0.101493984 0.02641511 0.02581973 0.01738261 -0.15902491 0.0750133 -0.0966942
0.014085524 0.17173623 -0.00962412 0.01389885 -0.044692386 -0.09989746 0.05828478 -0.12208737
0.076088876 0.083437085 0.08678682 -0.047244363 -0.12805808 0.05892784 0.082971185 -0.100554444
-0.016623408 -0.068638675 0.0021329974 -0.03875246 -0.03384282 -0.006547231 -0.104235426 0.09624013
0.104164794 -0.012573134 -0.0071739084 -0.026620349 -0.065190375 -0.075066306 0.10043131 -0.090860285
-0.08236887 -0.010610565 -0.044729218 -0.031395894 0.003500076 -0.037550993 -0.045420025 -0.07503579
-0.087143905 0.084281996 -0.07053343 0.037224755 -0.05984187 -0.027731534 0.12374535 0.040712874
-0.14140055 0.045267608 0.09281751 0.0020008504 0.08310618 0.094536975 -0.058209352 0.03416787
-0.09608183 -0.062024787 0.09991286 0.05251251 -0.089419365 -0.08812719 -0.100319356 -0.15104917
-0.077372715 -0.044647504 0.033716913 -0.050509308 -0.05897284 -0.005666239 -0.008008763 -0.1595862
-0.021956917 -0.087856896 -0.19209829 -0.1426989 -0.0060347267 -0.05402434 -0.099767245 -0.11773892
-0.11500745 -0.09276261 0.11599391 -0.073887765 -0.10314282 0.016799953 0.037325576 0.07610861
0.094555445 0.09338536 -0.07949977 0.004793167 0.09885242 0.04550988 -0.06886103 0.1396347
-0.0091856355 -0.07153355 -0.08697924 0.047131237 0.031918492 0.039442025 0.062806666 -0.07307564
-0.116915986 -0.01402276 0.10682183 0.048475143 -0.09983005 -0.00060142303 -0.09415038 -0.08401593
0.017077027 0.102777146 0.09983793 -0.17375498 0.08664153 -0.0067693396 -0.08758869 0.07974464
0.05064057 0.11999655 -0.013924045 0.03015349 0.0020701296 0.0073055425 0.11724692 -0.18762049
0.071128815 0.14160648 0.09438503 0.008487701 0.009989691 0.04406114 0.131314 0.15939309
-0.1029804 0.12578727 0.18267184 0.07406531 -0.047051515 0.05470548 0.047071498 -0.022693293
-0.02323325 0.29187098 0.049317427 -0.007263159 0.082822606 0.03949412 0.0034694022 -0.17472716
-0.07060523 0.03677448 -0.25532192 -0.15748209 -0.032116 -0.09843797 -0.26779652 -0.1068454
0.078066535 -0.12757367 -0.25839344 -0.07008419 -0.16471602 -0.18941313 0.054853063 -0.15716638
-0.061788637 0.14315856 -0.13970533 -0.110668 0.11909395 0.018242165 -0.117622204 0.044148337
0.10856157 0.1802088 -0.04994548 0.17188926 0.21736255 -0.18940005 -0.05331973 0.24942206
0.075013906 -0.09097649 -0.034771476 -0.08678544 -0.0044118324 0.09189475 -0.020022908 0.06408095
-0.06634797 0.12353791 0.06378319 -0.02831512 0.036220722 0.13368411 0.12109406 -0.13506272
0.09117599 -0.102188155 -0.16751114 -0.14407058 -0.022433106 0.19158442 0.24081478 0.13972984
0.14595626 0.08285647 -0.060692195 0.0725482 -0.11387921 -0.04733119 0.075999126 -0.035001844
0.02345047 0.18742059 -0.047498163 0.020320812 -0.13817255 -0.11296966 -0.0068752375 -0.06789681
00000000: ca5b 223d 976b c03d afac 633d 3c36 be3c
00000010: c5a1 a3bb 154d d4bd a6a4 02be f2ff 0bbe
00000020: 2dd2 cd3b 1b8f 8cbd f6f7 c9bc f1fe 91bd
00000030: ea38 d2bc 0fd2 b2bd 831f bdbd 0cac 383c
00000040: 085a 86bd eefe d53c 07f8 88bd b359 cfbd
00000050: 194a 0bbd 98d5 8dbd e96b 25bd 7e21 febd
00000060: 92b5 303d 14dc cfbd 8064 d83c e683 d33c
00000070: fa65 8e3c 6dd7 22be 93a0 993d 9c07 c6bd
00000080: f8c6 663c 9fdb 2f3e 7cae 1dbc 01b8 633c
00000090: 5d0f 37bd 0a97 ccbd 05bc 6e3d f108 fabd
000000a0: 7cd4 9b3d 10e1 aa3d 4abd b13d 4e83 41bd
000000b0: a821 03be 525e 713d ccec a93d 7def cdbd
000000c0: d02d 88bc 6f92 8cbd c2c9 0b3b e6ba 1ebd
000000d0: c59e 0abd 288a d6bb 6279 d5bd 8c19 c53d
000000e0: 5a54 d53d 8cff 4dbc 1b13 ebbb eb12 dabc
000000f0: 8882 85bd 5dbc 99bd eeae cd3d f514 babd
00000100: 03b1 a8bd efd7 2dbc fc35 37bd fb98 00bd
00000110: 8861 653b 12cf 19bd 590a 3abd 5dac 99bd
00000120: 8178 b2bd 0a9c ac3d d573 90bd fc78 183d
00000130: c01c 75bd 3e2d e3bc 346e fd3d 8bc2 263d
00000140: 4ecb 10be 876a 393d 1b17 be3d b320 033b
00000150: 9333 aa3d 9a9c c13d ee6c 6ebd 9cf3 0b3d
00000160: 8dc6 c4bd b40d 7ebd 1d9f cc3d 5c17 573d
00000170: 8021 b7bd 077c b4bd 3c74 cdbd a2ac 1abe
00000180: 9675 9ebd 4de0 36bd bf1a 0a3d d9e2 4ebd
00000190: 818d 71bd dcab b9bb 3037 03bc 916a 23be
000001a0: fede b3bc 51ee b3bd 6ab5 44be a91f 12be
000001b0: f5be c5bb a048 5dbd c552 ccbd 1a21 f1bd
000001c0: 0789 ebbd 53fa bdbd 378e ed3d 7852 97bd
000001d0: 8b3c d3bd 0ea0 893c b4e2 183d d5de 9b3d
000001e0: 49a6 c13d d340 bf3d c7d0 a2bd 0010 9d3b
000001f0: 2373 ca3d 9168 3a3d 0307 8dbd 66fc 0e3e
00000200: 597f 16bc 2f80 92bd 2c22 b2bd af0c 413d
00000210: f7bc 023d f68d 213d c8a0 803d aea8 95bd
00000220: a671 efbd b8bf 65bc 67c5 da3d df8d 463d
00000230: b273 ccbd d1a8 1dba ead1 c0bd 8b10 acbd
00000240: 1fe5 8b3c d37c d23d d477 cc3d d3ec 31be
00000250: 1d71 b13d 56d1 ddbb b361 b3bd 2851 a33d
00000260: 7d6c 4f3d c0c0 f53d ad21 64bc 7404 f73c
00000270: 03ab 073b 5563 ef3b 271f f03d 961f 40be
00000280: fcab 913d 4a01 113e f04c c13d 0010 0b3c
00000290: cdab 233c 7479 343d 2d77 063e f137 233e
000002a0: 63e7 d2bd 61ce 003e 540e 3b3e 8eaf 973d
000002b0: 17b9 40bd da12 603d 0bce 403d 49e7 b9bc
000002c0: a853 bebc 1d70 953e 1201 4a3d cbff edbb
000002d0: e69e a93d 96c4 213d e95e 633b adeb 32be
000002e0: 7a99 90bd d6a0 163d 8eb9 82be fc42 21be
000002f0: 118c 03bd d999 c9bd a01c 89be c3d1 dabd
00000300: 59e1 9f3d aca2 02be 254c 84be 4d88 8fbd
00000310: 51ab 28be 84f5 41be 9bad 603d 39f0 20be
00000320: 1516 7dbd 2898 123e ea0e 0fbe e8a5 e2bd
00000330: 87e7 f33d 9870 953c e9e3 f0bd e3d4 343d
00000340: 8755 de3d a888 383e a293 4cbd bd03 303e
00000350: 4a94 5e3e 16f2 41be ca65 5abd 7f68 7f3e
00000360: e4a0 993d e251 babd 896c 0ebd 91bc b1bd
00000370: 2291 90bb 5133 bc3d 1507 a4bc e03c 833d
00000380: 72e1 87bd 7201 fd3d c3a0 823d 1cf5 e7bc
00000390: 2e5c 143d 7de4 083e 2a00 f83d e24d 0abe
000003a0: 7aba ba3d 0648 d1bd 0a88 2bbe 3d87 13be
000003b0: a2c5 b7bc b52e 443e 2698 763e 5715 0f3e
000003c0: 8f75 153e a7b0 a93d 6198 78bd 2794 943d
000003d0: 8139 e9bd 5ade 41bd 6ea5 9b3d 185e 0fbd
000003e0: 331b c03c 2feb 3f3e 6f8d 42bd d577 a63c
000003f0: 1b7d 0dbe a35c e7bd ac49 e1bb 7c0d 8bbd

conv21.bias f4 [8]
0.19258387 -0.10567198 0.29619023 0.2984505 0.63629186 -0.074371204 0.13998517 0.041318197
00000000: b534 453e 8d6a d8bd 3fa6 973e 81ce 983e
00000010: 06e4 223f ee4f 98bd 4658 0f3e 453d 293d

down2.weight f4 [16, 8, 2, 2]
0.06770155 0.1124047 -0.08790729 0.09404165 0.10183299 0.15679586 -0.07566556 -0.08324183
-0.23074123 -0.08205491 -0.15971737 -0.24066769 -0.121452674 -0.16903807 -0.29537988 -0.2173702
-0.06936721 -0.16271661 0.0320089 0.07255263 -0.14400053 -0.03049247 -4.5660825e-05 -0.1276368
0.016806412 -0.18994536 -0.17446055 -0.19209826 -0.07080006 -0.065572284 -0.013819672 -0.055576008
0.097636126 0.17095998 0.089430146 -0.045347553 -0.17211787 0.07750117 -0.09413378 0.10878761
0.31250936 0.12825496 0.48446256 0.29974064 0.30075446 -0.009245575 0.57664496 0.09724717
-0.06780633 0.31085715 0.10193345 0.18916517 0.023481272 -0.13941523 0.0064762053 0.19489677
0.06503395 0.02682598 -0.0041736583 -0.03508143 0.115216866 0.01213167 0.14674675 -0.0073262425
0.12656 0.08528188 0.08104989 0.12515493 0.08350107 0.13066342 0.09125437 -0.087608226
0.03541644 0.15349227 0.19413221 0.093975775 0.3088771 0.05774969 0.5549457 0.19808185
-0.3851417 -0.14053972 -0.5561385 -0.2690933 0.19644831 0.09540985 0.20355675 0.008432981
0.092568174 0.0766693 -0.10035413 0.03765432 0.038039666 -0.0920445 -0.07028889 0.17624062
0.10415749 0.063418865 0.11578388 -0.10616494 -0.03081132 0.050306674 -0.019037465 -0.040247243
-0.32246634 -0.0025578889 -0.37770605 -0.12448486 -0.11209196 -0.1429982 -0.5309054 -0.06885292
0.04329515 -0.06965302 0.40147156 -0.07124646 -0.15939678 -0.11413117 -0.09771957 -0.116306484
-0.13581704 0.054110367 -0.03146788 -0.091449134 -0.18200587 -0.07884042 -0.14041191 -0.098222226
-0.16404407 0.037211116 -0.14678034 -0.15784022 -0.16388547 0.025096849 -0.13574246 -0.1416431
-0.10762366 -0.05897617 -0.19422817 -0.36808744 -0.37226427 -0.26834396 -0.1953617 -0.25401947
-0.2373341 -0.14127773 -0.34659672 -0.23199566 -0.05080513 0.15033552 0.040201645 -0.053105246
0.020154664 -0.054247014 0.048716895 0.049713504 0.040027678 -0.074555054 0.12886114 -0.048555125
-0.04929317 0.13242882 0.17720406 0.21931782 0.049862735 -0.032482117 0.10991167 0.20320366
-0.027311526 0.05868685 0.037799 0.14225091 0.30517027 0.13359936 0.25180447 0.25863054
-0.017453063 -0.07614046 0.22155902 -0.0055070897 -0.00039641827 0.041018855 0.023345219 -0.11832536
0.10107529 -0.059656426 -0.060216434 0.08275731 -0.08013539 -0.060487684 -0.03791446 -0.024892183
-0.12859102 -0.07365785 0.009893733 -0.1498163 -0.119185954 -0.0027206193 0.04528794 0.12091294
-0.20267957 -0.025697418 0.013851354 0.010816551 -0.34629357 -0.12007178 -0.34270468 -0.13539843
0.31016892 0.0026220295 0.42111143 -0.0039563607 -0.01893526 -0.12576333 0.05977312 -0.07936088
-0.10635968 -0.1793995 -0.047036674 0.15730648 0.04866366 -0.09592413 -0.027931595 -0.008254262
-0.10504914 0.16476911 0.056023195 0.08231195 -0.074152865 -0.07091748 0.030494792 0.08426699
0.19632992 -0.05716556 0.4431687 0.08360907 0.116899885 0.037084427 0.6586707 0.21423328
-0.11288757 -0.010657124 -0.259611 -0.1426894 -0.106963426 0.12860087 0.20275688 0.21459669
-0.087549545 0.12004884 -0.049940445 0.1494867 0.1712705 0.16528277 0.20058058 0.1699321
00000000: 1ca7 8a3d 6f34 e63d bd08 b4bd e998 c03d
00000010: d18d d03d 188f 203e 8cf6 9abd b17a aabd
00000020: 6e47 6cbe 680c a8bd f38c 23be 9771 76be
00000030: 2ebc f8bd 5118 2dbe 083c 97be 4b96 5ebe
00000040: 6510 8ebd 2f9f 26be c41b 033d 7996 943d
00000050: e074 13be 58cb f9bc f083 3fb8 39b3 02be
00000060: 9aad 893c 0981 42be c9a5 32be 68b5 44be
00000070: 9fff 90bd c34a 86bd e86b 62bc aba3 63bd
00000080: 73f5 c73d 2210 2f3e 2727 b73d 5bbe 39bd
00000090: ab3f 30be efb8 9e3d 36c9 c0bd 0acc de3d
000000a0: 3a01 a03e 4555 033e 7a0b f83e 9b77 993e
000000b0: 7dfc 993e c17a 17bc 019f 133f 8629 c73d
000000c0: 0cde 8abd ab28 9f3e 7cc2 d03d 84b4 413e
000000d0: cc5b c03c dec2 0ebe 5936 d43b 0593 473e
000000e0: 8530 853d 28c2 db3c 2fc3 88bb 8cb1 0fbd
000000f0: d2f6 eb3d e9c3 463c c844 163e fa10 f0bb
00000100: f298 013e 44a8 ae3d 7cfd a53d 9d28 003e
00000110: 9c02 ab3d a2cc 053e 92e3 ba3d f16b b3bd
00000120: d410 113d 142d 1d3e 98ca 463e 5f76 c03d
00000130: 2425 9e3e f08a 6c3d ec10 0e3f f8d5 4a3e
00000140: 4b31 c5be a5e9 0fbe 185f 0ebf 99c6 89be
00000150: bf29 493e 3d66 c33d 2e71 503e 7c2a 0a3c
00000160: 6294 bd3d cb04 9d3d 7786 cdbd 6b3b 1a3d
00000170: 7bcf 1b3d d481 bcbd 9ff3 8fbd 6c78 343e
00000180: 8650 d53d c0e1 813d 1920 ed3d 016d d9bd
00000190: 0568 fcbc 5f0e 4e3d 75f4 9bbc 4bda 24bd
000001a0: 4f1a a5be 41a2 27bb b062 c1be ebf1 febd
000001b0: 7890 e5bd 1f6e 12be 6be9 07bf c202 8dbd
000001c0: 4156 313d 3ea6 8ebd ae8d cd3e aae9 91bd
000001d0: e938 23be 9abd e9bd 3321 c8bd 1832 eebd
000001e0: 9f13 0bbe d5a2 5d3d 77e4 00bd af49 bbbd
000001f0: bf5f 3abe 1677 a1bd 24c8 0fbe bc28 c9bd
00000200: 2bfb 27be af6a 183d 964d 16be dea0 21be
00000210: 98d1 27be e897 cd3c 1200 0bbe e40a 11be
00000220: cb69 dcbd ff90 71bd c0e3 46be f575 bcbe
00000230: 6c99 bebe 6164 89be e60c 48be d70e 82be
00000240: b607 73be 1cab 10be 2075 b1be 4590 6dbe
00000250: 0a19 50bd 8ef1 193e 7baa 243d e384 59bd
00000260: 651b a53c 1e32 5ebd 5e8b 473d 63a0 4b3d
00000270: 10f4 233d 52b0 98bd 2df4 033e bde1 46bd
00000280: a3e7 49bd 6c9b 073e fb74 353e da94 603e
00000290: de3c 4c3d f80b 05bd 5f19 e13d 9f14 503e
000002a0: 6cbc dfbc 9f61 703d 20d3 1a3d 39aa 113e
000002b0: 473f 9c3e 45ce 083e 84ec 803e 396b 843e
000002c0: baf9 8ebc 88ef 9bbd 5ee0 623e d174 b4bb
000002d0: 5cd6 cfb9 6303 283d 793e bf3c 9154 f2bd
000002e0: 9000 cf3d 4c5a 74bd 82a5 76bd aa7c a93d
000002f0: 061e a4bd efc1 77bd 314c 1bbd b1ea cbbc
00000300: 5dad 03be edd9 96bd 5319 223c 7269 19be
00000310: c417 f4bd 6b4c 32bb d97f 393d 34a1 f73d
00000320: 3c8b 4fbe 6483 d2bc caf0 623c e737 313c
00000330: 644d b1be 32e8 f5bd fd76 afbe e3a5 0abe
00000340: 76ce 9e3e 5bd6 2b3b eb9b d73e 5ca4 81bb
00000350: 1e1e 9bbc 1ac8 00be a9d4 743d f587 a2bd
00000360: 1bd3 d9bd 81b4 37be 87a9 40bd f314 213e
00000370: 8c53 473d df73 c4bd cdd0 e4bc e23c 07bc
00000380: 0124 d7bd 3cb9 283e 9478 653d 2b93 a83d
00000390: 75dd 97bd 2f3d 91bd 37d0 f93c 2c94 ac3d
000003a0: b60a 493e 6f26 6abd 02e7 e23e 3b3b ab3d
000003b0: 3569 ef3d d7e5 173d a59e 283f f85f 5b3e
000003c0: 9931 e7bd 389b 2ebc bceb 84be 2c1d 12be
000003d0: a40f dbbd f2af 033e 809f 4f3e 3cbf 5b3e
000003e0: 2d4d b3bd 2bdc f53d 5a8e 4cbd 0b13 193e
000003f0: 8961 2f3e e33f 293e ff64 4d3e ae02 2e3e

down2.bias f4 [16]
-0.34834346 0.30174395 -0.049241744 -0.19778211 -0.17468686 0.43237635 -0.3646326 0.298106
0.1545155 0.10847111 -0.15365419 -0.24693063 0.13762598 -0.36460936 0.2286753 0.024341814
00000000: 135a b2be 2f7e 9a3e b6b1 49bd 6587 4abe
00000010: 1de1 32be 6f60 dd3e 20b1 babe 5aa1 983e
00000020: 5039 1e3e 1a26 de3d 8657 1dbe 62db 7cbe
00000030: d3ed 0c3e 14ae babe dc29 6a3e 7c68 c73c

conv31.weight f4 [16, 16, 3, 3]
-0.032837614 -0.05908747 -0.045790453 0.026637945 -0.05904423 -0.009391475 -0.01218187 -0.02951732
0.012287637 0.056447964 0.07688984 0.009732666 -0.027947372 0.051120717 0.014769505 0.016300024
-0.044219717 0.046251856 -0.017960351 0.051416595 0.05771155 -0.06857825 -0.06204526 -0.05832627
0.08097882 0.055677507 0.019912427 0.030902902 -0.04322133 -0.08860686 0.025862742 0.046648365
0.085648246 -0.01809035 0.07836107 0.037660427 0.057490315 -0.079803936 0.04114355 -0.05087966
0.09202112 -0.017818363 -0.040380668 0.010605304 -0.05305437 -0.04059438 -0.017635435 0.022753771
0.05606844 -0.03833433 0.05051114 -0.014712147 0.0012991915 0.03905811 -0.11797352 -0.09914803
-0.042830445 -0.08277839 -0.02902613 0.0020389701 -0.06655147 -0.01333328 -0.025693137 0.027327074
-0.03443455 0.011117618 -0.013542528 0.012512489 0.0072902287 -0.024061354 -0.029493699 0.028531596
-0.02113462 0.01333772 -0.0052619916 0.025964001 0.0063048434 0.06326622 0.012396412 -0.06541112
0.06458896 -0.0078075803 0.0038722726 -0.02474012 -0.027460342 -0.043904617 0.07075925 0.07881987
0.011946808 0.09059987 -0.008366724 0.0520772 0.06937729 0.046297807 -0.064683706 0.037914284
-0.043349717 -0.04136073 -0.010541794 -0.11441463 -0.08300015 -0.041172642 0.03325341 0.06502184
-0.048131675 -0.056291327 0.025204891 -0.059505723 0.036850486 0.014722414 -0.050204966 -0.06890356
-0.024796972 -0.012586746 0.096115276 -0.029840201 -0.053453147 0.10145019 0.036642566 -0.021639809
-0.037806973 -0.05307679 0.06471477 0.009446962 0.021352598 0.0780857 0.068781495 0.039145585
0.00035432674 0.07187756 -0.08674489 0.02456672 0.014931442 0.026412798 0.00585956 -0.12561487
-0.05368444 0.029576287 -0.083340436 -0.04387979 -0.008934411 -0.06660214 0.06875983 0.0735575
-0.062100977 0.07878167 -0.01741204 -0.054475587 -0.0072743306 -0.01171465 -0.06419477 -0.023889758
0.028921025 0.106125824 0.057931535 0.0677709 0.11977996 -0.039537583 -0.030435678 -0.025540233
-0.023259403 -0.18402599 0.12145608 0.043242328 0.04029317 0.064942986 -0.042367518 0.058678612
0.07533397 0.041981705 -0.047062643 -0.025582833 0.051432535 0.046159863 0.0328317 0.01666207
0.09495418 -0.0043515824 0.09470977 0.17782803 -0.051142063 -0.07300385 0.0035821176 0.0065415944
0.0331196 0.044442333 0.07778259 0.13094613 0.088209376 0.053739052 0.024188643 -0.04181563
0.020864207 -0.029599344 -0.06900278 -0.018689133 -0.069370106 -0.008798177 -0.056569725 0.052125122
0.0019481073 -0.019727625 0.04065505 0.019535927 -0.10077444 -0.040629283 0.020364305 0.05164349
0.03423856 0.026586417 0.083277516 -0.0009532111 -0.06536147 -0.045907624 -0.09902083 -0.15256168
0.06581883 0.04782498 0.066499874 -0.017660577 -0.023204649 -0.054089315 0.01482517 -0.008846758
-0.09095298 0.07638304 0.023368374 0.03513315 0.016975593 -0.06147919 0.00948691 0.035565436
-0.05321396 -0.01923229 0.08766096 0.015344522 -0.01180333 0.023743572 -0.07553458 0.03308705
0.04673734 0.06605316 0.008072279 -0.10791641 -0.014541 0.034909204 -0.10728602 0.045793943
0.0063822367 -0.11409144 0.023947634 -0.030635059 0.07462005 -0.03557077 -0.057557102 0.15448444
00000000: bc80 06bd b405 72bd c58e 3bbd d237 da3c
00000010: 5dd8 71bd b3de 19bc 7796 47bc 4fce f1bc
00000020: 1652 493c fb35 673d 6c78 9d3d c375 1f3c
00000030: e3f1 e4bc f563 513d cbfb 713c a187 853c
00000040: bc1f 35bd 9672 3d3d 9621 93bc 359a 523d
00000050: f262 6c3d c172 8cbd 2c23 7ebd 87e7 6ebd
00000060: 39d8 a53d 190e 643d 631f a33c 1528 fd3c
00000070: d908 31bd 8377 b5bd 1ade d33c 5b12 3f3d
00000080: 5968 af3d 3732 94bc c57b a03d d241 1a3d
00000090: f77a 6b3d 3f70 a3bd 2486 283d 3167 50bd
000000a0: 9275 bc3d d1f7 91bc 3366 25bd dec1 2d3c
000000b0: 8a4f 59bd 4b46 26bd 3078 90bc 1e66 ba3c
000000c0: 05a8 653d 7504 1dbd c5e4 4e3d 380b 71bc
000000d0: a249 aa3a 66fb 1f3d 1a9c f1bd 1f0e cbbd
000000e0: fa6e 2fbd b787 a9bd 35c8 edbc 3ea0 053b
000000f0: 234c 88bd d473 5abc 6a7a d2bc 07dd df3c
00000100: 3e0b 0dbd ab26 363c 7be1 5dbc 2f01 4d3c
00000110: dfe2 ee3b 511c c5bc c59c f1bc 18bb e93c
00000120: 8322 adbc 7486 5a3c c96c acbb 75b2 d43c
00000130: dc98 ce3b b891 813d 521a 4b3c 44f6 85bd
00000140: 3747 843d bbd6 ffbb f4c5 7d3b cbab cabc
00000150: 83f4 e0bc 54d5 33bd 3aea 903d 506c a13d
00000160: 8bbc 433c 6d8c b93d 9514 09bc e74e 553d
00000170: ae15 8e3d c5a2 3d3d e478 84bd 024c 1b3d
00000180: 798f 31bd de69 29bd 7db7 2cbc 3852 eabd
00000190: fcfb a9bd a5a4 28bd ba34 083d 2c2a 853d
000001a0: b825 45bd bc91 66bd 7d7a ce3c 46bc 73bd
000001b0: 89f0 163d 4836 713c b9a3 4dbd 4f1d 8dbd
000001c0: 0523 cbbc a438 4ebc 16d8 c43d 7073 f4bc
000001d0: b0f1 5abd 1ec5 cf3d 8416 163d f845 b1bc
000001e0: 7cdb 1abd 0c67 59bd 2d89 843d 6ec7 1a3c
000001f0: a5eb ae3c 65eb 9f3d 50dd 8c3d 1f57 203d
00000200: eec4 b939 8b34 933d 4ea7 b1bd 2540 c93c
00000210: 02a3 743c a75f d83c 8d01 c03b 2fa1 00be
00000220: 37e4 5bbd f849 f23c 64ae aabd 4bbb 33bd
00000230: a361 12bc b466 88bd f4d1 8c3d 51a5 963d
00000240: 985d 7ebd 4958 a13d b2a3 8ebc cb21 5fbd
00000250: 825d eebb ceee 3fbc 8c78 83bd 74b4 c3bc
00000260: c9eb ec3c 7f58 d93d 9e49 6d3d 78cb 8a3d
00000270: 324f f53d 29f2 21bd 3e54 f9bc c039 d1bc
00000280: 818a bebc 4f71 3cbe f7bd f83d de1e 313d
00000290: 730a 253d d400 853d 9089 2dbd fc58 703d
000002a0: b248 9a3d 02f5 2b3d c2c4 40bd 1793 d1bc
000002b0: ecaa 523d 2012 3d3d 887a 063d e57e 883c
000002c0: 5677 c23d b897 8ebb 32f7 c13d 8d18 363e
000002d0: 577a 51bd 0b83 95bd f6c1 6a3b df5a d63b
000002e0: 6ba8 073d 2a09 363d 7b4c 9f3d be16 063e
000002f0: 1ea7 b43d 7b1d 5c3d 4327 c63c de46 2bbd
00000300: 6aeb aa3c 537a f2bc 5451 8dbd f419 99bc
00000310: ea11 8ebd 3b26 10bc a8b5 67bd 2781 553d
00000320: a257 ff3a d49b a1bc e985 263d cf09 a03c
00000330: d462 cebd e46a 26bd 0bd3 a63c 2088 533d
00000340: bb3d 0c3d c2cb d93c 678d aa3d eae0 79ba
00000350: 3cdc 85bd a209 3cbd 6fcb cabd 2139 1cbe
00000360: 06cc 863d 20e4 433d 1631 883d eaac 90bc
00000370: ad17 bebc c28c 5dbd 45e5 723c fef1 10bc
00000380: 8e45 babd b66e 9c3d 086f bf3c c7e7 0f3d
00000390: 6610 8b3c 9ad1 7bbd fc6e 1b3c 10ad 113d
000003a0: e2f6 59bd 098d 9dbc 9787 b33d 9767 7b3c
000003b0: c162 41bc e181 c23c e0b1 9abd 4986 073d
000003c0: a76f 3f3d e146 873d 9841 043c 4703 ddbd
000003d0: 603d 6ebc f4fc 0e3d c6b8 dbbd 6e92 3b3d
000003e0: 1522 d13b c6a8 e9bd d42d c43c 60f6 fabc
000003f0: 66d2 983d a8b2 11bd ffc0 6bbd 2b31 1e3e

conv31.bias f4 [16]
0.23889826 -0.2086737 0.21405119 0.30602157 0.30377942 0.24259512 0.32111037 0.35422108
0.11392328 -0.48839948 0.25940898 -0.17905307 0.42342997 0.22462499 0.2844422 0.13762502
00000000: bfa1 743e 8fae 55be 3c30 5b3e dcae 9c3e
00000010: fa88 9b3e db6a 783e 9468 a43e 775c b53e
00000020: 9c50 e93d 7f0f fabe 41d1 843e b059 37be
00000030: d0cb d83e 1804 663e 68a2 913e 93ed 0c3e

up2.weight f4 [16, 8, 2, 2]
-0.1559761 0.042091288 -0.003980527 -0.07402827 0.03542183 0.060253482 -0.17716527 -0.16933927
0.110869125 -0.059099417 0.01661064 -0.019404657 0.02229564 -0.12977308 -0.013392441 -0.09198197
-0.077833466 -0.06905176 0.033043925 0.13048884 0.008207548 -0.03015649 0.16033466 0.14044121
-0.005618474 -0.1511208 0.05612961 0.048322655 -0.1641442 -0.13852908 0.030650783 0.16800193
-0.086198874 -0.0039283736 -0.00091404276 -0.27589324 -0.4166079 0.05441793 0.18111338 -0.2704606
-0.17240839 -0.30905804 -0.10967991 -0.1522082 0.088735394 -0.07812775 0.1069036 0.084514745
-0.3043351 -0.06842525 -0.014898913 -0.049746037 0.16007385 -0.2743639 0.013021598 0.1327823
0.14749795 -0.017580818 0.3034328 -0.003033382 -0.58356225 0.28456125 0.07060859 0.09426645
-0.1581371 0.16547923 0.1564646 -0.13812532 -0.22377124 -0.095849395 -0.13488641 0.01986867
0.09415175 0.0363637 0.12122143 0.033910356 -0.065640315 -0.18192108 0.040720943 -0.19471647
0.007924032 0.0440698 -0.100565165 0.06874009 0.042313255 0.09530881 0.10264085 -0.14418176
-0.123255804 -0.06902472 -0.11790357 0.04379203 -0.12849583 -0.11840635 0.06006165 0.101875365
0.18921363 -0.22761486 -0.011911934 0.3425897 0.2869103 -0.113705866 0.035370324 -0.115994275
0.22812226 0.0243114 0.022202453 0.13429062 -0.105491504 0.06472133 -0.15798508 0.101311795
0.27380922 0.09957746 0.19839019 -0.07276598 -0.1703469 -0.0144777745 0.0753264 -0.1436143
0.14131753 -0.16033983 -0.148468 0.04323204 0.022442034 -0.15622719 0.09752016 0.12500098
0.06107776 0.007474201 -0.09466013 -0.2122049 0.029788893 -0.25328565 0.0049386313 0.11886679
0.16222177 -0.05691941 -0.07291558 -0.09948047 0.105796814 -0.22028486 -0.18886012 -0.16624735
0.16110654 0.15118375 0.102118105 0.17938991 -0.09734529 -0.15340422 -0.13983071 0.02573785
0.08287054 -0.0021390254 -0.11748593 0.032525536 -0.11552708 0.028467508 0.008254407 0.07593449
-0.022383021 0.10548038 -0.08389132 0.20275386 0.08533652 -0.055315197 0.040997263 0.11787655
0.17296298 0.18831915 0.20920925 -0.06453799 -0.16784398 0.030180672 -0.023061248 -0.05640422
-0.06719576 0.12553933 0.16878971 0.03843135 -0.03863852 0.043563668 -0.18779081 -0.08410582
0.013206135 -0.16778094 0.114787795 0.19634904 0.119265735 0.14807943 -0.080494106 0.10533865
0.062131543 -0.13874501 0.04375941 0.12753868 -0.05757653 -0.015208656 0.022979643 0.13773052
0.039982356 0.10094034 0.065158196 0.03745353 -0.14983496 -0.073439255 -0.16422433 -0.16794479
-0.11413152 0.16211973 -0.10021509 0.03218218 -0.043001745 0.11593374 0.06936402 -0.18354657
0.22032315 -0.24501829 0.006924959 0.16456857 0.19016302 0.018784888 -0.068637334 0.124322645
0.26137605 -0.11763063 -0.047026813 -0.08101573 0.036687274 0.5162747 0.26190013 0.016044505
-0.39614454 -0.7368546 -0.37211394 -0.27463824 0.21498382 0.10717766 0.15982483 0.00080500107
-0.35100004 -0.30038887 -0.11585954 -0.20061651 0.20373304 0.34963533 0.39096132 0.032103334
-0.18371612 0.09362197 0.11537058 -0.30823553 -0.013592543 -0.27213866 -0.13701051 -0.10058413
00000000: 33b8 1fbe ea67 2c3d 156f 82bb 229c 97bd
00000010: 7b16 113d 5bcc 763d d06a 35be 4667 2dbe
00000020: 5a0f e33d 3b12 72bd 0913 883c 84f6 9ebc
00000030: 59a5 b63c 3ce3 04be f86b 5bbc 0b61 bcbd
00000040: 2767 9fbd 026b 8dbd 1159 073d de9e 053e
00000050: f478 063c be0a f7bc c52e 243e d2cf 0f3e
00000060: 2d1b b8bb 69bf 1abe 29e8 653d faed 453d
00000070: 6b15 28be 91da 0dbe 5a17 fb3c b308 2c3e
00000080: 0989 b0bd 96b9 80bb 5f9c 6fba e141 8dbe
00000090: a14d d5be 56e5 5e3d c975 393e d079 8abe
000000a0: d38b 30be db3c 9ebe dc9f e0bd 77dc 1bbe
000000b0: e7ba b53d 7101 a0bd 46f0 da3d 1116 ad3d
000000c0: cfd1 9bbe 8a22 8cbd 921a 74bc 80c2 4bbd
000000d0: 66ea 233e 6d79 8cbe 8a58 553c 15f8 073e
000000e0: b409 173e a605 90bc 8b5b 9b3e b4cb 46bb
000000f0: 5664 15bf 03b2 913e 3d9b 903d c50e c13d
00000100: b1ee 21be 6373 293e 4238 203e b970 0dbe
00000110: 4a24 65be b04c c4bd aa1f 0abe 9fc3 a23c
00000120: a2d2 c03d 1af2 143d f142 f83d 96e5 0a3d
00000130: 6e6e 86bd 8549 3abe 01cb 263d c163 47be
00000140: cdd3 013c 8982 343d 1cf5 cdbd 9bc7 8c3d
00000150: aa50 2d3d 4431 c33d 5e35 d23d 62a4 13be
00000160: 8a6d fcbd d55c 8dbd 6d77 f1bd 465f 333d
00000170: 6994 03be 077f f2bd 3403 763d 08a4 d03d
00000180: 38c1 413e df13 69be 462a 43bc eb67 af3e
00000190: e8e5 923e 9fde e8bd 79e0 103d 688e edbd
000001a0: e298 693e b328 c73c ebe1 b53c 7b83 093e
000001b0: ee0b d8bd 9e8c 843d d7c6 21be 8f7c cf3d
000001c0: b930 8c3e 44ef cb3d cc26 4b3e 5506 95bd
000001d0: 6b6f 2ebe 3034 6dbc ba44 9a3d a10f 13be
000001e0: 8bb5 103e 2030 24be ff07 18be 1414 313d
000001f0: 5bd8 b73c 05fa 1fbe a6b8 c73d 4200 003e
00000200: ac2c 7a3d 24ea f43b 2cdd c1bd 3e4c 59be
00000210: d607 f43c a8ae 81be 3ed4 a13b 6e70 f33d
00000220: 771d 263e 5424 69bd c354 95bd 6bbc cbbd
00000230: 00ac d83d 5b92 61be 8c64 41be bf3c 2abe
00000240: 1df9 243e eacf 1a3e 4c23 d13d fdb1 373e
00000250: f85c c7bd ff15 1dbe c82f 0fbe 2fd8 d23c
00000260: 08b8 a93d e42e 0cbb 779c f0bd 7f39 053d
00000270: 7699 ecbd b134 e93c 7e3d 073c 8b83 9b3d
00000280: 995c b7bc 1906 d83d 36cf abbd b59e 4f3e
00000290: eac4 ae3d 3092 62bd bfec 273d 4369 f13d
000002a0: 351d 313e bcd6 403e f33a 563e 7e2c 84bd
000002b0: 4bdf 2bbe 753d f73c f1ea bcbc 1d08 67bd
000002c0: ee9d 89bd 628d 003e 36d7 2c3e 316a 1d3d
000002d0: 6d43 1ebd d16f 323d 3c4c 40be ac3f acbd
000002e0: 8b5e 583c c4ce 2bbe dd15 eb3d b90f 493e
000002f0: 9841 f43d 22a2 173e 18da a4bd cabb d73d
00000300: a57d 7e3d 2c13 0ebe 113d 333d 8099 023e
00000310: 5ed5 6bbd ba2d 79bc ce3f bc3c 3b09 0d3e
00000320: 8ac4 233d cfb9 ce3d a971 853d df68 193d
00000330: 566e 19be 5267 96bd 6c2a 28be b8f9 2bbe
00000340: c9bd e9bd b702 263e 923d cdbd 76d1 033d
00000350: 9922 30bd ab6e ed3d b90e 8e3d a2f3 3bbe
00000360: 649c 613e 13e6 7abe c4ea e23b aa84 283e
00000370: 18ba 423e c4e2 993c bb91 8cbd df9c fe3d
00000380: 15d3 853e 54e8 f0bd 309f 40bd 93eb a5bd
00000390: 6545 163d 942a 043f c617 863e c46f 833c
000003a0: 75d3 cabe 81a2 3cbf b885 bebe 629d 8cbe
000003b0: b824 5c3e f67f db3d 1fa9 233e b506 533a
000003c0: 47b6 b3be 92cc 99be c447 edbd 6a6e 4dbe
000003d0: 659f 503e 6703 b33e 152c c83e c97e 033d
000003e0: 1420 3cbe e0bc bf3d 6947 ec3d 0cd1 9dbe
000003f0: 42b3 5ebc c255 8bbe 7c4c 0cbe 0dff cdbd

up2.bias f4 [8]
-0.39824715 0.46676368 -0.008529062 -0.06807874 0.33846712 -0.20744874 -0.19574675 -0.4959303
00000000: 0de7 cbbe a6fb ee3e 7bbd 0bbc de6c 8bbd
00000010: 904b ad3e 716d 54be d671 48be 94ea fdbe

conv22.weight f4 [8, 8, 3, 3]
-0.17371488 0.039597604 0.044719942 -0.14230599 -0.05881071 -0.08184509 0.09582047 0.07835656
0.07972522 0.14024656 0.011654801 0.16132692 -0.094334945 0.09266046 -0.017607728 -0.023384962
-0.1057161 0.1347998 0.029244933 -0.11328776 0.00925872 0.014589091 -0.042232245 0.0858861
0.0059027146 0.035745975 0.009014567 -0.13900241 -0.017396143 0.096451394 0.07031785 0.011357023
0.0886186 -0.14514172 0.028770449 0.01756766 -0.0939212 -0.07302299 0.059760734 0.08365267
-0.056772575 -0.052885316 0.17106225 0.09355416 0.05688731 -0.113012396 0.08458082 -0.11139112
0.05471063 -0.050094325 -0.012438136 0.0058552143 -0.02010389 -0.085183464 0.07845832 -0.13654746
0.024236558 -0.15289088 -0.054365665 -0.009536788 0.06585767 -0.2795085 0.12362076 -0.06569637
0.022506926 -0.07346217 0.024144687 0.0074579995 -0.0736531 0.089850746 -0.071744606 -0.04665277
0.09632765 0.1146764 0.01240943 0.14205001 0.05934587 -0.0319899 -0.071175046 0.0878795
-0.04866936 0.08793018 -0.13720097 0.007667653 -0.11051562 0.06679014 0.07842047 0.23373489
0.006879368 -0.03979575 -0.038044747 -0.0563394 0.13255218 -0.0675005 0.057237618 0.07319952
-0.021699913 -0.13172495 -0.08100651 -0.039319564 0.06766433 -0.022802815 -0.008308445 0.097380556
0.020407744 0.0743748 -0.024843916 0.09953221 0.076654926 -0.021881646 0.039935254 -0.06126929
0.04080685 0.044664264 -0.098752335 -0.071352415 0.0708832 0.009454199 0.026194118 0.05861891
-0.037284847 0.11409033 0.025905272 -0.03400125 0.07463544 -0.06737272 0.01251694 0.01590866
-0.0143345995 0.04175883 -0.053905 -0.0026736658 -0.039114438 0.09282225 0.05205752 -0.049513593
0.043016303 0.038047384 0.14792934 0.115949 -0.03880026 0.103341416 -0.043500602 -0.02811307
0.031762544 0.06429467 0.0315114 -0.14786993 -0.04243614 0.07737035 -0.03307532 -0.09282031
-0.0865724 -0.10519835 -0.06453765 0.006862458 0.076934874 0.07987968 0.10514112 -0.116184
0.07617129 0.031106789 -0.11760988 0.07849354 -0.10468457 0.13060649 -0.06923415 0.033029903
0.10815943 0.085592076 0.037143067 -0.15592943 0.0011843328 0.03416798 -0.12883313 -0.11011172
-0.12574068 -0.13122547 -0.06448759 -0.019194212 0.04748963 -0.021836815 0.09607945 0.0577039
-0.057816215 -0.006727166 0.0007079419 -0.016573131 -0.08224083 0.03845739 -0.07997698 0.0445517
0.05618682 -0.08630795 -0.08228303 -0.090387344 0.00827171 0.02716375 -0.19808987 0.07256028
-0.009631908 -0.07966159 -0.09726466 -0.042510927 -0.28285813 0.07554397 -0.10489643 -0.09960898
0.083379015 -0.12432433 -0.0071662953 0.010998159 0.11646922 0.12308951 -0.014740889 0.011673427
-0.092384204 -0.08115002 -0.0012341731 -0.04016288 -0.092172 -0.035767954 0.071393214 0.06546538
-0.0126437815 0.08728544 -0.046252917 -0.021163618 0.09834145 0.017894356 0.12903103 -0.18863094
0.15983263 -0.12800425 -0.15050058 0.030432442 -0.15248556 -0.041557573 -0.10424804 0.1286217
0.1551065 0.0034039381 0.0414756 -0.1511558 -0.12844832 -0.10094315 -0.17238788 0.05699176
-0.071934275 -0.09703077 -0.14457111 0.007962676 0.005966623 -0.07242395 0.070083424 0.142885
00000000: 50e2 31be 1931 223d 422c 373d a9b8 11be
00000010: 80e3 70bd 669e a7bd 863d c43d 6779 a03d
00000020: fa46 a33d cb9c 0f3e c7f3 3e3c e232 253e
00000030: ae32 c1bd c4c4 bd3d 153e 90bc d291 bfbc
00000040: af81 d8bd f508 0a3e 1293 ef3c 6a03 e8bd
00000050: e3b1 173c 1507 6f3c b8fb 2cbd 0de5 af3d
00000060: 8f6b c13b 5f6a 123d d6b1 133c a656 0ebe
00000070: 5b82 8ebc 4f88 c53d ce02 903d cf12 3a3c
00000080: ab7d b53d 08a0 14be 01b0 eb3c 0eea 8f3c
00000090: c259 c0bd 148d 95bd acc7 743d 1752 ab3d
000000a0: 5c8a 68bd 469e 58bd f12a 2f3e 5399 bf3d
000000b0: ab02 693d 0b73 e7bd b538 ad3d 0721 e4bd
000000c0: 4118 603d b52f 4dbd 53c9 4bbc 19dd bf3b
000000d0: eab0 a4bc ab74 aebd c1ae a03d 19d3 0bbe
000000e0: bf8b c63c 6d8f 1cbe 88ae 5ebd 3040 1cbc
000000f0: 63e0 863d bd1b 8fbe e22c fd3d d28b 86bd
00000100: 7260 b83c 5673 96bd 14cb c53c 3c62 f43b
00000110: 70d7 96bd ab03 b83d d6ee 92bd fa16 3fbd
00000120: 6e47 c53d 76db ea3d ec50 4b3c 8f75 113e
00000130: a814 733d d707 03bd 39c4 91bd 2bfa b33d
00000140: 8659 47bd bd14 b43d 697e 0cbe ef40 fb3b
00000150: 0356 e2bd 45c9 883d e99a a03d 3358 6f3e
00000160: 526c e13b de00 23bd cfd4 1bbd 25c4 66bd
00000170: c2bb 073e b43d 8abd fe71 6a3d a1e9 953d
00000180: 04c4 b1bc e8e2 06be bee6 a5bd 8d0d 21bd
00000190: 9993 8a3d f8cc babc 2520 08bc 756f c73d
000001a0: 242e a73c d151 983d 7885 cbbc 8bd7 cb3d
000001b0: 42fd 9c3d 2341 b3bc 2693 233d 82f5 7abd
000001c0: 1525 273d e0f1 363d aa3e cabd 3721 92bd
000001d0: 362b 913d c9e5 1a3c 0c95 d63c 621a 703d
000001e0: ffb7 18bd 31a8 e93d 4b37 d43c e544 0bbd
000001f0: 77da 983d b5fa 89bd da13 4d3c e152 823c
00000200: abdb 6abc 4f0b 2b3d 7dcb 5cbd ab38 2fbb
00000210: 7636 20bd 9819 be3d 443a 553d c4ce 4abd
00000220: dd31 303d 93d7 1b3d ca7a 173e ab76 ed3d
00000230: 05ed 1ebd aaa4 d33d b02d 32bd 624d e6bc
00000240: 7119 023d edac 833d 1912 013d 376b 17be
00000250: 85d1 2dbd 5974 9e3d fd79 07bd 9318 bebd
00000260: df4c b1bd 3c72 d7bd 512c 84bd 78de e03b
00000270: 0890 9d3d f597 a33d 3a54 d73d e1f1 edbd
00000280: b1ff 9b3d aad3 fe3c 73dd f0bd 39c1 a03d
00000290: dd64 d6bd b5bd 053e a2ca 8dbd 5d4a 073d
000002a0: b182 dd3d e64a af3d 5423 183d f7ab 1fbe
000002b0: 9d3b 9b3a b9f3 0b3d d5ec 03be 4182 e1bd
000002c0: 2ac2 00be f85f 06be 1212 84bd 2e3d 9dbc
000002d0: 7c84 423d 1fe3 b2bc 4dc5 c43d ed5a 6c3d
000002e0: b2d0 6cbd 8f6f dcbb 2d95 393a 60c4 87bc
000002f0: e16d a8bd 7f85 1d3d f9ca a3bd d87b 363d
00000300: 2724 663d 39c2 b0bd 0184 a8bd 001d b9bd
00000310: 1186 073c 8386 de3c 12d8 4abe 7c9a 943d
00000320: 26cf 1dbc 9e25 a3bd b232 c7bd f01f 2ebd
00000330: c8d2 90be ccb6 9a3d f1d3 d6bd cbff cbbd
00000340: 9ec2 aa3d c19d febd 3ed3 eabb 9f31 343c
00000350: 6a87 ee3d 5a16 fc3d c583 71bc e741 3f3c
00000360: ee33 bdbd fb31 a6bd fac3 a1ba d581 24bd
00000370: acc4 bcbd 6b81 12bd 9b36 923d b712 863d
00000380: dd27 4fbc b5c2 b23d b373 3dbd 535f adbc
00000390: 3e67 c93d 2f97 923c b620 043e 7828 41be
000003a0: 2aab 233e 8c13 03be d31c 1abe 754d f93c
000003b0: 2d25 1cbe 4638 2abd ff7f d5bd 68b5 033e
000003c0: 3dd4 1e3e 9b14 5f3b 52e2 293d 96c8 1abe
000003d0: f587 03be 48bb cebd 7386 30be 3170 693d
000003e0: 4752 93bd 11b8 c6bd 730a 14be e275 023c
000003f0: a983 c33b 0253 94bd e687 8f3d 7250 123e

conv22.bias f4 [8]
0.33996597 -0.27141166 0.07885071 0.2584644 -0.21535197 0.020294167 0.24767132 0.43479252
00000000: 0510 ae3e 78f6 8abe 7b7c a13d 7255 843e
00000010: 3a85 5cbe f43f a63c 8d9d 7d3e 209d de3e

up1.weight f4 [8, 4, 2, 2]
0.23099644 0.25504392 -0.07251671 -0.033394992 -0.20969407 0.20776217 0.28873843 -0.14434354
0.12965727 0.18409075 -0.21161565 0.10830374 0.32093915 0.17468545 0.2686013 0.17663354
-0.23427409 -0.12438903 -0.022711394 -0.017240373 0.15084165 -0.23198333 -0.13155873 -0.074349694
-0.035160158 0.24314246 -0.06876078 -0.043499425 -0.13033251 -0.19185852 -0.16943552 0.114624426
-0.099210486 0.23749378 -0.05003435 0.1834398 0.18996052 0.0770328 0.24315448 0.2525962
-0.030721387 0.18135177 -0.11195421 0.31111065 -0.037216503 0.107707664 0.11675073 0.03367653
0.27812597 0.0654663 -0.10003924 0.31432885 -0.15211245 0.25266692 0.37591368 0.21839115
-0.027991625 0.06714137 -0.14702795 -0.02587695 0.036501467 -0.09785356 0.14180197 0.18487635
0.007033361 0.008059181 0.22407962 -0.033284586 0.3070256 0.23296475 0.07112752 -0.3104973
0.25750867 -0.22325645 0.36427894 -0.16426447 0.014659163 0.2410336 -0.055720784 0.1550394
-0.11362336 -0.02880911 -0.023705369 0.24211018 0.16021477 0.20601818 0.14649479 0.24612819
-0.03165037 -0.027876727 0.013349434 0.11556618 -0.037833627 0.15533507 0.073964074 0.12656799
0.29584447 0.11795451 0.19399415 -0.03210416 -0.21624492 0.19030857 0.09047218 0.2307531
0.09791262 0.03853518 -0.20220983 -0.23238952 0.086741 0.22828971 0.01870907 -0.017690131
0.3247154 -0.199362 0.008279799 0.07725207 -0.4214367 -0.085913025 0.02008894 0.12799875
0.34386432 -0.1637447 -0.26837534 0.22708447 0.026282204 0.15111376 0.3290775 -0.1716896
00000000: 558a 6c3e 1e95 823e a483 94bd 30c9 08bd
00000010: 0bba 56be 9bbf 543e 86d5 933e cbce 13be
00000020: e0c4 043e 4982 3c3e c6b1 58be 5ace dd3d
00000030: 2352 a43e bee0 323e 1c86 893e 6cdf 343e
00000040: 8ce5 6fbe adbf febd 3f0d babc af3b 8dbc
00000050: 3c76 1a3e 0a8d 6dbe 55b7 06be a744 98bd
00000060: 1904 10bd 56fa 783e 74d2 8cbd 742c 32bd
00000070: e375 05be 8f76 44be 8180 2dbe 36c0 ea3d
00000080: de2e cbbd 9231 733e d2f0 4cbd a5d7 3b3e
00000090: 0385 423e 5fc3 9d3d 7dfd 783e 4a54 813e
000000a0: 6bab fbbc 47b4 393e 4048 e5bd e549 9f3e
000000b0: 5570 18bd d695 dc3d 021b ef3d 67f0 093d
000000c0: 8766 8e3e 3213 863d 60e1 ccbd b6ef a03e
000000d0: 5ec3 1bbe 8f5d 813e c277 c03e eea1 5f3e
000000e0: b14e e5bc 6a81 893d 7f8e 16be e6fb d3bc
000000f0: 9082 153d 7267 c8bd 8934 113e 3a50 3d3e
00000100: 1c78 e63b a80a 043c 2175 653e 6b55 08bd
00000110: 7632 9d3e 508e 6e3e 4eab 913d 81f9 9ebe
00000120: 2dd8 833e 579d 64be c582 ba3e f234 28be
00000130: fc2c 703c 83d1 763e 7a3b 64bd a6c2 1e3e
00000140: 5db3 e8bd 1501 ecbc c331 c2bc bbeb 773e
00000150: 570f 243e 6ef6 523e bb02 163e 0709 7c3e
00000160: d2a3 01bd bc5d e4bc 96b7 5a3c f6ad ec3d
00000170: 6ff7 1abd 2810 1f3e 7a7a 973d 0a9b 013e
00000180: ed78 973e 2292 f13d 67a6 463e a77f 03bd
00000190: 4f6f 5dbe 40e0 423e 7a49 b93d 8a4a 6c3e
000001a0: 6986 c83d 11d7 1d3d 1810 4fbe 85f7 6dbe
000001b0: 44a5 b13d c7c4 693e c343 993c e5ea 90bc
000001c0: 1941 a63e 8d25 4cbe fea7 073c 5536 9e3d
000001d0: 8dc6 d7be 2bf3 afbd 9091 a43c 1b12 033e
000001e0: fc0e b03e b1ac 27be 7e68 89be d588 683e
000001f0: c74d d73c 91bd 1a3e d97c a83e 66cf 2fbe

up1.bias f4 [4]
0.30537793 0.042824563 -0.04805883 0.021118859
00000000: 7f5a 9c3e cf68 2f3d 56d9 44bd 7501 ad3c

conv13.weight f4 [2, 4, 3, 3]
-0.016376326 -0.13275836 0.0006724301 0.04022368 0.19338633 -0.06262012 0.25445622 -0.085199565
0.14700761 0.0037716478 0.018938027 0.052129332 0.097905435 0.009336739 -0.12584576 -0.22308972
-0.12075661 -0.25934592 0.1684514 -0.112138726 -0.052740276 -0.11318547 0.029608628 0.06296383
0.05763075 -0.017977651 0.010436329 0.12623954 0.12335531 -0.18607678 0.08812561 -0.17198399
-0.1266881 0.1864276 -0.11654199 -0.10924049 0.11413765 0.079525694 -0.17729998 0.008550526
0.014048649 0.12907617 0.20109677 0.16564697 0.14435048 -0.01494607 0.12690705 -0.0020477492
0.053470876 -0.056293983 0.06966474 0.10774656 -0.012321824 0.14935985 -0.014401503 0.016924033
0.1474111 0.104486145 -0.07973087 -0.077815555 0.055579092 -0.07342971 0.001830969 0.12428738
0.14268157 -0.06258379 -0.047387417 0.15133236 0.016249409 0.004403751 0.021503095 0.17121051
00000000: a527 86bc cff1 07be 0546 303a 96c1 243d
00000010: 1107 463e fa3e 80bd 1648 823e 1c7d aebd
00000020: 2a89 163e c02d 773b ec23 9b3c 9185 553d
00000030: a582 c83d 1ff9 183c b6dd 00be a271 64be
00000040: 3e4f f7bd fdc8 84be 867e 2c3e fda8 e5bd
00000050: 3006 58bd c9cd e7bd cb8d f23c 2ef3 803d
00000060: 390e 6c3d de45 93bc 23fd 2a3c f044 013e
00000070: b5a1 fc3d e98a 3ebe 337b b43d 921c 30be
00000080: 86ba 01be e0e6 3e3e 91ad eebd 7ab9 dfbd
00000090: 00c1 e93d 5ede a23d 208e 35be 8117 0c3c
000000a0: 4e2c 663c 8b2c 043e 50ec 4d3e 5c9f 293e
000000b0: 9dd0 133e 5ce0 74bc ecf3 013e 8833 06bb
000000c0: 4704 5b3d 8594 66bd 63ac 8e3d 3aaa dc3d
000000d0: 7ae1 49bc caf1 183e 48f4 6bbc 45a4 8a3c
000000e0: eff2 163e d5fc d53d f049 a3bd c35d 9fbd
000000f0: e7a6 633d 5162 96bd 20fd ef3a 628a fe3d
00000100: 1e1b 123e ee2b 80bd 4f19 42bd dff6 1a3e
00000110: 7b1d 853c 574d 903b 4227 b03c cf51 2f3e

conv13.bias f4 [2]
0.46224728 0.00354347
00000000: adab ec3e 9039 683b

conv14.weight f4 [2, 2, 3, 3]
-0.24858235 0.27867094 0.20302454 0.21139349 -0.0043147528 0.37078544 0.12194778 0.3060031
-0.029761948 -0.18681997 -0.25925902 0.16829596 0.27496514 -0.20367973 0.16420794 -0.04978857
-0.17556275 0.14922109 0.33018667 0.18093343 0.12117213 0.3349042 0.0072517507 0.11256913
0.20114881 0.14587396 0.27042285 -0.14802729 0.12268526 -0.040206585 0.17230846 0.019862989
0.124856904 0.25638956 -0.046374965 -0.20711344
00000000: 5f8c 7ebe f5ad 8e3e aae5 4f3e 8977 583e
00000010: c562 8dbb 97d7 bd3e c2bf f93d 70ac 9c3e
00000020: 54cf f3bc bc4d 3fbe 99bd 84be c755 2c3e
00000030: 3bc8 8c3e 6b91 50be 2026 283e 19ef 4bbd
00000040: b9c6 33be 6acd 183e 3a0e a93e 9d46 393e
00000050: 1829 f83d 9078 ab3e 18a0 ed3b a58a e63d
00000060: f4f9 4d3e fc5f 153e dd74 8a3e 7794 17be
00000070: 6942 fb3d a9af 24bd a171 303e b5b7 a23c
00000080: fab4 ff3d 7e45 833e adf3 3dbd 8c15 54be

conv14.bias f4 [2]
0.42891645 0.02585459
00000000: f09a db3e 01cd d33c

conv15.weight f4 [1, 2, 3, 3]
0.06459893 0.20882595 0.018135514 0.091974825 0.2320242 0.028249638 0.13970618 0.15691698
0.22597075 0.18147881 -0.11717333 0.027045107 0.15153114 0.18454036 0.07679267 0.15583284
-0.0031938336 0.0330759
00000000: 724c 843d 78d6 553e ee90 943c 4c5d bc3d
00000010: c097 6d3e c96b e73c 230f 0f3e d8ae 203e
00000020: e064 673e 95d5 393e 92f8 efbd b38d dd3c
00000030: fb2a 1b3e 26f8 3c3e 7a45 9d3d a592 1f3e
00000040: a34f 51bb 987a 073d
