output/Mess6060_i/train/model/itn_210.pt (torch_old, 23547 bytes, 23 tensors)

conv11.weight f4 [2, 1, 3, 3]
000000 62 0d 84 3e ba 75 88 3e 23 b1 be bd 75 20 a3 3e
       0.2579146 0.26652318 -0.0931113 0.318607
000010 fe 63 9e bd 63 23 5a 3d 52 4f 04 be 4a dd 56 3e
       -0.07733916 0.053256404 -0.12920883 0.20982853
000020 77 97 97 3e f1 05 5b be 42 5f 83 3e 68 fa 76 3c
       0.29607746 -0.21388985 0.25658613 0.01507435
000030 62 e7 96 3e 25 09 1f 3d 2a 4a 0a 3e 80 79 34 3d
       0.29473406 0.03882708 0.13504854 0.044061184
000040 58 25 91 3e 9e 6e 6f 3d
       0.28348804 0.058455102

conv11.bias f4 [2]
000000 39 8d 36 bd c3 5e 69 3e
       -0.044568274 0.22790055

conv12.weight f4 [4, 2, 3, 3]
000000 d5 35 9b bd f0 18 b6 39 40 66 83 bd 5b f9 33 3e
       -0.07578627 0.00034732325 -0.06415987 0.1757559
000010 88 7a 33 be 7f 6c bf bd 41 d2 28 bd d2 2a 06 be
       -0.1752721 -0.09346866 -0.04121614 -0.13102272
000020 5a 2a 0e 3d e8 5f 56 be 53 dc 68 3e 68 09 39 be
       0.03470836 -0.20935023 0.22740297 -0.18069994
000030 b7 f7 42 3e 01 0b 22 3d 9a df 91 bd 40 cc 24 3e
       0.19039808 0.039561275 -0.07122727 0.1609354
000040 77 c3 2c 3d 47 b5 50 3e 86 c1 5b 3d 9b a9 92 bd
       0.042178597 0.20381652 0.053651355 -0.07161256
000050 4a 8e 75 3d d4 67 ff bc d9 da d0 3d 36 35 4f 3e
       0.05995015 -0.031177439 0.10197992 0.20235142
000060 27 46 3b 3e 8a 53 b7 bd 87 54 09 3e da 88 74 3d
       0.1828848 -0.08951481 0.13411151 0.059700824
000070 d6 57 e7 3d 59 d3 19 be a6 37 59 be e4 cd c6 bd
       0.1129605 -0.15022029 -0.21212634 -0.09707239
000080 9e 5c 42 be 28 7b 6a 3e a5 bf 99 3d 67 14 ca 3d
       -0.18980643 0.22898543 0.075072564 0.09867173
000090 52 4c e5 3d c5 e0 84 3b 1a 10 3c 3e 55 a8 f1 bd
       0.111961976 0.004055115 0.18365517 -0.11799685
0000a0 41 83 fe 3c e6 b1 23 be 5d 23 10 3e 6a 9d 47 bd
       0.031068446 -0.15985832 0.1407599 -0.048734106
0000b0 19 b2 af 3d 04 24 b1 bc cd 68 48 3e dc 46 10 be
       0.08578891 -0.021623619 0.19571228 -0.1408953
0000c0 4d 38 cd bd 81 18 06 be 0d 54 5b 3e c8 27 0c 3e
       -0.10020504 -0.13095285 0.21418782 0.1368705
0000d0 4e f9 81 3e 20 9f 33 be 59 5d 22 be 74 e5 2a be
       0.25385517 -0.1754117 -0.15855922 -0.16689092
0000e0 39 39 38 be 75 77 24 3e 6d d3 ce 3d 73 50 54 3e
       -0.17990579 0.16061194 0.1009892 0.20733814
0000f0 30 2e 6c bd ab b2 00 be fd ec 16 3e f6 b6 05 bd
       -0.057661235 -0.12568156 0.14738841 -0.03264519
000100 63 39 1d 3e 46 8f b7 bd 91 45 42 3e 52 c5 41 be
       0.15353923 -0.08962874 0.1897185 -0.18922928
000110 f0 93 00 be 50 e8 f8 3d e8 d1 84 3d 1f 1d 3a bd
       -0.12556434 0.12153685 0.06485349 -0.04543793

conv12.bias f4 [4]
000000 da a4 b4 3e a9 49 4c 3d 27 63 3b bd 44 15 4c 3e
       0.35282022 0.049874935 -0.045748856 0.19929987

down1.weight f4 [8, 4, 2, 2]
000000 e2 45 19 3e 19 ee f3 bd 0b 2d 94 be 45 26 bb be
       0.14968064 -0.11910648 -0.28940615 -0.36552635
000010 59 de 3b be 61 3b 2b 3d 2d 96 ce bd 15 a8 66 be
       -0.18346538 0.041804675 -0.100872375 -0.22525056
000020 eb fa 9c bc 7e 30 37 be bb 2a 83 be 3b 14 27 be
       -0.019162616 -0.17889592 -0.25618538 -0.16316311
000030 37 a2 8b be 78 2a 27 be 0f 92 d1 3d 23 db 08 bd
       -0.27272198 -0.16324794 0.102329366 -0.03341211
000040 6f 29 98 3d 9a 62 4c be 60 ae 8e be 09 49 0d be
       0.07429778 -0.19959489 -0.27867413 -0.13797392
000050 6e 7b 87 3c 28 a9 6d be 7d 31 0f be 07 1f 2f be
       0.016538348 -0.23209059 -0.13983722 -0.1710168
000060 9f e8 6f bc 41 69 cb bd e1 23 1b bd 50 80 38 be
       -0.014642864 -0.09932185 -0.037876014 -0.18017697
000070 7b c9 00 be 13 ba 98 bd 71 56 0b be 24 3b 44 be
       -0.12576859 -0.07457366 -0.13607194 -0.19163185
000080 62 66 8c 3e 40 ee 89 bc 99 37 75 3e 37 80 d3 3c
       0.27421862 -0.01683724 0.2394699 0.025817974
000090 42 de 85 be 82 d4 09 3e 18 38 10 be 65 86 1e be
       -0.26146132 0.13459972 -0.14083898 -0.15480955
0000a0 c3 9b 7b be 5c 1c 8d be b7 77 a5 3c 1a b0 c6 bd
       -0.24571137 -0.275607 0.020198686 -0.097015575
0000b0 08 fa 40 3e ac 15 f1 bd 1d f4 76 3e c8 31 48 be
       0.1884538 -0.11771712 0.2411656 -0.1955024
0000c0 ee 35 a8 3c f2 b2 34 3d 54 a8 a1 3e d5 8d 99 3e
       0.020533528 0.044115968 0.31573737 0.29991022
0000d0 cd cb 81 3e 49 d6 4a be 16 59 06 3e 68 1f 9d bd
       0.253508 -0.19808306 0.13119921 -0.07672006
0000e0 78 53 8b bc 14 7c 4e be 15 f0 88 3e ed e2 32 be
       -0.017007574 -0.2016452 0.26745668 -0.17469378
0000f0 a9 f1 16 3e 08 86 21 3d 80 25 5a 3e aa b5 ac bd
       0.14740624 0.039434463 0.21303368 -0.08433087
000100 3c 48 0c 3e ec d2 2a 3d a2 82 02 be 18 33 a4 be
       0.1369943 0.041705057 -0.12745145 -0.3207023
000110 40 e0 1e 3d bc a6 a9 bd 85 fc 4b be d8 84 1d 3e
       0.03878808 -0.08283755 -0.19920547 0.15382707
000120 ba 73 dc ba 97 2a 35 be 5d b8 46 be f9 0e 71 bd
       -0.0016819157 -0.17692028 -0.19406267 -0.05885217
000130 b9 fc 0a 3e 61 21 27 3c 21 68 5c be d8 24 97 bd
       0.13572969 0.010200829 -0.21524097 -0.07380074
000140 94 d8 99 be 17 f5 2a be b3 31 61 3e b7 73 9a be
       -0.30048048 -0.16695057 0.21991615 -0.30166408
000150 f7 c1 4a 3e 6f dd 14 3e 25 70 96 3e 13 b2 23 3c
       0.19800554 0.14537595 0.29382434 0.009991187
000160 6e c2 6b 3e b1 61 fa 3d 58 77 86 3e 38 d9 a0 b9
       0.23023388 0.122256644 0.26262927 -0.0003067942
000170 9f 0b 88 be 94 ab c6 be cb 6c 4f bd 94 de 46 be
       -0.26571366 -0.3880278 -0.050640862 -0.19420844
000180 8a 70 1a 3e 98 5a 23 3e d5 a4 43 3e c3 f0 81 3d
       0.15081993 0.15952528 0.19105847 0.0634475
000190 75 87 a1 3c 85 52 4f bc 62 82 eb 3d 69 81 d5 3d
       0.019717911 -0.0126539515 0.11499478 0.10425074
0001a0 8e 41 66 be ff cc ce bd 7a 2f 74 3e 9d 7d e6 3d
       -0.22485945 -0.10097694 0.23846236 0.112544276
0001b0 4a b1 d7 bd 4d 52 94 be 31 8f 10 bd 4a 3c 29 be
       -0.10531862 -0.2896904 -0.035292808 -0.16526905
0001c0 56 9d ea bd 56 cf bd 3d 4b 5e 44 3d 3e da 90 3d
       -0.11455791 0.09268062 0.047941487 0.070728764
0001d0 af 2c 80 be be 90 25 be be b8 aa bd fb cd 60 3e
       -0.2503409 -0.16168496 -0.08336018 0.21953575
0001e0 79 db 4b 3c 53 00 94 bd 68 1c 96 3d f0 ed db bd
       0.012442463 -0.07226624 0.07329637 -0.10738742
0001f0 e1 c5 15 be f0 48 74 3e 9a 69 43 be c2 6a 93 bd
       -0.14626266 0.23855948 -0.19083253 -0.07198097

down1.bias f4 [8]
000000 1f d0 c9 be df 78 87 bd 40 0f 4a 3e 12 87 8b 3e
       -0.39416596 -0.06614851 0.1973238 0.27251488
000010 86 e0 f4 be c0 26 3a bf 6a fa 2f be 8e 21 49 3e
       -0.47827548 -0.7271538 -0.17185369 0.19641706

conv21.weight f4 [8, 8, 3, 3]
000000 78 93 25 3d 26 bf c2 3d 0c 91 68 3d 9a 46 c8 3c
       0.04042384 0.09509115 0.056778952 0.024447728
000010 2b 73 85 bb dd 05 d3 bd f1 5c 01 be 78 79 0b be
       -0.004072567 -0.10303853 -0.1263311 -0.13620555
000020 0a 1d c5 3b 30 b7 8a bd cb 76 c0 bc 2b 98 8f bd
       0.0060154246 -0.067732215 -0.023494145 -0.070114456
000030 a0 5b c8 bc ad 19 b1 bd c8 1b bc bd 52 de 4b 3c
       -0.024457753 -0.086474754 -0.09184986 0.012443142
000040 96 9c 85 bd ae 85 d2 3c 1d 28 88 bd d8 96 cd bd
       -0.06524007 0.025698509 -0.06648276 -0.10038537
000050 67 83 07 bd 0f bf 8b bd 28 4c 21 bd 7c 6a fc bd
       -0.0330843 -0.06823551 -0.03937927 -0.12324998
000060 16 64 35 3d 1b 8b ce bd 3f a1 d8 3c cd 55 d3 3c
       0.044284903 -0.10085126 0.026444076 0.025797749
000070 78 5a 84 3c 3c 69 25 be 6e c2 96 3d 35 d3 c5 bd
       0.01615642 -0.16153425 0.07361303 -0.09659425
000080 3e 99 6f 3c 5b ff 2c 3e b7 8a 41 bc 66 51 62 3c
       0.014623938 0.16894285 -0.011812857 0.013813352
000090 95 ad 33 bd e1 44 ca bd 9f cc 73 3d 04 07 f7 bd
       -0.043866713 -0.09876419 0.059521314 -0.12061885
0000a0 02 50 9e 3d 76 a9 ac 3d 70 e1 b4 3d a4 b3 3d bd
       0.07730104 0.084307596 0.08832061 -0.046313897
0000b0 ea ef 02 be 55 66 70 3d e2 9d a8 3d 6b 57 cf bd
       -0.12786832 0.05869134 0.08233239 -0.101240955
0000c0 91 d2 8f bc 0e 8c 8e bd 90 88 bf 3a 8e 15 23 bd
       -0.01755646 -0.06960307 0.0014612842 -0.039815478
0000d0 98 43 0d bd 8b 82 d5 bb 90 b4 d7 bd 9c 09 c3 3d
       -0.03448829 -0.006515806 -0.105324864 0.09523317
0000e0 c5 6a d3 3d a6 60 64 bc 5c 4b 00 bc 5c 29 da bc
       0.10323099 -0.013939058 -0.007830467 -0.02663105
0000f0 67 70 87 bd 0b d7 99 bd 54 c2 cf 3d d2 0a b9 bd
       -0.06613236 -0.07511719 0.10144487 -0.09035267
000100 4a ac a6 bd 96 31 1a bc f5 c4 32 bd d9 98 f7 bc
       -0.0813833 -0.009411236 -0.043644864 -0.03022425
000110 80 7a 91 3b 99 be 13 bd e2 c2 35 bd 09 f9 98 bd
       0.004439652 -0.03607044 -0.044375308 -0.07469375
000120 48 a8 b1 bd 56 5a ad 3d c1 2c 90 bd ca 01 1b 3d
       -0.08674675 0.08464496 -0.07039786 0.037843503
000130 c4 a6 72 bd f6 98 e1 bc 31 62 fe 3d c8 ad 27 3d
       -0.05924107 -0.027538758 0.12421072 0.040937215
000140 df 5d 11 be 0a 00 3b 3d 6d b7 be 3d e4 10 04 3b
       -0.14195965 0.045654334 0.093123294 0.002015167
000150 28 96 ab 3d f3 e6 c2 3d e3 bc 6d bd 75 e6 0d 3d
       0.083782494 0.09516706 -0.058041465 0.03464361
000160 61 40 c4 bd 42 59 80 bd 15 7d cd 3d 90 4f 59 3d
       -0.09582592 -0.062670246 0.10033623 0.053054392
000170 69 01 b6 bd f1 7c b3 bd 45 ca cc bd b6 9c 1a be
       -0.08886988 -0.08764065 -0.09999517 -0.15098843
000180 98 d0 9d bd 83 c9 36 bd 75 98 07 3d c5 d8 46 bd
       -0.07705802 -0.04462577 0.03310438 -0.04854657
000190 da d2 63 bd 8f 1a 52 ba 33 43 10 bc 30 2f 28 be
       -0.055621006 -0.0008014822 -0.008805084 -0.1642425
0001a0 3f 44 c9 bc 5a 2d b9 bd 07 11 48 be 23 af 16 be
       -0.024568675 -0.09041853 -0.19537745 -0.14715247
0001b0 65 12 b1 bb 9a 9e 5a bd a5 39 cb bd 8d 7b ef bd
       -0.005403804 -0.05337391 -0.09923104 -0.11693487
0001c0 6f 5d e9 bd b4 9d bc bd 8b 1d ef 3d 93 93 96 bd
       -0.11394774 -0.09209767 0.11675557 -0.07352366
0001d0 18 98 d3 bd a6 7e 87 3c 28 b8 16 3d 38 c4 9a 3d
       -0.10331744 0.016539883 0.03679672 0.07556957
0001e0 54 3c c1 3d 1a f5 be 3d c3 c0 a2 bd a4 07 9b 3b
       0.09435335 0.09324093 -0.07946923 0.0047311354
0001f0 17 1b cb 3d d2 d6 3d 3d f5 ee 8d bd 6e 7e 0e 3e
       0.09917276 0.046347447 -0.06930343 0.13915417
000200 49 73 19 bc f4 b4 93 bd 30 95 b3 bd ee 09 40 3d
       -0.009365865 -0.072122484 -0.0876869 0.04688447
000210 48 94 01 3d ed 00 23 3d 5c 07 83 3d f2 46 94 bd
       0.031635553 0.039795805 0.06397888 -0.07240094
000220 e6 12 ee bd 7a 03 5d bc 97 f6 db 3d fb 3f 49 3d
       -0.11624698 -0.013489598 0.10740393 0.049133282
000230 f3 9c cb bd 30 a1 04 39 12 72 bf bd 54 aa ab bd
       -0.09942045 0.00012648548 -0.09347929 -0.08382097
000240 88 8a 7e 3c 40 06 cf 3d 12 02 c5 3d a2 fe 32 be
       0.015535958 0.10108614 0.096195355 -0.17479947
000250 ef 6a ad 3d 7f bb 04 bc 34 7a b4 bd ae 24 a3 3d
       0.084676616 -0.008101343 -0.08812371 0.079659805
000260 ae 72 46 3d fa d4 f3 3d 8f 2d 70 bc 77 10 e3 3c
       0.04844921 0.119058564 -0.0146592995 0.027717812
000270 b6 2a 98 3a 12 00 be 3b b9 66 f1 3d d9 4a 40 be
       0.0011609409 0.005798348 0.11787171 -0.18778552
000280 38 12 92 3d 88 79 0f 3e 97 2e bf 3d 60 6b ee 3b
       0.07132381 0.14011204 0.09335058 0.0072759837
000290 26 39 58 3c 8f 4b 39 3d dc 83 08 3e 8e 6f 2d 3e
       0.013197219 0.045238074 0.1333155 0.16937086
0002a0 1d 4e d1 bd 03 38 02 3e 6f eb 40 3e e1 fa 99 3d
       -0.10219977 0.1271668 0.18839811 0.075185545
0002b0 0a dd 3d bd 43 40 70 3d 73 ae 48 3d b6 e4 ac bc
       -0.046353377 0.058655035 0.048994493 -0.021105152
0002c0 f0 89 98 bc f8 75 96 3e f8 38 4a 3d c5 3f 94 bb
       -0.018620461 0.29386878 0.049370736 -0.0045242035
0002d0 67 9e a5 3d 91 d3 17 3d 4e 89 1f ba be e1 34 be
       0.080868535 0.037067 -0.00060858286 -0.17664239
0002e0 bf 9b 95 bd a0 14 07 3d 2e 57 83 be 80 da 21 be
       -0.07305097 0.032978654 -0.2565245 -0.15806007
0002f0 d2 a5 10 bd 73 5f c8 bd fe 2a 8b be f2 87 e2 bd
       -0.03531439 -0.097838305 -0.27181238 -0.11061086
000300 44 e1 9c 3d 3e e9 06 be 52 f1 87 be 03 3d 90 bd
       0.076601535 -0.13174912 -0.265513 -0.07042887
000310 46 29 2e be 27 8b 4b be c8 cc 62 3d 4e b9 23 be
       -0.17007932 -0.19877301 0.055371076 -0.15988657
000320 50 4c 89 bd 48 23 13 3e 59 17 0f be cd 6b ee bd
       -0.067040086 0.14368927 -0.1397375 -0.11641655
000330 78 d8 f4 3d 7b 5d 8f 3c fd 91 ef bd b5 77 37 3d
       0.11955351 0.01750063 -0.11697767 0.044791896
000340 23 d9 e2 3d dd 58 3b 3e 05 22 4d bd 4b 5b 30 3e
       0.11076572 0.18295617 -0.05008127 0.17222326
000350 0e 85 62 3e be 24 41 be be 49 51 bd 4e 31 83 3e
       0.22121069 -0.18861672 -0.051095717 0.25623554
000360 d4 08 95 3d 55 f0 b8 bd 32 e0 07 bd ea 5c b1 bd
       0.072770745 -0.09030215 -0.033172794 -0.086603
000370 62 b2 63 bb 61 c8 bb 3d 6f 74 ae bc e0 fa 81 3d
       -0.0034743776 0.091690786 -0.021295754 0.06346679
000380 ba 9a 88 bd cd ea f9 3d 87 a8 86 3d 5f 6c cd bc
       -0.06670137 0.12202988 0.06575113 -0.02507609
000390 59 88 18 3d f1 44 09 3e d6 cb f7 3d 07 58 0b be
       0.037239406 0.13405205 0.120994255 -0.13607799
0003a0 14 1f bb 3d 15 ee d1 bd 56 1a 30 be 5a ba 12 be
       0.09136787 -0.10250489 -0.17197546 -0.143289
0003b0 16 a5 bd bc c9 d9 45 3e 78 52 7c 3e a0 af 0f 3e
       -0.023150008 0.1932136 0.24640834 0.1403184
0003c0 5b 9a 18 3e c4 15 ae 3d 87 89 6a bd 3e a3 98 3d
       0.14902632 0.08500245 -0.057260063 0.07453011
0003d0 8f ad e4 bd 88 a6 54 bd a2 d3 9f 3d e4 80 11 bd
       -0.11165916 -0.05191663 0.07804038 -0.03552331
0003e0 ae b7 c9 3c 2d f8 43 3e 9c f5 3f bd 00 ab ae 3c
       0.024623718 0.1913764 -0.04686509 0.021321774
0003f0 a1 bf 0f be 9c 0a e6 bd cc 32 d4 bb 31 0d 8c bd
       -0.14037944 -0.11232492 -0.006475782 -0.068384536

conv21.bias f4 [8]
000000 4b 34 43 3e f6 ed d2 bd 1b c8 9a 3e b8 06 99 3e
       0.19062917 -0.10299294 0.30230793 0.29887938
000010 fd fe 26 3f e6 f7 a3 bd 5a bd 12 3e 88 20 2f 3d
       0.6523283 -0.08006267 0.14330044 0.042755634

down2.weight f4 [16, 8, 2, 2]
000000 6f 0e 8b 3d c5 b0 e6 3d 6f 39 b3 bd 31 06 c1 3d
       0.06789862 0.11264185 -0.08751189 0.09425009
000010 e9 79 d1 3d b5 02 21 3e 16 f3 99 bd af 1c aa bd
       0.10228331 0.15723689 -0.07517068 -0.08306252
000020 d6 ac 6e be e6 17 b2 bd ae b2 25 be 1d 78 79 be
       -0.23308119 -0.086959645 -0.16181442 -0.24362226
000030 1b 50 ff bd f2 05 31 be 8f 49 9a be 54 50 61 be
       -0.12466451 -0.17287424 -0.30134246 -0.22003299
000040 af 90 90 bd 4e 81 28 be 14 67 0b 3d 94 0f 90 3d
       -0.07058846 -0.16455576 0.03403385 0.07034221
000050 8f 3a 13 be 94 09 f8 bc a0 cb 4f 39 ec 99 02 be
       -0.14377807 -0.030278005 0.00019816915 -0.12754029
000060 8d 90 8a 3c 82 50 42 be 8c 8b 32 be 30 95 44 be
       0.01691463 -0.18976024 -0.17436045 -0.19197536
000070 38 26 90 bd 4e 9a 85 bd 85 30 5e bc 39 1f 63 bd
       -0.0703854 -0.06523572 -0.013561373 -0.055449698
000080 60 12 c8 3d 3a 35 2f 3e 05 01 b7 3d 1a a3 38 bd
       0.0976913 0.17110148 0.08935741 -0.04507742
000090 68 47 30 be fd 19 9f 3d c5 b3 c0 bd cb eb df 3d
       -0.1721474 0.07768629 -0.09409288 0.10933646
0000a0 3e 28 a0 3e fc f9 07 3e 50 c1 f7 3e 55 ae 9a 3e
       0.31280702 0.13278955 0.48389673 0.3021113
0000b0 72 23 9c 3e 27 3a bf bb f8 d3 14 3f 4f f3 c4 3d
       0.30495793 -0.0058357897 0.5813594 0.0961672
0000c0 96 d7 87 bd c5 c3 a0 3e 06 32 d2 3d ec 3f 46 3e
       -0.06632917 0.3139936 0.102634475 0.19360322
0000d0 f3 46 c1 3c 42 80 0e be 7a 42 d7 3b ea 05 48 3e
       0.023593402 -0.13916114 0.006569204 0.19533506
0000e0 70 86 85 3d 99 a1 dd 3c 0a 77 83 bb e9 5b 0e bd
       0.065197825 0.027054595 -0.0040119933 -0.03475562
0000f0 d2 c8 eb 3d 4b d1 48 3c 94 4a 16 3e fb 6a e4 bb
       0.11512913 0.012256931 0.14676887 -0.006970761
000100 1a 1c 02 3e a3 b7 ae 3d ff 93 a5 3d 8b 5e ff 3d
       0.12706032 0.0853112 0.08084869 0.124692045
000110 ad 79 ab 3d f6 7c 05 3e 8c 1e ba 3d 6e d3 b4 bd
       0.08372817 0.1303595 0.090878576 -0.088293895
000120 78 3a 06 3d 5c 4b 21 3e 8d 30 44 3e 41 98 c3 3d
       0.032770604 0.15751404 0.19159146 0.095505245
000130 27 e7 a9 3e 4e f4 81 3d 4d ec 0f 3f 20 b5 48 3e
       0.33184168 0.063454255 0.5621994 0.19600344
000140 90 d9 c7 be 2a a0 12 be 4b 9e 11 bf d9 42 8a be
       -0.39033175 -0.1431891 -0.5688216 -0.27004126
000150 22 50 49 3e 4b d6 c2 3d ff 42 50 3e 68 1d 01 3c
       0.19659474 0.095135294 0.20338057 0.007880546
000160 34 f6 be 3d 14 0f 9d 3d 64 a3 cc bd c4 0a 19 3d
       0.09324303 0.076688915 -0.09992102 0.037363783
000170 79 82 1c 3d da 1b bd bd 3d 0f 90 bd ba c7 33 3e
       0.038210366 -0.09233828 -0.070341565 0.17556658
000180 62 f8 d4 3d 5e 56 81 3d 03 06 ed 3d 7c 42 da bd
       0.10398938 0.06315301 0.11573412 -0.10657212
000190 63 ee fc bc c1 3b 4d 3d 57 ee 9c bc 70 38 27 bd
       -0.03087539 0.050105814 -0.019156618 -0.040825307
0001a0 96 9b a4 be 3d 54 af bb 08 57 c2 be e2 17 01 be
       -0.32149953 -0.005350618 -0.37957025 -0.12606767
0001b0 72 9c ef bd ba 69 14 be ce a8 09 bf c1 34 8e bd
       -0.116997615 -0.14493456 -0.537732 -0.06943656
0001c0 ac 79 26 3d 7b 64 94 bd 22 cb ce 3e 7f 91 9a bd
       0.04064338 -0.07245728 0.40389353 -0.075472824
0001d0 77 65 23 be de 74 ea bd e2 9d c8 bd 09 5f ef bd
       -0.15956675 -0.11448072 -0.09795739 -0.116880484
0001e0 a0 46 0b be 10 bd 5c 3d a8 13 02 bd ff 0c bc bd
       -0.1360116 0.05389124 -0.031757027 -0.09182166
0001f0 8e 50 3a be d0 d0 a1 bd 4d fa 0f be 00 12 ca bd
       -0.18194792 -0.07901156 -0.14060326 -0.098667145
000200 9b ea 27 be b9 5f 18 3d 17 22 16 be b5 ce 21 be
       -0.16398089 0.037200663 -0.14661442 -0.15801509
000210 c8 a6 27 be 93 9d cd 3c 08 eb 0a be a5 6c 11 be
       -0.16372216 0.025099551 -0.1356622 -0.14201601
000220 08 e3 dc bd 2e a7 7c bd f9 fb 44 be a5 c9 bc be
       -0.1078549 -0.061682872 -0.19236745 -0.36872593
000230 2f 77 bf be 33 86 8a be 65 99 47 be 98 28 81 be
       -0.37395617 -0.2705551 -0.19492109 -0.25226283
000240 31 18 72 be a2 8d 0f be 54 89 b4 be fe d6 6e be
       -0.23642041 -0.14018872 -0.35261023 -0.233242
000250 28 42 50 bd e9 c1 19 3e 9f d2 24 3d 05 f3 5a bd
       -0.05084434 0.15015377 0.040239926 -0.053454418
000260 d3 14 a4 3c 42 46 5f bd 35 b3 47 3d f7 47 4a 3d
       0.020029461 -0.054510362 0.04875489 0.049385037
000270 39 99 24 3d bf cb 98 bd 57 25 04 3e 7d 11 48 bd
       0.040185187 -0.074607365 0.12904869 -0.048844803
000280 22 fe 49 bd e6 90 07 3e fe 4e 35 3e 1d b3 60 3e
       -0.049314626 0.13238868 0.17705914 0.21943326
000290 5c af 4b 3d 16 83 05 bd 6e 15 e1 3d eb 6e 50 3e
       0.049727783 -0.032595716 0.109904155 0.20354812
0002a0 ec fa fd bc 8e 75 70 3d 42 33 07 3d f0 22 0f 3e
       -0.031003438 0.05870586 0.033007868 0.13978171
0002b0 ec 06 9d 3e d5 39 09 3e d8 46 80 3e 1c 99 82 3e
       0.30669343 0.13400967 0.2505405 0.25507438
0002c0 ea 35 a0 bc 1c db 9e bd 00 0b 64 3e f8 d9 d6 bb
       -0.019556958 -0.077566355 0.22269821 -0.0065567456
0002d0 69 92 c0 b9 2b 65 28 3d 82 13 bf 3c 55 b9 f1 bd
       -0.00036730178 0.041112106 0.023324732 -0.118029274
0002e0 57 60 cf 3d 09 8a 73 bd 6b 7a 76 bd d1 1f aa 3d
       0.10125797 -0.059457812 -0.06017534 0.0830685
0002f0 3a 6f a4 bd 87 dd 77 bd b5 c3 1b bd 74 de c9 bc
       -0.08029027 -0.060514 -0.038028438 -0.024642207
000300 c3 78 04 be 0d 87 97 bd 1c 51 24 3c 4f ec 18 be
       -0.12936692 -0.07398806 0.010029104 -0.14933895
000310 50 99 f5 bd bc 5e 38 bb 43 3a 3a 3d 28 30 f9 3d
       -0.11992133 -0.0028132638 0.04546572 0.12167388
000320 8d a2 47 be d8 d9 09 bd 0b 17 d2 3c 0e 5c d7 3b
       -0.19495602 -0.033655018 0.025645753 0.006572253
000330 0c ef b3 be cd c0 eb bd 53 cb a7 be 2d bf fc bd
       -0.35143316 -0.11511383 -0.32772312 -0.123411514
000340 4d 6c a0 3e 93 c1 af 3b 0e 1b dd 3e 82 ee 6f ba
       0.31332627 0.005363652 0.43184704 -0.0009152667
000350 7b d1 9e bc ab e5 00 be ce 9f 75 3d ac 58 a1 bd
       -0.019386997 -0.12587611 0.059966855 -0.07878241
000360 43 a7 db bd 9c 0f 38 be d1 fa 41 bd 94 56 21 3e
       -0.10725262 -0.17974705 -0.047358338 0.15755683
000370 04 cf 45 3d 9d 57 c4 bd 43 5e e2 bc 74 ef f1 bb
       0.04829313 -0.095870234 -0.027632838 -0.0073832814
000380 32 39 d7 bd f0 d0 28 3e 5d 60 65 3d 6f 75 a9 3d
       -0.10508956 0.16485953 0.056000102 0.08274352
000390 cb 3d 98 bd 98 0d 91 bd 2a 51 fa 3c 96 16 ae 3d
       -0.07433661 -0.07082671 0.03055628 0.08500402
0003a0 0a a0 4a 3e db 63 58 bd 69 07 e4 3e f6 86 b1 3d
       0.19787613 -0.052829605 0.44536904 0.0866832
0003b0 2f 2f 01 3e 32 4c 3a 3d 8d d5 2b 3f 8a 95 60 3e
       0.12615655 0.04548282 0.6712273 0.21932045
0003c0 26 91 e1 bd 8c 6b ee bb 53 2a 86 be 46 a2 0d be
       -0.11014013 -0.007276004 -0.26204166 -0.13831434
0003d0 9e 09 db bd 30 e2 03 3e 7d d0 4f 3e a0 60 5c 3e
       -0.10695194 0.12879252 0.20294376 0.21521235
0003e0 c9 52 b3 bd 45 f9 f5 3d 71 b3 4b bd f3 77 19 3e
       -0.087560244 0.12010435 -0.049731676 0.14987163
0003f0 0c 2d 2f 3e 7f 54 29 3e 18 a3 4d 3e 08 a9 2e 3e
       0.17107028 0.16536139 0.20081747 0.17056668

down2.bias f4 [16]
000000 77 8b b3 be df 82 9c 3e 2d 91 3d bd 80 b8 4d be
       -0.3506734 0.30568597 -0.04628103 -0.20089912
000010 ce ac 36 be 93 1e df 3e 83 b0 bb be e1 b3 9a 3e
       -0.17839357 0.43578014 -0.36658105 0.30215362
000020 ac 0b 18 3e 5c 25 e1 3d be 31 26 be 36 f6 7d be
       0.14848202 0.10993454 -0.16229913 -0.24800953
000030 7a d0 0c 3e ba ec c1 be 58 c3 6c 3e 94 43 f6 3c
       0.13751402 -0.3787592 0.23121393 0.03006152

conv31.weight f4 [16, 16, 3, 3]
000000 a2 c8 06 bd 3f c0 72 bd 1a 21 3e bd 63 ac da 3c
       -0.032906182 -0.05926537 -0.046418287 0.026693529
000010 fa 21 72 bd 69 94 1f bc e7 a4 40 bc 61 f3 f3 bc
       -0.059114434 -0.009739974 -0.011758066 -0.029779138
000020 e6 29 44 3c 8b 18 68 3d a8 5e 9d 3d 76 77 2b 3c
       0.01197288 0.05666403 0.0768407 0.010465493
000030 90 11 e5 bc f7 72 4f 3d 2b ae 73 3c 4a 61 84 3c
       -0.027962476 0.05064675 0.014873068 0.016159672
000040 ab a4 32 bd ac 74 3e 3d 53 da 90 bc 53 71 53 3d
       -0.04361407 0.046497986 -0.01768223 0.051621746
000050 8c 07 6e 3d 11 ec 8c bd 2a be 7b bd ec 11 6d bd
       0.058112666 -0.068809636 -0.06146065 -0.05787842
000060 a7 c1 a3 3d b5 d3 63 3d 15 2b a5 3c 29 12 fc 3c
       0.07995921 0.05562182 0.020162145 0.030770378
000070 30 d6 31 bd 7a 8d b6 bd 47 64 d5 3c 9f f8 3d 3d
       -0.043417156 -0.08913703 0.026048793 0.04637968
000080 22 8e ae 3d 93 d4 8e bc ce 3a a0 3d ac 2e 19 3d
       0.085232034 -0.017435348 0.07823716 0.037398025
000090 63 18 6a 3d 83 ea a3 bd 7c c8 25 3d e1 aa 50 bd
       0.057152163 -0.08003714 0.0404744 -0.050944213
0000a0 72 01 bf 3d 5f fa 8f bc 90 42 27 bd db c9 25 3c
       0.093264475 -0.01757544 -0.040834963 0.010118927
0000b0 7c 83 59 bd 43 cc 25 bd 2c 47 90 bc df b9 bc 3c
       -0.05310391 -0.040478002 -0.017612062 0.023037849
0000c0 55 a7 64 3d 65 32 1f bd 7f 3e 4e 3d 4f 46 7a bc
       0.055823643 -0.03886642 0.05035257 -0.015275552
0000d0 89 5e ba 3a ab 56 20 3d 4e 96 f2 bd a5 51 cb bd
       0.0014218848 0.039145153 -0.118450746 -0.09927682
0000e0 ce e2 30 bd e3 df a8 bd 38 27 f2 bc 2c df c9 3a
       -0.043185048 -0.08245828 -0.029559717 0.0015401593
0000f0 75 53 86 bd 7b f3 56 bc 0b 96 d3 bc b9 40 e0 3c
       -0.06558887 -0.013119574 -0.025828382 0.027374612
000100 52 87 0c bd 54 76 3d 3c ef 27 60 bc 0f bd 52 3c
       -0.03430874 0.011563856 -0.013681396 0.012862458
000110 3a 9f fb 3b 64 b2 ca bc 0f dd ef bc af c6 ec 3c
       0.0076788934 -0.024743266 -0.029280214 0.028903333
000120 2e 13 ac bc 28 44 59 3c 4d a4 a2 bb f8 b1 d3 3c
       -0.02100524 0.013260879 -0.004963434 0.025841698
000130 bf 43 e2 3b 6d ad 82 3d 4a bc 3e 3c 48 20 85 bd
       0.0069050486 0.063807346 0.011641571 -0.06500298
000140 a9 52 85 3d b6 c2 fe bb c6 b6 78 3b 1b 58 c8 bc
       0.06509907 -0.007774676 0.0037950738 -0.024456074
000150 e3 1e e3 bc 8d 8f 31 bd dc e4 91 3d 7c 18 9f 3d
       -0.027724689 -0.04334979 0.071237296 0.07768342
000160 bd 52 46 3c 99 10 ba 3d d1 81 ea bb bb 7a 58 3d
       0.012104687 0.09085197 -0.0071565886 0.05285142
000170 1a 7c 8e 3d c6 c3 3b 3d 2e 01 7b bd 2e 32 24 3d
       0.06957264 0.045841 -0.061280422 0.040086918
000180 ac d1 39 bd d4 51 2e bd 87 c8 21 bc 22 b2 ea bd
       -0.045365974 -0.042558506 -0.00987447 -0.114597574
000190 59 1c a9 bd 29 55 28 bd a1 09 0a 3d 5c 5e 84 3d
       -0.0825736 -0.04109684 0.03370059 0.0646331
0001a0 37 a1 46 bd c7 32 61 bd 0f c2 ce 3c 0c 51 73 bd
       -0.04849359 -0.054980066 0.025239019 -0.059403464
0001b0 70 10 14 3d 91 0d 65 3c 2e e2 4c bd bf 51 8d bd
       0.03614849 0.013980285 -0.05002039 -0.069003575
0001c0 10 10 ce bc 11 55 4d bc 54 85 c2 3d 52 ba ee bc
       -0.025154144 -0.012532488 0.094980866 -0.029141579
0001d0 06 a2 5b bd 42 b4 d1 3d a6 3d 19 3d 1c d5 af bc
       -0.053621314 0.102394596 0.03741231 -0.021463923
0001e0 f7 cc 1c bd 26 99 50 bd 0b 1c 87 3d 06 20 01 3c
       -0.038281407 -0.050927304 0.06597146 0.00788117
0001f0 1b 78 a9 3c d9 8f a1 3d 77 35 8d 3d 4f 52 20 3d
       0.020687154 0.07888765 0.06894963 0.039140996
000200 52 18 2e 3a f3 bb 92 3d 67 0e b1 bd e5 eb cb 3c
       0.0006641197 0.07164755 -0.08645325 0.024892757
000210 40 9d 64 3c 8b e0 d8 3c e5 f4 c4 3b 4e 94 01 be
       0.013953507 0.026474258 0.006010639 -0.1265423
000220 a8 65 5c bd 0a 9f f1 3c d1 c8 a9 bd 71 e0 38 bd
       -0.053807884 0.029494781 -0.08290256 -0.04513592
000230 cc fa 1e bc 95 99 84 bd 3d 9b 8d 3d 58 f3 96 3d
       -0.009703349 -0.06474606 0.06914375 0.07370633
000240 80 36 7f bd 47 08 a2 3d 8e 5f 8a bc f8 5b 5e bd
       -0.062307835 0.07911735 -0.016891267 -0.054286927
000250 49 d8 dc bb d3 c9 2c bc fd f0 82 bd 64 fe ba bc
       -0.0067396504 -0.0105461655 -0.06393621 -0.022826381
000260 6e c4 00 3d 53 0d da 3d 0e 31 6c 3d f9 17 89 3d
       0.03143733 0.10647073 0.05766397 0.066940255
000270 57 ca f4 3d 0f 68 23 bd 7e 9f 02 bd 6b 16 d6 bc
       0.11952656 -0.03989416 -0.031890385 -0.026133737
000280 62 83 c9 bc c0 7a 3f be c8 18 fa 3d 5e f0 31 3d
       -0.024598781 -0.18699169 0.12211758 0.043442123
000290 57 d2 27 3d b8 2e 86 3d f5 ae 2e bd 78 bb 6e 3d
       0.04097208 0.0655188 -0.04264732 0.058284253
0002a0 a2 9d 9b 3d 3b ab 2a 3d 97 e4 46 bd f7 dd d5 bc
       0.075984254 0.041667204 -0.048557844 -0.026106818
0002b0 85 ef 52 3d 1d f3 3c 3d 0c b8 05 3d c0 94 8b 3c
       0.051497955 0.04613029 0.032646224 0.017038703
0002c0 f5 5b c4 3d c0 61 92 bb 28 90 c3 3d 1a 70 38 3e
       0.09587852 -0.004467219 0.0954898 0.18011513
0002d0 24 69 52 bd b6 34 96 bd cb 66 86 3b 8f 3c e8 3b
       -0.0513698 -0.073342726 0.0041016093 0.0070872973
0002e0 a2 e4 06 3d dd 91 3a 3d 96 2a a1 3d e1 68 07 3e
       0.032932885 0.045549262 0.07869451 0.13223602
0002f0 d1 ab ba 3d 04 be 5e 3d 6b bc cb 3c 29 4c 29 bd
       0.09114803 0.05438043 0.024870118 -0.041332398
000300 58 35 ac 3c 69 20 f1 bc 61 3a 8e bd a3 bc 97 bc
       0.02102153 -0.0294344 -0.06944729 -0.018522566
000310 e8 81 8f bd a1 d5 34 bc e3 6f 6b bd 46 02 54 3d
       -0.070071995 -0.011037261 -0.05747975 0.05175998
000320 09 8d 79 3a 07 85 a8 bc 41 0d 27 3d ac 47 a1 3c
       0.0009519612 -0.020571245 0.040784124 0.019687496
000330 90 03 d0 bd 39 6b 26 bd ef 8d ae 3c 02 d7 54 3d
       -0.101569295 -0.0406296 0.021307914 0.05196286
000340 08 f0 0b 3d c0 1e da 3c e9 95 aa 3d aa 19 bc ba
       0.03416446 0.02662599 0.08329374 -0.001435091
000350 0d fb 87 bd 6d cb 3b bd 2a e9 cc bd 67 1c 1f be
       -0.06639681 -0.0458483 -0.1000541 -0.15538178
000360 2a 5d 87 3d f3 0f 42 3d 95 b3 87 3d 88 f9 91 bc
       0.066095665 0.04737849 0.066260494 -0.017819181
000370 87 fd c5 bc 50 d0 62 bd 72 7e 72 3c 8b de 26 bc
       -0.024168743 -0.055374444 0.014800655 -0.010184894
000380 13 7f c0 bd 9e 9f 9d 3d 5b ff bc 3c 24 d7 0f 3d
       -0.093992375 0.0769646 0.023070982 0.035117283
000390 02 81 8e 3c 97 05 7e bd 93 68 10 3c cd fc 13 3d
       0.0173955 -0.06201705 0.008813995 0.03612976
0003a0 9d 16 5c bd 51 40 ab bc 0f ae b5 3d aa ef 65 3c
       -0.053732503 -0.020904692 0.0887109 0.014034191
0003b0 a2 b3 22 bc 34 ba d5 3c 60 72 9e bd ac 9d 07 3d
       -0.009930523 0.026089765 -0.07736659 0.033109352
0003c0 af 56 4a 3d b5 d3 89 3d da d1 20 3c 30 57 df bd
       0.049399074 0.06729833 0.0098156575 -0.109053016
0003d0 ea b2 6b bc e6 a8 0d 3d d1 8f dd bd 83 f8 3b 3d
       -0.014385918 0.034584902 -0.108184464 0.045891296
0003e0 f3 11 cd 3b 2f 97 eb bd d9 8d c1 3c 8a ed fc bc
       0.006258243 -0.11503445 0.023627209 -0.030874986
0003f0 a4 33 9a 3d 39 58 14 bd e8 d8 71 bd 13 d6 1d 3e
       0.07529381 -0.03621695 -0.05904475 0.15413694

conv31.bias f4 [16]
000000 cf f1 77 3e 4a 16 5b be 74 2e 5f 3e bb 44 9f 3e
       0.24213336 -0.21395221 0.21795064 0.31107125
000010 66 7d 9d 3e 0a 80 7d 3e e0 61 a6 3e f3 a3 b2 3e
       0.30759734 0.24755874 0.32496548 0.34890708
000020 4a 5b ec 3d ab 01 ff be 18 f2 86 3e cf 0f 3e be
       0.115408495 -0.4980596 0.26356578 -0.18560718
000030 84 80 dd 3e d4 2d 6a 3e 48 d5 8e 3e f2 24 0a 3e
       0.43262112 0.22869045 0.27897096 0.13490656

up2.weight f4 [16, 8, 2, 2]
000000 8c 74 20 be 07 9a 2c 3d a4 f6 a2 bb 34 e1 9a bd
       -0.15669459 0.04213908 -0.0049732495 -0.07562485
000010 92 9c 0b 3d 21 5b 71 3d 5b 47 35 be a3 98 2e be
       0.034084864 0.058924798 -0.17703001 -0.17050414
000020 de a1 e1 3d 58 51 73 bd 32 93 65 3c ba 09 a5 bc
       0.11017202 -0.059403747 0.014012145 -0.02014624
000030 f6 12 ba 3c da 23 05 be b6 7a 4b bc 4c 8d bb bd
       0.02271412 -0.13001958 -0.012419393 -0.091578096
000040 e6 f0 a1 bd 02 c4 8e bd 44 21 02 3d ee 01 05 3e
       -0.07907276 -0.06970979 0.031770006 0.12989017
000050 63 62 cf 3b b3 b3 05 bd 8a 8c 1c 3e 6d c9 0e 3e
       0.0063288673 -0.032642078 0.15287986 0.13944025
000060 ad b0 28 bb 50 b6 1a be 2a 2d 69 3d 2a 44 42 3d
       -0.0025740073 -0.15108609 0.056927837 0.047428288
000070 3b 23 28 be 09 11 0d be 40 15 fb 3c bd 14 29 3e
       -0.1641969 -0.1377603 0.030649781 0.16511817
000080 23 aa af bd ee bc 8b bb 92 85 89 ba 14 c0 8d be
       -0.08577373 -0.0042644655 -0.0010492078 -0.27685606
000090 80 c7 da be 1a c5 42 3d 69 4e 41 3e 1c 37 8c be
       -0.4273033 0.047551252 0.18877567 -0.27385795
0000a0 a3 a5 35 be 63 19 a2 be 32 cb fb bd 0b a1 1c be
       -0.17738967 -0.31659994 -0.12294616 -0.15295808
0000b0 12 c9 be 3d 74 3a a0 bd 2f 8d e2 3d 2a 41 af 3d
       0.09315695 -0.07823649 0.11062085 0.08557351
0000c0 0d 4f a0 be fe b8 92 bd 91 04 ad bc 90 5d 53 bd
       -0.3131031 -0.07164191 -0.021120341 -0.0516029
0000d0 bc 64 25 3e 8b c5 93 be 67 07 e8 3b ad f2 04 3e
       0.16151708 -0.2886165 0.0070809606 0.12983198
0000e0 d2 07 0d 3e 96 fc 82 bc 7e b7 9d 3e 1e c3 ff ba
       0.13772514 -0.015989583 0.30804056 -0.0019513106
0000f0 c4 bd 17 bf c5 ea 93 3e ee c2 87 3d ed 6e c0 3d
       -0.59273934 0.28890052 0.06628977 0.093961574
000100 bf 4f 23 be 58 e4 28 3e c3 8e 1e 3e 58 cf 0f be
       -0.1594839 0.16493356 0.15484147 -0.14043939
000110 41 22 66 be d0 ff c6 bd 75 54 0b be d8 7f 99 3c
       -0.22474004 -0.09716761 -0.13606437 0.018737718
000120 ea 68 c0 3d 8e 8f 15 3d 94 55 f6 3d 90 27 09 3d
       0.09395011 0.036513858 0.120280415 0.033484995
000130 e4 63 86 bd 8f ef 3a be 91 da 29 3d 4f 5d 47 be
       -0.065620214 -0.18255447 0.041468207 -0.19469188
000140 48 b0 e5 3b cc 32 33 3d 51 32 d0 bd 10 72 8c 3d
       0.0070095398 0.043749616 -0.10165847 0.06857693
000150 71 da 24 3d 3a db be 3d a2 68 bf 3d 4e 1e 15 be
       0.040247384 0.09319158 0.09346129 -0.14562342
000160 fe 48 f2 bd 07 ef 8d bd 55 3e f0 bd 45 6f 30 3d
       -0.118303284 -0.069303565 -0.11730639 0.043074865
000170 73 3c 03 be 6c 60 f1 bd 4e 89 76 3d d2 ff cb 3d
       -0.12816028 -0.11785969 0.060189538 0.09960903
000180 03 81 43 3e 10 42 68 be a3 5a 36 bc 7b 4c b0 3e
       0.19092183 -0.22681451 -0.011130008 0.3443335
000190 f9 e9 92 3e 7f 76 e9 bd 4d 40 10 3d f1 39 f2 bd
       0.28694132 -0.113995545 0.035217572 -0.11827458
0001a0 f7 b4 69 3e cb dd d2 3c 22 23 be 3c 37 f9 07 3e
       0.22822939 0.025740525 0.023210112 0.13278662
0001b0 72 6a d7 bd bd ef 86 3d f6 03 20 be db 16 d3 3d
       -0.1051835 0.06588695 -0.15626511 0.10307094
0001c0 05 3b 8c 3e 5a 54 c9 3d 8e b7 49 3e 9e 13 97 bd
       0.27388778 0.09830542 0.19698927 -0.073767886
0001d0 5e 2c 30 be 5b c0 97 bc e6 ec 88 3d 38 86 12 be
       -0.17204425 -0.01852434 0.0668581 -0.14309013
0001e0 55 72 0e 3e b1 24 23 be 19 a4 16 be db c6 25 3d
       0.13910802 -0.15931965 -0.14711036 0.040472846
0001f0 21 23 c7 3c 35 78 1e be 41 01 cb 3d 83 ae fa 3d
       0.024308743 -0.15475543 0.099123485 0.12240317
000200 2b ed 78 3d 46 dc ec 3b 72 b1 c4 bd ac 25 5b be
       0.060773056 0.007228407 -0.096041575 -0.2140109
000210 e5 77 e8 3c 93 ed 82 be 34 c2 b7 3b e4 0d f1 3d
       0.028377483 -0.2557188 0.0056078676 0.117702276
000220 53 87 25 3e 94 d6 68 bd ec 74 9a bd 23 e0 cc bd
       0.16164903 -0.056845263 -0.07541832 -0.10003688
000230 13 a9 d9 3d 41 07 62 be 99 2f 40 be 12 e1 29 be
       0.106279515 -0.2207308 -0.18768157 -0.16589764
000240 ca 80 23 3e 43 30 1a 3e 91 3e ce 3d 44 48 37 3e
       0.15967098 0.15057473 0.10070527 0.17898661
000250 b1 f6 cb bd 91 ef 21 be 63 f5 16 be b6 58 c6 3c
       -0.09959162 -0.15814044 -0.14742045 0.024212223
000260 46 2f af 3d 42 ee 0f bb 06 87 ee bd 10 37 01 3d
       0.085539386 -0.002196208 -0.116468474 0.031546652
000270 89 a1 ee bd 05 d5 f2 3c 47 98 fb 3b be 84 96 3d
       -0.11651904 0.029642591 0.007678065 0.07349537
000280 28 43 b2 bc 72 8a d8 3d bd 17 ad bd a3 ef 4e 3e
       -0.021760538 0.10573281 -0.08451793 0.20208602
000290 21 87 ad 3d c6 9a 64 bd 01 af 28 3d 7a 05 ee 3d
       0.084730394 -0.055811666 0.04118252 0.11622138
0002a0 fa e6 30 3e c5 3a 41 3e eb 25 56 3e 96 48 86 bd
       0.1727561 0.18870075 0.20912902 -0.065568134
0002b0 ea 5f 2b be ae 40 fa 3c 61 22 b1 bc cb f3 62 bd
       -0.16735807 0.03054842 -0.021622838 -0.05540828
0002c0 ad 3d 8b bd cf 8d ff 3d 36 7e 2b 3e 13 0d 1b 3d
       -0.06798873 0.1247822 0.16747364 0.037854265
0002d0 30 45 23 bd fc b9 23 3d a5 8f 47 be 6d 8d ad bd
       -0.039860904 0.03997229 -0.1948839 -0.084742405
0002e0 7f d2 58 3c 47 52 2b be 01 53 ed 3d 86 26 47 3e
       0.01323378 -0.16730605 0.11588097 0.1944829
0002f0 53 de f4 3d 10 db 18 3e 6f bb a3 bd 6f c1 d2 3d
       0.119564675 0.14927316 -0.079947345 0.10290801
000300 8f 4f 7c 3d e8 52 0e be cc 25 2f 3d 65 f8 00 3e
       0.06159931 -0.13898814 0.042760655 0.12594755
000310 ad de 6f bd 31 7a 87 bc 3f f3 b9 3c cd 8b 0b 3e
       -0.05856197 -0.016537758 0.022698997 0.13627549
000320 c1 9a 22 3d b8 5e d0 3d 68 a6 83 3d ae 5c 16 3d
       0.039698366 0.10174316 0.06428224 0.03670948
000330 8f 13 19 be 25 de 96 bd 3c e0 26 be d5 68 2b be
       -0.14948867 -0.073665895 -0.16296476 -0.16739209
000340 8f 7f eb bd 5c 8b 25 3e ba d8 cf bd ac bc 02 3d
       -0.11498939 0.16166443 -0.10148759 0.031918213
000350 4c f6 36 bd 43 ff e4 3d 42 5a 7b 3d 14 0d 3d be
       -0.04466848 0.111815 0.061365373 -0.1846202
000360 b6 b8 63 3e 94 03 7b be df a7 00 3c 5d d0 26 3e
       0.2223843 -0.24513084 0.007852524 0.16290422
000370 05 d1 42 3e ab 7e a1 3c 48 ba 8b bd f3 78 f8 3d
       0.19025047 0.01971372 -0.0682264 0.12132444
000380 d5 f4 81 3e 04 c1 f2 bd ba 80 33 bd b7 f6 a1 bd
       0.25382105 -0.11853221 -0.043823935 -0.07908385
000390 34 8b 1e 3d 97 ff 06 3f 34 a5 85 3e 9f 5b 83 3c
       0.038706973 0.5273375 0.26102602 0.0160349
0003a0 12 40 cb be e0 9c 40 bf c0 1c c1 be c1 54 8d be
       -0.3969732 -0.7523937 -0.37717247 -0.27603725
0003b0 88 d8 5c 3e d7 ff e3 3d 4b c2 27 3e a0 e2 a3 3b
       0.21566975 0.11132782 0.1638271 0.005001381
0003c0 6f 24 b3 be 08 0f 9c be 4e 51 ec bd 3d 68 4d be
       -0.34988734 -0.30480218 -0.11538945 -0.20059295
0003d0 07 e7 50 3e 89 5a b3 3e f1 84 c8 3e b0 0d 06 3d
       0.2040063 0.3503001 0.39163926 0.032727897
0003e0 44 01 47 be c5 f0 c2 3d d6 21 ef 3d 53 b5 a0 be
       -0.19434077 0.095185794 0.116763756 -0.3138834
0003f0 65 34 80 bc fa 23 8c be 31 40 0a be 1d 78 d2 bd
       -0.015649984 -0.27371198 -0.1350105 -0.10276816

up2.bias f4 [8]
000000 18 c6 ce be 1a 48 f2 3e fc 2e 00 bb d9 67 93 bd
       -0.4038551 0.47320634 -0.0019559255 -0.07197542
000010 0a 1c b0 3e 5f 1d 5a be 02 45 4e be 8c 5d 00 bf
       0.34396392 -0.21300267 -0.20143512 -0.5014274

conv22.weight f4 [8, 8, 3, 3]
000000 91 99 34 be 97 5f 21 3d 9f a5 31 3d 52 6b 12 be
       -0.17636706 0.039397802 0.04337084 -0.14298752
000010 c8 42 75 bd 29 48 a8 bd c8 67 c2 3d b6 e4 9f 3d
       -0.05987814 -0.082168885 0.09492451 0.07807295
000020 14 ca a4 3d f0 8d 10 3e a5 51 58 3c dd 5a 24 3e
       0.08046356 0.14116645 0.013203059 0.16050287
000030 47 79 be bd 47 72 bf 3d 4b 22 8e bc f5 ec bd bc
       -0.093004756 0.093479685 -0.017350337 -0.023184279
000040 17 a5 d6 bd 84 ba 09 3e d3 c7 e9 3c 2d 2d eb bd
       -0.10480707 0.13450056 0.028537666 -0.11483226
000050 8b 46 17 3c cb bb 62 3c de e8 2f bd fa 5e af 3d
       0.009233127 0.013838719 -0.04294669 0.08563037
000060 84 26 be 3b a8 63 10 3d 70 e1 23 3c cf 23 0e be
       0.0058029313 0.03525129 0.010002479 -0.13880847
000070 1d c8 8b bc 67 da c5 3d 19 ec 90 3d bf ed 38 3c
       -0.017063195 0.096607976 0.07076282 0.011287152
000080 45 4b b6 3d 04 d7 13 be 2e 19 ef 3c 34 60 8f 3c
       0.08901075 -0.1443749 0.029186811 0.017501928
000090 92 96 c1 bd 09 e3 96 bd c8 28 72 3d dc 2e a8 3d
       -0.09452547 -0.07367522 0.059120923 0.08212063
0000a0 c7 44 6a bd ca 89 5b bd 3a 35 2e 3e e7 37 bd 3d
       -0.057194497 -0.053598203 0.17012492 0.09239178
0000b0 d5 e0 68 3d ca bc e5 bd ad 57 ad 3d 68 c0 e4 bd
       0.05685504 -0.11217649 0.084639885 -0.11169511
0000c0 07 54 5f 3d 98 39 4d bd f4 b0 52 bc fd 94 b9 3b
       0.054523494 -0.050103754 -0.012859572 0.0056635127
0000d0 d7 24 a4 bc 72 d7 b0 bd 37 09 9f 3d da 2c 09 be
       -0.020037098 -0.08634843 0.077654295 -0.13396016
0000e0 3c aa c3 3c a8 19 1b be 7f 45 60 bd c8 52 08 bc
       0.023884885 -0.15146506 -0.054753777 -0.008320518
0000f0 a7 76 85 3d c2 26 8e be 35 fb fc 3d 31 ab 88 bd
       0.06516772 -0.27763945 0.123526014 -0.06673277
000100 3a d5 b0 3c d7 d5 97 bd 85 70 bf 3c 79 cd e8 3b
       0.02158605 -0.074138336 0.023369083 0.0071045724
000110 6c 3c 97 bd 59 42 b6 3d c3 c2 94 bd c2 9d 3f bd
       -0.073845714 0.088993736 -0.0726371 -0.04678131
000120 f6 45 c6 3d 80 99 e9 3d 9a be 45 3c 1d 78 11 3e
       0.09681313 0.11406231 0.012069369 0.14205976
000130 ae 2b 73 3d 49 fa 04 bd 7f fb 91 bd 84 c3 b1 3d
       0.059367828 -0.032465253 -0.07128047 0.0867987
000140 34 d4 4a bd 3a e6 ad 3d a5 85 09 be 92 a6 b1 3b
       -0.04951878 0.08491178 -0.13429888 0.005421468
000150 e8 f9 e4 bd f8 71 74 3d 43 f8 9a 3d 1f fc 72 3e
       -0.11180478 0.059679 0.075668834 0.23728989
000160 aa 04 16 3c b1 55 24 bd a7 9e 1b bd f9 05 68 bd
       0.009156385 -0.040120784 -0.0379931 -0.05664632
000170 6b 1f 08 3e 14 1d 8a bd 7f a4 6c 3d b8 36 96 3d
       0.13293235 -0.067438275 0.057774063 0.073346555
000180 47 aa c7 bc ba 76 07 be d8 88 a8 bd 0c 64 1e bd
       -0.024373187 -0.13228884 -0.08229226 -0.03866963
000190 e4 0f 8b 3d ee 52 b7 bc 3c b6 f4 bb 06 17 c8 3d
       0.0679014 -0.022378411 -0.007468013 0.09770016
0001a0 4c d9 ad 3c 51 e5 99 3d af 23 c8 bc ea a4 cd 3d
       0.02122178 0.07514442 -0.024431078 0.100412205
0001b0 20 12 9e 3d 33 d0 b3 bc fb 85 22 3d 68 0f 76 bd
       0.07718301 -0.021949863 0.039678555 -0.060073286
0001c0 62 a7 29 3d 31 ad 35 3d 15 ad c9 bd 3a 1f 91 bd
       0.041419394 0.04435462 -0.09847466 -0.07086034
0001d0 ed 21 90 3d 65 1c 08 3c 11 ae ce 3c 95 17 6f 3d
       0.07037721 0.008307551 0.025229486 0.0583721
0001e0 91 cb 1b bd 66 38 e7 3d a2 1b d3 3c ac d7 0c bd
       -0.038035933 0.11290054 0.025770012 -0.03438537
0001f0 d4 30 97 3d db 5b 8a bd 2a ab 45 3c c1 ba 7e 3c
       0.0738236 -0.06755801 0.0120647345 0.015547455
000200 0c 44 80 bc 2a 4e 28 3d 01 04 66 bd b6 16 5a bb
       -0.015657447 0.041090168 -0.056156162 -0.0033277697
000210 e2 a0 20 bd 53 31 be 3d ab 35 52 3d 5f 7d 4a bd
       -0.03921593 0.092867516 0.051320713 -0.04943597
000220 51 36 2f 3d 23 f3 1a 3d f3 7a 16 3e cc 09 ec 3d
       0.04277641 0.03782953 0.14695339 0.11525306
000230 40 f4 23 bd 5a f2 d2 3d 9a 50 33 bd e8 16 ea bc
       -0.040027857 0.10300131 -0.04377804 -0.028575376
000240 9a b9 fd 3c 49 6f 7f 3d fd fe ff 3c 60 3a 19 be
       0.03097229 0.06236199 0.031249518 -0.14963675
000250 af 16 2e bd a8 c1 9d 3d 24 06 0a bd af cb bd bd
       -0.0425021 0.077029526 -0.033697262 -0.09267365
000260 4c 27 b1 bd b7 a0 d4 bd 1b 17 86 bd 54 95 ef 3b
       -0.086500734 -0.103822164 -0.06547376 0.0073115025
000270 47 39 9f 3d 69 20 a8 3d 93 2b d8 3d 92 fa ef bd
       0.07774597 0.08209307 0.10555186 -0.11717714
000280 70 8f 9a 3d 40 4f 00 3d 77 bd f5 bd 28 13 a0 3d
       0.0754689 0.03132558 -0.11999028 0.07816154
000290 7b c2 d9 bd 2f b2 03 3e 17 e8 8f bd 29 6b 01 3d
       -0.10632797 0.1286094 -0.070266895 0.031596337
0002a0 4a ef df 3d 78 66 ae 3d 16 b2 14 3d 50 bc 1f be
       0.10934313 0.08515638 0.03630265 -0.1559918
0002b0 67 9b e7 3a 01 b4 0c 3d 90 fd 03 be e5 b4 df bd
       0.0017670215 0.034351353 -0.12889695 -0.10923175
0002c0 a8 08 01 be 51 00 06 be 4e b6 81 bd c5 0e 99 bc
       -0.12600958 -0.13086058 -0.063336 -0.0186838
0002d0 27 85 41 3d f1 82 bc bc 70 b7 c4 3d 9e 69 6c 3d
       0.047246125 -0.023011656 0.096053004 0.057717912
0002e0 97 0c 74 bd 70 a1 d2 bb c4 48 ea 39 9c 15 94 bc
       -0.05958232 -0.0064279363 0.00044686173 -0.01807671
0002f0 fb 9f a9 bd 64 7a 1d 3d 03 82 a2 bd f6 ff 35 3d
       -0.08282467 0.0384468 -0.07934954 0.044433556
000300 82 3a 69 3d ae ec b0 bd 5a 8f a7 bd 1a e3 b9 bd
       0.056940563 -0.08638893 -0.08181639 -0.09076519
000310 cd db 0c 3c a2 48 e0 3c 22 49 4b be b9 40 93 3d
       0.008597326 0.027378384 -0.19852117 0.07190079
000320 92 5d 1e bc db 62 a4 bd 04 2d bd bd 03 20 2f bd
       -0.009665864 -0.08026668 -0.09237102 -0.042755138
000330 3a 1f 91 be 56 35 99 3d 72 b5 d6 bd be e6 ce bd
       -0.28344136 0.07480876 -0.10483827 -0.10102604
000340 2c 77 a7 3d 73 79 ff bd 5c d9 eb bb 8b ea 34 3c
       0.08177027 -0.124743365 -0.007197542 0.0110422475
000350 59 c8 ef 3d a9 45 fb 3d 77 63 82 bc af f0 35 3c
       0.11708135 0.12269146 -0.01591657 0.011104747
000360 38 e9 bc bd e2 8e a7 bd 73 bb 41 ba a6 ca 29 bd
       -0.092241704 -0.081815496 -0.0007390298 -0.041453026
000370 57 21 bc bd 16 88 11 bd 27 4e 92 3d c9 ab 87 3d
       -0.091860466 -0.035530172 0.071438126 0.06624562
000380 c6 df 46 bc bf 0b b6 3d 27 79 3d bd 32 aa a7 bc
       -0.012138313 0.08888959 -0.046258118 -0.020466898
000390 31 60 cb 3d 78 e5 9e 3c 95 02 05 3e 0d 2a 42 be
       0.099304564 0.019396529 0.12989266 -0.18961354
0003a0 74 41 24 3e e9 1e 03 be 98 5b 1c be 28 1b f7 3c
       0.16040593 -0.1280476 -0.15269315 0.030164316
0003b0 b4 b7 1d be 3e 9b 2f bd d2 94 d5 bd bf ad 02 3e
       -0.15402108 -0.04287266 -0.10428776 0.12761591
0003c0 4f 68 21 3e 1d 9e 65 3b f9 12 2d 3d ea cb 1a be
       0.15762447 0.003503687 0.04225442 -0.1511685
0003d0 95 d9 02 be 02 62 ce bd ca d4 30 be 17 9c 6b 3d
       -0.12778313 -0.10077287 -0.17268673 0.057521906
0003e0 cb 0b 94 bd 72 33 c7 bd d0 be 13 be 5b 54 04 3c
       -0.07228812 -0.09726609 -0.14428258 0.008076753
0003f0 57 f4 bf 3b 86 c4 95 bd 88 cb 8f 3d 8d 82 12 3e
       0.005857985 -0.073128745 0.070212424 0.14307614

conv22.bias f4 [8]
000000 08 5a af 3e 4c ef 8c be 91 f5 a9 3d 76 e6 85 3e
       0.34248376 -0.2752632 0.08298791 0.2615239
000010 37 85 60 be a6 33 c7 3c 23 46 80 3e 38 59 e3 3e
       -0.21925817 0.02431662 0.2505351 0.44404006

up1.weight f4 [8, 4, 2, 2]
000000 c4 26 6d 3e d3 28 82 3e fd 69 94 bd 7a 15 09 bd
       0.23159319 0.2542177 -0.07246778 -0.033467747
000010 d8 71 55 be 95 79 52 3e c5 0b 96 3e 3c 67 15 be
       -0.20844209 0.20554192 0.29305854 -0.14590162
000020 f7 1b 08 3e 18 2c 3a 3e aa bf 57 be 80 88 db 3d
       0.13291918 0.18180883 -0.21069208 0.10719395
000030 00 5e a3 3e 82 68 2e 3e bf 41 89 3e b4 46 33 3e
       0.31907654 0.17032054 0.26807973 0.1750744
000040 14 1f 70 be c4 73 00 be a3 ae ad bc 8f 9a 8e bc
       -0.23449355 -0.12544161 -0.021201437 -0.017407684
000050 81 2c 1b 3e 96 10 6d be 33 60 00 be 34 89 97 bd
       0.15153696 -0.23150858 -0.12536697 -0.07399216
000060 63 ec 10 bd 01 12 78 3e 5e 89 8a bd f3 76 34 bd
       -0.035381686 0.24225618 -0.06764482 -0.04405875
000070 e0 36 05 be 91 6e 40 be 36 20 2c be 30 92 ed 3d
       -0.13009214 -0.18792178 -0.16809162 0.11600149
000080 3b 41 ca bd 8a 14 74 3e 8a c1 49 bd 7e e9 3b 3e
       -0.09875723 0.2383596 -0.04925684 0.18350789
000090 ea c4 44 3e c2 ca 9d 3d 92 23 7f 3e 6d 0e 81 3e
       0.19215742 0.077046886 0.24915913 0.25206318
0000a0 fa dc e9 bc 94 ac 37 3e 9d 15 e2 bd a8 cf 9e 3e
       -0.028547753 0.17936927 -0.11039279 0.31017804
0000b0 f2 51 17 bd 5a 1b e2 3d d8 7d ed 3d de 61 0c 3d
       -0.036943384 0.11040373 0.115962684 0.03427302
0000c0 6d 29 8f 3e d7 03 8b 3d f8 7c c9 bd a6 2a a1 3e
       0.27961293 0.06787842 -0.09838289 0.3147785
0000d0 20 11 1a be a5 8c 81 3e 84 d1 c2 3e a6 3a 5f 3e
       -0.15045595 0.25302616 0.38050473 0.21799716
0000e0 8b 5a d7 bc b9 b6 85 3d d7 59 15 be 2d ea d6 bc
       -0.026288291 0.06528992 -0.14585052 -0.02623471
0000f0 32 44 17 3d 92 d0 c0 bd 3b 82 10 3e 48 45 3e 3e
       0.03693027 -0.09414782 0.14112179 0.18581116
000100 e8 10 e4 3b b5 de cc 3b 63 0c 65 3e cb 36 0f bd
       0.006960023 0.0062521347 0.22368006 -0.034964364
000110 62 dd 9f 3e d5 71 6a 3e d8 09 93 3d 0b c9 a0 be
       0.3122359 0.22894986 0.07179612 -0.31403384
000120 98 4b 84 3e 88 20 69 be 8a 22 bd 3e d7 ac 29 be
       0.25838923 -0.22766316 0.36940414 -0.1656984
000130 47 f4 44 3c 97 71 76 3e 92 5d 64 bd 6b 98 1e 3e
       0.012021131 0.24066769 -0.055753298 0.1548783
000140 5e d7 e5 bd e9 ee ec bc f4 4a bd bc fd f2 77 3e
       -0.11222719 -0.028922515 -0.02310703 0.24213786
000150 bd 32 26 3e c2 ba 51 3e 00 8b 1a 3e f9 2b 7b 3e
       0.16230293 0.20481399 0.15092087 0.24528493
000160 79 f8 f5 bc 67 17 f7 bc 94 41 81 3c 0b 7d eb 3d
       -0.030025708 -0.030162526 0.01577834 0.114984594
000170 ed 48 1d bd 90 db 1d 3e 19 d1 96 3d 7f 8c 02 3e
       -0.038399626 0.15415788 0.07364101 0.12748908
000180 f0 d7 97 3e 85 5b f0 3d 28 49 47 3e 5d 11 03 bd
       0.29656935 0.11736206 0.194615 -0.03199898
000190 13 1a 5c be 7f 7d 41 3e 63 68 c0 3d bd 9e 6b 3e
       -0.21494322 0.18895529 0.0939491 0.23009773
0001a0 a6 a2 cb 3d 37 cb 16 3d 7b 49 4d be 7e 56 6e be
       0.09943132 0.036814895 -0.20047562 -0.23275182
0001b0 36 d2 af 3d f0 0e 68 3e 06 c7 9a 3c b8 be 8e bc
       0.085850164 0.22661948 0.01889373 -0.017424926
0001c0 dc d1 a8 3e f5 fd 4f be e1 28 bc bb 22 1a ab 3d
       0.3297261 -0.2031172 -0.005742178 0.08354594
0001d0 b3 57 da be f3 e8 b8 bd dc 54 36 3c b9 47 f8 3d
       -0.42645034 -0.090288065 0.0111286305 0.12123055
0001e0 1f 10 b4 3e 2d 7f 2b be 69 0a 8e be 26 a9 6f 3e
       0.3516855 -0.16747732 -0.27742317 0.23404369
0001f0 34 a7 a7 3c 6a 64 21 3e 24 34 ab 3e 81 94 3a be
       0.02046547 0.15760961 0.33438218 -0.18220712

up1.bias f4 [4]
000000 53 75 9d 3e 7d 16 4a 3d c4 72 40 bd d7 0e ee 3c
       0.30753574 0.049337853 -0.04698445 0.02905981

conv13.weight f4 [2, 4, 3, 3]
000000 c5 79 74 bc 41 31 09 be cf e5 8b 3a c6 57 22 3d
       -0.01492161 -0.13397695 0.0010673347 0.03963449
000010 4c 7a 47 3e 20 4f 85 bd 39 88 82 3e 31 7b ad bd
       0.19480246 -0.065092325 0.25494555 -0.084707625
000020 9f 45 17 3e 88 6b 7c 3b 8d dd 9d 3c f0 49 55 3d
       0.14772652 0.0038516242 0.019270683 0.052072465
000030 19 31 ca 3d ce 1f 19 3c ba 15 01 be d3 9e 65 be
       0.09872646 0.009345962 -0.12605944 -0.22423868
000040 0a 60 f7 bd d2 dd 86 be ff 6f 31 3e ba c2 e5 bd
       -0.12078865 -0.2634111 0.1732788 -0.11218782
000050 e6 a5 45 bd 90 bf eb bd 5f b9 04 3d 25 36 6b 3d
       -0.048253916 -0.11511147 0.032403346 0.057424683
000060 cd 2f 6e 3d dd 90 8f bc 26 ac 2d 3c f9 0b 01 3e
       0.058151055 -0.01752513 0.010600125 0.12602223
000070 fa 9c ff 3d d3 7a 3f be 95 f2 b6 3d b6 bf 2f be
       0.12481113 -0.18699197 0.089329876 -0.17162976
000080 51 1b 01 be fe 5d 3f 3e 1b 66 eb bd c9 39 df bd
       -0.12608077 0.18688199 -0.114940844 -0.108996935
000090 6d 7a e8 3d a3 e2 a0 3d 15 99 36 be 2a 76 fa 3b
       0.11351476 0.078557275 -0.17831834 0.007643481
0000a0 72 f0 5f 3c df 7b 01 3e 95 3e 4e 3e 2f 96 29 3e
       0.0136681665 0.1264491 0.2014106 0.16561197
0000b0 77 13 13 3e 97 be 6a bc c7 db 02 3e 62 06 fb ba
       0.14362894 -0.014327667 0.12779151 -0.0019151682
0000c0 74 94 5c 3d fa 6b 65 bd 75 42 8e 3d 40 b6 dd 3d
       0.053852513 -0.056011178 0.069462694 0.10825777
0000d0 44 e6 36 bc 8c b5 18 3e 3c a2 5d bc 41 9f a4 3c
       -0.011163298 0.14913005 -0.013527449 0.02009547
0000e0 af ef 16 3e c5 d2 d6 3d ea d2 9d bd 4d 84 9f bd
       0.1473987 0.1048942 -0.07706244 -0.07788906
0000f0 04 75 65 3d 90 5a 94 bd 49 0b fb 3a 2f df fb 3d
       0.056019798 -0.07243836 0.0019153144 0.12298428
000100 4a 70 11 3e ba 3f 82 bd 98 67 45 bd 7a 2c 18 3e
       0.14202991 -0.06359811 -0.048194498 0.14860716
000110 e1 22 6e 3c ab 05 78 3b 2a 61 bf 3c 13 79 2d 3e
       0.014534683 0.0037845175 0.023361761 0.16940717

conv13.bias f4 [2]
000000 41 3b ec 3e 0c e8 0f 3c
       0.46138957 0.008783352

conv14.weight f4 [2, 2, 3, 3]
000000 24 d7 7e be 13 b4 8f 3e 49 ef 56 3e 23 97 57 3e
       -0.24886757 0.28067073 0.20989718 0.21053748
000010 d0 a0 37 b9 44 88 c0 3e c4 47 06 3e 34 28 9e 3e
       -0.00017512147 0.37603962 0.13113314 0.30890048
000020 53 69 b4 bc 64 70 40 be 18 7f 85 be 8b 84 2a 3e
       -0.022022879 -0.18792874 -0.26073527 0.16652124
000030 2f 3d 8c 3e 83 23 52 be 0a 78 26 3e 1b 91 4e bd
       0.2739043 -0.20521359 0.16256729 -0.050431352
000040 05 0d 35 be c2 ad 17 3e 65 32 ab 3e d1 6e 3b 3e
       -0.17680748 0.14812377 0.33436885 0.18303992
000050 ab 45 fe 3d df af ab 3e d2 08 2d 3c 82 81 e5 3d
       0.12415632 0.33532616 0.010561185 0.11206342
000060 1b 68 55 3e 48 6d 19 3e 6a ef 8b 3e 15 5f 17 be
       0.20840494 0.14983094 0.27331096 -0.14782365
000070 d8 ea fb 3d 3c cd 24 bd 56 79 30 3e 98 d6 a5 3c
       0.12300652 -0.04023479 0.17233786 0.020243928
000080 ef 7d ff 3d e5 80 83 3e b8 7b 3a bd 8f a2 53 be
       0.12475192 0.25684276 -0.045528144 -0.2066748

conv14.bias f4 [2]
000000 0d f7 dc 3e 15 a0 f9 3c
       0.43157235 0.03047184

conv15.weight f4 [1, 2, 3, 3]
000000 fc c9 83 3d e8 98 51 3e 71 0c 98 3c 07 14 b8 3d
       0.0643501 0.20468485 0.01856062 0.08988195
000010 e2 56 6c 3e ca fc f0 3c 39 33 0f 3e b9 67 21 3e
       0.23080018 0.029417414 0.13984384 0.15762223
000020 70 d3 65 3e 7e ad 39 3e be 10 ef bd 2c 23 d9 3c
       0.22443938 0.18132588 -0.11673115 0.02650603
000030 60 04 1b 3e fe ab 3c 3e 75 c6 9b 3d 7c 71 20 3e
       0.15138388 0.18424985 0.07606212 0.15668291
000040 1e 12 29 bb b3 97 08 3d
       -0.0025798152 0.033347797
