output/Mess6060_i/train/model/stn_230.pt (torch_old, 658934 bytes, 14 tensors)

conv1.weight f4 [8, 2, 5, 5]
00000000: 7e46 d93d 6b50 cd3d 4bb3 b5bd 039c 07be
00000010: ba89 c73d fa3c 0abe 19c2 a53d 63e1 17be
00000020: 53bc a9bd d2e7 92bd 75a0 fd3d 02fd 06bd
00000030: 4d23 e63d 5550 fc3c 1b10 013e 28b7 ae3d
00000040: 7296 c33d 86d9 e93d 4114 50bd 77ed 47bd
00000050: 4212 193d 4f67 ec3d 1937 7abd 9e3f f6bd
00000060: 6b3a f6bd 3305 bfbd f3e1 d0bb 501a 3abd
00000070: 6c57 89bd 3f6b c5bd eb71 3c3c 0c14 12be
00000080: 80e6 e33d b69a 4cbd 8ec2 02bb f8b1 be3c
00000090: 68ea a1bd 8dce b03d ecd2 ddbc c105 77bc
000000a0: 7d13 1fbe 6e1d 8cbb 81ce d43c c6e8 51bb
000000b0: 2029 1bbd 0b31 b33d b8a3 ba3d 14fe 9b3d
000000c0: f8f1 3dbd 7465 083b 7c5a e1bd a366 eabd
000000d0: d233 efbc cde4 5b3c 2db5 adbd 608d 04be
000000e0: 821b 613d 04d7 443d 0c38 c3bd ffbb be3d
000000f0: caa2 ecbd 46cb cb3d 2bb2 963d a3ac 41bd
00000100: ae5c 0b3e 4bf6 b0bd 5c89 8ebd 2b65 e83d
00000110: c179 0bbd 3ec4 59bd 2d61 903c 8d61 cfbc
00000120: 3e72 bc3d f7b0 f63d 3a90 8d3d 2226 1d3c
00000130: 2d97 803c d5ab 8abc 12ff e8ba 0ee0 77bc
00000140: 602b 9c3d 72f5 703d 2cd6 09bd f1cf 0a3d
00000150: 4995 2fbc e26e f53c f7dc c53d 7b78 edbd
00000160: 53f1 a93a d066 44bd ec85 20be c1de 1fbe
00000170: 0fe8 11bd 5661 ac3d 0555 dfbd d2e4 f63c
00000180: 1652 873d c91a f2bd 141d 413d 3d80 673c
00000190: fd60 2cbe df15 f5bc dff2 16be 0f0a f73d
000001a0: 1c11 953d 9aeb 903c c0b3 a93d b822 c13d
000001b0: 02e0 0d3e c355 863d ada5 0bbe af33 d93d
000001c0: e2b3 cc3c 3954 6ebd fa88 3dbd 28d7 c93d
000001d0: 7b8a d83b c930 b33d b05d de3b d1a5 093e
000001e0: 8557 0dbe 06cb e13b ef4e 813c 78c0 2abc
000001f0: 2608 003e c927 c2bc f758 05bd 6a72 8d3d
00000200: 90dc d0bc 4ea8 64bc 0843 28be bedd 1dbd
00000210: e896 bbbd 4c1c 8b3d 19b2 f13d f925 35be
00000220: 6768 f0bd 624c e23d 781c 99bd c619 f43d
00000230: 6f11 c33d 6aa8 90bd 185e 0fbe 4e8b 5f3d
00000240: 8561 623d 9b41 a23d 8cce 85bc 1c50 493d
00000250: 10af 0fbe 620f d63b 3a62 0c3d 3a21 b23d
00000260: f252 a5bd 9735 c4bc 76c5 bebd d34f bbbd
00000270: 2afc 763d 20f1 9e3c 72eb 533d 313a 2abc
00000280: ffad 823b 7a88 ddba 6d36 9f3d fa48 cfbd
00000290: 3f26 d93c 1cdf af3d 16e3 b43d baf0 84bd
000002a0: cd8b e03d 467d c7bd 9016 ab3d 0b6d fb3d
000002b0: 0e1c 193c 02ed 373d faa9 09be f8d2 8dbd
000002c0: 71e9 8ebd 322a 19be e65c 4ebd 6af1 983d
000002d0: 240b c8bc ce0a 023e 8594 12be 2e97 173d
000002e0: 089e cb3d 4ef0 033e 2d87 84bd 4faa 10be
000002f0: 61e4 8dbd 3a17 ab3d 5751 f53b 3487 023e
00000300: f892 e9bd 581a d4bd 9d8c 5a3d 1483 413d
00000310: ea4d c3bd e2ac fa3d a8c0 87bd 5bb3 08be
00000320: 189f 6a3d 66a0 80bd 7961 58bd a145 88bd
00000330: 0974 473d c022 af3d 7062 e73d 93bb 83bd
00000340: f8c6 99bc dd51 133e 1630 56bd 1541 05bd
00000350: fc34 2ebc 9b83 e1bd 760d babd 2c67 163e
00000360: 362d 3d3d 8d1b 363d b304 953d c0a8 cf3d
00000370: a8e9 ed3d f299 f93d b07d 9c3d 3da3 ff3d
00000380: 1732 e03d 7bcb 1abd 4f0f c3bb 1a6b c7bd
00000390: 0359 0abe 4497 cf3d 3a41 f4bd d453 d9bd
000003a0: e630 22be 6a4d 0abe 23f2 903a 80e1 633d
000003b0: 7902 0abe aa14 11bc 376c 03be 767d d639
000003c0: 5b33 9a3d 7b37 89bd eac0 a0bd 8d2b 963d
000003d0: 5273 e5bd e0d9 0abd f002 01be 8a23 b43d
000003e0: 607d 033d 1b63 8fbd 8c49 d23d 20cd 083e
000003f0: a516 633d 785b d6bd 1a38 16bd 989f ed3d
0.106091484 0.10025104 -0.08872088 -0.13243107 0.09743066 -0.13499823 0.08093662 -0.14832072
-0.08287873 -0.071731225 0.123841204 -0.03295613 0.11237202 0.030800024 0.126038 0.08531028
0.095501795 0.114184424 -0.050800566 -0.04881045 0.037370928 0.11543142 -0.0610877 -0.12023853
-0.12022861 -0.093271635 -0.0063745915 -0.04543525 -0.067061275 -0.09639596 0.01150177 -0.1426546
0.11127949 -0.04995223 -0.001995239 0.023278221 -0.079060376 0.086331464 -0.027078114 -0.015077055
-0.15534778 -0.004275969 0.025977375 -0.0032029613 -0.037881017 0.087495886 0.09113258 0.07616821
-0.046373338 0.0020812424 -0.11003587 -0.11445358 -0.029199515 0.01342125 -0.08481822 -0.12944555
0.054957874 0.048056617 -0.095321745 0.09313201 -0.11554487 0.09950881 0.073582016 -0.04728378
0.13609573 -0.08640727 -0.06959793 0.11347421 -0.03405166 -0.053165667 0.017624462 -0.02531507
0.092014775 0.12045472 0.06912275 0.009591611 0.015697086 -0.016927639 -0.0017776212 -0.015129102
0.076254606 0.058827825 -0.033651516 0.033889715 -0.010716745 0.0299601 0.09661286 -0.115952455
0.0012965597 -0.047949612 -0.15676087 -0.15612318 -0.0356217 0.08417003 -0.10904888 0.030138407
0.066074535 -0.11821515 0.04714687 0.0141296955 -0.16833873 -0.029917656 -0.14741085 0.120624654
0.07278654 0.017690469 0.08286238 0.0943045 0.13854983 0.065593265 -0.13637419 0.10605561
0.024988119 -0.05818579 -0.04627321 0.09855491 0.006608305 0.087495394 0.0067860708 0.1344216
-0.13802917 0.0068906574 0.015784709 -0.010421865 0.12503108 -0.023700612 -0.032555547 0.069065884
-0.025495797 -0.013956143 -0.1643182 -0.038541548 -0.091596425 0.067925066 0.118015476 -0.17690267
-0.11738663 0.11049725 -0.07476133 0.119189784 0.095248096 -0.070633724 -0.14000738 0.05457621
0.055268783 0.079226695 -0.01633384 0.049148664 -0.14031625 0.0065325955 0.034273364 0.08697744
-0.08072461 -0.023951335 -0.093150064 -0.09146085 0.060299076 0.019402087 0.05173821 -0.0103898505
0.003988027 -0.0016901635 0.07774053 -0.10121341 0.026507495 0.085874766 0.08832376 -0.064912274
0.10964165 -0.09740691 0.08353913 0.12276658 0.009345068 0.044903763 -0.13443747 -0.06925005
-0.06978119 -0.14957502 -0.050381564 0.07467921 -0.024419375 0.12699434 -0.14314468 0.03700941
0.099422514 0.12884638 -0.06471095 -0.14127468 -0.069283254 0.083540395 0.007486503 0.12746888
-0.11404985 -0.10356587 0.053356756 0.047244146 -0.09536345 0.12240006 -0.06628543 -0.13349669
0.05728063 -0.062805936 -0.052827332 -0.06653906 0.048694644 0.0855155 0.11298072 -0.06432261
-0.018771634 0.14386697 -0.052291952 -0.03253277 -0.01063275 -0.1101143 -0.09084599 0.14687794
0.046185695 0.04445987 0.07276287 0.101396084 0.11616832 0.12187566 0.076411605 0.12482307
0.10947054 -0.03779171 -0.0059527527 -0.09737225 -0.13510518 0.101362735 -0.119265035 -0.10611692
-0.15838966 -0.13506094 0.001105849 0.055634975 -0.13477506 -0.008855024 -0.1283425 0.00040910736
0.075293265 -0.06700035 -0.078492954 0.073325254 -0.11203636 -0.033899188 -0.12598777 0.08795841
0.03210199 -0.07001325 0.10267934 0.13359499 0.055441517 -0.10466665 -0.036674596 0.11602706

conv1.bias f4 [8]
00000000: ccc0 923d b92d b2bb 8de2 aebd b356 99bb
00000010: 6bc6 72bd c964 073e 969b ba3d 7e28 a1bd
0.07165679 -0.0054375795 -0.08539305 -0.004679525 -0.059271257 0.1322204 0.09111707 -0.078690514

conv2.weight f4 [16, 8, 5, 5]
00000000: 07e5 8fbd be95 8cbd 026b 63bc 77af 24bb
00000010: 3462 46bd 8f85 123d 0cbb ee3a bfb0 1bbd
00000020: 4a8c 90bd 9a22 593d c91f 833d dae9 e73a
00000030: 937c 18bd c4ce 2a3d 0507 1e3d 9531 8fbc
00000040: 622f 773d 8263 67bd 9cd7 49bc 02ed 633d
00000050: 52a4 52bd 4037 ecbc cc9f 13bd 1290 0fbd
00000060: 2baa 653d 8bbf 243d 6a31 8abd 73a5 3ebd
00000070: 8a8c 9dbb 4559 dfbc 5f67 2ebd 04f4 96bd
00000080: 4340 433d 47a6 0d3d 83a8 753c de79 a0bc
00000090: 0856 95bd 4bb3 1bbc ae28 ae3c 6a8a dbbc
000000a0: 44f4 563d a603 433c 79ce 13bc bda0 b23c
000000b0: be0b f53c 6c1e 64bd 0dac 853c a162 90bd
000000c0: fae4 b1bc 046b f7bc 2d9d 403d 3fa9 93bd
000000d0: e778 c63c 6555 7ebd 87b7 0a3d 74fb 393c
000000e0: 94d4 01bd 0c5e a43c feb0 8f3d 337e 413d
000000f0: c053 8fbd 8cc6 b5bc 8832 7f3d cc4d 493c
00000100: a07f 463c 2231 313a f8a2 e8bc cf3c a9bc
00000110: 17da 933b 76a9 613d 2529 b6bc 3ca4 abbc
00000120: 095f 2d3c 9723 e3bc 67d9 7a3d 4b62 373d
00000130: 2976 86bb b6d7 51bd 1dba 643c dfe8 603d
00000140: b244 3d3c 2229 a13c 6c3e 38bd 7ae8 9dbd
00000150: 5ce0 07bd caa7 4fbc 64fc 4a3d efe5 803b
00000160: b4f3 b6bc 8b84 d8bc 0222 f2bc aed8 58bd
00000170: 4adc 2dbd 22c7 ed3a a772 183d d029 383d
00000180: dbe3 413c 91c6 81bd 429f 553d ae0c 633d
00000190: 9337 ab3c 4a71 443d 4f60 e73d 4aa6 cc3c
000001a0: ac84 a93d acb3 383d 317d a03d aa4a 8e3d
000001b0: 97e4 f03d dc23 de3d cb41 dabc 5652 913d
000001c0: 9498 b13c e506 3f3b 6c07 5f3d 46aa 473b
000001d0: 9141 e9bc fe1c 1dbd f156 2ebc 3450 253d
000001e0: 207d 583d baca 553d 9e45 0a3d a709 b03d
000001f0: f74d 17bd 35e0 34bd 20d5 fa3c 65fc 7dbd
00000200: 22a1 913d 0038 7f3c a41f dfbc e71a 7d3d
00000210: 7353 0a3d 5526 803d f3af 6e3d bf80 79bc
00000220: 6341 7c3d 9487 013c 0307 e63b 6f88 dc3c
00000230: cdb8 7dbd e62d 46bd 6536 7b3d 5649 52bd
00000240: 26ed 103d edf5 0a3d 9f5c 87bd 01d6 89bc
00000250: cbe2 22bc 866c 393d db00 9ebc 0d64 833d
00000260: d1a0 6cbd cf75 ff3c 1706 283d 08bf c9bc
00000270: 0da3 b5bc a9ec 30bd a7de a53c 6058 d33c
00000280: a7cc b8bc 0e00 743d 12cc 13bc 6db8 25bc
00000290: 0e97 643d 71d3 623c ff64 203d 0f06 273d
000002a0: 9b00 44bd 8b05 28bb f36c 7d3d 1b07 38bd
000002b0: d36f 973b 26a9 3f3d 8d7d 433b 227c fc39
000002c0: 9a0e 2d3d b1e4 1cbd eea5 a53d cc3b a23d
000002d0: 73a0 d2bb 0632 30bc 8c68 943b b5c7 bb3d
000002e0: b619 a3bb 829e 033d cfbc 5ebd f5b2 113d
000002f0: 4fbf 723d 01b4 233d 2080 ad39 b245 3d3c
00000300: 1fdf 8a3d 8ee7 1b3d 61cf 05bc 4da6 68bd
00000310: 482c 553d 1ec4 dcbc dc01 2f3d 4552 7abc
00000320: bf9f 4a3c aad7 34bd d276 97bc 29df 3a3c
00000330: 045e 84bd c402 31bb 84e8 5f3d 624a 7a3d
00000340: 35cb 7c3d 65c5 5dbc c263 2f3c 33ef 44bd
00000350: effb 363d f7ed ac3c b941 8d3d 92a9 20bc
00000360: 253a 913d c3fb 293d 51ed 883d afad 803b
00000370: 8f2d 6fbd a22e 68bd 160f 89bd 65ed 293c
00000380: 58ee 5dbd e355 66bb 8492 543d 8523 a33d
00000390: b658 62bb 2602 773d 5ac8 953b b780 93bb
000003a0: c2d4 4dbb 09fd e3bc 5929 9d3c fcdb fe3b
000003b0: 2fbd d9bc 1c43 4b3d 4f97 e5bc fa10 4cbd
000003c0: 3500 063d 7507 de3a b092 13bd fa83 6cbd
000003d0: cc69 f3bc 58e8 3bbd 73d9 2d3d 391b 35bc
000003e0: 5c8d 003d 11bd bd3c 3629 c63b 4901 4ebc
000003f0: 47d9 27bd bd48 0d3c fe86 8cbd 3baa 03bd
-0.070261054 -0.068644986 -0.013880493 -0.0025129 -0.048433498 0.035771903 0.0018213703 -0.038010355
-0.07058008 0.053011514 0.06402547 0.0017693595 -0.03722818 0.041701093 0.038580913 -0.017479697
0.060347922 -0.056491382 -0.012319472 0.05564595 -0.05142624 -0.028834939 -0.036041066 -0.035049506
0.056070488 0.040221732 -0.06747706 -0.046544503 -0.0048080133 -0.027264247 -0.04257905 -0.07370761
0.047668707 0.034582403 0.01499379 -0.01958936 -0.072918 -0.009503196 0.021259632 -0.0267994
0.052479044 0.011902725 -0.009021395 0.021805162 0.029912826 -0.055693075 0.016317392 -0.07050062
-0.02171563 -0.030202396 0.047024895 -0.072100155 0.024227573 -0.062093157 0.03386643 0.011351455
-0.03169687 0.020064376 0.070161805 0.047239494 -0.06998396 -0.022189401 0.06230405 0.012286615
0.012115389 0.00067593355 -0.028398022 -0.020658879 0.0045120823 0.05509325 -0.022236416 -0.020952336
0.01058174 -0.027726931 0.061242487 0.044771474 -0.0041034413 -0.05123111 0.0139603885 0.054909583
0.011552023 0.019672934 -0.044981405 -0.07710357 -0.03317295 -0.012674281 0.049557105 0.00393366
-0.022333004 -0.026430389 -0.029557232 -0.052941017 -0.042446412 0.0018141011 0.037218716 0.04496175
0.01183411 -0.06336702 0.052153833 0.055432014 0.020900523 0.047959603 0.11297666 0.024981637
0.08277258 0.045093223 0.07836378 0.06947835 0.1176235 0.108466834 -0.0266427 0.070957825
0.0216792 0.0029148397 0.054450437 0.003046648 -0.028473647 -0.038357727 -0.010640846 0.04035969
0.052853703 0.05219529 0.0337578 0.08595591 -0.036939587 -0.044159133 0.030619204 -0.06200828
0.07110812 0.015577316 -0.027236767 0.061793234 0.03377099 0.06257311 0.058273267 -0.015228449
0.061585795 0.0079058595 0.007019879 0.026920525 -0.061943818 -0.048383616 0.06133117 -0.05133947
0.035382412 0.03392594 -0.06609463 -0.016825678 -0.009941767 0.04526951 -0.019287517 0.064155675
-0.057770554 0.031184105 0.041021433 -0.024627224 -0.022172475 -0.043194447 0.02024777 0.025798976
-0.022558523 0.059570365 -0.009020822 -0.010114771 0.05580812 0.013844357 0.039158817 0.040777262
-0.04785214 -0.002563807 0.06187148 -0.04492865 0.004621485 0.046792172 0.0029829473 0.00048157672
0.042250253 -0.038304035 0.08088289 0.079215616 -0.0064278184 -0.010754114 0.0045290645 0.091689505
-0.00497743 0.032133587 -0.05437928 0.035571057 0.059264477 0.039966587 0.00033092592 0.011552261
0.06780838 0.038062625 -0.008167119 -0.05679922 0.052044183 -0.026948985 0.042726383 -0.015278404
0.012367188 -0.044150986 -0.018489275 0.011405745 -0.064632446 -0.0027009705 0.054665104 0.061106093
0.06171723 -0.013535832 0.010704936 -0.04807968 0.044673856 0.021109564 0.06897301 -0.009806054
0.07091168 0.041499864 0.066858895 0.0039269547 -0.058393057 -0.056685098 -0.066923305 0.010371541
-0.05418238 -0.0035146407 0.05189754 0.07965759 -0.003453774 0.060304783 0.004571003 -0.004501428
-0.003140733 -0.027830618 0.019184755 0.007777689 -0.026579468 0.049624547 -0.028026251 -0.049820878
0.03271504 0.0016939478 -0.036028564 -0.05774305 -0.029713534 -0.045875877 0.042443704 -0.011053854
0.03138481 0.023161443 0.006047393 -0.012573549 -0.040978696 0.008623299 -0.06861685 -0.032144766

conv2.bias f4 [16]
00000000: 5647 d5bc f75a 733c eefe b83d bb26 083e
00000010: d909 cf3c c108 30bd 9beb 81bd f2c3 49bd
00000020: 8ee4 443d 6468 cabc 74f1 133d fd22 2cbd
00000030: 2d0d 2fbd 58d0 ad3b 3cb8 3bbb c482 ca3d
-0.026034992 0.014853231 0.09032999 0.13296025 0.02527325 -0.0429771 -0.06343766 -0.049259134
0.04806953 -0.02470798 0.03611894 -0.042025555 -0.042737175 0.0053043775 -0.0028643748 0.09888223

conv3.weight f4 [32, 16, 5, 5]
00000000: 5af4 00bb 4db6 52bd 1da0 b7bc 6999 bbbb
00000010: b880 6cbd 9c90 e33c c1e3 02bd e120 1c3d
00000020: c488 483d bfb1 26bb 754e 98bc 4649 353d
00000030: 55b5 a7bc 871c 443c 9f6b be3c fef9 2a3d
00000040: 7188 a0bb 5ec2 75bb e2bb 9e39 9a95 47bd
00000050: ec29 49bc 3a0c 8abd 0da2 15bc 06f4 7bbc
00000060: 362d 073d 879b fbbd 3f7c 92bc dc64 18bd
00000070: 2280 4dbc 139a 34bd d063 313d b7b2 883c
00000080: bded 01bd 3ca7 5a3c 50ea 523a 6af5 a73c
00000090: 2dc4 d13d f3e4 ba3d 800c 573d a6d6 a83d
000000a0: afd6 893d ff7f 273d 80a1 3a3d 6f72 3a3d
000000b0: 7885 e0bb fe33 f43b 8ed8 e5bd d160 b6bd
000000c0: 4192 61bd 4457 f3bd d440 62bd 4591 53bd
000000d0: 3455 a93b dc3b bfbb 3938 6fbd 2515 ff3c
000000e0: 18e9 c4bc 49e4 debb f51d 483c 7087 5fbd
000000f0: 6129 073b fbb4 483b f20a 153c 3eb7 6abc
00000100: cdb8 953c 2d97 0fbd d95e 06bd a364 f03c
00000110: 07c3 053b a298 a8bc b87b eebc aa45 553c
00000120: 14c4 46bd ac8f b5bd eb6e b4bd 65ad ce3c
00000130: c76a 4b3d 8845 4e3d 85fd d33c 7dfe 483d
00000140: 677a 183d 2660 d13d b81e 9d3d 3e81 063d
00000150: 52ab 7c3c 7e08 5b3d 12a8 983a 9dd0 c33c
00000160: 81fe c6bd efbb 9ebd 954e 27bc 9939 2cbc
00000170: 5f64 4bbd ce9b f83a 0172 84bb f162 51bd
00000180: 1a26 abbd 335d 483c 32b3 69bd 9355 e0bb
00000190: 9254 febc 5bbc 8abd dc4d c1b9 0501 143d
000001a0: 548a a83d 1454 433d 1925 ab3c 10cf 7ebc
000001b0: e5aa fb3c 4e7b 723d 8fdf 34bb 4f38 7e3d
000001c0: 6a5f ce3c 797e e33c dd62 ac3c 13c9 463d
000001d0: 54f3 12bd 4c1b 6f3c 86d0 84bd 37da 99bc
000001e0: 9797 1b3d c2e6 60bd 7be7 92bd b694 88bd
000001f0: 57f8 2abd ba11 fbbc 9a2a 83bd 1585 53bc
00000200: 8979 c9bc 29f8 efbc 2d9e 66bc 7335 ab3b
00000210: 92c2 31bb a0da 26bd 5cb8 e93c 1d5a 48ba
00000220: f6e8 b0bc b95d 3b3d 052b 323c feb2 a83c
00000230: 1acd cc3c 4a74 b1bb fe84 313d 49fe a8ba
00000240: 0ab1 fb3c deb5 8dbb 3288 f83b d43c 7e3c
00000250: 62a1 1dbd 87c3 e53c a062 4c3d 3ae9 eb3d
00000260: 216b 9c3d c323 a73d 8d39 f73d 413f 223e
00000270: a6ea 533e 38f3 5c3e d5dc 743d 9e5c 843d
00000280: 7898 4b3e c398 483e e197 593d baff a4bd
00000290: 7416 c8bd 4da6 c43d f699 0c3b 8936 d0bd
000002a0: 1fd3 02be 726c 9cbd eaf9 09bd 9211 94bd
000002b0: 7d6b 86bd 6711 fdbd 2863 92bd 10ce 9abd
000002c0: ad52 0fbb be15 24bd 09ae 36bd 7ecc 44bd
000002d0: f9ed eabc 0c88 ea3c 1a7e 6f3c 019f a6bc
000002e0: 2eea 60bd ce04 f7bc dff9 ea3c c713 8f3d
000002f0: e560 423d ceab acbb 36b8 da3c 0f00 8d3c
00000300: b424 0f3d 0d58 113d 7d6e cbbc 0b41 7fbb
00000310: 11d9 e9bc f9ea 1dbc b1d5 37bd ede9 acbc
00000320: fa23 bb3c e98f e23d 671f ea3c d849 f13c
00000330: bb8d 9c3c a14d 893d f222 023d b3de d2bc
00000340: 8281 0a3d 9170 29bd 7996 bc3d 96fd 80bd
00000350: 8501 4bbd 38fd 583c 2ac9 663d 33ad 003e
00000360: 92cf ac3c 1cbe 98bd 8806 b03c 8ffa 593d
00000370: 5d83 a63b 563d 053d aa49 1cbd 1fb5 2fbd
00000380: 1104 1c3c fb09 ac3c 0100 2ebd 438a d33b
00000390: d1f2 0d3d 2894 18bc 86f4 88bc eed3 07bd
000003a0: 8233 fbbb c84e 093d 37dc 98bc 4f49 13bc
000003b0: 2817 b03c dff3 b9bc 6469 d3bc 815a 953b
000003c0: 8a74 1a3d 5810 44b9 10f9 3dbc ee91 48bd
000003d0: f297 b53c c6ea 14ba 97d1 03bd 3cda 78bd
000003e0: 28ea 16bd 4e90 28bd ffd8 853c 9419 e63d
000003f0: fa41 943c ef9d 8a3c df0e a7bc c752 cdbd
-0.0019676895 -0.051443387 -0.022415215 -0.005725075 -0.057739943 0.027778916 -0.031955484 0.038117293
0.048958555 -0.0025435535 -0.018592099 0.044259332 -0.020472208 0.011969692 0.023244677 0.041742317
-0.0048990776 -0.0037499885 0.00030276092 -0.048726656 -0.012278061 -0.06740613 -0.009132874 -0.015378004
0.0330021 -0.12285524 -0.01788151 -0.037205562 -0.012542756 -0.04409225 0.04330808 0.01668678
-0.031720866 0.013345536 0.00080457795 0.020502765 0.10242496 0.091257 0.052502155 0.08244066
0.06730401 0.04089355 0.045564175 0.04551929 -0.006851848 0.007452487 -0.11222945 -0.08905185
-0.05507112 -0.11881879 -0.055237606 -0.05165221 0.0051676277 -0.005835993 -0.058403227 0.031138012
-0.024036929 -0.006802116 0.012214174 -0.054572523 0.002062403 0.003062545 0.009096848 -0.014325915
0.018276596 -0.03505628 -0.032805298 0.029344862 0.0020410435 -0.020580593 -0.029111728 0.0130170975
-0.04852684 -0.08865294 -0.088102184 0.025229165 0.049662378 0.05035928 0.025877723 0.049070824
0.037226107 0.10223417 0.07671875 0.0328381 0.015421705 0.053474896 0.0011646769 0.023903186
-0.097165115 -0.07750689 -0.0102116065 -0.010511779 -0.04965627 0.0018967332 -0.0040419106 -0.05111975
-0.08356877 0.012229252 -0.05705566 -0.0068461387 -0.031046186 -0.06774207 -0.00036869838 0.036133785
0.08229509 0.047687605 0.020891713 -0.015552297 0.030721137 0.059199624 -0.0027599072 0.06206542
0.025191981 0.027770268 0.021043235 0.048531603 -0.035876587 0.01459391 -0.06485085 -0.01878081
0.037986364 -0.054907568 -0.07173058 -0.06668989 -0.04174074 -0.030648101 -0.0640461 -0.012910147
-0.024594085 -0.029293137 -0.014075798 0.0052248775 -0.002712403 -0.04073584 0.028530292 -0.00076428225
-0.02159546 0.045743678 0.0108745145 0.020593163 0.025000144 -0.005415474 0.04333972 -0.0012893166
0.030724067 -0.004324659 0.007584595 0.015517432 -0.038483985 0.028047336 0.049898744 0.11519094
0.07637621 0.08161118 0.12071524 0.15844442 0.2069498 0.21577156 0.059780914 0.06462978
0.19882381 0.19589524 0.05312336 -0.080565885 -0.097699076 0.09602032 0.0021454073 -0.10166652
-0.12775849 -0.07637872 -0.033685602 -0.07229914 -0.065634705 -0.12356835 -0.07147819 -0.075588346
-0.0021869347 -0.040059797 -0.044599567 -0.04804658 -0.028677927 0.028629325 0.014617467 -0.02033949
-0.05491083 -0.030153658 0.028683601 0.06986194 0.047455687 -0.005269504 0.026699167 0.017211942
0.034947112 0.035484362 -0.024832958 -0.003894868 -0.028545888 -0.009638541 -0.044881526 -0.021107638
0.022844303 0.11062605 0.028579427 0.029454157 0.019110551 0.0670426 0.031771608 -0.025740957
0.033814915 -0.041367117 0.09208388 -0.06298368 -0.049561996 0.013243966 0.05634419 0.1256607
0.021095071 -0.074581355 0.02148749 0.053217467 0.0050815777 0.032529198 -0.03815619 -0.04289734
0.009522454 0.021000853 -0.042480472 0.006455691 0.034655396 -0.009312667 -0.01671816 -0.033161096
-0.0076660523 0.033522397 -0.018659694 -0.008989646 0.021495417 -0.022699295 -0.02580709 0.004557908
0.037708797 -0.00018698105 -0.011595026 -0.048967294 0.02216718 -0.0005680736 -0.032182302 -0.060755
-0.036844403 -0.041153245 0.016338823 0.112353474 0.018097866 0.016921012 -0.020392833 -0.10025554

conv3.bias f4 [32]
00000000: 2661 0cbd c793 d3bc 1366 61bc 2b94 503d
00000010: fce1 9c3d 243f 26bd c465 943c 9c52 86bd
00000020: 7036 aa3d a9c0 abbc 698e 1fbd 8223 9bbc
00000030: 29b0 7b3d b10c a3bd a40d 81bc a567 933d
00000040: 5239 463c 7bb4 fa3d 566b 55bb 970d 60bc
00000050: 800a 07bd 4d26 a43d d42a 1b3e 96aa ea3d
00000060: d21a de3d 081b 563d 8c59 bd3c 3745 103e
00000070: baed fcbb 5011 5b3d 0dea 483d 4fd1 d13d
-0.034272335 -0.025827302 -0.013757247 0.050922554 0.076602906 -0.04058756 0.018114932 -0.06558725
0.083111644 -0.020965891 -0.038954172 -0.01893783 0.061447296 -0.07961405 -0.015753575 0.07197503
0.012098627 0.12241455 -0.0032565198 -0.013675115 -0.032968998 0.08015118 0.15153056 0.11458318
0.10844959 0.052271873 0.023113988 0.14088903 -0.007718769 0.053483307 0.049051333 0.102450006

fc.weight f4 [32, 4608]
00000000: d69f 0bba b2dc 223c 8a40 24bc 1c30 98bb
00000010: 8015 6a3b 29a7 95ba af1d 453c 712a 2ebc
00000020: c13b e13b 907a 43ba 09d5 7e3c 6070 8c3c
00000030: b294 ab3c 6973 81bb 00c2 8d3c d906 0ebc
00000040: 5070 fbbb 03dd f33b 4c24 86ba 7c12 dc3b
00000050: a00d 5d3c 5b80 cfba a25a 4e3b 8760 053b
00000060: 54da 7d3c 851c 2d3c 464e cc3a 1f42 3cbc
00000070: 6412 3d3b e323 f23b 0bb5 03ba 14ed bf3b
00000080: 69a7 353b 7545 ccbb 5c99 07bc a572 7fbb
00000090: 4d83 2fbc 1ca3 8839 b672 8ebb f003 67bc
000000a0: c2a9 9739 3ba3 b73a e3af 843b 5e1c f4ba
000000b0: b69e cfbb af9a 51bb 6926 3ebc 0017 b4ba
000000c0: cbfc fa3b fd6f 28ba c157 c138 d828 303c
000000d0: 9fbd 243c 602a 463c 0f0a 2a3c fc09 d73b
000000e0: a636 f3ba b10e 73bc 42f7 903a d3a2 eb3b
000000f0: ad0c 1cba 7404 d43b 8d7d 4cbc 5d69 b5ba
00000100: 9c38 553c 56c8 78bc 44af 76bb 13fc b03b
00000110: 9142 81bc a657 c9bb b5ff f1bb 67a4 0a3c
00000120: a877 88bb 2422 8dba a3c8 2d3c 9c09 2a3b
00000130: 9c4f c4bb b497 c33b a803 fdbb 9936 393c
00000140: b98f c3bb 27b5 4a3c 3858 c5bb 8301 bc3b
00000150: 335d 373c 22ec c2bb 6a22 20bb a01e 05bc
00000160: b3e6 d63b c2ed c1bb eabd 293c b994 2ebc
00000170: bbb7 e8bb 752d aabb 2e40 1e3c 0d7a ad3b
00000180: de86 91bb 4862 0d3c f7fb 5abc eafc 2dbb
00000190: 0a5a 3f3c e25b 99bb f35a 15bc e54d f9bb
000001a0: 38c9 1e3c 5ed6 cfb9 22b9 803a 6907 0abc
000001b0: dd52 c53b cece 5939 1974 843c ce67 0e3c
000001c0: 4f65 6bbc 473c 273c 5368 35bc ec03 cbbb
000001d0: 1a0b a3b9 d09d 73bc d72d 1dbb d670 d3bb
000001e0: 1ddb 2bb9 40eb 173a 1324 30ba 6c4c c63b
000001f0: 9f5f a4bb d700 74b9 fa25 2bbb ca41 05bc
00000200: d823 8cbc 098c 9c3b 8959 4cbc e8e5 a93b
00000210: fae4 653c 0df0 883c d443 c2bb 22a7 5f3c
00000220: c45c 0cbc 9196 41bc 89d2 46bb 483b 4cbc
00000230: 36ee 83bc 1f73 36bb 509c 043c 2f60 0b3c
00000240: b174 053c 9be4 493c b23d 663c 0822 07bc
00000250: 7879 003c ff4c 52ba 3331 be3b c3b0 91bc
00000260: be5a 773a e2d7 2aba f895 0f3b 4dd0 dcbb
00000270: 5945 143b 867e 7e38 6785 7cbb c953 2b3c
00000280: ddf0 84bc 2664 f3ba 6f03 843b 550d 5639
00000290: bdca de3b cb77 4bb9 d415 233c 9088 1c3c
000002a0: 54fb d7bb 1925 30bc ec16 03bc 9c4f 35bc
000002b0: c520 66bc b6a1 1f37 f1f1 67bc 6808 5cbc
000002c0: d027 0bbc 7cb6 8dbc 6fec 2bbc 706f 71bb
000002d0: 37aa 023b 0912 c03b 6235 333c e187 c5bb
000002e0: 1b62 46bc f51e 51bc df41 5dbc b524 db3b
000002f0: 71d8 213c 7e95 2f39 d2c1 b23a 10a0 4a3b
00000300: 24ad 093c ca6b d13b 3008 ec3b 04d5 f33a
00000310: a20c c1ba f0b3 f2bb 5a61 c63b dbe2 9f3a
00000320: 75e0 ca3b 6f38 323c 70ae 063c 4e9c 3d3c
00000330: 7c8a 083c afba c2bb 62fd 03bc c384 9d39
00000340: 7b4a c63b 98c1 7dbc ac85 a33a a993 743b
00000350: 0371 22bc 354e 29bc 6075 1cbc de6e 4a3c
00000360: 9a87 7ebb a7aa 32bc f9de 9d3b 5779 4ebc
00000370: f34c 8cbc 0843 e23b 34e1 3ebb a006 00bb
00000380: 2469 b13b 5b2d 9bbb 6a7d 86bb 5290 a5bb
00000390: cb1e a83b af3a b5bb 92f5 cfba 91e5 4cbc
000003a0: a671 19bc 79cc 77bc f18f f93b 597e 153c
000003b0: cc0d 2d3b 342e 2a3b 3897 22bc e069 113b
000003c0: 297b c03b 3a09 473c cc56 6cbc 7797 41bc
000003d0: 3e37 2cbc 9274 153c 5873 2fbb 2014 0e3c
000003e0: bf4d 0fbc 5b3f aabb 334b 33ba 9bf3 bbbb
000003f0: d522 613c ac4c 3b3c 38b6 53bc 1692 16bc
-0.00053262466 0.009940313 -0.010025153 -0.004644407 0.0035718381 -0.0011417615 0.012031003 -0.010630236
0.0068735783 -0.0007456923 0.015553721 0.017143428 0.020944927 -0.0039505255 0.01730442 -0.008668625
-0.007673301 0.007442118 -0.0010234206 0.0067160707 0.013492018 -0.00158311 0.0031487127 0.0020351724
0.015493948 0.010565882 0.0015587292 -0.011490374 0.0028850073 0.007389532 -0.0005024231 0.0058571193
0.0027718192 -0.006233866 -0.00827631 -0.0038978246 -0.010712457 0.00026061467 -0.0043471707 -0.01410006
0.00028927444 0.0014010438 0.0040492876 -0.0018624177 -0.0063360585 -0.0031983068 -0.011605837 -0.0013739765
0.00765953 -0.0006425379 9.2193026e-05 0.010751925 0.010054975 0.012095064 0.010378375 0.0065624695
-0.0018555715 -0.014835046 0.0011060017 0.007191041 -0.00059528166 0.0064702574 -0.0124811055 -0.0013840605
0.013013985 -0.015184483 -0.0037641088 0.0054011433 -0.015778812 -0.0061444817 -0.007385219 0.008462048
-0.0041646548 -0.0010767621 0.010606918 0.002594567 -0.0059909355 0.005969012 -0.007721383 0.011304521
-0.005968061 0.012372292 -0.0060224794 0.005737485 0.011191654 -0.0059485594 -0.0024434575 -0.008124977
0.006558263 -0.0059182355 0.01036022 -0.010655575 -0.0071019805 -0.005193407 0.009658856 0.0052940906
-0.0044411262 0.008629389 -0.013365737 -0.0026548454 0.011679182 -0.0046801427 -0.009115922 -0.0076081627
0.009691529 -0.00039641833 0.0009820799 -0.008424618 0.006021841 0.00020771773 0.01616864 0.008691741
-0.014367416 0.010207242 -0.011072236 -0.006195536 -0.00031098054 -0.014869168 -0.0023983622 -0.00645266
-0.00016389457 0.0005795248 -0.00067192427 0.0060515907 -0.0050162817 -0.00023269966 -0.0026115165 -0.008133361
-0.017106935 0.0047774357 -0.012472519 0.0051848777 0.014031643 0.016716028 -0.005928496 0.013650687
-0.008567039 -0.011815683 -0.003033789 -0.012465306 -0.016104799 -0.0027839614 0.008093908 0.008506819
0.008145497 0.01232257 0.014052795 -0.00824786 0.00784146 -0.00080223376 0.005804205 -0.017784482
0.0009435824 -0.00065171544 0.0021909457 -0.0067386986 0.0022624342 6.0676153e-05 -0.0038531662 0.010456988
-0.016228134 -0.0018569275 0.0040287296 0.00020413597 0.0067990706 -0.00019404215 0.009953935 0.009554043
-0.00659124 -0.010751032 -0.0080010705 -0.011066344 -0.014045899 9.51479e-06 -0.014156804 -0.013429739
-0.008493379 -0.01729893 -0.010493382 -0.0036840104 0.0019937882 0.005861525 0.01093802 -0.006028161
-0.012108351 -0.012763728 -0.013504474 0.0066877254 0.009878264 0.0001674499 0.0013638085 0.0030918159
0.008403096 0.0063910233 0.0072031245 0.0018602912 -0.0014728496 -0.007406704 0.0060540857 0.0012198346
0.006191308 0.010877713 0.0082203 0.0115729105 0.0083337985 -0.0059426646 -0.008056017 0.0003004429
0.006051359 -0.015488051 0.001247575 0.0037319458 -0.009914639 -0.010333587 -0.009549469 0.012355534
-0.003883815 -0.0109049445 0.00481784 -0.012602172 -0.017126536 0.0069049634 -0.002912593 -0.0019535199
0.005414145 -0.0047356314 -0.004104306 -0.0050526047 0.005130624 -0.0055306773 -0.0015866032 -0.012505905
-0.009365475 -0.015124434 0.007616036 0.009124362 0.0026405929 0.002596748 -0.009923749 0.002218835
0.005874057 0.012148196 -0.014424991 -0.011815897 -0.010511218 0.009122031 -0.002677163 0.00867179
-0.008746563 -0.005195541 -0.00068395137 -0.005735827 0.013741215 0.011431854 -0.012921862 -0.009190103

fc.bias f4 [32]
00000000: 4c23 47bb bcc1 8d3c c00a 10bc b2c0 c9ba
00000010: efb0 473c f7cf 3eba 328f 38bc f547 5b3c
00000020: b923 f5bb 3056 15bd c455 4fbb 9ce5 2e3c
00000030: e189 6fbb 15f9 a53c 0d8a 80bc 0956 6d3c
00000040: c340 803d 8ae5 91bb 90b0 6a3c ea4a 453c
00000050: b926 be3b d0d5 073d a62a 983a 4ec5 993d
00000060: 5ca3 603d 8859 0c3c 51aa 363c 4d3c d03a
00000070: ad1b 883c f20e 8e3c 79e8 e63b e44d 943c
-0.0030386029 0.017304294 -0.0087916255 -0.0015392511 0.01218818 -0.0007278914 -0.011264609 0.013383855
-0.007481065 -0.036459148 -0.0031636814 0.01067486 -0.0036550688 0.020260373 -0.015690828 0.014485844
0.06262352 -0.004452412 0.014324322 0.012041787 0.005802956 0.033162892 0.001160939 0.07508336
0.05484329 0.008566268 0.011149005 0.0015887112 0.01661476 0.01734111 0.007046756 0.018103547

translation.weight f4 [2, 32]
00000000: 9b33 9ebb 3df8 99bb 6686 b6bb d3c2 95bb
00000010: 5c95 93bb d978 413b 7dec dabb 9df4 94bb
00000020: dade a1bb a091 6c3c 774e 99bb 37e3 9bbb
00000030: 800a 9bbb 0eb9 98bb 6ca5 26bb 4778 71bb
00000040: 5084 49bb aebe 9cbb 1b06 a2bb fd00 96bb
00000050: 1d3f 013c 7308 523c 846a 96bb c53f c1bc
00000060: 56b7 12bd 92fa 9cbb 2ef4 c9bb e243 b3bb
00000070: ac96 9cbb c54f a6bb 9544 a4bb 1544 96bb
00000080: 0d72 b83a b173 d73a 04eb 9cbb 1772 9a3a
00000090: 7f16 cf3a 1c42 5cba b06c 743a 0188 c53a
000000a0: d115 713a b4e0 973c 4b06 b0ba a673 023b
000000b0: 46d7 bc3a 73a6 0c3b 7bee 913b 4f34 0d3b
000000c0: 7b4a 1d3b 713c e63a 5262 323a c735 ab3a
000000d0: f2bb a43a 5255 773b 15ae e93a 2a7d 58bd
000000e0: 5f30 a03c e9d5 823a f710 3539 558b 3bb9
000000f0: 797f 363a 040a fa3a 9295 213a a8f8 a63a
-0.004827929 -0.0046987818 -0.0055702208 -0.004570344 -0.004503889 0.0029521494 -0.0066810236 -0.0045457617
-0.004939896 0.014439017 -0.004678543 -0.0047573107 -0.0047314763 -0.004660732 -0.002542819 -0.0036845373
-0.003074903 -0.004783473 -0.0049445755 -0.0045777545 0.007888583 0.012819397 -0.0045903344 -0.023589978
-0.035819374 -0.0047906125 -0.0061631417 -0.0054707387 -0.0047787037 -0.0050754272 -0.0050130584 -0.0045857527
0.0014072076 0.0016437677 -0.0047887582 0.0011783269 0.0015799551 -0.0008402185 0.0009324057 0.001507044
0.00091966713 0.018539764 -0.001342961 0.0019905358 0.0014407418 0.0021461516 0.004453478 0.002154607
0.0024000693 0.001756562 0.0006804812 0.0013062292 0.0012568219 0.0037740064 0.001782837 -0.05285374
0.019554315 0.0009981963 0.00017267825 -0.00017885615 0.0006961744 0.0019076471 0.00061639503 0.00127389

translation.bias f4 [2]
00000000: 6171 06bd 69eb b63d
-0.03282297 0.0893162

rotation.weight f4 [1, 32]
00000000: bd2c 073b fb8f 123b 261a afbb 8e68 0d3b
00000010: bf6d 273b fbe8 5aba e38b 953a 24e1 1b3b
00000020: 63b4 fb3a 864d c6bb 0408 7639 5a7f 2f3b
00000030: d598 133b 8d18 363b 4e3a 6e3a 3985 3c3b
00000040: d7c3 c63c f987 1c3b 28d4 e83a 6024 123b
00000050: f8f3 c03b c733 313c d3d6 233b 8c70 ebbb
00000060: 2e9b 88bc 9cd3 f53a b16a 953a 445a af3a
00000070: 8151 f33a 2cf1 293b 3deb e43a fd6c 133b
0.0020626031 0.002236365 -0.0053436933 0.0021577212 0.0025547592 -0.0008350757 0.0011409487 0.0023785317
0.001920354 -0.006051722 0.00023463374 0.0026778788 0.0022521515 0.002778563 0.00090876676 0.002876593
0.024263306 0.0023884757 0.0017763423 0.0022299513 0.0058884583 0.010815567 0.0024999871 -0.0071850475
-0.016675558 0.0018755081 0.0011399594 0.0013378342 0.0018563719 0.0025931103 0.0017465126 0.0022495382

scaling.weight f4 [2, 32]
00000000: c202 f43b 17e9 de3b afd0 573b ae36 023c
00000010: 8790 df3b 8629 2f3b 54f9 c03b 00ed e63b
00000020: cfea 0c3c 16d4 3f3d bd93 ad3b 2e74 cd3b
00000030: 4b92 ed3b f9d4 c43b 7ce5 283b 66e4 893b
00000040: d935 10bd 5d69 dc3b 6cb5 143c 37cb f13b
00000050: a6a6 433b 39ac 5c3d 2838 de3b fb83 98bc
00000060: d853 32bc b0fb 0d3c e562 183c 40f5 253c
00000070: 3a72 133c 9b46 ab3b 7fdb 183c 6625 f93b
00000080: 07b9 fc3b c3f0 e93b 3346 01bc 1456 053c
00000090: 74c6 e93b b428 2f3b 0cfc ca3b a0e7 f03b
000000a0: fcae 0f3c 3f22 4e3c ab46 b13b b05e d53b
000000b0: aaf7 f63b 7483 d23b 8de7 283b 7a0e 9a3b
000000c0: 8c97 85bb 397f e73b 40e9 163c f718 fb3b
000000d0: d471 013c e166 823c 6f34 ea3b b924 b4bc
000000e0: a889 803c 26bf 0f3c a0ef 183c 3f32 263c
000000f0: 76bc 153c 1f45 943b 0601 1b3c 95c0 003c
0.007446618 0.006802689 0.0032930782 0.007947607 0.006822649 0.002672763 0.005889097 0.0070472956
0.008600905 0.04683312 0.005297153 0.006269953 0.0072501055 0.0060068336 0.002577155 0.0042081354
-0.035207603 0.0067264275 0.0090764575 0.0073789614 0.002985397 0.05387518 0.0067815967 -0.01861762
-0.010884248 0.008665964 0.009300922 0.010129273 0.008999402 0.0052269227 0.009329676 0.007603335
0.0077124867 0.0071392967 -0.007890272 0.008138198 0.007134253 0.0026727142 0.006194597 0.0073518306
0.008769747 0.012581407 0.0054100356 0.006511532 0.007536848 0.006424362 0.002577278 0.004701433
-0.0040769037 0.0070647267 0.009210885 0.007662888 0.007900674 0.015918197 0.007147364 -0.021990167
0.01569064 0.008773601 0.009334475 0.010143816 0.009139171 0.0045248414 0.009460693 0.007858415

scaling.bias f4 [2]
00000000: 7c20 5a3b b8dd debc
0.0033283522 -0.027205333

shearing.weight f4 [1, 32]
00000000: 9151 1bbb b8c5 2bbb 9131 f43b fba7 11bb
00000010: fe6d 2fbb 3a3a 2939 9dc8 80bb f35b 35bb
00000020: bb03 d7ba b774 de3c 0835 dcba 7a47 613b
00000030: c60a 23bb f2b4 5abb 9082 8e3a 2784 5e3b
00000040: 79dd 083c 4b5c 3abb 25e7 a1ba f210 25bb
00000050: c497 db3b 29af e03d 87b4 46bb 096e 213e
00000060: 3bd2 003e d927 c5ba b0fc 8b38 aae5 7a39
00000070: e282 b2ba 2204 c73c be38 7bba 5f3e 24bb
-0.002369974 -0.002621038 0.007452198 -0.0022225368 -0.0026768441 0.00016138787 -0.003930165 -0.0027673214
-0.001640431 0.027155263 -0.0016800473 0.0034374879 -0.0024878248 -0.0033372012 0.0010872651 0.003395328
0.008353584 -0.0028436359 -0.0012352212 -0.0025187102 0.0067014415 0.10970909 -0.0030320005 0.15764631
0.12580197 -0.0015041783 6.675103e-05 0.00023927414 -0.0013619328 0.024293963 -0.00095833454 -0.002506159
