output/Mess6060_i/train/model/stn_80.pt (torch_old, 658934 bytes, 14 tensors)

conv1.weight f4 [8, 2, 5, 5]
0.10880876 0.10322825 -0.08610589 -0.12938006 0.10142497 -0.13263153 0.08313068 -0.14554417
-0.080290355 -0.06834053 0.12614703 -0.030829221 0.11488784 0.03346893 0.12912396 0.08719683
0.09755153 0.11667426 -0.04866619 -0.04640885 0.039439473 0.118037365 -0.05862306 -0.11785042
-0.11774005 -0.085195184 0.0022812618 -0.036948532 -0.05810403 -0.086520255 0.018004073 -0.13540047
0.11959157 -0.041547358 0.0070329714 0.02891473 -0.07274094 0.09363021 -0.019246269 -0.006555814
-0.1512709 0.0007242479 0.031913947 0.0032062458 -0.030708373 0.09086819 0.09577339 0.08139877
-0.04028387 0.00875468 -0.10476988 -0.11051368 -0.028832693 0.012106168 -0.08694546 -0.123211406
0.06039783 0.048753977 -0.096348636 0.09074426 -0.11017266 0.103149846 0.07287209 -0.049646404
0.132103 -0.08324503 -0.067511365 0.110625595 -0.037561294 -0.058308326 0.019557716 -0.02508607
0.08833491 0.11526018 0.06225965 0.01647273 0.021148497 -0.01110638 0.0017582559 -0.012540662
0.083459064 0.06583014 -0.027554842 0.039358612 -0.0066006123 0.038093407 0.10404721 -0.10871566
0.007259295 -0.04306219 -0.14896233 -0.14814004 -0.029611971 0.0897789 -0.10549344 0.037245393
0.07244146 -0.112535335 0.051072504 0.016188068 -0.1459258 -0.018803207 -0.14822313 0.10845742
0.051465943 0.036668558 0.09167314 0.09212514 0.12513739 0.04337727 -0.12002338 0.11376435
0.02245998 -0.07155115 -0.06814189 0.11365609 0.013577993 0.08540221 -0.0057923435 0.11431421
-0.12297808 0.015270112 0.01577961 -0.019283678 0.1087042 0.0051195575 -0.014436897 0.07554066
-0.03154689 -0.028653823 -0.13948534 -0.022661993 -0.08667407 0.06209647 0.10363687 -0.15463017
-0.10343306 0.115601294 -0.080206275 0.106636636 0.11600835 -0.05696805 -0.13512237 0.05076989
0.045133863 0.099303626 -0.001666617 0.05633813 -0.14112367 0.00034824738 0.032408495 0.085249364
-0.0825282 -0.0254254 -0.09434801 -0.09430715 0.05815603 0.017256062 0.04993783 -0.01217412
0.0002757975 -0.0044806744 0.07502927 -0.1030282 0.024102138 0.081870176 0.08527405 -0.06771483
0.10773763 -0.09986356 0.079539575 0.119656436 0.006267513 0.042882472 -0.13679111 -0.06907788
-0.07005506 -0.14929412 -0.047879484 0.07927888 -0.024267009 0.12624991 -0.14350988 0.03842297
0.10358237 0.1283724 -0.06584814 -0.14249407 -0.06877837 0.08629347 0.0059082187 0.12568574
-0.11556752 -0.10375804 0.05462255 0.04460483 -0.0980383 0.12043987 -0.06691784 -0.1331599
0.05351498 -0.0664054 -0.055738896 -0.069095775 0.04728211 0.081678204 0.10917312 -0.06735665
-0.02152526 0.14233327 -0.055854905 -0.03582182 -0.013336419 -0.11260876 -0.09246847 0.1439739
0.043128017 0.041977882 0.07012414 0.0994125 0.11413522 0.11949754 0.07435869 0.122292206
0.10719785 -0.03683826 -0.004631128 -0.09489698 -0.13136813 0.10745026 -0.11853008 -0.10535647
-0.15691587 -0.13214445 0.0063178805 0.05658317 -0.13414413 -0.008089215 -0.12646763 0.0039726454
0.07591155 -0.0670053 -0.07837184 0.07377514 -0.11011527 -0.033880435 -0.1264842 0.08769833
0.031517506 -0.07005938 0.09783973 0.13001505 0.05335619 -0.10573073 -0.036714796 0.11037242
00000000: 21d7 de3d 5569 d33d 4958 b0bd 357c 04be
00000010: e5b7 cf3d 8fd0 07be 6b40 aa3d 8809 15be
00000020: 456f a4bd 1ff6 8bbd b02c 013e 908d fcbc
00000030: 514a eb3d b716 093d 1239 043e 4094 b23d
00000040: 19c9 c73d eaf2 ee3d 3356 47bd 3517 3ebd
00000050: 498b 213d 93bd f13d bc1e 70bd 905b f1bd
00000060: b221 f1bd d07a aebd 3981 153b 5857 17bd
00000070: 7efe 6dbd 8831 b1bd 477d 933c 6ca6 0abe
00000080: 6dec f43d 902d 2abd d774 e63b 95de ec3c
00000090: 34f9 94bd 32c1 bf3d 5aaa 9dbc 27d2 d6bb
000000a0: c2e6 1abe 74db 3d3a 33b8 023d e11f 523b
000000b0: 2090 fbbc 1a19 ba3d d724 c43d 66b4 a63d
000000c0: b300 25bd ca6f 0f3c 9791 d6bd ff54 e2bd
000000d0: 8a32 ecbc f358 463c 7610 b2bd 4356 fcbd
000000e0: b763 773d 40b2 473d 6f52 c5bd 20d8 b93d
000000f0: 34a2 e1bd 3a40 d33d f63d 953d 075a 4bbd
00000100: 0246 073e 5f7c aabd 6643 8abd ac8f e23d
00000110: dfd9 19bd b6d4 6ebd 8137 a03c 4d81 cdbc
00000120: efe8 b43d 870d ec3d fa03 7f3d d2f1 863c
00000130: 9d3f ad3c 89f7 35bc 4775 e63a 5977 4dbc
00000140: 96ec aa3d f4d1 863d b1ba e1bc 7f36 213d
00000150: f349 d8bb d507 1c3d b416 d53d 51a6 debd
00000160: 61df ed3b fb61 30bd 9589 18be 06b2 17be
00000170: ce94 f2bc 00de b73d f20c d8bd a08e 183d
00000180: 305c 943d ed78 e6bd 6731 513d d79c 843c
00000190: 936d 15be 2f09 9abc cec7 17be ec1e de3d
000001a0: f4cd 523d c531 163d 21bf bb3d 1bac bc3d
000001b0: 0424 003e 5dac 313d d1ce f5bd 49fd e83d
000001c0: fefd b73c 6989 92bd fa8d 8bbd 86c4 e83d
000001d0: 3b76 5e3c 5be7 ae3d b3cd bdbb 921d ea3d
000001e0: eedb fbbd 7e2f 7a3c 3e44 813c cef8 9dbc
000001f0: 4fa0 de3d f6c1 a73b bc88 6cbc 10b5 9a3d
00000200: 5037 01bd 6cbb eabc 3fd5 0ebe a5a5 b9bc
00000210: 2d82 b1bd de58 7e3d 913f d43d 5f57 1ebe
00000220: b6d4 d3bd 5fc0 ec3d 3043 a4bd 4f64 da3d
00000230: c995 ed3d 5457 69bd 855d 0abe 17f4 4f3d
00000240: 49de 383d b35f cb3d 6372 daba d0c2 663d
00000250: b982 10be f994 b639 c5be 043d 3897 ae3d
00000260: 8b04 a9bd ee48 d0bc 8839 c1bd 1b24 c1bd
00000270: 0435 6e3d 965c 8d3c 9c8b 4c3d f675 47bc
00000280: ea98 9039 9fd2 92bb f2a8 993d 7300 d3bd
00000290: d971 c53c 8dab a73d 29a4 ae3d 13ae 8abd
000002a0: 8ca5 dc3d 4485 ccbd a5e5 a23d 6f0e f53d
000002b0: b65f cd3b 88a5 2f3d f812 0cbe b478 8dbd
000002c0: 0779 8fbd 8fe0 18be 471d 44bd f75c a23d
000002d0: 9bcb c6bc a847 013e 41f4 12be 6761 1d3d
000002e0: fe22 d43d 0e74 033e 64db 86bd f7e9 11be
000002f0: addb 8cbd a1ba b03d bb99 c13b c3b3 003e
00000300: aaae ecbd 187f d4bd e5bb 5f3d 8eb3 363d
00000310: 4ec8 c8bd 2ea9 f63d 380c 89bd 125b 08be
00000320: 8632 5b3d 8eff 87bd 784e 64bd 1682 8dbd
00000330: e3aa 413d e746 a73d 2896 df3d 49f2 89bd
00000340: be55 b0bc d0bf 113e 1dc8 64bd e7b9 12bd
00000350: ff80 5abc 6c9f e6bd 1c60 bdbd e56d 133e
00000360: 01a7 303d 00f1 2b3d 3f9d 8f3d c898 cb3d
00000370: babf e93d 20bb f43d 5e49 983d 5674 fa3d
00000380: 8c8a db3d b7e3 16bd b8c0 97bb 5959 c2bd
00000390: 5e85 06be e20e dc3d e6bf f2bd 22c5 d7bd
000003a0: 8eae 20be e050 07be 3906 cf3b c1c3 673d
000003b0: 145d 09be a088 04bc bb80 01be f72c 823b
000003c0: 8477 9b3d 133a 89bd 6a81 a0bd 6c17 973d
000003d0: 1d84 e1bd 36c6 0abd 1385 01be 2f9b b33d
000003e0: 8018 013d 4b7b 8fbd 3260 c83d aa22 053e
000003f0: 058c 5a3d 5a89 d8bd 4162 16bd ef0a e23d

conv1.bias f4 [8]
0.06279263 0.0032219142 -0.046329305 -0.013088255 -0.06793699 0.120965734 0.11700775 -0.0898311
00000000: 6c99 803d c026 533b ccc3 3dbd 1f70 56bc
00000010: 8c22 8bbd e2bc f73d c2a1 ef3d 5ef9 b7bd

conv2.weight f4 [16, 8, 5, 5]
-0.07102751 -0.06990363 -0.015712343 -0.0045215073 -0.05076186 0.035694253 0.0014616471 -0.039217014
-0.071899995 0.05142846 0.06615115 0.0032150482 -0.036921035 0.04174182 0.03825122 -0.013917467
0.06314794 -0.05498139 -0.01115544 0.056571536 -0.047594998 -0.025661305 -0.033697117 -0.032918677
0.058011446 0.041239694 -0.06648005 -0.04581021 -0.0040814886 -0.026951145 -0.041166764 -0.07213969
0.048913278 0.03568449 0.015830606 -0.018358435 -0.07149332 -0.008141233 0.0225334 -0.025456274
0.05300418 0.012690355 -0.007925294 0.023046216 0.031417344 -0.05534229 0.016960928 -0.06943932
-0.020514386 -0.028835183 0.04749883 -0.07434162 0.019329654 -0.070006356 0.025064507 0.01124407
-0.033765387 0.015099707 0.06222149 0.037502088 -0.070301875 -0.024031121 0.05846342 0.0052638
0.0031173734 -9.302445e-05 -0.030085713 -0.023826387 -0.0008158174 0.047736283 -0.024708861 -0.02345207
0.008086379 -0.031364877 0.05632501 0.049948506 -0.00046605515 -0.04982296 0.014740836 0.054115333
0.018585999 0.02543152 -0.04164289 -0.074468 -0.03177949 -0.0041630864 0.057088666 0.009234822
-0.018473491 -0.02338734 -0.021117274 -0.045090545 -0.036356412 0.006650718 0.041583348 0.05191028
0.01916976 -0.05704732 0.05757519 0.06053936 0.021576874 0.04611046 0.10807797 0.018344875
0.075443745 0.053200677 0.082216665 0.06831062 0.11344267 0.102499604 -0.009748539 0.08218088
0.026517693 0.0032560744 0.051939525 0.025562657 -0.010627154 -0.026651733 -0.004028611 0.042729147
0.07507839 0.07266025 0.04963675 0.09711705 -0.03044162 -0.04317746 0.03249908 -0.06152748
0.07057616 0.0139502175 -0.02554146 0.064261615 0.03502454 0.062443703 0.056741923 -0.012466758
0.06461999 0.010298758 0.008487495 0.026810484 -0.056143697 -0.04257798 0.06684582 -0.045997914
0.039091505 0.041324273 -0.058420174 -0.009142366 -0.0017983981 0.05194927 -0.020254303 0.06389839
-0.058543835 0.030127522 0.038314637 -0.02544726 -0.02263098 -0.043872893 0.019624375 0.023791468
-0.024800584 0.05752028 -0.010396866 -0.010945393 0.054738358 0.011907124 0.037561733 0.04130193
-0.046723086 -0.0018787454 0.060890596 -0.045165677 0.007894747 0.051063612 0.0061048213 0.007842175
0.050830938 -0.031458426 0.08626935 0.08394471 0.0022858572 -0.0017241327 0.011768125 0.09706624
-0.00019875335 0.041796383 -0.04485695 0.044956867 0.06728564 0.04752948 0.014746452 0.025365274
0.082131945 0.05218503 0.0053487034 -0.04013742 0.06904773 -0.008742359 0.06197436 0.0037907131
0.007782587 -0.051241674 -0.024538327 0.0058510914 -0.06983085 -0.0050790445 0.049785346 0.056790356
0.057652 -0.01801801 0.014598157 -0.0473923 0.045588944 0.020170564 0.06602145 -0.0026746802
0.076070644 0.04492143 0.06905067 0.0030826032 -0.05093423 -0.050576698 -0.060495287 0.016626237
-0.049937766 -0.010902451 0.048646472 0.076825514 -0.00587117 0.058392417 0.0044432636 -0.0028020388
0.0016688402 -0.022820828 0.025597505 0.010930188 -0.022423688 0.05405451 -0.0242672 -0.044097975
0.03415407 0.0035380907 -0.034387924 -0.056319285 -0.023464821 -0.047653142 0.042023294 -0.009923951
0.03208379 0.027835077 -0.00015570954 -0.016878588 -0.042488337 0.010226382 -0.06629926 -0.037628714
00000000: df76 91bd a229 8fbd 2cb7 80bc 2729 94bb
00000010: abeb 4fbd 2334 123d bd94 bf3a 05a2 20bd
00000020: 4e40 93bd a6a6 523d 417a 873d 8fb3 523b
00000030: 833a 17bd 78f9 2a3d 50ad 1c3d 1606 64bc
00000040: b553 813d 2a34 61bd 4ec5 36bc 8eb7 673d
00000050: f9f2 42bd a837 d2bc fd05 0abd bcd5 06bd
00000060: 699d 6d3d f4ea 283d b126 88bd 7da3 3bbd
00000070: 02be 85bb a6c8 dcbc 7b9e 28bd f9bd 93bd
00000080: 4a59 483d e629 123d 30af 813c 6e64 96bc
00000090: 176b 92bd ce62 05bc f797 b83c ad89 d0bc
000000a0: e91a 593d 35eb 4f3c 18d9 01bc 6bcb bc3c
000000b0: 79af 003d 99ae 62bd a5f1 8a3c 3436 8ebd
000000c0: c90d a8bc c337 ecbc 228e 423d 6b40 98bd
000000d0: 3959 9e3c 7e5f 8fbd 1554 cd3c 0c39 383c
000000e0: 934d 0abd c364 773c f6db 7e3d ca9b 193d
000000f0: 6efa 8fbd eadc c4bc 5777 6f3d f47b ac3b
00000100: d94c 4c3b 1f16 c3b8 5076 f6bc 8e2f c3bc
00000110: 94dc 55ba 1f87 433d 3d6a cabc 8e1e c0bc
00000120: bb7c 043c 7578 00bd 0eb5 663d ce96 4c3d
00000130: dd58 f4b9 2913 4cbd 8c83 713c 0aa8 5d3d
00000140: aa41 983c c355 d03c bc91 2abd ae82 98bd
00000150: 362b 02bd 806a 88bb ced5 693d a74d 173c
00000160: b855 97bc cf96 bfbc 22fe acbc ddb0 38bd
00000170: 76ea 14bd 44ee d93b 4d53 2a3d e09f 543d
00000180: e709 9d3c 73aa 69bd f6d3 6b3d 1ff8 773d
00000190: fcc1 b03c 52de 3c3d fc57 dd3d fe47 963c
000001a0: 4082 9a3d f4e8 593d 3661 a83d 70e6 8b3d
000001b0: a154 e83d 50eb d13d 56b8 1fbc 734e a83d
000001c0: a23b d93c dd63 553b 8abe 543d c768 d13c
000001d0: 841d 2ebc bc54 dabc 7002 84bb c204 2f3d
000001e0: b3c2 993d e6ce 943d e84f 4b3d 4ee5 c63d
000001f0: b460 f9bc d9da 30bd c11d 053d 3d04 7cbd
00000200: 3c8a 903d 748f 643c 533c d1bc 989b 833d
00000210: e475 0f3d f8c4 7f3d 386a 683d 5f41 4cbc
00000220: 7c57 843d 1fbc 283c 220f 0b3c a9a1 db3c
00000230: eff6 65bd 3f66 2ebd 76e6 883d 4f68 3cbd
00000240: 6a1e 203d a443 293d fe49 6fbd ddc9 15bc
00000250: 3ab8 ebba c2c8 543d 5aec a5bc 29dd 823d
00000260: a9cb 6fbd fecd f63c cfef 1c3d c676 d0bc
00000270: 9b64 b9bc 10b4 33bd 4cc3 a03c 53e6 c23c
00000280: 982a cbbc 639a 6b3d 9e57 2abc 4e54 33bc
00000290: 5435 603d 1916 433c 55da 193d 362c 293d
000002a0: b560 3fbd 3c40 f6ba 6b68 793d a5ff 38bd
000002b0: f858 013c 1428 513d f40a c83b 777c 003c
000002c0: 1a34 503d 8dda 00bd fcad b03d 34eb ab3d
000002d0: 52ce 153b 4bfc e1ba 18cf 403c aaca c63d
000002e0: 7268 50b9 af32 2b3d ecbb 37bd b124 383d
000002f0: 0ecd 893d 46ae 423d 1a9b 713c d6ca cf3c
00000300: cb34 a83d f8bf 553d 2d44 af3b 2367 24bd
00000310: e568 8d3d 1c3c 0fbc d4d8 7d3d 9d6d 783b
00000320: 1205 ff3b cae2 51bd 9a04 c9bc 83ba bf3b
00000330: 7a03 8fbd 1d6e a6bb b8eb 4b3d 019d 683d
00000340: 8124 6c3d 819a 93bc 1c2d 6f3c 6e1e 42bd
00000350: 79bb 3a3d bd3c a53c 4136 873d b049 2fbb
00000360: edca 9b3d 89ff 373d 706a 8d3d 8005 4a3b
00000370: 69a0 50bd 8329 4fbd e8c9 77bd bf33 883c
00000380: 8b8b 4cbd 32a0 32bc 8641 473d b256 9d3d
00000390: f262 c0bb e32c 6f3d cc98 913b 69a2 37bb
000003a0: fcbc da3a bff2 babc dcb1 d13c 8814 333c
000003b0: e2b1 b7bc 4368 5d3d 02cc c6bc 14a0 34bd
000003c0: 23e5 0b3d 50df 673b 5ada 0cbd 0daf 66bd
000003d0: 4c39 c0bc f12f 43bd 9e20 2c3d 1198 22bc
000003e0: 4b6a 033d 6306 e43c f645 23b9 f744 8abc
000003f0: 4008 2ebd 8e8c 273c e8c7 87bd 9120 1abd

conv2.bias f4 [16]
-0.024051068 0.039337598 0.08010172 0.06863834 0.036075212 -0.044363998 -0.0316481 -0.025530595
-0.016015453 -0.0077535063 -0.009515297 -0.010149934 -0.014146475 0.034261998 0.0012420334 0.06293639
00000000: bf06 c5bc 7620 213d 5f0c a43d 4292 8c3d
00000010: 9ac3 133d 06b7 35bd 70a1 01bd 8a25 d1bc
00000020: d732 83bc 2011 febb 0ce6 1bbc e94b 26bc
00000030: 9ec6 67bc 4f56 0c3d bacb a23a cbe4 803d

conv3.weight f4 [32, 16, 5, 5]
0.016162692 -0.050084695 -0.024630528 -0.006934044 -0.05221176 0.021649186 -0.04238366 0.0289331
0.044422038 0.0049257837 -0.029159695 0.030619776 -0.037496764 -0.002565148 0.026071174 0.04201978
-0.0010081595 -0.008502535 -0.0092244735 -0.053713534 0.0038558056 -0.04450188 -0.00035344608 -0.016861593
0.026525673 -0.021770576 0.03409985 -0.0132079935 -0.010518236 -0.046212036 0.041770715 0.003530646
-0.04612669 0.0023951253 0.020338159 -0.010302833 0.0408708 0.024057025 -0.0074180397 0.0484989
0.0349124 -0.0065571503 -0.006078137 0.014054151 -0.019002056 0.029513415 -0.04923041 -0.029225472
0.020198667 -0.050026625 -0.020439193 -0.030832337 0.022602733 -0.0021674288 -0.040181465 0.03633667
-0.026772413 -0.009724992 0.012450132 -0.038007524 -0.008150125 -0.02045713 -0.015747184 -0.022433287
0.02729082 -0.028185708 -0.038153633 0.017603438 0.011944911 -0.0041008326 0.00024076189 0.045304064
-0.02069644 -0.048777718 -0.053681485 0.004808706 0.015332862 0.001188254 -0.033091728 -0.024544725
-0.039624058 0.033465277 0.015816651 -0.019914739 -0.038486067 0.024563646 -0.0049344786 0.04581805
-0.043598827 -0.042119358 -0.0045038904 0.023969213 0.027554799 0.045479823 0.030635968 0.011016606
-0.041410573 0.043451805 -0.023706669 0.031604562 0.018366402 -0.031503163 -0.0061775725 -0.0057448423
0.03610252 0.036024153 0.008843084 -0.030072179 0.01269558 0.0393671 -0.028827915 0.038125686
0.009707362 0.026313862 0.015825568 0.029378295 -0.04438061 0.019143054 -0.045374043 -0.0045809033
0.037127897 -0.04273857 -0.03951593 -0.023241222 0.0006088714 -0.012056894 -0.04418099 0.0015614372
-0.01752275 -0.028492767 -0.0045662676 0.012122485 0.0032141292 -0.03799705 0.028903455 0.0043402514
-0.025303548 0.038578913 0.005314601 0.021105621 0.03019377 -0.00574949 0.036486704 -0.004991544
0.03512248 0.00070556824 0.017946877 0.020298105 -0.032615174 0.038738947 0.0044116806 0.023643602
-0.024123862 0.012038705 0.072744995 0.0049566384 0.048677098 0.09803105 -0.0031450582 0.039067864
0.052110996 0.06439094 0.0004029833 -0.038033467 -0.023149146 0.030893186 -0.027796349 -0.037028138
0.0049801446 0.020387307 -0.022584485 -0.012209153 0.0334428 -0.029075664 -0.030482845 -0.02198985
0.034372866 -0.020235365 -0.039177656 -0.04064574 -0.017705372 0.02976607 0.01317713 -0.022002338
-0.04845565 -0.036090106 0.004874352 0.03646737 0.020364158 -0.011561182 0.020854887 -0.0020398393
0.0013346665 0.01793564 -0.017568476 0.008749545 -0.0012588033 0.009623086 -0.016222585 0.026924342
-0.04278981 0.03129936 -0.043334123 -0.032293994 -0.027205983 -0.0012188354 -0.0057667135 -0.05284815
0.021803288 0.007629527 0.0554798 -0.032897048 -0.043984205 0.002829246 0.031684384 0.03718612
0.023990495 0.00344554 0.014895793 -0.030984527 -0.04291927 -0.03828512 -0.032361735 0.002969249
0.03635475 0.027124848 -0.03775315 0.008810437 0.039084204 -0.004004799 -0.014474186 -0.03214897
-0.008669341 0.03259568 -0.01922452 -0.012656908 0.01928807 -0.024085717 -0.028061882 0.003401658
0.031065267 0.00033457403 -0.0069255116 -0.044642083 0.024846239 -0.0029493335 -0.027058179 -0.0489149
-0.028640216 -0.040111087 0.011114554 0.04012014 -0.0051301126 0.036188707 -0.0050338474 -0.023316214
00000000: 9f67 843c 9c25 4dbd f6c5 c9bc fa36 e3bb
00000010: 00dc 55bd a259 b13c 7d9a 2dbd 1c05 ed3c
00000020: e2f3 353d 7868 a13b 50e0 eebc 53d6 fa3c
00000030: 3596 19bd 0b1c 28bb 3793 d53c ef1c 2c3d
00000040: 3824 84ba 374e 0bbc 3f22 17bc b902 5cbd
00000050: afb1 7c3b 9a47 36bd bb4e b9b9 5321 8abc
00000060: 5e4c d93c 3558 b2bc 49ac 0b3d 5766 58bc
00000070: ae54 2cbc d548 3dbd c517 2b3d 6962 673b
00000080: 57ef 3cbd 89f7 1c3b 369c a63c 37cd 28bc
00000090: 2468 273d 3d13 c53c 0713 f3bb c8a6 463d
000000a0: 4e00 0f3d 5ddd d6bb 1c2b c7bb 6243 663c
000000b0: 33aa 9bbc 1ec6 f13c d4a5 49bd 426a efbc
000000c0: ad77 a53c b8e8 4cbd 1870 a7bc 1994 fcbc
000000d0: 5e29 b93c 6c0b 0ebb 5295 24bd c3d5 143d
000000e0: d251 dbbc 9355 1fbc a3fb 4b3c c7ad 1bbd
000000f0: 1a88 05bc b695 a7bc 3d00 81bc 03c6 b7bc
00000100: ff90 df3c b7e5 e6bc fc46 1cbd 1635 903c
00000110: 97b4 433c 4760 86bb 0775 7c39 c190 393d
00000120: 958b a9bc 25cb 47bd 1ee1 5bbd 5a92 9d3b
00000130: af36 7b3c 30bf 9b3a 318b 07bd 0512 c9bc
00000140: d64c 22bd e312 093d ec91 813c 3c24 a3bc
00000150: 91a3 1dbd b339 c93c 68b1 a1bb b5ab 3b3d
00000160: af94 32bd 5985 2cbd 5f95 93bb 155b c43c
00000170: 9aba e13c 0d49 3a3d 48f8 fa3c ff7e 343c
00000180: 229e 29bd 85fa 313d 7d34 c2bc c973 013d
00000190: 2375 963c 7609 01bd 3c6d cabb 3b3f bcbb
000001a0: 3ce0 133d 108e 133d 95e2 103c ee59 f6bc
000001b0: 1f01 503c 653f 213d 8528 ecbc ae29 1c3d
000001c0: a10b 1f3c 2b90 d73c 9fa4 813c c0aa f03c
000001d0: 71c8 35bd e5d1 9c3c 22da 39bd 671b 96bb
000001e0: 6c13 183d a40e 2fbd 75db 21bd 6064 bebc
000001f0: ab9c 1f3a 478a 45bc 20f7 34bd 23a9 cc3a
00000200: df8b 8fbc aa69 e9bc a1a0 95bb 639d 463c
00000210: 24a4 523b cba2 1bbd f0c6 ec3c ab38 8e3b
00000220: 6349 cfbc ec04 1e3d 1b26 ae3b b2e5 ac3c
00000230: ed58 f73c 3866 bcbb 1573 153d 1b90 a3bb
00000240: 97dc 0f3d e2f5 383a 5405 933c 3648 a63c
00000250: 7d97 05bd bbac 1e3d dc8f 903b 3ab0 c13c
00000260: 689f c5bc fd3d 453c 54fb 943d 4c6b a23b
00000270: a361 473d 81c4 c83d 521d 4ebb a005 203d
00000280: 5772 553d 66df 833d 8147 d339 fbc8 1bbd
00000290: 47a3 bdbc b513 fd3c 2bb5 e3bc d1aa 17bd
000002a0: 7b30 a33b 4803 a73c 1903 b9bc e608 48bc
000002b0: 51fb 083d 1630 eebc 29b7 f9bc 0f24 b4bc
000002c0: 90ca 0c3d a3c4 a5bc c078 20bd 267c 26bd
000002d0: db0a 91bc f9d7 f33c e4e4 573c 3f3e b4bc
000002e0: 6f79 46bd 38d3 13bd 07b9 9f3b cf5e 153d
000002f0: bcd2 a63c 1d6b 3dbc ded7 aa3c d3ae 05bb
00000300: faef ae3a c3ed 923c c4eb 8fbc 405a 0f3c
00000310: 6efe a4ba 26aa 1d3c 3ae5 84bc 7090 dc3c
00000320: 5e44 2fbd c233 003d 1f7f 31bd b546 04bd
00000330: 15df debc 54c1 9fba b3f6 bcbb 4d77 58bd
00000340: cf9c b23c 1c01 fa3b c93e 633d 0ebf 06bd
00000350: c828 34bd df6a 393b 7cc7 013d 7950 183d
00000360: b787 c43c 92ce 613b 7c0d 743c 43d3 fdbc
00000370: 1ecc 2fbd dcd0 1cbd bd8d 04bd bb97 423b
00000380: b8e8 143d ee34 de3c 0ca3 1abd a759 103c
00000390: c216 203d b03a 83bb 2325 6dbc a3ae 03bd
000003a0: da09 0ebc 0c83 053d be7c 9dbc eb5e 4fbc
000003b0: 0402 9e3c 694f c5bc 08e2 e5bc 5aee 5e3b
000003c0: 967c fe3c c469 af39 67ef e2bb 9eda 36bd
000003d0: 578a cb3c 9b49 41bb 1da9 ddbc fd5a 48bd
000003e0: e39e eabc 864b 24bd d119 363c 0455 243d
000003f0: 811a a8bb 9c3a 143d f9f2 a4bb a501 bfbc

conv3.bias f4 [32]
-0.019552626 -0.014832948 -0.009742826 0.034325078 0.051053792 -0.019375456 0.011360256 -0.027790336
0.0525304 0.006695443 -0.04013045 -0.021930853 0.045475096 -0.038159233 -0.019401181 0.055647846
0.0153577 0.08817833 3.2152762e-05 -0.0026880372 -0.03283 0.03444997 0.10565976 0.096193336
0.07995333 0.038937822 0.0037496171 0.094547056 -0.0071850647 0.043969 0.02315898 0.06703913
00000000: d42c a0bc e505 73bc 60a0 1fbc 7498 0c3d
00000010: c81d 513d 47b9 9ebc 5e20 3a3c 8fa8 e3bc
00000020: 1e2a 573d 7265 db3b d45f 24bd 55a8 b3bc
00000030: 1844 3a3d db4c 1cbd 3aef 9ebc ffee 633d
00000040: dd9e 7b3c d796 b43d c4db 0638 c829 30bb
00000050: c078 06bd 691b 0d3d 2564 d83d 0301 c53d
00000060: 92be a33d 447d 1f3d 23bc 753b e3a1 c13d
00000070: b170 ebbb d718 343d e7b7 bd3c d04b 893d

fc.weight f4 [32, 4608]
-0.00053262466 0.009940313 -0.010025153 -0.004644407 0.0035718381 -0.0011417615 0.012031003 -0.010630236
0.0068735783 -0.0007456923 0.015553721 0.017143428 0.020944927 -0.0039505255 0.01730442 -0.008668625
-0.007673301 0.007442118 -0.0010234206 0.0067160707 0.013492018 -0.00158311 0.0031487127 0.0020351724
0.015493948 0.010565882 0.0015587292 -0.011490374 0.0028850073 0.007389532 -0.0005024231 0.0058571193
0.0027718192 -0.006233866 -0.00827631 -0.0038978246 -0.010712457 0.00026061467 -0.0043471707 -0.01410006
0.00028927444 0.0014010438 0.0040492876 -0.0018624177 -0.0063360585 -0.0031983068 -0.011605837 -0.0013739765
0.00765953 -0.0006425379 9.2193026e-05 0.010751925 0.010054975 0.012095064 0.010378375 0.0065624695
-0.0018555715 -0.014835046 0.0011060017 0.007191041 -0.00059528166 0.0064702574 -0.0124811055 -0.0013840605
0.013013985 -0.015184483 -0.0037641088 0.0054011433 -0.015778812 -0.0061444817 -0.007385219 0.008462048
-0.0041646548 -0.0010767621 0.010606918 0.002594567 -0.0059909355 0.005969012 -0.007721383 0.011304521
-0.005968061 0.012372292 -0.0060224794 0.005737485 0.011191654 -0.0059485594 -0.0024434575 -0.008124977
0.006558263 -0.0059182355 0.01036022 -0.010655575 -0.0071019805 -0.005193407 0.009658856 0.0052940906
-0.0044411262 0.008629389 -0.013365737 -0.0026548454 0.011679182 -0.0046801427 -0.009115922 -0.0076081627
0.009691529 -0.00039641833 0.0009820799 -0.008424618 0.006021841 0.00020771773 0.01616864 0.008691741
-0.014367416 0.010207242 -0.011072236 -0.006195536 -0.00031098054 -0.014869168 -0.0023983622 -0.00645266
-0.00016389457 0.0005795248 -0.00067192427 0.0060515907 -0.0050162817 -0.00023269966 -0.0026115165 -0.008133361
-0.017106935 0.0047774357 -0.012472519 0.0051848777 0.014031643 0.016716028 -0.005928496 0.013650687
-0.008567039 -0.011815683 -0.003033789 -0.012465306 -0.016104799 -0.0027839614 0.008093908 0.008506819
0.008145497 0.01232257 0.014052795 -0.00824786 0.00784146 -0.00080223376 0.005804205 -0.017784482
0.0009435824 -0.00065171544 0.0021909457 -0.0067386986 0.0022624342 6.0676153e-05 -0.0038531662 0.010456988
-0.016228134 -0.0018569275 0.0040287296 0.00020413597 0.0067990706 -0.00019404215 0.009953935 0.009554043
-0.00659124 -0.010751032 -0.0080010705 -0.011066344 -0.014045899 9.51479e-06 -0.014156804 -0.013429739
-0.008493379 -0.01729893 -0.010493382 -0.0036840104 0.0019937882 0.005861525 0.01093802 -0.006028161
-0.012108351 -0.012763728 -0.013504474 0.0066877254 0.009878264 0.0001674499 0.0013638085 0.0030918159
0.008403096 0.0063910233 0.0072031245 0.0018602912 -0.0014728496 -0.007406704 0.0060540857 0.0012198346
0.006191308 0.010877713 0.0082203 0.0115729105 0.0083337985 -0.0059426646 -0.008056017 0.0003004429
0.006051359 -0.015488051 0.001247575 0.0037319458 -0.009914639 -0.010333587 -0.009549469 0.012355534
-0.003883815 -0.0109049445 0.00481784 -0.012602172 -0.017126536 0.0069049634 -0.002912593 -0.0019535199
0.005414145 -0.0047356314 -0.004104306 -0.0050526047 0.005130624 -0.0055306773 -0.0015866032 -0.012505905
-0.009365475 -0.015124434 0.007616036 0.009124362 0.0026405929 0.002596748 -0.009923749 0.002218835
0.005874057 0.012148196 -0.014424991 -0.011815897 -0.010511218 0.009122031 -0.002677163 0.00867179
-0.008746563 -0.005195541 -0.00068395137 -0.005735827 0.013741215 0.011431854 -0.012921862 -0.009190103
00000000: d69f 0bba b2dc 223c 8a40 24bc 1c30 98bb
00000010: 8015 6a3b 29a7 95ba af1d 453c 712a 2ebc
00000020: c13b e13b 907a 43ba 09d5 7e3c 6070 8c3c
00000030: b294 ab3c 6973 81bb 00c2 8d3c d906 0ebc
00000040: 5070 fbbb 03dd f33b 4c24 86ba 7c12 dc3b
00000050: a00d 5d3c 5b80 cfba a25a 4e3b 8760 053b
00000060: 54da 7d3c 851c 2d3c 464e cc3a 1f42 3cbc
00000070: 6412 3d3b e323 f23b 0bb5 03ba 14ed bf3b
00000080: 69a7 353b 7545 ccbb 5c99 07bc a572 7fbb
00000090: 4d83 2fbc 1ca3 8839 b672 8ebb f003 67bc
000000a0: c2a9 9739 3ba3 b73a e3af 843b 5e1c f4ba
000000b0: b69e cfbb af9a 51bb 6926 3ebc 0017 b4ba
000000c0: cbfc fa3b fd6f 28ba c157 c138 d828 303c
000000d0: 9fbd 243c 602a 463c 0f0a 2a3c fc09 d73b
000000e0: a636 f3ba b10e 73bc 42f7 903a d3a2 eb3b
000000f0: ad0c 1cba 7404 d43b 8d7d 4cbc 5d69 b5ba
00000100: 9c38 553c 56c8 78bc 44af 76bb 13fc b03b
00000110: 9142 81bc a657 c9bb b5ff f1bb 67a4 0a3c
00000120: a877 88bb 2422 8dba a3c8 2d3c 9c09 2a3b
00000130: 9c4f c4bb b497 c33b a803 fdbb 9936 393c
00000140: b98f c3bb 27b5 4a3c 3858 c5bb 8301 bc3b
00000150: 335d 373c 22ec c2bb 6a22 20bb a01e 05bc
00000160: b3e6 d63b c2ed c1bb eabd 293c b994 2ebc
00000170: bbb7 e8bb 752d aabb 2e40 1e3c 0d7a ad3b
00000180: de86 91bb 4862 0d3c f7fb 5abc eafc 2dbb
00000190: 0a5a 3f3c e25b 99bb f35a 15bc e54d f9bb
000001a0: 38c9 1e3c 5ed6 cfb9 22b9 803a 6907 0abc
000001b0: dd52 c53b cece 5939 1974 843c ce67 0e3c
000001c0: 4f65 6bbc 473c 273c 5368 35bc ec03 cbbb
000001d0: 1a0b a3b9 d09d 73bc d72d 1dbb d670 d3bb
000001e0: 1ddb 2bb9 40eb 173a 1324 30ba 6c4c c63b
000001f0: 9f5f a4bb d700 74b9 fa25 2bbb ca41 05bc
00000200: d823 8cbc 098c 9c3b 8959 4cbc e8e5 a93b
00000210: fae4 653c 0df0 883c d443 c2bb 22a7 5f3c
00000220: c45c 0cbc 9196 41bc 89d2 46bb 483b 4cbc
00000230: 36ee 83bc 1f73 36bb 509c 043c 2f60 0b3c
00000240: b174 053c 9be4 493c b23d 663c 0822 07bc
00000250: 7879 003c ff4c 52ba 3331 be3b c3b0 91bc
00000260: be5a 773a e2d7 2aba f895 0f3b 4dd0 dcbb
00000270: 5945 143b 867e 7e38 6785 7cbb c953 2b3c
00000280: ddf0 84bc 2664 f3ba 6f03 843b 550d 5639
00000290: bdca de3b cb77 4bb9 d415 233c 9088 1c3c
000002a0: 54fb d7bb 1925 30bc ec16 03bc 9c4f 35bc
000002b0: c520 66bc b6a1 1f37 f1f1 67bc 6808 5cbc
000002c0: d027 0bbc 7cb6 8dbc 6fec 2bbc 706f 71bb
000002d0: 37aa 023b 0912 c03b 6235 333c e187 c5bb
000002e0: 1b62 46bc f51e 51bc df41 5dbc b524 db3b
000002f0: 71d8 213c 7e95 2f39 d2c1 b23a 10a0 4a3b
00000300: 24ad 093c ca6b d13b 3008 ec3b 04d5 f33a
00000310: a20c c1ba f0b3 f2bb 5a61 c63b dbe2 9f3a
00000320: 75e0 ca3b 6f38 323c 70ae 063c 4e9c 3d3c
00000330: 7c8a 083c afba c2bb 62fd 03bc c384 9d39
00000340: 7b4a c63b 98c1 7dbc ac85 a33a a993 743b
00000350: 0371 22bc 354e 29bc 6075 1cbc de6e 4a3c
00000360: 9a87 7ebb a7aa 32bc f9de 9d3b 5779 4ebc
00000370: f34c 8cbc 0843 e23b 34e1 3ebb a006 00bb
00000380: 2469 b13b 5b2d 9bbb 6a7d 86bb 5290 a5bb
00000390: cb1e a83b af3a b5bb 92f5 cfba 91e5 4cbc
000003a0: a671 19bc 79cc 77bc f18f f93b 597e 153c
000003b0: cc0d 2d3b 342e 2a3b 3897 22bc e069 113b
000003c0: 297b c03b 3a09 473c cc56 6cbc 7797 41bc
000003d0: 3e37 2cbc 9274 153c 5873 2fbb 2014 0e3c
000003e0: bf4d 0fbc 5b3f aabb 334b 33ba 9bf3 bbbb
000003f0: d522 613c ac4c 3b3c 38b6 53bc 1692 16bc

fc.bias f4 [32]
-0.0030386029 0.017304294 -0.0087916255 -0.0015392511 0.012987766 -0.0007278914 -0.011264609 0.013383855
-0.007481065 -0.030950872 -0.0031636814 0.01067486 -0.0036550688 0.020819651 -0.015690828 0.014536061
0.030311622 -0.004452412 0.014324322 0.012041787 0.005802956 0.019070623 0.0018020695 0.05534571
0.04922734 0.008566268 0.011149005 0.0015887112 0.01661476 0.01895574 0.007046756 0.018103547
00000000: 4c23 47bb bcc1 8d3c c00a 10bc b2c0 c9ba
00000010: a4ca 543c f7cf 3eba 328f 38bc f547 5b3c
00000020: b923 f5bb af8c fdbc c455 4fbb 9ce5 2e3c
00000030: e189 6fbb f98d aa3c 0d8a 80bc a928 6e3c
00000040: 1450 f83c 8ae5 91bb 90b0 6a3c ea4a 453c
00000050: b926 be3b ff39 9c3c 6b33 ec3a 2fb2 623d
00000060: 9ba2 493d 8859 0c3c 51aa 363c 4d3c d03a
00000070: ad1b 883c 1149 9b3c 79e8 e63b e44d 943c

translation.weight f4 [2, 32]
-0.004827929 -0.0046987818 -0.0055702208 -0.004570344 -0.0045047146 0.0029521494 -0.0066810236 -0.0045457617
-0.004939896 0.0058986642 -0.004678543 -0.0047573107 -0.0047314763 -0.0046608457 -0.002542819 -0.00369585
-3.473144e-05 -0.004783473 -0.0049445755 -0.0045777545 0.007888583 0.00044905944 -0.0045910785 -0.018699646
-0.02543594 -0.0047906125 -0.0061631417 -0.0054707387 -0.0047787037 -0.0046436894 -0.0050130584 -0.0045857527
0.0014072076 0.0016437677 -0.0047887582 0.0011783269 0.0015803216 -0.0008402185 0.0009324057 0.001507044
0.00091966713 -0.006216945 -0.001342961 0.0019905358 0.0014407418 0.0021461516 0.004453478 0.002151123
0.010478823 0.001756562 0.0006804812 0.0013062292 0.0012568219 -0.0070294305 0.0017828415 -0.020786569
0.008572366 0.0009981963 0.00017267825 -0.00017885615 0.0006961744 0.0019990578 0.00061639503 0.00127389
00000000: 9b33 9ebb 3df8 99bb 6686 b6bb d3c2 95bb
00000010: 499c 93bb d978 413b 7dec dabb 9df4 94bb
00000020: dade a1bb 9549 c13b 774e 99bb 37e3 9bbb
00000030: 800a 9bbb 02ba 98bb 6ca5 26bb 1336 72bb
00000040: 9aac 11b8 aebe 9cbb 1b06 a2bb fd00 96bb
00000050: 1d3f 013c bd6f eb39 c270 96bb 0030 99bc
00000060: 085f d0bc 92fa 9cbb 2ef4 c9bb e243 b3bb
00000070: ac96 9cbb 172a 98bb 9544 a4bb 1544 96bb
00000080: 0d72 b83a b173 d73a 04eb 9cbb 1772 9a3a
00000090: cb22 cf3a 1c42 5cba b06c 743a 0188 c53a
000000a0: d115 713a 84b7 cbbb 4b06 b0ba a673 023b
000000b0: 46d7 bc3a 73a6 0c3b 7bee 913b dbf9 0c3b
000000c0: 5faf 2b3c 713c e63a 5262 323a c735 ab3a
000000d0: f2bb a43a 2357 e6bb 3cae e93a 9848 aabc
000000e0: 1c73 0c3c e9d5 823a f710 3539 558b 3bb9
000000f0: 797f 363a a002 033b 9295 213a a8f8 a63a

translation.bias f4 [2]
-0.056818157 0.0494631
00000000: 28ba 68bd d299 4a3d

rotation.weight f4 [1, 32]
0.0020626031 0.002236365 -0.0053436933 0.0021577212 0.002555198 -0.0008350757 0.0011409487 0.0023785317
0.001920354 0.00039146154 0.00023463374 0.0026778788 0.0022521515 0.0027785518 0.00090876676 0.0028723613
0.019528382 0.0023884757 0.0017763423 0.0022299513 0.0058884583 0.014210245 0.00249991 -0.019259831
-0.008264865 0.0018755081 0.0011399594 0.0013378342 0.0018563719 0.00265833 0.0017465126 0.0022495382
00000000: bd2c 073b fb8f 123b 261a afbb 8e68 0d3b
00000010: 1c75 273b fbe8 5aba e38b 953a 24e1 1b3b
00000020: 63b4 fb3a 143d cd39 0408 7639 5a7f 2f3b
00000030: d598 133b 5d18 363b 4e3a 6e3a 3a3e 3c3b
00000040: fcf9 9f3c f987 1c3b 28d4 e83a 6024 123b
00000050: f8f3 c03b 16d2 683c 88d5 233b cbc6 9dbc
00000060: 5b69 07bc 9cd3 f53a b16a 953a 445a af3a
00000070: 8151 f33a 6037 2e3b 3deb e43a fd6c 133b

scaling.weight f4 [2, 32]
0.007446618 0.006802689 0.0032930782 0.007947607 0.0068270583 0.002672763 0.005889097 0.0070472956
0.008600905 0.03427083 0.005297153 0.006269953 0.0072501055 0.006007089 0.002577155 0.0042283754
-0.016665097 0.0067264275 0.0090764575 0.0073789614 0.002985397 0.0135458 0.0067833625 -0.012901192
-0.006073342 0.008665964 0.009300922 0.010129273 0.008999402 0.0062854784 0.009329676 0.007603335
0.0077124867 0.0071392967 -0.007890272 0.008138198 0.0071413466 0.0026727142 0.006194597 0.0073518306
0.008769747 0.0043105073 0.0054100356 0.006511532 0.007536848 0.0064247525 0.002577278 0.004735274
-0.0049009435 0.0070647267 0.009210885 0.007662888 0.007900674 0.016634094 0.0071500214 -0.010574394
0.005597334 0.008773601 0.009334475 0.010143816 0.009139171 0.006704375 0.009460693 0.007858415
00000000: c202 f43b 17e9 de3b afd0 573b ae36 023c
00000010: 84b5 df3b 8629 2f3b 54f9 c03b 00ed e63b
00000020: cfea 0c3c 925f 0c3d bd93 ad3b 2e74 cd3b
00000030: 4b92 ed3b 1dd7 c43b 7ce5 283b 2f8e 8a3b
00000040: 3e85 88bc 5d69 dc3b 6cb5 143c 37cb f13b
00000050: a6a6 433b 34ef 5d3c f846 de3b 855f 53bc
00000060: e302 c7bb b0fb 0d3c e562 183c 40f5 253c
00000070: 3a72 133c 6af6 cd3b 7fdb 183c 6625 f93b
00000080: 07b9 fc3b c3f0 e93b 3346 01bc 1456 053c
00000090: f501 ea3b b428 2f3b 0cfc ca3b a0e7 f03b
000000a0: fcae 0f3c 283f 8d3b ab46 b13b b05e d53b
000000b0: aaf7 f63b bb86 d23b 8de7 283b 5b2a 9b3b
000000c0: 1898 a0bb 397f e73b 40e9 163c f718 fb3b
000000d0: d471 013c 3944 883c ba4a ea3b 3940 2dbc
000000e0: d769 b73b 26bf 0f3c a0ef 183c 3f32 263c
000000f0: 76bc 153c 60b0 db3b 0601 1b3c 95c0 003c

scaling.bias f4 [2]
9.218344e-05 0.0019234885
00000000: 9c52 c138 901d fc3a

shearing.weight f4 [1, 32]
-0.002369974 -0.002621038 0.007452198 -0.0022225368 -0.0030681728 0.00016138787 -0.003930165 -0.0027673214
-0.001640431 0.042048104 -0.0016800473 0.0034374879 -0.0024878248 -0.0033398985 0.0010872651 0.0033729882
0.030023817 -0.0028436359 -0.0012352212 -0.0025187102 0.0067014415 0.06419002 -0.0030500554 0.10596582
0.13294603 -0.0015041783 6.675103e-05 0.00023927414 -0.0013619328 -0.003351442 -0.00095833454 -0.002506159
00000000: 9151 1bbb b8c5 2bbb 9131 f43b fba7 11bb
00000010: 6613 49bb 3a3a 2939 9dc8 80bb f35b 35bb
00000020: bb03 d7ba a23a 2c3d 0835 dcba 7a47 613b
00000030: c60a 23bb 33e2 5abb 9082 8e3a 5a0d 5d3b
00000040: 82f4 f53c 4b5c 3abb 25e7 a1ba f210 25bb
00000050: c497 db3b 0f76 833d 70e3 47bb 9c04 d93d
00000060: 0123 083e d927 c5ba b0fc 8b38 aae5 7a39
00000070: e282 b2ba dea3 5bbb be38 7bba 5f3e 24bb
