output/Mess6060_i/train/model/stn_290.pt (torch_old, 658934 bytes, 14 tensors)

conv1.weight f4 [8, 2, 5, 5]
0	0x3dde0dc4	0.10842469
1	0x3dd17568	0.102274716
2	0xbdb222c1	-0.08698035
3	0xbe0659aa	-0.13120142
4	0x3dc9bf0a	0.09850891
5	0xbe07ff3e	-0.13280961
6	0x3da9b167	0.0828579
7	0xbe1659dd	-0.14682718
8	0xbda7949d	-0.081826426
9	0xbd919563	-0.071085714
10	0x3e00eb19	0.12589683
11	0xbcffd005	-0.031227121
12	0x3de8e477	0.11371701
13	0x3d01d460	0.031696677
14	0x3e01caca	0.12675014
15	0x3db22976	0.08699314
16	0x3dc6c231	0.09705008
17	0x3dec42e5	0.115361966
18	0xbd4c3d03	-0.049862873
19	0xbd44ab49	-0.048014913
20	0x3d1f4889	0.038887534
21	0x3def9364	0.116980344
22	0xbd751d48	-0.059842378
23	0xbdf3c30c	-0.119024366
24	0xbdf3ca32	-0.119038
25	0xbdbe3d02	-0.0928898
26	0xbbc40670	-0.0059822127
27	0xbd37faf0	-0.044917047
28	0xbd889e65	-0.06670836
29	0xbdc50789	-0.09620578
30	0x3c41f80a	0.011838922
31	0xbe11cd1d	-0.14238401
32	0x3de4b5af	0.11167466
33	0xbd4bb503	-0.049733173
34	0xbb0a9541	-0.0021146091
35	0x3cc1520a	0.02359869
36	0xbda1897d	-0.07887552
37	0x3db163d2	0.08661617
38	0xbcdd3d89	-0.027006881
39	0xbc782cb7	-0.01514738
40	0xbe1ec433	-0.15504532
41	0xbb891cb8	-0.0041843317
42	0x3cd6ed57	0.02623622
43	0xbb4676ee	-0.003028329
44	0xbd1ae705	-0.037817974
45	0x3db3fe07	0.08788686
46	0x3dbafc28	0.09130126
47	0x3d9c8ea3	0.07644393
48	0xbd3d54a7	-0.04622331
49	0x3b1bc5d4	0.0023769038
50	0xbde287ac	-0.110610336
51	0xbdea6cd7	-0.11446541
52	0xbce9d1cf	-0.028542427
53	0x3c6b5ffa	0.014366144
54	0xbdab7be8	-0.083732426
55	0xbe04d93c	-0.12973493
56	0x3d617f93	0.055053305
57	0x3d475f2b	0.048674744
58	0xbdc1c982	-0.09462263
59	0x3dc0a51d	0.09406493
60	0xbdecd623	-0.11564281
61	0x3dcbbca6	0.09948091
62	0x3d983183	0.074313186
63	0xbd3e78d2	-0.046501942
64	0x3e0c6f4a	0.13714328
65	0xbdb1678e	-0.086623296
66	0xbd8e5706	-0.06950192
67	0x3dea0af2	0.11427869
68	0xbd07fa8b	-0.03319792
69	0xbd551f99	-0.052032087
70	0x3c8be6c2	0.017077807
71	0xbcd18587	-0.025576366
72	0x3dbd7208	0.09250265
73	0x3df78a84	0.12086967
74	0x3d8f3a94	0.06993595
75	0x3c032086	0.00800336
76	0x3c6ef460	0.014584631
77	0xbc91474a	-0.017734189
78	0xbb1872ce	-0.0023261788
79	0xbc800ded	-0.01563164
80	0x3d98fde0	0.07470298
81	0x3d6bf8a0	0.057610154
82	0xbd0d94fa	-0.034565903
83	0x3d068945	0.032845754
84	0xbc42e8dc	-0.011896338
85	0x3ce7e2c0	0.028306365
86	0x3dc31866	0.09526138
87	0xbdefe59c	-0.117137164
88	0x38312656	4.223579e-05
89	0xbd4aa072	-0.04946942
90	0xbe22592a	-0.15854326
91	0xbe21ad10	-0.15788674
92	0xbd16ff52	-0.036864586
93	0x3da910ae	0.082551345
94	0xbde26042	-0.11053516
95	0x3ce59dde	0.028029379
96	0x3d83c4a0	0.064339876
97	0xbdf59e23	-0.11993053
98	0x3d39f4dc	0.04539953
99	0x3c4c0af0	0.01245378
100	0xbe35041a	-0.17677346
101	0xbd09791d	-0.03356277
102	0xbe167512	-0.14693096
103	0x3e00949e	0.12556693
104	0x3da4c6af	0.080457084
105	0x3c231ed3	0.00995608
106	0x3da35584	0.07975295
107	0x3dc2ae5c	0.09505913
108	0x3e1344e4	0.14381748
109	0x3d969fec	0.073547214
110	0xbe131e45	-0.14367016
111	0x3dd2abd3	0.10286679
112	0x3cd12947	0.025532378
113	0xbd5a038a	-0.05322603
114	0xbd1e0de5	-0.03858747
115	0x3dbacc97	0.09121054
116	0x3b36f486	0.0027916743
117	0x3db296c5	0.08720163
118	0x3c306cb8	0.010768108
119	0x3e109194	0.14118034
120	0xbe153f09	-0.14574827
121	0x3b075abd	0.002065345
122	0x3c66d8e0	0.014089793
123	0xbc03d18a	-0.0080455635
124	0x3e054738	0.13015449
125	0xbcf64ffa	-0.030067433
126	0xbd1216e8	-0.035666376
127	0x3d8d50d7	0.069001846
128	0xbcb60c16	-0.02222256
129	0xbc16a3b8	-0.009194307
130	0xbe2ca624	-0.16860253
131	0xbd244ec6	-0.040114187
132	0xbdb9ef58	-0.09078854
133	0x3d922acb	0.07137068
134	0x3dfae5c1	0.12250853
135	0xbe376077	-0.17907892
136	0xbdf0820e	-0.11743556
137	0x3de5c6ee	0.112195835
138	0xbd91a71a	-0.0711195
139	0x3dfca099	0.12335319
140	0x3dc266c2	0.09492256
141	0xbd8e7810	-0.06956494
142	0xbe0cbc85	-0.1374379
143	0x3d6fa5ab	0.058507603
144	0x3d726d62	0.059186347
145	0x3da3d2d4	0.07999197
146	0xbc6ee027	-0.014579809
147	0x3d54a886	0.05191853
148	0xbe0be352	-0.13660935
149	0x3c2369f8	0.009973995
150	0x3d03d5d2	0.032186337
151	0x3dad1102	0.084505096
152	0xbdaa941e	-0.08329032
153	0xbcd9154e	-0.026499417
154	0xbdc3c6a8	-0.09559375
155	0xbdbdae99	-0.092618175
156	0x3d6f94e9	0.05849162
157	0x3c8da7c2	0.017291907
158	0x3d4a9859	0.049461696
159	0xbc4af275	-0.012386908
160	0x3b7cf21f	0.0038596464
161	0xbb272856	-0.002550622
162	0x3d9c84e7	0.076425366
163	0xbdd2a70b	-0.10285767
164	0x3cce9a96	0.025220197
165	0x3db0f32c	0.08640131
166	0x3db4a7ef	0.08821093
167	0xbd86066e	-0.06544195
168	0x3dde634f	0.10858785
169	0xbdc8fed1	-0.09814227
170	0x3dacf814	0.08445755
171	0x3dfbb7e7	0.12290936
172	0x3c15b999	0.009138488
173	0x3d35234a	0.044223107
174	0xbe0a3b68	-0.13499224
175	0xbd8d8ab8	-0.06911224
176	0xbd8f346b	-0.0699242
177	0xbe1b082b	-0.15139835
178	0xbd5b18ae	-0.053490333
179	0x3d8f9629	0.07011063
180	0xbcc13576	-0.023585062
181	0x3e02ca9b	0.127726
182	0xbe13d423	-0.14436392
183	0x3d0dbec8	0.03460577
184	0x3dc2ede3	0.095180295
185	0x3e05ed15	0.13078721
186	0xbd8107d7	-0.063003235
187	0xbe10857f	-0.14113425
188	0xbd916f9e	-0.071013674
189	0x3da49781	0.080367096
190	0x3c2863b2	0.010277675
191	0x3e051336	0.1299561
192	0xbde839e3	-0.11339166
193	0xbdd6074e	-0.10450612
194	0x3d4ecd2e	0.050488643
195	0x3d4fd0e2	0.050736316
196	0xbdbd28aa	-0.09236272
197	0x3dfd3f7c	0.12365624
198	0xbd88f6cc	-0.06687698
199	0xbe0abca6	-0.13548526
200	0x3d6a2302	0.057162292
201	0xbd8179ce	-0.063220605
202	0xbd5b5893	-0.053551268
203	0xbd89d3ee	-0.067298755
204	0x3d441356	0.047870003
205	0x3daf9325	0.085729875
206	0x3de70c3b	0.1128163
207	0xbd84dc12	-0.064872876
208	0xbc9f1920	-0.01942116
209	0x3e128007	0.14306651
210	0xbd54c225	-0.051942963
211	0xbd05639e	-0.032565705
212	0xbc3571f0	-0.011074528
213	0xbde2c4eb	-0.11072715
214	0xbdbb9a22	-0.09160258
215	0x3e16cb33	0.14725952
216	0x3d3d1cb3	0.046169948
217	0x3d3490e7	0.044083502
218	0x3d94055c	0.07227585
219	0x3dce6a15	0.10078827
220	0x3dee7821	0.116440065
221	0x3df9865a	0.12183829
222	0x3d9bac68	0.07601243
223	0x3dfec778	0.124403894
224	0x3ddf130b	0.10892304
225	0xbd1830ad	-0.037155796
226	0xbbc1a8a2	-0.005909995
227	0xbdc82144	-0.0977197
228	0xbe0b45f2	-0.13600901
229	0x3dcd00f2	0.10009946
230	0xbdf33a2e	-0.11876331
231	0xbdd9aea1	-0.10629011
232	0xbe22ec01	-0.15910341
233	0xbe0bb597	-0.1364349
234	0xba068919	-0.00051321235
235	0x3d65cf54	0.056105927
236	0xbe0a2966	-0.13492355
237	0xbc1c08a1	-0.009523542
238	0xbe04ab47	-0.12955962
239	0xba805927	-0.0009792194
240	0x3d9aab1f	0.0755217
241	0xbd8985cc	-0.06714973
242	0xbda1fdca	-0.079097345
243	0x3d942af6	0.07234757
244	0xbde83804	-0.11338809
245	0xbd0a946a	-0.033832945
246	0xbe013cb7	-0.12620817
247	0x3db31962	0.08745076
248	0x3d0018bb	0.031273585
249	0xbd91c9ba	-0.071185544
250	0x3dd1393d	0.102159955
251	0x3e07db73	0.13267307
252	0x3d5d3bd0	0.05401212
253	0xbdda1559	-0.10648603
254	0xbd1f0789	-0.038825545
255	0x3dec46f0	0.11536968

conv1.bias f4 [8]
0	0x3d9ac14f	0.07556402
1	0xbc04d671	-0.008107767
2	0xbdc06083	-0.09393408
3	0xb9e0d6cc	-0.00042884646
4	0xbd63751b	-0.055531602
5	0x3e08fc2d	0.13377447
6	0x3daf3930	0.085558295
7	0xbd9dbd4b	-0.077021204

conv2.weight f4 [16, 8, 5, 5]
0	0xbd8f4808	-0.06996161
1	0xbd8be9e5	-0.06831721
2	0xbc5e17f1	-0.013555513
3	0xbb0d34f3	-0.0021546453
4	0xbd45a689	-0.048254523
5	0x3d140425	0.036136765
6	0x3b16a938	0.0022989046
7	0xbd19a2d3	-0.037508797
8	0xbd8f7633	-0.070049666
9	0x3d5adc61	0.053432826
10	0x3d82e657	0.0639159
11	0x3af201ed	0.0018463709
12	0xbd17c001	-0.037048344
13	0x3d2babf0	0.04191202
14	0x3d1f430d	0.038882304
15	0xbc92f3cc	-0.017938517
16	0x3d761db7	0.060086932
17	0xbd67b4ea	-0.056569017
18	0xbc49341f	-0.012280493
19	0x3d644346	0.05572822
20	0xbd5444c1	-0.05182338
21	0xbceecd0c	-0.029150508
22	0xbd149e93	-0.03628404
23	0xbd0ff9ec	-0.035150453
24	0x3d651c21	0.05593503
25	0x3d24ceb6	0.040236197
26	0xbd8a6c1c	-0.067589015
27	0xbd3f13de	-0.046649806
28	0xbb9fef45	-0.004880818
29	0xbcdd8f63	-0.027045911
30	0xbd2ef837	-0.042717185
31	0xbd977f61	-0.073973425
32	0x3d42567e	0.047445767
33	0x3d0c9546	0.034322046
34	0x3c755672	0.014974223
35	0xbca1dbd0	-0.019758135
36	0xbd961272	-0.07327737
37	0xbc22d886	-0.0099393185
38	0x3caa6771	0.020801278
39	0xbcde65e2	-0.02714819
40	0x3d55bd6f	0.05218261
41	0x3c3b908f	0.01144804
42	0xbc1d02e6	-0.009583211
43	0x3cae2ca1	0.021261515
44	0x3cf16b51	0.029470118
45	0xbd66c01b	-0.05633555
46	0x3c7f9e4b	0.015601705
47	0xbd91abb8	-0.07112831
48	0xbcb67d17	-0.022276444
49	0xbcfb16c2	-0.0306505
50	0x3d36795a	0.044549324
51	0xbd9657cf	-0.07340967
52	0x3ccb2ad9	0.024800705
53	0xbd7540a0	-0.059876084
54	0x3d15536b	0.036456507
55	0x3c11ac30	0.00889115
56	0xbd0883ee	-0.033328943
57	0x3ca64af5	0.020299414
58	0x3d941994	0.07231441
59	0x3d4c7c95	0.0499235
60	0xbd93b869	-0.07212908
61	0xbcc34d75	-0.023840645
62	0x3d7e00fd	0.06201266
63	0x3c602c24	0.013682399
64	0x3c67c67e	0.014146445
65	0xba833595	-0.0010010476
66	0xbcf2ada8	-0.029623821
67	0xbcac6f83	-0.021049267
68	0x3bad78b0	0.005293928
69	0x3d670737	0.056403365
70	0xbcc07c70	-0.023496836
71	0xbcb38629	-0.021914558
72	0x3c249107	0.010044343
73	0xbce340f4	-0.027740933
74	0x3d7c71b2	0.061631866
75	0x3d3c1c40	0.04592538
76	0xbb571bda	-0.0032822997
77	0xbd4cfe79	-0.05004737
78	0x3c7d18b0	0.0154477805
79	0x3d689ed8	0.05679211
80	0x3c4aa348	0.012368031
81	0x3ca82454	0.020525135
82	0xbd345f20	-0.04403603
83	0xbd9abba6	-0.07555322
84	0xbcfdde6a	-0.030989844
85	0xbc4d1d64	-0.012519214
86	0x3d4b5e78	0.04965064
87	0x3b8e61e4	0.0043451656
88	0xbcaf9cad	-0.021437014
89	0xbccd6d5a	-0.025076557
90	0xbcf4ed2a	-0.029898245
91	0xbd5c504b	-0.05378751
92	0xbd2ee158	-0.042695373
93	0x3aef4402	0.0018254521
94	0x3d1934e4	0.037403956
95	0x3d3833c7	0.044971254
96	0x3c351e26	0.011054551
97	0xbd832265	-0.064030446
98	0x3d546869	0.051857386
99	0x3d60fc93	0.054928374
100	0x3c9de5cb	0.019274613
101	0x3d3d70d1	0.04625017
102	0x3de4a225	0.11163739
103	0x3cc4ea57	0.024037523
104	0x3da776e8	0.081769764
105	0x3d30f9b3	0.04320688
106	0x3d9c9c83	0.0764704
107	0x3d8b9ba0	0.068167925
108	0x3defa5fa	0.117015794
109	0x3dddee3d	0.10836456
110	0xbcf3c5ac	-0.029757343
111	0x3d8a8067	0.06762772
112	0x3c9b8cc2	0.018988017
113	0x3a8faa20	0.0010960735
114	0x3d5bf3c9	0.05369929
115	0x39f5939f	0.00046840028
116	0xbd0263cb	-0.03183345
117	0xbd2a552d	-0.041585136
118	0xbc587210	-0.013210788
119	0x3d20562e	0.039144687
120	0x3d524e4b	0.051344197
121	0x3d49cfbe	0.049270384
122	0x3cf82e8b	0.03029563
123	0x3daa02de	0.08301328
124	0xbd1d7ed0	-0.038451016
125	0xbd35fa62	-0.044428237
126	0x3cf64023	0.03005988
127	0xbd805ff1	-0.06268299
128	0x3d9098df	0.07060408
129	0x3c730b00	0.014834166
130	0xbcdaa58e	-0.02669027
131	0x3d7cb1ce	0.061693005
132	0x3d08f98b	0.033441108
133	0x3d80125c	0.06253502
134	0x3d6e409b	0.05816708
135	0xbc605b81	-0.013693691
136	0x3d7e6856	0.06211122
137	0x3c00b820	0.007856399
138	0x3be630dd	0.007024868
139	0x3cdbf9d6	0.02685253
140	0xbd775f01	-0.060393337
141	0xbd44cc1e	-0.048046224
142	0x3d788901	0.060677532
143	0xbd560e45	-0.052259702
144	0x3d0ce7cd	0.03440075
145	0x3d0da98c	0.03458552
146	0xbd87f53b	-0.06638571
147	0xbc94e540	-0.018175721
148	0xbc3f34fe	-0.011670349
149	0x3d325df8	0.043546647
150	0xbc987c2d	-0.0186139
151	0x3d838488	0.06421763
152	0xbd6de352	-0.058078118
153	0x3cfc6570	0.030810088
154	0x3d28fafa	0.041254975
155	0xbcc8f56f	-0.024531094
156	0xbcb9cbdf	-0.022680221
157	0xbd34abd9	-0.0441092
158	0x3c9af32a	0.018914778
159	0x3ccb3e87	0.024810089
160	0xbcb9ca41	-0.02267945
161	0x3d71bf7f	0.059020516
162	0xbc2b7609	-0.0104651535
163	0xbc46a80a	-0.012125025
164	0x3d5bb19c	0.05363618
165	0x3c5f0860	0.013612837
166	0x3d1dc671	0.038519327
167	0x3d1ecf10	0.03877169
168	0xbd4e122e	-0.050310306
169	0xbbac4a28	-0.0052578636
170	0x3d7e788a	0.062126674
171	0xbd3957aa	-0.04524962
172	0x3b0b0642	0.0021213447
173	0x3d3406c9	0.043951783
174	0x399eed1d	0.00030312772
175	0xbb2c8436	-0.002632392
176	0x3d1d2dee	0.03837388
177	0xbd2cfcad	-0.042233158
178	0x3d9e2709	0.07722289
179	0x3d9a9aff	0.075490944
180	0xbc05ac71	-0.008158789
181	0xbc610037	-0.013732961
182	0x3aaf7e96	0.0013389166
183	0x3db62deb	0.08895477
184	0xbbf76027	-0.007549304
185	0x3d080ccf	0.03321534
186	0xbd64bcca	-0.055844106
187	0x3d063100	0.032761574
188	0x3d66e633	0.05637188
189	0x3d182219	0.037141893
190	0x3afbaf88	0.0019202093
191	0x3c244155	0.010025342
192	0x3d83b071	0.06430138
193	0x3d0b8fcf	0.034072693
194	0xbc47adc7	-0.012187428
195	0xbd68c6ce	-0.05683022
196	0x3d491803	0.049095165
197	0xbd0278fd	-0.031853665
198	0x3d18045d	0.037113536
199	0xbcab7d91	-0.020933898
200	0x3c782340	0.015145123
201	0xbd2a976c	-0.041648313
202	0xbc873c7e	-0.016508337
203	0x3c53318d	0.012890232
204	0xbd82f1e1	-0.06393791
205	0xb9175899	-0.00014433487
206	0x3d6a02ca	0.057131566
207	0x3d82265d	0.063549735
208	0x3d849887	0.06474405
209	0xbc33853d	-0.010957059
210	0x3c45281b	0.012033488
211	0xbd3fe7ad	-0.046851803
212	0x3d3cfbe7	0.04613867
213	0x3cbc550a	0.022989769
214	0x3d91b8f5	0.07115356
215	0xbc2aa187	-0.010414488
216	0x3d901d13	0.070367955
217	0x3d2a4e4a	0.04157857
218	0x3d89cf1b	0.06728955
219	0x3b9fa21c	0.00487162
220	0xbd743a54	-0.05962594
221	0xbd6d53c8	-0.05794123
222	0xbd8a7ad8	-0.06761712
223	0x3c28ad39	0.010295206
224	0xbd5c607a	-0.053802945
225	0xba0914ee	-0.0005229254
226	0x3d5b2bfa	0.053508736
227	0x3da6b477	0.0813989
228	0xbb03a622	-0.0020088037
229	0x3d7bc929	0.06147114
230	0x3bc246fb	0.0059288717
231	0xbb7b5b18	-0.0038353857
232	0xbb63e048	-0.0034771133
233	0xbce62227	-0.028092457
234	0x3c9c7710	0.019099742
235	0x3bedc2c8	0.0072558858
236	0xbce14c92	-0.027502332
237	0x3d458ebb	0.04823182
238	0xbcef1490	-0.02918461
239	0xbd4e3759	-0.050345752
240	0x3cfe7a5e	0.031064209
241	0x3880be1a	6.138925e-05
242	0xbd1d1962	-0.038354285
243	0xbd74d1ab	-0.059770267
244	0xbd000a03	-0.031259548
245	0xbd402a3c	-0.046915278
246	0x3d23fd2e	0.040036373
247	0xbc744dd1	-0.014911131
248	0x3ce6790c	0.028133892
249	0x3cb5dbfc	0.022199623
250	0x3b9620ac	0.0045815315
251	0xbc75a2e8	-0.014992453
252	0xbd2ce248	-0.042207986
253	0x3c063ba2	0.0081929285
254	0xbd8aeebb	-0.067838155
255	0xbd05b84a	-0.032646455

conv2.bias f4 [16]
0	0xbcf0310d	-0.029320264
1	0x3c838e12	0.016058955
2	0x3db9fcb1	0.090814
3	0x3e09ec93	0.13469152
4	0x3c9e3510	0.019312412
5	0xbd1c5fcb	-0.038177293
6	0xbd90939e	-0.07059406
7	0xbd39fd56	-0.045407616
8	0x3d40f1fa	0.047105767
9	0xbcef8b99	-0.02924137
10	0x3d23598e	0.039880328
11	0xbd0c25ff	-0.034215923
12	0xbd2d3941	-0.04229093
13	0x3c0c8fb3	0.008579182
14	0xbb45d256	-0.0030185184
15	0x3dc2f188	0.09518725

conv3.weight f4 [32, 16, 5, 5]
0	0xbc0e89eb	-0.008699874
1	0xbd52dc41	-0.05147958
2	0xbca62326	-0.020280432
3	0xbc20b828	-0.009809531
4	0xbd81c592	-0.06336512
5	0x3cc72d59	0.024313616
6	0xbd0de573	-0.034642648
7	0x3d27778b	0.04088549
8	0x3d4a342c	0.04936616
9	0xbc435fb2	-0.011924671
10	0xbc9f45b1	-0.019442411
11	0x3d3323a0	0.043735147
12	0xbc6450a8	-0.013935246
13	0x3cad5cb0	0.02116236
14	0x3c9a0856	0.018802803
15	0x3d2d64c0	0.04233241
16	0xbacf8c6b	-0.0015834694
17	0x3b8fc104	0.004387023
18	0x3c31001e	0.010803251
19	0xbd441763	-0.047873866
20	0xbc68ce0e	-0.0142092835
21	0xbd82e078	-0.0639047
22	0xb9fe9794	-0.0004855959
23	0xbbfa96a6	-0.007647353
24	0x3d10b592	0.03532941
25	0xbe03e247	-0.12879287
26	0xbcad42f3	-0.021150088
27	0xbd237219	-0.039903734
28	0xbc9611d3	-0.018319046
29	0xbd60f115	-0.054917414
30	0x3d2f33c6	0.042773984
31	0x3c652631	0.013986156
32	0xbd164ce6	-0.03669443
33	0x3c051840	0.008123457
34	0xbc17444a	-0.00923259
35	0x3caaacdd	0.02083438
36	0x3dd45f28	0.10369712
37	0x3dbc484b	0.09193476
38	0x3d6bd048	0.05757168
39	0x3dab8e2a	0.08376725
40	0x3d910029	0.07080109
41	0x3d40cd62	0.04707087
42	0x3d50ca7e	0.05097436
43	0x3d47edb8	0.04881069
44	0xbbc20497	-0.0059209573
45	0x3c14f859	0.009092414
46	0xbddb6e77	-0.10714429
47	0xbda7e6ef	-0.08198344
48	0xbd5f8b00	-0.05457592
49	0xbe036e4e	-0.12835047
50	0xbd6d3263	-0.05790938
51	0xbd62e221	-0.055391435
52	0xbb5ccd3b	-0.0033691663
53	0xbc8a2cad	-0.016867006
54	0xbd934edd	-0.07192776
55	0x3cef8a32	0.029240701
56	0xbce06738	-0.027392969
57	0xbc350dec	-0.0110506825
58	0x3c0ce168	0.008598663
59	0xbd84d92a	-0.06486733
60	0x3b089b09	0.0020844361
61	0x3b8c289f	0.0042773033
62	0x3c36f354	0.011166412
63	0xbc2fad12	-0.0107224155
64	0x3c6af096	0.014339587
65	0xbd0cac44	-0.034343973
66	0xbce936b3	-0.028468465
67	0x3d07b21b	0.03312884
68	0x3b443109	0.0029936454
69	0xbcca2a67	-0.024678422
70	0xbcdc7bce	-0.026914503
71	0x3c9aa11f	0.018875657
72	0xbd34d873	-0.044151735
73	0xbdb94a91	-0.090474255
74	0xbdc413ac	-0.095740646
75	0x3cb7abf4	0.02242086
76	0x3d456508	0.048192054
77	0x3d3e4c03	0.04645921
78	0x3c8fc5a9	0.017550306
79	0x3d1cafa7	0.038253453
80	0x3ce7f359	0.02831428
81	0x3dc85741	0.09782267
82	0x3d93408a	0.07190044
83	0x3cdba6ff	0.026813028
84	0x3b93fda8	0.004516322
85	0x3d394782	0.04523421
86	0xbbaf2c2f	-0.0053458433
87	0x3c99a158	0.018753693
88	0xbdce3e1e	-0.10070442
89	0xbdaeb5d6	-0.08530776
90	0xbc9d02fb	-0.01916646
91	0xbc920ea9	-0.017829256
92	0xbd57b4f4	-0.052662805
93	0xb9bc29b8	-0.00035889237
94	0xbc04575b	-0.008077468
95	0xbd80c619	-0.06287784
96	0xbda9a189	-0.082827635
97	0x3c80401d	0.015655572
98	0xbd6215ff	-0.05519676
99	0xbc16bc46	-0.009200161
100	0xbd0a2a36	-0.03373166
101	0xbda0db72	-0.07854356
102	0xbc4610a9	-0.012088933
103	0x3d05e3f1	0.032688085
104	0x3d9c9a2b	0.07646593
105	0x3d4b4ae8	0.049631983
106	0x3c77bf27	0.015121258
107	0xbce68e11	-0.028143914
108	0x3cbdd29d	0.023171717
109	0x3d695eb1	0.05697507
110	0xbb9fcc24	-0.0048766304
111	0x3d692c75	0.056927163
112	0x3c21e2df	0.00988075
113	0x3c8efede	0.017455515
114	0x3ce26046	0.027633797
115	0x3d31b2c1	0.043383364
116	0xbd2977fa	-0.041374184
117	0x3b76ac5a	0.003763935
118	0xbd9a3a0a	-0.07530601
119	0xbc839fd8	-0.01606743
120	0x3cff9acd	0.031201744
121	0xbd702dfd	-0.058637608
122	0xbd979567	-0.07401543
123	0xbd9184f7	-0.07105439
124	0xbd390a55	-0.04517587
125	0xbd02782c	-0.031852886
126	0xbd89c44e	-0.06726895
127	0xbc84eba2	-0.01622564
128	0xbcea37dd	-0.02859109
129	0xbd0b9ac8	-0.034083158
130	0xbc617c68	-0.013762571
131	0x3b57856c	0.0032885922
132	0xbbcbaf08	-0.0062159337
133	0xbd2b87f5	-0.041877706
134	0x3cdaf606	0.026728641
135	0xb9c7d7da	-0.0003811706
136	0xbcac2c39	-0.02101718
137	0x3d3af09c	0.04563962
138	0x3c600088	0.013672002
139	0x3cb4968d	0.022044444
140	0x3cd0f6f9	0.02550839
141	0xbb61a951	-0.0034433196
142	0x3d407e6c	0.046995565
143	0x3ace53e4	0.0015741554
144	0x3cfcf940	0.03088057
145	0xbb95ae36	-0.0045678867
146	0x3c19a6a3	0.009378108
147	0x3c9dbc93	0.019254958
148	0xbd174bd4	-0.03693755
149	0x3cdd39e7	0.027005149
150	0x3d4297cb	0.047508042
151	0x3de2c418	0.11072558
152	0x3d8ab8c9	0.06773526
153	0x3d9cceda	0.07656641
154	0x3df1560a	0.11783989
155	0x3e1ec574	0.1550501
156	0x3e521a46	0.20517835
157	0x3e5482a1	0.20752956
158	0x3d58d4d5	0.052937347
159	0x3d82c414	0.06385055
160	0x3e450147	0.19238769
161	0x3e407d8d	0.18797894
162	0x3d1f8216	0.03894242
163	0xbdc05d5c	-0.09392807
164	0xbdc786c8	-0.09742504
165	0x3da41f81	0.080138214
166	0xbc6ecdc9	-0.01457543
167	0xbdf2c675	-0.11854259
168	0xbe0d9798	-0.1382736
169	0xbd9d1492	-0.07669939
170	0xbd3d0ae4	-0.046152964
171	0xbda133c9	-0.07871205
172	0xbd8e6a98	-0.06953925
173	0xbe016af2	-0.12638453
174	0xbda0a7a8	-0.07844478
175	0xbda0628f	-0.078312986
176	0xbbdb99f6	-0.006701703
177	0xbd3cbfc8	-0.046081334
178	0xbd622978	-0.05521533
179	0xbd788e24	-0.06068243
180	0xbcedfb57	-0.029050512
181	0x3cd3f7a9	0.02587493
182	0x3c14dfd9	0.009086573
183	0xbce20b14	-0.027593173
184	0xbd87028a	-0.06592281
185	0xbcf0a9ea	-0.029377896
186	0x3cfc8f3f	0.030830024
187	0x3d93a747	0.0720964
188	0x3d4cd610	0.050008833
189	0xbbc16bdd	-0.005902751
190	0x3cf18ffd	0.029487604
191	0x3ccad652	0.024760399
192	0x3d383c02	0.044979103
193	0x3d286105	0.04110815
194	0xbcc8618b	-0.024460575
195	0xbaff1246	-0.0019460402
196	0xbca3ca22	-0.019993845
197	0x3b1e450f	0.002415005
198	0xbd214526	-0.039372586
199	0xbce1fc6a	-0.02758618
200	0x3c9d4b88	0.019201055
201	0x3ddbfb5e	0.10741304
202	0x3caba6d6	0.020953577
203	0x3d006d32	0.031354137
204	0x3ccf0aaa	0.02527364
205	0x3d7ec396	0.062198244
206	0x3c99a8ac	0.018757187
207	0xbd2278e6	-0.03966608
208	0x3cd6b95a	0.02621143
209	0xbd19f34d	-0.037585545
210	0x3db43240	0.08798647
211	0xbd85c54d	-0.06531773
212	0xbd24a3fa	-0.040195443
213	0x3bc6cc6b	0.006066849
214	0x3d411c5f	0.047146197
215	0x3deb3c55	0.11486117
216	0x3c7fcbb7	0.015612534
217	0xbd972dcf	-0.07381784
218	0x3beba0be	0.007190793
219	0x3d504f19	0.050856683
220	0x3b348fd4	0.0027551549
221	0x3d298466	0.04138603
222	0xbd472208	-0.04861644
223	0xbd749297	-0.05971011
224	0xbabd857b	-0.0014459336
225	0x3c940599	0.018069075
226	0xbd3980ca	-0.04528884
227	0x3bbd2b62	0.005772994
228	0x3d0d710c	0.034531638
229	0xbc2ef0d6	-0.010677537
230	0xbc9f7620	-0.019465506
231	0xbd154eef	-0.03645223
232	0xbc1cf990	-0.009580985
233	0x3d0949bf	0.033517595
234	0xbc95b87c	-0.018276446
235	0xbc3eda67	-0.011648751
236	0x3c8c454d	0.017122889
237	0xbcd6b7b8	-0.02621065
238	0xbcd89d0b	-0.026442071
239	0x3ba8698a	0.0051395344
240	0x3d0c723a	0.034288622
241	0xbbe168ad	-0.0068789334
242	0xbc932981	-0.017964127
243	0xbd5278e0	-0.051384807
244	0x3cb5d3e6	0.022195768
245	0xbbc16b09	-0.005902652
246	0xbd1ce1a1	-0.038301114
247	0xbd86260c	-0.065502256
248	0xbd18c0a4	-0.03729309
249	0xbd21a5bd	-0.0394647
250	0x3cdbc13a	0.026825536
251	0x3df35119	0.118807025
252	0x3c41d401	0.011830331
253	0x3c6a5b0d	0.014303935
254	0xbcc1b7b4	-0.023647167
255	0xbdd0ec02	-0.10201265

conv3.bias f4 [32]
0	0xbd2d4af2	-0.0423078
1	0xbcd13ad6	-0.02554075
2	0xbc6be734	-0.014398385
3	0x3d55e609	0.05222133
4	0x3d91a1d0	0.071109414
5	0xbd30fb23	-0.043208253
6	0x3c824820	0.015903533
7	0xbd948767	-0.072523884
8	0x3da599e8	0.08085996
9	0xbcb80379	-0.022462593
10	0xbd2b790f	-0.041863497
11	0xbcb4b173	-0.02205727
12	0x3d7f8fbe	0.062392943
13	0xbdad3475	-0.08457271
14	0xbc55c902	-0.013048412
15	0x3d8b15ac	0.06791243
16	0x3c14230c	0.009041559
17	0x3dfca589	0.12336261
18	0xbb5b3cd7	-0.0033453011
19	0xbca8180e	-0.020519283
20	0xbd070b31	-0.032969657
21	0x3d9d65a9	0.07685406
22	0x3e1ec21a	0.15503731
23	0x3de7f381	0.113257416
24	0x3de66ccf	0.11251222
25	0x3d489329	0.048968468
26	0x3c715c61	0.0147314975
27	0x3e10b745	0.14132412
28	0xbbeea0c8	-0.00728235
29	0x3d531262	0.051531203
30	0x3d5d3ac5	0.054011125
31	0x3dd64d34	0.10463944

fc.weight f4 [32, 4608]
0	0xba0b9fd6	-0.00053262466
1	0x3c22dcb2	0.009940313
2	0xbc24408a	-0.010025153
3	0xbb98301c	-0.004644407
4	0x3b6a1580	0.0035718381
5	0xba95a729	-0.0011417615
6	0x3c451daf	0.012031003
7	0xbc2e2a71	-0.010630236
8	0x3be13bc1	0.0068735783
9	0xba437a90	-0.0007456923
10	0x3c7ed509	0.015553721
11	0x3c8c7060	0.017143428
12	0x3cab94b2	0.020944927
13	0xbb817369	-0.0039505255
14	0x3c8dc200	0.01730442
15	0xbc0e06d9	-0.008668625
16	0xbbfb7050	-0.007673301
17	0x3bf3dd03	0.007442118
18	0xba86244c	-0.0010234206
19	0x3bdc127c	0.0067160707
20	0x3c5d0da0	0.013492018
21	0xbacf805b	-0.00158311
22	0x3b4e5aa2	0.0031487127
23	0x3b056087	0.0020351724
24	0x3c7dda54	0.015493948
25	0x3c2d1c85	0.010565882
26	0x3acc4e46	0.0015587292
27	0xbc3c421f	-0.011490374
28	0x3b3d1264	0.0028850073
29	0x3bf223e3	0.007389532
30	0xba03b50b	-0.0005024231
31	0x3bbfed14	0.0058571193
32	0x3b35a769	0.0027718192
33	0xbbcc4575	-0.006233866
34	0xbc07995c	-0.00827631
35	0xbb7f72a5	-0.0038978246
36	0xbc2f834d	-0.010712457
37	0x3988a31c	0.00026061467
38	0xbb8e72b6	-0.0043471707
39	0xbc6703f0	-0.01410006
40	0x3997a9c2	0.00028927444
41	0x3ab7a33b	0.0014010438
42	0x3b84afe3	0.0040492876
43	0xbaf41c5e	-0.0018624177
44	0xbbcf9eb6	-0.0063360585
45	0xbb519aaf	-0.0031983068
46	0xbc3e2669	-0.011605837
47	0xbab41700	-0.0013739765
48	0x3bfafccb	0.00765953
49	0xba286ffd	-0.0006425379
50	0x38c157c1	9.2193026e-05
51	0x3c3028d8	0.010751925
52	0x3c24bd9f	0.010054975
53	0x3c462a60	0.012095064
54	0x3c2a0a0f	0.010378375
55	0x3bd709fc	0.0065624695
56	0xbaf336a6	-0.0018555715
57	0xbc730eb1	-0.014835046
58	0x3a90f742	0.0011060017
59	0x3beba2d3	0.007191041
60	0xba1c0cad	-0.00059528166
61	0x3bd40474	0.0064702574
62	0xbc4c7d8d	-0.0124811055
63	0xbab5695d	-0.0013840605
64	0x3c55389c	0.013013985
65	0xbc78c856	-0.015184483
66	0xbb76af44	-0.0037641088
67	0x3bb0fc13	0.0054011433
68	0xbc814291	-0.015778812
69	0xbbc957a6	-0.0061444817
70	0xbbf1ffb5	-0.007385219
71	0x3c0aa467	0.008462048
72	0xbb8877a8	-0.0041646548
73	0xba8d2224	-0.0010767621
74	0x3c2dc8a3	0.010606918
75	0x3b2a099c	0.002594567
76	0xbbc44f9c	-0.0059909355
77	0x3bc397b4	0.005969012
78	0xbbfd03a8	-0.007721383
79	0x3c393699	0.011304521
80	0xbbc38fb9	-0.005968061
81	0x3c4ab527	0.012372292
82	0xbbc55838	-0.0060224794
83	0x3bbc0183	0.005737485
84	0x3c375d33	0.011191654
85	0xbbc2ec22	-0.0059485594
86	0xbb20226a	-0.0024434575
87	0xbc051ea0	-0.008124977
88	0x3bd6e6b3	0.006558263
89	0xbbc1edc2	-0.0059182355
90	0x3c29bdea	0.01036022
91	0xbc2e94b9	-0.010655575
92	0xbbe8b7bb	-0.0071019805
93	0xbbaa2d75	-0.005193407
94	0x3c1e402e	0.009658856
95	0x3bad7a0d	0.0052940906
96	0xbb9186de	-0.0044411262
97	0x3c0d6248	0.008629389
98	0xbc5afbf7	-0.013365737
99	0xbb2dfcea	-0.0026548454
100	0x3c3f5a0a	0.011679182
101	0xbb995be2	-0.0046801427
102	0xbc155af3	-0.009115922
103	0xbbf94de5	-0.0076081627
104	0x3c1ec938	0.009691529
105	0xb9cfd65e	-0.00039641833
106	0x3a80b922	0.0009820799
107	0xbc0a0769	-0.008424618
108	0x3bc552dd	0.006021841
109	0x3959cece	0.00020771773
110	0x3c847419	0.01616864
111	0x3c0e67ce	0.008691741
112	0xbc6b654f	-0.014367416
113	0x3c273c47	0.010207242
114	0xbc356853	-0.011072236
115	0xbbcb03ec	-0.006195536
116	0xb9a30b1a	-0.00031098054
117	0xbc739dd0	-0.014869168
118	0xbb1d2dd7	-0.0023983622
119	0xbbd370d6	-0.00645266
120	0xb92bdb1d	-0.00016389457
121	0x3a17eb40	0.0005795248
122	0xba302413	-0.00067192427
123	0x3bc64c6c	0.0060515907
124	0xbba45f9f	-0.0050162817
125	0xb97400d7	-0.00023269966
126	0xbb2b25fa	-0.0026115165
127	0xbc0541ca	-0.008133361
128	0xbc8c23d8	-0.017106935
129	0x3b9c8c09	0.0047774357
130	0xbc4c5989	-0.012472519
131	0x3ba9e5e8	0.0051848777
132	0x3c65e4fa	0.014031643
133	0x3c88f00d	0.016716028
134	0xbbc243d4	-0.005928496
135	0x3c5fa722	0.013650687
136	0xbc0c5cc4	-0.008567039
137	0xbc419691	-0.011815683
138	0xbb46d289	-0.003033789
139	0xbc4c3b48	-0.012465306
140	0xbc83ee36	-0.016104799
141	0xbb36731f	-0.0027839614
142	0x3c049c50	0.008093908
143	0x3c0b602f	0.008506819
144	0x3c0574b1	0.008145497
145	0x3c49e49b	0.01232257
146	0x3c663db2	0.014052795
147	0xbc072208	-0.00824786
148	0x3c007978	0.00784146
149	0xba524cff	-0.00080223376
150	0x3bbe3133	0.005804205
151	0xbc91b0c3	-0.017784482
152	0x3a775abe	0.0009435824
153	0xba2ad7e2	-0.00065171544
154	0x3b0f95f8	0.0021909457
155	0xbbdcd04d	-0.0067386986
156	0x3b144559	0.0022624342
157	0x387e7e86	6.0676153e-05
158	0xbb7c8567	-0.0038531662
159	0x3c2b53c9	0.010456988
160	0xbc84f0dd	-0.016228134
161	0xbaf36426	-0.0018569275
162	0x3b84036f	0.0040287296
163	0x39560d55	0.00020413597
164	0x3bdecabd	0.0067990706
165	0xb94b77cb	-0.00019404215
166	0x3c2315d4	0.009953935
167	0x3c1c8890	0.009554043
168	0xbbd7fb54	-0.00659124
169	0xbc302519	-0.010751032
170	0xbc0316ec	-0.0080010705
171	0xbc354f9c	-0.011066344
172	0xbc6620c5	-0.014045899
173	0x371fa1b6	9.51479e-06
174	0xbc67f1f1	-0.014156804
175	0xbc5c0868	-0.013429739
176	0xbc0b27d0	-0.008493379
177	0xbc8db67c	-0.01729893
178	0xbc2bec6f	-0.010493382
179	0xbb716f70	-0.0036840104
180	0x3b02aa37	0.0019937882
181	0x3bc01209	0.005861525
182	0x3c333562	0.01093802
183	0xbbc587e1	-0.006028161
184	0xbc46621b	-0.012108351
185	0xbc511ef5	-0.012763728
186	0xbc5d41df	-0.013504474
187	0x3bdb24b5	0.0066877254
188	0x3c21d871	0.009878264
189	0x392f957e	0.0001674499
190	0x3ab2c1d2	0.0013638085
191	0x3b4aa010	0.0030918159
192	0x3c09ad24	0.008403096
193	0x3bd16bca	0.0063910233
194	0x3bec0830	0.0072031245
195	0x3af3d504	0.0018602912
196	0xbac10ca2	-0.0014728496
197	0xbbf2b3f0	-0.007406704
198	0x3bc6615a	0.0060540857
199	0x3a9fe2db	0.0012198346
200	0x3bcae075	0.006191308
201	0x3c32386f	0.010877713
202	0x3c06ae70	0.0082203
203	0x3c3d9c4e	0.0115729105
204	0x3c088a7c	0.0083337985
205	0xbbc2baaf	-0.0059426646
206	0xbc03fd62	-0.008056017
207	0x399d84c3	0.0003004429
208	0x3bc64a7b	0.006051359
209	0xbc7dc198	-0.015488051
210	0x3aa385ac	0.001247575
211	0x3b7493a9	0.0037319458
212	0xbc227103	-0.009914639
213	0xbc294e35	-0.010333587
214	0xbc1c7560	-0.009549469
215	0x3c4a6ede	0.012355534
216	0xbb7e879a	-0.003883815
217	0xbc32aaa7	-0.0109049445
218	0x3b9ddef9	0.00481784
219	0xbc4e7957	-0.012602172
220	0xbc8c4cf3	-0.017126536
221	0x3be24308	0.0069049634
222	0xbb3ee134	-0.002912593
223	0xbb0006a0	-0.0019535199
224	0x3bb16924	0.005414145
225	0xbb9b2d5b	-0.0047356314
226	0xbb867d6a	-0.004104306
227	0xbba59052	-0.0050526047
228	0x3ba81ecb	0.005130624
229	0xbbb53aaf	-0.0055306773
230	0xbacff592	-0.0015866032
231	0xbc4ce591	-0.012505905
232	0xbc1971a6	-0.009365475
233	0xbc77cc79	-0.015124434
234	0x3bf98ff1	0.007616036
235	0x3c157e59	0.009124362
236	0x3b2d0dcc	0.0026405929
237	0x3b2a2e34	0.002596748
238	0xbc229738	-0.009923749
239	0x3b1169e0	0.002218835
240	0x3bc07b29	0.005874057
241	0x3c47093a	0.012148196
242	0xbc6c56cc	-0.014424991
243	0xbc419777	-0.011815897
244	0xbc2c373e	-0.010511218
245	0x3c157492	0.009122031
246	0xbb2f7358	-0.002677163
247	0x3c0e1420	0.00867179
248	0xbc0f4dbf	-0.008746563
249	0xbbaa3f5b	-0.005195541
250	0xba334b33	-0.00068395137
251	0xbbbbf39b	-0.005735827
252	0x3c6122d5	0.013741215
253	0x3c3b4cac	0.011431854
254	0xbc53b638	-0.012921862
255	0xbc169216	-0.009190103

fc.bias f4 [32]
0	0xbb47234c	-0.0030386029
1	0x3c8dc1bc	0.017304294
2	0xbc100ac0	-0.0087916255
3	0xbac9c0b2	-0.0015392511
4	0x3c47b0ef	0.01218818
5	0xba3ecff7	-0.0007278914
6	0xbc388f32	-0.011264609
7	0x3c5b47f5	0.013383855
8	0xbbf523b9	-0.007481065
9	0xbd0fc0ef	-0.035096105
10	0xbb4f55c4	-0.0031636814
11	0x3c2ee59c	0.01067486
12	0xbb6f89e1	-0.0036550688
13	0x3ca5f915	0.020260373
14	0xbc808a0d	-0.015690828
15	0x3c6d5609	0.014485844
16	0x3d8d8139	0.06909413
17	0xbb91e58a	-0.004452412
18	0x3c6ab090	0.014324322
19	0x3c454aea	0.012041787
20	0x3bbe26b9	0.005802956
21	0x3d09dbbc	0.03365682
22	0x3a982aa6	0.001160939
23	0x3d9e218e	0.07721244
24	0x3d5351d2	0.0515917
25	0x3c0c5988	0.008566268
26	0x3c36aa51	0.011149005
27	0x3ad03c4d	0.0015887112
28	0x3c881bad	0.01661476
29	0x3c8e0ef2	0.01734111
30	0x3be6e879	0.007046756
31	0x3c944de4	0.018103547

translation.weight f4 [2, 32]
0	0xbb9e339b	-0.004827929
1	0xbb99f83d	-0.0046987818
2	0xbbb68666	-0.0055702208
3	0xbb95c2d3	-0.004570344
4	0xbb93955c	-0.004503889
5	0x3b4178d9	0.0029521494
6	0xbbdaec7d	-0.0066810236
7	0xbb94f49d	-0.0045457617
8	0xbba1deda	-0.004939896
9	0x3c5d02b1	0.013489411
10	0xbb994e77	-0.004678543
11	0xbb9be337	-0.0047573107
12	0xbb9b0a80	-0.0047314763
13	0xbb98b90e	-0.004660732
14	0xbb26a56c	-0.002542819
15	0xbb717847	-0.0036845373
16	0xbab7d1e1	-0.0014024341
17	0xbb9cbeae	-0.004783473
18	0xbba2061b	-0.0049445755
19	0xbb9600fd	-0.0045777545
20	0x3c013f1d	0.007888583
21	0x3c3c10d5	0.011478622
22	0xbb966a84	-0.0045903344
23	0xbcadeb2b	-0.0212303
24	0xbd33dbca	-0.04391078
25	0xbb9cfa92	-0.0047906125
26	0xbbc9f42e	-0.0061631417
27	0xbbb343e2	-0.0054707387
28	0xbb9c96ac	-0.0047787037
29	0xbba64fc5	-0.0050754272
30	0xbba44495	-0.0050130584
31	0xbb964415	-0.0045857527
32	0x3ab8720d	0.0014072076
33	0x3ad773b1	0.0016437677
34	0xbb9ceb04	-0.0047887582
35	0x3a9a7217	0.0011783269
36	0x3acf167f	0.0015799551
37	0xba5c421c	-0.0008402185
38	0x3a746cb0	0.0009324057
39	0x3ac58801	0.001507044
40	0x3a7115d1	0.00091966713
41	0x3cadf31c	0.021234088
42	0xbab0064b	-0.001342961
43	0x3b0273a6	0.0019905358
44	0x3abcd746	0.0014407418
45	0x3b0ca673	0.0021461516
46	0x3b91ee7b	0.004453478
47	0x3b0d344f	0.002154607
48	0x3ae1edda	0.0017237023
49	0x3ae63c71	0.001756562
50	0x3a326252	0.0006804812
51	0x3aab35c7	0.0013062292
52	0x3aa4bbf2	0.0012568219
53	0x3b40ec2c	0.0029437644
54	0x3ae9ae15	0.001782837
55	0xbd62cd3b	-0.055371504
56	0x3ccdc3eb	0.025117835
57	0x3a82d5e9	0.0009981963
58	0x393510f7	0.00017267825
59	0xb93b8b55	-0.00017885615
60	0x3a367f79	0.0006961744
61	0x3afa0a04	0.0019076471
62	0x3a219592	0.00061639503
63	0x3aa6f8a8	0.00127389

translation.bias f4 [2]
0	0xbcdfe1a9	-0.027329283
1	0x3d9f896a	0.077898815

rotation.weight f4 [1, 32]
0	0x3b072cbd	0.0020626031
1	0x3b128ffb	0.002236365
2	0xbbaf1a26	-0.0053436933
3	0x3b0d688e	0.0021577212
4	0x3b276dbf	0.0025547592
5	0xba5ae8fb	-0.0008350757
6	0x3a958be3	0.0011409487
7	0x3b1be124	0.0023785317
8	0x3afbb463	0.001920354
9	0xbc36b0eb	-0.011150579
10	0x39760804	0.00023463374
11	0x3b2f7f5a	0.0026778788
12	0x3b1398d5	0.0022521515
13	0x3b36188d	0.002778563
14	0x3a6e3a4e	0.00090876676
15	0x3b3c8539	0.002876593
16	0x3cc97343	0.024591094
17	0x3b1c87f9	0.0023884757
18	0x3ae8d428	0.0017763423
19	0x3b122460	0.0022299513
20	0x3bc0f3f8	0.0058884583
21	0x3c5b9550	0.013402298
22	0x3b23d6d3	0.0024999871
23	0xbbc8d8c1	-0.0061293547
24	0xbc8b3e1d	-0.016997391
25	0x3af5d39c	0.0018755081
26	0x3a956ab1	0.0011399594
27	0x3aaf5a44	0.0013378342
28	0x3af35181	0.0018563719
29	0x3b29f12c	0.0025931103
30	0x3ae4eb3d	0.0017465126
31	0x3b136cfd	0.0022495382

scaling.weight f4 [2, 32]
0	0x3bf402c2	0.007446618
1	0x3bdee917	0.006802689
2	0x3b57d0af	0.0032930782
3	0x3c0236ae	0.007947607
4	0x3bdf9087	0.006822649
5	0x3b2f2986	0.002672763
6	0x3bc0f954	0.005889097
7	0x3be6ed00	0.0070472956
8	0x3c0ceacf	0.008600905
9	0x3d414015	0.047180254
10	0x3bad93bd	0.005297153
11	0x3bcd742e	0.006269953
12	0x3bed924b	0.0072501055
13	0x3bc4d4f9	0.0060068336
14	0x3b28e57c	0.002577155
15	0x3b89e466	0.0042081354
16	0xbd16ebbe	-0.036845915
17	0x3bdc695d	0.0067264275
18	0x3c14b56c	0.0090764575
19	0x3bf1cb37	0.0073789614
20	0x3b43a6a6	0.002985397
21	0x3d71bf93	0.05902059
22	0x3bde3828	0.0067815967
23	0xbc88fe4b	-0.016722819
24	0xbc639c98	-0.013892315
25	0x3c0dfbb0	0.008665964
26	0x3c1862e5	0.009300922
27	0x3c25f540	0.010129273
28	0x3c13723a	0.008999402
29	0x3bab469b	0.0052269227
30	0x3c18db7f	0.009329676
31	0x3bf92566	0.007603335
32	0x3bfcb907	0.0077124867
33	0x3be9f0c3	0.0071392967
34	0xbc014633	-0.007890272
35	0x3c055614	0.008138198
36	0x3be9c674	0.007134253
37	0x3b2f28b4	0.0026727142
38	0x3bcafc0c	0.006194597
39	0x3bf0e7a0	0.0073518306
40	0x3c0faefc	0.008769747
41	0x3c55af66	0.0130423065
42	0x3bb146ab	0.0054100356
43	0x3bd55eb0	0.006511532
44	0x3bf6f7aa	0.007536848
45	0x3bd28374	0.006424362
46	0x3b28e78d	0.002577278
47	0x3b9a0e7a	0.004701433
48	0xbbab706d	-0.005231908
49	0x3be77f39	0.0070647267
50	0x3c16e940	0.009210885
51	0x3bfb18f7	0.007662888
52	0x3c0171d4	0.007900674
53	0x3c8af9ee	0.016964879
54	0x3bea346f	0.007147364
55	0xbcd7c39f	-0.026338397
56	0x3ccb40d6	0.02481119
57	0x3c0fbf26	0.008773601
58	0x3c18efa0	0.009334475
59	0x3c26323f	0.010143816
60	0x3c15bc76	0.009139171
61	0x3b94451f	0.0045248414
62	0x3c1b0106	0.009460693
63	0x3c00c095	0.007858415

scaling.bias f4 [2]
0	0x3c34ac76	0.011027446
1	0xbd29411f	-0.04132187

shearing.weight f4 [1, 32]
0	0xbb1b5191	-0.002369974
1	0xbb2bc5b8	-0.002621038
2	0x3bf43191	0.007452198
3	0xbb11a7fb	-0.0022225368
4	0xbb2f6dfe	-0.0026768441
5	0x39293a3a	0.00016138787
6	0xbb80c89d	-0.003930165
7	0xbb355bf3	-0.0027673214
8	0xbad703bb	-0.001640431
9	0xbd69cbf0	-0.057079256
10	0xbadc3508	-0.0016800473
11	0x3b61477a	0.0034374879
12	0xbb230ac6	-0.0024878248
13	0xbb5ab4f2	-0.0033372012
14	0x3a8e8290	0.0010872651
15	0x3b5e8427	0.003395328
16	0x3d26362c	0.040579006
17	0xbb3a5c4b	-0.0028436359
18	0xbaa1e725	-0.0012352212
19	0xbb2510f2	-0.0025187102
20	0x3bdb97c4	0.0067014415
21	0x3d409d9e	0.047025315
22	0xbb46b487	-0.0030320005
23	0x3e2b2ebb	0.16717045
24	0x3ddc0791	0.10743631
25	0xbac527d9	-0.0015041783
26	0x388bfcb0	6.675103e-05
27	0x397ae5aa	0.00023927414
28	0xbab282e2	-0.0013619328
29	0x3cc70422	0.024293963
30	0xba7b38be	-0.00095833454
31	0xbb243e5f	-0.002506159
