output/Mess6060_i/train/model/stn_210.pt (torch_old, 658934 bytes, 14 tensors)

conv1.weight f4 [8, 2, 5, 5]
000000 49 f5 dc 3d 63 14 d1 3d 69 5d b1 bd 32 4c 05 be
       0.10788972 0.102089666 -0.08660395 -0.13017347
000010 f4 af cc 3d 80 60 08 be ec b8 a9 3d 02 9b 15 be
       0.09994498 -0.13318062 0.08287224 -0.14609912
000020 20 fc a4 bd 43 b8 8d bd 16 ca 00 3e ce a9 fd bc
       -0.080559015 -0.06919911 0.1257709 -0.030964758
000030 96 dc ea 3d f3 12 08 3d 4b be 03 3e d7 d4 b2 3d
       0.11467855 0.033221196 0.1286556 0.08732002
000040 53 d6 c7 3d ef 90 ee 3d 4b 49 46 bd 7e 4c 3d bd
       0.09757676 0.11648738 -0.04840974 -0.046215527
000050 4d 76 21 3d 5f bf f0 3d 66 ac 70 bd 98 4a f1 bd
       0.03941946 0.11755251 -0.058758162 -0.11781806
000060 e2 f2 f0 bd d5 24 bb bd 7e ba 91 bb 18 43 31 bd
       -0.11765076 -0.091378845 -0.0044472804 -0.043276876
000070 50 be 84 bd dc 39 c0 bd a4 cb 5a 3c 6c 19 10 be
       -0.06481612 -0.09386036 0.013354216 -0.14072198
000080 14 6c e8 3d e2 6f 43 bd db ee 10 3a ed 98 cd 3c
       0.11348739 -0.04771412 0.00055287563 0.025097335
000090 91 ee 9d bd cc 4b b5 3d 72 27 cb bc 0d 2c 4e bc
       -0.077115186 0.08852348 -0.024799082 -0.012583745
0000a0 0d 42 1d be de 5b 20 bb 17 7d e5 3c 18 43 8e ba
       -0.15357228 -0.002446882 0.028013749 -0.0010853736
0000b0 08 2b 11 bd ab b5 b6 3d 31 53 be 3d f3 1e a0 3d
       -0.03544143 0.08921369 0.09293211 0.07818403
0000c0 a5 3f 35 bd 75 2d 92 3b ba 87 e1 bd c2 2d eb bd
       -0.04425015 0.0044609853 -0.11012216 -0.11483337
0000d0 c8 31 f7 bc c6 8e 48 3c eb 60 b0 bd 1d 43 04 be
       -0.030175105 0.012241071 -0.08612236 -0.12916227
0000e0 cf 2c 61 3d 11 a6 42 3d 30 bc c4 bd 5e 0a bd 3d
       0.054974373 0.047521655 -0.096062064 0.09230493
0000f0 34 58 eb bd a4 87 cc 3d 41 2f 96 3d fb 7a 43 bd
       -0.11491433 0.09986809 0.07333232 -0.047724705
000100 a7 cb 0a 3e 75 03 af bd bb 45 8d bd 2a 6c e8 3d
       0.1355425 -0.08545581 -0.06898066 0.11348756
000110 fb 2b 0c bd 02 21 5b bd e0 f2 9a 3c a5 5b c7 bc
       -0.03422163 -0.053498276 0.01891464 -0.024335692
000120 0e 25 bd 3d 5c 07 f7 3d 30 56 8d 3d bd 8b 23 3c
       0.09235583 0.120619506 0.069012046 0.009982047
000130 2b d1 82 3c 25 5b 87 bc 76 75 be ba b5 36 72 bc
       0.01596888 -0.016522953 -0.0014530856 -0.014783551
000140 45 2b 9d 3d 5a 07 73 3d 3a ae 07 bd d1 7f 0d 3d
       0.07674269 0.059333183 -0.03312514 0.034545723
000150 9a 7d 25 bc 9b 77 fa 3c 25 14 c7 3d da 39 ec bd
       -0.0101007465 0.03057461 0.09720639 -0.11534472
000160 5a 55 00 3b 71 79 41 bd bb cc 1f be 18 11 1f be
       0.0019582123 -0.047234956 -0.15605442 -0.15533864
000170 b7 b1 0f bd 25 f9 ad 3d 28 f6 dd bd bb eb ff 3c
       -0.03508159 0.08494786 -0.10837966 0.031240335
000180 64 68 89 3d e0 2b f0 bd 31 2e 45 3d 75 fe 75 3c
       0.06709364 -0.117271185 0.048139755 0.015014281
000190 d0 ad 28 be 29 96 e3 bc 15 45 16 be 37 11 f5 3d
       -0.16472554 -0.027781563 -0.1467479 0.11966174
0001a0 21 c4 90 3d 92 74 ad 3c 71 28 ae 3d 62 e7 c2 3d
       0.070686586 0.02117375 0.08503807 0.09516789
0001b0 9d 0e 0d 3e c8 76 82 3d 61 2a 08 be 79 f1 dd 3d
       0.13775106 0.06370312 -0.13297416 0.10837073
0001c0 d5 26 d5 3c 72 c7 70 bd 68 58 44 bd 76 06 d1 3d
       0.026019493 -0.058783956 -0.047935873 0.102063105
0001d0 a2 9c 15 3c 58 f5 b5 3d 13 89 d6 3b 58 60 08 3e
       0.009131582 0.08884686 0.0065471022 0.13318002
0001e0 4f 8c 09 be df 0e 20 3c e2 2a 90 3c 70 7b 24 bc
       -0.1343243 0.009769171 0.017598573 -0.010039195
0001f0 f5 a7 fe 3d 36 5e ad bc d1 5f 00 bd ae 6e 8d 3d
       0.12434379 -0.021163087 -0.031341378 0.06905876
000200 51 f7 dc bc 4f 38 83 bc cb f8 25 be 71 fd 18 bd
       -0.026973398 -0.016018061 -0.16208188 -0.037351076
000210 ed 55 bb bd 71 c2 88 3d 26 38 ee 3d 44 0a 33 be
       -0.091472484 0.06677712 0.11631803 -0.17484385
000220 c9 1b ee bd 72 db e2 3d 23 15 9b bd dd 5c f1 3d
       -0.11626393 0.11077012 -0.07572391 0.117852904
000230 39 fa c6 3d f6 38 8e bd 9b 09 0f be 29 b8 5c 3d
       0.09715695 -0.06944458 -0.13968508 0.053886566
000240 65 41 5e 3d 53 1a a6 3d 62 f9 76 bc 33 d4 4b 3d
       0.054261584 0.0811049 -0.015074106 0.049762916
000250 82 f9 0f be bb 28 c3 3b ce 28 0b 3d 3e 07 b2 3d
       -0.14060023 0.005955783 0.03397446 0.086927876
000260 39 e4 a4 bd 90 31 c1 bc 37 ae bd bd 79 a3 bc bd
       -0.080513425 -0.023583204 -0.092617445 -0.092108674
000270 b7 fa 75 3d 97 5b 9f 3c 42 cb 54 3d ca cf 24 bc
       0.060053553 0.019452853 0.051951654 -0.010059306
000280 08 a2 49 3b 9b 97 11 bb db d1 9e 3d 3d 1f cf bd
       0.0030766744 -0.0022215608 0.077548705 -0.1011338
000290 b5 2e da 3c e1 8d ad 3d 88 7e b3 3d 8d db 85 bd
       0.0266336 0.08474327 0.08764368 -0.065360166
0002a0 b5 6f e0 3d 99 a3 c7 bd fe 6a a8 3d be a4 f9 3d
       0.109588064 -0.09748001 0.08223532 0.12189625
0002b0 f6 a0 0e 3c d4 cf 36 3d d1 e1 09 be eb 11 90 bd
       0.008705368 0.044631794 -0.13465048 -0.070346676
0002c0 aa fd 90 bd b3 53 19 be 03 15 4c bd fb d0 9b 3d
       -0.070796326 -0.14973335 -0.049824726 0.07608219
0002d0 51 b5 d4 bc 15 bd 00 3e 3a 12 13 be 04 d6 18 3d
       -0.025965365 0.12572129 -0.14362422 0.037313476
0002e0 c0 35 ce 3d b0 d2 01 3e 4c 94 88 bd 7e b0 11 be
       0.10068846 0.12678027 -0.066689104 -0.14227483
0002f0 02 94 8e bd 87 af ac 3d 76 1f 9c 3b a6 04 00 3e
       -0.06961824 0.08431917 0.0047644926 0.12501773
000300 6e d2 ec bd e5 b5 d5 bd 73 d3 5a 3d 81 ac 34 3d
       -0.11563574 -0.10435084 0.05342431 0.044109825
000310 39 47 c9 bd e3 9e f6 3d d6 65 8a bd 49 2b 09 be
       -0.09828038 0.12042024 -0.06757705 -0.13395418
000320 13 f7 6b 3d 6b 66 7f bd 65 aa 55 bd a3 8e 86 bd
       0.057608675 -0.062353533 -0.052164454 -0.065701745
000330 91 cd 4b 3d 23 c1 af 3d 47 4d e8 3d 32 53 82 bd
       0.04975659 0.0858176 0.113428645 -0.063635245
000340 2a ba 92 bc 16 74 14 3e 20 e4 54 bd 76 4a 03 bd
       -0.017911036 0.14497408 -0.05197537 -0.032053433
000350 b8 e3 21 bc 13 9a df bd 6e b5 b7 bd ab cc 16 3e
       -0.009880953 -0.10918059 -0.08970152 0.14726512
000360 59 5e 3f 3d d7 51 39 3d 5a f2 96 3d cb f8 d1 3d
       0.046720836 0.045244064 0.07370444 0.102525316
000370 10 dd ee 3d 59 ca fa 3d 31 18 9e 3d 0a b9 00 3e
       0.11663258 0.12245626 0.07719458 0.12570587
000380 c9 5d e2 3d 44 42 16 bd 0a a6 96 bb c0 1f c4 bd
       0.11053044 -0.03668429 -0.00459743 -0.09576368
000390 60 57 08 be 4a 3b d4 3d f2 63 f2 bd 16 ea d6 bd
       -0.13314581 0.10362871 -0.11835469 -0.10493867
0003a0 a1 a9 20 be a1 66 08 be d5 58 5a 3b 94 26 67 3d
       -0.15689708 -0.133204 0.0033317108 0.056433275
0003b0 51 ee 08 be 5b da f5 bb 9f a9 01 be 08 16 1d 3b
       -0.1337216 -0.0075028366 -0.12662362 0.002396943
0003c0 6d 9c 9b 3d 62 55 87 bd 48 6f 9e bd bf 2c 99 3d
       0.07598195 -0.06608082 -0.07736069 0.07479238
0003d0 07 d4 e1 bd fa 89 08 bd b5 42 00 be c2 06 b6 3d
       -0.11026769 -0.03333471 -0.12525447 0.08888008
0003e0 13 32 08 3d 0e 81 8c bd 0a fa d0 3d a2 68 08 3e
       0.03325088 -0.06860553 0.10203941 0.13321164
0003f0 aa b1 62 3d ab 22 d6 bd 1e 09 15 bd c5 4f ec 3d
       0.055345215 -0.10455831 -0.036385648 0.11538652

conv1.bias f4 [8]
000000 f5 42 94 3d 71 e0 57 bb ca 02 ab bd ae fc c9 bb
       0.072393335 -0.0032940174 -0.08350141 -0.006164155
000010 0b 17 73 bd 0a 50 06 3e d3 96 bd 3d 3f 3d a1 bd
       -0.059348147 0.1311647 0.09257283 -0.0787301

conv2.weight f4 [16, 8, 5, 5]
000000 29 52 90 bd 3a 03 8d bd 61 bb 68 bc 94 22 40 bb
       -0.07046921 -0.06885381 -0.014204831 -0.0029317485
000010 a5 e7 47 bd 66 d5 11 3d 08 60 e1 3a 71 7b 1c bd
       -0.048804898 0.035603903 0.0017194757 -0.03820366
000020 c5 18 91 bd 01 a6 57 3d 2d 73 83 3d 75 7a fa 3a
       -0.070848025 0.052648548 0.064184524 0.0019109981
000030 5b 35 18 bd da b6 2a 3d df 27 1d 3d 84 4d 8b bc
       -0.03716026 0.041678287 0.038368102 -0.017004736
000040 61 d4 78 3d da 5f 66 bd 58 6b 47 bc 7b c7 63 3d
       0.060749415 -0.056243755 -0.012171589 0.05561016
000050 45 5c 50 bd 83 62 e8 bc 3c 7e 12 bd 54 e3 0e bd
       -0.050869245 -0.028367287 -0.035764918 -0.034884766
000060 13 b7 65 3d ab 03 26 3d 4b 70 89 bd b3 48 3d bd
       0.056082796 0.04053084 -0.06710871 -0.04621191
000070 2c a6 92 bb 48 0a de bc df e9 2c bd 36 25 96 bd
       -0.0044753756 -0.027104512 -0.042215224 -0.07331316
000080 22 7e 44 3d 81 e5 0e 3d be fa 78 3c 87 35 9f bc
       0.047971852 0.03488684 0.0151965 -0.019434704
000090 04 e2 94 bd de 28 19 bc 1a 72 af 3c c2 1a da bc
       -0.072696716 -0.009348122 0.021416713 -0.026624087
0000a0 25 6c 57 3d 6f 36 45 3c 6f a6 11 bc 00 b7 b3 3c
       0.05259337 0.012036904 -0.0088897785 0.021937847
0000b0 16 69 f6 3c 8d 61 63 bd b3 17 87 3c 92 14 90 bd
       0.030079406 -0.055512954 0.016490793 -0.070351735
0000c0 b8 de b0 bc 2f 19 f6 bc 4f 43 3e 3d c3 b1 95 bd
       -0.021590576 -0.030041305 0.04645091 -0.07309296
0000d0 ce ff bb 3c cc b5 82 bd d2 aa 02 3d 89 e7 31 3c
       0.022949126 -0.06382331 0.03190119 0.010858425
0000e0 7c cf 04 bd 5f c2 9a 3c cf 66 8c 3d 5e 9e 39 3d
       -0.032424435 0.018891511 0.06855547 0.045317046
0000f0 54 25 90 bd 2f 49 ba bc b5 aa 7b 3d 02 6e 33 3c
       -0.0703837 -0.022739975 0.061442096 0.010951521
000100 c0 12 2b 3c 9e 84 19 39 00 0c ed bc 01 b9 af bc
       0.010441482 0.00014640621 -0.028936386 -0.021450521
000110 4e 9f 5a 3b 65 b8 5b 3d b4 41 bb bc 3f 5f b0 bc
       0.0033359113 0.05364265 -0.022858478 -0.021529792
000120 df fc 22 3c 44 eb ea bc 3f 08 76 3d 6f 85 37 3d
       0.0099479845 -0.028676637 0.060066458 0.044804987
000130 09 21 82 bb 50 93 53 bd 7c a1 57 3c 57 04 5c 3d
       -0.0039712233 -0.05165416 0.0131610595 0.053715076
000140 52 74 47 3c 54 d8 a5 3c 04 68 37 bd cf 75 9e bd
       0.012173729 0.020244755 -0.04477693 -0.07737314
000150 6b e6 0b bd 95 89 3a bc 2c b2 4f 3d b7 bc 97 3b
       -0.03415529 -0.011385341 0.050707027 0.004630651
000160 5b 42 b5 bc df e2 db bc c5 e0 e4 bc bd 5b 52 bd
       -0.022126367 -0.026841579 -0.02793921 -0.05135702
000170 15 45 29 bd 85 fc 1f 3b 5b 1e 19 3d 22 33 3e 3d
       -0.041325647 0.0024411988 0.037382465 0.046435483
000180 07 d5 5a 3c ec 7b 7e bd 07 0f 59 3d 51 f7 64 3d
       0.013356454 -0.0621299 0.052992847 0.05589992
000190 52 97 ac 3c f6 88 45 3d e2 7e e7 3d 8d d9 ca 3c
       0.021068249 0.04822632 0.11303498 0.02476194
0001a0 64 17 a9 3d 07 1c 3e 3d 24 a2 a2 3d d6 64 8f 3d
       0.082564145 0.046413448 0.07941082 0.07001655
0001b0 32 e6 f0 3d e0 98 dd 3d ff 2e c5 bc 2a 8b 95 3d
       0.11762656 0.10820174 -0.024070261 0.07301934
0001c0 85 b2 bc 3c 75 11 6c 3b 82 ff 5f 3d 4f 2f c4 3b
       0.023034343 0.0036021147 0.05468703 0.005987085
0001d0 04 05 d5 bc 8f d4 15 bd 06 e2 1b bc df 9f 27 3d
       -0.026003368 -0.036579665 -0.009514337 0.04092395
0001e0 45 ce 62 3d ee 58 5f 3d 8e fc 11 3d dd d4 b2 3d
       0.055372495 0.05452817 0.035641246 0.08732007
0001f0 42 02 14 bd b4 eb 35 bd ef 86 fa 3c a5 e3 7d bd
       -0.036134966 -0.044414237 0.03058192 -0.061984677
000200 75 b2 91 3d 2b 08 80 3c 47 ab e0 bc ea 1a 7e 3d
       0.07114116 0.015628895 -0.027425421 0.062037386
000210 28 f1 0b 3d ad c0 80 3d bd 4a 6f 3d 11 49 7a bc
       0.03416553 0.0628675 0.058420885 -0.015276209
000220 aa e7 7d 3d 0c f9 0b 3c f9 39 f9 3b 66 62 df 3c
       0.06198851 0.008543264 0.007605788 0.0272686
000230 7a 87 7c bd c6 65 43 bd 8c eb 7e 3d c7 5c 4e bd
       -0.061652638 -0.04770448 0.062236354 -0.050381448
000240 36 ea 13 3d a1 a6 0d 3d f3 65 85 bd a9 92 80 bc
       0.036112033 0.034582738 -0.06513586 -0.015694933
000250 7c 81 0f bc 91 82 3d 3d 49 70 9c bc b5 e4 83 3d
       -0.008758899 0.046267096 -0.01909651 0.06440107
000260 9b 54 6a bd 54 8d 03 3d ac d5 29 3d dc 96 c4 bc
       -0.057209592 0.032117203 0.04146354 -0.023997717
000270 2c 28 b0 bc be 46 2d bd fc 5d af 3c ee 5e d9 3c
       -0.02150353 -0.042303793 0.02140712 0.026534524
000280 bb 8d b1 bc ec 96 77 3d 56 a9 01 bc 71 d9 10 bc
       -0.021674028 0.060446665 -0.007913908 -0.008840905
000290 a4 29 69 3d f2 16 70 3c 1e ba 23 3d c1 5f 2c 3d
       0.056924477 0.014653908 0.039972417 0.042083506
0002a0 28 43 3e bd 34 aa 9d ba 4f c1 7e 3d e2 99 36 bd
       -0.046450764 -0.0012028874 0.062196072 -0.044580348
0002b0 f0 79 bb 3b 53 e3 44 3d 12 f9 85 3b d0 d9 c1 39
       0.005721323 0.048068356 0.0040885294 0.00036974112
0002c0 a4 2a 2f 3d a7 c9 19 bd 30 47 a7 3d 12 f9 a3 3d
       0.042765275 -0.037545826 0.08167875 0.08006491
0002d0 3e d7 c9 bb 88 94 20 bc f9 e1 ba 3b b0 db bd 3d
       -0.006159692 -0.009801038 0.0057032076 0.09270418
0002e0 16 96 84 bb 60 38 05 3d d4 ef 59 bd d5 50 18 3d
       -0.004046212 0.032524467 -0.053207234 0.037186462
0002f0 19 10 79 3d bd 33 29 3d 0b 58 99 3a 25 a6 55 3c
       0.060806368 0.041309107 0.0011699212 0.0130401
000300 42 dd 8e 3d 73 57 24 3d 03 1b cd bb e0 05 63 bd
       0.06975795 0.04012246 -0.0062593236 -0.055425525
000310 e4 12 5d 3d 35 13 cb bc ea e2 38 3d 21 e9 50 bc
       0.053973094 -0.024789432 0.045138277 -0.012750895
000320 25 b7 2d 3c c3 5c 3c bd 48 ff a6 bc f3 00 22 3c
       0.010602747 -0.045986902 -0.0203854 0.009887922
000330 32 ee 86 bd b8 99 74 bb 31 83 5b 3d 4f 61 75 3d
       -0.06588401 -0.0037323069 0.05359191 0.059907254
000340 b8 dc 77 3d ea b2 73 bc 83 27 2f 3c ef 91 45 bd
       0.06051323 -0.014874199 0.010690573 -0.048234876
000350 8e 3d 36 3d 0d fc a8 3c 33 5b 8b 3d b8 ea 10 bc
       0.044492297 0.020628 0.06804504 -0.008845024
000360 8f 99 92 3d 09 ec 2b 3d 2f 5a 89 3d 4f af 70 3b
       0.07158195 0.041973148 0.06706654 0.0036725586
000370 05 7a 69 bd 38 23 63 bd d7 1d 87 bd 83 d2 34 3c
       -0.057001133 -0.05545351 -0.065974884 0.011036518
000380 77 23 5d bd 5a 13 4f bb 14 14 5b 3d ca d4 a5 3d
       -0.0539889 -0.0031597228 0.053485945 0.08097227
000390 4e a1 16 bb 98 61 7a 3d b3 61 b3 3b ee 32 4c bb
       -0.0022984329 0.06112823 0.005474293 -0.0031158286
0003a0 7a cb bb ba 97 df d6 bc 57 28 a7 3c 3a 79 13 3c
       -0.0014327609 -0.026229663 0.020404978 0.009001071
0003b0 b5 06 d3 bc 35 1a 4d 3d f6 84 e3 bc a3 90 4a bd
       -0.025760034 0.05007382 -0.027773362 -0.049454343
0003c0 51 1e 0a 3d 3d bd 0c 3b ba 54 15 bd 94 a8 6e bd
       0.03372032 0.00214751 -0.036457755 -0.058266237
0003d0 95 45 f3 bc df 75 39 bd 90 21 2e 3d b5 e5 38 bc
       -0.029696265 -0.045278426 0.042512476 -0.011285235
0003e0 77 c9 fd 3c 08 6a be 3c bb 1f c1 3b 99 ba 45 bc
       0.030979855 0.023243919 0.005893675 -0.012068414
0003f0 03 55 24 bd 24 41 1f 3c 08 b3 8a bd 9b 81 03 bd
       -0.040120136 0.009720121 -0.06772429 -0.032106023

conv2.bias f4 [16]
000000 57 13 ca bc a7 8d 90 3c 2f ca b7 3d 62 11 06 3e
       -0.024667425 0.01764567 0.0897411 0.13092569
000010 4a 35 e7 3c 9e 4f 35 bd 9e 75 74 bd 8f 2a 43 bd
       0.028223652 -0.044265382 -0.05968248 -0.04764801
000020 89 db 41 3d 5e 89 ac bc d4 79 10 3d 37 25 2c bd
       0.047328506 -0.021061596 0.035272434 -0.04202768
000030 41 a6 22 bd ac bd dc 3b d5 83 86 bb 27 01 c7 3d
       -0.039709333 0.006736478 -0.004105071 0.09717017

conv3.weight f4 [32, 16, 5, 5]
000000 70 71 80 38 b5 f5 52 bd 10 ed bb bc 91 b6 b5 bb
       6.124645e-05 -0.051503856 -0.022940189 -0.0055454453
000010 79 99 6b bd 79 ef ea 3c ee bb fe bc 95 37 1d 3d
       -0.05751941 0.028678643 -0.031095471 0.038383085
000020 d4 9a 48 3d c3 60 80 ba 81 ba 95 bc 0e e4 36 3d
       0.04897578 -0.0009794462 -0.018277409 0.044651084
000030 b0 81 b1 bc 58 05 17 3c e6 7e c7 3c d3 4b 2b 3d
       -0.021668285 0.009217583 0.024352502 0.04182036
000040 b2 7e 90 bb 8f de a2 bb f8 db 52 bb 1a 98 4d bd
       -0.0044096345 -0.0049703787 -0.0032174569 -0.050193883
000050 8b e5 26 bc 07 84 85 bd b7 d5 2a bc 37 81 9b bc
       -0.010186563 -0.06519323 -0.01042693 -0.018982513
000060 d7 4c f6 3c f5 d6 f2 bd ae cb 7a bc 6f e9 14 bd
       0.030065937 -0.11857406 -0.01530735 -0.036355432
000070 f6 66 66 bc dd 78 37 bd 57 56 39 3d e6 64 9b 3c
       -0.014062634 -0.044793 0.045248356 0.01896901
000080 37 65 f4 bc d2 ce 7d 3c e7 91 85 3b 70 0d b7 3c
       -0.02983342 0.015491204 0.004076231 0.022345275
000090 d7 ad d3 3d cc 96 bc 3d df ba 5a 3d 99 da ae 3d
       0.10335892 0.0920845 0.05340087 0.08537788
0000a0 17 dc 86 3d d8 ae 1c 3d 9e 67 37 3d a5 60 41 3d
       0.065849476 0.03825268 0.04477655 0.047211308
0000b0 a4 25 4f bb b9 d2 d8 3b d8 73 e7 bd 19 0d b7 bd
       -0.003160813 0.006616917 -0.11301392 -0.08938045
0000c0 86 a3 5a bd bf 60 eb bd 48 2b 58 bd 25 10 49 bd
       -0.053378604 -0.11493062 -0.05277565 -0.049087662
0000d0 9c 39 00 3c b2 52 8e bb 57 b7 61 bd 5e f6 09 3d
       0.007826235 -0.004343354 -0.055106487 0.03368222
0000e0 ec 7a ae bc ce d2 82 bb e2 6b 79 3c d1 f4 46 bd
       -0.021298848 -0.003992415 0.015223475 -0.04857332
0000f0 15 c6 67 3b 41 a4 6e 3b 4c 40 28 3c 33 7d 4a bc
       0.0035365869 0.003641382 0.010269236 -0.012358951
000100 44 0c c7 3c 37 0a 0c bd af 4f 09 bd ec 24 f5 3c
       0.02429784 -0.03418943 -0.033523258 0.029924832
000110 e3 9c 92 3b 29 aa 72 bc a5 12 da bc aa ae 6c 3c
       0.0044742688 -0.014811077 -0.026620219 0.01444594
000120 ea 79 41 bd 0b 58 b0 bd e1 65 ac bd 3b a5 e6 3c
       -0.047235407 -0.08610543 -0.08417869 0.02815496
000130 0a 24 53 3d 63 b9 54 3d a0 de eb 3c fe 6f 4f 3d
       0.05154804 0.05193461 0.02879268 0.050643913
000140 14 be 27 3d 2d 62 d6 3d 90 b0 a4 3d f8 32 18 3d
       0.040952757 0.10467944 0.08041489 0.037157983
000150 e4 b6 8f 3c 39 b9 66 3d 12 11 8a 3b 32 6d d7 3c
       0.017543264 0.056328986 0.0042134607 0.026297186
000160 6d de c3 bd a9 7c a1 bd 1b be 02 bc 5a 5e 24 bc
       -0.09563909 -0.07885105 -0.007979895 -0.010032261
000170 f6 83 45 bd c6 06 5e 3b 6c 7d 91 bb 3f 2d 4d bd
       -0.04822155 0.003387855 -0.0044400003 -0.05009198
000180 c8 83 b0 bd 32 23 30 3c 44 1c 6b bd d4 59 dc bb
       -0.08618885 0.010750579 -0.057400003 -0.0067245755
000190 0f 5d f0 bc 83 2b 82 bd 2d 38 40 3b 72 50 19 3d
       -0.029341249 -0.063559555 0.0029330358 0.037430234
0001a0 14 3e a8 3d 5d cc 44 3d 1f d3 be 3c 85 3d 45 bc
       0.082149655 0.04804646 0.02329403 -0.012038593
0001b0 8a 12 0b 3d 95 e7 74 3d 56 11 0e bb b6 4f 81 3d
       0.033953227 0.059791166 -0.0021677813 0.06314032
0001c0 65 d3 e5 3c 10 11 02 3d 0b e9 ac 3c 57 cb 46 3d
       0.028054902 0.031754553 0.021107217 0.048533764
0001d0 0a d2 16 bd f0 78 86 3c cb 32 77 bd 3f f5 8a bc
       -0.036821403 0.01641509 -0.060351174 -0.016962646
0001e0 74 bf 1b 3d d7 ab 68 bd 2f 44 92 bd a0 7b 82 bd
       0.03802438 -0.056804504 -0.07141911 -0.06371236
0001f0 ec d8 26 bd 59 4e ed bc df 7f 7c bd 40 90 32 bc
       -0.040734217 -0.028968023 -0.061645385 -0.01089865
000200 bd f6 bf bc 66 88 e7 bc 79 2e 4a bc 8a ca e6 3b
       -0.023433084 -0.028263282 -0.0123401815 0.0070431875
000210 5a b2 cb b8 2a 0a 20 bd 4c 6b f6 3c 09 e7 33 3a
       -9.713015e-05 -0.039072193 0.03008046 0.0006862735
000220 33 4d ab bc 77 51 40 3d 95 83 3f 3c 93 40 b4 3c
       -0.020910835 0.04695269 0.011689086 0.022003448
000230 0e 17 d4 3c eb b9 b4 bb cb 7a 2f 3d 9a da 8c ba
       0.0258899 -0.005515327 0.042841714 -0.0010746301
000240 43 54 03 3d e5 54 47 bb 02 b2 0b 3c 6b ce 7a 3c
       0.03206278 -0.0030415591 0.008526327 0.015308003
000250 00 ad 1c bd b7 41 ed 3c df 83 55 3d 0a 4c f2 3d
       -0.038250923 0.028962 0.052127715 0.118309096
000260 8c f5 a2 3d 9c f8 ab 3d 3a 05 fb 3d f6 0c 23 3e
       0.079569906 0.08397028 0.12256856 0.15922913
000270 6f 1e 53 3e 4e d4 5c 3e de d2 74 3d 13 db 82 3d
       0.20617078 0.21565363 0.05977141 0.06389441
000280 fa 50 4a 3e 02 0d 46 3e 02 3f 64 3d 63 32 9d bd
       0.19757453 0.193409 0.05572415 -0.07675626
000290 ec cb c8 bd 8a 5d c8 3d 5f 04 b7 3b e1 c1 be bd
       -0.0980452 0.09783466 0.005585238 -0.09314323
0002a0 1a 71 f5 bd 4b 50 99 bd 57 df 02 bd c6 27 88 bd
       -0.11984463 -0.07486018 -0.031951275 -0.06648211
0002b0 d9 69 79 bd 81 44 fd bd 10 b9 96 bd fa 72 96 bd
       -0.06089196 -0.12366582 -0.073595166 -0.07346149
0002c0 6f 96 8b 38 e3 dc 1c bd 01 e1 31 bd 8c d7 38 bd
       6.656057e-05 -0.03829659 -0.04342747 -0.045127437
0002d0 f8 50 dc bc 56 7a f9 3c 67 84 8d 3c eb e3 90 bc
       -0.026894078 0.030453842 0.017275048 -0.017686805
0002e0 3a b8 4f bd 72 d0 ed bc e6 a1 ee 3c 34 e3 8f 3d
       -0.0507128 -0.029030059 0.029129934 0.070257574
0002f0 67 d9 46 3d 47 e8 ff ba 7f 3c db 3c 7f c2 72 3c
       0.048547175 -0.001952418 0.026762245 0.014816879
000300 19 fd 02 3d ef 74 12 3d 49 c6 ae bc a2 1f 25 bb
       0.031979654 0.035756048 -0.021334784 -0.0025195857
000310 3d 86 f0 bc 12 54 42 bc e3 8d 37 bd fd a0 8b bc
       -0.029360885 -0.011860864 -0.044813048 -0.017044539
000320 f2 ce d9 3c 76 d1 f1 3d 0e f9 11 3d 6a 85 0f 3d
       0.026587937 0.1180753 0.035637908 0.035039343
000330 1a e5 bd 3c 56 4a 8f 3d f8 aa 24 3d b3 de a2 bc
       0.023180533 0.069966 0.04020211 -0.019881582
000340 84 07 15 3d c9 ca 3e bd b5 56 be 3d 1a 75 82 bd
       0.03638412 -0.04658011 0.09293882 -0.063699916
000350 92 38 67 bd 07 8b 21 3c 55 03 49 3d 46 75 05 3e
       -0.056450434 0.009859807 0.049075443 0.13033018
000360 62 13 ba 3c 5a 5e 90 bd bc ff c1 3c 6e 1f 49 3d
       0.02271432 -0.07049246 0.023681514 0.04910224
000370 9f 04 c8 3b 45 b8 0f 3d bc a3 00 bd 8a 5d 2b bd
       0.0061040665 0.035087842 -0.03140615 -0.041837253
000380 96 d3 e3 3b 17 0f ac 3c af 09 2c bd 51 4a e6 3b
       0.0069527132 0.02100329 -0.042001422 0.007027902
000390 33 e5 11 3d e5 ab 0a bc 1f 8b 88 bc 9d 5b 04 bd
       0.035618972 -0.008463834 -0.0166679 -0.03231393
0003a0 fe 2d dc bb 5e 45 0b 3d 70 97 9a bc b4 55 11 bc
       -0.00671935 0.0340017 -0.01887104 -0.008870531
0003b0 a9 91 ba 3c 35 1a ae bc 78 83 cf bc 63 4f 7e 3b
       0.022774534 -0.02125273 -0.025331244 0.0038804642
0003c0 fe 74 1a 3d 56 45 b7 3a c2 e8 1a bc dd aa 43 bd
       0.03770923 0.0013982456 -0.009454908 -0.04777037
0003d0 cd 5e b3 3c 95 aa fa b9 7b 05 00 bd f9 a1 71 bd
       0.02189579 -0.0004781081 -0.031255227 -0.05899236
0003e0 82 22 14 bd 81 f0 2c bd 0d 9d 49 3c 15 45 d9 3d
       -0.03616572 -0.04222155 0.01230551 0.106088795
0003f0 50 f9 a6 3c c3 7a ab 3c 2e 53 8f bc 11 05 c5 bd
       0.020382553 0.02093256 -0.017495718 -0.09620107

conv3.bias f4 [32]
000000 04 b1 05 bd 75 e5 c8 bc 95 1f 5b bc 69 19 50 3d
       -0.03263952 -0.024523476 -0.013374229 0.050805483
000010 3f 72 98 3d 3a 3d 1a bd cb 66 91 3c 1f 75 80 bd
       0.07443666 -0.037656046 0.01774921 -0.06272339
000020 98 ec ad 3d eb 4a 9d bc 66 dd 1e bd 4c c4 9c bc
       0.08492392 -0.019200763 -0.03878536 -0.01913657
000030 a9 ab 7a 3d 54 f3 99 bd af b8 99 bc 9e 38 92 3d
       0.061198864 -0.07517114 -0.018764822 0.07139705
000040 30 2f 49 3c e1 4b fa 3d cb f5 43 bb 2a 0b 33 bc
       0.012279317 0.12221504 -0.0029901143 -0.010927955
000050 80 0a 07 bd 7e 1c a0 3d 13 7a 18 3e 85 26 eb 3d
       -0.032968998 0.078179345 0.14890318 0.114819564
000060 53 26 df 3d 39 98 58 3d 3b 72 b5 3c db bb 0e 3e
       0.10895982 0.052879546 0.022149196 0.13938849
000070 58 6a f5 bb 01 66 5b 3d 81 4f 43 3d 7b 95 cd 3d
       -0.007489484 0.053564075 0.047683243 0.10038277

fc.weight f4 [32, 4608]
000000 d6 9f 0b ba b2 dc 22 3c 8a 40 24 bc 1c 30 98 bb
       -0.00053262466 0.009940313 -0.010025153 -0.004644407
000010 80 15 6a 3b 29 a7 95 ba af 1d 45 3c 71 2a 2e bc
       0.0035718381 -0.0011417615 0.012031003 -0.010630236
000020 c1 3b e1 3b 90 7a 43 ba 09 d5 7e 3c 60 70 8c 3c
       0.0068735783 -0.0007456923 0.015553721 0.017143428
000030 b2 94 ab 3c 69 73 81 bb 00 c2 8d 3c d9 06 0e bc
       0.020944927 -0.0039505255 0.01730442 -0.008668625
000040 50 70 fb bb 03 dd f3 3b 4c 24 86 ba 7c 12 dc 3b
       -0.007673301 0.007442118 -0.0010234206 0.0067160707
000050 a0 0d 5d 3c 5b 80 cf ba a2 5a 4e 3b 87 60 05 3b
       0.013492018 -0.00158311 0.0031487127 0.0020351724
000060 54 da 7d 3c 85 1c 2d 3c 46 4e cc 3a 1f 42 3c bc
       0.015493948 0.010565882 0.0015587292 -0.011490374
000070 64 12 3d 3b e3 23 f2 3b 0b b5 03 ba 14 ed bf 3b
       0.0028850073 0.007389532 -0.0005024231 0.0058571193
000080 69 a7 35 3b 75 45 cc bb 5c 99 07 bc a5 72 7f bb
       0.0027718192 -0.006233866 -0.00827631 -0.0038978246
000090 4d 83 2f bc 1c a3 88 39 b6 72 8e bb f0 03 67 bc
       -0.010712457 0.00026061467 -0.0043471707 -0.01410006
0000a0 c2 a9 97 39 3b a3 b7 3a e3 af 84 3b 5e 1c f4 ba
       0.00028927444 0.0014010438 0.0040492876 -0.0018624177
0000b0 b6 9e cf bb af 9a 51 bb 69 26 3e bc 00 17 b4 ba
       -0.0063360585 -0.0031983068 -0.011605837 -0.0013739765
0000c0 cb fc fa 3b fd 6f 28 ba c1 57 c1 38 d8 28 30 3c
       0.00765953 -0.0006425379 9.2193026e-05 0.010751925
0000d0 9f bd 24 3c 60 2a 46 3c 0f 0a 2a 3c fc 09 d7 3b
       0.010054975 0.012095064 0.010378375 0.0065624695
0000e0 a6 36 f3 ba b1 0e 73 bc 42 f7 90 3a d3 a2 eb 3b
       -0.0018555715 -0.014835046 0.0011060017 0.007191041
0000f0 ad 0c 1c ba 74 04 d4 3b 8d 7d 4c bc 5d 69 b5 ba
       -0.00059528166 0.0064702574 -0.0124811055 -0.0013840605
000100 9c 38 55 3c 56 c8 78 bc 44 af 76 bb 13 fc b0 3b
       0.013013985 -0.015184483 -0.0037641088 0.0054011433
000110 91 42 81 bc a6 57 c9 bb b5 ff f1 bb 67 a4 0a 3c
       -0.015778812 -0.0061444817 -0.007385219 0.008462048
000120 a8 77 88 bb 24 22 8d ba a3 c8 2d 3c 9c 09 2a 3b
       -0.0041646548 -0.0010767621 0.010606918 0.002594567
000130 9c 4f c4 bb b4 97 c3 3b a8 03 fd bb 99 36 39 3c
       -0.0059909355 0.005969012 -0.007721383 0.011304521
000140 b9 8f c3 bb 27 b5 4a 3c 38 58 c5 bb 83 01 bc 3b
       -0.005968061 0.012372292 -0.0060224794 0.005737485
000150 33 5d 37 3c 22 ec c2 bb 6a 22 20 bb a0 1e 05 bc
       0.011191654 -0.0059485594 -0.0024434575 -0.008124977
000160 b3 e6 d6 3b c2 ed c1 bb ea bd 29 3c b9 94 2e bc
       0.006558263 -0.0059182355 0.01036022 -0.010655575
000170 bb b7 e8 bb 75 2d aa bb 2e 40 1e 3c 0d 7a ad 3b
       -0.0071019805 -0.005193407 0.009658856 0.0052940906
000180 de 86 91 bb 48 62 0d 3c f7 fb 5a bc ea fc 2d bb
       -0.0044411262 0.008629389 -0.013365737 -0.0026548454
000190 0a 5a 3f 3c e2 5b 99 bb f3 5a 15 bc e5 4d f9 bb
       0.011679182 -0.0046801427 -0.009115922 -0.0076081627
0001a0 38 c9 1e 3c 5e d6 cf b9 22 b9 80 3a 69 07 0a bc
       0.009691529 -0.00039641833 0.0009820799 -0.008424618
0001b0 dd 52 c5 3b ce ce 59 39 19 74 84 3c ce 67 0e 3c
       0.006021841 0.00020771773 0.01616864 0.008691741
0001c0 4f 65 6b bc 47 3c 27 3c 53 68 35 bc ec 03 cb bb
       -0.014367416 0.010207242 -0.011072236 -0.006195536
0001d0 1a 0b a3 b9 d0 9d 73 bc d7 2d 1d bb d6 70 d3 bb
       -0.00031098054 -0.014869168 -0.0023983622 -0.00645266
0001e0 1d db 2b b9 40 eb 17 3a 13 24 30 ba 6c 4c c6 3b
       -0.00016389457 0.0005795248 -0.00067192427 0.0060515907
0001f0 9f 5f a4 bb d7 00 74 b9 fa 25 2b bb ca 41 05 bc
       -0.0050162817 -0.00023269966 -0.0026115165 -0.008133361
000200 d8 23 8c bc 09 8c 9c 3b 89 59 4c bc e8 e5 a9 3b
       -0.017106935 0.0047774357 -0.012472519 0.0051848777
000210 fa e4 65 3c 0d f0 88 3c d4 43 c2 bb 22 a7 5f 3c
       0.014031643 0.016716028 -0.005928496 0.013650687
000220 c4 5c 0c bc 91 96 41 bc 89 d2 46 bb 48 3b 4c bc
       -0.008567039 -0.011815683 -0.003033789 -0.012465306
000230 36 ee 83 bc 1f 73 36 bb 50 9c 04 3c 2f 60 0b 3c
       -0.016104799 -0.0027839614 0.008093908 0.008506819
000240 b1 74 05 3c 9b e4 49 3c b2 3d 66 3c 08 22 07 bc
       0.008145497 0.01232257 0.014052795 -0.00824786
000250 78 79 00 3c ff 4c 52 ba 33 31 be 3b c3 b0 91 bc
       0.00784146 -0.00080223376 0.005804205 -0.017784482
000260 be 5a 77 3a e2 d7 2a ba f8 95 0f 3b 4d d0 dc bb
       0.0009435824 -0.00065171544 0.0021909457 -0.0067386986
000270 59 45 14 3b 86 7e 7e 38 67 85 7c bb c9 53 2b 3c
       0.0022624342 6.0676153e-05 -0.0038531662 0.010456988
000280 dd f0 84 bc 26 64 f3 ba 6f 03 84 3b 55 0d 56 39
       -0.016228134 -0.0018569275 0.0040287296 0.00020413597
000290 bd ca de 3b cb 77 4b b9 d4 15 23 3c 90 88 1c 3c
       0.0067990706 -0.00019404215 0.009953935 0.009554043
0002a0 54 fb d7 bb 19 25 30 bc ec 16 03 bc 9c 4f 35 bc
       -0.00659124 -0.010751032 -0.0080010705 -0.011066344
0002b0 c5 20 66 bc b6 a1 1f 37 f1 f1 67 bc 68 08 5c bc
       -0.014045899 9.51479e-06 -0.014156804 -0.013429739
0002c0 d0 27 0b bc 7c b6 8d bc 6f ec 2b bc 70 6f 71 bb
       -0.008493379 -0.01729893 -0.010493382 -0.0036840104
0002d0 37 aa 02 3b 09 12 c0 3b 62 35 33 3c e1 87 c5 bb
       0.0019937882 0.005861525 0.01093802 -0.006028161
0002e0 1b 62 46 bc f5 1e 51 bc df 41 5d bc b5 24 db 3b
       -0.012108351 -0.012763728 -0.013504474 0.0066877254
0002f0 71 d8 21 3c 7e 95 2f 39 d2 c1 b2 3a 10 a0 4a 3b
       0.009878264 0.0001674499 0.0013638085 0.0030918159
000300 24 ad 09 3c ca 6b d1 3b 30 08 ec 3b 04 d5 f3 3a
       0.008403096 0.0063910233 0.0072031245 0.0018602912
000310 a2 0c c1 ba f0 b3 f2 bb 5a 61 c6 3b db e2 9f 3a
       -0.0014728496 -0.007406704 0.0060540857 0.0012198346
000320 75 e0 ca 3b 6f 38 32 3c 70 ae 06 3c 4e 9c 3d 3c
       0.006191308 0.010877713 0.0082203 0.0115729105
000330 7c 8a 08 3c af ba c2 bb 62 fd 03 bc c3 84 9d 39
       0.0083337985 -0.0059426646 -0.008056017 0.0003004429
000340 7b 4a c6 3b 98 c1 7d bc ac 85 a3 3a a9 93 74 3b
       0.006051359 -0.015488051 0.001247575 0.0037319458
000350 03 71 22 bc 35 4e 29 bc 60 75 1c bc de 6e 4a 3c
       -0.009914639 -0.010333587 -0.009549469 0.012355534
000360 9a 87 7e bb a7 aa 32 bc f9 de 9d 3b 57 79 4e bc
       -0.003883815 -0.0109049445 0.00481784 -0.012602172
000370 f3 4c 8c bc 08 43 e2 3b 34 e1 3e bb a0 06 00 bb
       -0.017126536 0.0069049634 -0.002912593 -0.0019535199
000380 24 69 b1 3b 5b 2d 9b bb 6a 7d 86 bb 52 90 a5 bb
       0.005414145 -0.0047356314 -0.004104306 -0.0050526047
000390 cb 1e a8 3b af 3a b5 bb 92 f5 cf ba 91 e5 4c bc
       0.005130624 -0.0055306773 -0.0015866032 -0.012505905
0003a0 a6 71 19 bc 79 cc 77 bc f1 8f f9 3b 59 7e 15 3c
       -0.009365475 -0.015124434 0.007616036 0.009124362
0003b0 cc 0d 2d 3b 34 2e 2a 3b 38 97 22 bc e0 69 11 3b
       0.0026405929 0.002596748 -0.009923749 0.002218835
0003c0 29 7b c0 3b 3a 09 47 3c cc 56 6c bc 77 97 41 bc
       0.005874057 0.012148196 -0.014424991 -0.011815897
0003d0 3e 37 2c bc 92 74 15 3c 58 73 2f bb 20 14 0e 3c
       -0.010511218 0.009122031 -0.002677163 0.00867179
0003e0 bf 4d 0f bc 5b 3f aa bb 33 4b 33 ba 9b f3 bb bb
       -0.008746563 -0.005195541 -0.00068395137 -0.005735827
0003f0 d5 22 61 3c ac 4c 3b 3c 38 b6 53 bc 16 92 16 bc
       0.013741215 0.011431854 -0.012921862 -0.009190103

fc.bias f4 [32]
000000 4c 23 47 bb bc c1 8d 3c c0 0a 10 bc b2 c0 c9 ba
       -0.0030386029 0.017304294 -0.0087916255 -0.0015392511
000010 ef b0 47 3c f7 cf 3e ba 32 8f 38 bc f5 47 5b 3c
       0.01218818 -0.0007278914 -0.011264609 0.013383855
000020 b9 23 f5 bb 9d 0a 17 bd c4 55 4f bb 9c e5 2e 3c
       -0.007481065 -0.036875356 -0.0031636814 0.01067486
000030 e1 89 6f bb 15 f9 a5 3c 0d 8a 80 bc 09 56 6d 3c
       -0.0036550688 0.020260373 -0.015690828 0.014485844
000040 0e 1a 75 3d 8a e5 91 bb 90 b0 6a 3c ea 4a 45 3c
       0.0598393 -0.004452412 0.014324322 0.012041787
000050 b9 26 be 3b 1a af 02 3d a6 2a 98 3a da 98 96 3d
       0.005802956 0.03190527 0.001160939 0.07353373
000060 33 4b 66 3d 88 59 0c 3c 51 aa 36 3c 4d 3c d0 3a
       0.05622406 0.008566268 0.011149005 0.0015887112
000070 ad 1b 88 3c f2 0e 8e 3c 79 e8 e6 3b e4 4d 94 3c
       0.01661476 0.01734111 0.007046756 0.018103547

translation.weight f4 [2, 32]
000000 9b 33 9e bb 3d f8 99 bb 66 86 b6 bb d3 c2 95 bb
       -0.004827929 -0.0046987818 -0.0055702208 -0.004570344
000010 5c 95 93 bb d9 78 41 3b 7d ec da bb 9d f4 94 bb
       -0.004503889 0.0029521494 -0.0066810236 -0.0045457617
000020 da de a1 bb 65 6a 6c 3c 77 4e 99 bb 37 e3 9b bb
       -0.004939896 0.014429663 -0.004678543 -0.0047573107
000030 80 0a 9b bb 0e b9 98 bb 6c a5 26 bb 47 78 71 bb
       -0.0047314763 -0.004660732 -0.002542819 -0.0036845373
000040 50 40 84 bb ae be 9c bb 1b 06 a2 bb fd 00 96 bb
       -0.004035987 -0.004783473 -0.0049445755 -0.0045777545
000050 1d 3f 01 3c ed 59 4c 3c 84 6a 96 bb 06 58 c7 bc
       0.007888583 0.012472612 -0.0045903344 -0.024333965
000060 33 db 04 bd 92 fa 9c bb 2e f4 c9 bb e2 43 b3 bb
       -0.032435607 -0.0047906125 -0.0061631417 -0.0054707387
000070 ac 96 9c bb c5 4f a6 bb 95 44 a4 bb 15 44 96 bb
       -0.0047787037 -0.0050754272 -0.0050130584 -0.0045857527
000080 0d 72 b8 3a b1 73 d7 3a 04 eb 9c bb 17 72 9a 3a
       0.0014072076 0.0016437677 -0.0047887582 0.0011783269
000090 7f 16 cf 3a 1c 42 5c ba b0 6c 74 3a 01 88 c5 3a
       0.0015799551 -0.0008402185 0.0009324057 0.001507044
0000a0 d1 15 71 3a 9b ab 7b 3c 4b 06 b0 ba a6 73 02 3b
       0.00091966713 0.015360738 -0.001342961 0.0019905358
0000b0 46 d7 bc 3a 73 a6 0c 3b 7b ee 91 3b 4f 34 0d 3b
       0.0014407418 0.0021461516 0.004453478 0.002154607
0000c0 5c f9 46 3b 71 3c e6 3a 52 62 32 3a c7 35 ab 3a
       0.0030361032 0.001756562 0.0006804812 0.0013062292
0000d0 f2 bb a4 3a 3b 60 49 3b 15 ae e9 3a 4e 42 53 bd
       0.0012568219 0.0030727524 0.001782837 -0.051576905
0000e0 b0 cd 87 3c e9 d5 82 3a f7 10 35 39 55 8b 3b b9
       0.016577572 0.0009981963 0.00017267825 -0.00017885615
0000f0 79 7f 36 3a 04 0a fa 3a 92 95 21 3a a8 f8 a6 3a
       0.0006961744 0.0019076471 0.00061639503 0.00127389

translation.bias f4 [2]
000000 53 e1 1d bd a5 9e b8 3d
       -0.038544964 0.09014634

rotation.weight f4 [1, 32]
000000 bd 2c 07 3b fb 8f 12 3b 26 1a af bb 8e 68 0d 3b
       0.0020626031 0.002236365 -0.0053436933 0.0021577212
000010 bf 6d 27 3b fb e8 5a ba e3 8b 95 3a 24 e1 1b 3b
       0.0025547592 -0.0008350757 0.0011409487 0.0023785317
000020 63 b4 fb 3a 97 02 a5 bb 04 08 76 39 5a 7f 2f 3b
       0.001920354 -0.005035709 0.00023463374 0.0026778788
000030 d5 98 13 3b 8d 18 36 3b 4e 3a 6e 3a 39 85 3c 3b
       0.0022521515 0.002778563 0.00090876676 0.002876593
000040 63 85 c0 3c f9 87 1c 3b 28 d4 e8 3a 60 24 12 3b
       0.023501104 0.0023884757 0.0017763423 0.0022299513
000050 f8 f3 c0 3b 3e 38 2d 3c d3 d6 23 3b 91 89 f3 bb
       0.0058884583 0.010572491 0.0024999871 -0.0074321707
000060 27 87 8a bc 9c d3 f5 3a b1 6a 95 3a 44 5a af 3a
       -0.016910149 0.0018755081 0.0011399594 0.0013378342
000070 81 51 f3 3a 2c f1 29 3b 3d eb e4 3a fd 6c 13 3b
       0.0018563719 0.0025931103 0.0017465126 0.0022495382

scaling.weight f4 [2, 32]
000000 c2 02 f4 3b 17 e9 de 3b af d0 57 3b ae 36 02 3c
       0.007446618 0.006802689 0.0032930782 0.007947607
000010 87 90 df 3b 86 29 2f 3b 54 f9 c0 3b 00 ed e6 3b
       0.006822649 0.002672763 0.005889097 0.0070472956
000020 cf ea 0c 3c 51 8f 42 3d bd 93 ad 3b 2e 74 cd 3b
       0.008600905 0.04749996 0.005297153 0.006269953
000030 4b 92 ed 3b f9 d4 c4 3b 7c e5 28 3b 66 e4 89 3b
       0.0072501055 0.0060068336 0.002577155 0.0042081354
000040 e5 83 13 bd 5d 69 dc 3b 6c b5 14 3c 37 cb f1 3b
       -0.036014456 0.0067264275 0.0090764575 0.0073789614
000050 a6 a6 43 3b 2c 7a 55 3d 28 38 de 3b 22 c1 97 bc
       0.002985397 0.052118465 0.0067815967 -0.01852471
000060 3b 11 28 bc b0 fb 0d 3c e5 62 18 3c 40 f5 25 3c
       -0.010258014 0.008665964 0.009300922 0.010129273
000070 3a 72 13 3c 9b 46 ab 3b 7f db 18 3c 66 25 f9 3b
       0.008999402 0.0052269227 0.009329676 0.007603335
000080 07 b9 fc 3b c3 f0 e9 3b 33 46 01 bc 14 56 05 3c
       0.0077124867 0.0071392967 -0.007890272 0.008138198
000090 74 c6 e9 3b b4 28 2f 3b 0c fc ca 3b a0 e7 f0 3b
       0.007134253 0.0026727142 0.006194597 0.0073518306
0000a0 fc ae 0f 3c 7a d1 25 3c ab 46 b1 3b b0 5e d5 3b
       0.008769747 0.010120744 0.0054100356 0.006511532
0000b0 aa f7 f6 3b 74 83 d2 3b 8d e7 28 3b 7a 0e 9a 3b
       0.007536848 0.006424362 0.002577278 0.004701433
0000c0 8e 67 88 bb 39 7f e7 3b 40 e9 16 3c f7 18 fb 3b
       -0.0041627353 0.0070647267 0.009210885 0.007662888
0000d0 d4 71 01 3c b5 b4 7b 3c 6f 34 ea 3b c5 09 a9 bc
       0.007900674 0.015362908 0.007147364 -0.020634541
0000e0 d6 16 59 3c 26 bf 0f 3c a0 ef 18 3c 3f 32 26 3c
       0.013250073 0.008773601 0.009334475 0.010143816
0000f0 76 bc 15 3c 1f 45 94 3b 06 01 1b 3c 95 c0 00 3c
       0.009139171 0.0045248414 0.009460693 0.007858415

scaling.bias f4 [2]
000000 70 f0 2b b9 d0 87 bc bc
       -0.00016397401 -0.02301398

shearing.weight f4 [1, 32]
000000 91 51 1b bb b8 c5 2b bb 91 31 f4 3b fb a7 11 bb
       -0.002369974 -0.002621038 0.007452198 -0.0022225368
000010 fe 6d 2f bb 3a 3a 29 39 9d c8 80 bb f3 5b 35 bb
       -0.0026768441 0.00016138787 -0.003930165 -0.0027673214
000020 bb 03 d7 ba 36 c4 2b 3d 08 35 dc ba 7a 47 61 3b
       -0.001640431 0.04193517 -0.0016800473 0.0034374879
000030 c6 0a 23 bb f2 b4 5a bb 90 82 8e 3a 27 84 5e 3b
       -0.0024878248 -0.0033372012 0.0010872651 0.003395328
000040 09 ab 8c 3b 4b 5c 3a bb 25 e7 a1 ba f2 10 25 bb
       0.00429285 -0.0028436359 -0.0012352212 -0.0025187102
000050 c4 97 db 3b 90 9f e8 3d 87 b4 46 bb 69 ae 16 3e
       0.0067014415 0.11358559 -0.0030320005 0.1471497
000060 71 20 04 3e d9 27 c5 ba b0 fc 8b 38 aa e5 7a 39
       0.12903 -0.0015041783 6.675103e-05 0.00023927414
000070 e2 82 b2 ba 22 04 c7 3c be 38 7b ba 5f 3e 24 bb
       -0.0013619328 0.024293963 -0.00095833454 -0.002506159
