output/Mess6060_i/train/model/stn_20.pt (torch_old, 658934 bytes, 14 tensors)

conv1.weight f4 [8, 2, 5, 5]
0.11076321 0.105422735 -0.084086545 -0.12749062 0.10356743 -0.13099629 0.08487093 -0.14389022
-0.07873205 -0.06648091 0.12716632 -0.0297179 0.115938865 0.034715854 0.13032733 0.087918244
0.0982613 0.11728625 -0.048040804 -0.045455053 0.03981121 0.11864732 -0.058147267 -0.11751436
-0.11717524 -0.0799289 0.008008157 -0.030776124 -0.051847126 -0.079934515 0.022171099 -0.13100176
0.1247192 -0.03611404 0.012507809 0.03189976 -0.06953155 0.09729222 -0.015218055 -0.0024618742
-0.14925633 0.0030025637 0.034295585 0.0057245605 -0.027809162 0.09228083 0.09739364 0.08317593
-0.038412638 0.0108491 -0.10479308 -0.11062248 -0.029218325 0.0113248415 -0.08760624 -0.12418701
0.059490237 0.047358632 -0.09773422 0.08891873 -0.111819655 0.101265445 0.07060719 -0.05201038
0.1295685 -0.085522786 -0.0703219 0.107325114 -0.040809732 -0.06137456 0.015473976 -0.02972538
0.08366244 0.1101982 0.05769637 0.020368617 0.025021816 -0.0071246237 0.0054981727 -0.008678739
0.08638428 0.06872689 -0.02479512 0.042606223 -0.0032469719 0.040061846 0.10587013 -0.10672689
0.009481253 -0.04021214 -0.14803495 -0.14747488 -0.028829487 0.0907806 -0.10375557 0.036334828
0.071566455 -0.11324538 0.050381888 0.016281128 -0.13968836 -0.013547658 -0.14361882 0.11268514
0.055214114 0.043359768 0.09776461 0.09739209 0.1296117 0.047392435 -0.11287643 0.12059342
0.028576817 -0.06646751 -0.06353692 0.12155861 0.020740055 0.092111744 0.0002689138 0.119764976
-0.1142969 0.02300137 0.02303245 -0.012417075 0.114951834 0.011565755 -0.009201064 0.079700954
-0.027959771 -0.025833108 -0.13347909 -0.01785072 -0.0829318 0.065036304 0.10627403 -0.148849
-0.09887563 0.119235635 -0.077230796 0.10900061 0.12230134 -0.052416384 -0.13142581 0.053813655
0.047504276 0.106012546 0.0035095573 0.05997445 -0.13815212 0.0027672981 0.031561505 0.08641882
-0.07918614 -0.020726891 -0.088509604 -0.096787706 0.05688243 0.01894007 0.052403554 -0.0073530436
-0.005089588 -0.0072567617 0.07398364 -0.1015889 0.026358062 0.07583053 0.08014096 -0.07013951
0.106670566 -0.09843289 0.072045304 0.11369797 0.0022180914 0.040642425 -0.13729568 -0.063062616
-0.062937975 -0.1392616 -0.037687518 0.09077691 -0.020715326 0.13228191 -0.13499476 0.048498992
0.11431566 0.13019122 -0.062317718 -0.13543823 -0.059873432 0.09684141 0.005052984 0.12769525
-0.11088187 -0.0964531 0.06407651 0.0412356 -0.099401996 0.12395818 -0.06212095 -0.12535
0.05089164 -0.06782386 -0.056450207 -0.06926829 0.047134656 0.07767045 0.10585978 -0.06955346
-0.023062222 0.14098403 -0.06127883 -0.040543176 -0.017457632 -0.11569511 -0.09508818 0.13665138
0.03660665 0.0360253 0.06478137 0.094834805 0.10500528 0.111226 0.06665359 0.11525179
0.10060031 -0.02759582 0.0067651323 -0.08289577 -0.11904144 0.11852376 -0.111743666 -0.096962124
-0.14707467 -0.12176688 0.016278055 0.05904459 -0.12959722 -0.002575564 -0.11962975 0.010593883
0.07336056 -0.06784981 -0.07775151 0.07522355 -0.10806993 -0.041336816 -0.13226211 0.08302398
0.0280235 -0.073151164 0.09619644 0.12931032 0.05300358 -0.10479987 -0.035844523 0.109261565
00000000: d2d7 e23d e0e7 d73d 9135 acbd e78c 02be
00000010: 291b d43d e423 06be cfd0 ad3d f557 13be
00000020: 453e a1bd 2527 88bd e337 023e f472 f3bc
00000030: 5b71 ed3d 3632 0e3d 8774 053e 7b0e b43d
00000040: 383d c93d c633 f03d 6fc6 44bd 142f 3abd
00000050: 1411 233d 5efd f23d d42b 6ebd 5eab f0bd
00000060: 92f9 efbd c3b1 a3bd a534 033c 361e fcbc
00000070: a75d 54bd b5b4 a3bd 2aa0 b53c 5325 06be
00000080: c86c ff3d 51ec 13bd 8eed 4c3c 53a9 023d
00000090: 8f66 8ebd 2541 c73d 2655 79bc 6557 21bb
000000a0: a7d6 18be a9c6 443b 8779 0c3d 1895 bb3b
000000b0: 0ad0 e3bc bbfd bc3d 5176 c73d 2458 aa3d
000000c0: 9256 1dbd 6cc0 313c c19d d6bd 0a8e e2bd
000000d0: 455b efbc d48b 393c e66a b3bd c255 febd
000000e0: 09ac 733d 20fb 413d e128 c8bd 061b b63d
000000f0: b401 e5bd 4264 cf3d 819a 903d d608 55bd
00000100: 9bad 043e 9226 afbd ee04 90bd 45cd db3d
00000110: 1b28 27bd e463 7bbd 8f86 7d3c a482 f3bc
00000120: 3757 ab3d 98af e13d 0753 6c3d 16dc a63c
00000130: 8dfa cc3c ad75 e9bb 042a b43b 4531 0ebc
00000140: 3eea b03d afc0 8c3d 231f cbbc dd83 2e3d
00000150: 26cb 54bb e417 243d 70d2 d83d a193 dabd
00000160: 4257 1b3c 7cb5 24bd 7996 17be a803 17be
00000170: d12b ecbc 2eeb b93d cd7d d4bd d4d3 143d
00000180: 6f91 923d 32ed e7bd 3d5d 4e3d 0060 853c
00000190: 770a 0fbe fff6 5dbc d010 13be 77c7 e63d
000001a0: 3228 623d 039a 313d d038 c83d 8175 c73d
000001b0: eeb8 043e 921e 423d c22b e7bd aff9 f63d
000001c0: ee19 ea3c 1e20 88bd a51f 82bd b8f3 f83d
000001d0: 0ce7 a93c 15a5 bc3d 00fd 8c39 5747 f53d
000001e0: 7e14 eabd 5e6d bc3c 8cae bc3c fd70 4bbc
000001f0: de6b eb3d 4b7e 3d3c 0fc0 16bc 413a a33d
00000200: e40b e5bc f49f d3bc beae 08be ac3b 92bc
00000210: 26d8 a9bd c131 853d 33a6 d93d df6b 18be
00000220: 4e7f cabd d031 f43d 2e2b 9ebd b63b df3d
00000230: 2079 fa3d 90b2 56bd 7d94 06be b56b 5c3d
00000240: d893 423d 1b1d d93d 9a00 663b c5a7 753d
00000250: c077 0dbe 8f5b 353b a346 013d 5afc b03d
00000260: 582c a2bd 71cb a9bc 8644 b5bd a238 c6bd
00000270: 8dfd 683d 3528 9b3c 1ca5 563d cdf1 f0bb
00000280: 8fc6 a6bb 21ca edbb bc84 973d d70d d0bd
00000290: ddec d73c 094d 9b3d f220 a43d 4ea5 8fbd
000002a0: 1976 da3d 2f97 c9bd 7d8c 933d 7bda e83d
000002b0: 665d 113b ac78 263d 3d97 0cbe f926 81bd
000002c0: a0e5 80bd 989a 0ebe 3a5e 1abd 3fe9 b93d
000002d0: 30b3 a9bc e974 073e 113c 0abe e1a6 463d
000002e0: 541e ea3d d950 053e dd40 7fbd 52b0 0abe
000002f0: d83d 75bd ca54 c63d 8193 a53b 8bc2 023e
00000300: 0916 e3bd 3489 c5bd 8c3a 833d a9e6 283d
00000310: 4693 cbbd c9dd fd3d 8a72 7ebd c05b 00be
00000320: c173 503d 3ce7 8abd 5538 67bd 89dc 8dbd
00000330: 4510 413d af11 9f3d 03cd d83d 0b72 8ebd
00000340: fcec bcbc 1e5e 103e 83ff 7abd 9a10 26bd
00000350: 4f03 8fbc 8ff1 ecbd 97bd c2bd 57ee 0b3e
00000360: dbf0 153d 448f 133d 18ac 843d c038 c23d
00000370: 020d d73d 75ca e33d ad81 883d 2109 ec3d
00000380: 8907 ce3d a110 e2bc 0bae dd3b 42c5 a9bd
00000390: 00cc f3bd 96bc f23d ddd9 e4bd 1494 c6bd
000003a0: be9a 16be ea60 f9bd 8e59 853c bdd8 713d
000003b0: 22b5 04be cbca 28bb 7100 f5bd f791 2d3c
000003c0: 103e 963d d7f4 8abd 2f3c 9fbd ce0e 9a3d
000003d0: c453 ddbd cb50 29bd b86f 07be 7a08 aa3d
000003e0: 8a91 e53c 47d0 95bd a402 c53d ed69 043e
000003f0: 481a 593d 50a1 d6bd b5d1 12bd 87c4 df3d

conv1.bias f4 [8]
0.0630768 0.00084815366 -0.030910695 -0.024746502 -0.10175424 0.10407892 0.12334773 -0.11365368
00000000: 692e 813d a156 5e3a 6d38 fdbc 2db9 cabc
00000010: 8764 d0bd 5427 d53d bc9d fc3d 43c3 e8bd

conv2.weight f4 [16, 8, 5, 5]
-0.07206347 -0.07089844 -0.01619676 -0.0049389396 -0.05095494 0.034611538 0.000112823865 -0.040458344
-0.07306868 0.05038891 0.065697074 0.0021037576 -0.03842158 0.0403987 0.037090253 -0.014512676
0.061939526 -0.056694183 -0.01258276 0.055421412 -0.048108954 -0.026126264 -0.03446513 -0.033369154
0.05784293 0.039059144 -0.06878209 -0.047794454 -0.0057582064 -0.028166283 -0.04343529 -0.07407805
0.04743696 0.03458233 0.015110715 -0.020401891 -0.07328165 -0.0093351295 0.021769883 -0.026050465
0.05102317 0.011259775 -0.008715778 0.022540865 0.031095995 -0.056611057 0.01630169 -0.06961522
-0.020473737 -0.028737992 0.04860169 -0.0734961 0.01978763 -0.06977168 0.025246475 0.011952312
-0.033189572 0.015563426 0.06254787 0.037664376 -0.06988873 -0.023686355 0.05881462 0.005619741
0.0033371653 -0.0003277422 -0.030229144 -0.023840008 -0.0006448474 0.047845118 -0.025316674 -0.023907341
0.008067533 -0.031261407 0.056269504 0.048760023 -0.0013486827 -0.049876116 0.01581359 0.056036495
0.018889654 0.025339227 -0.041524373 -0.0736252 -0.030485641 -0.0022460825 0.05849404 0.0105871735
-0.016953005 -0.021719988 -0.018143777 -0.042507317 -0.03391121 0.008959543 0.043808438 0.055210166
0.022545043 -0.053448398 0.060959775 0.063945964 0.0059804576 0.031209676 0.09413718 0.0060018995
0.06453795 0.039486613 0.0689798 0.05560268 0.101731695 0.0914705 -0.019746846 0.0728804
0.017488562 -0.0051617147 0.043424316 0.019379908 -0.01546736 -0.03093943 -0.0077432883 0.038501903
0.071679 0.07150361 0.049589146 0.09793726 -0.030135313 -0.046101443 0.029287618 -0.06510568
0.066421054 0.0096439365 -0.027611367 0.062014233 0.032398943 0.05934068 0.053315014 -0.013923006
0.063096754 0.008696594 0.0066315657 0.024494655 -0.057111792 -0.043573722 0.06596584 -0.046838865
0.03779817 0.040721875 -0.059059665 -0.009545873 -0.0018627224 0.05155329 -0.023184562 0.060213067
-0.06262769 0.026361436 0.03544546 -0.02917869 -0.026810955 -0.048302095 0.015657138 0.020612154
-0.028571365 0.053610127 -0.014117403 -0.014135405 0.052161463 0.00866007 0.03428042 0.038371615
-0.04938418 -0.003993777 0.058720373 -0.047303952 0.005939546 0.0493781 0.004655267 -0.00016446513
0.043259714 -0.03873299 0.07942243 0.07759115 -0.0040817056 -0.007812997 0.005941876 0.09161483
-0.0053022057 0.036883596 -0.049505662 0.040649313 0.06337907 0.043901417 0.011059503 0.021990225
0.07933035 0.049902644 0.0033527494 -0.042925213 0.06677281 -0.0101180505 0.06135991 0.0037124897
0.0021169542 -0.056173086 -0.028530939 0.004102595 -0.070529886 -0.013528093 0.04129472 0.048764315
0.050771438 -0.023496881 0.0061015426 -0.05652699 0.036106072 0.011903809 0.058025718 -0.010534836
0.06791198 0.03588907 0.060443927 -0.004770466 -0.055140078 -0.05471964 -0.06538265 0.012495728
-0.05398081 -0.025254674 0.033897933 0.06321585 -0.019166881 0.04745123 -0.0076725893 -0.015239217
-0.009165985 -0.033124767 0.01751102 -0.00084974046 -0.034724582 0.044561066 -0.03296781 -0.049852792
0.024044251 -0.004387238 -0.03980561 -0.059010472 -0.023605099 -0.054139476 0.03790776 -0.009150835
0.034684103 0.03208014 0.0032701923 -0.01331057 -0.038682576 0.014073082 -0.06240966 -0.036500312
00000000: 0396 93bd 3433 91bd 11af 84bc d4d6 a1bb
00000010: 21b6 50bd d4c4 0d3d da9b ec38 a6b7 25bd
00000020: 08a5 95bd 9a64 4e3d 308c 863d 32df 093b
00000030: f25f 1dbd 1b79 253d f3eb 173d 93c6 6dbc
00000040: 4db4 7d3d 2938 68bd ec27 4ebc 9001 633d
00000050: e50d 45bd bf06 d6bc 4f2b 0dbd 18ae 08bd
00000060: b5ec 6c3d 7bfc 1f3d a0dd 8cbd 1ec4 43bd
00000070: 56af bcbb fabc e6bc 34e9 31bd 3cb6 97bd
00000080: 424d 423d 34a6 0d3d ef92 773c de21 a7bc
00000090: b114 96bd 5ff2 18bc c156 b23c c967 d5bc
000000a0: acfd 503d eb7a 383c 9fcc 0ebc 9fa7 b83c
000000b0: 07bd fe3c ffe0 67bd 1f8b 853c 6d92 8ebd
000000c0: 8ab8 a7bc f06b ebbc 9112 473d 2085 96bd
000000d0: ab19 a23c 74e4 8ebd b2d1 ce3c a1d3 433c
000000e0: caf1 07bd bdfd 7e3c 1919 803d f645 1a3d
000000f0: d321 8fbd e309 c2bc 99e7 703d ce25 b83b
00000100: 58b4 5a3b d0d4 abb9 1ca3 f7bc 1f4c c3bc
00000110: fa0a 29ba 3ef9 433d ea64 cfbc 54d9 c3bc
00000120: b02d 043c f60b 00bd da7a 663d 97b8 473d
00000130: 48c6 b0ba e64a 4cbd 808b 813c 8686 653d
00000140: 7abe 9a3c 3694 cf3c 7615 2abd cfc8 96bd
00000150: 06bd f9bc 0333 13bb 7297 6f3d d375 2d3c
00000160: 07e1 8abc 1eee b1bc 42a2 94bc 271c 2ebd
00000170: 7be6 0abd 0ccb 123c 7a70 333d 0e24 623d
00000180: 62b0 b83c b5ec 5abd f5b0 793d 1af6 823d
00000190: b7f7 c33b 6fab ff3c feca c03d 95ab c43b
000001a0: 792c 843d b7bc 213d 4845 8d3d a3bf 633d
000001b0: b558 d03d e354 bb3d 23c4 a1bc 5242 953d
000001c0: 2c44 8f3c 9a23 a9bb b2dd 313d 9dc2 9e3c
000001d0: cf6a 7dbc b074 fdbc 69bb fdbb 2cb4 1d3d
000001e0: 71cc 923d 7c70 923d fd1d 4b3d 5593 c83d
000001f0: 55de f6bc ded4 3cbd 96ec ef3c 2056 85bd
00000200: c307 883d 9a01 1e3c 3c31 e2bc a302 7e3d
00000210: c1b4 043d 360f 733d d860 5a3d 521d 64bc
00000220: df38 813d 297c 0e3c 9b4d d93b 04a9 c83c
00000230: 0eee 69bd 5c7a 32bd 1919 873d 1cda 3fbd
00000240: 41d2 1a3d fbcb 263d 8ce8 71bd 4b66 1cbc
00000250: 9826 f4ba 8b29 533d 8ded bdbc faa1 763d
00000260: f242 80bd f0f3 d73c 422f 113d 2608 efbc
00000270: a6a2 dbbc 6bd8 45bd 6643 803c d2da a83c
00000280: 7f0e eabc 4b96 5b3d ae4c 67bc 3098 67bc
00000290: 42a7 553d f7e2 0d3c a069 0c3d 8e2b 1d3d
000002a0: 1147 4abd 3bde 82bb c684 703d cac1 41bd
000002b0: 86a0 c23b b140 4a3d 368b 983b 4674 2cb9
000002c0: 1931 313d 7ca6 1ebd 3aa8 a23d 1ce8 9e3d
000002d0: d4bf 85bb 1602 00bc 12b4 c23b 8ea0 bb3d
000002e0: 20be adbb 4113 173d 73c6 4abd e57f 263d
000002f0: e3cc 813d f9d1 333d eb32 353c d824 b43c
00000300: f377 a23d b766 4c3d cdb9 5b3b 59d2 2fbd
00000310: 2fc0 883d 2ec6 25bc 8754 7b3d 3e4d 733b
00000320: 99bc 0a3b c015 66bd b7b9 e9bc 106f 863b
00000330: f971 90bd efa4 5dbc a724 293d 17bd 473d
00000340: b6f5 4f3d 887c c0bc 73ef c73b d888 67bd
00000350: f6e3 133d 3208 433c 60ac 6d3d 4e9a 2cbc
00000360: 7015 8b3d 6b00 133d 0d94 773d 9251 9cbb
00000370: 90da 61bd b421 60bd 57e7 85bd e2ba 4c3c
00000380: fb1a 5dbd e4e2 cebc 8fd8 0a3d 5077 813d
00000390: dd03 9dbc 395c 423d 586a fbbb e9ad 79bc
000003a0: ed2c 16bc d6ad 07bd 4573 8f3c 1ec1 5eba
000003b0: 5d3b 0ebd aa85 363d 4109 07bd 7132 4cbd
000003c0: 73f8 c43c d2c2 8fbb 350b 23bd f7b4 71bd
000003d0: 7b5f c1bc 5bc1 5dbd 2b45 1b3d 62ed 15bc
000003e0: eb10 0e3d 7766 033d b950 563b 9414 5abc
000003f0: 9f71 1ebd c992 663c 46a1 7fbd 5a81 15bd

conv2.bias f4 [16]
-0.03716442 0.026968963 0.06040282 0.011040429 0.031901833 -0.052716076 -0.054175515 -0.03617571
-0.052274883 -0.027031977 -0.053443473 -0.026486525 -0.03655853 0.034394585 0.00053136196 0.0021557042
00000000: b839 18bd 04ee dc3c f368 773d eae2 343c
00000010: 7fab 023d d0ec 57bd 25e7 5dbd fb2c 14bd
00000020: 301e 56bd 2a72 ddbc 8be7 5abd 45fa d8bc
00000030: 66be 15bd 56e1 0c3d 194b 0b3a b746 0d3b

conv3.weight f4 [32, 16, 5, 5]
0.016154887 -0.050091963 -0.024641983 -0.0069468515 -0.052219685 0.021611143 -0.04241384 0.028909886
0.04440178 0.004917689 -0.029235715 0.03056165 -0.037519813 -0.002579493 0.026066735 0.04198453
-0.0010406177 -0.008514041 -0.009229709 -0.053721383 0.003856001 -0.044505224 -0.0003540441 -0.016864559
0.026522458 -0.021685893 0.03427968 -0.013198979 -0.010494048 -0.046253875 0.041893378 0.003450038
-0.04648751 0.0016694278 0.019467903 -0.012140506 0.03925786 0.023226192 -0.007869604 0.048387676
0.033838864 -0.007703617 -0.0065565687 0.013905606 -0.019290494 0.029453507 -0.049267925 -0.029197337
0.020198315 -0.050082006 -0.020446206 -0.030874595 0.022556394 -0.0022299732 -0.04027267 0.03621381
-0.0269188 -0.009883932 0.0122117605 -0.03820302 -0.008491866 -0.020818211 -0.016028073 -0.022579238
0.027232472 -0.028431742 -0.03835026 0.017547168 0.011907304 -0.004129513 0.00019762227 0.045277435
-0.020737192 -0.04885308 -0.05376322 0.0066489107 0.015510377 -0.0016271372 -0.042923998 -0.039354533
-0.04110628 0.026651513 0.006924226 -0.029491289 -0.047513045 0.020361314 -0.00472046 0.046567623
-0.043113187 -0.04188928 -0.00045772086 0.027426789 0.029356686 0.045975637 0.029513367 0.01355191
-0.038735617 0.044155817 -0.0253074 0.029508013 0.018399054 -0.03157754 -0.0063301474 -0.0059473324
0.035873402 0.035912227 0.008646791 -0.030230822 0.012617873 0.03932204 -0.028849246 0.038005214
0.009634925 0.02630106 0.01582225 0.029377695 -0.04445261 0.019091409 -0.045394104 -0.00461425
0.037120298 -0.042757202 -0.039566033 -0.023308905 0.0005468626 -0.01208654 -0.044185333 0.0015605943
-0.017521761 -0.028497912 -0.004583021 0.012101915 0.00320097 -0.038005475 0.02887763 0.0043113586
-0.025354799 0.038532805 0.0052731093 0.021065138 0.030147176 -0.0058210553 0.036424186 -0.005022126
0.03511115 0.0006955872 0.017932698 0.020294998 -0.032614063 0.03873957 0.008481535 0.026044706
-0.029078167 -0.010925451 0.04020622 -0.024789574 0.0134736365 0.051451433 -0.039824206 0.006901937
0.0156145245 0.039101165 -0.009448415 -0.04141488 -0.023603637 0.022663714 -0.029584462 -0.036346074
0.0051094587 0.020361153 -0.023856662 -0.012447644 0.034229286 -0.027875122 -0.0350446 -0.02196105
0.034371443 -0.020244082 -0.039212674 -0.040709183 -0.017785622 0.029655444 0.013097544 -0.02206927
-0.04847011 -0.0362192 0.0047072717 0.03639395 0.02034621 -0.011571209 0.020723335 -0.0021946908
0.0012833289 0.017936818 -0.017574525 0.008815777 -0.0012345937 0.009665253 -0.016144767 0.02697772
-0.042803656 0.0311976 -0.044144206 -0.036624525 -0.034186896 -0.00092715316 -0.0050555007 -0.05288273
0.021420091 0.0076083182 0.052405994 -0.032714646 -0.04424639 0.0027995722 0.031851415 0.037804104
0.023616433 0.0033999316 0.015155999 -0.029986475 -0.043012556 -0.040107954 -0.037994515 0.0019514095
0.034714837 0.027039792 -0.037814118 0.00876138 0.0390337 -0.004056381 -0.014533251 -0.03221134
-0.008746094 0.032514423 -0.019303037 -0.012755594 0.019179799 -0.02418034 -0.028130231 0.0033514965
0.03099972 0.0002834877 -0.006953805 -0.044657752 0.024830297 -0.0029669306 -0.027074888 -0.048929196
-0.028656838 -0.040134795 0.011616149 0.040371247 -0.0049027405 0.036240682 -0.0050838315 -0.02244587
00000000: 4157 843c 3b2d 4dbd fcdd c9bc 6aa2 e3bb
00000010: 4fe4 55bd da09 b13c 22ba 2dbd 6dd4 ec3c
00000020: a4de 353d 9124 a13b bd7f efbc 6d5c fa3c
00000030: 60ae 19bd b60c 29bb e889 d53c f8f7 2b3d
00000040: 5665 88ba 7a7e 0bbc 3538 17bc f40a 5cbd
00000050: f6b4 7c3b 1c4b 36bd ff9e b9b9 8b27 8abc
00000060: a045 d93c 9da6 b1bc da68 0c3d 8840 58bc
00000070: 3aef 2bbc b474 3dbd 6498 2b3d 081a 623b
00000080: b069 3ebd b4d0 da3a 277b 9f3c f9e8 46bc
00000090: dacc 203d db44 be3c 83ef 00bc 2832 463d
000000a0: 9f9a 0a3d a06e fcbb 7cd8 d6bb 57d4 633c
000000b0: 1907 9ebc 7b48 f13c 2acd 49bd 412f efbc
000000c0: f076 a53c ca22 4dbd cd7e a7bc b8ec fcbc
000000d0: 30c8 b83c be24 12bb f5f4 24bd ef54 143d
000000e0: d184 dcbc 37f0 21bc d613 483c c57a 1cbd
000000f0: 7821 0bbc f48a aabc 4e4d 83bc 18f8 b8bc
00000100: a216 df3c afe9 e8bc 2a15 1dbd 14bf 8f3c
00000110: da16 433c de50 87bb d338 4f39 d574 393d
00000120: 0be1 a9bc 2b1a 48bd d236 5cbd 1bdf d93b
00000130: 3c1f 7e3c aa45 d5ba 13d1 2fbd 3832 21bd
00000140: 0f5f 28bd 4654 da3c 9ee4 e23b b797 f1bc
00000150: 0a9d 42bd c5cc a63c 17ae 9abb b1bd 3e3d
00000160: 7497 30bd 1894 2bbd 41fa efb9 25ae e03c
00000170: 6f7d f03c f350 3c3d 04c6 f13c d508 5e3c
00000180: 3da9 1ebd bbdc 343d 7751 cfbc caba f13c
00000190: 9db9 963c 7357 01bd 206d cfbb d7e1 c2bb
000001a0: fdef 123d b318 133d 45ab 0d3c a1a6 f7bc
000001b0: 32bb 4e3c 2610 213d 4155 ecbc 5bab 1b3d
000001c0: cedb 1d3c 5275 d73c aa9d 813c 7ea9 f03c
000001d0: f113 36bd 9665 9c3c 2bef 39bd 2233 97bb
000001e0: 740b 183d 2d22 2fbd fe0f 22bd 51f2 bebc
000001f0: 545b 0f3a a006 46bc aefb 34bd db8c cc3a
00000200: cc89 8fbc 7474 e9bc 2b2d 96bb 1c47 463c
00000210: 5dc7 513b a1ab 1bbd c890 ec3c 4c46 8d3b
00000220: deb4 cfbc 93d4 1d3d 0cca ac3b cc90 ac3c
00000230: 36f7 f63c 8dbe bebb 8731 153d a590 a4bb
00000240: b6d0 0f3d 1158 363a 98e7 923c b241 a63c
00000250: 5396 05bd 62ad 1e3d 23f6 0a3c b55b d53c
00000260: 5635 eebc aa00 33bc 47af 243d 8113 cbbc
00000270: 87c0 5c3c bdbe 523d b51e 23bd a529 e23b
00000280: 10d4 7f3c 8b28 203d 86cd 1abc a6a2 29bd
00000290: 6a5c c1bc 41a9 b93c 1d5b f2bc 9fdf 14bd
000002a0: 3f6d a73b 6fcc a63c 0c6f c3bc 34f1 4bbc
000002b0: 0234 0c3d 5e5a e4bc ed8a 0fbd a9e7 b3bc
000002c0: 12c9 0c3d ebd6 a5bc 789d 20bd acbe 26bd
000002d0: 27b3 91bc f9ef f23c 1597 563c 9dca b4bc
000002e0: 9888 46bd 955a 14bd 753f 9a3b d311 153d
000002f0: 18ad a63c 2b95 3dbc fcc3 a93c cdd4 0fbb
00000300: 5f35 a83a 3cf0 923c 73f8 8fbc 0c70 103c
00000310: 17d2 a1ba 025b 1e3c 0842 84bc 6100 dd3c
00000320: e352 2fbd 1c92 ff3c 8ed0 34bd 9903 16bd
00000330: 8f07 0cbd 320c 73ba 9da8 a5bb 909b 58bd
00000340: 3079 af3c 334f f93b aba7 563d cbff 05bd
00000350: b43b 35bd 0779 373b a176 023d 7ad8 1a3d
00000360: 4077 c13c 63d1 5e3b de50 783c 32a6 f5bc
00000370: ef2d 30bd 3d48 24bd 23a0 1bbd 70c6 ff3a
00000380: 2531 0e3d 8e82 dd3c fae2 1abd e48b 0f3c
00000390: cde1 1f3d 64eb 84bb df1c 6ebc 0af0 03bd
000003a0: c74b 0fbc d82d 053d 6721 9ebc d7fc 50bc
000003b0: f41e 9d3c d915 c6bc 5f71 e6bc c8a4 5b3b
000003c0: 20f3 fd3c 13a1 9439 bfdc e3bb 0ceb 36bd
000003d0: e868 cb3c d670 42bb 28cc ddbc fb69 48bd
000003e0: bfc1 eabc 6264 24bd a951 3e3c 525c 253d
000003f0: 2ba7 a0bb 1c71 143d 4596 a6bb 67e0 b7bc

conv3.bias f4 [32]
-0.019937895 -0.015513733 -0.02541812 -0.002157335 0.008716364 -0.028229125 -0.0070346836 -0.02584975
0.016840033 0.02549358 -0.05081113 -0.029185645 0.005952582 -0.022910032 -0.019401181 0.029467085
-0.0019735422 0.025853265 0.0038026941 0.002663559 -0.032829218 0.006155682 0.058740232 0.054168735
0.041372754 -0.010029436 0.0037085023 0.049373213 -0.007280412 0.01772307 0.008591846 0.036518555
00000000: cc54 a3bc 502d 7ebc a939 d0bc 1362 0dbb
00000010: 15cf 0e3c c440 e7bc 3483 e6bb dbc2 d3bc
00000020: 1cf4 893c ead7 d03c 551f 50bd bc16 efbc
00000030: e10d c33b d2ad bbbc 3aef 9ebc f564 f13c
00000040: 8b56 01bb 3aca d33c 9f36 793b 1b8f 2e3b
00000050: ee77 06bd 9ab5 c93b 9999 703d 09e0 5d3d
00000060: 7a76 293d 8152 24bc 580a 733b 913b 4a3d
00000070: 8690 eebb f92f 913c d0c4 0c3c 7b94 153d

fc.weight f4 [32, 4608]
-0.00053262466 0.009940313 -0.010025153 -0.004644407 0.0035718381 -0.0011417615 0.012031003 -0.010630236
0.0068735783 -0.0007456923 0.015553721 0.017143428 0.020944927 -0.0039505255 0.01730442 -0.008668625
-0.007673301 0.007442118 -0.0010234206 0.0067160707 0.013492018 -0.00158311 0.0031487127 0.0020351724
0.015493948 0.010565882 0.0015587292 -0.011490374 0.0028850073 0.007389532 -0.0005024231 0.0058571193
0.0027718192 -0.006233866 -0.00827631 -0.0038978246 -0.010712457 0.00026061467 -0.0043471707 -0.01410006
0.00028927444 0.0014010438 0.0040492876 -0.0018624177 -0.0063360585 -0.0031983068 -0.011605837 -0.0013739765
0.00765953 -0.0006425379 9.219309e-05 0.010751925 0.010054975 0.012095064 0.010378375 0.0065624695
-0.0018555715 -0.014835046 0.0011060017 0.007191041 -0.00059528166 0.0064702574 -0.0124811055 -0.0013840605
0.013013985 -0.015184483 -0.0037641088 0.0054011433 -0.015778812 -0.0061444817 -0.007385219 0.008462048
-0.0041646548 -0.0010767621 0.010606918 0.002594567 -0.0059909355 0.005969012 -0.007721383 0.011304521
-0.005968061 0.012372292 -0.0060224794 0.005737485 0.011191654 -0.0059485594 -0.0024434575 -0.008124977
0.006558263 -0.0059182355 0.01036022 -0.010655575 -0.0071019805 -0.005193407 0.009658856 0.0052940906
-0.0044411262 0.008629389 -0.013365737 -0.0026548454 0.011679182 -0.0046801427 -0.009115922 -0.0076081627
0.009691529 -0.00039641833 0.0009820799 -0.008424618 0.006021841 0.00020771775 0.01616864 0.008691741
-0.014367416 0.010207242 -0.011072236 -0.006195536 -0.00031098054 -0.014869168 -0.0023983622 -0.00645266
-0.00016389457 0.0005795248 -0.00067192427 0.0060515907 -0.0050162817 -0.00023269962 -0.0026115165 -0.008133361
-0.017106935 0.0047774357 -0.012472519 0.0051848777 0.014031643 0.016716028 -0.005928496 0.013650687
-0.008567039 -0.011815683 -0.003033789 -0.012465306 -0.016104799 -0.0027839614 0.008093908 0.008506819
0.008145497 0.01232257 0.014052795 -0.00824786 0.00784146 -0.00080223376 0.005804205 -0.017784482
0.0009435824 -0.00065171544 0.0021909457 -0.0067386986 0.0022624342 6.0676237e-05 -0.0038531662 0.010456988
-0.016228134 -0.0018569275 0.0040287296 0.00020413607 0.0067990706 -0.00019404205 0.009953935 0.009554043
-0.00659124 -0.010751032 -0.0080010705 -0.011066344 -0.014045899 9.514936e-06 -0.014156804 -0.013429739
-0.008493379 -0.01729893 -0.010493382 -0.0036840104 0.0019937882 0.005861525 0.01093802 -0.006028161
-0.012108351 -0.012763728 -0.013504474 0.0066877254 0.009878264 0.00016745001 0.0013638085 0.0030918159
0.008403096 0.0063910233 0.0072031245 0.0018602912 -0.0014728496 -0.007406704 0.0060540857 0.0012198346
0.006191308 0.010877713 0.0082203 0.0115729105 0.0083337985 -0.0059426646 -0.008056017 0.0003004429
0.006051359 -0.015488051 0.001247575 0.0037319458 -0.009914639 -0.010333587 -0.009549469 0.012355534
-0.003883815 -0.0109049445 0.00481784 -0.012602172 -0.017126536 0.0069049634 -0.002912593 -0.0019535199
0.005414145 -0.0047356314 -0.004104306 -0.0050526047 0.005130624 -0.0055306773 -0.0015866032 -0.012505905
-0.009365475 -0.015124434 0.007616036 0.009124362 0.0026405929 0.002596748 -0.009923749 0.002218835
0.005874057 0.012148196 -0.014424991 -0.011815897 -0.010511218 0.009122031 -0.002677163 0.00867179
-0.008746563 -0.005195541 -0.00068395137 -0.005735827 0.013741215 0.011431854 -0.012921862 -0.009190103
00000000: d69f 0bba b2dc 223c 8a40 24bc 1c30 98bb
00000010: 8015 6a3b 29a7 95ba af1d 453c 712a 2ebc
00000020: c13b e13b 907a 43ba 09d5 7e3c 6070 8c3c
00000030: b294 ab3c 6973 81bb 00c2 8d3c d906 0ebc
00000040: 5070 fbbb 03dd f33b 4c24 86ba 7c12 dc3b
00000050: a00d 5d3c 5b80 cfba a25a 4e3b 8760 053b
00000060: 54da 7d3c 851c 2d3c 464e cc3a 1f42 3cbc
00000070: 6412 3d3b e323 f23b 0bb5 03ba 14ed bf3b
00000080: 69a7 353b 7545 ccbb 5c99 07bc a572 7fbb
00000090: 4d83 2fbc 1ca3 8839 b672 8ebb f003 67bc
000000a0: c2a9 9739 3ba3 b73a e3af 843b 5e1c f4ba
000000b0: b69e cfbb af9a 51bb 6926 3ebc 0017 b4ba
000000c0: cbfc fa3b fd6f 28ba ca57 c138 d828 303c
000000d0: 9fbd 243c 602a 463c 0f0a 2a3c fc09 d73b
000000e0: a636 f3ba b10e 73bc 42f7 903a d3a2 eb3b
000000f0: ad0c 1cba 7404 d43b 8d7d 4cbc 5d69 b5ba
00000100: 9c38 553c 56c8 78bc 44af 76bb 13fc b03b
00000110: 9142 81bc a657 c9bb b5ff f1bb 67a4 0a3c
00000120: a877 88bb 2422 8dba a3c8 2d3c 9c09 2a3b
00000130: 9c4f c4bb b497 c33b a803 fdbb 9936 393c
00000140: b98f c3bb 27b5 4a3c 3858 c5bb 8301 bc3b
00000150: 335d 373c 22ec c2bb 6a22 20bb a01e 05bc
00000160: b3e6 d63b c2ed c1bb eabd 293c b994 2ebc
00000170: bbb7 e8bb 752d aabb 2e40 1e3c 0d7a ad3b
00000180: de86 91bb 4862 0d3c f7fb 5abc eafc 2dbb
00000190: 0a5a 3f3c e25b 99bb f35a 15bc e54d f9bb
000001a0: 38c9 1e3c 5ed6 cfb9 22b9 803a 6907 0abc
000001b0: dd52 c53b cfce 5939 1974 843c ce67 0e3c
000001c0: 4f65 6bbc 473c 273c 5368 35bc ec03 cbbb
000001d0: 1a0b a3b9 d09d 73bc d72d 1dbb d670 d3bb
000001e0: 1ddb 2bb9 40eb 173a 1324 30ba 6c4c c63b
000001f0: 9f5f a4bb d400 74b9 fa25 2bbb ca41 05bc
00000200: d823 8cbc 098c 9c3b 8959 4cbc e8e5 a93b
00000210: fae4 653c 0df0 883c d443 c2bb 22a7 5f3c
00000220: c45c 0cbc 9196 41bc 89d2 46bb 483b 4cbc
00000230: 36ee 83bc 1f73 36bb 509c 043c 2f60 0b3c
00000240: b174 053c 9be4 493c b23d 663c 0822 07bc
00000250: 7879 003c ff4c 52ba 3331 be3b c3b0 91bc
00000260: be5a 773a e2d7 2aba f895 0f3b 4dd0 dcbb
00000270: 5945 143b 9d7e 7e38 6785 7cbb c953 2b3c
00000280: ddf0 84bc 2664 f3ba 6f03 843b 5c0d 5639
00000290: bdca de3b c477 4bb9 d415 233c 9088 1c3c
000002a0: 54fb d7bb 1925 30bc ec16 03bc 9c4f 35bc
000002b0: c520 66bc 57a2 1f37 f1f1 67bc 6808 5cbc
000002c0: d027 0bbc 7cb6 8dbc 6fec 2bbc 706f 71bb
000002d0: 37aa 023b 0912 c03b 6235 333c e187 c5bb
000002e0: 1b62 46bc f51e 51bc df41 5dbc b524 db3b
000002f0: 71d8 213c 8595 2f39 d2c1 b23a 10a0 4a3b
00000300: 24ad 093c ca6b d13b 3008 ec3b 04d5 f33a
00000310: a20c c1ba f0b3 f2bb 5a61 c63b dbe2 9f3a
00000320: 75e0 ca3b 6f38 323c 70ae 063c 4e9c 3d3c
00000330: 7c8a 083c afba c2bb 62fd 03bc c384 9d39
00000340: 7b4a c63b 98c1 7dbc ac85 a33a a993 743b
00000350: 0371 22bc 354e 29bc 6075 1cbc de6e 4a3c
00000360: 9a87 7ebb a7aa 32bc f9de 9d3b 5779 4ebc
00000370: f34c 8cbc 0843 e23b 34e1 3ebb a006 00bb
00000380: 2469 b13b 5b2d 9bbb 6a7d 86bb 5290 a5bb
00000390: cb1e a83b af3a b5bb 92f5 cfba 91e5 4cbc
000003a0: a671 19bc 79cc 77bc f18f f93b 597e 153c
000003b0: cc0d 2d3b 342e 2a3b 3897 22bc e069 113b
000003c0: 297b c03b 3a09 473c cc56 6cbc 7797 41bc
000003d0: 3e37 2cbc 9274 153c 5873 2fbb 2014 0e3c
000003e0: bf4d 0fbc 5b3f aabb 334b 33ba 9bf3 bbbb
000003f0: d522 613c ac4c 3b3c 38b6 53bc 1692 16bc

fc.bias f4 [32]
-0.0030386029 0.017304294 -0.008791614 -0.0015392511 0.012987766 -0.0007278914 -0.011264609 0.013383855
-0.007481065 -0.007422024 -0.0029985458 0.01067492 -0.0036550688 0.020819651 -0.015690828 0.014536071
0.00628751 -0.004452412 0.014324322 0.012041787 0.005803101 1.4360368e-05 0.0018020695 0.016115924
0.01790508 0.008566268 0.011149005 0.0015887112 0.01661476 0.01895574 0.007046756 0.018103547
00000000: 4c23 47bb bcc1 8d3c b40a 10bc b2c0 c9ba
00000010: a4ca 543c f7cf 3eba 328f 38bc f547 5b3c
00000020: b923 f5bb 7334 f3bb 4083 44bb dce5 2e3c
00000030: e189 6fbb f98d aa3c 0d8a 80bc b328 6e3c
00000040: 7507 ce3b 8ae5 91bb 90b0 6a3c ea4a 453c
00000050: f127 be3b 50ed 7037 6b33 ec3a 8b05 843c
00000060: adad 923c 8859 0c3c 51aa 363c 4d3c d03a
00000070: ad1b 883c 1149 9b3c 79e8 e63b e44d 943c

translation.weight f4 [2, 32]
-0.004827929 -0.0046987818 -0.0055702073 -0.004570344 -0.0045047146 0.0029521494 -0.0066810236 -0.0045457617
-0.004939896 -0.007042283 -0.004678475 -0.004757303 -0.0047314763 -0.0046608457 -0.002542819 -0.0036958556
-0.0010140565 -0.004783473 -0.0049445755 -0.0045777545 0.007888389 -0.0063241436 -0.0045910785 -0.026229998
-0.02116726 -0.0047906125 -0.0061631417 -0.0054707387 -0.0047787037 -0.0046436894 -0.0050130584 -0.0045857527
0.0014072076 0.0016437677 -0.004788747 0.0011783269 0.0015803216 -0.0008402185 0.0009324057 0.001507044
0.00091966713 0.0001738005 -0.0013408867 0.0019905395 0.0014407418 0.0021461516 0.004453478 0.002151123
0.007033651 0.001756562 0.0006804812 0.0013062292 0.0012568027 0.0037011164 0.0017828415 -0.0071634054
-0.0019178803 0.0009981963 0.00017267825 -0.00017885615 0.0006961744 0.0019990578 0.00061639503 0.00127389
00000000: 9b33 9ebb 3df8 99bb 4986 b6bb d3c2 95bb
00000010: 499c 93bb d978 413b 7dec dabb 9df4 94bb
00000020: dade a1bb f4c2 e6bb e54d 99bb 26e3 9bbb
00000030: 800a 9bbb 02ba 98bb 6ca5 26bb 2b36 72bb
00000040: 17ea 84ba aebe 9cbb 1b06 a2bb fd00 96bb
00000050: 4d3e 013c c33a cfbb c270 96bb 4be0 d6bc
00000060: f666 adbc 92fa 9cbb 2ef4 c9bb e243 b3bb
00000070: ac96 9cbb 172a 98bb 9544 a4bb 1544 96bb
00000080: 0d72 b83a b173 d73a ecea 9cbb 1772 9a3a
00000090: cb22 cf3a 1c42 5cba b06c 743a 0188 c53a
000000a0: d115 713a 373e 3639 b1c0 afba b673 023b
000000b0: 46d7 bc3a 73a6 0c3b 7bee 913b dbf9 0c3b
000000c0: 8b7a e63b 713c e63a 5262 323a c735 ab3a
000000d0: 4dbb a43a 6e8e 723b 3cae e93a 00bb eabb
000000e0: 6261 fbba e9d5 823a f710 3539 558b 3bb9
000000f0: 797f 363a a002 033b 9295 213a a8f8 a63a

translation.bias f4 [2]
-0.022862444 0.02238
00000000: 054a bbbc 4356 b73c

rotation.weight f4 [1, 32]
0.0020626031 0.002236365 -0.0053436807 0.0021577212 0.002555198 -0.0008350757 0.0011409487 0.0023785317
0.001920354 -0.00060740154 0.00023707868 0.0026778823 0.0022521515 0.0027785518 0.00090876676 0.0028723613
0.01287395 0.0023884757 0.0017763423 0.0022299513 0.0058883163 0.008732644 0.00249991 -0.017743338
-0.01066986 0.0018755081 0.0011399594 0.0013378342 0.0018563719 0.00265833 0.0017465126 0.0022495382
00000000: bd2c 073b fb8f 123b 0b1a afbb 8e68 0d3b
00000010: 1c75 273b fbe8 5aba e38b 953a 24e1 1b3b
00000020: 63b4 fb3a 073a 1fba 5398 7839 697f 2f3b
00000030: d598 133b 5d18 363b 4e3a 6e3a 3a3e 3c3b
00000040: 43ed 523c f987 1c3b 28d4 e83a 6024 123b
00000050: c7f2 c03b 5d13 0f3c 88d5 233b 7a5a 91bc
00000060: a3d0 2ebc 9cd3 f53a b16a 953a 445a af3a
00000070: 8151 f33a 6037 2e3b 3deb e43a fd6c 133b

scaling.weight f4 [2, 32]
0.007446618 0.006802689 0.0032930702 0.007947607 0.0068270583 0.002672763 0.005889097 0.0070472956
0.008600905 0.0031681375 0.0052971127 0.0062699527 0.0072501055 0.006007089 0.002577155 0.0042283833
-0.0048055025 0.0067264275 0.0090764575 0.0073789614 0.002985304 -0.0010347209 0.0067833625 -0.002576922
-0.0019562647 0.008665964 0.009300922 0.010129273 0.008999402 0.0062854784 0.009329676 0.007603335
0.0077124867 0.0071392967 -0.00789026 0.008138198 0.0071413466 0.0026727142 0.006194597 0.0073518306
0.008769747 0.0036313497 0.0054681497 0.0065115457 0.007536848 0.0064247525 0.002577278 0.0047352817
0.0018637027 0.0070647267 0.009210885 0.007662888 0.00790048 0.0046968283 0.0071500214 -0.00080855517
0.006889736 0.008773601 0.009334475 0.010143816 0.009139171 0.006704375 0.009460693 0.007858415
00000000: c202 f43b 17e9 de3b 8dd0 573b ae36 023c
00000010: 84b5 df3b 8629 2f3b 54f9 c03b 00ed e63b
00000020: cfea 0c3c 87a0 4f3b 6793 ad3b 2d74 cd3b
00000030: 4b92 ed3b 1dd7 c43b 7ce5 283b 408e 8a3b
00000040: 7a77 9dbb 5d69 dc3b 6cb5 143c 37cb f13b
00000050: 17a5 433b 799f 87ba f846 de3b 94e1 28bb
00000060: ad34 00bb b0fb 0d3c e562 183c 40f5 253c
00000070: 3a72 133c 6af6 cd3b 7fdb 183c 6625 f93b
00000080: 07b9 fc3b c3f0 e93b 2646 01bc 1456 053c
00000090: f501 ea3b b428 2f3b 0cfc ca3b a0e7 f03b
000000a0: fcae 0f3c f0fb 6d3b 2a2e b33b ce5e d53b
000000b0: aaf7 f63b bb86 d23b 8de7 283b 6c2a 9b3b
000000c0: 7c47 f43a 397f e73b 40e9 163c f718 fb3b
000000d0: 0471 013c dae7 993b ba4a ea3b 38f5 53ba
000000e0: 4bc3 e13b 26bf 0f3c a0ef 183c 3f32 263c
000000f0: 76bc 153c 60b0 db3b 0601 1b3c 95c0 003c

scaling.bias f4 [2]
0.01008997 0.015182056
00000000: 6750 253c 29be 783c

shearing.weight f4 [1, 32]
-0.002369974 -0.002621038 0.0074521853 -0.0022225368 -0.0030681728 0.00016138787 -0.003930165 -0.0027673214
-0.001640431 -0.004630498 -0.0022188511 0.003436918 -0.0024878248 -0.0033399 0.0010872651 0.003372953
0.031756155 -0.0028436359 -0.0012352212 -0.0025187102 0.006701278 0.032963414 -0.0030500554 0.056070488
0.049006034 -0.0015041783 6.675103e-05 0.00023927414 -0.0013619328 -0.003351442 -0.00095833454 -0.002506159
00000000: 9151 1bbb b8c5 2bbb 7631 f43b fba7 11bb
00000010: 6613 49bb 3a3a 2939 9dc8 80bb f35b 35bb
00000020: bb03 d7ba 6fbb 97bb 256a 11bb ea3d 613b
00000030: c60a 23bb 39e2 5abb 9082 8e3a c30c 5d3b
00000040: be12 023d 4b5c 3abb 25e7 a1ba f210 25bb
00000050: 6596 db3b a504 073d 70e3 47bb 2baa 653d
00000060: 8dba 483d d927 c5ba b0fc 8b38 aae5 7a39
00000070: e282 b2ba dea3 5bbb be38 7bba 5f3e 24bb
