output/Mess6060_e/train/model/itn_60.pt (torch_old, 23547 bytes, 23 tensors)

conv11.weight f4 [2, 1, 3, 3]
00000000: 7fd6 8a3e 7bf6 903e 583e 9bbd a507 a73e
00000010: 6930 87bd f7f1 943d c1a2 06be 9c54 593e
00000020: 4c26 9d3e 0902 6fbe 323c 863e e5cb bb3c
00000030: 217a 8b3e 415c 243d de6a 133e 8348 5a3b
00000040: 92fa 903e 2ca2 813d
0.27116773 0.2831305 -0.075802505 0.3262302 -0.066010304 0.07272714 -0.13148023 0.21223682
0.3069328 -0.2334062 0.262178 0.022924373 0.27241614 0.040127043 0.14396235 0.003330738
0.2831617 0.0632976

conv11.bias f4 [2]
00000000: 9a59 efbd 0001 d23d
-0.11687012 0.10254097

conv12.weight f4 [4, 2, 3, 3]
00000000: 0798 a0bd bdcd 09bc 2c7e a8bd b853 3f3e
00000010: 503f 2ebe 8518 c6bd 7294 efbc d330 f2bd
00000020: 621e 373d 5d6f 5bbe 9cc0 623e 4cc1 42be
00000030: ef66 4c3e 1e8b 4a3d 450a 88bd f60b 333e
00000040: 59fd 6b3d 831c 5a3e b618 623d 29a8 7cbd
00000050: 8816 913d 1314 04bd 8742 e63d 3d35 5d3e
00000060: aa5b 343e eb0e a7bd 2f04 173e f097 7d3d
00000070: d971 fe3d eeb6 0ebe 26fa 58be 6290 aebd
00000080: 7fad 33be 4dde 653e a634 ad3d 1b58 e63d
00000090: 71ab ea3d 66c0 293c 6a35 3e3e 28c9 f8bd
000000a0: f4db 053d 3147 23be e489 023e 429d 58bd
000000b0: a74d aa3d d7cc a9bc b3d0 4a3e d892 12be
000000c0: 169e dbbd 3544 08be 1f63 573e 1de8 f73d
000000d0: aaea 7c3e debe 39be 69fd 54be 94c5 6ebe
000000e0: fab2 7fbe e148 0f3e 156f 0fbb 453c bd3d
000000f0: aa16 0dbd 49aa 1bbe 034c 0f3e 31ae 93bd
00000100: 8863 d13d 1ed4 01be 8f0c 493e f4ed 7cbe
00000110: 3af4 74be 4963 1e3e 6a12 373d aac5 e2bd
-0.07841497 -0.008410868 -0.082271904 0.1868428 -0.1701634 -0.096726455 -0.029245589 -0.11825719
0.04470671 -0.214292 0.22143787 -0.1901905 0.19961141 0.04944908 -0.06642584 0.17485031
0.057614658 0.21299939 0.055199347 -0.061683808 0.070843756 -0.032245707 0.11243158 0.2160234
0.17613092 -0.08157142 0.1474769 0.061912477 0.124240585 -0.1393697 -0.21189174 -0.085236326
-0.17546652 0.22448082 0.084573075 0.112472735 0.11458481 0.010360813 0.18575063 -0.121477425
0.032680467 -0.15945126 0.12747914 -0.052884348 0.08315592 -0.020727558 0.19806175 -0.14313829
-0.10723512 -0.13307269 0.21033905 0.12104819 0.24698892 -0.18139216 -0.20799793 -0.23317558
-0.24970618 0.13992645 -0.0021886278 0.09240011 -0.034445442 -0.15201677 0.1399384 -0.07210959
0.10224062 -0.12678573 0.19633697 -0.24700147 -0.2392129 0.15467562 0.044695295 -0.11072858

conv12.bias f4 [4]
00000000: 0961 2f3e 4c7b c23d bef9 c1bd 0bce 273e
0.1712686 0.09496173 -0.09471463 0.16387193

down1.weight f4 [8, 4, 2, 2]
00000000: cd44 1c3e 79e0 f4bd 720b 86be 3d67 bcbe
00000010: d286 fbbd 8f68 d83d cb40 c8bd 095e 54be
00000020: 1c1a 853d 81de c7bd 9d59 66be f00f 05be
00000030: 2f1e babe 9162 91be d275 163e 14ff 4abd
00000040: 180a 513c 64fb 81be f6ac 96be 8f07 2abe
00000050: acdd 5d3d 8043 49be 18a4 d7bd 41fb 0abe
00000060: 431e d63c 13cc 7fbd 1676 55b9 91dc 12be
00000070: f11a cbbe df5c 8ebe 8c44 d9be 49bd c6be
00000080: 2ae6 d03e 5ca6 383e 604a a93e 4e4e 253e
00000090: 9dbc 72be c473 1f3e c8d5 d5bd b50d fbbd
000000a0: e3b5 66be 19aa 84be faf9 4a3d 411c 91bd
000000b0: 1698 e53d 76c3 13be 8fd5 4f3e 0c60 1fbe
000000c0: 3ef3 673d 8662 043e 732c 853e fc53 9d3e
000000d0: 1bf5 7f3e 20a5 41be 4b04 c93d 1f81 b8bd
000000e0: d460 46bc 38a2 3abe d813 813e 7aac 30be
000000f0: db86 9c3e c428 573e c608 9d3e 86ce 1e3c
00000100: 2b83 5d3e 3fca e73d 6ab5 ba3c e0fc 4abe
00000110: 344f a53d 929f 4dbd 9fc6 03be f74d 5b3e
00000120: 7b4a de3c bf9c 20be 696b 16be 5cb5 8cbc
00000130: 1f24 093e 685e e7bc d7a1 38be 1bba a8bd
00000140: 71b8 2cbe 1186 843d 029d 573e d465 81be
00000150: 4c1d f33d 42a8 d83d 1650 2a3e 88b3 88bd
00000160: 292c 373e 16c9 cf3d c5c4 343e f4ef 24bd
00000170: 4395 44be 5995 c4bd 193a 4bbe 4949 4cbe
00000180: 9f50 ca3d a952 303e 5088 adbd 7c53 bfbd
00000190: 3f43 dbbc cb0d 84bd 7e84 c03d 7131 bb3d
000001a0: 1cb9 89be 3472 18be 72a3 583e b4d0 cb3d
000001b0: 4f2f 0dbe 9b51 95be 93ce 92be b786 acbe
000001c0: 2933 08bd 4a3b 223e 6879 233e c042 1f3e
000001d0: efa5 68be 6bbd 13be bef8 29bd b7b6 813e
000001e0: d684 e83c 6f6b 7bbd 53d3 ce3d 31b0 adbd
000001f0: ab0e c3bd be0c 8a3e e5e0 0cbe c601 b23c
0.1526062 -0.11956877 -0.26180607 -0.36797515 -0.12281574 0.10566818 -0.09777983 -0.20738997
0.064991206 -0.09759236 -0.22495122 -0.12994361 -0.36351153 -0.28395513 0.14693382 -0.049559668
0.012758754 -0.25387108 -0.29428834 -0.16604446 0.05416648 -0.19654655 -0.10529345 -0.13572408
0.026137477 -0.06245048 -0.00020357253 -0.14341952 -0.39668992 -0.2780523 -0.4243511 -0.38816288
0.408006 0.18032211 0.33064556 0.16143152 -0.23704763 0.15571505 -0.10441166 -0.12258474
-0.22530322 -0.25911024 0.049554802 -0.07085467 0.11210649 -0.14430031 0.2029631 -0.15563983
0.05662846 0.12928209 0.26010475 0.30728137 0.24995844 -0.18910646 0.09815272 -0.09009003
-0.012108047 -0.18225944 0.25210452 -0.17253295 0.30571637 0.21011645 0.30670756 0.009692794
0.21632068 0.11317872 0.022791583 -0.19823027 0.080717474 -0.050201006 -0.12868737 0.2141646
0.027135124 -0.15684794 -0.14689411 -0.017176323 0.13392685 -0.028243259 -0.18030487 -0.08238622
-0.16867234 0.06470884 0.21055987 -0.25273 0.11870822 0.10578968 0.16632113 -0.06674868
0.1788794 0.10145776 0.17653187 -0.0402679 -0.19197564 -0.09598798 -0.19846381 -0.19949831
0.098786585 0.17219032 -0.08473265 -0.09342095 -0.026765464 -0.06447943 0.09400271 0.091402896
-0.2689904 -0.14887315 0.211561 0.09951916 -0.13787578 -0.29163823 -0.2867323 -0.3369653
-0.033251915 0.1584293 0.15964282 0.15552807 -0.22719549 -0.14427726 -0.041496985 0.25334713
0.028383654 -0.061381754 0.10098901 -0.084808715 -0.09524282 0.26962847 -0.13757665 0.021729361

down1.bias f4 [8]
00000000: eb61 70be bbff d13d bab1 a23e c5ce 633e
00000010: f3cf a6be 2433 fbbe cb8d dabe ce8d a93d
-0.23474853 0.10253855 0.3177622 0.22246845 -0.32580528 -0.49062455 -0.42686304 0.08279

conv21.weight f4 [8, 8, 3, 3]
00000000: 6fdb 313d abf7 c63d 39eb 7f3d 7fdf b03c
00000010: ad96 7c3a 1e85 b6bd 42b4 f8bd e1f2 eebd
00000020: 15de 213d 9198 85bd 3a86 a7bc 46f1 7ebd
00000030: 70fc dfbc 11af a2bd f223 99bd 98ed 953c
00000040: 0307 34bd 049a 803d 4d84 6abd 7c07 bebd
00000050: f5fa a4bc 6f5f 88bd 7601 08bd d412 dcbd
00000060: d909 563d 82c0 a7bd 8b60 703d 29e0 703d
00000070: 7e8d 423d 3558 f0bd a812 043e 8bc2 9fbd
00000080: f77e ec3c bf96 6b3e bd3d bfbb 605c 923b
00000090: 7c54 4ebd dd64 bebd 05af a23d b5c3 05be
000000a0: 7635 bd3d b086 f43d fa53 cc3d a1a7 59bb
000000b0: eb17 82bd ea1f 443d 2ead 953d dac9 ecbd
000000c0: 13be a9bc 1967 9bbd 0969 79bc 177b 4fbd
000000d0: ba7e 5ebd 7e90 22bd c08a 18be 69e2 8d3d
000000e0: 1c59 b63d 6de4 5ebd 970c 0fbd db0d 44bd
000000f0: 1ff8 c4bd 9c5b d2bd a141 953d a2ab bcbd
00000100: 9c2d a9bd 9ee8 48bb 0cb9 51bd 5001 f5bc
00000110: ec04 963c 7d58 f3bc 7b45 dabc 0b50 25bd
00000120: ceff d6bd b232 9b3d c450 90bd 507a 213d
00000130: 8fc2 54bd 2150 7bbc a263 103e 66e1 403d
00000140: 1ef2 0abe f885 0e3d 6bfd c13d f762 523c
00000150: 5793 b93d 48c3 dc3d 7f7e 2ebd 4038 593d
00000160: 7e8f b9bd 377e 6ebd 7f7b 813d 7751 df3c
00000170: fb8f e3bd 2de7 c5bd 7a9d c5bd bd28 10be
00000180: 2ed7 78bd 715f 02bd a650 553d 1e06 1ebe
00000190: 3ebf 3ebe 1f86 22be 8a4c e1bd 4941 52be
000001a0: c82e 97bd b000 14be 5d03 40be 62a8 efbd
000001b0: fbf7 43bd 6001 a6bd cef5 e7bd 6ad4 edbd
000001c0: 2e4f eabd a799 7bbd 1f41 133e 2ecc 28bd
000001d0: da59 74bd fbbe 593d 5be7 843d 57fc c23d
000001e0: 736d c13d 2d42 a83d ec93 c3bd c831 93bc
000001f0: b64d 9a3d 4093 af3c 35ec aebd 3265 fe3d
00000200: de75 60bd 9d8d ebbd 61b4 d8bd 9ade 1e3d
00000210: 40ec 95bb 4f59 103d 04d5 db3d c996 01be
00000220: 02dd 20be 1eeb 15bd c5ad c63d 6626 4b3d
00000230: 16f0 a8bd 5094 443c 1a80 9fbd e76a 7fbd
00000240: 1e98 073c 8978 233d 7c5e b93d fa11 d6bd
00000250: 046d 183d 32f3 f4bd 638e 043e 151a c33d
00000260: 0285 c5bc f7d0 bb3d 3267 f3bd 5824 3ebd
00000270: 5abf 6c3d b70d 85bd df0d 6bbd 0c7f 373c
00000280: a010 9a3d 30f4 0e3d 48a1 0b3d 12cc 99bd
00000290: e015 cebd 694e bd3c bbcd 3e3b f2ec a3bd
000002a0: d871 1a3d 0163 7d3d f9f9 a8bc e358 2dbe
000002b0: d19c 1b3e edc7 143c 75d2 febe e784 f43d
000002c0: 3106 b83d 194b 06bf c10e 52be 876d 23b9
000002d0: 208a 443e e277 883d edf8 fe3d 03d9 8f3d
000002e0: e14c bc3b 361c 9c3d 0cca 263d 33f2 16bd
000002f0: 6cc0 fe3b b8f7 13bd 868a 87bd 6a48 8a3d
00000300: 7e77 b43d 81ae 893d 45ea aa3c 4aaa 38be
00000310: dac0 2bbc dc93 a13d 6b9d 083e 8c12 db3d
00000320: ef6e 823d 3de9 283d 3207 8d3d 272d 663e
00000330: 3953 c1be 68ef debd 66ba d8bb d105 f93c
00000340: 4d66 0bbd 36ec ca3d 3ea6 043c a766 823d
00000350: ef23 b93d d90f 1abd c22d 07be c63f 203d
00000360: f12d 773d 7d73 05be 917b e0bd e4ff 04be
00000370: 0d24 bfbd bfd9 62bd 1566 e23b 04ca 1a3d
00000380: 31cb c6bd ec6d e93d 50e6 dc3c fcac febd
00000390: d2a8 26bc e108 783d e99a 82bc 1f1f e9bd
000003a0: 2cd9 5c3d 4b87 e1bd 4228 edbd 0937 8ebd
000003b0: 4553 993d 1706 203e daf7 333e 2827 ea3c
000003c0: ca55 0a3e 7078 623d 532b 09be 5b28 073e
000003d0: 01e6 1dbc ff85 1d3d a805 a63d 61b4 993d
000003e0: 141d ea3d 27b3 df3d 7d9e 9eba 36ba 1b3d
000003f0: 92c6 4bbe d8f3 47be b696 65bd 8f6c 38be
0.04342216 0.09715208 0.062480185 0.021590946 0.00096354896 -0.08912109 -0.121437564 -0.11667419
0.039518435 -0.0652324 -0.020449746 -0.062241815 -0.027342051 -0.079435475 -0.07477559 0.01830177
-0.043952 0.06279376 -0.057255078 -0.09278771 -0.020139197 -0.066588275 -0.03320452 -0.10745779
0.052255485 -0.08191015 0.05868582 0.058807526 0.04749822 -0.11735574 0.12897742 -0.07800778
0.028869135 0.23006724 -0.005836217 0.0044665784 -0.05037354 -0.09296582 0.079435386 -0.13062938
0.092387125 0.11939752 0.09976955 -0.0033211487 -0.06352218 0.047881998 0.07308422 -0.11561938
-0.020720517 -0.07588024 -0.015222796 -0.050654497 -0.054320075 -0.03968858 -0.14896679 0.0692795
0.08903715 -0.054417063 -0.034924116 -0.047864776 -0.09617638 -0.10271379 0.07287908 -0.09212424
-0.082606524 -0.0030656229 -0.051201865 -0.029907852 0.018312894 -0.02970528 -0.026644459 -0.040359538
-0.104980096 0.07578029 -0.07046655 0.039423287 -0.051943358 -0.015338928 0.14100507 0.047089957
-0.13568923 0.03479573 0.09472164 0.012840978 0.09061306 0.107794344 -0.042601105 0.05303216
-0.09060572 -0.058225837 0.06322383 0.027260525 -0.111114465 -0.09663234 -0.09649177 -0.1407804
-0.060752086 -0.0318293 0.052078865 -0.15432021 -0.1862764 -0.15871476 -0.11000927 -0.20532717
-0.0738197 -0.14453387 -0.18751283 -0.11702038 -0.047843914 -0.08105731 -0.113261804 -0.116127804
-0.114408836 -0.06142583 0.1438031 -0.041210346 -0.059656 0.05316065 0.0648944 0.09520786
0.09444704 0.08215747 -0.09549698 -0.017968073 0.075343534 0.021432519 -0.08541147 0.12421645
-0.054799907 -0.1150162 -0.105812795 0.03878651 -0.0045752823 0.03524142 0.10733989 -0.12655176
-0.15709308 -0.03660118 0.09701113 0.049597166 -0.08248918 0.011998251 -0.07788105 -0.06235781
0.008276014 0.039909873 0.090512246 -0.104526475 0.03721334 -0.11960448 0.12944941 0.09526459
-0.024111275 0.09170716 -0.11884917 -0.04642138 0.057799675 -0.064967565 -0.057386275 0.011199724
0.07522702 0.034900844 0.034089357 -0.075096264 -0.10062766 0.023108678 0.0029114324 -0.08004178
0.037706226 0.061861996 -0.020627009 -0.16928439 0.1519654 0.009080869 -0.4976994 0.119394116
0.08985556 -0.5245834 -0.2051344 -0.00015585693 0.19193316 0.06663491 0.124498226 0.070238136
0.0057464694 0.07622568 0.04072003 -0.036852073 0.0077744033 -0.036124915 -0.06618218 0.06752093
0.08811854 0.06722737 0.020863662 -0.1803371 -0.010482991 0.0788953 0.133413 0.10696897
0.06368815 0.04123806 0.06886138 0.22478162 -0.37758806 -0.10885507 -0.0066140173 0.030398281
-0.03403311 0.09908335 0.008096276 0.06367236 0.09040057 -0.03761277 -0.13201049 0.03912332
0.060346548 -0.13032337 -0.109610684 -0.1298824 -0.09333048 -0.05538344 0.006909142 0.037790313
-0.097067244 0.11397919 0.02696529 -0.12435338 -0.010172086 0.060555343 -0.015943008 -0.11382889
0.05391805 -0.11012133 -0.11579944 -0.06944091 0.074865855 0.15627323 0.17575017 0.028583124
0.13509288 0.05529064 -0.13395433 0.13198988 -0.009637357 0.038457867 0.081065476 0.07505108
0.114313275 0.109228425 -0.0012101677 0.03801938 -0.19899967 -0.19526613 -0.056051932 -0.18010162

conv21.bias f4 [8]
00000000: 476f 5a3e 3aa1 8dbd d8a0 dcbd 3eb2 9a3e
00000010: 14d3 9d3e c862 f6bd a76a 413e 7ece 1a3e
0.21331511 -0.06915517 -0.10772866 0.30214113 0.30825102 -0.1203056 0.18888341 0.15117833

down2.weight f4 [16, 8, 2, 2]
00000000: 511f 8e3d e571 ed3d d49e cebd 4400 b13d
00000010: cc56 cc3d efc0 1a3e b080 ccbd 7cd0 dbbd
00000020: 0581 41bd 8963 5abd 18ac 9b3e 0e6e 8cbd
00000030: 0ef6 8abd 0d90 26be 84fe b4bd fc69 0ebe
00000040: a6cc f0bd ea74 29be 593e 36bc 1adc 823d
00000050: bb9e 17be 2e41 34bd 5233 84bc b494 1abe
00000060: bc88 ce3c 7523 32be b5ae 39be 4146 3cbe
00000070: 869e 28be dd22 bcbd c67f 29be 8009 e9bd
00000080: 8aff b73d fcf1 1b3e d814 8d3d 6f6b 9fbd
00000090: 6b9c 36be 9264 443d c506 e7bd 8b96 8b3d
000000a0: 333e 543e 09d3 ba3d dcd3 4c3e 0ae4 453e
000000b0: 6147 713e 0652 a53c 097a c23e f9a1 a73d
000000c0: 39a1 a8bb d45c 8d3e 0ee8 393e 0d3b 293e
000000d0: 3e1b 963b e332 24be e95e aebc 3dbe 283e
000000e0: f2dc 5b3d 41e1 413b 0fb5 f2bc d6eb a1bd
000000f0: 2c78 513e cfe2 2a3d 27d0 8c3e 8024 053d
00000100: 0f79 ef3d 6ce0 8a3d 0fe8 b53d 7966 e83d
00000110: 49ba db3d 8fc4 1c3e 606e e33d 9649 86bd
00000120: e079 20be fc9d 673e 40e9 b0be e6ff 83b9
00000130: 79be dbbd f2e3 f4bd 536e d43d 78a9 92bb
00000140: 5ee5 6cbe 71ab c9bd fc64 b5be 0550 27be
00000150: b1dc 253e 189c 8d3d 1a85 3c3e 9d70 4dbc
00000160: 893c a23d ed66 3f3d e399 b1bd 0aee 263c
00000170: cccf 733d 1c32 cdbd b7b6 d3bb f754 663e
00000180: b78d 3b3e 3435 c63d 37c2 373e afaa b2bd
00000190: b4a7 ca3c bdb1 673d 23f5 90bc ebe9 93bd
000001a0: b020 1bbe 95f7 e7bc 780c 3ebd 2927 a53b
000001b0: 4087 c53e addc 0f3e 3049 203e b342 933e
000001c0: a4f1 6bbd b50d 95bc 59e2 3f3e 0a92 8cbd
000001d0: 8bcf 1fbe 64ae 1abe bf40 bbbd fe95 1ebe
000001e0: 0d37 38bd bf37 b93d e580 553d 37c7 8bbd
000001f0: 0ebf b6bd 1fe7 38bd 2c92 82bc a16b 7cbd
00000200: 2646 3bbe 8361 003d e861 19be 409d 12be
00000210: 09ca 49be 32c2 f93c 3ff9 0abe ea8c dfbd
00000220: abee 143c 6dc7 383d 7e54 5abd 9da8 80be
00000230: eaf4 a3be 3a69 63be be6d b1bd a985 16be
00000240: 2e56 8ebe 91bb 36be 84c9 8dbe 8eb8 63be
00000250: 1d93 50bd d7d5 1c3e e0c8 513d 74b7 11bd
00000260: 0067 e3b9 5f2c 5fbd 8210 2d3d bac9 943d
00000270: ff37 c4bd 8056 17be c1ab 46bd ff6b 03be
00000280: 8a32 0cbd c96b 033e 11cc 453e bc99 563e
00000290: 623d 4e3d 53ea 6cbd 69ea e53d 4313 393e
000002a0: 93e1 64be 2cd1 fabc e026 9cbe 8d2c 22bd
000002b0: bda2 8b3e 7288 033e b7a4 4d3e 6235 7c3e
000002c0: f6ae 9fbd c09a 2dbe 72e4 393d 7265 f5bd
000002d0: 7a5c 4b3a e072 023d e934 013d 6ccd 02be
000002e0: 6245 ea3d 2792 96bd 628c 2abd aced 7e3d
000002f0: 540c 4ab9 db2d 1ebd d9f6 923d f3a4 2b3c
00000300: f2aa 8fbd 410d 20bc 6c1a aebb c9f6 0fbe
00000310: 94c7 f5bc 7db1 973c a0e9 c03d a9ef c23d
00000320: f06b c2bd 7a53 75be d486 183f cd57 8e3d
00000330: d9b4 a2be b141 09be 90e4 afbe 2766 64be
00000340: b5c7 803e 4ac8 98bd 5529 ed3e da53 8dbd
00000350: a816 bd3c bc56 d0bd 0299 2d3d fc7b cbbd
00000360: 9621 59bd 727d bcbd d95b babd 80c0 3c3e
00000370: fff9 8cbb 8403 57bd e96f 3bbe aeb9 30bd
00000380: a74f 04be 7cb6 093e 26d2 6e3d d193 8b3d
00000390: dc8e b8bd 11aa adbd 2a5a ef3c dd1b 9a3d
000003a0: fde0 333c 6e62 d23c 34cb f1bd f24c 10bd
000003b0: 8670 6bbe b14d bcbe 20d7 803e 5dd4 8dbd
000003c0: f382 1ebe c3ee abbd 4bb6 95be f318 4bbe
000003d0: 3414 ebbd 1bdd fc3d 5241 5b3e 0301 643e
000003e0: f261 edbd 0108 973d e94b 37bd 00aa f23d
000003f0: 6b62 833e 0b7f b03d ba36 c73e c595 853e
0.06939567 0.11593989 -0.10088888 0.08642629 0.09977493 0.15112661 -0.09985483 -0.107331246
-0.047242183 -0.05331758 0.30404735 -0.06856929 -0.067852125 -0.16265889 -0.088376075 -0.13907617
-0.117577836 -0.16548505 -0.011123263 0.06389637 -0.14806645 -0.044007473 -0.016137753 -0.15095788
0.025211684 -0.17396338 -0.18133052 -0.18386175 -0.16466722 -0.09186337 -0.16552648 -0.11378765
0.08984287 0.15229028 0.06888741 -0.07784163 -0.17833106 0.047947474 -0.11280588 0.06815823
0.20726852 0.09122283 0.20002693 0.19325271 0.23562385 0.020180713 0.3798373 0.08185191
-0.0051461724 0.27609885 0.18154928 0.16526432 0.0045808842 -0.16035037 -0.021285491 0.1647882
0.053677507 0.0029583725 -0.029627351 -0.0790631 0.20455998 0.041720208 0.27502558 0.032505512
0.11693012 0.06781086 0.08882152 0.1134767 0.107288904 0.15309356 0.11105037 -0.06557004
-0.15671492 0.2261886 -0.34552956 -0.00025176926 -0.10729689 -0.119575396 0.10372605 -0.0044757687
-0.23134372 -0.09847153 -0.35428607 -0.16339119 0.16197468 0.06914538 0.18410149 -0.012539056
0.079217024 0.046729017 -0.0867193 0.010188589 0.059524342 -0.10019323 -0.0064609903 0.22493349
0.18315779 0.096781164 0.17945181 -0.087239616 0.02473817 0.05656599 -0.017695015 -0.07222351
-0.15149188 -0.028316298 -0.04639861 0.0050400686 0.3857975 0.14049025 0.15652919 0.28761825
-0.057603493 -0.018195013 0.18738689 -0.06863792 -0.15606515 -0.15105587 -0.09143209 -0.15486905
-0.044974376 0.09043836 0.052124877 -0.068251066 -0.089231595 -0.04514229 -0.01593884 -0.06162608
-0.18288478 0.031342994 -0.14978755 -0.14317799 -0.19705977 0.030488107 -0.13571642 -0.10915549
0.009090106 0.045112062 -0.053303234 -0.25128642 -0.32022792 -0.2220811 -0.0866351 -0.14699425
-0.27800125 -0.17844988 -0.27692807 -0.22238371 -0.05092155 0.15315948 0.05121696 -0.035575345
-0.00043373555 -0.054485675 0.04225207 0.07265039 -0.09580993 -0.14779091 -0.04850364 -0.12834166
-0.034227885 0.12834086 0.19316126 0.20957083 0.050351508 -0.057840656 0.11226351 0.18073754
-0.22351675 -0.030617319 -0.3049841 -0.03959327 0.27272597 0.12845019 0.20082365 0.24629739
-0.07797043 -0.16953564 0.045383878 -0.1198224 0.00077576155 0.031847835 0.0315446 -0.12773675
0.11439015 -0.07352095 -0.041637786 0.06223838 -0.00019268814 -0.03861795 0.07175989 0.010476339
-0.07015027 -0.009768785 -0.0053132083 -0.14058985 -0.030002393 0.01851725 0.094195604 0.09518368
-0.09493244 -0.23957625 0.5958073 0.069503404 -0.317786 -0.13403966 -0.34354067 -0.22304593
0.25152364 -0.07460077 0.46320596 -0.06900759 0.023082092 -0.10172793 0.042382248 -0.099357575
-0.053010546 -0.09203614 -0.0909955 0.18432808 -0.004302263 -0.052493587 -0.18304409 -0.043145828
-0.1292101 0.13448519 0.058305882 0.06815303 -0.09011623 -0.08479703 0.029217798 0.07524846
0.010978934 0.0256817 -0.11806336 -0.03522963 -0.22992143 -0.36778024 0.25164127 -0.06925271
-0.1547964 -0.083951496 -0.2924064 -0.19833736 -0.11478463 0.1234686 0.21411636 0.22266011
-0.11590947 0.073745735 -0.044750128 0.11848831 0.25661024 0.086179815 0.3890894 0.26090828

down2.bias f4 [16]
00000000: a1d4 a1be 1b9a 6f3e 88f0 b6be 0543 6d3e
00000010: d4f2 88bd dbe1 9e3e 8dd7 71be 9342 043c
00000020: cf56 453e 1719 6fbe 26aa 8c3e 7ccf 80be
00000030: 577e 2c3e 587e 4bbe 4934 1b3e 9d2b 6c3e
-0.31607535 0.2339863 -0.35730386 0.23170097 -0.06686941 0.3103169 -0.23617382 0.008072513
0.19271396 -0.23349415 0.27473563 -0.25158298 0.1684507 -0.19872415 0.15156664 0.23063512

conv31.weight f4 [16, 16, 3, 3]
00000000: 7c60 143d e377 16bd 54f1 24be 5514 f53d
00000010: c0ed 31bc f9f5 adbc 11eb 983d 2e00 1bbd
00000020: 8e60 3fbc ea95 2ebd ad1e b93d 7dd3 2a3e
00000030: e201 89bd 0a24 6a3d f06b 893d 49a9 0bbd
00000040: ce8e 153b 3cdf de3c c2ab cabd 0d9c 35bc
00000050: 134d 8a3c fe06 21be fa07 06be 46cb e5bd
00000060: 5193 34bd bb16 213c 917d 873d 5369 d53d
00000070: 736f 843d 3fb8 113d 8525 c43d 0323 ac3d
00000080: 2b4c 2b3e ab0e 1a3d aba2 7a3d a940 b53d
00000090: d0df ed3d 7c4c a2bd b19d 97bd 3f2d 16ba
000000a0: 2642 f03d a558 f7bc 8e43 133c d64b 513d
000000b0: 0e38 8e3c e964 a3bd 85d5 873b 9425 bf3d
000000c0: 4f8d 253c 9eeb 84bd 4c29 953d 9584 a4bd
000000d0: b1d6 40bd d8be 823d 8465 6dbd 97cb f9bd
000000e0: fec3 2abe 5d4c 6dbd 04b5 03bd 10d9 40bd
000000f0: 951b e2bc c939 31bd 2178 9ebd c311 cdbc
00000100: a03d f2bd 40ff cdbd 9dcc 08be 80b2 75bd
00000110: 9c9d 9fbc 3f52 f6bd 5636 eb3c 9994 dd3d
00000120: a5a5 1abd 0344 6b3d 26ac be3d c354 da3b
00000130: 926d 163b d46b d13d 67b9 b3bc a7bf f0bc
00000140: 878d 073e 803b 80bd 4882 46bd a8ad 35be
00000150: 8c91 f0bd 1ebc c1bd 8155 103d 1da2 29bc
00000160: f8be 5b3d c432 4f3e deca 60bd fcb9 6e3d
00000170: 926b 3d3e b1f4 023d a535 aebd ea4e 873d
00000180: 510d b1bd a059 dfbc af1d 8a3d cc96 9fbd
00000190: ecef 13be 9348 1cbe 85d6 393d c9dd 3e3d
000001a0: 391a efbd 9aee 413c 423f f43c 7384 2cbe
000001b0: f368 0cbd eab8 6f3d 4c7d 013e 97b9 2cbe
000001c0: 9bf6 7abd 67ee f53c 60d0 5cbd 62f3 b2bd
000001d0: 5758 74bd 22a7 1a3d 77cf 223c b16d 1dbe
000001e0: 5eff aabd 65af aabd 74ac fe3b 632e 89bd
000001f0: 2e8b 273d f2c4 203e f751 0a3c 00b9 8b3d
00000200: 6aa3 a73d 71c8 153d 4ebf aebd 2cd1 883d
00000210: 7fc8 6cbd df77 813c 1340 a63d f6e0 f13c
00000220: 777e 503d 8583 9d3e c5eb 79bc 32e5 ba3a
00000230: 5ffa 033e 4120 793d 2439 383e 182b 613d
00000240: 49a3 cfbc 7588 f13d a743 a03b 6128 48bd
00000250: 6e89 b3bb f921 51bd 17b0 eabd 1c50 debd
00000260: c2bd 09be 0eb9 ee3c 1bd0 6c3d f9d2 b73d
00000270: 89e9 fc3d 70e5 5ab8 007e b13c c96f 4a3d
00000280: 0fad 9a3d 3140 a7bc a1dc c23d 3662 8b3b
00000290: e0b4 673b e202 533d 3bb3 82bd 9ddc 8b3d
000002a0: 211d d33d 9491 a83d a1cb 7d3d da46 9c3d
000002b0: 0719 da3d dc29 743d 07c6 d73d 0300 ecba
000002c0: e809 1dbc 8c0e 5b3c c745 87bc 2a28 a5bd
000002d0: 6ee8 97bd 9845 c3bd 8807 92bd b550 41bd
000002e0: 90ba 09bd 3e42 94bd 717d 1abc 5a59 a4bc
000002f0: f285 06be c3fc 933d cf01 a73a 268f 68bd
00000300: 2cb6 803d ef4c 04bd 41ac 1bbd 668c 913d
00000310: 0384 aa3c e5d5 073e f280 11bc 252a b73d
00000320: fd51 3f3d a937 443b 3819 883d e810 cc3c
00000330: 3516 15be 1f8c 66bd 7fb5 5ebd 7365 93bc
00000340: 433b 16bd dd7a 59bc b2bc 553d af61 a1bc
00000350: 8524 86bc 093c d83c eb30 e2bb 92b7 473d
00000360: d9a8 523c bbf7 0bbd 5e92 88bb b67b e6bc
00000370: 5744 81bd 4ef7 75bd 4017 da3d 4fad 6f3d
00000380: c9a4 2b3d 36af 9b3c c982 35bd cb93 e8bc
00000390: 813d 4cbc d7f0 d1bd 4a75 fdbb 85ef bc3d
000003a0: f0c2 19bc 422e a33d 8724 403d fd49 e0bc
000003b0: 84b6 a2bd 5321 d3bc ea59 04be e56f 41bc
000003c0: f0e2 043d b921 8a3c bbdf 2d3c 3f3f 67bd
000003d0: f726 f13b 4719 113e c640 00be 2e38 ec3d
000003e0: 1571 2e3e 5d81 72be f764 f23d 8d9f 2c3e
000003f0: 69b4 223d 23c3 0fbd 2f01 6dbd 1eee f93d
0.036224827 -0.036735427 -0.16107684 0.11966769 -0.010859907 -0.021235453 0.0746671 -0.03784197
-0.011680735 -0.042623438 0.09039054 0.16682239 -0.06689812 0.057163276 0.067100406 -0.03409699
0.0022820714 0.027206056 -0.098960415 -0.011084569 0.016882455 -0.15725324 -0.1308898 -0.11220412
-0.044085804 0.0098320795 0.06615747 0.104204796 0.0646657 0.0355761 0.09577469 0.084051155
0.16728275 0.037611645 0.06119029 0.088502236 0.116149545 -0.079247445 -0.07403124 -0.0005728788
0.11731367 -0.030193636 0.008988274 0.051097713 0.017360713 -0.079782315 0.0041453266 0.09333339
0.010104491 -0.06490253 0.072832674 -0.080331005 -0.047079746 0.06384057 -0.05795814 -0.12197035
-0.16676328 -0.057934154 -0.03215505 -0.047082007 -0.027601043 -0.043268 -0.077377565 -0.025032884
-0.1182816 -0.10058451 -0.13359304 -0.059984684 -0.019484334 -0.12027406 0.028712433 0.108193584
-0.037755627 0.057437908 0.093101785 0.0066629364 0.0022953493 0.10225645 -0.021938993 -0.029388262
0.13237582 -0.06261349 -0.04846409 -0.17742026 -0.11746511 -0.09459709 0.035237793 -0.010353592
0.05364892 0.2023421 -0.05488097 0.058282837 0.18498066 0.031971637 -0.08506326 0.066068485
-0.08645118 -0.027264416 0.06743943 -0.07792434 -0.14446992 -0.1526206 0.045370597 0.04659823
-0.116749234 0.011836672 0.02981532 -0.168474 -0.034279775 0.058525957 0.12645453 -0.16867672
-0.061270338 0.030020906 -0.05390966 -0.08737828 -0.05965456 0.037757047 0.009937159 -0.15373875
-0.08349489 -0.08334235 0.007772023 -0.06698301 0.040904216 0.15700129 0.0084423935 0.06822395
0.08185466 0.03656811 -0.08532582 0.06680521 -0.057808395 0.01580423 0.0811769 0.029526215
0.050901856 0.30764404 -0.015253966 0.0014258979 0.12888478 0.060821775 0.17990547 0.054972738
-0.025346415 0.11793605 0.0048908773 -0.048866633 -0.0054790294 -0.05105779 -0.11459368 -0.108551234
-0.13451293 0.029140975 0.057815652 0.08975787 0.12349231 -5.218893e-05 0.021666527 0.049423013
0.075525396 -0.020416351 0.09514738 0.004253651 0.0035355613 0.05151642 -0.06381842 0.06829188
0.1030829 0.08230892 0.061961774 0.07630701 0.10649305 0.059610233 0.105358176 -0.0018005375
-0.009584881 0.013370167 -0.016512765 -0.08064301 -0.07417379 -0.09534758 -0.07130343 -0.04719611
-0.033625185 -0.07239197 -0.009429322 -0.020062137 -0.13137034 0.07225945 0.0012741628 -0.056777142
0.062847465 -0.032299932 -0.03800607 0.07106857 0.020814901 0.13265188 -0.008880841 0.08943585
0.04670905 0.0029940403 0.06645435 0.024910405 -0.14559253 -0.056285974 -0.054372307 -0.01799271
-0.03667761 -0.013273922 0.052181907 -0.0196999 -0.016374836 0.026395814 -0.006902804 0.04875905
0.012857639 -0.0341718 -0.004167839 -0.028135162 -0.06311863 -0.0600503 0.10648966 0.05851489
0.0419052 0.019004446 -0.04431418 -0.028390786 -0.012465836 -0.10251015 -0.007734929 0.09225372
-0.009384856 0.07967807 0.046909835 -0.02737903 -0.07944968 -0.025772726 -0.12924924 -0.011806463
0.032442987 0.016861783 0.0106124235 -0.0564568 0.0073593813 0.14169799 -0.12524709 0.11534153
0.17035325 -0.2368216 0.11835664 0.16857739 0.039722834 -0.035098206 -0.057862457 0.122036204

conv31.bias f4 [16]
00000000: e8de 433c 9c54 0c3e a809 27be 811e 973e
00000010: f1e9 c93d 9fdf 523e eb66 813d f9b4 843e
00000020: d5e9 5c3e f11a 9f3c 3598 253e b14d 043e
00000030: 65b7 4d3e abc7 a83d 32f8 99be a0ce 353d
0.011955 0.13704151 -0.16312277 0.2951546 0.09859074 0.20593117 0.06318458 0.2591932
0.21573575 0.019422026 0.16171344 0.12920262 0.2008949 0.08241209 -0.3007217 0.044386506

up2.weight f4 [16, 8, 2, 2]
00000000: 296e 36be 137b f23d 9595 c03c 1f33 e8bd
00000010: c1f8 d53d 2710 063e a6d8 22bd ad01 dcbd
00000020: 80e3 d43d 491b bebd 45a1 a63d 7b33 2cbd
00000030: d7ec c1bd 0368 53be 7f98 0dbe 7bb0 0ebe
00000040: b94d 1dbc 10a0 a2bd 3c7f 163e 0305 7b3e
00000050: bdb3 0a3e b822 353d 33da 983e 22f2 6e3e
00000060: ecb2 fbbd 3131 2dbe e8b5 3ebd cdf4 1fbd
00000070: fe43 8dbe 3e5c 62be 0727 0cbe 82e3 bb3d
00000080: 7960 a6bd 73ae 823d ad4e 96bd ae20 febd
00000090: 34d7 8fbe 50b3 64bd 7d98 a53d 133f 9abe
000000a0: c023 853c 03e0 f03c b2ff 0c3e 159a ccbc
000000b0: 149b 1cbe 3e36 59be f302 abbc ec9d 7b3d
000000c0: 33ed 46bd 3383 b33d 4b30 223e 59b4 96bc
000000d0: 7e5d d439 ef26 79bd 0036 163c 19c9 df3d
000000e0: e053 3d3e a5cf c5bc bf64 4b3e ebaa 3b3e
000000f0: 1d4f 203d 4bd9 803e d9c4 683d 27f2 333e
00000100: 1317 12be fe38 6c3e 103b ea3d caed eebd
00000110: de04 36be e7fb fbbd af95 51bd 92a9 133d
00000120: f4b8 523d 23dd 463c 95cd a33d 5a9e af3c
00000130: ffca 31bb f8c0 1dbe e2a9 fb3d 4f9e 0cbe
00000140: 2c52 40bc f907 893b cd92 05be d926 913c
00000150: 55e0 6b3d 8a51 ec3d 8406 173e a217 d4bd
00000160: c8a8 34be ffd5 8ebd e55e 3fbe 29fd a83c
00000170: 6ea4 18be e35f 21be dfdf 3a3a 8bd8 7f3d
00000180: bf61 333e fdb8 7abe 1b47 78bd 6780 0d3e
00000190: 09bf 133e d8da debd 2bc0 723e a81c 52be
000001a0: 430f b4bb 45f5 3e3e c71b 813d 4d35 783e
000001b0: 0844 a7bd 68d2 9f3e 43ee 2fbd 441b 413e
000001c0: ee52 c83e bfb6 803e a5a7 be3e aec2 053e
000001d0: 7ea6 21be 22ff 29be 1d8c 7e3d 7a12 87be
000001e0: 792b 7d3e 0d8e 2a3e 2a24 a83c 1031 243e
000001f0: 3291 33bd c104 933d 88c6 133e 2c5c 813e
00000200: 82cf 7cbe 26d1 cfbe 8b03 c7be 297b eabe
00000210: 679c 8c3e 32ae ad3c 3219 203e 3972 8f3e
00000220: 4c23 703c 15ec 82be cfbe 0cbe 099b 58be
00000230: f253 3c3e 9c06 6dbd 9d1a e4bd 47d7 5abd
00000240: 906e 623e 0492 803e bac7 2e3e c99b 653e
00000250: 8492 e4bd e03b 44be 2253 24be 91ce 0b3d
00000260: f16e 86bc c495 55bd ae15 3abe b3e4 63bd
00000270: 207b e6bd 093f a3bd 5a70 3fbc 31f2 f3ba
00000280: ab00 1ebd 0338 373e 5dc4 95bd 9a61 be3d
00000290: 0beb f03c a414 dabd 9fb5 093e 1087 9d3c
000002a0: 5144 15bb 2ace 5a3e 4c42 223e 0112 92bd
000002b0: 20c8 24be daa5 c93d e1cb 30bd 0dd4 8abd
000002c0: d153 dbbd 2883 2e3e 99a3 3f3e dc29 0b3a
000002d0: 8627 88bc 49c3 d5bc 40f2 1bbe ddf0 e0bd
000002e0: a167 573c f61e 89bd f4b8 143e aa34 823e
000002f0: a531 c03d c8ae 813e 434a b6bd 8427 1d3e
00000300: 7823 10be 77c2 c9be c7b6 da3d 8898 c4bd
00000310: caed 7f3d a6a0 ae3e 5c71 1a3e ec41 873e
00000320: b462 09be 2bd1 94be d32f d7bd f4eb adbd
00000330: 7f02 8f3d 5f80 4f3e 504e 6ebd 4aba a33d
00000340: d425 07be 3649 803e a891 68bd aea3 b3bc
00000350: 0008 ca3d 7236 153d 9c70 0c3e e17a afbd
00000360: fda6 0f3c 8a2e a2be 3d3e 65bd 93f0 983c
00000370: a5ac 863d 87ff 0dbe 5e8b 32be 4ea1 e6bb
00000380: 6d67 71bb e631 ddbe 10db c4bd da38 f1be
00000390: 5cb2 893e 6210 e23e fb25 783e 596c eb3d
000003a0: 86ea 04bf 19f4 08bf 005b cdbd d253 6cbe
000003b0: 6b9f a93e 30b9 3d3e a967 cd3d 48b0 b73d
000003c0: 8267 04be 8b26 543d 9b24 163d fece 88bd
000003d0: a3e1 d5bc 7a89 263d b5e3 fb3d f019 23bd
000003e0: 441f 3cbe 2f99 94be 8b74 b8bc 9e2c 8fbe
000003f0: 1968 9e3b 6228 98be 7acd 35be 5a74 4c3c
-0.1781546 0.11839881 0.023508826 -0.113378756 0.10447837 0.13092099 -0.039757393 -0.10742507
0.10394955 -0.09282548 0.081362285 -0.042041283 -0.09469002 -0.20645146 -0.13827704 -0.1393451
-0.00960105 -0.07940686 0.14696974 0.2451363 0.13545127 0.044222564 0.29853973 0.23334554
-0.12289986 -0.16913296 -0.046560198 -0.03905182 -0.27590936 -0.221055 -0.13686763 0.09174253
-0.081238694 0.0638093 -0.07339225 -0.12408577 -0.28093874 -0.05583507 0.080857255 -0.30126247
0.016252398 0.029403692 0.13769415 -0.024975816 -0.15293533 -0.21212098 -0.02087543 0.061429903
-0.048566055 0.08765259 0.15838735 -0.018396543 0.00040505448 -0.060828146 0.009168148 0.10927028
0.18489027 -0.024146864 0.1986265 0.18326919 0.03913795 0.2516578 0.056828354 0.17572843
-0.14266615 0.23068616 0.114370465 -0.116664484 -0.17775294 -0.12303906 -0.05116814 0.036050387
0.051445916 0.012137684 0.07998196 0.021437813 -0.0027129052 -0.15405643 0.12288262 -0.13732265
-0.011738341 0.0041818586 -0.13044281 0.01771872 0.057586987 0.1153899 0.1474858 -0.1035607
-0.1764251 -0.0697441 -0.18688543 0.020628529 -0.14906475 -0.15759234 0.00071286963 0.06246237
0.17517756 -0.2448463 -0.060614686 0.13818513 0.14428343 -0.10881585 0.23706119 -0.20518744
-0.0054949834 0.1864825 0.06304126 0.24239083 -0.08167273 0.31215215 -0.042951833 0.18858057
0.3912577 0.25139424 0.37237278 0.13062546 -0.15786168 -0.16601232 0.06214534 -0.26381284
0.24723615 0.1665575 0.020525057 0.16034341 -0.04383964 0.07178641 0.14431202 0.25265634
-0.24688533 -0.40589255 -0.3886989 -0.4579709 0.27463076 0.021201227 0.15634611 0.28016832
0.014656853 -0.2557074 -0.13744663 -0.21152891 0.18391398 -0.05786763 -0.111378886 -0.05342796
0.22112489 0.251114 0.17068377 0.22422709 -0.11160758 -0.19163465 -0.16047338 0.034132544
-0.016410323 -0.05214478 -0.18172333 -0.055638026 -0.11253953 -0.079710074 -0.011684502 -0.0018611607
-0.038574856 0.1789246 -0.07312844 0.0929596 0.029408952 -0.10648468 0.13448189 0.019229442
-0.0022776315 0.21367708 0.15845603 -0.0713234 -0.16091967 0.09846087 -0.043163184 -0.06778727
-0.10709346 0.1704222 0.18714751 0.0005308667 -0.016620409 -0.026094096 -0.1522913 -0.10983441
0.013147266 -0.066953585 0.14523679 0.25430804 0.09384469 0.2532866 -0.08900883 0.15347105
-0.1407603 -0.39406177 0.10679393 -0.095994055 0.062482633 0.3410694 0.15082306 0.26417482
-0.13416559 -0.29065832 -0.105071686 -0.0849227 0.06982898 0.20263813 -0.058180153 0.07994516
-0.13198024 0.25055856 -0.056779534 -0.021928634 0.09864807 0.036428876 0.13714832 -0.08568359
0.00876784 -0.3167613 -0.05596756 0.018669402 0.06575898 -0.13867007 -0.17435977 -0.007038272
-0.0036835328 -0.43202132 -0.09612095 -0.47113687 0.2689389 0.44153124 0.24233238 0.11495275
-0.51920354 -0.53497463 -0.100271225 -0.2307885 0.3312944 0.18527675 0.10029537 0.0896917
-0.1293011 0.05179457 0.036656003 -0.066801056 -0.026108569 0.04065845 0.12299291 -0.039819658
-0.18371302 -0.2902312 -0.02251651 -0.27963728 0.0048341868 -0.2971831 -0.17754164 0.012478912

up2.bias f4 [8]
00000000: 6140 00be 9b51 123e e576 103d 1278 bc3e
00000010: 0af3 813e 1c82 65bd 3569 323e 7c7b 7e3c
-0.12524559 0.14288943 0.035269637 0.36810356 0.25380737 -0.056032285 0.17422946 0.015532371

conv22.weight f4 [8, 8, 3, 3]
00000000: bf41 a5bd 5cd0 043d 1b1f a03d 5732 adbd
00000010: eb41 a7bb dca7 98bd c2e1 213e 155a d33d
00000020: 6439 ac3d c63f 623d bd0d 41bd dba5 123e
00000030: 0f7a 3cbe 47c6 9e3c 797f 43bd 2315 64be
00000040: f28c f9bd eefa bc3d c348 563d 3210 febd
00000050: 1aa2 453d 8c9a b43d 8498 abbc f0e4 c03d
00000060: 3240 813d eee5 243d 3b5b 163c 6c81 9dbd
00000070: f52e 3d3d 47b2 293e 02d5 8f3e e918 fd3d
00000080: 937e 4a3e a83a a2bd ad1a 303e ce9d 4e3d
00000090: 8cdc 98bc 66b5 ccbb b482 fa3d 1a76 363e
000000a0: db09 ad3c 06ae 0a3c 6fa4 603e 21a8 143e
000000b0: 9d16 003e 78c8 57be 9b73 083d bf0a 06be
000000c0: f6b2 613b 64a3 a2bd 34f0 303a 1d2c 1b3c
000000d0: 472d 0abd dc39 b1bc 716f 283e 7e7f c7bd
000000e0: bb16 ed3c 6707 303d f1bb 673c f0f2 883d
000000f0: 0651 003e e3c1 6ebd 1a69 163e cea2 323d
00000100: a080 0e3e 2c15 48bd 438a 4c3e a711 0a3e
00000110: f13b c23c 88f9 3b3e 3873 b73d 3705 083d
00000120: e04f 7c3d 1526 b13d ea9f 663d 03ca 083e
00000130: 3995 6cbb 2276 51bd 25e2 c4bd 91ea 7c3d
00000140: 6d13 cebc 72f0 b23d 4e62 1bbe 37d6 59bd
00000150: 2695 2abe bd27 3c3d a1d8 df3c ad39 e33c
00000160: fd99 a13c 03eb 0cbe f7a6 51bd 41f6 b5bd
00000170: d755 883d d74e 6ebc da3c 6f3c 68d4 be3d
00000180: 788f 843d fa74 aa3c b5aa d6bd 0ecd a33d
00000190: 2bb9 cb3d 0f11 e93c f0b1 de3d 2be5 373e
000001a0: f1ff 343e 7b74 653e 94d0 e73b bad6 113e
000001b0: 7a98 ca3d 945d 36be 3dab a5bc d3f6 b6bc
000001c0: 06d9 683d 247a 97bd c835 7cbc 2ad6 0dbe
000001d0: d0e0 163c 0f72 e03b e422 20bd 1222 32bd
000001e0: dd3b 0fbe a6f0 003d 4df2 15bd e085 fabd
000001f0: b9ef c93c fa94 50bd ecdd 8ebd 3afe 683a
00000200: 755b b6bd b311 ef3d 20b3 15be 556f 94bd
00000210: 2cd2 b3bd 1bea d43d 9aab c5bc 9dbc 48bc
00000220: 9304 363d 305e d8bb 3c79 4a3e 5f17 963d
00000230: 154e a8bd b708 483e f785 11bd 9b79 98bd
00000240: f46e 8d3a b462 a23d 2260 d73d 0d22 c7bd
00000250: 511c cdbb d120 253e 938a 06be d2e0 c5bd
00000260: 5d18 e3bd f71f 0cbe 67dc b3bd 2dec ddbc
00000270: 5e13 333c 58c0 a33d f1b1 123d f5b8 11be
00000280: be82 8d3d 66d5 7f3d 4e40 05be 8f04 15bc
00000290: c44b 07be 743a 713e 7259 a3bd 065e e83a
000002a0: 3f3a cc3c c4d8 3f3d c4af 0bbd 5891 4f3c
000002b0: d66d d33c 5148 193e 0182 2d3e 7c23 fc3d
000002c0: 50ec 6f3d 4d3e 423e 7e0f 04be e4c4 f83d
000002d0: 2c5c 2fbd 41f5 8abd 391f 23bd ed67 1b3d
000002e0: 3298 b0bd 4f8c 87bd 1044 f63b f4d2 44bd
000002f0: 029d cbbd 10e9 d7bd e02c 28be c920 efbb
00000300: 0a74 b6bd c926 24be fe9f 8fbd 698c 80be
00000310: f23f b4bd 4527 903e af96 e4bd 7a0a 983d
00000320: 9b1e c03a 0dd9 99bd a120 d63b 2cee a73c
00000330: f7ea b2bd b4da 113e fe8c 8fbd 3b71 ddbd
00000340: 7478 b73d 3c01 bcbd 5c54 0bbb aab9 ab3d
00000350: d247 413e 557d 543e b9e2 b93d 0650 fd3d
00000360: 60ff 8dbd bc7e 4ebd 4c61 cd3a 8a7c bd3c
00000370: 879d 61bd 4dfd 16bc 9e01 013e cc76 ae3d
00000380: e441 6d3c d5d7 1e3e ab5d d33c b3e6 ef3c
00000390: 0d34 ab3c 8923 cb3c 8d79 ae3d 1a99 53be
000003a0: d3e5 803d a19b 29be 9f3b 08be 410a 683d
000003b0: 8267 cfbc 918f 74bd d5d3 c1bd 8c5f 343e
000003c0: 8994 3c3e df6e e03d 2881 ad3d 77b8 18be
000003d0: 0648 20be 750a 0dbe 5664 31be 1d4d bc3c
000003e0: d592 b4bd 72c9 0dbe f1a5 44be 2338 88bd
000003f0: 49d5 29bd 1c95 c93b 81ab ee3d 18bc 0d3e
-0.08069181 0.03242527 0.07818433 -0.08456867 -0.0051042936 -0.07453892 0.15808776 0.10319916
0.08409384 0.0552366 -0.047132242 0.14321081 -0.18405937 0.019381655 -0.04772899 -0.22273688
-0.12185086 0.092275485 0.052315485 -0.12405433 0.048250295 0.0881854 -0.020946749 0.09418666
0.063110724 0.04025834 0.0091770245 -0.07690701 0.04618736 0.16571914 0.280922 0.12358267
0.19774847 -0.07921344 0.17197676 0.050443463 -0.018659852 -0.0062472103 0.12231961 0.1781849
0.021122864 0.008464342 0.21937726 0.14517261 0.12508626 -0.21072567 0.033313375 -0.13090037
0.0034438944 -0.079413205 0.000674966 0.009470967 -0.033734586 -0.021634035 0.16448762 -0.09741114
0.028941503 0.04297581 0.01414393 0.06686962 0.12530908 -0.058290374 0.1468853 0.043612294
0.13916254 -0.048848316 0.19974618 0.13483296 0.023710223 0.18356907 0.08957523 0.0332081
0.061599612 0.08649842 0.05630485 0.13358311 -0.0036099686 -0.05113805 -0.09613446 0.061747137
-0.025155747 0.087372676 -0.15174219 -0.053182807 -0.16658458 0.045936335 0.027324976 0.027737463
0.019726748 -0.13761525 -0.05118462 -0.0888486 0.06656998 -0.014545164 0.0146019105 0.09317857
0.06472677 0.020807732 -0.104817785 0.079980955 0.09947427 0.028450517 0.10873783 0.17958514
0.17675759 0.22407715 0.007074425 0.14242068 0.09892364 -0.17809135 -0.020223254 -0.022334492
0.056847595 -0.07396343 -0.015393682 -0.13851228 0.009208873 0.0068495343 -0.039095774 -0.043489523
-0.1398768 0.0314795 -0.03660803 -0.12232566 0.024650441 -0.050923325 -0.06975922 0.00088879804
-0.08904163 0.11673298 -0.14619112 -0.072477974 -0.087803215 0.103962146 -0.024129678 -0.012252
0.044437956 -0.006603025 0.1977281 0.073286764 -0.08218018 0.19534574 -0.03552815 -0.074450694
0.0010790513 0.079289824 0.10516383 -0.097232915 -0.006259479 0.161258 -0.131388 -0.09662022
-0.11088631 -0.13684069 -0.08782273 -0.027090156 0.0109299105 0.07995671 0.03581423 -0.14230712
0.06909703 0.062459372 -0.13012812 -0.009095325 -0.13212496 0.23557454 -0.07976045 0.0017728216
0.024930118 0.046837583 -0.03410317 0.01266893 0.02580921 0.14968993 0.16944124 0.123114556
0.058574975 0.18969078 -0.12896535 0.12146929 -0.04281251 -0.0678506 -0.039824698 0.03794091
-0.08622779 -0.066185586 0.007515438 -0.048052743 -0.09942056 -0.105425 -0.16423368 -0.0072976095
-0.089088514 -0.1603042 -0.07012938 -0.25107124 -0.08801259 0.2815496 -0.11161553 0.07423873
0.0014657559 -0.07512102 0.0065346514 0.020499311 -0.08736222 0.14243585 -0.07009314 -0.108126126
0.089585215 -0.09179923 -0.002126 0.08385022 0.18875054 0.20750935 0.09076447 0.12368779
-0.069334745 -0.050413832 0.0015669256 0.023130674 -0.05508187 -0.009215665 0.12598273 0.085187525
0.014481042 0.15512021 0.0258015 0.02928481 0.020898843 0.024797218 0.08519278 -0.20663872
0.062938355 -0.16563274 -0.13303994 0.056650404 -0.025317911 -0.059707228 -0.09464232 0.17614573
0.18416037 0.10958647 0.084719 -0.14914118 -0.15652475 -0.1377352 -0.17323431 0.02298599
-0.088170685 -0.13846377 -0.19203927 -0.06651332 -0.04146317 0.0061518084 0.116538055 0.13841283

conv22.bias f4 [8]
00000000: 78b6 9c3e 893e 633e c914 653e 4512 2ebd
00000010: abcb 103e a2bb 1abe 1788 e63d 496a 9f3d
0.30607963 0.22191824 0.2237121 -0.042497892 0.14140193 -0.15110639 0.11256426 0.07783944

up1.weight f4 [8, 4, 2, 2]
00000000: 7c22 133e 02d5 5c3e f793 47be 6a8d 17be
00000010: 7470 2fbe dfb5 3d3e fd13 7a3e 1f35 3cbe
00000020: aef7 f33d 91d8 f03d ceba b1bd 98cf f93d
00000030: 0026 883e 00f0 ad3e a9f0 3f3e 0c86 d0bb
00000040: fcd8 b03c 0136 f33d 0b07 d7bd 98f2 dbbd
00000050: 5139 a13e 1555 26bd 9332 df3c c080 3bbe
00000060: 88f8 383e 6309 c73e 8fcf 633d cc21 07be
00000070: 72c8 373d 5321 cfbd 6d07 95be 4638 383e
00000080: 9a3c 38bd a679 a13e 0e39 3ebe 9ca9 273d
00000090: de15 863e c135 203e 5788 5fbd 3ed4 293e
000000a0: 3c9e 523d 9fe3 863e 7209 9abe 1d11 a33d
000000b0: dea7 4b3c 477c 443e 4385 b73d 433f 983d
000000c0: 16fb 603e 268a a1bd 3090 7fbd 8ba2 a53e
000000d0: 59fc 1bbe 3b5a 3d3e a7c5 933e 3101 773e
000000e0: f0c5 9dbd 7305 393d f422 25be c16c 67bd
000000f0: 11a9 a83b f902 0dbe 186a 453e d22a 5f3e
00000100: 4c67 22bd eec1 bf3c e437 8a3e cb31 e93c
00000110: de8a 783e fbc3 8b3e 811f 3dbd be11 4dbe
00000120: c218 7f3e 7286 d0bd 3970 903e a5c6 8ebd
00000130: fbca a83d fc93 383e e55f 0d3c dfc2 863e
00000140: 6010 5abe f3d0 83bd 94c6 62bb f1b1 603e
00000150: fc37 053e b75e 323e 77a9 043e c245 7c3e
00000160: c249 5cbd f40c 95bd cd44 51bc 8304 0b3e
00000170: 0b64 43bd 5525 d53d 0fe6 603d 0fc9 b13d
00000180: 0b69 7c3e 257b c83d 54a9 4a3e f448 c6bc
00000190: 9525 49be ed42 353e e3cf fd3d d621 823e
000001a0: d2bd d93d 8755 a73c e169 19be 952f 41be
000001b0: d750 af3d 43bf 6f3e c9a5 f53c 7058 95bc
000001c0: 28d0 99bd bf42 b0be a109 a7bd e1a1 d1be
000001d0: 8c55 b3be e884 8fbe db94 09be f2c6 bcbd
000001e0: de3c b1bd ee5f 89be 5d3e fabd b2ff 2fbe
000001f0: 55c2 93bd 0af5 2bbe fc02 413d fe5a 94bd
0.14368623 0.21565631 -0.19490038 -0.14800039 -0.17132741 0.1852641 0.24421687 -0.18379639
0.119124755 0.11760057 -0.08678208 0.121977985 0.26591492 0.33972168 0.18744148 -0.006363636
0.021587841 0.11875535 -0.1049939 -0.107396305 0.3148904 -0.040608484 0.027245795 -0.18310833
0.18063557 0.3887435 0.055617865 -0.13196486 0.044868894 -0.10113778 -0.29107228 0.17990217
-0.04497967 0.31538123 -0.18576452 0.040933236 0.26188558 0.15645505 -0.054573383 0.1658487
0.051420435 0.26345536 -0.3008533 0.079622485 0.012430159 0.19188033 0.089609645 0.07433941
0.21970782 -0.07887678 -0.062393367 0.32350573 -0.15232982 0.18491451 0.28861734 0.24121548
-0.07703769 0.045171212 -0.16126615 -0.0565002 0.0051471074 -0.13770665 0.19278753 0.21793678
-0.039649293 0.023407903 0.26995766 0.028466126 0.24271724 0.2729796 -0.046172623 -0.200263
0.24911788 -0.101818934 0.2821062 -0.06971482 0.082418405 0.18025202 0.00862882 0.2632055
-0.21295309 -0.06436338 -0.0034603225 0.2194288 0.13009638 0.17418943 0.1295527 0.24635985
-0.05378128 -0.07277861 -0.012772751 0.1357594 -0.04770283 0.10407511 0.0549069 0.08680927
0.24649446 0.09789113 0.19791156 -0.024204709 -0.19643243 0.17701311 0.12393167 0.2541644
0.106319085 0.020426525 -0.14981796 -0.18865807 0.08560341 0.23412804 0.02998628 -0.018230647
-0.07510406 -0.34425923 -0.081561334 -0.40943816 -0.35026205 -0.28031087 -0.1343569 -0.09217633
-0.086541876 -0.26831 -0.12218926 -0.17187384 -0.072148 -0.16792694 0.047121987 -0.07243918

up1.bias f4 [4]
00000000: bdae f13d 9445 4c3e c07d b83d 555b 56bc
0.11800907 0.19948417 0.0900836 -0.013083299

conv13.weight f4 [2, 4, 3, 3]
00000000: f636 3fbe 651f 1bbd 92fe 19bd 75d8 023d
00000010: 60f7 023e 0c99 c93c bf59 d43d 7070 93bc
00000020: fb7c 943c 9fe4 99bd c859 063d bc33 e33d
00000030: ce64 8f3d d74d 2a3c d898 c7bd 3555 c0bd
00000040: 7b09 fbbd 8590 21be a87d df3d aee0 9bbd
00000050: 59f5 90bd 7c80 12be dc3b 97bd 3c6a 023e
00000060: ef13 2f3d 3bbf 53bc bf79 053d 4314 583e
00000070: 6e3c 173e 5c3b 76bd b937 ba3c 7c30 babd
00000080: 8171 3dbe 39db 473e 3813 5abe 9146 b5bd
00000090: e9b8 153e e73f 2b3e 8fd2 27be 91c8 aebd
000000a0: df26 8ebd f0b5 9a3d 3bbf 673e ad70 783e
000000b0: 723b 413e 0711 61bc 8e59 0e3e c80f bc3b
000000c0: 05ef 243d a163 f0bc a41d a53d 597b d63d
000000d0: 2cc4 dd3b fd69 273e 6b58 88bc b69b 513d
000000e0: f5a7 203e a714 d93d 38b3 5abd 658a 98bd
000000f0: 525b 753d ec14 043c 1139 b33c 6c29 2c3e
00000100: 7614 e93d 4ce2 a3bd d6c2 1cbd fc68 4a3e
00000110: f587 343c 728f a73c 2d1c 06bd d7be 473e
-0.1867331 -0.037871737 -0.037596293 0.03194471 0.12789679 0.024609111 0.1036868 -0.01799795
0.018126002 -0.07514309 0.032800466 0.11093852 0.07001649 0.010394535 -0.097459495 -0.09391252
-0.12257668 -0.15777786 0.10912639 -0.076112136 -0.07078046 -0.14306825 -0.07384464 0.12735838
0.04274362 -0.012924011 0.03258681 0.21101479 0.14769146 -0.060115203 0.022731649 -0.09091279
-0.1850033 0.1951722 -0.21296394 -0.0885135 0.14621319 0.16723596 -0.16388915 -0.08534349
-0.06941008 0.07554233 0.22631542 0.24261732 0.18870333 -0.01373697 0.1390135 0.005739186
0.04026701 -0.029344382 0.08062294 0.104727454 0.0067677703 0.16349025 -0.016643723 0.05117389
0.1568907 0.10599642 -0.053393573 -0.07448272 0.059901543 0.008061629 0.021877797 0.16812676
0.11380856 -0.08002147 -0.038271748 0.19766611 0.011018743 0.020454142 -0.032741714 0.19506393

conv13.bias f4 [2]
00000000: d61d a93d b0ae c5bd
0.08257644 -0.096524596

conv14.weight f4 [2, 2, 3, 3]
00000000: 0b6d fdbd 722f 643e 95d2 753d ef0b 553d
00000010: 27eb 51be 165d e33d deca b3bc 7b53 2f3e
00000020: e041 79be 49bb 85be db9c a2be dcdd 973d
00000030: d634 963e d881 33be c341 1e3e d1c1 28bd
00000040: c9c9 0bbe a293 2b3e 24da 593e aea2 123e
00000050: c265 893d 8944 893e f396 10be bafc 8f3d
00000060: fb91 883c 373c 643d c6bd 393e de21 13be
00000070: a078 fc3d d793 e9bc cfe0 353e d4bd 823c
00000080: 7dcf 0a3e b01a 863e 9df3 54bd 3fc1 4cbe
-0.12374314 0.22283724 0.06001528 0.052013334 -0.2049986 0.11101739 -0.02194732 0.17121689
-0.24341536 -0.2611945 -0.31760296 0.07415363 0.29337186 -0.1753 0.15454774 -0.041200463
-0.13651194 0.16755536 0.2127462 0.1431987 0.06708862 0.268101 -0.14120083 0.07030626
0.016671171 0.055721488 0.18138799 -0.14368388 0.12327695 -0.028512878 0.17761539 0.015959658
0.13555713 0.26192236 -0.05199014 -0.19995593

conv14.bias f4 [2]
00000000: a058 ce3e 2de7 93bc
0.4030199 -0.01805457

conv15.weight f4 [1, 2, 3, 3]
00000000: d372 7c3d 908f 853e abf1 ab3c fe42 af3e
00000010: b47e a13e 3c6a f53d db42 463e 8544 4c3e
00000020: a532 943e 41c9 423e 0640 06be 07b8 0d3d
00000030: d44b 193e 916b 3c3e 2a7d aa3d cb58 133e
00000040: 5c55 d0bb 3831 183d
0.061632942 0.26086092 0.02098926 0.34230798 0.3154198 0.11983153 0.19361441 0.19948013
0.2894489 0.19022085 -0.1311036 0.03459933 0.14970332 0.18400408 0.083246544 0.1438934
-0.006357832 0.037156314
