output/Mess6060_e/train/model/stn_1.pt (torch_old, 658934 bytes, 14 tensors)

conv1.weight f4 [8, 2, 5, 5]
000000 4b 58 f8 3d 70 fb ed 3d 4f 8c 95 bd 2c 03 ee bd
       0.121262155 0.116202235 -0.07302152 -0.11621699
000010 d6 d1 eb 3d 72 c6 f6 bd 61 ae c3 3d bf 14 08 be
       0.115146324 -0.12049569 0.095547445 -0.13289164
000020 5c 1c 8a bd 28 4d 61 bd 2b 12 0d 3e 13 47 9c bc
       -0.0674369 -0.055005223 0.13776462 -0.01907686
000030 dd e3 01 3e fc 3a 3c 3d c2 48 11 3e 17 ca c9 3d
       0.12684579 0.04595469 0.14187911 0.09852999
000040 77 3f df 3d 39 3b 03 3e 02 39 17 bd 13 51 0b bd
       0.10900777 0.1281556 -0.0369196 -0.034012865
000050 96 8f 4e 3d 45 8c 04 3e 35 48 41 bd fc df d9 bd
       0.050429903 0.12944134 -0.047188003 -0.10638425
000060 ed 9a d8 bd 11 cf 77 bd 5d 83 e0 3c 7b bd 3c bc
       -0.10576425 -0.06050021 0.027406389 -0.011519785
000070 96 9c 06 bd ec ed 7a bd ad 7e 2a 3d f1 a6 e4 bd
       -0.032864176 -0.061262056 0.041624714 -0.11164654
000080 5e 70 13 3e eb a9 8b bc 17 f1 ff 3c f4 a6 52 3d
       0.14398333 -0.017048797 0.03124289 0.05142875
000090 a3 89 4d bd 37 82 ee 3d 32 74 79 3b 4c d5 86 3c
       -0.05018009 0.1164593 0.0038063643 0.01645913
0000a0 c1 e6 04 be 17 1d b7 3c 5a a3 5a 3d c2 37 c9 3c
       -0.1297865 0.022352738 0.05337844 0.02456272
0000b0 9d 01 16 bc 49 9c e4 3d 30 e9 ee 3d 67 57 d1 3d
       -0.009155658 0.111626215 0.11665571 0.10221749
0000c0 e3 45 a1 bc 44 f7 ef 3c 81 f0 d0 bd 24 5c df bd
       -0.019686645 0.02929271 -0.102021225 -0.10906246
0000d0 f6 f9 e5 bc f1 f4 4e 3c ea 63 af bd a9 e3 f8 bd
       -0.028073292 0.012631641 -0.08563979 -0.12152798
0000e0 2a 56 7a 3d 9c 1a 46 3d 94 47 c6 bd 9b f4 b9 3d
       0.06111733 0.04836522 -0.09681621 0.09079858
0000f0 ab 7d df bd 45 69 d4 3d fd 67 93 3d 29 8f 51 bd
       -0.10912641 0.10371641 0.071975686 -0.05116192
000100 56 aa 06 3e 52 89 a9 bd dc 5f 8b bd 54 52 e0 3d
       0.13150916 -0.08278145 -0.06805393 0.10953203
000110 aa dc 22 bd 31 c3 77 bd 85 6f 98 3c 03 34 df bc
       -0.039761223 -0.060488883 0.018607864 -0.02724648
000120 2c d6 af 3d 92 12 e6 3d 8a 2c 74 3d 44 1d e1 3c
       0.08585772 0.11234011 0.05961279 0.027479775
000130 e1 7a 04 3d 17 bc e9 39 1c 7a 5b 3c e0 49 09 ba
       0.03234375 0.0004458136 0.013395812 -0.00052371435
000140 ee b3 be 3d 44 4e 9b 3d 60 f1 8e bc 99 20 4d 3d
       0.093116626 0.07583287 -0.017449081 0.050079916
000150 dc 02 92 3b 31 94 3f 3d 5c 56 e7 3d 9f d4 cb bd
       0.0044559073 0.046772186 0.112957686 -0.09952664
000160 3e 3b 8a 3c 9a a6 05 bd 2b 0b 11 be 3f 29 10 be
       0.016873952 -0.032629587 -0.14164416 -0.14078234
000170 e0 e7 b1 bc 0d a8 c8 3d 0b f1 c5 bd 64 6a 2f 3d
       -0.021717012 0.09797678 -0.09665116 0.04282607
000180 18 64 a0 3d 93 e4 d9 bd f2 74 6b 3d 75 77 c0 3c
       0.07831591 -0.106393 0.057484575 0.023494462
000190 bf 3f 02 be 90 33 9b ba cb 5e 06 be 77 31 00 3e
       -0.1271963 -0.0011840928 -0.13122098 0.1251887
0001a0 f5 e7 8a 3d 9f 7b 64 3d 01 97 e1 3d df be e0 3d
       0.067825235 0.055781957 0.1101513 0.10973906
0001b0 7a 61 11 3e 62 7f 75 3d 2d e2 cd bd 97 16 08 3e
       0.1419734 0.059935935 -0.10052905 0.13289867
0001c0 ab 3f 27 3d 7a f7 5d bd 82 27 51 bd aa 25 09 3e
       0.040832203 -0.05419109 -0.05106307 0.13393274
0001d0 ba 30 07 3d 4a c5 d5 3d 34 bf 4e 3c 46 64 07 3e
       0.033005454 0.104380205 0.012618829 0.13221845
0001e0 3d b3 d0 bd 3c 6a 10 3d f6 8f 10 3d 76 30 87 b8
       -0.10190437 0.035257563 0.03529354 -6.446328e-05
0001f0 bb 6c 02 3e 64 8a f5 3c df c1 16 3c 2b df c8 3d
       0.1273679 0.029973216 0.009201496 0.09808191
000200 38 c3 1d bc e7 54 f8 bb 18 80 eb bd 8b 78 2c 3a
       -0.009629063 -0.0075784805 -0.11499041 0.00065792416
000210 7c ef 83 bd e0 f2 aa 3d 5e 37 ff 3d 26 7f 05 be
       -0.064421624 0.08347106 0.12461732 -0.13036785
000220 b7 8f a4 bd a2 02 0d 3e a3 ce 70 bd ca 60 02 3e
       -0.08035224 0.13770536 -0.058790814 0.12732235
000230 67 35 10 3e 27 c5 0a bd 79 30 e7 bd 18 12 94 3d
       0.14082871 -0.033879425 -0.11288542 0.072300136
000240 3a ed 86 3d 83 e3 fe 3d c4 f7 b3 3c 94 ac a0 3d
       0.06588216 0.12445738 0.02196873 0.07845417
000250 05 26 f5 bd a5 79 ac 3c 74 55 08 3d 44 87 b5 3d
       -0.11970142 0.021054098 0.03328462 0.088636905
000260 11 0a 9b bd d8 72 8a bc 9e a3 ac bd d4 ec c2 bd
       -0.075702794 -0.016900465 -0.08429645 -0.09517828
000270 2c 24 71 3d d8 a9 b0 3c d4 2a 66 3d 00 0c 53 bb
       0.058872387 0.021565363 0.056193188 -0.0032203197
000280 40 ae 63 bb 20 ef b1 bb a0 72 9c 3d 5e 68 c8 bd
       -0.0034741312 -0.0054301172 0.076390505 -0.097855315
000290 90 bc f9 3c 7e d0 9e 3d b4 fb a7 3d e6 fc 8a bd
       0.030485421 0.077546105 0.082023054 -0.06786518
0002a0 fe 48 e0 3d 29 07 c1 bd 52 06 97 3d 2e eb ec 3d
       0.10951422 -0.09425194 0.073742524 0.115682945
0002b0 00 b1 94 3b 64 76 31 3d ce 2f 09 be f0 21 65 bd
       0.0045377016 0.043325797 -0.13397142 -0.05594057
0002c0 5a 96 63 bd 04 d4 06 be 3c 55 f5 bc 6c 32 ca 3d
       -0.05556331 -0.13166815 -0.02994787 0.098728985
0002d0 70 3a 5d bc 77 1a 0f 3e f9 5b 02 be b4 04 67 3d
       -0.013502702 0.1397494 -0.12730397 0.05640097
0002e0 6a 72 fa 3d 33 c1 0c 3e 46 b4 60 bd 7e c1 02 be
       0.12228854 0.13745575 -0.054859422 -0.12769124
0002f0 62 e7 54 bd b2 b4 d6 3d 20 03 4b 3c 25 6a 0a 3e
       -0.051978476 0.10483684 0.012390882 0.13517053
000300 72 7b d3 bd 99 5c b5 bd 0a 9b 93 3d ec 9d 46 3d
       -0.1032628 -0.08855552 0.07207306 0.04849045
000310 f4 2a bc bd 67 b9 06 3e 52 66 5f bd 4a b6 f0 bd
       -0.0918788 0.13156663 -0.05454094 -0.11753519
000320 2c fb 20 3d d9 42 a2 bd 42 d4 89 bd 76 cc a1 bd
       0.039302036 -0.079229064 -0.06729938 -0.07900326
000330 84 8d 1d 3d b6 b0 87 3d ba cb c2 3d 82 e4 a3 bd
       0.038465038 0.06625502 0.09511514 -0.08002569
000340 3c 61 07 bd 8d 2c 07 3e 04 c8 94 bd d8 61 51 bd
       -0.033051714 0.13200589 -0.072647125 -0.0511187
000350 60 c4 de bc 3d 3b 00 be e2 12 d6 bd c1 03 01 3e
       -0.027193248 -0.12522598 -0.1045282 0.12599088
000360 38 db d5 3c f0 75 d8 3c 00 a3 65 3d 74 23 b0 3d
       0.026105508 0.026423424 0.056063652 0.08600512
000370 86 8c c2 3d bc 71 cf 3d 10 cc 69 3d e2 57 da 3d
       0.09499459 0.10129115 0.057079375 0.106612936
000380 ee 3c bd 3d a0 b7 c1 bc d0 b5 50 3c 8d b6 97 bd
       0.09240137 -0.02364713 0.01273866 -0.07407866
000390 e7 ef d9 bd d7 5a 09 3e 84 ad d7 bd 7a 11 b5 bd
       -0.10641461 0.13413559 -0.10531142 -0.08841224
0003a0 7b e2 0b be df db dd bd e0 ac 03 3d 98 04 8b 3d
       -0.13660614 -0.10832953 0.03214729 0.067879856
0003b0 a8 6a f1 bd 30 62 38 3c 2e d2 d5 bd a0 58 db 3c
       -0.11787921 0.0112538785 -0.10440479 0.026775658
0003c0 44 ff ac 3d 14 40 5e bd 34 4f 7e bd a4 a6 bc 3d
       0.084471256 -0.05426033 -0.062087253 0.09211472
0003d0 7e a8 ba bd c4 c5 ec bc a9 24 f1 bd 5a f4 ca 3d
       -0.091141686 -0.028902896 -0.117745705 0.099098876
0003e0 40 c0 38 3d 1a 1f 66 bd a1 76 c1 3d 23 c9 02 3e
       0.04510522 -0.056182005 0.09446455 0.1277204
0003f0 cd 19 53 3d a4 37 d9 bd c4 b3 17 bd 4f 57 dc 3d
       0.051538277 -0.10606316 -0.037036672 0.1075884

conv1.bias f4 [8]
000000 d4 a4 82 3d f7 a3 5e bb 3a 3a fb bc 18 20 f6 bc
       0.06379095 -0.0033972242 -0.030667413 -0.0300446
000010 f4 e5 ed bd 11 7c c8 3d 89 69 01 3e ed 23 05 be
       -0.11616126 0.09789289 0.12637915 -0.13001986

conv2.weight f4 [16, 8, 5, 5]
000000 c5 0f 8b bd 4e 7a 88 bd 5f 2f 41 bc 55 70 12 ba
       -0.06790117 -0.06663953 -0.011791079 -0.0005586197
000010 0e b6 3e bd 33 75 1e 3d ef e7 8b 3b 55 30 14 bd
       -0.04656034 0.03868599 0.004269592 -0.036178906
000020 70 e3 8c bd f9 f2 5f 3d b7 d6 8e 3d 67 6f ca 3b
       -0.06879318 0.054675076 0.06974547 0.006177831
000030 db 4c 0c bd 14 8d 36 3d da 1a 29 3d 94 93 2c bc
       -0.034252983 0.044568136 0.041285373 -0.010533232
000040 7a 02 87 3d 45 9b 57 bd 0e 1b 0b bc 8e dd 73 3d
       0.06592269 -0.05263831 -0.008490337 0.059537463
000050 43 c9 34 bd 8c d7 b5 bc a3 71 f9 bc ac 4c f0 bc
       -0.04413725 -0.022197507 -0.030449694 -0.029333435
000060 40 89 7d 3d 17 aa 27 3d b5 ad 89 bd 6b ff 3c bd
       0.06189847 0.040933695 -0.06722585 -0.046142023
000070 c0 7e 78 bb c8 ea d3 bc 25 89 2a bd 46 8c 94 bd
       -0.0037917346 -0.025868788 -0.041634697 -0.072533175
000080 ef 52 49 3d 70 07 16 3d 5f cd 8f 3c af 8d 98 bc
       0.049151357 0.036628187 0.017553983 -0.018622248
000090 c0 a7 92 bd 49 fa f4 bb a9 d6 c4 3c 49 84 c0 bc
       -0.07160902 -0.0074761254 0.02402814 -0.023500578
0000a0 69 ba 58 3d 8a a3 55 3c 40 83 d8 bb be 07 cc 3c
       0.05291215 0.013039479 -0.006607443 0.024906036
0000b0 83 b6 0a 3d a4 ce 5f bd bc 47 96 3c 4b 06 8a bd
       0.033865463 -0.054640427 0.018344752 -0.067394815
0000c0 35 71 92 bc 23 54 d4 bc 42 a6 5b 3d 2e 3e 8c bd
       -0.017876247 -0.025919026 0.053625353 -0.06847797
0000d0 1f dd ca 3c 5f af 84 bd 51 3e f8 3c 16 e4 8a 3c
       0.024763642 -0.06478762 0.030303152 0.016954463
0000e0 8b ea e6 bc f4 41 a8 3c 7c 4c 8a 3d 05 f9 2e 3d
       -0.02818801 0.020539261 0.067528695 0.042717952
0000f0 b2 e0 84 bd 39 06 99 bc ef ad 82 3d 15 07 2e 3c
       -0.0648817 -0.018679725 0.063808315 0.010621806
000100 ef c9 09 3c 22 d0 99 3b bc 76 ce bc a8 1e 9a bc
       0.008409961 0.004694001 -0.025203101 -0.018813446
000110 9e e6 8f 3b d0 d6 58 3d a3 fe a5 bc 82 48 9a bc
       0.0043915054 0.052939236 -0.020263022 -0.018833403
000120 f4 8f 57 3c f2 60 d6 bc 71 83 7b 3d fe e0 59 3d
       0.01315688 -0.026169274 0.06140465 0.053193085
000130 e0 ae 42 3b b6 4b 3b bd c0 1d a2 3c 32 9f 75 3d
       0.0029706284 -0.0457265 0.019789577 0.059966274
000140 08 d5 be 3c 3c cd f2 3c 42 4e 19 bd a3 a8 8e bd
       0.02329494 0.029638879 -0.037428148 -0.06965759
000150 8a d1 d9 bc a0 18 14 3b 0f aa 80 3d d0 e4 71 3c
       -0.026589174 0.0022597685 0.06282436 0.014764026
000160 7c 61 54 bc e6 8d 91 bc b4 83 5d bc 35 be 1b bd
       -0.012962695 -0.017767858 -0.01352017 -0.038023192
000170 32 82 f2 bc b0 3a 57 3c 3a 24 44 3d c2 00 76 3d
       -0.029603098 0.013136551 0.04788611 0.060059316
000180 80 12 df 3c 78 20 48 bd 05 e0 85 3d cb d5 8b 3d
       0.027230501 -0.04885909 0.06536869 0.06827887
000190 5e 24 ac bc e0 c5 1f 3b 2f 16 83 3d 7e b2 cb bc
       -0.021013435 0.0024379417 0.064007156 -0.024865385
0001a0 f8 4d 09 3d c8 b2 40 3c a6 72 21 3d 9c d2 c9 3c
       0.033521622 0.011761375 0.039415978 0.02463656
0001b0 35 ad 8f 3d 1e 76 75 3d 3f a0 45 bd 3e 4c 2e 3d
       0.070154585 0.0599271 -0.048248526 0.04255318
0001c0 a0 36 65 bc 05 8b 17 bd 30 50 42 3c 8c b0 1d bc
       -0.013990074 -0.036997814 0.0118599385 -0.009624612
0001d0 8c be 3c bd bb a6 7f bd 21 6a 21 bd f0 8d ee 3b
       -0.046080157 -0.062414866 -0.039407853 0.007280104
0001e0 c6 82 30 3d 16 ab 2a 3d 90 79 9a 3c 3d 60 89 3d
       0.043093465 0.041667067 0.018856794 0.06707809
0001f0 46 10 78 bd 0f 51 37 bd fa 4f f7 3c ad 6a 84 bd
       -0.060562395 -0.044755038 0.030189503 -0.06465659
000200 80 10 88 3d 81 9c 1b 3c 66 85 d7 bc 6a b5 80 3d
       0.06643772 0.009497763 -0.026308727 0.06284602
000210 83 04 06 3d 62 8e 72 3d 75 2b 59 3d 42 b6 4d bc
       0.032719146 0.059217818 0.05301996 -0.012555661
000220 a3 f3 82 3d 3a eb 14 3c 6e 2e d8 3b 9e 39 c7 3c
       0.06394126 0.0090892855 0.0065973317 0.024319466
000230 b8 c4 63 bd a6 32 2e bd c0 85 88 3d 46 8e 3e bd
       -0.055607527 -0.04252877 0.06666136 -0.0465224
000240 9a 79 1b 3d 2e 05 2e 3d c7 28 6c bd 5a da 08 bc
       0.037957765 0.04248541 -0.057656076 -0.00835284
000250 e1 b7 83 ba 1f db 55 3d 92 87 a0 bc a7 4a 82 3d
       -0.0010049307 0.052210923 -0.019595895 0.06361895
000260 02 0c 74 bd 6e f7 ef 3c fd 1f 1d 3d 60 b1 d2 bc
       -0.059581764 0.029292788 0.038360585 -0.025719345
000270 97 84 c0 bc 53 7d 39 bd c7 a8 97 3c 70 18 c0 3c
       -0.023500724 -0.045285534 0.018513096 0.023449153
000280 82 9e cd bc 25 37 69 3d fe 8c 35 bc df 8d 38 bc
       -0.025099996 0.056937356 -0.011080978 -0.011264293
000290 87 32 61 3d fd f5 46 3c d5 08 1a 3d 87 b5 29 3d
       0.054979827 0.012143609 0.03760608 0.041432884
0002a0 5b 97 3e bd e3 b2 95 ba a9 c8 7e 3d 24 1a 34 bd
       -0.046531063 -0.001142111 0.062203083 -0.043970242
0002b0 dd b3 13 3c 50 23 56 3d f7 c3 f7 3b c8 e2 81 bc
       0.009015051 0.05227977 0.0075612026 -0.015855208
0002c0 50 78 d1 3c 4b 91 6f bd 3a f5 6d 3d 12 86 63 3d
       0.025570065 -0.05848817 0.058095194 0.05554778
0002d0 5a 36 a2 bc 66 8d d1 bc 68 9d 62 bc 5f 16 90 3d
       -0.019801307 -0.02558012 -0.013831474 0.07035517
0002e0 0e 5b de bc b8 74 ad 3c 98 7c 89 bd ac 17 af 3c
       -0.027143028 0.02117382 -0.067132175 0.021373592
0002f0 36 7d 2f 3d d0 7e bb 3c 80 33 5c bb c0 17 a9 3b
       0.04284402 0.022887617 -0.0033600032 0.005160302
000300 5e d0 7a 3d 64 bc fb 3c 34 da 85 bc 2a a2 68 bd
       0.06123387 0.03072948 -0.016339399 -0.056795277
000310 fc 15 53 3d 9c a9 d7 bc 20 94 34 3d 24 d6 68 bc
       0.051534638 -0.026325993 0.044086576 -0.014211211
000320 40 d3 99 3a c8 69 64 bd 66 ad dc bc 80 2d bf 3b
       0.0011735931 -0.055764943 -0.026938152 0.0058342814
000330 22 f3 8b bd b8 69 6e bc 38 4a 28 3d d8 90 4b 3d
       -0.06833483 -0.0145515725 0.041086406 0.04969868
000340 08 57 55 3d 3e a7 b0 bc 30 64 b6 3b 39 6a 68 bd
       0.052084953 -0.021564122 0.0055661425 -0.056741927
000350 42 08 16 3d b0 1f 4d 3c c6 6d 72 3d a8 3a 34 bc
       0.03662897 0.012519762 0.05918672 -0.011000313
000360 21 80 8a 3d 3c 7e 0f 3d ae 2c 77 3d f0 ca 96 bb
       0.0676272 0.035032496 0.060345344 -0.0046018288
000370 8a 40 63 bd 7d 24 63 bd 7e 8b 88 bd 88 90 40 3c
       -0.05548147 -0.05545472 -0.06667231 0.011753209
000380 5c f8 5f bd 9e 38 bd bc a8 2c 13 3d 71 a6 83 3d
       -0.054680213 -0.023098286 0.03593126 0.064282306
000390 c0 47 91 bc be 86 48 3d d0 93 af bb cc d6 67 bc
       -0.017734408 0.048956625 -0.005358197 -0.014150333
0003a0 7c 1a 09 bc f1 53 03 bd cc 8a 9e 3c 00 ae c8 b9
       -0.008368131 -0.032062475 0.019353293 -0.00038276613
0003b0 28 1e 0d bd e0 38 38 3d a9 63 01 bd 2c 29 44 bd
       -0.034452587 0.044976115 -0.031589184 -0.047890827
0003c0 8c 16 c9 3c 40 48 8e bb 4d 70 1f bd 52 6f 6c bd
       0.024546884 -0.004342109 -0.038925458 -0.05772335
0003d0 8e 8d ad bc c2 c2 5d bd 74 87 1d 3d 18 4e 10 bc
       -0.021185663 -0.054140814 0.038459256 -0.0088076815
0003e0 32 2d 15 3d 86 fb 0c 3d 50 a1 ba 3b f0 5f 32 bc
       0.036420055 0.03441956 0.0056954995 -0.010887131
0003f0 32 60 15 bd cc 68 82 3c 0c d9 7b bd 72 22 0d bd
       -0.036468692 0.015919112 -0.06148629 -0.034456678

conv2.bias f4 [16]
000000 27 a3 2e bd 1c 31 a8 3c c8 05 5e 3d 50 8e 67 3c
       -0.042636063 0.02053123 0.054204732 0.014133051
000010 88 9a d7 3c 88 eb 69 bd 20 70 52 bd 42 a2 29 bd
       0.026318803 -0.057109386 -0.051376462 -0.041414507
000020 a8 55 39 bd 0f 4b 0f bd 88 97 2f bd 2a 88 bd bc
       -0.045247704 -0.03498369 -0.04286912 -0.023136217
000030 e5 4a 33 bd 70 8b ac 3c 6f 55 f0 b9 20 d3 6b 3b
       -0.043772597 0.021062583 -0.0004584002 0.0035983995

conv3.weight f4 [32, 16, 5, 5]
000000 76 a9 ad 3c e0 63 38 bd dd 5b a0 bc a0 9b de ba
       0.02119897 -0.045017123 -0.019575054 -0.0016983636
000010 a0 5c 3f bd 66 a8 d9 3c 23 c8 19 bd 2f 71 0a 3d
       -0.046719193 0.026569556 -0.03754438 0.033799347
000020 87 ad 4a 3d 8c d3 28 3c ca 5c c7 bc b9 8a 10 3d
       0.049481895 0.010304343 -0.024336237 0.035288546
000030 5d 43 06 bd 30 25 1b 3b 79 67 00 3d 89 ff 3f 3d
       -0.032779086 0.0023673289 0.03134868 0.046874557
000040 50 1b 70 3b 00 b3 78 bb 80 2c 8e bb f0 8e 46 bd
       0.0036637373 -0.003794849 -0.004338801 -0.04847616
000050 08 92 11 3c 88 8e 22 bd 40 48 93 3b b4 a8 42 bc
       0.008884914 -0.03968671 0.004494697 -0.011881042
000060 c1 3a 02 3d 33 01 a4 bc 11 8f 11 3d f4 34 43 bc
       0.031794313 -0.020020103 0.03553683 -0.0119144805
000070 d8 70 1e bc d8 70 3a bd dd fc 31 3d 90 b6 8d 3b
       -0.009670459 -0.045517772 0.04345404 0.0043247417
000080 0a 94 38 bd 20 48 38 3b 72 c2 a7 3c 34 1d 2d bc
       -0.045063056 0.0028119162 0.020478461 -0.010566045
000090 9b 20 27 3d 5a 54 c8 3c 10 02 d2 bb 21 c0 4c 3d
       0.04080258 0.024454284 -0.0064089373 0.049987916
0000a0 9b 6f 10 3d 70 f7 c8 bb 80 86 8d bb bc 69 7b 3c
       0.035262685 -0.0061330125 -0.004319012 0.015345033
0000b0 b0 ba 8e bc b2 26 fc 3c aa 09 45 bd e7 70 db bc
       -0.017423004 0.03078017 -0.04810492 -0.026787234
0000c0 0e c1 bb 3c aa 8f 44 bd 7a b6 87 bc 03 cb d9 bc
       0.022919204 -0.04798857 -0.016566504 -0.026586061
0000d0 62 e4 dd 3c 50 c1 24 3b 5d 75 11 bd f9 08 25 3d
       0.02708644 0.0025139637 -0.035512317 0.04029176
0000e0 03 ca ba bc d8 c1 b4 bb 6e 35 8a 3c 44 8f 08 bd
       -0.022801405 -0.005516272 0.01687118 -0.033339754
0000f0 98 1d 97 bb b4 fc 89 bc 94 4e 42 bc 40 94 94 bc
       -0.004611682 -0.016844131 -0.011859555 -0.018137097
000100 55 17 03 3d 9d 47 c9 bc c6 36 0a bd 7a ef b0 3c
       0.032004673 -0.02457028 -0.033743642 0.021598566
000110 a6 b5 84 3c 40 dd 08 3a 98 02 87 3b ff 02 49 3d
       0.016199898 0.0005220957 0.0041201822 0.049075123
000120 46 07 89 bc 58 c4 36 bd 0a b8 49 bd f4 60 54 3c
       -0.016727101 -0.04462084 -0.04924778 0.012962569
000130 b6 a4 9f 3c c0 38 39 3a 90 33 2a bd 3a fa 1f bd
       0.01948772 0.00070656464 -0.04155308 -0.039056994
000140 0a 8c 0b bd b1 d8 03 3d a8 89 20 3c 2d 22 e4 bc
       -0.0340691 0.032189075 0.009798445 -0.027848328
000150 58 ae 41 bd 22 51 eb 3c 00 d8 0c 3a e3 92 4b 3d
       -0.047285408 0.02872521 0.00053727627 0.04970063
000160 96 cc 27 bd c5 1c 26 bd ac 56 0d 3c e3 43 09 3d
       -0.040966593 -0.04055478 0.008626621 0.033512007
000170 3b 48 07 3d 47 9d 4b 3d 2d 62 02 3d 06 f5 b6 3c
       0.03302787 0.04971054 0.03183191 0.022333633
000180 c7 d8 fb bc 71 d2 49 3d 50 46 b5 bc 23 b3 03 3d
       -0.030743016 0.04927296 -0.022128254 0.03215326
000190 82 81 a8 3c 90 c8 f2 bc b0 5d 92 bb a8 6c 88 bb
       0.020569567 -0.029636651 -0.004466735 -0.0041633435
0001a0 51 a4 1a 3d ed b6 1c 3d d8 a4 2f 3c da c5 e8 bc
       0.03775436 0.03826039 0.010720454 -0.028414655
0001b0 2c 50 69 3c bd cb 27 3d 9d 0c d9 bc 13 22 24 3d
       0.014240306 0.040965784 -0.026495272 0.04007156
0001c0 74 1e 39 3c fe 92 e2 3c 1a 80 8c 3c 91 4b 01 3d
       0.0112987645 0.027657982 0.017150927 0.031566206
0001d0 eb 3d 2e bd 8e 2a a9 3c ad 99 31 bd 60 9a 5f bb
       -0.04253952 0.020650174 -0.043359447 -0.0034119114
0001e0 71 28 20 3d 1d f3 27 bd 90 c7 1b bd 23 85 b3 bc
       0.039101068 -0.041003335 -0.038032115 -0.02191407
0001f0 60 93 f6 3a 68 84 e2 bb 78 c1 20 bd c0 7a d5 3b
       0.0018812232 -0.0069127567 -0.039247006 0.006514877
000200 00 ca 4d bc 27 4d bf bc 40 11 0f 3a 9a 19 8b 3c
       -0.012560368 -0.023352219 0.00054575875 0.016979981
000210 08 6d 03 3c 56 c3 07 bd 7f d4 0a 3d 88 8f 1a 3c
       0.008021601 -0.03314527 0.03389406 0.009433635
000220 1d b7 a7 bc f1 45 31 3d cc 22 25 3c 82 ff d4 3c
       -0.020473057 0.043279592 0.010079097 0.026000742
000230 b5 ce 10 3d 40 95 69 ba 8d c8 28 3d 00 e6 69 b9
       0.03535338 -0.00089104846 0.041206885 -0.00022306293
000240 91 d7 23 3d d8 ba c6 3b 5e 79 bc 3c 96 44 ce 3c
       0.040000502 0.006064754 0.023007091 0.025179189
000250 3d 02 e3 bc 0d f9 32 3d 40 ba c6 3a 1a 8b 96 3c
       -0.027711028 0.043694545 0.0015161708 0.018376876
000260 10 1b 17 bd 46 e4 98 bc d5 80 05 3d 1d 40 01 bd
       -0.036891043 -0.018663537 0.032593567 -0.031555284
000270 00 fd e2 3b dd d5 33 3d 40 86 42 bd 00 c6 10 ba
       0.0069271326 0.043905128 -0.047491312 -0.00055226684
000280 54 1e 05 3c 79 3a 06 3d 7a 9f 89 bc 85 27 48 bd
       0.008124907 0.032770608 -0.016799677 -0.048865814
000290 dd 82 fd bc 3c dd 75 3c 3d d1 16 bd 6f 50 2f bd
       -0.03094619 0.01500636 -0.03682064 -0.042801317
0002a0 00 5a a5 ba 64 f1 56 3c 3c 6c 00 bd 60 17 9f bc
       -0.0012615323 0.013119075 -0.03135322 -0.019420326
0002b0 7e 0d e0 3c a4 78 0a bd 68 75 28 bd d8 96 77 bc
       0.027350184 -0.033806458 -0.041127592 -0.015111648
0002c0 a7 8d 24 3d 6c 2d 70 bc 68 d3 0a bd e2 49 11 bd
       0.040174153 -0.014659267 -0.03389302 -0.03547085
0002d0 54 87 40 bc 33 76 11 3d 0a f4 99 3c a4 c2 88 bc
       -0.011751015 0.035513114 0.018793125 -0.016694374
0002e0 40 ab 31 bd 30 8d f8 bc 94 ff 2c 3c 37 35 2c 3d
       -0.043376207 -0.030340761 0.010558981 0.042042937
0002f0 ea f1 d2 3c 70 6c d1 bb 76 46 d9 3c 20 fb 6b 3b
       0.02575012 -0.0063911006 0.026522856 0.0036007836
000300 90 27 e1 3b 96 f8 be 3c 0c a7 49 bc bc a8 6e 3c
       0.0068711713 0.023311894 -0.0123078935 0.014566597
000310 68 15 92 3b 1c ed 79 3c 18 3b 2f bc 59 63 04 3d
       0.004458118 0.015254285 -0.010695241 0.032321308
000320 15 7f 38 bd 21 07 08 3d b2 fa 28 bd 84 ca 09 bd
       -0.04504307 0.033209924 -0.041254707 -0.0336404
000330 ca db fb bc f0 2f 9e bb 28 69 a2 bb 77 26 47 bd
       -0.030744452 -0.004827492 -0.0049563833 -0.048620667
000340 f2 56 d9 3c 38 89 49 3c b1 1a 48 3d 9d 27 12 bd
       0.026530717 0.012300782 0.04885358 -0.03568231
000350 88 af 24 bd 28 d9 44 3c 13 c6 1d 3d 4f ba 08 3d
       -0.040206462 0.012014665 0.038518976 0.033380803
000360 c6 27 a6 3c 34 c6 09 3c e2 2b cc 3c e0 03 a3 bc
       0.020282637 0.008409072 0.024923269 -0.019899309
000370 7d 45 4c bd ca 7f 2a bd c4 f9 02 bd 18 ee 36 3c
       -0.049870957 -0.041625775 -0.031976476 0.011165164
000380 f5 5c 37 3d 15 2b 04 3d b8 ac 05 bd bc 6f 64 3c
       0.044766385 0.03226765 -0.03263542 0.013942655
000390 e1 29 35 3d 40 22 a1 3a 08 a1 18 bc 80 e3 dd bc
       0.044229392 0.0012293532 -0.009315737 -0.02708602
0003a0 00 20 6e bb 1d 1d 1a 3d f4 4e 67 bc 50 6d f7 bb
       -0.0036334991 0.03762542 -0.014117945 -0.007550873
0003b0 42 bc c6 3c 87 04 9d bc 83 3a bd bc 54 59 0a 3c
       0.02425969 -0.019167198 -0.02309919 0.008444149
0003c0 1d 48 14 3d 10 c4 ae 3b 80 f8 03 bb 76 b0 22 bd
       0.036201585 0.005333431 -0.0020137131 -0.039719068
0003d0 f2 95 f4 3c 20 89 15 3b aa 4d b4 bc d7 2e 34 bd
       0.029856656 0.0022817329 -0.02200969 -0.043989982
0003e0 00 56 c2 bc 7d ed 0f bd ac c0 27 3c 5d 12 16 3d
       -0.023722649 -0.035138596 0.010238808 0.036638606
0003f0 b8 ee 21 bc f2 4f f9 3c 78 16 2e bc 00 f1 c2 bc
       -0.009883575 0.030433629 -0.010625474 -0.023796558

conv3.bias f4 [32]
000000 00 64 c5 bc a0 51 91 bc 9a e4 1e bd 2a 67 a0 bc
       -0.024095535 -0.017739117 -0.03879223 -0.019580442
000010 00 07 21 3b 80 d1 e2 bc 6c 7c 1d bc 27 3b f1 bc
       0.0024570823 -0.027687788 -0.009612184 -0.029447151
000020 4c 41 02 3c 95 f8 96 3c 20 ee f4 bc 13 e9 aa bc
       0.007950138 0.01842908 -0.029898703 -0.020863092
000030 90 ed f0 bb 4d 75 d8 bc 4d 07 b3 bc 2c 80 c9 3c
       -0.0073525384 -0.02642312 -0.021854067 0.02459725
000040 02 92 07 bc 57 29 a2 3c 80 12 f6 39 a0 da 07 3b
       -0.008274557 0.019795103 0.0004693456 0.0020729676
000050 48 09 10 bd a0 fe 6b 3b b1 f9 42 3d 0f fe 3f 3d
       -0.0351651 0.0036009923 0.047601406 0.04687315
000060 29 33 07 3d 70 ea 80 bc 80 1e 90 b9 76 03 34 3d
       0.033007775 -0.015736789 -0.00027488545 0.043948613
000070 e0 a4 76 bc cc 0f 50 3c 40 78 93 3b cc 1f 06 3d
       -0.015053958 0.012699079 0.004500419 0.032745168

fc.weight f4 [32, 4608]
000000 80 81 ea bb 4c 1c 39 3b 38 fc 55 bc 08 f3 66 bb
       -0.007156551 0.0028245626 -0.013060622 -0.0035240073
000010 16 45 d9 3b 18 79 c7 3a 2b aa 5f 3c 92 2b 2c bc
       0.00663055 0.0015218584 0.013651411 -0.010508435
000020 e2 64 d7 3b 60 6d 3d ba cd 99 61 3c 69 62 51 3c
       0.0065733055 -0.0007226076 0.013769579 0.0127798105
000030 51 73 55 3c b8 7b 1f bc 9f 3d 70 3c d3 ca 17 bc
       0.013027982 -0.009734087 0.014663129 -0.009264666
000040 e4 06 e2 bb 5b ea 0a 3c 00 20 b8 b5 a6 ad e9 3b
       -0.006897794 0.008478726 -1.3718382e-06 0.007131296
000050 8d 22 4e 3c e8 a0 da ba 9e 82 80 3b 00 9c c8 39
       0.01258148 -0.0016680034 0.003921821 0.00038263202
000060 ed b6 21 3c 96 de f9 3b f0 f4 55 3a 9b 9b 30 bc
       0.009870273 0.0076254113 0.00081618037 -0.010779287
000070 c6 fc 90 3b 5d eb 13 3c 28 23 88 3a 96 2b e1 3b
       0.004424664 0.009028283 0.0010386454 0.006871651
000080 bc d1 70 3b 2d e4 ed bb b4 98 f9 bb b4 98 29 bb
       0.0036746105 -0.0072598667 -0.0076170806 -0.0025878372
000090 a2 c6 4f bc 80 70 ac b9 98 73 6f bb ae 4b 4b bc
       -0.012681635 -0.00032890216 -0.0036537405 -0.01240818
0000a0 38 1c f4 3a 7c 81 34 3b 6a d0 b9 3b d0 79 1d ba
       0.0018624132 0.0027543 0.005670597 -0.0006007226
0000b0 18 87 ab bb b4 8d 22 bb 81 6e 3e bc 80 65 83 39
       -0.0052346103 -0.00248037 -0.011623026 0.0002506189
0000c0 91 fb 00 3c 40 19 6a 39 98 33 c9 3a 6d 6d 4b 3c
       0.007872478 0.00022325385 0.0015350459 0.012416226
0000d0 e9 54 44 3c 6b 5e 59 3c 8f e0 44 3c 5f 78 01 3c
       0.011983135 0.01326714 0.01201643 0.007902234
0000e0 20 13 d7 b9 aa 9b 64 bc e8 57 e4 3a 2d 18 08 3c
       -0.00041022245 -0.013953129 0.0017421218 0.008306545
0000f0 f0 5b 13 3a e3 e8 00 3c 08 2e 37 bc e0 e7 db b9
       0.0005621305 0.0078680245 -0.011180408 -0.00041943695
000100 75 67 6d 3c 75 8d 5b bc d0 0b 0d bb 36 36 d7 3b
       0.014489998 -0.013400425 -0.0021521933 0.0065677417
000110 5c d3 66 bc 1e a1 bb bb 6c 0d d2 bb ed 1c 20 3c
       -0.014088478 -0.005725994 -0.0064102914 0.009772521
000120 cc 9b 16 bb e0 c9 eb 39 73 55 42 3c 44 46 5e 3b
       -0.0022981046 0.00044973101 0.011861193 0.0033916393
000130 44 9d a4 bb 8e 09 ee 3b cc 1c c9 bb e9 7d 50 3c
       -0.0050236303 0.0072643226 -0.006137466 0.012725332
000140 52 71 8f bb bb d2 55 3c 96 fd 91 bb 9f e5 02 3c
       -0.0043775225 0.01305073 -0.0044552786 0.007989316
000150 95 44 56 3c a4 f8 af bb 50 5e 9a ba 89 fd ea bb
       0.013077875 -0.0053702164 -0.0011777375 -0.007171337
000160 9a c8 f6 3b 26 67 a5 bb 03 79 34 3c 9a 4d 1c bc
       0.007531238 -0.0050476966 0.01101518 -0.009539986
000170 d0 a2 a8 bb 38 d3 61 bb bb f8 46 3c f5 35 01 3c
       -0.005146362 -0.0034458172 0.012144263 0.0078863995
000180 80 11 40 ba 66 d1 f0 3b cd 1c 54 bc c8 49 9f ba
       -0.00073268265 0.007349181 -0.01294632 -0.0012152726
000190 e7 89 57 3c 0c e4 60 bb 04 15 06 bc b7 76 e3 bb
       0.013155437 -0.0034315614 -0.008183721 -0.006941642
0001a0 0b d5 3d 3c dc 83 0c 3b f4 4f 6c 3b 00 0f e0 bb
       0.011586438 0.00214409 0.0036058398 -0.0068377256
0001b0 da 42 f2 3b 40 7e 44 b9 4b 1d 70 3c 71 41 1a 3c
       0.0073932232 -0.00018739048 0.0146554215 0.0094150165
0001c0 3b f0 50 bc 9b aa 46 3c aa a9 20 bc cc cd a0 bb
       -0.012752588 0.012125636 -0.009806076 -0.0049073454
0001d0 2c 09 12 3b 10 10 41 bc b0 ad 3e ba ee 12 fb bb
       0.00222833 -0.011783615 -0.0007273806 -0.0076621687
0001e0 e8 9b 78 bb 80 85 b2 b8 3c c6 1d bb 12 75 a7 3b
       -0.0037934724 -8.512568e-05 -0.0024074456 0.0051103914
0001f0 18 e8 85 bb c8 f8 fd 3a c0 5f 27 b9 2a b6 9f bb
       -0.0040865056 0.0019376511 -0.00015962031 -0.0048740106
000200 83 39 5c bc b6 55 f7 3b 63 35 4a bc 18 22 dd 3a
       -0.013441446 0.0075480593 -0.01234183 0.0016871123
000210 11 53 14 3c a9 e6 5c 3c d5 44 fd bb b7 f4 4b 3c
       0.009053008 0.013482728 -0.0077291527 0.012448481
000220 1e 73 00 bc 90 8c 0f bc 74 17 10 3b 88 85 bf bb
       -0.007839946 -0.00876154 0.0021986635 -0.0058447756
000230 dc 79 1a bc 5e e0 85 3b 6b 80 45 3c a1 90 10 3c
       -0.009428468 0.0040855845 0.012054543 0.008823545
000240 4a eb aa 3b fb 6a 03 3c ef 42 46 3c 6a ea d5 bb
       0.005216037 0.008021112 0.012100919 -0.0065281885
000250 29 fb 3e 3c 52 84 82 3b 31 e0 22 3c dc 34 6a bc
       0.011656561 0.003983059 0.009941147 -0.014294829
000260 fc b1 60 3b 40 4a 41 ba e0 a8 b2 b9 1f d9 2f bc
       0.0034285774 -0.000737343 -0.00034076627 -0.010732918
000270 b0 3b d1 ba c0 cb 59 bb 58 7d a4 bb 37 b4 48 3c
       -0.0015963223 -0.0033233017 -0.005019825 0.012249998
000280 05 e2 56 bc 78 69 c1 3a 16 53 d8 3b 4c b6 37 3b
       -0.013115411 0.0014756164 0.0066017015 0.0028032241
000290 f3 27 26 3c c8 de ee 3a d1 96 16 3c 66 38 e3 3b
       0.010141361 0.0018224353 0.009191231 0.0069342135
0002a0 ed 53 20 bc 06 76 4f bc 15 cc f0 bb 6e f9 0b bc
       -0.009785634 -0.012662416 -0.007348547 -0.008543355
0002b0 47 bb 34 bc f4 ec 52 3b ee 3b 3c bc 36 f8 2f bc
       -0.0110309785 0.0032184692 -0.011488898 -0.01074033
0002c0 ae 25 a6 bb 5b 9d 63 bc 22 3d 17 bc 48 17 55 bb
       -0.0050704097 -0.013892497 -0.009230884 -0.0032515097
0002d0 90 6a 74 3a 26 96 cd 3b e9 62 56 3c 8c 94 3f bb
       0.00093237404 0.0062740026 0.013085105 -0.0029232828
0002e0 81 db 0e bc 0e 90 16 bc 64 ad 2e bc b9 9a 1b 3c
       -0.008719326 -0.009189619 -0.010661457 0.009497338
0002f0 9f 3d 55 3c 1c 53 71 3b 7c 4b 6d 3b 62 79 9d 3b
       0.01301518 0.0036823219 0.0036208322 0.0048057297
000300 a1 a8 22 3c d3 ef 06 3c 35 a4 20 3c ca 59 a4 3b
       0.0099279 0.0082358895 0.009804775 0.0050155865
000310 28 80 f2 3a 9c 4e 7d bb 53 e2 15 3c 1a b0 8a 3b
       0.0018501328 -0.0038651591 0.009148198 0.0042324187
000320 59 9a 15 3c 75 d8 65 3c ed 9c 34 3c 27 4b 5e 3c
       0.009131038 0.014028658 0.011023742 0.013567722
000330 69 cd 35 3c 20 06 6b bb d4 99 b5 bb 94 dd 4f 3b
       0.011096337 -0.0035861805 -0.0055420194 0.0031717764
000340 95 93 16 3c d4 ec 48 bc d6 44 91 3b f6 f4 dc 3b
       0.00919046 -0.0122634955 0.0044332547 0.006743069
000350 e0 bc e7 bb 4d 27 f3 bb e0 b9 dd bb 49 fa 6c 3c
       -0.007072076 -0.0074204565 -0.006766543 0.0144639695
000360 90 f6 39 ba 2d 48 07 bc ce 9c ec 3b 9c 70 24 bc
       -0.00070939306 -0.008256954 0.007220841 -0.010036614
000370 cd d5 67 bc 8d d3 1f 3c 00 70 04 b6 a8 f6 9b 3a
       -0.014150095 0.0097550275 -1.9734725e-06 0.0011899071
000380 8f ac 0a 3c f8 e1 fc ba 20 da a7 ba 18 5d 25 bb
       0.008463993 -0.0019293418 -0.0012806095 -0.002523249
000390 32 ad fd 3b ec e8 3e bb 30 45 7d 3a 3f 2a 22 bc
       0.0077415938 -0.0029130531 0.0009661494 -0.009897768
0003a0 46 1d d3 bb 3c fa 49 bc 47 2e 27 3c 37 74 4a 3c
       -0.0064426987 -0.012327727 0.0102039045 0.012356809
0003b0 f2 85 c1 3b 62 f4 b2 3b 64 fb e0 bb ea a0 9e 3b
       0.00590586 0.0054612616 -0.0068659056 0.00484096
0003c0 de 62 c7 3b d7 b2 61 3c 55 b5 44 bc 29 66 11 bc
       0.006084784 0.013775549 -0.012006124 -0.008874455
0003d0 89 d1 f1 bb 53 b4 42 3c c0 2a 36 b9 65 a3 3f 3c
       -0.007379715 0.011883813 -0.00017372798 0.011696671
0003e0 b8 22 b3 bb 20 79 0e bb 9c 70 14 3b 1a 83 80 bb
       -0.0054667853 -0.0021739677 0.0022650128 -0.0039218785
0003f0 01 b6 38 3c dd a6 2b 3c d7 fe 40 bc 7c 7b d9 bb
       0.011273862 0.010476795 -0.011779509 -0.006637035

fc.bias f4 [32]
000000 23 11 cb bb 10 51 65 3c 1a 74 0d ba 5d d9 7c bb
       -0.006197111 0.013996378 -0.00053960236 -0.0038581707
000010 35 45 1a 3c 3c 7d 30 3b 6d cd 5a bc d8 f0 23 3c
       0.009415914 0.0026930114 -0.013354641 0.010006152
000020 f2 e2 5c bc da b2 02 bc c8 e6 3f bb 2d 09 ee 3b
       -0.013481842 -0.007977212 -0.0029281843 0.0072642774
000030 e1 a2 13 bc 13 3b 88 3c dd c7 52 bc a7 aa 23 3c
       -0.009011001 0.016629731 -0.012865034 0.009989417
000040 74 57 0d bb 2f a1 23 bc 1f e5 2e 3c 8b 33 11 3c
       -0.0021567019 -0.00998716 0.010674744 0.008862386
000050 21 bd 38 3c 86 3b 5b bc 58 8a b8 ba b4 66 05 3b
       0.011275561 -0.013380891 -0.0014079316 0.0020355405
000060 40 fc a9 ba dc 8a a0 3b b1 b2 c6 3b 2c 10 8a bb
       -0.0012968853 0.004899366 0.006063782 -0.0042133536
000070 6d 72 50 3c cd 54 7f 3c 0f fe 10 3b 78 e3 70 3c
       0.012722594 0.015584183 0.0022124087 0.01470267

translation.weight f4 [2, 32]
000000 6d db 81 bb 16 a8 88 bb 90 19 88 bb ea 14 c7 bb
       -0.003962925 -0.004170428 -0.004153438 -0.006075491
000010 33 f6 6f bb 00 00 00 00 00 00 00 00 f2 52 60 bb
       -0.0036615252 0.0 0.0 -0.0034229127
000020 00 00 00 00 00 00 00 00 00 00 00 00 5d 02 8d bb
       0.0 0.0 0.0 -0.0043032602
000030 99 76 10 bb 8d c0 84 bb 00 00 00 00 20 05 6f bb
       -0.0022043346 -0.004051274 0.0 -0.003647156
000040 00 00 00 00 00 00 00 00 4b f5 92 bb 37 1b 86 bb
       0.0 0.0 -0.0044848076 -0.0040925997
000050 00 00 00 00 00 00 00 00 e3 8d 97 bb 00 00 00 00
       0.0 0.0 -0.0046250685 0.0
000060 00 00 00 00 b0 14 93 bb fe 2a 91 bb 02 55 86 bb
       0.0 -0.00448855 -0.004430174 -0.004099489
000070 f9 bd 85 bb a4 02 6b bb ae be 6a bb f6 14 56 bb
       -0.0040814844 -0.0035859728 -0.003581922 -0.0032666302
000080 23 7e 87 bb 81 b4 8c bb 0f ed 8b bb dc e3 c8 bb
       -0.0041349097 -0.0042939787 -0.004270203 -0.0061306786
000090 3b 18 7f bb 00 00 00 00 00 00 00 00 43 97 70 bb
       -0.0038924355 0.0 0.0 -0.0036711253
0000a0 00 00 00 00 00 00 00 00 00 00 00 00 d4 99 8f bb
       0.0 0.0 0.0 -0.0043823514
0000b0 16 0e 04 bb 3c ce 89 bb 00 00 00 00 a6 5f 7e bb
       -0.0020149997 -0.0042054933 0.0 -0.0038814335
0000c0 00 00 00 00 00 00 00 00 85 b7 92 bb da fa 8a bb
       0.0 0.0 -0.0044774436 -0.0042413296
0000d0 00 00 00 00 00 00 00 00 19 72 97 bb 00 00 00 00
       0.0 0.0 -0.004621756 0.0
0000e0 00 00 00 00 06 e0 93 bb cc b4 91 bb 78 f0 8a bb
       0.0 -0.0045127897 -0.0044466015 -0.004240092
0000f0 75 01 8b bb d8 57 7a bb 0c 8d 0c bb be 1c 66 bb
       -0.004242117 -0.0038199332 -0.0021446375 -0.0035112347

translation.bias f4 [2]
000000 4a 87 34 ba 7e 98 73 ba
       -0.0006886615 -0.00092924375

rotation.weight f4 [1, 32]
000000 ed 2e 1f 3b 86 de 16 3b e2 16 15 3b e4 70 ce 3a
       0.0024289445 0.0023020818 0.0022749235 0.0015750197
000010 38 74 2f 3b 00 00 00 00 00 00 00 00 0e 3d 3d 3b
       0.0026772153 0.0 0.0 0.0028875503
000020 00 00 00 00 00 00 00 00 00 00 00 00 54 19 12 3b
       0.0 0.0 0.0 0.0022292929
000030 5b dc 18 bb ad 67 1b 3b 00 00 00 00 6e 21 31 3b
       -0.0023324701 0.0023712919 0.0 0.0027027982
000040 00 00 00 00 00 00 00 00 1a 34 06 3b e5 5e 1c 3b
       0.0 0.0 0.0020477832 0.0023860272
000050 00 00 00 00 00 00 00 00 05 92 02 3b 00 00 00 00
       0.0 0.0 0.001992346 0.0
000060 00 00 00 00 6e 82 07 3b 9a 16 08 3b b1 c5 19 3b
       0.0 0.0020677107 0.0020765425 0.002346378
000070 fa d5 1c 3b e1 a5 33 3b 83 3d 39 ba bf 8c 44 3b
       0.002393125 0.0027412104 -0.0007066356 0.0029991118

scaling.weight f4 [2, 32]
000000 c2 75 58 bb c0 16 63 bb 7a 85 62 bb d6 73 b3 bb
       -0.0033029174 -0.0034651011 -0.0034564422 -0.005476455
000010 99 ee 47 bb 00 00 00 00 00 00 00 00 74 e8 3a bb
       -0.0030507206 0.0 0.0 -0.00285199
000020 00 00 00 00 00 00 00 00 00 00 00 00 c9 24 6b bb
       0.0 0.0 0.0 -0.003588008
000030 91 d7 14 bb b5 db 5c bb 00 00 00 00 7f fe 46 bb
       -0.0022711495 -0.0033700292 0.0 -0.0030364094
000040 00 00 00 00 00 00 00 00 31 a8 78 bb 6a 9a 5f bb
       0.0 0.0 -0.0037942047 -0.0034119138
000050 00 00 00 00 00 00 00 00 a0 14 7c bb 00 00 00 00
       0.0 0.0 -0.0038464442 0.0
000060 00 00 00 00 4d 58 75 bb 6a cc 72 bb 7a f3 5f bb
       0.0 -0.0037436665 -0.003704811 -0.0034172223
000070 2f 80 5e bb ba ae 43 bb 79 21 6a bb 50 66 32 bb
       -0.0033950915 -0.0029858784 -0.0035725518 -0.0027221628
000080 ae 3b 30 bb 07 de 35 bb 2c 80 36 bb a2 ae a6 bb
       -0.002689104 -0.0027750747 -0.0027847392 -0.005086736
000090 5c 4b 25 bb 00 00 00 00 00 00 00 00 51 62 1b bb
       -0.002522192 0.0 0.0 -0.0023709724
0000a0 00 00 00 00 00 00 00 00 00 00 00 00 04 e0 3a bb
       0.0 0.0 0.0 -0.0028514871
0000b0 47 dc 16 bb 45 a2 32 bb 00 00 00 00 4a 4c 24 bb
       -0.002301948 -0.0027257365 0.0 -0.0025069886
0000c0 00 00 00 00 00 00 00 00 65 20 63 bb 52 c9 33 bb
       0.0 0.0 -0.003465676 -0.0027433229
0000d0 00 00 00 00 00 00 00 00 ae ff 5c bb 00 00 00 00
       0.0 0.0 -0.0033721733 0.0
0000e0 00 00 00 00 f8 84 45 bb 4d 76 44 bb 76 80 34 bb
       0.0 -0.003013907 -0.002997774 -0.002754239
0000f0 16 a5 32 bb ff 5c 22 bb 82 8f 80 bb b3 1b 15 bb
       -0.0027259043 -0.0024774668 -0.0039233575 -0.0022752106

scaling.bias f4 [2]
000000 18 9f 1f ba 92 c3 19 ba
       -0.00060890755 -0.0005865629

shearing.weight f4 [1, 32]
000000 14 2f c3 3b 06 61 c2 3b ff 25 c2 3b 15 fa c3 3b
       0.00595654 0.0059319763 0.0059249396 0.00598074
000010 61 70 c4 3b 00 00 00 00 00 00 00 00 63 78 c5 3b
       0.005994842 0.0 0.0 0.006026314
000020 00 00 00 00 00 00 00 00 00 00 00 00 10 92 c2 3b
       0.0 0.0 0.0 0.005937822
000030 18 49 36 38 2f d0 c2 3b 00 00 00 00 79 ad c4 3b
       4.3460255e-05 0.0059452276 0.0 0.006002125
000040 00 00 00 00 00 00 00 00 c0 53 c2 3b 2d 4a c3 3b
       0.0 0.0 0.005930394 0.00595977
000050 00 00 00 00 00 00 00 00 e6 78 c2 3b 00 00 00 00
       0.0 0.0 0.0059348224 0.0
000060 00 00 00 00 8a fd c1 3b c4 fa c1 3b 82 10 c3 3b
       0.0 0.005920117 0.005919786 0.0059528956
000070 17 46 c3 3b 18 cb c4 3b c1 f5 25 3b 3d 60 c6 3b
       0.005959283 0.006005656 0.0025323483 0.006053953
