output/Mess6060_e/train/model/stn_30.pt (torch_old, 658934 bytes, 14 tensors)

conv1.weight f4 [8, 2, 5, 5]
0.089861654 0.08459947 -0.10508447 -0.15036249 0.07978795 -0.15155762 0.06447864 -0.1642198
-0.09912335 -0.08898976 0.10721574 -0.04951634 0.0962912 0.015159804 0.11078658 0.06834908
0.07909398 0.09822449 -0.06701864 -0.06429091 0.020732222 0.100128025 -0.076523654 -0.13584033
-0.13536587 -0.09232247 -0.0026490933 -0.039434522 -0.058692243 -0.08535296 0.011112599 -0.14011201
0.11766047 -0.041191574 0.008902058 0.02429624 -0.07682812 0.09212144 -0.018278288 -0.0035897924
-0.15557985 -0.001173289 0.032321643 0.004353244 -0.027347678 0.08616453 0.09500956 0.08306157
-0.03636162 0.013193581 -0.11697228 -0.12407828 -0.043544725 -0.0040237946 -0.105715506 -0.13941176
0.044931836 0.032122083 -0.11377041 0.07057778 -0.1288818 0.08505432 0.054878633 -0.06845288
0.11269022 -0.10269915 -0.08729238 0.090757735 -0.05726071 -0.07882928 -0.0021575901 -0.04797523
0.06602038 0.09243901 0.040668122 0.043668482 0.046547312 0.012727367 0.02384587 0.0081223
0.10586358 0.086567216 -0.008760264 0.057476867 0.010463874 0.054496426 0.119072475 -0.09530537
0.020026136 -0.031048406 -0.13807832 -0.1387098 -0.021499673 0.09705988 -0.09861888 0.042119756
0.07607797 -0.110605665 0.052401718 0.017162547 -0.15458621 -0.02767022 -0.15713026 0.09922684
0.041474637 0.027565502 0.08291919 0.08310946 0.11532591 0.033160616 -0.128651 0.105452724
0.014015483 -0.08088076 -0.07785526 0.1044701 0.0043504266 0.07637073 -0.015174277 0.104492486
-0.13128595 0.006363313 0.0070961406 -0.028122837 0.09942653 -0.001161625 -0.020920286 0.06976297
-0.03660525 -0.03226642 -0.14736733 -0.030407649 -0.09427951 0.055281457 0.09853114 -0.16259201
-0.11171619 0.10786685 -0.08748284 0.10063906 0.10733898 -0.06611757 -0.14396104 0.042908654
0.038308773 0.09100687 -0.01035298 0.0477645 -0.14914489 -0.006454608 0.033701513 0.088305175
-0.07760533 -0.020366937 -0.08834212 -0.093176864 0.05882332 0.020152748 0.05311008 -0.0071583977
-0.0013633389 -0.0038606885 0.075624265 -0.10034853 0.027035916 0.079601206 0.08362636 -0.06854097
0.10782049 -0.09768053 0.075829804 0.11729367 0.005548263 0.041874234 -0.13712779 -0.07165401
-0.0712324 -0.14753447 -0.047335345 0.079980284 -0.029436102 0.12412837 -0.14330763 0.039484628
0.10362577 0.122047886 -0.07027972 -0.14304908 -0.06843063 0.08698841 -0.0028629904 0.120066576
-0.11861964 -0.10453159 0.054600175 0.03405479 -0.106576025 0.11704395 -0.06986718 -0.13398513
0.045944784 -0.07332199 -0.06172217 -0.07407647 0.04295654 0.07503641 0.10318051 -0.073332146
-0.027753774 0.13709015 -0.0629116 -0.04121204 -0.017799944 -0.11777446 -0.09867794 0.13684987
0.036982488 0.03729439 0.06619334 0.09409323 0.105658054 0.11316898 0.068949066 0.117986806
0.10332159 -0.028416393 0.0058683623 -0.08327719 -0.11825826 0.120392434 -0.107683286 -0.09316801
-0.14340618 -0.117395505 0.021305583 0.06587825 -0.1208767 0.006658837 -0.1107243 0.01889727
0.08278849 -0.058670707 -0.06392925 0.08768383 -0.09657679 -0.029277626 -0.12087568 0.09493
0.04022013 -0.059597835 0.10880577 0.14094643 0.06362277 -0.09537253 -0.027423369 0.121207885
00000000: 6309 b83d 7d42 ad3d 8736 d7bd a0f8 19be
00000010: dd67 a33d ec31 1bbe 610d 843d 3c29 28be
00000020: 2f01 cbbd 4340 b6bd ed93 db3d a5d1 4abd
00000030: 5234 c53d d460 783c 13e4 e23d 9afa 8b3d
00000040: 06fc a13d ec29 c93d 1241 89bd f4aa 83bd
00000050: 9fd6 a93c ec0f cd3d 6fb8 9cbd ba19 0bbe
00000060: 5a9d 0abe 9013 bdbd 699c 2dbb 1886 21bd
00000070: 4767 70bd 88cd aebd 9e11 363c 8679 0fbe
00000080: f9f7 f03d 7fb8 28bd f0d9 113c e908 c73c
00000090: 1058 9dbd 2aaa bc3d 59bc 95bc b942 6bbb
000000a0: 5350 1fbe 0cc9 99ba b363 043d a8a5 8e3b
000000b0: 3d08 e0bc 0777 b03d 5f94 c23d 2f1c aa3d
000000c0: ecef 14bd e429 583c 2a8f efbd c11c febd
000000d0: f45b 32bd 09da 83bb 5f81 d8bd f5c1 0ebe
000000e0: 720a 383d 7292 033d 7600 e9bd 158b 903d
000000f0: 97f9 03be f630 ae3d 6bc8 603d 0631 8cbd
00000100: 21ca e63d ef53 d2bd 59c6 b2bd 31df b93d
00000110: 358a 6abd 3f71 a1bd 5b66 0dbb ad81 44bd
00000120: b135 873d aa50 bd3d 9e93 263d b9dd 323d
00000130: 65a8 3e3d 7286 503c 6a58 c33c 6513 053c
00000140: 01cf d83d 274a b13d 3687 0fbc dd6c 6b3d
00000150: ab70 2b3c a537 5f3d 45dc f33d 762f c3bd
00000160: da0d a43c 3a59 febc 6764 0dbe f109 0ebe
00000170: 1520 b0bc 55c7 c63d b2f8 c9bd c485 2c3d
00000180: c4ce 9b3d 3985 e2bd 2fa3 563d 7898 8c3c
00000190: d94b 1ebe a8ac e2bc c1e6 20be 7137 cb3d
000001a0: 4fe1 293d 0cd1 e13c 89d1 a93d 4b35 aa3d
000001b0: fe2f ec3d 6dd3 073d 16bd 03be 99f7 d73d
000001c0: 32a1 653c d0a4 a5bd 9472 9fbd 6bf4 d53d
000001d0: 068e 8e3b 4268 9c3d 889d 78bc 2800 d63d
000001e0: d36f 06be 5783 d03b be86 e83b dd61 e6bc
000001f0: 23a0 cb3d ab41 98ba 0561 abbc e3df 8e3d
00000200: 63ef 15bd cb29 04bd 76e7 16be 7619 f9bc
00000210: 9e15 c1bd cf6e 623d b2ca c93d 857e 26be
00000220: 75cb e4bd 4ce9 dc3d 342a b3bd da1b ce3d
00000230: 8ad4 db3d a668 87bd 866a 13be fcc0 2f3d
00000240: a9e9 1c3d cf61 ba3d 8c9f 29bc b5a4 433d
00000250: 70b9 18be 2d81 d3bb 990a 0a3d 58d9 b43d
00000260: 8bef 9ebd 90d8 a6bc b7ec b4bd 83d3 bebd
00000270: b9f0 703d 6017 a53c f589 593d fe90 eabb
00000280: 10b2 b2ba 9b03 7dbb e5e0 9a3d 8883 cdbd
00000290: 6d7a dd3c f505 a33d 4c44 ab3d 355f 8cbd
000002a0: fdd0 dc3d bb0c c8bd a84c 9b3d aa37 f03d
000002b0: 34ce b53b 5184 2b3d 3a6b 0cbe 56bf 92bd
000002c0: 4be2 91bd 4713 17be b5e2 41bd b4cc a33d
000002d0: fb23 f1bc 0437 fe3d 3cbf 12be a2ba 213d
000002e0: bf39 d43d 3ef4 f93d d0ee 8fbd 757b 12be
000002f0: 5c25 8cbd fb26 b23d 02a1 3bbb 77e5 f53d
00000300: dbee f2bd a914 d6bd 6fa4 5f3d 097d 0b3d
00000310: 8844 dabd bdb4 ef3d 8616 8fbd 6633 09be
00000320: 9930 3c3d d729 96bd 63d0 7cbd 68b5 97bd
00000330: 32f3 2f3d b0ac 993d 4e50 d33d 2a2f 96bd
00000340: e25b e3bc 5c61 0c3e ccd7 80bd f5cd 28bd
00000350: 30d1 91bc bc33 f1bd a917 cabd 5f22 0c3e
00000360: f37a 173d 01c2 183d 6090 873d f4b3 c03d
00000370: 4063 d83d 23c5 e73d 2b35 8d3d 11a3 f13d
00000380: 459a d33d 7fc9 e8bc 644b c03b 3b8d aabd
00000390: 6331 f2bd 4f90 f63d 0e89 dcbd dfce bebd
000003a0: 12d9 12be 0e6d f0bd 0c89 ae3c 2deb 863d
000003b0: 348e f7bd 6032 da3b 6cc3 e2bd 73ce 9a3c
000003c0: 038d a93d b250 70bd 57ed 82bd 9493 b33d
000003d0: 0dca c5bd a2d7 efbc ab8d f7bd a96a c23d
000003e0: ddbd 243d dc1c 74bd 8fd5 de3d 4354 103e
000003f0: a84c 823d ac52 c3bd f9a6 e0bc d73b f83d

conv1.bias f4 [8]
0.038623415 -0.007151008 -0.056215394 -0.032043077 -0.10711416 0.102362 0.11360017 -0.11513183
00000000: 9633 1e3d 0153 eabb 1d42 66bd 9a3f 03bd
00000010: ab5e dbbd 2ba3 d13d 35a7 e83d 3dca ebbd

conv2.weight f4 [16, 8, 5, 5]
-0.06810432 -0.06804996 -0.013635809 -0.0022490341 -0.04830695 0.03845365 0.0030356478 -0.037695747
-0.06990294 0.053726837 0.06932485 0.005066923 -0.035413537 0.04393404 0.040957388 -0.0113220485
0.06486946 -0.053478073 -0.008818692 0.05951599 -0.04552424 -0.02347175 -0.031174157 -0.029586138
0.06203997 0.042976633 -0.06534091 -0.04599185 -0.007957694 -0.037673693 -0.039186765 -0.07141368
0.04630978 0.026751803 -0.0016769224 -0.014303294 -0.06964044 -0.012979059 0.009834383 -0.04732151
0.05803043 0.013013528 -0.016606526 0.0052696336 0.00911123 -0.051549044 0.014416053 -0.08334813
-0.040657017 -0.050335377 0.047219105 -0.07411688 0.020283788 -0.06842421 0.027147532 0.010153056
-0.03437194 0.015310165 0.06311049 0.038541004 -0.07181566 -0.02535645 0.05782347 0.0050159073
0.0029177985 -0.002230203 -0.032211334 -0.025733376 -0.0024246552 0.045865335 -0.027174037 -0.026173085
0.0053510414 -0.034308974 0.052845266 0.05761982 0.008798436 -0.03673808 0.031091249 0.07287834
0.024539117 0.033222485 -0.030470602 -0.059893668 -0.014921474 -7.850904e-06 0.06387179 0.019121096
-0.005582963 -0.008011925 -0.018582042 -0.039081596 -0.027761482 0.018048879 0.055374436 0.05296606
0.023939447 -0.049794376 0.06719435 0.07272425 -0.0021876574 0.025199162 0.0915094 0.0060696965
0.06660666 0.029965552 0.06118124 0.050860792 0.099774726 0.09153616 -0.030947018 0.063725285
0.010059734 -0.010041637 0.04046889 0.0062363655 -0.02610831 -0.041293498 -0.016177583 0.03169803
0.05863535 0.06010718 0.037512787 0.08639402 -0.040710222 -0.037598122 0.041195624 -0.048866685
0.0877341 0.03467973 -0.022075245 0.07126302 0.04625598 0.07809269 0.07544615 -0.011962557
0.06879861 0.018659424 0.02098101 0.042057514 -0.057540316 -0.040339187 0.07203117 -0.03731848
0.050252315 0.039043903 -0.05698482 -0.0061481195 0.0033458527 0.059139237 -0.03026506 0.052998472
-0.06897067 0.020734008 0.030620158 -0.035963956 -0.033729225 -0.054000437 0.01069604 0.016176827
-0.034724027 0.04758405 -0.019351583 -0.018590476 0.048005205 0.003170623 0.028920464 0.03325676
-0.054113936 -0.008344941 0.05395962 -0.05214223 0.0007329201 0.044373017 -0.0003740248 -0.0074946415
0.038474992 -0.040781654 0.08159059 0.085197486 -0.014755149 -0.01612513 0.00055246963 0.090045445
-0.0012390302 0.020688633 -0.06213519 0.030728003 0.05730071 0.043235283 -0.006330039 0.0068090158
0.0657643 0.039286613 -0.0016931221 -0.06090971 0.049976777 -0.025119025 0.04718884 -0.005311782
0.0017688995 -0.061963614 -0.032782163 0.003656959 -0.07210845 -0.016509019 0.03242917 0.035964616
0.04739257 -0.026608992 -0.0037215133 -0.069050394 0.015904408 0.0032309284 0.052923705 -0.01955503
0.054191172 0.014815373 0.05097751 -0.010153598 -0.06692216 -0.06889287 -0.08534156 0.0017723251
-0.06094192 0.005505514 0.058539238 0.08807758 0.0021257726 0.0615251 0.027575577 0.005776482
0.009894612 -0.0154053345 0.028866021 0.04001089 -0.011704427 0.062133487 -0.017763903 -0.042318907
0.062316757 0.016511545 -0.023135602 -0.04901822 -0.023299238 -0.029977528 0.05259889 -0.0011053517
0.034132384 0.023378704 4.9966977e-05 -0.013550796 -0.038666587 0.014488433 -0.063851334 -0.03966753
00000000: 477a 8bbd c75d 8bbd ba68 5fbc 8864 13bb
00000010: 82dd 45bd 9381 1d3d b8f1 463b db66 1abd
00000020: 4629 8fbd ac10 5c3d 30fa 8d3d 6e08 a63b
00000030: c90d 11bd 2ef4 333d efc2 273d 1d80 39bc
00000040: 48da 843d d30b 5bbd 467c 10bc 0ac7 733d
00000050: a077 3abd d447 c0bc f260 ffbc a15e f2bc
00000060: a01d 7e3d 4408 303d 74d1 85bd f361 3cbd
00000070: fd60 02bc bb4f 1abd 4d82 20bd 5641 92bd
00000080: 53af 3d3d 9926 db3c 2ecc dbba 5d58 6abc
00000090: a69f 8ebd 1ea6 54bc 6420 213c 33d4 41bd
000000a0: 51b1 6d3d b136 553c 690a 88bc e4ac ac3b
000000b0: 4547 153c 1725 53bd 4f31 6c3c 6db2 aabd
000000c0: f987 26bd 782c 4ebd d268 413d 97ca 97bd
000000d0: 302a a63c fe21 8cbd 8064 de3c 0159 263c
000000e0: 97c9 0cbd 7cd7 7a3c 1340 813d 2cdd 1d3d
000000f0: 1714 93bd 54b8 cfbc 4ed8 6c3d 7b5c a43b
00000100: 8938 3f3b 9928 12bb 08f0 03bd cdce d2bc
00000110: f7e6 1ebb 4add 3b3d 169c debc f068 d6bc
00000120: ca57 af3b 9187 0cbd 4774 583d c302 6c3d
00000130: 5127 103c ab7a 16bd 13b3 fe3c 3d41 953d
00000140: 4206 c93c 4d14 083d 7c9d f9bc 1053 75bd
00000150: 3379 74bc 60b7 03b7 37cf 823d d8a3 9c3c
00000160: 4af1 b6bb 7344 03bc 5e39 98bc 0614 20bd
00000170: 0c6c e3bc 3edb 933c 4ed0 623d f0f2 583d
00000180: a91c c43c 30f5 4bbd 319d 893d 74f0 943d
00000190: cd5e 0fbb 796e ce3c 4869 bb3d 4ee4 c63b
000001a0: 1369 883d 517a f53c 2e99 7a3d 6853 503d
000001b0: b156 cc3d 4f77 bb3d 9a84 fdbc 6782 823d
000001c0: 95d1 243c ae85 24bc b5c2 253d 6d5a cc3b
000001d0: 18e1 d5bc 5f23 29bd da86 84bc cbd5 013d
000001e0: 9f2b 703d f232 763d 02a7 193d 59ef b03d
000001f0: c3bf 26bd 7d00 1abd bebc 283d 6f28 48bd
00000200: f0ad b33d 550c 0e3d 25d7 b4bc 59f2 913d
00000210: e976 3d3d 0fef 9f3d 8383 9a3d 9afe 43bc
00000220: 49e6 8c3d a6db 983c 5ee0 ab3c 8044 2c3d
00000230: 65af 6bbd b43a 25bd 1485 933d 43db 18bd
00000240: 5fd5 4d3d 80ec 1f3d ea68 69bd 2a76 c9bb
00000250: 1846 5b3b fc3b 723d 6eee f7bc ed14 593d
00000260: 7f40 8dbd 5eda a93c 20d7 fa3c f14e 13bd
00000270: a827 0abd 902f 5dbd 713e 2f3c 4485 843c
00000280: c83a 0ebd 7ee7 423d 3687 9ebc 0e4b 98bc
00000290: 1ba1 443d 3aca 4f3b 9cea ec3c 3e38 083d
000002a0: 93a6 5dbd 38b9 08bc c304 5d3d 1793 55bd
000002b0: 6f21 403a 7bc0 353d c218 c4b9 9c95 f5bb
000002c0: f497 1d3d aa0a 27bd f818 a73d 057c ae3d
000002d0: 95bf 71bc d918 84bc 9cd3 103a bf69 b83d
000002e0: f466 a2ba 357b a93c 7881 7ebd 4bb9 fb3c
000002f0: 26b4 6a3d 7b17 313d 376c cfbb 2a1e df3b
00000300: 6faf 863d 00eb 203d c0eb ddba 767c 79bd
00000310: 73b4 4c3d 6ac6 cdbc 1649 413d 750e aebb
00000320: 6bda e73a 8fcd 7dbd 9746 06bd 97a9 6f3b
00000330: 98ad 93bd ec3d 87bc 73d4 043d a24f 133d
00000340: b61e 423d 1afb d9bc a2e4 73bb 4b6a 8dbd
00000350: f649 823c fcbd 533b 87c6 583d df31 a0bc
00000360: 90f7 5d3d 2ebc 723c cbcd 503d 475b 26bc
00000370: 7c0e 89bd b417 8dbd 8ec7 aebd 5d4d e83a
00000380: 3c9e 79bd 9967 b43b d7c6 6f3d 0562 b43d
00000390: 8c50 0b3b be01 7c3d 2de6 e13c a548 bd3b
000003a0: 031d 223c a866 7cbc 6f78 ec3c 76e2 233d
000003b0: edc3 3fbc af7f 7e3d 9b85 91bc 9756 2dbd
000003c0: db3f 7f3d 3843 873c e086 bdbc 54c7 48bd
000003d0: 0bde bebc 6f93 f5bc ef71 573d 73e1 90ba
000003e0: 66ce 0b3d b284 bf3c a293 5138 2804 5ebc
000003f0: db60 1ebd e460 6d3c 7dc4 82bd 6c7a 22bd

conv2.bias f4 [16]
-0.039111163 -0.01061947 0.028667137 -0.015788127 -0.0069898474 -0.05924874 -0.039770722 -0.054819696
-0.047306303 -0.04655688 -0.04454355 -0.044931635 -0.048612967 0.009633261 -0.024067588 -0.011422106
00000000: 0733 20bd 49fd 2dbc 58d7 ea3c 1a56 81bc
00000010: 170b e5bb cfae 72bd a0e6 22bd 9e8a 60bd
00000020: 41c4 41bd 6db2 3ebd 4c73 36bd 3c0a 38bd
00000030: 641e 47bd d3d4 1d3c 6429 c5bc c923 3bbc

conv3.weight f4 [32, 16, 5, 5]
0.0011829301 -0.0667952 -0.039017323 -0.017552625 -0.061801802 0.021710563 -0.043806154 0.02613078
0.042717256 0.003997355 -0.019086441 0.04083141 -0.03035129 0.0027057603 0.031207379 0.052315455
0.01211962 0.002982576 -0.00057404226 -0.046493255 0.008236183 -0.037566092 0.006263142 -0.01270726
0.028574571 -0.02418659 0.030237632 -0.018789044 -0.012395086 -0.05209927 0.03869926 0.00044592412
-0.05022515 0.0010191791 0.0153158875 -0.015307926 0.038555544 0.018336935 -0.0037216472 0.051029142
0.029345091 -0.006904468 -0.0043812096 0.019085243 -0.01211456 0.02806519 -0.04717211 -0.027014554
0.030685117 -0.041004933 -0.035375826 -0.041308876 0.020350106 -0.0012669906 -0.040635735 0.010739096
-0.04863648 -0.021181805 0.011165471 -0.035988975 -0.029230198 -0.043007813 -0.030255811 -0.028317893
0.024841141 -0.04306484 -0.056300636 0.0011677812 -0.001207289 -0.01735948 -0.013538041 0.03221451
-0.037800763 -0.06738166 -0.07416214 0.0025179721 0.008514093 -0.011194017 -0.05475102 -0.0503036
-0.043223556 0.024747549 0.0021810317 -0.03596354 -0.055454135 0.022150151 -0.004148528 0.04582451
-0.04284159 -0.044031657 0.0063644885 0.029132677 0.029233046 0.046279274 0.028645385 0.014332985
-0.039192412 0.041889254 -0.029513678 0.023255697 0.010365365 -0.038941126 -0.016899448 -0.015166268
0.034574952 0.032171607 0.01536548 -0.02200195 0.017996123 0.044919815 -0.036008365 0.039280474
0.019051546 0.03596117 0.023693802 0.009046389 -0.05899739 0.012845225 -0.047787894 -0.005986928
0.008073337 -0.06674628 -0.058598064 -0.042167205 -0.016237656 -0.031899665 -0.06597905 -0.019885255
-0.031929556 -0.03572015 -0.005548672 0.009958703 -0.00074907584 -0.04093391 0.029895613 0.015230144
-0.011473216 0.051118907 0.0135014905 0.028421067 0.040444363 0.00865766 0.05280277 0.007851546
0.043953452 0.0051247156 0.025351211 0.030327532 -0.024629762 0.04268351 -0.015424357 0.016324714
-0.032781124 -0.021040589 0.025897909 -0.046607487 -0.013388656 0.03586343 -0.047396246 -0.0027489765
-0.013477163 -0.00083026936 -0.04151973 -0.053607628 -0.027619373 -0.01434903 -0.07387991 -0.080542795
-0.024469573 0.0060948846 -0.052714787 -0.05548884 -0.017152386 -0.075908266 -0.06477363 -0.021870388
0.032651134 -0.020883676 -0.03930355 -0.04207218 -0.02035144 0.024636805 0.007081211 -0.026516331
-0.055754658 -0.034992747 0.0027247013 0.030822976 0.012848916 -0.020447971 0.022293642 -0.0035879174
0.00039370262 0.015985874 -0.020476785 0.013294104 -0.00046953588 0.014524913 -0.008313044 0.034202106
-0.042067084 0.029643072 -0.047911648 -0.040140174 -0.041704666 -0.0019575083 -0.0078310445 -0.058634184
0.015896566 0.0027771855 0.04664606 -0.03824906 -0.050201237 -0.0032354314 0.02544589 0.026968412
0.01390801 -0.004075485 0.0039982363 -0.0401656 -0.0528057 -0.04932908 -0.041964266 0.0060768644
0.034149397 0.02344944 -0.041667588 0.00491266 0.036472484 -0.005380469 -0.019564884 -0.038391873
-0.015598114 0.026701797 -0.022894556 -0.016993796 0.013750382 -0.030855099 -0.03512046 -0.0012235444
0.02884072 -0.0024045962 -0.009756426 -0.047351707 0.023469135 -0.004126889 -0.028714903 -0.04958012
-0.028157646 -0.038887683 -0.0047917976 0.02475285 -0.021030486 0.018917432 -0.01997631 -0.042158462
00000000: 8c0c 9b3a eccb 88bd a1d0 1fbd 86ca 8fbc
00000010: e323 7dbd 5ada b13c 156e 33bd 3810 d63c
00000020: 4af8 2e3d 3efc 823b 2b5b 9cbc d63e 273d
00000030: 45a3 f8bc 2053 313b 9ea6 ff3c bb48 563d
00000040: 5f91 463c 5277 433b 537b 16ba b66f 3ebd
00000050: 0ef1 063c e7de 19bd 0b3b cd3b 1d32 50bc
00000060: 3815 ea3c f522 c6bc e9b4 f73c 7beb 99bc
00000070: c214 4bbc 0b66 55bd 1e83 1e3d ecca e939
00000080: e3b8 4dbd fa95 853a 7def 7a3c 18ce 7abc
00000090: 6bec 1d3d 5737 963c e1e6 73bb ef03 513d
000000a0: 1e65 f03c e03e e2bb 4090 8fbb a858 9c3c
000000b0: 267c 46bc f8e8 e53c 8b37 41bd a04d ddbc
000000c0: 5b5f fb3c caf4 27bd 3ee6 10bd 7f33 29bd
000000d0: 44b5 a63c 2611 a6ba a871 26bd 09f3 2f3c
000000e0: 0c37 47bd 7785 adbc 61ef 363c 2d69 13bd
000000f0: 2b74 efbc f628 30bd 09db f7bc edfa e7bc
00000100: a67f cb3c c264 30bd 7f9b 66bd 3c10 993a
00000110: e63d 9eba 7835 8ebc a9ce 5dbc 5df3 033d
00000120: f9d4 1abd 65ff 89bd 52e2 97bd 9004 253b
00000130: b27e 0b3c 1c67 37bc 9b42 60bd 260b 4ebd
00000140: 2f0b 31bd 5fbb ca3c a4ef 0e3b 814e 13bd
00000150: e023 63bd 3c74 b53c 60f0 87bb 7bb2 3b3d
00000160: aa7a 2fbd 8a5a 34bd 338d d03b a7a7 ee3c
00000170: 247a ef3c 568f 3d3d baa9 ea3c e5d4 6a3c
00000180: 3988 20bd 1194 2b3d abc6 f1bc bb82 be3c
00000190: 7ed3 293c bb80 1fbd b670 8abc f07b 78bc
000001a0: 779e 0d3d 60c6 033d 7fbf 7b3c 6f3d b4bc
000001b0: 9b6c 933c d7fd 373d 827d 13bd 90e4 203d
000001c0: fd11 9c3c 054c 133d 8119 c23c 4e37 143c
000001d0: 3fa7 71bd c774 523c 3dbd 43bd fe2d c4bb
000001e0: 0846 043c 46b2 88bd 8604 70bd 85b7 2cbd
000001f0: d504 85bc 39a9 02bd 0620 87bd 67e6 a2bc
00000200: 91c8 02bd 4b4f 12bd a2d1 b5bb d429 233c
00000210: a15d 44ba 51aa 27bd a5e7 f43c db87 793c
00000220: 28fa 3bbc 0f62 513d 5b35 5d3c 4cd3 e83c
00000230: fda8 253d dcd8 0d3c b847 583d c5a3 003c
00000240: 8908 343d 3bed a73b 58ad cf3c 7271 f83c
00000250: 5bc4 c9bc e7d4 2e3d 71b6 7cbc 68bb 853c
00000260: 8045 06bd 505d acbc da27 d43c 7ee7 3ebd
00000270: 185c 5bbc 88e5 123d 9122 42bd 2c28 34bb
00000280: 52cf 5cbc 6fa6 59ba 9810 2abd ac93 5bbd
00000290: 0642 e2bc 3218 6bbc 5a4e 97bd 9ff3 a4bd
000002a0: 6a74 c8bc 99b7 c73b 76eb 57bd 4448 63bd
000002b0: 2983 8cbc cb75 9bbd 09a8 84bd 8729 b3bc
000002c0: 32bd 053d 3e14 abbc c2fc 20bd e153 2cbd
000002d0: 10b8 a6bc 20d3 c93c 8109 e83b c738 d9bc
000002e0: ff5e 64bd 8e54 0fbd e790 323b 7780 fc3c
000002f0: 4384 523c 8182 a7bc 28a1 b63c 4423 6bbb
00000300: df69 ce39 cff4 823c eebe a7bc 83cf 593c
00000310: 0a2c f6b9 e7f9 6d3c 6f33 08bc 8217 0c3d
00000320: 894e 2cbd 07d6 f23c 013f 44bd 066a 24bd
00000330: 83d2 2abd 8a49 00bb c84d 00bc 662a 70bd
00000340: 8439 823c 7101 363b f00f 3f3d 0cab 1cbd
00000350: d09f 4dbd 8809 54bb e673 d03c dcec dc3c
00000360: 6cde 633c a58b 85bb a303 833b af84 24bd
00000370: ca4a 58bd 4a0d 4abd b9e2 2bbd 6f20 c73b
00000380: 3de0 0b3d 0a19 c03c a2ab 2abd 61fa a03b
00000390: 2c64 153d a54e b0bb 8946 a0bc cc40 1dbd
000003a0: 3b8f 7fbc babd da3c 5d8d bbbc 9336 8bbc
000003b0: 4849 613c d5c3 fcbc 79da 0fbd 565f a0ba
000003c0: 6043 ec3c 6e96 1dbb 6bd9 1fbc ddf3 41bd
000003d0: 5842 c03c db3a 87bb 843b ebbc 8614 4bbd
000003e0: ddaa e6bc b148 1fbd 8304 9dbb 7dc6 ca3c
000003f0: 2048 acbc bbf8 9a3c 5ca5 a3bc 5aae 2cbd

conv3.bias f4 [32]
-0.015626121 -0.00564571 -0.038449433 -0.0011084 0.021066664 -0.03372574 0.002025188 -0.025537843
0.005964481 0.023652414 -0.02787397 -0.029609846 -0.006740242 -0.018566417 -0.022377605 0.017437236
-0.0017956356 0.03279046 -0.0086244345 -0.014001676 -0.013586476 0.0016486804 0.05330009 0.032865264
0.007397395 -0.012367639 0.0065522837 0.064018756 0.0053617703 0.0006503879 0.011711327 0.014873969
00000000: 5a02 80bc a6ff b8bb 277d 1dbd bc47 91ba
00000010: ff93 ac3c 0024 0abd 04b9 043b bd34 d1bc
00000020: b171 c33b b5c2 c13c f457 e4bc 5990 f2bc
00000030: 3fdd dcbb 9918 98bc 3d51 b7bc 89d8 8e3c
00000040: 885b ebba 4a4f 063d 804d 0dbc 4967 65bc
00000050: d099 5ebc 8918 d83a 3251 5a3d ba9d 063d
00000060: d965 f23b a3a1 4abc 8ab4 d63b 441c 833d
00000070: cab1 af3b cb7e 2a3a dee0 3f3c f3b1 733c

fc.weight f4 [32, 4608]
-0.006758139 0.006827082 -0.009398607 -0.007140254 -0.004358299 -0.004217455 0.013171796 -0.008505252
0.00916457 0.0062166094 0.021395547 0.015841065 0.0056370404 -0.01118771 0.017343527 -0.006408599
-0.0065216166 0.013880606 0.0013826065 -0.0024051277 0.0044613667 -0.004539066 0.004438341 -0.002734488
0.016339788 0.015019389 0.009215885 -0.010567113 0.0030501825 0.0043076663 -0.0017587078 0.0052957176
-0.0044537736 -0.0163578 -0.0141355675 -0.009826807 -0.0037861394 0.008674062 -0.005394073 -0.014447456
-0.0043624723 -0.0025960847 6.5886874e-05 -0.0014691622 -0.010516603 -0.00821245 -0.019606039 -0.004397844
0.008656791 -0.0015576578 -0.00043152453 0.010500194 0.0058027096 0.00953839 0.005183434 0.006230687
-0.0020187004 -0.016026443 0.0027869712 0.0026076736 -0.0028884881 0.0038001654 -0.012686032 0.002141773
0.01633294 -0.015491823 -0.0022275052 0.00565831 -0.013572964 -0.0046297745 -0.005571948 0.007009515
-0.013660592 -0.004137198 0.013605806 0.008775675 -0.0035647503 0.0062040626 -0.0084513 0.012672883
-0.012532206 0.01102473 -0.01286921 0.006064328 -0.0038624513 -0.018723091 -0.0052842353 -0.0049030324
0.008823929 -0.005278018 0.012474344 -0.010730492 -0.012063023 -0.010179739 0.006153567 0.0070614815
-0.017790433 -0.0067783934 -0.02532793 -0.009186094 0.005201003 -0.00654728 -0.0075021177 -0.0056121163
0.008299691 -0.006646357 -0.0027728106 -0.008296832 0.010814578 -0.004525518 0.016431306 0.016761804
-0.008229695 0.0064587914 -0.011714324 -0.0029910463 0.0010622944 -0.020662205 -0.0074196802 -0.008669225
0.0023953833 0.0014719011 0.0041981963 0.013487621 0.0076821093 0.0111188805 -0.0016219702 -0.01730557
-0.029169517 -0.008046958 -0.01753353 0.0018960714 0.005731149 0.0069410563 -0.011209278 0.012848664
-0.006870582 -0.0026437338 0.0070497096 -0.012854965 -0.027390484 -0.015788803 -0.0067536435 0.005945813
-0.0069883103 0.011233425 0.021554701 -0.023710003 -0.009483624 -0.006892866 0.005914995 -0.019826798
0.0060029863 0.009659565 0.0114688985 -0.0057031848 -0.019137785 -0.0020222527 0.00661947 -0.0016312563
-0.023297621 -0.0023974532 0.011144927 -0.00064064946 0.002423637 0.0062659406 0.015934775 0.00888003
-0.01191696 -0.0025682184 0.0052360417 -0.01477126 -0.015400663 0.002519398 -0.00806073 -0.014154464
-0.0137090245 -0.01606331 -0.010930239 -0.003102448 0.009525177 0.020410487 0.013305142 -0.0059223445
-0.013551635 -0.012948987 -0.009909558 0.0070657977 0.010253591 -0.0004324611 0.0026634769 0.0014028581
0.019807471 0.015663613 0.0033567045 0.002184048 -0.0019352032 -0.008901098 0.007050153 0.0022845257
0.007916862 0.01060928 0.01063729 0.017196545 0.014930048 -0.008384371 -0.009091543 0.0009168676
0.007877668 -0.015639577 0.0012583564 0.005037117 -0.0068481085 -0.00923169 -0.007741835 0.020814361
-0.008516878 -0.01556184 0.0074263583 -0.008034831 -0.01521336 0.008554254 -0.000705821 -0.0008745744
0.0062963213 -0.0028047552 -0.0032182718 -0.007321659 -0.0053737382 -0.015643325 -0.00076032325 -0.008190752
-0.007446257 -0.012229885 0.01312187 0.008343895 -0.00052583095 0.004394078 -0.010852583 -0.008273256
-0.007295321 0.0011717057 -0.019945506 -0.01389578 -0.015640685 0.010909015 0.0044171424 0.01101613
-0.012818543 -0.0064629745 -0.0043324293 -0.013792747 0.008364039 0.01085571 -0.01585359 -0.005786421
00000000: 6173 ddbb b7b5 df3b 9dfc 19bc cbf8 e9bb
00000010: 10d0 8ebb 9432 8abb 84ce 573c 9d59 0bbc
00000020: fe26 163c b3b4 cb3b b745 af3c 1fc5 813c
00000030: ecb6 b83b a84c 37bc 0314 8e3c 3aff d1bb
00000040: 49b3 d5bb 7b6b 633c 9338 b53a 599f 1dbb
00000050: a830 923b 72bc 94bb 816f 913b 1935 33bb
00000060: 05db 853c e213 763c 39fe 163c af21 2dbc
00000070: 92e5 473b 5327 8d3b 7184 e6ba b387 ad3b
00000080: f6f0 91bb cb00 86bc de98 67bc 9e00 21bc
00000090: e120 78bb a71d 0e3c c4c0 b0bb 06b5 6cbc
000000a0: 12f3 8ebb 1323 2abb bf2c 8a38 e790 c0ba
000000b0: d44d 2cbc 838d 06bc d89c a0bc ca1b 90bb
000000c0: 37d5 0d3c 532a ccba 3e3e e2b9 0109 2c3c
000000d0: a824 be3b e846 1c3c ccd9 a93b ca2a cc3b
000000e0: 2c4c 04bb e349 83bc 9ea5 363b 81e5 2a3b
000000f0: ca4c 3dbb 320c 793b 13d9 4fbc fd5c 0c3b
00000100: a8cc 853c 6ad1 7dbc 56fb 11bb 5869 b93b
00000110: 2361 5ebc 5db5 97bb e394 b6bb 13b0 e53b
00000120: add0 5fbc 5591 87bb e3ea 5e3c d9c7 0f3c
00000130: 969e 69bb 734b cb3b 5277 0abc eda1 4f3c
00000140: e253 4dbc 12a1 343c 61d9 52bc 45b7 c63b
00000150: 2e21 7dbb 2b61 99bc 6127 adbb 9ea9 a0bb
00000160: 3e92 103c 39f3 acbb 3161 4c3c f2ce 2fbc
00000170: fca3 45bc ecc8 26bc dda3 c93b 0064 e73b
00000180: 3ebd 91bc 491d debb 857c cfbc 4581 16bc
00000190: 2d6d aa3b 918a d6bb 53d4 f5bb d8e5 b7bb
000001a0: 6dfb 073c afc9 d9bb 0bb8 35bb 70ef 07bc
000001b0: a12f 313c cc4a 94bb f29a 863c 0d50 893c
000001c0: d8d5 06bc 45a4 d33b 70ed 3fbc 6e05 44bb
000001d0: af3c 8b3a c943 a9bc ca20 f3bb 5d09 0ebc
000001e0: ddfb 1c3b ceec c03a 0691 893b 2ffb 5c3c
000001f0: 34ba fb3b f72b 363c 4a98 d4ba 69c4 8dbc
00000200: e9f4 eebc 63d7 03bc 7aa2 8fbc 9985 f83a
00000210: 5dcc bb3b cd71 e33b 1fa7 37bc 3483 523c
00000220: 9e22 e1bb 7e42 2dbb 4001 e73b a29d 52bc
00000230: 0262 e0bc 8557 81bc ab4d ddbb 18d5 c23b
00000240: 32fe e4bb 660c 383c 7c93 b03c 7b3b c2bc
00000250: 3461 1bbc 8ddd e1bb 93d2 c13b cf6b a2bc
00000260: b3b4 c43b 2743 1e3c 0ce8 3b3c c8e1 babb
00000270: d8c6 9cbc c587 04bb 24e8 d83b e1cf d5ba
00000280: a7da bebc 971e 1dbb 3699 363c 42f1 27ba
00000290: e2d5 1e3b 8552 cd3b a589 823c 8c7d 113c
000002a0: 5a3f 43bc 8e4f 28bb 1a93 ab3b 2803 72bc
000002b0: 1053 7cbc 7c1c 253b 2711 04bc 20e8 67bc
000002c0: d19b 60bc 3497 83bc bf14 33bc 7152 4bbb
000002d0: 7d0f 1c3c e533 a73c cffd 593c 3a10 c2bb
000002e0: ad07 5ebc fd27 54bc b35b 22bc 3588 e73b
000002f0: aefe 273c f2bb e2b9 ba8d 2e3b 1be0 b73a
00000300: 4743 a23c fa50 803c 28fc 5b3b 3f22 0f3b
00000310: a5a6 fdba e9d5 11bc f804 e73b fbb7 153b
00000320: bab5 013c 8cd2 2d3c 0748 2e3c c5df 8c3c
00000330: 299d 743c 9a5e 09bc b2f4 14bc f159 703a
00000340: 5611 013c 921e 80bc 6fef a43a 660e a53b
00000350: 1966 e0bb 8440 17bc 38af fdbb e182 aa3c
00000360: 608a 0bbc 16f7 7ebc cf58 f33b 86a4 03bc
00000370: 7541 79bc 2427 0c3c d806 39ba b243 65ba
00000380: 5f51 ce3b fccf 37bb a4e9 52bb 87ea efbb
00000390: 2f16 b0bb 6e26 80bc 6e50 47ba 8132 06bc
000003a0: bbff f3bb db5f 48bc 1dfd 563c d5b4 083c
000003b0: ebd7 09ba 33fc 8f3b 08cf 31bc 8d8c 07bc
000003c0: 970d efbb eb93 993a c264 a3bc 20ab 63bc
000003d0: e520 80bc babb 323c adbd 903b 007d 343c
000003e0: de04 52bc 5cc7 d3bb 0df7 8dbb f9fa 61bc
000003f0: 5209 093c 26dc 313c 63df 81bc 049c bdbb

fc.bias f4 [32]
-0.0018550595 0.021261284 -0.01725211 -0.0020028288 0.0045075603 -0.0025344607 0.017497154 0.014895415
-0.0069567095 -0.013293235 0.022226252 0.012467411 -0.006157494 0.024045266 -0.0075407596 0.011367305
-0.021101378 -0.0006979895 0.005517769 0.01639039 0.015768835 -0.018605893 -0.0072850464 0.022892889
-0.008715299 0.0072840685 0.00296814 0.020481633 0.017596943 0.022676647 0.0026528062 0.016921295
00000000: 7825 f3ba 252c ae3c 4c54 8dbc e441 03bb
00000010: 28b4 933b 3219 26bb 3156 8f3c e60b 743c
00000020: 1cf5 e3bb decb 59bc d413 b63c 1d44 4c3c
00000030: cec4 c9bb 94fa c43c 7a18 f7bb ef3d 3a3c
00000040: ccdc acbc 48f9 36ba 67ce b43b 2445 863c
00000050: a52d 813c 636b 98bc 66b7 eebb de89 bb3c
00000060: 9dca 0ebc 32af ee3b 2085 423b 19c9 a73c
00000070: 7727 903c 60c4 b93c b4da 2d3b 879e 8a3c

translation.weight f4 [2, 32]
0.0035611796 0.0073296665 -0.028771698 0.0019751282 -0.0018629617 -0.0058297687 -0.01799746 0.0054069213
0.00204404 -0.0012703629 -0.024778942 0.008103561 0.0015604335 0.007513249 -0.021506814 0.0029470192
-0.0015648692 0.0050305934 -0.0020610152 0.0039538327 0.0046737795 0.0046734298 -0.0015092584 -0.03559634
-0.005496064 0.0029921134 0.0002548606 -0.024792885 0.0031045377 0.0069302255 0.0020352101 0.0029902863
0.012268387 0.008601173 -0.043547943 0.008058092 -0.003292815 0.0057433876 -0.011440766 0.012758047
0.008086887 -0.0012651408 -0.01681759 0.011288325 0.0102623245 0.0093485555 -0.021925354 0.0058416603
-0.0021528509 0.006478469 -0.0056947963 0.0076640625 0.0019388538 0.0047284933 -0.004183381 -0.02177025
-0.005534789 0.008006645 0.0005339789 -0.019339684 0.0027909402 0.0060364315 0.0037424872 0.0044558113
00000000: ae62 693b b32d f03b a0b2 ebbc 2771 013b
00000010: 9f2e f4ba a507 bfbb 696f 93bc 8b2c b13b
00000020: 4df5 053b 4e82 a6ba 35fd cabc ccc4 043c
00000030: 7687 cc3a b331 f63b 0f2f b0bc c722 413b
00000040: 4c1c cdba add7 a43b 1912 07bb 278f 813b
00000050: 8126 993b 9223 993b 4fd2 c5ba 78cd 11bd
00000060: 5418 b4bb 5517 443b d09e 8539 731a cbbc
00000070: 8075 4b3b f216 e33b 2961 053b aef8 433b
00000080: 5801 493c efeb 0c3c 545f 32bd 1606 043c
00000090: 45cc 57bb 0733 bc3b 0d72 3bbc 2107 513c
000000a0: dd7e 043c 15d3 a5ba 0bc5 89bc abf2 383c
000000b0: 4f23 283c af2a 193c cd9c b3bc 666b bf3b
000000c0: d816 0dbb 5649 d43b 6a9b babb d122 fb3b
000000d0: 2321 fe3a 7af1 9a3b be14 89bb 8657 b2bc
000000e0: 2d5d b5bb 4e2e 033c b8fa 0b3a 426e 9ebc
000000f0: 35e8 363b 42cd c53b 8444 753b 0e02 923b

translation.bias f4 [2]
0.007071618 0.006245827
00000000: 08b9 e73b cba9 cc3b

rotation.weight f4 [1, 32]
0.0003228014 0.015883414 -0.015879808 0.00043535721 0.0012393652 0.0047126743 -0.0072306106 0.0014246781
-0.000533763 -0.0012636051 -0.009623723 0.016966395 0.0051570437 0.013896833 -0.0046017063 0.008854183
0.00636816 0.01302511 -0.0016170241 0.012283179 0.0050400593 0.0046968646 0.0010296549 -0.013307837
-0.005475556 0.0064675533 -0.0036682922 -0.017127892 0.0067792754 0.014345007 -0.0019140368 0.0022425815
00000000: ac3d a939 ef1d 823c 5f16 82bc a840 e439
00000010: 3272 a23a c76c 9a3b c2ee ecbb 44bc ba3a
00000020: 3bec 0bba 8d9f a5ba d2ac 1dbc 1cfd 8a3c
00000030: 6bfc a83b 8baf 633c e9c9 96bb 2311 113c
00000040: ffab d03b 4567 553c 53f2 d3ba 633f 493c
00000050: 1527 a53b 28e8 993b 7cf5 863a 1d09 5abc
00000060: 4b6c b3bb c5ed d33b bb67 70bb cb4f 8cbc
00000070: af24 de3b 5207 6b3c 6be0 faba 46f8 123b

scaling.weight f4 [2, 32]
-0.017084515 -0.0047687804 -0.012923935 -0.0117029315 -0.000655818 -0.0058379467 -0.0043114815 -0.01829535
-0.00984447 0.009365703 0.0029124035 -0.011247719 -0.01841834 -0.008502989 0.002763989 -0.010222182
0.00019056584 -0.0080373315 0.0019514192 -0.0059612067 -0.007999166 0.004726195 0.0005808723 0.0015803416
-0.005430956 -0.013522851 -0.0061740526 0.0053278594 -0.0031194664 -0.004015133 -0.0049797976 -0.01028379
-0.0074508185 0.0008720488 0.028859982 -0.0003874134 0.00023715204 -0.0058420952 -0.016986083 -0.005666068
-0.0027125096 -0.0012623934 -0.01536241 -0.0013676153 0.0028472787 -0.0016071585 -0.010572053 -0.0010882663
0.00085625995 -0.0014642744 0.0027893456 -0.00033081506 -0.0008889763 -0.004743115 0.002608016 -0.017634617
0.005563627 -0.0028763409 0.0008549474 -0.019894991 0.0021025348 0.0042178733 0.004479117 0.004156292
00000000: d3f4 8bbc 6e43 9cbb eabe 53bc a7bd 3fbc
00000010: 33eb 2bba 3f4c bfbb 5447 8dbb 21e0 95bc
00000020: b34a 21bc 9b72 193c 06de 3e3b 5a48 38bc
00000030: 0fe2 96bc 1f50 0bbc 0a24 353b f07a 27bc
00000040: a1d2 4739 03af 03bc c3c6 ff3a 3a56 c3bb
00000050: ef0e 03bc 32de 9a3b ae45 183a 7723 cf3a
00000060: 29f6 b1bb f38e 5dbc b54f cabb 5395 ae3b
00000070: f66f 4cbb 6091 83bb 922d a3bb 577d 28bc
00000080: ff25 f4bb 349a 643a c56b ec3c bf1d cbb9
00000090: 04ac 7839 0c6f bfbb 6626 8bbc 6caa b9bb
000000a0: 5cc4 31bb e576 a5ba 9eb2 7bbc 8e41 b3ba
000000b0: 6999 3a3b 4aa7 d2ba 6736 2dbc 28a4 8eba
000000c0: a276 603a e5ec bfba 74cd 363b 3f71 adb9
000000d0: 310a 69ba 226c 9bbb 3feb 2a3b 7976 90bc
000000e0: 164f b63b fe80 3cbb 8c1e 603a d2fa a2bc
000000f0: aeca 093b 1636 8a3b 8fc5 923b 8131 883b

scaling.bias f4 [2]
-0.03822508 -0.051897123
00000000: e791 1cbd 1492 54bd

shearing.weight f4 [1, 32]
-0.025671687 0.03693782 0.031548694 -0.018325657 0.0074226144 0.005082376 -0.010676642 -0.026368145
-0.01836346 0.005324049 -0.016218754 0.026809217 -0.02503677 0.022706438 0.008086583 0.025956355
0.028013745 0.025788859 0.01521748 0.02494739 0.012073 0.005094958 0.012010115 -0.011200516
0.005516596 -0.0042402796 -0.015349839 -0.019075891 0.02572828 0.03958475 -0.009002553 -0.015149308
00000000: 6e4d d2bc 1d4c 173d 3439 013d b01f 96bc
00000010: 6739 f33b 0f8a a63b 15ed 2ebc 0202 d8bc
00000020: f86e 96bc 5c75 ae3b 31dd 84bc 019f db3c
00000030: ea19 cdbc da02 ba3c 967d 043c 6ca2 d43c
00000040: 157d e53c 2843 d33c bd52 793c 785e cc3c
00000050: d5cd 453c 9bf3 a63b 13c6 443c 5e82 37bc
00000060: 90c4 b43b 0bf2 8abb e47d 7bbc 0b45 9cbc
00000070: 1dc4 d23c 9e23 223d 727f 13bc ce34 78bc
