output/3030_e/train/model/itn.pt (torch_old, 23547 bytes, 23 tensors)

conv11.weight f4 [2, 1, 3, 3]
000000 55 f9 8b 3e a4 02 95 3e ca b7 8a bd 34 b4 a1 3e
       0.27338663 0.29103577 -0.06773336 0.31582797
000010 b8 be 8b bd 23 f9 8d 3d 25 85 0e be 71 48 5e 3e
       -0.06823486 0.06932285 -0.13917978 0.21707322
000020 8e 6a 9e 3e ec 24 65 be c9 62 85 3e 18 44 a2 3c
       0.3094067 -0.22377366 0.2605193 0.01980786
000030 0d 10 8c 3e 07 23 0a 3d a9 58 0d 3e 87 0c cf ba
       0.27355996 0.03372481 0.13803352 -0.001579658
000040 a0 b0 89 3e 53 7e 55 3d
       0.26892567 0.052122425

conv11.bias f4 [2]
000000 07 9c 17 bd 2d a5 22 3e
       -0.037014034 0.15883322

conv12.weight f4 [4, 2, 3, 3]
000000 4f 70 74 bc 65 f4 c7 3c d8 f1 a0 bd 0e 19 68 3e
       -0.014919355 0.024408529 -0.07858628 0.22665808
000010 80 0a 25 be 58 ef ef bd 15 07 13 bd d9 22 15 be
       -0.16117287 -0.11715573 -0.035895426 -0.14564075
000020 0e 6e ee 3b 1d 5f 2d be 55 32 80 3e 59 9b 57 be
       0.007276303 -0.16930814 0.250384 -0.21055354
000030 34 58 55 3e da 32 14 3d d5 69 f4 bd 75 08 18 3e
       0.20834428 0.03618131 -0.11934248 0.14846976
000040 05 4d 3d 3c c9 67 08 3e e2 0d 6b 3d 4a fd 75 bd
       0.011554007 0.13320841 0.057386287 -0.06005601
000050 25 2e 8f 3d 05 af 14 bd a0 f2 e0 3d f0 da 58 3e
       0.06991223 -0.036299724 0.10983777 0.21177268
000060 37 7d 2d 3e be d1 ad bd 52 1a 13 3e d4 e3 74 3d
       0.16942297 -0.08487271 0.14365509 0.059787586
000070 92 af f6 3d fe 64 11 be 1e 15 5e be 02 9a ba bd
       0.12045206 -0.14198682 -0.21687743 -0.09111406
000080 45 fe 37 be 2b b7 61 3e b5 d6 a3 3d 7e af df 3d
       -0.1796809 0.2204253 0.079999365 0.10922144
000090 4d c1 f2 3d fd 39 a1 3c 9c 8d 49 3e b0 6e 04 be
       0.118532754 0.019680971 0.19682926 -0.12932849
0000a0 3d 14 06 3d 96 e3 20 be dc 86 f2 3d 0c 84 5c bd
       0.032734144 -0.15711817 0.11842129 -0.053836867
0000b0 d3 ae ae 3d fd 6a ab bc b0 bf 4d 3e c7 85 0a be
       0.08529439 -0.02092504 0.20092654 -0.13527595
0000c0 05 58 e3 bd 0f 49 07 be 4b 10 5d 3e fd ab e8 3d
       -0.11100773 -0.13211463 0.21588247 0.11360929
0000d0 01 6d 78 3e 60 3e 39 be 1b ff 72 bd f7 ba 8a be
       0.24260332 -0.180902 -0.05932532 -0.27095768
0000e0 13 dd a0 be 3f c0 2a be 7b 47 98 3d 75 df 84 3e
       -0.31418666 -0.16674899 0.07435509 0.25951734
0000f0 f9 2c 98 be 99 fd 22 3d 64 4a 9a 3e d7 98 04 3e
       -0.2972181 0.03979263 0.3013488 0.12948929
000100 66 fc 9c 3e 27 64 80 be 81 23 94 3c 12 ed 90 be
       0.30661315 -0.2507641 0.018083336 -0.2830587
000110 02 46 4b be 48 f2 67 be 58 c1 09 3d 82 12 4c 3d
       -0.19850925 -0.22651017 0.033631653 0.049822338

conv12.bias f4 [4]
000000 b2 3b 79 3e 79 c9 ab 3e 8d 3d 29 bd 18 25 88 3e
       0.24339178 0.3355215 -0.041318465 0.265908

down1.weight f4 [8, 4, 2, 2]
000000 a7 58 ad 3e 03 12 3f 3e f9 03 50 3d 6e e0 3d bc
       0.338567 0.18659215 0.05078504 -0.011589153
000010 67 ee 34 be e6 eb 59 3d 46 3f aa bd 2b 2b 50 be
       -0.17669068 0.053203486 -0.0831285 -0.20328967
000020 86 e5 6d bc b4 65 30 be 66 f5 7e be d8 56 1e be
       -0.014520055 -0.17226297 -0.248983 -0.15462816
000030 e9 9e f5 be 1e 01 0f bf 3d 60 09 bd 18 86 8c be
       -0.479728 -0.5586108 -0.033539046 -0.27446055
000040 5a 9b 7c 3d bc 05 63 be 6d df e0 bd bb a5 09 bd
       0.061671592 -0.22170156 -0.10980115 -0.03360532
000050 a3 82 cb 3c 49 37 66 be 99 2b f7 bd 52 32 1b be
       0.024842566 -0.22482027 -0.120688625 -0.15155914
000060 e2 d7 0a bc 46 22 c0 bd a1 8e 03 bd a2 c2 33 be
       -0.008474322 -0.09381537 -0.032118443 -0.17554715
000070 25 43 b3 be 33 92 8f be c1 4e bd bd 32 ef 66 be
       -0.35012165 -0.2804123 -0.09243537 -0.22552183
000080 b7 68 2c 3e b6 00 ab 3d 75 51 a2 3e 88 ce 93 3e
       0.1683682 0.08349745 0.31702772 0.28868508
000090 54 33 84 be 13 ac 0b 3e 9a f1 07 be b8 5e 1a be
       -0.2582041 0.1363986 -0.13275757 -0.15075195
0000a0 b7 4a 70 be b9 48 8a be 00 e9 e8 3c 47 63 b8 bd
       -0.23466001 -0.27008608 0.028431416 -0.09003311
0000b0 18 4e 18 3f 94 fb 85 3e bc a7 11 3f 25 01 26 3e
       0.5949416 0.261685 0.5689657 0.16211374
0000c0 6f 86 96 3e 1f 43 05 3f 08 90 d4 3e 1e e8 23 3f
       0.2939944 0.52055544 0.41516137 0.6402606
0000d0 b8 92 81 3e dc fc 44 be 79 06 de 3d ae a9 b8 bd
       0.2530725 -0.19237083 0.10841078 -0.09016739
0000e0 57 38 76 bc 83 22 44 be 15 20 87 3e 9f f3 29 be
       -0.015028081 -0.1915379 0.26391664 -0.1659684
0000f0 6d 39 10 3f 26 ef 20 3f f5 bc f3 3e 6b eb ab 3e
       0.56337625 0.6286491 0.476051 0.33578047
000100 d8 aa 63 3e e8 40 04 3e 1b 7a 40 3e 3d c4 48 bd
       0.2223314 0.12915385 0.1879658 -0.049015272
000110 16 b0 64 3d e5 55 93 bd ef 13 1f be 12 e9 43 3e
       0.05583199 -0.071941175 -0.15534948 0.19131878
000120 33 ea fe 3b c6 f2 2d be ae 11 31 be 15 c6 2a bd
       0.0077793836 -0.16987142 -0.172919 -0.041692812
000130 0d 8a 51 3e e2 0a 54 bd 6f a6 01 bb b6 ff 3f be
       0.20462818 -0.05176819 -0.001978304 -0.1874989
000140 04 6d 91 3c 48 58 71 3e 31 86 cf 3d 53 c8 8d be
       0.017752178 0.23568833 0.10133017 -0.27691898
000150 46 90 3a 3e bf 41 37 3e a8 bb 7c 3e f2 b9 04 3d
       0.18219098 0.17896174 0.2468096 0.032403894
000160 a5 5d 4d 3e d8 63 04 3e a9 46 75 3e 40 78 fe 3c
       0.20055254 0.12928712 0.23952736 0.031063199
000170 6b 73 3b 3e 47 ca 5e 3e 87 3c 73 3d f9 fb c4 3d
       0.18305747 0.2175685 0.059383895 0.096183725
000180 47 25 8e 3e 2f 67 7d 3e 5f 20 41 be 42 66 81 be
       0.27762815 0.24746393 -0.18860005 -0.2527333
000190 21 e3 53 bc 8d e0 55 bd 4f cf bc 3d 85 1d 99 3d
       -0.01293257 -0.0522161 0.092192285 0.074763335
0001a0 02 e7 8e be 68 44 1f be 5c b9 66 3e 40 d0 ca 3d
       -0.2791062 -0.15553439 0.22531646 0.09903002
0001b0 72 1b b6 3e 44 b8 9b 3e c1 ab 3a 3e 4c 91 cd 3d
       0.35567814 0.3041402 0.18229581 0.10037479
0001c0 81 a9 9f be d0 57 8c bd f6 5b f7 3d e4 e3 ae 3d
       -0.3118401 -0.068526864 0.12078087 0.085395604
0001d0 4f e8 6d be 18 e4 13 be 30 29 66 bd 11 19 7b 3e
       -0.2323315 -0.1444248 -0.056191623 0.24521281
0001e0 a5 93 0b 3d d0 72 48 bd 47 7b c7 3d ab 07 aa bd
       0.03407635 -0.04893762 0.0974031 -0.08302244
0001f0 0b f6 a4 3e 05 ca 29 3f 63 e0 be 3e 46 36 9c 3e
       0.32218966 0.6632388 0.37280568 0.30510157

down1.bias f4 [8]
000000 27 ec d7 be e2 83 a4 3b d2 08 13 3c 0e 54 66 3e
       -0.42172357 0.0050206045 0.008974271 0.22493002
000010 bc 7a d9 be ac ca 5d be ff 0b 92 bd 52 49 e6 bb
       -0.4247645 -0.21659344 -0.07131194 -0.0070277834

conv21.weight f4 [8, 8, 3, 3]
000000 df 50 99 3c 46 d2 8c 3d 76 e7 13 3d 5b 50 3a 3c
       0.01871532 0.06876044 0.03610941 0.011371697
000010 36 b9 69 bc ab 3b cf bd 22 76 dd bd c2 13 e7 bd
       -0.014265349 -0.10118803 -0.10813548 -0.112830654
000020 29 12 30 3d 89 41 bf bd 6a 3e 58 bd 45 50 ba bd
       0.04298607 -0.09338672 -0.052793898 -0.090973414
000030 27 68 18 bd 95 87 c0 bd a8 48 b0 bd 3c 80 05 3d
       -0.037208702 -0.0940086 -0.08607608 0.032592997
000040 f7 9f 1d bd 2a 48 89 3d fb e7 a2 bd 12 4f f9 bd
       -0.038482632 0.06703217 -0.07954403 -0.121732846
000050 7a c8 50 bd 7f 68 9c bd 9a 81 4d bd ba 51 fd bd
       -0.05097244 -0.076371185 -0.050172426 -0.12369104
000060 69 7c 79 3d da a6 a6 bd bd 27 6c 3d 3c 02 36 3c
       0.060909662 -0.08137293 0.057655085 0.011108931
000070 51 92 6d 3c 53 a5 13 be 36 4b 5f 3d be 96 cb bd
       0.014500217 -0.14418535 0.054515086 -0.09940861
000080 7a c1 6d bc 68 e0 af 3d 77 26 98 bd 56 3f d8 bd
       -0.01451146 0.08587724 -0.074292116 -0.10558955
000090 53 2c 81 bd 66 19 02 be d1 44 0a 3d a7 7f 0a be
       -0.06307282 -0.12705001 0.033757035 -0.13525258
0000a0 60 ba 7a 3d 1a 29 a0 3d 4c 86 e9 3d b9 ee 82 bc
       0.061212897 0.078203395 0.11402568 -0.015982972
0000b0 15 39 af bd 0f bf 97 3d 68 ef da 3d 7c dc a4 bd
       -0.085558094 0.074094884 0.10690194 -0.080498666
0000c0 a7 d8 8a bb 98 63 56 bd 0b 86 d8 3b 96 cf 57 bd
       -0.0042372528 -0.052341074 0.006607776 -0.052688204
0000d0 94 32 3e bd 9e 40 05 bd d8 bb 02 be f8 cc 91 3d
       -0.046434954 -0.032532327 -0.12766969 0.07119173
0000e0 d1 5c b4 3d 7f 94 fc bc 15 df 1c bd 5c 08 71 bd
       0.08806766 -0.030832527 -0.038298685 -0.058845863
0000f0 1c 53 9c bd 55 a7 bc bd 7e 6c a0 3d cf 2d ee bd
       -0.07633039 -0.092116036 0.07833193 -0.11629831
000100 3f 02 f8 bd c1 3e 43 bd 9e 0b 80 bd fe 05 62 bd
       -0.121098034 -0.04766727 -0.06252216 -0.055181496
000110 90 ee da bb f8 a9 e7 bc c8 94 0f bd 9f d1 4c bd
       -0.006681271 -0.02827929 -0.035054 -0.050004598
000120 4a f1 b2 bd 13 3e 8c 3d e3 c5 ce bd a9 e6 3f 3d
       -0.087374285 0.06847777 -0.10096338 0.046850834
000130 68 ad 83 bd 02 92 16 bd 84 42 1f 3e ae 7f 6b 3d
       -0.06429559 -0.036760338 0.15552717 0.05749481
000140 6c 5d f5 bd 1d df 46 3d 90 3d 9e 3d a4 97 c7 bc
       -0.119807094 0.04855262 0.07726586 -0.0243643
000150 80 9d b9 3d f9 bf b7 3d b0 d3 83 bd 7a de 85 3d
       0.09063244 0.08972163 -0.064368606 0.06536575
000160 c1 47 a5 bd ba ac 24 bd ca 30 c8 3d 9e b5 fb 3c
       -0.080703266 -0.040203787 0.09774931 0.03072625
000170 8b 29 06 be cc 41 a5 bd ea fe da bd ad 00 2c be
       -0.13101785 -0.080691904 -0.10693152 -0.16797133
000180 a7 59 41 bd a0 ff ec bc 98 60 55 3d fa 03 fb bd
       -0.04720464 -0.028930485 0.052094072 -0.12256618
000190 5e 79 5c be f4 9c 9c be dc dc f8 bd 23 be 23 be
       -0.21530673 -0.30588496 -0.121515006 -0.159905
0001a0 ac f4 3f be 1b 99 85 be 69 0e e8 bd cd 67 b5 bd
       -0.18745679 -0.26093373 -0.113308735 -0.08857689
0001b0 e7 97 4e bc a7 d0 69 bd ba 7a e2 bd 92 1d e5 bd
       -0.0126094585 -0.057083752 -0.110585645 -0.11187281
0001c0 44 5f 01 be c5 31 e5 bd 62 2f f4 3d 68 4a a1 bd
       -0.12633997 -0.111911334 0.119231 -0.0787552
0001d0 20 43 e9 bd 25 bc 89 3c 92 7d 74 3d ec 5e f1 3d
       -0.11389756 0.016813347 0.059690066 0.11785683
0001e0 9b 73 a0 3d c7 f9 c1 3d 05 b6 83 bd 65 9d f7 bc
       0.0783455 0.09471469 -0.06431202 -0.030226419
0001f0 01 b5 9f 3d 50 05 97 3c 88 8d 7c bd 10 5e 19 3e
       0.07798196 0.01843515 -0.061658412 0.14977288
000200 da 78 b9 3b 6e 4e b5 bd d6 25 c7 bd 7e 80 b7 3c
       0.0056601586 -0.0885285 -0.097240135 0.022400137
000210 74 25 84 bc 8b b5 42 bb d9 20 45 3c 06 cc 93 bd
       -0.01613114 -0.0029710259 0.012031757 -0.07216649
000220 b3 22 04 be 4f c0 27 bd c8 6b f4 3d 8b 75 30 3d
       -0.12903862 -0.040954884 0.1193462 0.043080848
000230 03 93 f7 bd ad ba 6c 3c 9b 2f cc bd 0a 53 c0 bd
       -0.12088587 0.014448804 -0.099700175 -0.093908384
000240 d0 19 e5 3c 56 34 19 3d e1 16 88 3d 84 b5 da bd
       0.02796641 0.037403427 0.06644989 -0.106791526
000250 64 2d 10 3d 35 c6 f6 bd f0 53 17 3e 95 83 fc 3d
       0.035199538 -0.12049524 0.14778113 0.12329785
000260 a6 0c a5 3c cb 6a da 3d d3 fd 01 be eb 10 9f bd
       0.020147633 0.106649004 -0.12694483 -0.07766899
000270 6f 80 7c 3d 60 16 88 bd c8 15 71 bd 39 25 16 3d
       0.06164592 -0.06644893 -0.058858663 0.036656592
000280 3b 8a d3 3d 0a a5 9d 3d d9 b4 45 3d f6 69 c4 bd
       0.103291 0.07697494 0.048268173 -0.09590523
000290 c8 f0 00 be 63 bb 57 3c 7f be 75 bc 3e e1 c3 bd
       -0.12591851 0.013167235 -0.014999031 -0.09564446
0002a0 bf c0 69 3d 47 45 b3 3d 3a f9 8e 3c e8 76 44 be
       0.057068583 0.08753448 0.017452825 -0.19185984
0002b0 53 c1 31 3d 55 67 77 be 87 b1 9f be c8 21 98 3d
       0.04339726 -0.24160512 -0.3119013 0.07428318
0002c0 ab f3 e9 3a ae 59 d4 be 46 9b c8 bd 02 0a 0d bd
       0.0017849108 -0.4147467 -0.09795241 -0.034433372
0002d0 b2 50 12 3e 5e f7 fe 3c 9a 95 94 3d e4 d3 05 bd
       0.14288595 0.031123813 0.07255097 -0.032672778
0002e0 cd 4d 87 bd 4d 5f a1 3c ea 67 0f 3c 23 e3 3f bd
       -0.06606636 0.019698763 0.008752802 -0.046847474
0002f0 71 0f a1 3c bf fe 59 bd 20 49 52 bd 00 f1 dc 3d
       0.019660683 -0.05322146 -0.05133927 0.107881546
000300 35 d5 ba 3d af 50 9b 3d fd cd d3 3c 62 77 5b be
       0.09122697 0.075837485 0.025855059 -0.2143226
000310 8e 2b 4e bd 68 6b bd 3c 66 3c 89 3d 52 a1 8c bc
       -0.050334506 0.023122504 0.06700973 -0.017166767
000320 bb 59 89 bc 51 cf 7b 3d 72 e7 9d bd fd c9 e3 3d
       -0.01676642 0.06147701 -0.0771016 0.111225106
000330 d1 03 9b be de e3 2e be 04 e9 ef bd 45 51 db 3c
       -0.3027635 -0.17079112 -0.11714366 0.02677215
000340 f4 2b 89 bd 0f 85 53 3d 14 14 08 3c 38 a1 4a 3d
       -0.066978365 0.051640566 0.008305568 0.049470156
000350 59 32 a0 3d 7e ad d8 bb 1d b5 de bd c7 e9 95 3d
       0.07822103 -0.0066124788 -0.10874388 0.0731998
000360 65 ef de 3d 80 02 de bd 92 a5 d6 bb 74 0d dc bd
       0.10885505 -0.108403206 -0.0065504992 -0.107447535
000370 34 ee c7 bd b7 d1 32 3b 95 2d 86 3d a6 aa af 3c
       -0.097622305 0.0027285644 0.06551663 0.021443676
000380 53 ef a2 bd 3d a8 02 3e 39 18 55 bc 62 6d a8 bd
       -0.07955804 0.1275949 -0.013006263 -0.08223988
000390 93 5e 97 bc cc c0 8f 3c 52 45 35 3c 35 bf 8e bd
       -0.018477714 0.017547987 0.0110638905 -0.069700636
0003a0 40 8a 04 3d e2 8a dd bd f0 60 9d bb a4 fa c3 3d
       0.032358408 -0.108175054 -0.0048028156 0.0956929
0003b0 ec 94 38 3e f9 e5 93 3e c5 69 3d 3e 91 32 6a 3d
       0.18025559 0.28886393 0.18497379 0.05717713
0003c0 fe 80 84 3e 4f 73 d4 3c e9 30 cb bd 50 9d 7e 3e
       0.25879663 0.02593389 -0.09921438 0.24864697
0003d0 ef 65 89 3e ce e3 9d bb 94 d7 00 3e d8 9b 5e 3d
       0.26835582 -0.004818416 0.12582237 0.054347843
0003e0 7e 8a cc bd 57 cd b0 3d 8c 21 27 be 4e 83 47 be
       -0.09987353 0.086329155 -0.16321391 -0.19483683
0003f0 44 dd d2 bd 74 f0 72 bd 1d 89 cb 3d 32 3d cb 3b
       -0.10296109 -0.059311345 0.09938262 0.0062023634

conv21.bias f4 [8]
000000 60 78 a0 3e 0b 15 da bd 82 0e bd bd dd a0 1c 3e
       0.3134184 -0.10648545 -0.09231283 0.1529574
000010 42 16 96 bd 7d 97 70 3e b9 cf 13 3c 5b 66 73 3e
       -0.07328464 0.23495288 0.009021693 0.23769514

down2.weight f4 [16, 8, 2, 2]
000000 17 3c 9c 3d 70 6b e7 3d e6 50 7f bd f7 87 e1 3d
       0.07628649 0.11299789 -0.06233301 0.11012261
000010 45 33 ce 3d 30 ba fb 3d 48 77 8e bd 2a 88 e8 bd
       0.10068373 0.12291372 -0.06956345 -0.11354096
000020 87 7d 71 be 79 eb 25 be 7e 8c 8d 3e a1 5d 65 bd
       -0.23583041 -0.16203107 0.2764625 -0.055997495
000030 83 f9 d7 be d6 13 e7 be 20 6f 9a be f3 bc c2 be
       -0.4218255 -0.4513232 -0.30162907 -0.38034782
000040 3b cb e4 bc 74 1e 7c be 21 ba 6e 3e e0 5e 03 3e
       -0.02792894 -0.24620992 0.2331319 0.1282916
000050 7e d2 10 be c3 3f 20 bd 2c e5 51 3c 64 d7 02 be
       -0.14142796 -0.039123308 0.0128109865 -0.12777478
000060 6c 7f e5 3c 99 af 3f be 20 15 24 be 84 3f 3f be
       0.028014861 -0.18719329 -0.16023684 -0.18676573
000070 b3 0b c0 bd 91 e4 e3 bd 52 68 92 bd 8d 00 fd bd
       -0.093772314 -0.1112758 -0.07148804 -0.12353621
000080 16 ac bc 3d 4f 18 2f 3e 20 e8 77 3d df 09 8f bd
       0.0921251 0.17099117 0.060524106 -0.06984305
000090 0a 95 36 be 1a 85 f6 3d d7 a8 fe bd 51 5b 00 3e
       -0.17830291 0.12037106 -0.124345474 0.12534834
0000a0 77 35 eb 3e 87 ea cf 3e 8b 77 01 3e 55 10 93 3e
       0.45939228 0.40608618 0.12643258 0.28723398
0000b0 19 1a 14 3f 28 9d bc 3e 15 86 31 3f 17 f4 e7 3e
       0.5785232 0.3683865 0.6934522 0.45303413
0000c0 94 b6 ae bd a4 6a 9b 3e 90 d1 fe bd 4c 90 94 3d
       -0.08530918 0.30354798 -0.124423146 0.07254085
0000d0 29 16 c9 3c fe a5 03 be dc ff 19 bc 48 ef 3f 3e
       0.0245467 -0.1285629 -0.009399381 0.18743622
0000e0 82 b9 4f 3d db 11 84 3c 26 01 e7 bc 1b 11 72 bd
       0.050714023 0.016121795 -0.02819879 -0.059098344
0000f0 61 c8 0f 3e 33 15 6a 3d 72 59 34 3e 0b 31 bc 3c
       0.14041282 0.057149123 0.17612246 0.022972604
000100 3f 85 f1 3d 39 70 d4 3d a7 15 47 3d 72 e7 fe 3d
       0.11792993 0.10372967 0.048604634 0.124464884
000110 ae 24 c5 3d 46 2e 2c 3e f3 e7 c7 3d d5 2c 68 bd
       0.09626137 0.16814527 0.09761038 -0.05668338
000120 44 d9 9b 3d 5e a9 88 3e 77 5d 21 be 26 6a 30 bd
       0.076097995 0.26691717 -0.1575831 -0.04306998
000130 05 be 3c 3e 74 f4 fd 3d 9b 41 92 3e 3d 95 29 3e
       0.18431862 0.12400141 0.28565678 0.16560836
000140 76 4e 87 be 84 5a 07 bd aa 87 f1 be 8b e1 6d be
       -0.26427048 -0.033045307 -0.47173816 -0.23230569
000150 15 4c 47 3e 80 ee f7 3d 16 8f 3b 3e 12 d8 b5 3c
       0.19462617 0.12106037 0.18316302 0.022197757
000160 da b1 82 3d ff da 9f 3d 16 2c 0d be c7 4d 08 3d
       0.06381579 0.07805442 -0.13786349 0.0332773
000170 a9 39 4e 3d 6f b1 54 bd 54 e5 8a bd 58 7f 51 3e
       0.050347958 -0.051927026 -0.06782022 0.20458734
000180 c0 a7 1e 3e bf f0 c0 3d 14 0f 43 3e 18 3c 4d bd
       0.15493679 0.09420919 0.1904872 -0.050106138
000190 4f 39 08 3d 4e a5 52 3d 46 3e 77 3d 06 d7 e4 bc
       0.03325778 0.051427178 0.060362123 -0.027934562
0001a0 e7 54 92 be 76 16 44 be 3c 41 72 3e 29 a2 35 3d
       -0.285804 -0.19149193 0.23657697 0.0443441
0001b0 3e 20 7f bc b6 46 98 be 0d 38 83 be 42 bf 43 be
       -0.015571652 -0.29741448 -0.256287 -0.19115928
0001c0 1e d9 5d 3e 2c c7 0e be a7 0b 40 3f 5d b9 57 3d
       0.21664855 -0.13943166 0.7501778 0.05266701
0001d0 ae bf f9 bd 33 dc d9 bd 7e f9 2f bd 1a b9 ba bd
       -0.12194763 -0.10637703 -0.042962544 -0.091173366
0001e0 c4 60 99 bd 94 55 d3 3d b6 6a cc 3c db 09 2b bd
       -0.0748916 0.10319057 0.024953227 -0.041757446
0001f0 ef e7 27 be 31 26 cb bd a9 f0 14 be 2f 1c ee bd
       -0.1639707 -0.09919394 -0.1454493 -0.11626469
000200 14 a7 59 be 80 e3 1d bd 7a 0e fc bd a9 3c 30 be
       -0.21255141 -0.03854704 -0.12307449 -0.1721064
000210 69 42 95 be c8 39 63 bd 94 78 63 be e4 ae 3a be
       -0.2915223 -0.055475026 -0.22213966 -0.18230778
000220 3c 75 80 bd c4 d7 a7 3d 96 4f c9 be 50 1c b7 be
       -0.06272361 0.08195451 -0.39318532 -0.35763788
000230 76 55 4a 3e 08 52 08 3e 63 4f b4 3e 64 fa ec 3d
       0.19759163 0.13312542 0.35216817 0.11571196
000240 e9 0d 03 bf 60 42 02 be f7 1c 34 bf 13 ce a0 be
       -0.511931 -0.12720633 -0.70356697 -0.31407222
000250 56 88 d9 bd 07 92 ab 3d 77 50 39 3d 5e 3d 8d bd
       -0.10621707 0.08377462 0.045242753 -0.068964705
000260 ed 69 fe 3c cf 19 03 be c8 67 16 3e fb a6 28 3d
       0.031056369 -0.12802814 0.14688027 0.04117487
000270 a9 46 12 3d 36 c8 3e be 9b 7c 64 3e e8 63 8d bd
       0.035711918 -0.18631062 0.22313158 -0.06903821
000280 67 f3 6e bd 56 52 c8 3d e7 dd 2b 3e ba 42 3e 3e
       -0.058337595 0.09781329 0.16783868 0.18580142
000290 f4 30 7b bb 91 06 e0 bd c9 cf 5d 3d 20 94 11 3e
       -0.003832874 -0.109387524 0.054153237 0.14216661
0002a0 6d 4a 6e be 69 d9 79 bc a6 7a 12 bf 04 bb 84 be
       -0.23270579 -0.0152495885 -0.57218397 -0.25923932
0002b0 af c5 15 3f e7 24 ad 3e 32 9c c2 3e 61 b3 c0 3e
       0.58504766 0.33817217 0.38009793 0.37636855
0002c0 f8 35 b2 be 11 8d 4f be c9 26 c7 be fc 59 bb be
       -0.348068 -0.20268656 -0.38896778 -0.3659209
0002d0 b5 67 8c bc 07 57 00 bc ef af a6 3c 05 54 1e be
       -0.017139295 -0.007833249 0.020347564 -0.15461738
0002e0 0f 44 d4 3d a9 e3 bc bd fc 2a a6 bc fa e8 99 3d
       0.10364544 -0.0922311 -0.020284168 0.0751514
0002f0 1b c3 2d bd 28 60 8a bd ff 05 a1 3d 7a b0 b5 3c
       -0.042422395 -0.067566216 0.07862472 0.022178877
000300 23 96 f0 bd 8f d8 ac bd 2a a2 03 3d 5d ad 1c be
       -0.11747386 -0.08439743 0.032137074 -0.15300508
000310 50 72 d7 bd 54 9a 11 bd 96 05 86 3d 16 39 c3 3d
       -0.1051985 -0.03554757 0.06544034 0.09532373
000320 9e 43 cb be 35 9d 3a be 4c c3 25 3e 16 8c 8b 3c
       -0.39700025 -0.18224032 0.16187781 0.017034572
000330 8a 8f e0 bd 5c cf 0a bd 67 04 d9 bd 64 55 6c be
       -0.10964878 -0.03388916 -0.10596543 -0.23079449
000340 1d 7d 6b 3e 29 ec 94 bd 05 e8 e4 3e 35 89 0b ba
       0.22996946 -0.072716065 0.44708267 -0.00053228746
000350 91 03 61 bc f5 88 14 be f4 13 8b 3d 37 2f c8 bd
       -0.01373376 -0.1450537 0.06790915 -0.097746305
000360 d2 1c a2 bd a8 b8 34 be 8c ca c0 bc dc da 21 3e
       -0.07915653 -0.17648566 -0.023534082 0.15806144
000370 ce 66 c3 3c 96 51 15 be b6 ce a2 bd ed 9b 96 bd
       0.023852732 -0.14581904 -0.07949583 -0.07353959
000380 a9 6d 03 be 58 9c 19 3e 23 55 18 3c e0 1b 33 3d
       -0.12834801 0.15001047 0.009297642 0.043727756
000390 ea bc e6 bd 1b 00 9c bd ca 01 ce bc ee 00 85 3d
       -0.11266501 -0.076172076 -0.025147337 0.06494318
0003a0 b5 24 04 3e ae 9d cb 3c 26 ff 84 bd ce 7e ec bd
       0.12904628 0.024855461 -0.06493978 -0.115476236
0003b0 81 1a 99 3e d6 ca 64 3e 44 5c 12 3f a4 cb b2 3e
       0.29903033 0.22343001 0.57172036 0.3492099
0003c0 79 a9 91 be 47 bf 6a bd e2 32 fa be b5 69 9a be
       -0.2844961 -0.057311323 -0.48866946 -0.30158773
0003d0 d6 41 fc bd 5f 3e 02 3e 07 18 2d 3e 88 91 47 3e
       -0.12317245 0.12719105 0.16903697 0.1948911
0003e0 40 74 fc bd e7 e4 b4 3d e0 42 b4 bd d8 e1 e9 3d
       -0.123268604 0.08832722 -0.08801818 0.114200294
0003f0 fe a2 1e 3e f6 56 2a 3e 59 85 37 3e e3 1e 1e 3e
       0.15491864 0.16634735 0.17921962 0.1544147

down2.bias f4 [16]
000000 41 09 d0 be c2 ea 8a 3e c5 08 a9 3d a4 85 64 be
       -0.4063206 0.2713223 0.08253626 -0.22316605
000010 35 9e 3b 3c 51 d4 a3 3e 3e cc c1 be a8 04 aa 3e
       0.011451294 0.31997922 -0.37851137 0.33206677
000020 51 2e 9a 3e a6 33 60 3e a9 5e 48 3e d5 a6 9b be
       0.30113462 0.21894702 0.1956736 -0.3040072
000030 71 24 87 be 81 d3 12 3e 1a 46 78 3e 68 51 3d be
       -0.2639499 0.14338495 0.24245492 -0.18488085

conv31.weight f4 [16, 16, 3, 3]
000000 c0 84 cb bb 0b d5 3a bd 86 0c f0 bc 72 45 17 3d
       -0.0062108934 -0.04561333 -0.029302847 0.036931463
000010 9d ea 48 bd 64 5a 49 3c 20 e9 28 bd 52 a4 2d bd
       -0.04905187 0.012289617 -0.04123795 -0.042393036
000020 d8 ba 7c 38 be 0b 34 3d 93 71 a4 3d c5 2d 0e 3c
       6.0255494e-05 0.04395651 0.08029475 0.0086779045
000030 ad 0f 2b bd 83 21 39 3d 94 3e c4 bb ab 2c be 3c
       -0.041762996 0.045197975 -0.005988905 0.023214659
000040 eb 4f 39 bd 94 e2 f9 3c 4f 9c fd bc 13 cf 52 3d
       -0.04524223 0.030503549 -0.030958323 0.051467013
000050 e6 ca 7a 3d ec 8a 81 bd 6d ba 86 bd 7e b2 94 bd
       0.061228655 -0.06325325 -0.06578527 -0.07260607
000060 17 6d d1 3d 53 dd 94 3d f6 a5 ad 3c 0f 9e 6a 3d
       0.10225885 0.07268777 0.0211973 0.057279643
000070 c5 bf 0f bd fe 85 95 bd 03 66 df 3c 64 bb 20 3d
       -0.035094995 -0.073009476 0.027270323 0.03924121
000080 97 c7 d1 3d d1 aa 9d bd d3 d1 54 3d 74 05 d4 3c
       0.10243147 -0.07698596 0.051957916 0.025881507
000090 74 31 fc 3d 9b 0c d4 bd 48 dd 65 bc aa 52 72 3d
       0.1231412 -0.10353967 -0.014029808 0.059160866
0000a0 44 21 ed 3d ad 3f 40 bd bc 9a ec 3d 08 c7 a8 3d
       0.115786105 -0.046935726 0.11552951 0.08241087
0000b0 a2 5e 66 bd 35 8e 4b bd f1 2c 12 bd 9d 8b 68 bc
       -0.056242593 -0.049696166 -0.03568739 -0.014193443
0000c0 e4 96 88 3d cc 15 37 bd ea f1 a6 3c a6 2c ad 3d
       0.06669405 -0.04469852 0.020379025 0.08455782
0000d0 91 b4 2d 3c 47 62 21 3d 16 ad ce bd 33 d5 ca bd
       0.010602132 0.039400365 -0.10091607 -0.09903946
0000e0 ca 3e 3c bd 62 c5 b2 bd 3f b8 f3 bc 29 cd a1 3c
       -0.045958318 -0.08729054 -0.029750941 0.019751148
0000f0 c8 9c be bd 85 9f 0c bd 07 98 a7 bc d0 06 8e 3c
       -0.093072474 -0.034331817 -0.020458234 0.017337233
000100 6c 80 2f bd 0c cd 00 bb cc 90 da bb 1e 44 d9 3b
       -0.042847082 -0.0019653467 -0.006670093 0.0066304347
000110 d5 ff 60 bc 91 83 32 3c 6e 8d 06 bc 92 a5 19 3d
       -0.01373287 0.010895626 -0.00821243 0.037511416
000120 de f2 f4 bc 24 63 2b 3b 4e 56 dd bc 22 80 1c 3d
       -0.029900964 0.0026151622 -0.027018692 0.038208134
000130 5b 80 eb 3b 79 1e 25 3d 77 47 83 3d 2c 95 2f bd
       0.007186932 0.040312264 0.06410115 -0.04286687
000140 24 1d 9c 3d 3e 25 94 bc 1c bd 02 3b 97 a5 09 bd
       0.07622746 -0.018084165 0.0019949144 -0.033605184
000150 4c b6 81 bc 9d 05 2b bd a9 23 45 3d c3 41 0a 3e
       -0.015833996 -0.0417534 0.04812971 0.13501649
000160 2b e4 19 3d af 18 ba 3d 94 62 49 bd 3a 70 39 3d
       0.037571114 0.09086739 -0.049166277 0.045273043
000170 4d 78 3d 3d 6a c2 77 3d 01 f7 06 bd 03 65 60 3c
       0.046257306 0.060488142 -0.032950405 0.013695958
000180 04 82 f0 3c 40 ed 94 bc 61 81 87 bd f2 c1 c3 bd
       0.029358871 -0.018179536 -0.06616474 -0.095584765
000190 26 de 98 bd c8 0e 8b bc 1c e8 a2 3c ba fa 5d 3d
       -0.074642465 -0.016974822 0.019886069 0.05419419
0001a0 43 2a 5b bc 9e 55 df bd b8 37 9b 3a 8f e4 48 bd
       -0.013376775 -0.10905002 0.0011842167 -0.049046095
0001b0 79 e6 d3 bd d3 4f 91 bd 65 52 db bd 8d c9 1c be
       -0.103466935 -0.070953034 -0.10709075 -0.1531126
0001c0 4f 8b 34 bd 2b 07 c5 3c fa fd 69 bd b4 1e 3e bc
       -0.044078168 0.02405127 -0.057126977 -0.011604
0001d0 92 8a 27 3d d4 4c a1 3d f0 ae bb 3c 2e c6 9f bc
       0.040903635 0.07875982 0.022910565 -0.01950368
0001e0 10 a1 ba bc 52 52 66 bd 25 5d 4f 3d d8 41 2f 3d
       -0.022781879 -0.05623085 0.05062594 0.042787403
0001f0 5b bf 8d 3d 34 f0 bb 3d 15 61 5c 3d 04 45 13 3d
       0.06921264 0.091766745 0.053803522 0.03595449
000200 74 fa 04 bc 58 8b a2 3d e2 e0 a7 bd 74 3c 9d 3b
       -0.008116353 0.07936734 -0.0819719 0.0047984663
000210 cb 76 58 3d f9 9d 55 3d 57 d6 15 3c 71 af b2 bd
       0.052847665 0.052152608 0.009145341 -0.08724869
000220 38 ce 36 bd a1 49 f3 3c b7 65 a9 bd bf 6a 49 bd
       -0.04463026 0.029698195 -0.08271354 -0.049174067
000230 a9 a4 28 3c 83 64 af bd e4 8c 2a 3d f9 64 ac 3d
       0.010293164 -0.08564093 0.04163827 0.084176965
000240 b7 cf a3 bc 46 5e c2 3d 5a bd ff bb 5d 00 47 bd
       -0.019996507 0.094906375 -0.007804555 -0.04858433
000250 fd 50 83 bc ea b7 2b bd ca 16 08 be 42 85 f2 bd
       -0.01602983 -0.04192344 -0.13289943 -0.11841823
000260 c8 e4 0d be f5 72 8b 3d 74 16 76 3d a3 4c 68 3d
       -0.13856804 0.06809036 0.060080007 0.05671371
000270 2b 24 ef 3d f2 ee 38 3b 02 3b 58 bb 9f 34 35 3d
       0.1167682 0.0028218594 -0.0032994156 0.044239637
000280 84 4e a4 3d 94 97 4b bd f5 d0 9b 3d f5 76 7b 3c
       0.08022788 -0.049705103 0.07608215 0.015348186
000290 f1 99 dd 3b dd 0d 43 3d 5a 69 60 bd ad ac 6f 3d
       0.006762736 0.047620643 -0.05478797 0.058514286
0002a0 2a 5b c3 3d a2 a3 a7 3d 27 69 6b 3d 14 a2 52 3d
       0.095388725 0.08185507 0.057473328 0.0514241
0002b0 18 fa ae 3d b6 4d a6 3d 4b 60 85 3d 06 d5 82 3c
       0.08543795 0.08120291 0.06512507 0.015970718
0002c0 f9 c1 ba 3d 2e 04 b4 bd 66 c5 ab 3c 78 64 2a 3d
       0.091190286 -0.0878986 0.02096815 0.04159972
0002d0 65 8d 04 3d 22 67 0d be 9f 7b c7 bd 30 d4 b6 3d
       0.032361407 -0.13808873 -0.09740376 0.0892719
0002e0 b3 a5 89 bd a6 7b f5 bd 88 9f 4e 3e 39 ee 0d bc
       -0.06721058 -0.11986475 0.20178044 -0.008662754
0002f0 b1 ce 29 be 00 42 54 3c 7b 27 10 bb a5 83 17 bd
       -0.16582753 0.012955189 -0.0021996188 -0.03699078
000300 ec 7c b8 3c 9a 66 0e bd 48 32 bd bc 7f d9 c2 3d
       0.022520505 -0.034765817 -0.023095265 0.0951414
000310 bc f7 ca 3c aa 6f 3b 3e 90 85 8d bb 44 a4 a7 3d
       0.024776332 0.18304315 -0.0043189004 0.08185628
000320 42 a5 30 3d ec 74 46 bb 7c 41 54 3d 0b 66 0b 3d
       0.043126352 -0.0030282093 0.051820263 0.034032863
000330 fd 09 07 be d3 99 8e bd b3 9d 57 bd bd b7 62 3c
       -0.13187404 -0.069629334 -0.052640628 0.013837752
000340 4d 9b 4a 3b da a4 6d bb fd 44 98 3d 8e cf d3 bb
       0.003091532 -0.003626159 0.074350335 -0.0064639514
000350 14 c6 2e bd 0d 1e 83 3c 68 42 89 bc df 12 8a 3c
       -0.04266937 0.01600554 -0.016755298 0.016854702
000360 aa 7a f7 3c e8 06 59 3c b2 2b 27 3d bb 30 d2 bc
       0.030209858 0.0132462755 0.040813155 -0.025658002
000370 4b 13 0f bd d3 08 1c bd fc 45 c8 3d 53 ee 90 3d
       -0.03493051 -0.038094353 0.097789735 0.07076707
000380 47 73 97 3d 79 bc fb 3c 14 4e 02 bc c3 91 28 3c
       0.07395034 0.03072952 -0.007953186 0.010288659
000390 1b 3b d1 39 8d 5b 99 bd 98 5c 95 b9 d7 36 e0 3d
       0.00039907623 -0.07488165 -0.00028488482 0.1094796
0003a0 ab f7 03 bc 9a 26 a1 3d 85 4e c6 bb cb de a3 bc
       -0.008054654 0.07868691 -0.0060518407 -0.020003697
0003b0 f5 1c 74 bd e9 4e d5 bc f8 74 02 be 16 9d 0a bd
       -0.059597928 -0.026038604 -0.12739933 -0.033841215
0003c0 80 95 c6 3d 15 51 2f bc c5 c7 fc bc 99 0d 38 bd
       0.096964836 -0.010700484 -0.030856976 -0.044934843
0003d0 cb a3 32 bc 91 a2 35 3d ea 51 bb bd 82 8d f1 3c
       -0.010903309 0.04434449 -0.09146483 0.029486421
0003e0 26 c8 56 3c 07 7d 45 be eb a1 07 bd 20 ae 00 be
       0.013109243 -0.19285975 -0.0331134 -0.12566423
0003f0 14 de 7f bd c6 7e 52 bc b8 0a d4 3c 2e 5e e1 3c
       -0.06246765 -0.012847608 0.025884017 0.027510729

conv31.bias f4 [16]
000000 63 1f a5 3e b4 e4 83 3e 37 0d 99 3e 32 98 97 3e
       0.3225051 0.25760424 0.29892895 0.29608303
000010 0d af ad 3e cb 0a 68 3e 1f 73 be 3e 8b 9b 83 bd
       0.33922616 0.22660367 0.37197205 -0.06426152
000020 f2 86 23 be 10 33 47 3e e4 c1 a3 3e d0 17 08 3e
       -0.15969446 0.19453073 0.31983864 0.13290334
000030 95 bc e5 3c ef 79 7c 3e a3 c7 2c 3e d8 52 4a 3e
       0.028044024 0.24655889 0.1687303 0.19758165

up2.weight f4 [16, 8, 2, 2]
000000 48 33 24 be 9c 23 c2 bb b4 10 32 3c 19 70 b8 bc
       -0.16035187 -0.005924655 0.01086824 -0.02251439
000010 f7 6c b4 3d 39 70 36 3d d9 77 24 be 68 46 4f be
       0.08809846 0.044540618 -0.16061343 -0.20241702
000020 7d a4 ec 3d e6 e4 9d bd c4 6f 5a 3d 6e 76 89 bd
       0.11554811 -0.077096745 0.053329244 -0.06712042
000030 9a f2 b6 3c 09 b0 ff bd 84 cd 08 bc c8 4c ab bd
       0.022332478 -0.12484748 -0.00834978 -0.08364254
000040 bb e9 ab bd 19 6d 38 be 3a b5 6a 3d 90 27 a2 3d
       -0.0839419 -0.18010367 0.057301737 0.07917702
000050 e5 72 79 bc bb f6 b7 bc 6d 72 28 3e 1d 95 25 3e
       -0.015225147 -0.022456517 0.164499 0.16170163
000060 13 e5 66 bd 2c 56 24 be c1 b1 17 3d f8 d7 d2 3c
       -0.056370806 -0.16048497 0.037034754 0.025737748
000070 d5 2b 24 be c5 ed 09 be b8 b1 e2 3c 62 62 22 3e
       -0.16032346 -0.13469608 0.027672634 0.15857843
000080 c0 5a 42 be 53 a3 d9 bd 07 d1 9e bc 20 7f f7 bd
       -0.18979931 -0.10626855 -0.019386781 -0.12084794
000090 5b 7b 58 be a0 be 67 bb 5f 88 8e 3d f3 22 85 be
       -0.21140806 -0.0035361424 0.069596045 -0.26003227
0000a0 95 2e b0 3d fb 1a de bd af 15 d6 3d d1 4a b7 bd
       0.08602635 -0.1084499 0.104533546 -0.08949817
0000b0 d2 00 1a be 3e d7 26 be a0 67 09 bd 59 65 48 3d
       -0.15039375 -0.16293046 -0.03354609 0.048924778
0000c0 86 f4 80 bd d9 51 b7 bd 3e cd 0d 3e d3 85 df bc
       -0.06296639 -0.08951158 0.13847825 -0.027285492
0000d0 c8 fe 50 bc a0 ff 10 bd 11 a9 e1 bb 98 ba 1b 3e
       -0.012756057 -0.035400033 -0.0068866094 0.15207899
0000e0 d9 9f 3a 3d 8c fd 07 be 93 84 53 3e f0 b9 02 3e
       0.0455626 -0.13280314 0.20656042 0.12766242
0000f0 1f 5c dd bc a7 98 38 3e 98 44 31 3c 68 55 01 3e
       -0.027021466 0.18026982 0.010819577 0.12630236
000100 e2 26 31 be 31 19 f4 3d 3c de 45 3e 6d 3f aa bd
       -0.17299989 0.119188674 0.19323057 -0.08312879
000110 7e 8a 48 be ba cb 00 be 94 84 f7 bd 91 aa 59 bc
       -0.1958408 -0.12577716 -0.12085834 -0.013285295
000120 3b f2 91 3d 1c 37 81 3b e0 fe 09 3e da bc 9b bc
       0.0712628 0.003943337 0.13476133 -0.01901095
000130 d9 78 82 bd 47 f4 3c be e2 28 41 3d 56 11 45 be
       -0.06370706 -0.1845256 0.04715813 -0.19244894
000140 5c 05 2a bc 78 e4 92 bd 87 1c ab bd 53 9c d3 3c
       -0.010377254 -0.07172483 -0.083550505 0.025831377
000150 9e e1 b9 3c 9d 0e d1 3d b9 95 06 3e 43 09 03 be
       0.02269059 0.102078654 0.13143052 -0.12796502
000160 08 5a 37 be 85 cf c0 bd c2 4a 10 be 4f 1a 55 3c
       -0.17905438 -0.09414581 -0.14091018 0.013006761
000170 f5 90 07 be 91 27 d2 bd 2c da 69 3d a9 b5 be 3d
       -0.1323889 -0.10261453 0.05709283 0.09311993
000180 f2 08 0c 3c 27 ea 05 be 9e ca c3 3d 33 80 f6 3d
       0.008547055 -0.13077603 0.095601305 0.12036171
000190 96 e6 4d 3e 67 47 4f 3e 10 62 0a 3e 55 20 07 bd
       0.20107493 0.20242082 0.1351397 -0.03298982
0001a0 b3 c7 98 bb a4 ca c1 bd 5b b9 67 be 7c 9c 2a 3e
       -0.004662478 -0.09462479 -0.22629301 0.16661257
0001b0 4d 79 ae bc c3 14 13 3e a4 6a 2e be cb d8 e9 3d
       -0.021298075 0.14363389 -0.17032868 0.11418303
0001c0 51 bd 9e 3e 0b c3 ba 3e 09 34 9b 3e 80 e2 1f 3e
       0.31003812 0.3647693 0.30313137 0.15613747
0001d0 36 87 16 3d e6 f5 25 3e 01 b3 c6 3d f6 43 ab bd
       0.03675004 0.16207084 0.09702111 -0.08362572
0001e0 4a 1e a9 3d f6 8e 2b bd 22 6d 31 be cb 02 f0 bc
       0.0825773 -0.041884385 -0.17326787 -0.029298207
0001f0 d4 c3 5c be 32 33 9a be 5d 6c 99 3c 77 f9 4e 3d
       -0.21559078 -0.30117184 0.01872843 0.050530877
000200 f9 a9 d7 3d ac cf 5c 3c 20 c4 e0 bc dd d0 43 bd
       0.105304666 0.013477247 -0.02743727 -0.04780661
000210 b0 72 25 3e e7 3c 57 be 0c ff 5f 3d 2e 39 ae 3d
       0.16157031 -0.21019326 0.05468659 0.08507
000220 07 71 88 3d 3d ba fc bd a2 ed e5 bd e2 7c 3f be
       0.06662183 -0.1234021 -0.112269655 -0.18699983
000230 c9 83 f0 3d 56 56 45 be 39 84 3b be 81 a2 20 be
       0.11743886 -0.19271216 -0.18312158 -0.1568699
000240 8b 21 31 3e 11 fa cb 3d 0c e3 40 3e 8b 0c 42 3e
       0.17297952 0.09959806 0.18836612 0.18950097
000250 5d 39 0d bd d5 ee 50 bd 49 1a b8 bd 7b 6c 83 3d
       -0.034478534 -0.051009018 -0.089893885 0.064171754
000260 e4 4d 19 3d 44 b1 3d 3c e8 7a 18 be 13 b1 c8 bc
       0.037427798 0.011577908 -0.14890635 -0.024498498
000270 6b c0 19 be a0 26 46 bd c0 36 13 bd ab 61 d1 3c
       -0.15014808 -0.04837668 -0.035940886 0.025559267
000280 4c f3 38 be d8 b5 24 3e 17 86 5d bd b2 0a ab 3b
       -0.1806156 0.16084993 -0.054082956 0.005219781
000290 6d f2 ae 3c 1c 13 b2 bd cd 74 81 3d 60 1b eb bc
       0.021355832 -0.08695051 0.06321106 -0.028699577
0002a0 dd 45 8c 3e ce ad 5c 3d 77 28 25 3e 9a 65 36 bc
       0.2739705 0.05387669 0.16128717 -0.011132622
0002b0 b2 16 34 be 53 3b f0 3b 90 f2 ce bc 42 6d 5e bd
       -0.17586783 0.0073312907 -0.025262147 -0.054303415
0002c0 a6 0a 05 be 99 f8 97 bd 86 57 d5 3d 59 d2 1a bd
       -0.12992343 -0.07420463 0.104170844 -0.03779826
0002d0 93 92 41 3c 0f 1f 76 3d 1b 72 4c be 4b 4e 99 bc
       0.011814731 0.060088214 -0.19965403 -0.01871409
0002e0 4c 88 ef bd 5e 1e 10 be 63 2a 21 3e 94 a9 62 3e
       -0.116959184 -0.14074084 0.15738826 0.22135001
0002f0 eb 60 6d 3d c9 4b 07 3e 5c 54 bb bd 2a 93 d7 3d
       0.057953756 0.13212503 -0.0914695 0.10526116
000300 7f 32 93 bd c5 11 f9 bd c9 56 b1 3d 65 d0 56 3d
       -0.07187366 -0.121615924 0.08659131 0.052444834
000310 9b 0d a9 bd d7 56 66 3c cc d1 79 3d bb 31 f1 3d
       -0.08254548 0.01405879 0.060991094 0.117770635
000320 1d 63 76 bd 75 af 67 bd 13 b8 70 bd 46 27 ac 3c
       -0.060153116 -0.056563813 -0.058769297 0.02101482
000330 52 4e 17 be 66 6f ab bd 07 30 3b be b3 eb 46 be
       -0.1477597 -0.08370857 -0.1828004 -0.1942585
000340 39 e7 19 be 65 1a 11 3d cc 4c d7 bd 0a 2a a7 bc
       -0.1502961 0.035425562 -0.10512695 -0.020405788
000350 60 b6 bc 3c 46 a0 09 3e 15 be 99 3d e9 dc 00 be
       0.023036182 0.13440046 0.075069584 -0.1258427
000360 a4 72 2c 3d 54 18 84 be e1 58 f0 bc 1c f5 8b 3d
       0.042101517 -0.2579981 -0.029339256 0.0683386
000370 d6 fb 2b 3e c4 b4 32 bb 9c f2 85 bd 40 aa d5 3d
       0.16795287 -0.002726839 -0.06540415 0.10432863
000380 1c 4f 82 3e c5 93 27 be 76 f2 4d be c7 29 ed be
       0.2545098 -0.16364963 -0.20112023 -0.46320936
000390 29 fe 88 3e bf d9 f1 3e f9 f6 fe 3d 4d 8a 50 3e
       0.2675641 0.4723644 0.1244945 0.20365258
0003a0 47 b6 d2 be 28 da d3 bb e2 60 10 be 64 4d f3 3c
       -0.41154692 -0.0064652152 -0.14099458 0.029699989
0003b0 4d 33 77 3e f1 29 d3 3d 5a 09 4a 3d 42 88 15 bb
       0.24140663 0.10310734 0.049325325 -0.0022816812
0003c0 d3 c0 d5 3d 2e f0 a6 3e a6 d2 9b bd 76 96 27 3e
       0.10437169 0.32605118 -0.076085374 0.1636599
0003d0 cf f6 88 3d 72 c4 18 3e 17 f4 d5 3d 98 64 5c 3c
       0.066877 0.14918688 0.10446947 0.013451718
0003e0 c0 fb ee bd 68 68 0c 3e d5 c8 cd bd 28 9a b4 be
       -0.11669111 0.13711703 -0.10048071 -0.35273862
0003f0 1c 26 25 be 4f a7 d2 be cf 9a 98 bd ce 61 a4 bd
       -0.16127819 -0.4114327 -0.074514024 -0.08026467

up2.bias f4 [8]
000000 2a c8 e2 bd 16 5c 94 bb fc b7 8d bc 76 8b f6 bd
       -0.110733345 -0.004527579 -0.017299645 -0.12038319
000010 53 a3 95 3e 40 b1 9d 3d c0 c6 e0 bd 70 c8 85 3d
       0.2922617 0.076998234 -0.109754086 0.06532371

conv22.weight f4 [8, 8, 3, 3]
000000 5d a4 a0 bd 00 c4 0c 3d 22 01 d9 3d 18 ef 07 be
       -0.0784385 0.034366608 0.10595919 -0.13274801
000010 59 15 e6 bc 97 91 c2 bd 08 25 cb 3d 7f f2 9f 3c
       -0.028086351 -0.09500425 0.099191725 0.01952481
000020 19 2e a2 3d 12 7f ad 3d 0f ea 43 bd cb 1d 2f 3e
       0.07918949 0.08471502 -0.047830638 0.17101209
000030 94 16 c8 bd c4 25 fb 3d 78 62 16 3c 3a f7 04 be
       -0.097699314 0.122630626 0.00917875 -0.12984934
000040 30 93 c0 bd 1d 3a a6 3d 66 29 45 be 7c 9f f3 3d
       -0.09403074 0.08116553 -0.19254074 0.118956536
000050 d8 37 fe bd e8 88 86 3c 9e 84 2d bd 02 14 04 3e
       -0.12412995 0.016422704 -0.0423628 0.12898257
000060 7b 78 05 be 79 d5 a3 3d f3 6b e3 bc f8 2f 16 be
       -0.13034241 0.07999701 -0.027761435 -0.14666736
000070 14 02 2a bd 7e 73 a1 3d 8f aa d4 3d 04 47 e8 3c
       -0.041505888 0.078833565 0.10384094 0.028354175
000080 53 44 89 3d 3c 2e 8f bd 0c ba 52 3d 27 82 78 3d
       0.06702485 -0.069912404 0.05144696 0.060670998
000090 1d 2e b5 bc a1 ee 0e bd 0b a3 06 3e 13 4c a8 bc
       -0.022116715 -0.034895543 0.13148133 -0.020544088
0000a0 f5 48 5d bc b3 3d d9 bc 81 f5 94 3d 47 ab 0a bc
       -0.013506164 -0.026518678 0.07273389 -0.008463687
0000b0 59 9f 40 bc 23 85 07 be 31 70 ae 3d f7 b3 d8 bd
       -0.011756741 -0.13234381 0.085174926 -0.105812006
0000c0 31 fe ec 3a 06 69 9a bc 5c 37 8d bc a7 90 5a 3d
       0.0018081126 -0.018848907 -0.017238311 0.053360607
0000d0 57 cc 26 bd d8 6d f3 bb 6a 7d b6 bc 54 53 d6 bd
       -0.040722217 -0.007428866 -0.022276599 -0.10465112
0000e0 08 70 2c 3d 38 b8 98 bc 07 11 95 bd c2 84 0a 3e
       0.04209903 -0.01864253 -0.07278638 0.13527206
0000f0 cc 65 8a bd 1a 57 d8 bd ad 35 12 3e 79 ab 99 bd
       -0.067576975 -0.10563488 0.14278288 -0.07503409
000100 09 50 15 3e 02 4a 24 bd 2b 99 8a 3d 89 fb dc bd
       0.14581312 -0.04010964 0.06767496 -0.10790164
000110 24 38 5c bd 8a ee c1 bb a6 3d 8a bb 71 97 62 bd
       -0.053764477 -0.0059183287 -0.004218775 -0.055320207
000120 4e 21 a4 3d 6d 97 f4 3d 6c f7 90 3d 71 82 ac 3d
       0.08014165 0.11942945 0.07078442 0.08423317
000130 aa f6 12 bd 87 7d e3 bd 8e 61 98 bd 3f 0d b4 3d
       -0.03587977 -0.11107927 -0.07440482 0.08791589
000140 87 09 5d 3b c5 51 85 3d 0a c3 72 3d 3a e1 d8 3c
       0.0033727603 0.06509737 0.059268035 0.026474584
000150 ac 18 f5 bd f7 07 c5 3d 4f 76 0e 3e 7d 55 3b 3d
       -0.119675964 0.0962066 0.13912319 0.045735825
000160 88 2c 45 bd 34 66 09 be 5d 40 b9 3c 06 43 2d be
       -0.04813817 -0.13417894 0.022613699 -0.16920099
000170 05 9f c4 3d 90 64 85 bd ef cd 94 3d fd ab ca 3d
       0.09600643 -0.065133214 0.07265841 0.098960854
000180 99 29 ac 3d 35 e3 07 be 38 bb 91 bd 2e 6b c2 bd
       0.084063716 -0.13270266 -0.07115787 -0.09493099
000190 d7 ad d0 bc 55 32 9f bd fd 80 65 bd b6 d4 5f 3c
       -0.025473518 -0.07773272 -0.056031216 0.013661554
0001a0 15 e1 f8 bc f5 2c 35 3d fb 3e 6a bd 4d 3f 8e 3d
       -0.030380765 0.044232327 -0.05718897 0.069456674
0001b0 c9 13 04 3e f4 6f bc 3e cf 6a 83 3e 54 bd 42 bd
       0.12898172 0.36804163 0.25667426 -0.04754384
0001c0 e0 1a 8a 3d 20 63 e3 3c 47 29 04 be 7e 96 8e 3d
       0.06743407 0.027757227 -0.12906371 0.06962298
0001d0 a0 ca 00 3e 94 6e 57 3d 62 95 ce 3c c4 4a c2 3c
       0.12577295 0.05259569 0.025217716 0.023717292
0001e0 cf f6 f9 bc 5f e1 f3 3d 9c f4 25 bc 0b b2 69 bd
       -0.030513195 0.119082205 -0.01012912 -0.05705456
0001f0 26 d3 32 3d 82 5f fa bd 20 dc 87 bc 7c 09 87 bd
       0.043658398 -0.12225248 -0.016584456 -0.06593606
000200 71 a9 88 bb f0 a6 79 bd 2b 5f 0b be 05 88 00 be
       -0.0041705896 -0.06095022 -0.13610522 -0.12551887
000210 c6 b8 9e bd 0e 78 d0 3d f6 fd a6 3d 58 86 14 bd
       -0.077500865 0.101791486 0.08153908 -0.036260933
000220 b0 ca 8e bc eb bf 75 3d 48 d9 94 bc 5a a3 bc 3d
       -0.017430633 0.05999748 -0.018170014 0.09210844
000230 35 f8 2b be 3d 11 16 3e a8 71 b6 3c d2 84 eb 3c
       -0.16793902 0.14655013 0.022270992 0.028749857
000240 d5 8f 99 3d fa b8 15 3e 72 65 1a 3d 08 16 be bd
       0.07498137 0.14621344 0.037694402 -0.09281546
000250 a6 7f 3d bd f1 1b d4 3d d7 2c 76 bd b5 9f b7 bd
       -0.046264313 0.10356892 -0.060101356 -0.089660086
000260 f4 b3 fe bd a6 15 e1 39 60 8e 07 3d bc 22 1c 3e
       -0.12436667 0.00042931474 0.033094764 0.15247625
000270 8e 13 c8 bb 9a af 06 3e 3b 91 52 3e 79 7e 5d be
       -0.0061058467 0.13152924 0.20563214 -0.21630277
000280 78 cb b7 3c 20 44 06 3e 13 da 70 be df b3 c6 3d
       0.022435889 0.13111925 -0.23520689 0.097022764
000290 6a ac 7f bc 00 1f 0b 3d 1f bf 1f bc fa 3b e4 3d
       -0.015605072 0.03396511 -0.009750157 0.11144252
0002a0 39 34 29 bd f5 92 bc 3d ef 9e 3d 3e 53 3b 36 be
       -0.04130957 0.09207717 0.1851766 -0.17796068
0002b0 d5 f6 0d bd ab b4 6a 3c 20 c8 12 be d2 1c 0f be
       -0.034659225 0.014325301 -0.14334154 -0.13975838
0002c0 f2 e9 f0 bd 54 c7 0d be 01 28 95 bd 23 1c 7f bc
       -0.117633715 -0.13845569 -0.07283021 -0.015570673
0002d0 44 4b 90 3e a4 35 66 3e 28 af 91 3e 45 b5 a5 3d
       0.28182423 0.224814 0.28453946 0.08091215
0002e0 a7 12 81 3d 13 d0 d7 3c ed 2c 55 be 7b 85 2b be
       0.06302386 0.026344335 -0.20817919 -0.16750138
0002f0 99 57 56 be 97 93 88 3d 30 00 89 bd 80 e0 81 3d
       -0.20931853 0.066687755 -0.06689489 0.06341648
000300 b4 3c b1 3d 09 2a b4 bd d3 f8 3a bd 80 66 c9 bd
       0.08654156 -0.0879708 -0.045647454 -0.098340034
000310 60 b6 fb 3c e7 7e 1d 3d f4 de 2a be e4 e0 5a 3d
       0.030726612 0.0384511 -0.16686612 0.05343713
000320 4e bf d1 3c 36 37 6c be fb e3 ae bd 44 13 ae bd
       0.025603916 -0.23067936 -0.085395776 -0.084997684
000330 df 72 34 be 7e 3d 0c 3c d6 a5 9a bc c0 be c6 bd
       -0.17621945 0.008559583 -0.018877905 -0.097043514
000340 92 c5 ff 3d d0 31 ab bd a1 10 1d bb 35 cc e0 3c
       0.124888554 -0.0835911 -0.002396621 0.027441124
000350 7d fc 03 3e 27 ec 04 3e 3b ae 15 bb b8 10 9f 3d
       0.12889285 0.1298071 -0.0022839445 0.07766861
000360 a4 9d 75 bd 00 cc 33 3c 38 b0 d0 bc 26 c4 b7 bb
       -0.05996479 0.01097393 -0.025474653 -0.0056080995
000370 cc 29 a3 bd d6 4d 0f bd 2f 78 97 3d 57 27 05 3d
       -0.079669565 -0.03498634 0.0739597 0.03250822
000380 e6 53 f0 bc 5c d8 0f 3e 16 86 ce bc e4 81 91 3d
       -0.02933688 0.14047378 -0.025210422 0.07104853
000390 3d 5c e1 3a 36 20 81 3d 0e 21 bc 3d 5e 19 65 be
       0.0017193627 0.06304972 0.09185992 -0.22372958
0003a0 3e fb a3 3d a7 85 8d bd 3d 54 52 be 6f 2c 27 3d
       0.08006905 -0.06910258 -0.20539947 0.04081386
0003b0 00 09 26 bd 9d 7d a8 bd 84 68 0f be 62 78 df 3d
       -0.040535927 -0.08227084 -0.14004713 0.10911633
0003c0 ac 44 ce 3c 7d a8 36 bd 20 cb 28 3e 40 6b 21 be
       0.02517923 -0.044594277 0.16483736 -0.15763569
0003d0 82 c6 2e be f3 27 d5 bd 9d 84 41 be bf 62 d0 3c
       -0.17067912 -0.1040801 -0.18898244 0.02543771
0003e0 d8 38 a9 bd 32 ce b8 bd 36 4b 29 be d1 72 4a bb
       -0.08262795 -0.09023704 -0.16532597 -0.003089119
0003f0 23 c7 83 3e 8d b6 7f 3d 2f 3c 60 3e d1 84 47 3e
       0.25737867 0.062429953 0.21897958 0.19484259

conv22.bias f4 [8]
000000 a2 54 c1 3e b7 62 52 3e d1 b7 70 3e f8 4b 5c 3e
       0.37759882 0.20545469 0.2350762 0.21513355
000010 4c 86 24 be 53 15 39 3e 99 37 df 3d ad f0 a0 bd
       -0.16066855 0.18074541 0.10899276 -0.07858405

up1.weight f4 [8, 4, 2, 2]
000000 84 b3 7e 3d 36 43 1f 3e 50 01 40 be c8 ea 14 be
       0.06218292 0.15552983 -0.187505 -0.14542687
000010 d4 d5 37 be d1 e8 06 3e 71 51 73 3e ff 90 52 be
       -0.17952663 0.1317475 0.23761536 -0.20563124
000020 5c cd 49 3e 6d a8 c5 3d 0d 83 03 bb bf fa ad 3d
       0.19707245 0.09651265 -0.0020067126 0.08495092
000030 1f 85 5e 3e 60 13 98 3e d7 4f d4 3d 19 16 17 be
       0.21730469 0.29702282 0.10366791 -0.14754523
000040 34 6e bc bd 89 28 42 bd c6 b0 8a 3d e1 03 17 3d
       -0.09200707 -0.04740194 0.06771998 0.036868934
000050 8d 1d 75 3e da d7 32 be fa e6 c1 3d 77 21 66 bc
       0.23937054 -0.17465153 0.094678834 -0.014046065
000060 af 08 bc 3d 47 d1 9c 3e 1e 2b 89 3d 6b f5 f3 3c
       0.09181344 0.30628416 0.06697677 0.02978011
000070 d1 6d 62 bc 39 c1 8e be 20 d0 38 be 72 9c 6f 3e
       -0.013820128 -0.27881792 -0.18048143 0.23399523
000080 1c 4d ba bd f2 d4 6c 3e d2 6c b1 3c c9 82 48 3e
       -0.09096739 0.23128107 0.021658335 0.1958114
000090 e4 d1 8d 3e 2e f4 05 3e b4 e4 42 3e 27 9a 97 3e
       0.27699196 0.13081428 0.19032556 0.29609796
0000a0 dc 76 38 3d bc 7b 84 3e 0b 7b e1 bd 79 d6 99 3e
       0.045035228 0.25875652 -0.11009797 0.30046442
0000b0 d7 76 63 ba 90 c4 20 3c 41 18 2f 3e 31 77 da 3c
       -0.00086770713 0.009812489 0.17099096 0.026668163
0000c0 dd 0e 67 3e b6 9b 9a bd ec 97 86 bd 1d 83 96 3e
       0.22564264 -0.07549231 -0.065719455 0.29396906
0000d0 a5 27 09 be d5 76 32 3e 8b 24 a0 3e f9 e4 49 3e
       -0.1339403 0.17428143 0.3127788 0.19716252
0000e0 70 db 63 3c 24 d7 69 3d 2b 21 22 be f7 bc c9 bd
       0.013907298 0.05708994 -0.15832965 -0.09850495
0000f0 19 ac 58 bd 18 93 0c be b4 a8 22 3e 8e a3 08 3e
       -0.0528985 -0.13727987 0.15884668 0.13343641
000100 56 16 b9 3d 37 f3 fa 3d 40 a6 af 3e 39 77 f6 3d
       0.09037463 0.12253421 0.34306526 0.12034459
000110 6b a2 6f 3e 59 10 43 3e e0 8a 81 3d 7b bf c6 3d
       0.23401801 0.19049205 0.063253164 0.09704491
000120 2b dd 0b 3e fe 7f 31 3e bd a7 d1 3d 9b e2 c1 bd
       0.13658588 0.17333981 0.10237072 -0.0946705
000130 cb c4 be 3e 1a 6a 99 3e 34 41 8d 3e b4 6f 33 3e
       0.37259516 0.29963762 0.2758881 0.1752308
000140 b4 e5 3a be 32 3f e5 bc 05 60 b6 39 b1 00 5b 3e
       -0.18251687 -0.027984235 0.00034785285 0.21386983
000150 2d cc 3a 3e 53 d8 58 3e 58 a9 23 3e 99 5f 7e 3e
       0.1824195 0.21176271 0.15982568 0.24841155
000160 b2 c2 b2 3c 6e 15 18 bd b2 78 b3 3c f5 29 ff 3d
       0.021821354 -0.037129812 0.021908138 0.124591745
000170 d1 d5 c9 bc e3 36 01 3e 49 56 d8 3d 59 e2 fb 3d
       -0.024638088 0.12618594 0.105633326 0.12299032
000180 d1 62 36 3e b7 46 55 3d 08 29 0d 3e 19 e2 9d bd
       0.17811133 0.052069392 0.13785183 -0.0770914
000190 4b d2 2e be 84 08 07 3e 5f 79 c7 3d 2b 26 34 3e
       -0.17072408 0.13186842 0.097399466 0.17592685
0001a0 a7 ab 20 3e ca 6b 1f 3d fb d6 43 be e3 e2 98 be
       0.1569048 0.038921155 -0.19124977 -0.298606
0001b0 da c5 22 3d b3 7e 40 3e 06 0b 64 bd f2 ec 30 be
       0.039739467 0.18798332 -0.055674575 -0.17277887
0001c0 34 96 58 be b8 df 11 bf 1a 6f 1a bd 38 89 c1 be
       -0.21151048 -0.5698199 -0.03770361 -0.37800002
0001d0 ab a8 d7 be 28 54 d0 be f7 ec 1c be 36 55 93 bd
       -0.4212087 -0.40689206 -0.1532477 -0.07193987
0001e0 f2 11 22 be 8a a5 eb be bb f5 f4 bd b8 96 cf bd
       -0.15827158 -0.46024734 -0.11960932 -0.10136169
0001f0 78 05 37 bb d9 f1 de bd d8 fc f1 3d 29 9e b4 bd
       -0.0027926844 -0.108859725 0.11815804 -0.08819229

up1.bias f4 [4]
000000 c6 5b 85 3e 65 15 c1 3e 34 c4 82 3e dc dc 07 3e
       0.2604658 0.37711635 0.25540316 0.13267845

conv13.weight f4 [2, 4, 3, 3]
000000 ae f3 b6 bc 19 44 34 bc 52 6d 67 3d 06 77 1c 3e
       -0.022332992 -0.011002564 0.05650074 0.15279779
000010 ef 8c 76 3e ca 49 a1 3d f2 40 4e 3e 60 ae 01 3e
       0.240772 0.07875402 0.20141962 0.12664175
000020 e9 7f 50 3d 6d 0c ac bd 1c 23 05 3d 4b f9 e4 3d
       0.050903235 -0.084008075 0.032504186 0.11180361
000030 30 96 80 3d 8a 5d 6e bc 62 4b f8 bd 15 58 0e be
       0.06278646 -0.014548669 -0.12123753 -0.13900788
000040 31 91 22 be ba 76 31 be 7d 0f f4 3d 2f fb b9 bd
       -0.15875699 -0.17330447 0.11917017 -0.090811126
000050 e6 cb 80 bd 83 4d 2c be ef 8e ef bd 82 eb ab 3d
       -0.062888905 -0.16826443 -0.11697184 0.08394529
000060 e3 be 70 3c 5a 07 c5 bc 20 99 0a 3d 0b f1 85 3d
       0.014693948 -0.024051357 0.033837438 0.06540116
000070 da 52 f6 3d 97 bc 1b be 75 db 65 3d d0 64 ad bd
       0.120275214 -0.1520866 0.056117494 -0.08466494
000080 06 48 18 be 0a 0d 72 3d 74 d3 2c be 87 84 1f be
       -0.14871225 0.059094466 -0.16877538 -0.15577899
000090 6a 82 eb 3d bd 3d 02 3e db 93 4e be a4 00 94 3b
       0.11499484 0.12718864 -0.2017359 0.004516678
0000a0 5c 83 e0 3c 08 73 eb 3d b4 e6 53 3e a5 78 58 3e
       0.027406387 0.1149655 0.20693475 0.21139772
0000b0 8c e6 ec 3d 45 1e 80 bc 08 75 0c 3e 1c 8c 5d 3c
       0.11567411 -0.015639434 0.13716519 0.013522174
0000c0 18 b3 0e 3d 3e 34 fd bc 4e 0b ad 3d 89 b3 ce 3d
       0.034838766 -0.0309087 0.08449422 0.10092837
0000d0 5f fe 2a 3a 6b 9b 24 3e 15 5e 5f bc fa d2 7f 3d
       0.00065228896 0.16074912 -0.013633271 0.062457062
0000e0 52 a6 20 3e 7e d3 cb 3d a2 74 5b bd a7 63 ab bd
       0.15688446 0.09952448 -0.053578027 -0.083686166
0000f0 37 b8 3d 3d 79 fd 61 3c d2 30 8a 3c 56 55 d7 3d
       0.04631826 0.013793343 0.016868982 0.105143234
000100 04 5f b7 3d ad c7 38 bc 7c 93 83 3d e8 27 9b 3e
       0.0895367 -0.011278075 0.06424615 0.30303884
000110 f7 ae d0 3d bb 5d 59 3d 03 ed af bd d3 4a da 3d
       0.10189622 0.053067904 -0.08590128 0.10658803

conv13.bias f4 [2]
000000 37 0b 1e 3e 30 fb 21 3d
       0.15433966 0.03954619

conv14.weight f4 [2, 2, 3, 3]
000000 4c b3 9d bd b4 2e 8b 3e 54 c4 1a 3e 61 56 a9 3d
       -0.07700214 0.2718407 0.15113956 0.082684286
000010 61 9f 89 be ab f5 1d 3e 57 d1 ab bd e6 0c 02 3e
       -0.2687941 0.15425746 -0.08389538 0.12700233
000020 e0 85 5b be cd e8 ec bd 28 df 5b be 14 be 3d 3e
       -0.21437788 -0.11567841 -0.21471846 0.1852954
000030 93 6f a2 3e a2 47 35 be 01 a8 1d 3e 7f 97 2a bd
       0.3172575 -0.17703107 0.1539612 -0.041648384
000040 44 3b 45 be df 86 90 3d c5 2c 8b 3e 72 51 70 3e
       -0.1926089 0.070569746 0.27182594 0.23468569
000050 fc db 23 3e c3 24 89 3e 00 bf 6d bd c5 1e fb 3d
       0.16001886 0.2678586 -0.05804348 0.12261728
000060 c0 e8 f0 3b 9b 77 4c 3d e9 be 0b 3e 69 f1 10 be
       0.0073519647 0.049918752 0.13647045 -0.1415459
000070 87 48 07 3e 14 40 a1 bc 1c 27 34 3e 2f fe ab 3c
       0.1321126 -0.019683875 0.17593044 0.020995228
000080 dc 8b 0f 3e fc 15 87 3e 99 e5 2d bd 00 13 45 be
       0.14018196 0.2638396 -0.04245529 -0.19245529

conv14.bias f4 [2]
000000 d6 0b a9 3e 02 c4 32 bb
       0.33016843 -0.0027277474

conv15.weight f4 [1, 2, 3, 3]
000000 33 26 8f 3d 30 02 c9 3d b3 ee a4 3c 1f df d3 bc
       0.06989708 0.0981487 0.020133352 -0.025863228
000010 2b c8 06 3c 3a 7a 4c bd 57 43 7d bd 14 70 6c bd
       0.008226435 -0.04992125 -0.0618318 -0.057724074
000020 46 45 fa 3a 9a 20 45 3e ea 7b 02 be 37 d0 1e 3d
       0.0019094131 0.19250718 -0.12742582 0.038772788
000030 e8 fb 15 3e 17 58 3a 3e b6 48 b1 3d b6 22 10 3e
       0.14646876 0.18197666 0.08656447 0.14075741
000040 fe 10 ef bb df 5e 39 3d
       -0.007295727 0.04525649
