output/3030_e/train/model/itn_10.pt (torch_old, 23547 bytes, 23 tensors)

conv11.weight f4 [2, 1, 3, 3]
0	0x3e8da44f	0.2766442
1	0x3e97664a	0.29570228
2	0xbd79ab6c	-0.060954496
3	0x3ea7a115	0.32740083
4	0xbd604bc0	-0.05475974
5	0x3dab4ec5	0.083646335
6	0xbe0fdddb	-0.14049475
7	0x3e5be8d7	0.2147554
8	0x3e9f2a29	0.31086853
9	0xbe784dee	-0.24248478
10	0x3e905aaf	0.28194186
11	0x3d47d2f4	0.048785165
12	0x3e808516	0.25101537
13	0x3d25d088	0.040482074
14	0x3e1997e9	0.14999355
15	0xbd1bc21a	-0.038026907
16	0x3e84081d	0.2578744
17	0x3d325c74	0.0435452

conv11.bias f4 [2]
0	0xbdfbe395	-0.12299267
1	0x3dd307ff	0.103042595

conv12.weight f4 [4, 2, 3, 3]
0	0xbd986f5d	-0.07443116
1	0xbc2bfb09	-0.010496863
2	0xbdb8a4d9	-0.09015817
3	0x3e42f363	0.19038157
4	0xbe2cf04e	-0.16888544
5	0xbdd15fae	-0.102233276
6	0xbcebff20	-0.028808177
7	0xbdf33090	-0.11874497
8	0x3d0e2372	0.034701772
9	0xbe56a125	-0.2095991
10	0x3e65d61e	0.2244496
11	0xbe4a31d1	-0.19745566
12	0x3e5266ec	0.20547074
13	0x3d50b439	0.050953124
14	0xbd95a408	-0.07306677
15	0x3e330e76	0.17485985
16	0x3d6325f3	0.055456113
17	0x3e4d73c9	0.200637
18	0x3d51811e	0.051148526
19	0xbd5aaf39	-0.05338976
20	0x3da74088	0.08166605
21	0xbd1fdb0e	-0.039027266
22	0x3df4c95c	0.11952469
23	0x3e6964ba	0.2279233
24	0x3e25aa17	0.16178165
25	0xbda7e1d3	-0.081973694
26	0x3e1dc949	0.15408815
27	0x3d8440a2	0.0645764
28	0x3e0d28ca	0.13785091
29	0xbe01b283	-0.12665753
30	0xbe5879ea	-0.21140257
31	0xbd964bfd	-0.07338712
32	0xbe282b0b	-0.1642267
33	0x3e5d8c01	0.21635439
34	0x3db187e2	0.08668496
35	0x3debd653	0.115154885
36	0x3dd10521	0.102060564
37	0x3c9403ee	0.01806828
38	0x3e4f7351	0.20258833
39	0xbe10326f	-0.14081739
40	0x3d1448fb	0.036202412
41	0xbe13164a	-0.14363971
42	0x3dcb9b9b	0.09941789
43	0xbd74091a	-0.059578992
44	0x3db7ccf8	0.089746416
45	0xbccc18ac	-0.024914108
46	0x3e5b6429	0.21424927
47	0xbdfd8b13	-0.12380042
48	0xbdefe840	-0.1171422
49	0xbdfabe47	-0.12243324
50	0x3e68c87e	0.22732732
51	0x3dd1565b	0.10221549
52	0x3e7b6433	0.24549942
53	0xbe36ab18	-0.17838705
54	0xbe677074	-0.22601491
55	0xbe46667c	-0.19375032
56	0xbe392588	-0.18080723
57	0x3db9dd7f	0.0907545
58	0x3d87aef7	0.06625169
59	0x3e3e73d5	0.18598874
60	0xbe03761a	-0.12838021
61	0xbe2dc807	-0.16970836
62	0x3df349fd	0.118793465
63	0xbdbb94db	-0.09159251
64	0x3e12564d	0.14290734
65	0xbd911486	-0.07083993
66	0x3e0785c3	0.1323462
67	0xbe4338f5	-0.19064696
68	0xbe0985c1	-0.1342993
69	0x3d87bcec	0.06627831
70	0x3d1da097	0.03848323
71	0xbd91c773	-0.0711812

conv12.bias f4 [4]
0	0x3e2ef9ce	0.1708748
1	0x3e41986d	0.18905802
2	0xbe0bba4b	-0.13645284
3	0xbdce6326	-0.10077505

down1.weight f4 [8, 4, 2, 2]
0	0x3e5ea553	0.21742754
1	0xbddec23b	-0.1087689
2	0xbdde3fbe	-0.108520016
3	0xbe8bf37c	-0.273342
4	0xbe2d7a36	-0.16941151
5	0x3d359910	0.044335425
6	0xbd714ccc	-0.05891113
7	0xbe4c3416	-0.19941744
8	0xbc9282e4	-0.01788468
9	0xbe3f4a0f	-0.18680595
10	0xbe723605	-0.2365342
11	0xbe1e3ba3	-0.15452437
12	0xbe5d3c14	-0.21604949
13	0xbe2afa3c	-0.1669702
14	0x3e8b98ea	0.27265102
15	0x3d946e1e	0.07247566
16	0x3d7b7098	0.061386675
17	0xbe82d572	-0.2555347
18	0xbe40bbae	-0.18821594
19	0xbdebd55f	-0.11515307
20	0x3cb3044c	0.021852635
21	0xbe6dd910	-0.23227334
22	0xbdfcf283	-0.12350943
23	0xbe247138	-0.16058815
24	0xbc6c18c8	-0.014410205
25	0xbdd51d04	-0.10405925
26	0xbd04ad7c	-0.03239201
27	0xbe385764	-0.18002087
28	0xbe30c6fc	-0.17263407
29	0xbe1c9f98	-0.15295255
30	0xbda2db92	-0.07952036
31	0xbe41f961	-0.18942787
32	0x3e37cb6e	0.17948696
33	0xbdbbefb9	-0.09176583
34	0x3e398ecf	0.18120883
35	0x3d211098	0.039322466
36	0xbe762d6b	-0.24040763
37	0x3e16e931	0.14737393
38	0xbdc6eceb	-0.09713157
39	0xbdf839d5	-0.121204056
40	0xbe6e4e9f	-0.23272179
41	0xbe8afcce	-0.27146
42	0x3d3d1383	0.046161186
43	0xbd9e7e7e	-0.0773897
44	0x3dd95c1d	0.10613272
45	0xbe484601	-0.19557954
46	0x3e4d0c37	0.20024191
47	0xbe2dc293	-0.16968755
48	0x3d1fb7eb	0.038993757
49	0x3e147b1e	0.1450009
50	0x3e552489	0.20814718
51	0x3e998b77	0.29989216
52	0x3e7f1768	0.24911273
53	0xbe3d46d5	-0.18484052
54	0x3db3de18	0.087825954
55	0xbdba76c9	-0.09104688
56	0xbc584444	-0.01319987
57	0xbe35e7ac	-0.17764157
58	0x3e7a4cca	0.24443355
59	0xbe31055e	-0.17287204
60	0x3dcd3f24	0.10021809
61	0x3daa7446	0.08322959
62	0x3d5768da	0.05259023
63	0xbe20dbba	-0.15708819
64	0x3e365d04	0.1780892
65	0x3c3ce34a	0.011528799
66	0x3c02e91b	0.007990147
67	0xbe80861a	-0.2510231
68	0x3d8b8b69	0.068137
69	0xbd8f3ef3	-0.069944285
70	0xbe1a3597	-0.15059505
71	0x3e3baf56	0.18328604
72	0x3ca8e74e	0.020618107
73	0xbe2d5893	-0.1692832
74	0xbe257366	-0.16157302
75	0xbd2e0181	-0.042481903
76	0x3e32acfb	0.174488
77	0xbcfa59f8	-0.030560479
78	0xbdc68e88	-0.096951544
79	0xbd1ad888	-0.037804157
80	0xbe0bbb62	-0.136457
81	0x3de867be	0.11347912
82	0x3e694d96	0.22783503
83	0xbe5aa2c4	-0.21351153
84	0x3daaf7b0	0.08348024
85	0x3e144b27	0.14481793
86	0x3d9c38c3	0.07628014
87	0xbd874018	-0.06604022
88	0x3e1c0c08	0.15238965
89	0x3e0ffe0f	0.1406176
90	0x3df70c36	0.12062876
91	0xbceb51cf	-0.028725533
92	0xbe23303b	-0.15936367
93	0xbd3b493d	-0.045724142
94	0xbde93b3b	-0.113882504
95	0xbe07769a	-0.13228837
96	0x3e067f5c	0.13134521
97	0x3e450a8b	0.19242303
98	0xbd7309cb	-0.05933551
99	0xbdacb5d9	-0.08433122
100	0x3be527df	0.0069932784
101	0xbc8408e4	-0.01611752
102	0x3d7ea205	0.062166233
103	0x3d8a2a6b	0.06746372
104	0xbe66f350	-0.22553754
105	0xbdc212b7	-0.09476226
106	0x3e581708	0.21102536
107	0x3dc04818	0.09388751
108	0xbd427469	-0.0474743
109	0xbe432f9d	-0.19061132
110	0xbe3a04cd	-0.18165894
111	0xbe837f25	-0.2568294
112	0xbe03fb7c	-0.12888902
113	0x3ce9d686	0.028544676
114	0x3dfd3b5b	0.12364837
115	0x3d907039	0.07052655
116	0xbe70aa70	-0.23502517
117	0xbe22007f	-0.15820502
118	0xbd5c5bd2	-0.053798504
119	0x3e6f26c3	0.2335463
120	0x3cc47461	0.023981275
121	0xbd92702f	-0.071503036
122	0x3db9f25b	0.09079429
123	0xbdd1827b	-0.10229965
124	0xbe0f4516	-0.13991198
125	0x3e4e93b2	0.20173529
126	0xbdca3d42	-0.09874965
127	0xbd1c1faf	-0.038116153

down1.bias f4 [8]
0	0xbe90871b	-0.28228077
1	0x3df4e47f	0.11957645
2	0x3e00fc42	0.12596229
3	0x3e066107	0.1312295
4	0xbe7f69fd	-0.24942775
5	0xbe95b11d	-0.2923669
6	0xbe3ad469	-0.1824509
7	0x3e17d732	0.14828184

conv21.weight f4 [8, 8, 3, 3]
0	0x3d17776a	0.036979116
1	0x3db72d18	0.08944148
2	0x3d791a66	0.06081619
3	0x3c5e94d6	0.01358529
4	0xbbf1f351	-0.007383742
5	0xbdb307af	-0.087417
6	0xbdec9596	-0.11551969
7	0xbdeb5ebe	-0.1149268
8	0x3d535beb	0.05160133
9	0xbd9bfe02	-0.076168075
10	0xbd02eccb	-0.031964105
11	0xbd8ac55d	-0.06775925
12	0xbd13e0c4	-0.036103025
13	0xbdb3b86a	-0.087754086
14	0xbd96b642	-0.07358982
15	0x3cd3cbcd	0.025854016
16	0xbd1dc517	-0.038518038
17	0x3d9d8479	0.07691283
18	0xbd700b0c	-0.058604285
19	0xbdc7ce57	-0.09756153
20	0xbcbad43b	-0.022806277
21	0xbd9821aa	-0.07428296
22	0xbd3008a1	-0.04297698
23	0xbde24373	-0.11048021
24	0x3d50c209	0.050966296
25	0xbdb1e59b	-0.08686372
26	0x3d805a07	0.06267171
27	0x3d97a02a	0.07403596
28	0x3dcd6593	0.10029139
29	0xbda8e6ad	-0.08247123
30	0x3de062aa	0.10956319
31	0xbd16194c	-0.03664522
32	0x3d64b874	0.05583997
33	0x3e0d0f5b	0.13775389
34	0x3b8abce0	0.0042339414
35	0x3c50d8f4	0.012747038
36	0xbd3127a7	-0.043250706
37	0xbdd967dd	-0.106155135
38	0x3d6b33e4	0.057422534
39	0xbe076299	-0.13221206
40	0x3d8ac860	0.067765
41	0x3db8f4bc	0.090310544
42	0x3dce7ca0	0.10082364
43	0xbce9c22c	-0.028534971
44	0xbdb75c13	-0.08953109
45	0x3d4c5291	0.04988343
46	0x3da144b9	0.07874436
47	0xbde6e8f6	-0.112749025
48	0xbbe123e0	-0.0068707317
49	0xbd7a368e	-0.061087184
50	0xbc1e52e2	-0.0096633155
51	0xbd2ac726	-0.04169383
52	0xbd2d1e40	-0.042265177
53	0xbd23c1a4	-0.039979592
54	0xbdc55afe	-0.09636496
55	0x3dd2090b	0.10255631
56	0x3dc6dec1	0.09710456
57	0xbbedc24b	-0.0072558275
58	0xbc370ee1	-0.011172981
59	0xbd59a058	-0.05313143
60	0xbdc05d24	-0.09392765
61	0xbde36a78	-0.11104292
62	0x3d26bd54	0.0407079
63	0xbdb2bf26	-0.08727865
64	0xbdb4c2cc	-0.08826217
65	0xbc51a8e4	-0.012796614
66	0xbd6c1f6a	-0.057647146
67	0xbd3bcc25	-0.045848984
68	0x3b99b13f	0.004690319
69	0xbd1fad3d	-0.038983572
70	0xbd32a763	-0.043616664
71	0xbd51238a	-0.051059283
72	0xbd9ffb40	-0.07811594
73	0x3da5d2f1	0.080968745
74	0xbda6fd39	-0.08153767
75	0x3d5ed808	0.054405242
76	0xbd58b474	-0.05290647
77	0xbcbb13db	-0.022836616
78	0x3e165d86	0.14684114
79	0x3d6704ed	0.056401182
80	0xbdfda3bd	-0.12384746
81	0x3d73b645	0.059499998
82	0x3dbbb1c8	0.091647685
83	0xbb65b5c0	-0.0035050958
84	0x3dcbe4a3	0.09955718
85	0x3dcf37b0	0.101180434
86	0xbd51550c	-0.051106498
87	0x3d72b310	0.0592528
88	0xbda8be91	-0.08239473
89	0xbd3c4f65	-0.045974154
90	0x3de06e0f	0.10958492
91	0x3d3c5ade	0.045985095
92	0xbdde0fc7	-0.10842853
93	0xbd90602e	-0.07049595
94	0xbdbb4820	-0.09144616
95	0xbe18da45	-0.14927013
96	0xbd5b5092	-0.053543635
97	0xbcd0fa5c	-0.025510006
98	0x3d59b08d	0.053146888
99	0xbd80cb7d	-0.06288812
100	0xbe0f939a	-0.1402115
101	0xbdda0278	-0.10645002
102	0xbcea91b3	-0.028633928
103	0xbe23c9fa	-0.15995017
104	0xbd345186	-0.04402306
105	0xbd01a388	-0.031650096
106	0xbe0a111a	-0.13483086
107	0xbd612aff	-0.054972645
108	0xbc0b0371	-0.008484707
109	0xbd48d5ae	-0.049031906
110	0xbdc01a6c	-0.093800396
111	0xbddd4fd0	-0.10806239
112	0xbde9dfab	-0.114196144
113	0xbdbc21fe	-0.09186171
114	0x3dde650e	0.108591184
115	0xbda0d68b	-0.07853421
116	0xbde126e6	-0.109937474
117	0x3bdadd2c	0.006679198
118	0x3d3b16ce	0.045676045
119	0x3dc4a66f	0.09602057
120	0x3d8c4b04	0.068502456
121	0x3da2f812	0.07957472
122	0xbda85d46	-0.082209155
123	0xbcb92b35	-0.02260361
124	0x3d9b1d72	0.075739756
125	0x3ca39404	0.01996804
126	0xbdaf88ee	-0.08571039
127	0x3e05fdf7	0.13085161
128	0xbc1032e0	-0.008801192
129	0xbdc5ed81	-0.09664441
130	0xbdccf54b	-0.100077234
131	0x3d11bed8	0.035582393
132	0x3bf0c447	0.007347617
133	0x3c4e43b7	0.012589387
134	0x3d2591e1	0.040422324
135	0xbd86707d	-0.06564424
136	0xbdf09119	-0.11746425
137	0xbcc87740	-0.024470925
138	0x3e037dc6	0.12840948
139	0x3d73f890	0.05956322
140	0xbdd0a885	-0.101883925
141	0x3c4a4a3d	0.012346801
142	0xbdbab938	-0.09117359
143	0xbdb1076e	-0.08643995
144	0x3c954cf6	0.018225174
145	0x3d57b10e	0.052659087
146	0x3da7bdda	0.08190508
147	0xbde1aa8b	-0.110188566
148	0x3d8b14b3	0.067910574
149	0xbdc8c824	-0.09803799
150	0x3d3a4e5b	0.04548488
151	0x3db92acd	0.09041367
152	0xbc46d43e	-0.012135563
153	0x3dd43f21	0.103636034
154	0xbde70135	-0.11279527
155	0xbd790074	-0.060791448
156	0x3d869594	0.065714985
157	0xbd175d44	-0.03695418
158	0xbd213ba4	-0.03936352
159	0xbd4e8739	-0.050421927
160	0x3d914c0e	0.070945844
161	0x3d327999	0.043572996
162	0x3d18c46c	0.037296697
163	0xbd9ca8ca	-0.076493815
164	0xbde2c76a	-0.110731915
165	0x3c44f221	0.012020619
166	0x3cd9f2fc	0.026605122
167	0xbd8ba56b	-0.0681866
168	0xbd07b661	-0.033132914
169	0x3d8e7e17	0.069576435
170	0xbb7caaaf	-0.0038553884
171	0xbaeae17a	-0.001791998
172	0xbd2ef59b	-0.042714696
173	0xbddaec16	-0.10689561
174	0xbdeac671	-0.11463631
175	0xbd90aea2	-0.070645586
176	0xbd796ab9	-0.060892794
177	0x3d01528e	0.03157287
178	0xbd4b3ebd	-0.04962038
179	0xbd6cb568	-0.05779019
180	0x3deb5e0e	0.11492549
181	0x3d4ac6c3	0.04950596
182	0x3db43676	0.0879945
183	0xbd6e2551	-0.058141056
184	0xbd1a07ee	-0.03760522
185	0x3d461aff	0.04836559
186	0xbda6af5f	-0.08138918
187	0xbd8ecb23	-0.06972339
188	0x3942de92	0.00018584196
189	0xbd1b8c83	-0.0379758
190	0xbd962435	-0.07331125
191	0x3db8bcc8	0.09020382
192	0x3dc8bd3d	0.09801719
193	0x3d0252e5	0.031817336
194	0xbb01dca5	-0.0019815352
195	0xbddf1ad2	-0.108937874
196	0xbcfceda1	-0.030875029
197	0x3d40649d	0.046970952
198	0x3d820438	0.06348461
199	0xbb3dbada	-0.0028950484
200	0xbd0cf33e	-0.03441166
201	0x3d88ef55	0.06686274
202	0xbda80812	-0.08204664
203	0x3db31787	0.08744722
204	0xbd450340	-0.048098803
205	0x3c168c51	0.0091887275
206	0xbc539f59	-0.012916409
207	0x3c2f698b	0.010706316
208	0xbd495297	-0.04915103
209	0x3d8e4400	0.06946564
210	0xbb9c3fb3	-0.0047683357
211	0x3da6b47d	0.08139894
212	0x3dca362c	0.09873614
213	0xbd612020	-0.054962277
214	0xbdc54ba5	-0.09633569
215	0x3da5b6af	0.08091485
216	0x3dea8890	0.114518285
217	0xbd92d4a7	-0.071694665
218	0x3bfbcfd6	0.007684688
219	0xbdce873b	-0.10084387
220	0xbda85c7f	-0.08220767
221	0x3d12b1b6	0.03581401
222	0x3d42414a	0.047425546
223	0x3d260c08	0.040538818
224	0xbc987878	-0.018612131
225	0x3e01124c	0.12604636
226	0x3d03644a	0.032078065
227	0xbd63885e	-0.05554997
228	0x3bd31067	0.0064411643
229	0x3d270483	0.040775787
230	0x3d556ff9	0.05210874
231	0xbd8deaa6	-0.06929521
232	0x3d6ac45f	0.05731618
233	0xbd4bef26	-0.049788617
234	0xbd96f2b7	-0.07370513
235	0xbd409efe	-0.047026627
236	0x3e03997d	0.1285152
237	0x3de8aa20	0.11360574
238	0x3def6e3f	0.1169095
239	0x3da2ce44	0.07949498
240	0x3dcf1959	0.101122566
241	0xbb8b7df0	-0.0042569563
242	0xbd617aef	-0.05504888
243	0x3d5199b6	0.05117198
244	0xbd5da698	-0.054113954
245	0xbd9d6d83	-0.07686903
246	0xbd2cb0a5	-0.04216065
247	0x3cd3535f	0.02579659
248	0x3d67788c	0.056511447
249	0xbd513967	-0.051080134
250	0xbd993998	-0.07481688
251	0xbc0447ed	-0.008073789
252	0xbd94e9ba	-0.07271142
253	0xbda80891	-0.08204759
254	0x3d614c09	0.055004153
255	0xbce7ce4b	-0.02829661

conv21.bias f4 [8]
0	0x3e14b09e	0.14520499
1	0xbd8dc079	-0.06921477
2	0xbd1bbb6d	-0.03802054
3	0xbd010574	-0.03149934
4	0x3d863182	0.065524116
5	0x3dc9e10b	0.09857377
6	0x3db01a47	0.08598762
7	0x3d9fc222	0.078007

down2.weight f4 [16, 8, 2, 2]
0	0x3d950e24	0.07278088
1	0x3deb34b4	0.11484662
2	0xbd938dad	-0.07204757
3	0x3de14c6d	0.11000905
4	0x3dfad598	0.12247771
5	0x3e2a103e	0.16607758
6	0xbd5c565f	-0.053793307
7	0xbd8b31a3	-0.06796577
8	0xbd02481e	-0.031807058
9	0x3ca9845d	0.020692999
10	0x3e021cae	0.12706253
11	0xbdb86588	-0.090037405
12	0x3cc5659c	0.024096303
13	0xbe09ac05	-0.13444526
14	0x3cf9151d	0.030405575
15	0xbdbb19dc	-0.09135792
16	0xbcd77652	-0.026301537
17	0xbd2a2912	-0.041543074
18	0x3c19b9a4	0.009382639
19	0x3e2551c7	0.16144477
20	0xbe0ea900	-0.13931656
21	0xbcdff9b7	-0.027340753
22	0x3c8a4a04	0.016880997
23	0xbde14110	-0.10998738
24	0x3cb8c4e9	0.022554832
25	0xbe409bc8	-0.18809426
26	0xbe1e627c	-0.15467256
27	0xbe339708	-0.17538083
28	0xbdd5ccd7	-0.10439461
29	0xbdf14f54	-0.11782709
30	0xbd73805c	-0.059448585
31	0xbddfa097	-0.10919302
32	0x3dc650d7	0.09683388
33	0x3e2bf1bd	0.16791435
34	0x3d9fa11f	0.07794403
35	0xbd80fa7c	-0.06297776
36	0xbe4a7612	-0.19771603
37	0x3d97d179	0.074130006
38	0xbe034300	-0.12818527
39	0x3db4bdb3	0.08825245
40	0x3dc8ddcc	0.098079294
41	0x3d7c2eac	0.061567947
42	0x3e168a88	0.14701283
43	0x3e20f113	0.15716963
44	0x3dc51f2d	0.09625087
45	0xbd874645	-0.066052
46	0x3e70d9fc	0.23520654
47	0xbb4ce2ab	-0.0031263034
48	0xbe2d815c	-0.16943878
49	0x3dbc78d2	0.09202732
50	0x3d25455f	0.04034936
51	0xbc6478fd	-0.0139448615
52	0x3cbb50e2	0.022865716
53	0xbe13249f	-0.14369439
54	0xbbc21461	-0.0059228395
55	0x3e335194	0.17511588
56	0x3d7e75bf	0.06212401
57	0x3cbd8d9f	0.02313882
58	0xbca1fda8	-0.019774273
59	0xbd5d5ed0	-0.0540455
60	0x3e1eefbf	0.15521143
61	0x3d893b63	0.0670078
62	0x3e343c90	0.17601228
63	0x3ca9e328	0.0207382
64	0x3dd56165	0.10418967
65	0x3db6787a	0.08909698
66	0x3d517651	0.051138226
67	0x3dfb9e9e	0.12286113
68	0x3d8910a1	0.06692625
69	0x3df8dbbf	0.12151288
70	0x3db2793a	0.087145284
71	0xbdbb7d94	-0.091548115
72	0xbe25c85d	-0.16189714
73	0x3c1b9ffb	0.009498592
74	0xbc87b2b3	-0.016564703
75	0xbd87a022	-0.0662234
76	0xbd1b1720	-0.03786385
77	0x3ca830e7	0.020531131
78	0x3e1c3be5	0.15257223
79	0x3dd7f894	0.105454594
80	0xbe4e0552	-0.20119217
81	0xbe3d967c	-0.18514436
82	0xbe398755	-0.18118031
83	0xbe3d7acd	-0.18503876
84	0x3e38a6d9	0.18032397
85	0x3dd0c3e7	0.101936154
86	0x3e357b62	0.17722848
87	0x3bfa3710	0.0076359585
88	0x3d5e6944	0.054299608
89	0x3d945bb5	0.07244054
90	0xbe18bfeb	-0.14916961
91	0x3cd7a3a8	0.026323155
92	0x3d44456c	0.04791777
93	0xbd5569d6	-0.052102886
94	0xbdaae05f	-0.08343577
95	0x3e46a059	0.19397105
96	0x3e0ac298	0.13550794
97	0x3dada18a	0.08478077
98	0x3e24d327	0.16096173
99	0xbd8b3225	-0.06796674
100	0x3d11b2d8	0.03557095
101	0x3dccec66	0.10006027
102	0x3d3b6d25	0.045758385
103	0x3c490bfd	0.012270925
104	0xbe032f8b	-0.12811105
105	0x3d5ad891	0.05342919
106	0xbdb1c422	-0.086799875
107	0x3c8e0071	0.017334195
108	0x3e1421d4	0.1446603
109	0xbdbad9c4	-0.09123567
110	0xbdc98cf9	-0.098413415
111	0x3d5eb6b7	0.05437347
112	0x3d2d5f09	0.04232696
113	0x3d030a72	0.031992383
114	0x3e8fa954	0.28058875
115	0xbb6733d6	-0.00352787
116	0xbe06c822	-0.13162282
117	0xbdc40b28	-0.095724404
118	0xbd5c9320	-0.053851247
119	0xbda356fe	-0.07975577
120	0xbdd213f6	-0.102577135
121	0x3d973c63	0.07384565
122	0x3ca01829	0.01954277
123	0xbd5a23ba	-0.053256728
124	0xbe3a6f73	-0.18206577
125	0xbdefb917	-0.11705225
126	0xbe073b17	-0.13206135
127	0xbddf7ebb	-0.10912844
128	0xbe035235	-0.12824328
129	0x3d63e444	0.055637613
130	0xbdca7521	-0.09885622
131	0xbdfad98c	-0.12248525
132	0xbe32b040	-0.17450047
133	0x3a153b18	0.00056927046
134	0xbe0970e2	-0.13421968
135	0xbe1961af	-0.1497867
136	0x3df3019b	0.118655406
137	0x3d85a17a	0.0652494
138	0x3da5ded7	0.08099144
139	0xbe47e579	-0.1952113
140	0xbe01ff03	-0.12694936
141	0xbd8b610e	-0.06805621
142	0x3e16bd39	0.1472062
143	0x3cb11833	0.021617984
144	0xbe82c4bf	-0.2554073
145	0xbe088285	-0.13331039
146	0xbe850ec3	-0.25987825
147	0xbe369335	-0.17829593
148	0xbcebff2d	-0.0288082
149	0x3e2666a4	0.16250092
150	0x3d961387	0.07327943
151	0xbccb7d11	-0.02483991
152	0x3d92cd65	0.07168082
153	0xbce9ffbc	-0.028564326
154	0x3de2f4a3	0.11081817
155	0x3db96b04	0.09053615
156	0x3d31e3d6	0.043430172
157	0xbde46c90	-0.11153519
158	0x3e23f75c	0.16012329
159	0xbd3c73ee	-0.046008997
160	0xbd3ceffe	-0.046127312
161	0x3dfe3904	0.124132186
162	0x3e2d55fe	0.16927335
163	0x3e44e6d4	0.19228679
164	0x3920bcc8	0.00015329116
165	0xbddb5187	-0.107089095
166	0x3d356d51	0.044293705
167	0x3dea2aa6	0.11433916
168	0xbe4f9fae	-0.20275757
169	0xbd440044	-0.047851816
170	0xbe1dc83a	-0.15408412
171	0x3a528083	0.0008030014
172	0x3e252888	0.16128743
173	0x3d5325f0	0.051549852
174	0x3d9d2b81	0.07674313
175	0x3e35a631	0.17739178
176	0xbe2a90d6	-0.16656813
177	0xbe86be3e	-0.26317018
178	0x3be15709	0.0068768305
179	0xbe4cb5da	-0.19991246
180	0xbb026427	-0.0019896121
181	0x3cd032b2	0.025414798
182	0x3c1e5984	0.009664897
183	0xbe1e1f4b	-0.15441625
184	0x3dd7f0fe	0.105440125
185	0xbd89dfed	-0.067321636
186	0xbd868db1	-0.06569994
187	0x3d6a1b0c	0.0571547
188	0xbd257b96	-0.040401064
189	0xbd1be744	-0.03806235
190	0x3c9ddbcb	0.019269845
191	0xbbb6791e	-0.0055686375
192	0xbdd5a7e6	-0.10432415
193	0xbd8b29c4	-0.067950755
194	0x3c9fe5b9	0.01951872
195	0xbe22b7ce	-0.15890428
196	0xbd9abc95	-0.075555004
197	0x3c8ef5e1	0.017451229
198	0x3d8474e7	0.0646761
199	0x3dfd6d73	0.123743914
200	0xbde3b0a8	-0.11117679
201	0x3d899f93	0.067198895
202	0x3ddd6635	0.1081051
203	0x3dde3bb6	0.10851233
204	0xbe3bd305	-0.18342216
205	0xbdc4a6ac	-0.09602103
206	0xbe467e9e	-0.19384238
207	0xbe2a4a62	-0.16629937
208	0x3e540555	0.20705159
209	0x3d0d3feb	0.034484785
210	0x3e49c2ab	0.19703166
211	0xbcdcc1ec	-0.026947938
212	0x3a9190fd	0.0011105832
213	0xbdfc72d8	-0.12326592
214	0x3d881698	0.066449344
215	0xbdb78eec	-0.08962807
216	0xbd9fd472	-0.078041926
217	0xbe32f1f5	-0.17475112
218	0xbcebc419	-0.02878003
219	0x3e1af62c	0.1513297
220	0x3c9d958b	0.019236347
221	0xbe1ab2de	-0.15107295
222	0xbda02e2c	-0.078213066
223	0xbd9c0967	-0.07618981
224	0xbdee60d8	-0.11639565
225	0x3e1de4d8	0.15419328
226	0x3cdfe090	0.02732876
227	0x3d51069c	0.051031694
228	0xbe02bffc	-0.12768549
229	0xbdfe7072	-0.12423791
230	0xbd04d07b	-0.032425385
231	0x3c90251b	0.017595818
232	0x3c79a7f5	0.015237798
233	0xbdd25fa7	-0.102721505
234	0x3e1743d6	0.14771971
235	0xbd437dbe	-0.04772734
236	0xbd5c8df9	-0.053846333
237	0xbc87e0fc	-0.016586773
238	0x3e7a078c	0.24416941
239	0x3d9f8cc6	0.07790522
240	0xbe1980c5	-0.14990528
241	0xbe1b32d4	-0.15156108
242	0xbe2f9867	-0.1714798
243	0xbe6e01e5	-0.2324291
244	0xbdf4d9d1	-0.11955608
245	0x3dec85af	0.115489356
246	0x3e2efe81	0.17089273
247	0x3e37726d	0.17914744
248	0xbdd3004f	-0.10302793
249	0x3ddb6154	0.10711923
250	0xbda8225f	-0.08209681
251	0x3df4561a	0.11930485
252	0x3e2ef178	0.170843
253	0x3e38ab3f	0.18034075
254	0x3e2a2557	0.16615807
255	0x3e12c292	0.14332035

down2.bias f4 [16]
0	0xbe7360a7	-0.23767339
1	0x3e067d52	0.13133743
2	0xbda911f5	-0.08255378
3	0xbd58df70	-0.05294746
4	0x3e3221e5	0.17395742
5	0x3e5193a6	0.2046648
6	0xbe527853	-0.20553713
7	0x3e3e13cf	0.18562244
8	0x3e2df353	0.16987352
9	0x3d8b6719	0.06806774
10	0x3e3f7612	0.18697384
11	0xbe1eae16	-0.15496096
12	0xbdbd6c6a	-0.09249194
13	0xbca01f03	-0.019546038
14	0x3da2edd5	0.07955519
15	0xbc8e9fe8	-0.017410234

conv31.weight f4 [16, 16, 3, 3]
0	0xbcf64fda	-0.030067373
1	0xbd6f6377	-0.058444466
2	0xbd152ae7	-0.036417868
3	0xb9a26f64	-0.0003098204
4	0xbd968266	-0.0734909
5	0xbae68178	-0.0017586192
6	0xbd143d4e	-0.036191277
7	0xbd25b825	-0.040458817
8	0x3d0dd96b	0.034631174
9	0x3d48969b	0.048971754
10	0x3da5c4f7	0.08094209
11	0xba1e2548	-0.0006032777
12	0xbc8ea10d	-0.01741078
13	0x3d9241dd	0.07141469
14	0x3c0839ad	0.008314532
15	0x3c8bcf24	0.017066546
16	0xbd1466c2	-0.03623081
17	0x3cb7ed90	0.022452146
18	0xbcfd73d3	-0.030939018
19	0x3d315394	0.043292597
20	0x3d5331ab	0.05156104
21	0xbd12c22d	-0.03582971
22	0xbd44d4c2	-0.048054464
23	0xbd7e09ad	-0.062020946
24	0x3de46c61	0.11153484
25	0x3da733c1	0.08164168
26	0x3bf9b1a4	0.0076200534
27	0x3d2268e9	0.03965083
28	0xbd255030	-0.040359676
29	0xbd9e7b20	-0.07738328
30	0xba9e3e03	-0.0012072924
31	0x3ce09931	0.027416797
32	0x3dc17741	0.09446574
33	0xbd14bb46	-0.03631141
34	0x3d60beda	0.05486951
35	0x3d6399c9	0.055566583
36	0x3dfddea4	0.12395981
37	0xbd5aca63	-0.053415667
38	0x3d25bf91	0.040465895
39	0x3b18c346	0.0023309751
40	0x3df309a9	0.11867077
41	0xbcc21dd5	-0.023695866
42	0xbbb68bdc	-0.0055708718
43	0x3d9904ce	0.074716195
44	0xbca6e16c	-0.020371161
45	0xbcd0660b	-0.025439283
46	0xbcb12e09	-0.021628397
47	0x3bb1f6a8	0.005431015
48	0x3de28148	0.11059815
49	0xbcdc8b97	-0.02692203
50	0x3d15977e	0.036521427
51	0x3d89a9d6	0.06721847
52	0x3c4d16a2	0.012517603
53	0x3c3476f3	0.011014688
54	0xbdd1887b	-0.1023111
55	0xbdbbad06	-0.09163861
56	0xbd10e2b5	-0.035372455
57	0xbde97db4	-0.11400929
58	0xbd3fe8b6	-0.04685279
59	0x3bf0fefc	0.0073546153
60	0xbdc083b5	-0.09400121
61	0xbd3a62c4	-0.045504346
62	0xbc7b0426	-0.015320813
63	0x3d0c11b8	0.034196585
64	0xbcfdab1c	-0.03096538
65	0x3bac11c7	0.0052511427
66	0x3ccca587	0.024981273
67	0x3cf1995d	0.029492075
68	0xbb2d64d5	-0.0026457806
69	0x3bb77c25	0.005599516
70	0xbc33d09b	-0.010975028
71	0x3b8fae9a	0.004384828
72	0xbaa8842f	-0.0012856777
73	0x3cb0cf07	0.021583093
74	0xbbb28f34	-0.0054492
75	0x3d9e0576	0.07715885
76	0x3cc84108	0.024445072
77	0x3d5c33d7	0.053760376
78	0x3d56cb34	0.052439883
79	0xbd35c3ca	-0.044376172
80	0x3d233e1b	0.03985415
81	0xbb6fd2f9	-0.0036594255
82	0x3c023a7e	0.007948516
83	0xbcbfe385	-0.02342392
84	0x3c7e6b72	0.015528547
85	0xbca795f3	-0.020457244
86	0x3d92ee97	0.07174414
87	0x3dd48a44	0.103779346
88	0x3d332c4e	0.043743424
89	0x3da92969	0.082598515
90	0xbcc53328	-0.024072245
91	0x3d15b431	0.036548797
92	0x3d839d63	0.064265035
93	0x3dc11922	0.09428622
94	0xbd779c5e	-0.060451858
95	0x3cd00466	0.025392722
96	0xbc2c753f	-0.0105260005
97	0x3a3464cc	0.0006881475
98	0xbcb14eb3	-0.021643972
99	0xbe05e261	-0.13074638
100	0xbdc855c1	-0.09781981
101	0xbd2cbbb7	-0.042171206
102	0xbccc2666	-0.024920654
103	0x3ce370e7	0.027763797
104	0xbd3bb28c	-0.045824572
105	0xbdcffe87	-0.10155969
106	0xbca454b7	-0.020059926
107	0xbd5ed667	-0.05440369
108	0xbd81ad88	-0.063319266
109	0xbbaffea6	-0.0053709326
110	0xbd361bc2	-0.044460066
111	0xbe2bf872	-0.16793993
112	0xbd2ed3a3	-0.0426823
113	0x3bbb1836	0.0057096733
114	0xbcbc2d74	-0.022970892
115	0xbd92bcec	-0.0716494
116	0xbd881704	-0.06645015
117	0x3db12082	0.086487785
118	0x3cd373e0	0.02581209
119	0xbcadf4aa	-0.021234829
120	0x3beb27bd	0.007176368
121	0xbd09b540	-0.03362012
122	0x3d80bc54	0.06285921
123	0x3d10d533	0.035359573
124	0x3d9ea434	0.07746163
125	0x3d9cd97c	0.07658669
126	0x3d921360	0.07132602
127	0x3d3d632f	0.046237167
128	0xba0acef1	-0.0005295119
129	0x3de70e2c	0.11282
130	0xbd6a6274	-0.0572228
131	0x3cd123dc	0.025529794
132	0x3d3caeaa	0.04606501
133	0x3d7ea078	0.062164754
134	0xba6a2b9f	-0.00089328917
135	0xbdbf7b07	-0.093496375
136	0xbd28c391	-0.04120213
137	0x3d03b2cb	0.032152932
138	0xbde4deff	-0.11175346
139	0xbd8fe565	-0.070261754
140	0xbc83ca75	-0.01608775
141	0xbdaf5ce0	-0.085626364
142	0x3c5e27f8	0.013559334
143	0x3d6809a7	0.05664983
144	0xbd556e9e	-0.052107446
145	0x3d9a3ec1	0.075315006
146	0xbc969e44	-0.018386014
147	0xbdb4d253	-0.08829179
148	0xbd15d098	-0.036575884
149	0xbd2654dc	-0.040608272
150	0xbde68a1d	-0.11256812
151	0xbdbe54ab	-0.09293493
152	0xbd9b900d	-0.07595835
153	0x3daddbd3	0.08489194
154	0x3d9cd275	0.07657329
155	0x3d9781e2	0.0739782
156	0x3e093d87	0.13402377
157	0x3c9b3d46	0.018950116
158	0x3c368fac	0.0111426525
159	0x3ccae2a4	0.024766274
160	0x3d9589d2	0.07301678
161	0xbd855a11	-0.065113194
162	0x3dba4131	0.090944655
163	0x3cbd6f60	0.023124397
164	0x3cb097da	0.021556783
165	0x3da0f3f0	0.078590274
166	0xbd15d292	-0.03657777
167	0x3d850d9d	0.06496737
168	0x3dcd3995	0.100207485
169	0x3d98988b	0.0745097
170	0x3ca5760b	0.020197889
171	0x3c726658	0.014794908
172	0x3d8774f2	0.066141024
173	0x3d7cc154	0.06170781
174	0x3cd975eb	0.026545485
175	0xbb43d919	-0.002988404
176	0x3d9dc1da	0.0770299
177	0xbd04bea0	-0.032408357
178	0x3d29b527	0.041432526
179	0x3daa7612	0.083233014
180	0x3cee29d4	0.02907268
181	0xbdc92cf6	-0.09823029
182	0xbdc53edd	-0.09631131
183	0x3d203a01	0.039117817
184	0xbd25e01d	-0.040496934
185	0xbdcf8616	-0.10132997
186	0x3d9cc96d	0.076556064
187	0x3c58e47c	0.013238069
188	0xbde6e733	-0.112745665
189	0x3d8c4d08	0.0685063
190	0x3caedce7	0.021345569
191	0xbd151640	-0.036398172
192	0x3dbebd43	0.093134426
193	0xb9a8c728	-0.0003219184
194	0xbceaffd6	-0.028686445
195	0x3d953a41	0.07286502
196	0x3cad29ed	0.021138156
197	0x3de62077	0.11236661
198	0xbcaa1fed	-0.020767177
199	0x3d9348c1	0.07191611
200	0x3cda973f	0.026683448
201	0xbcf7d4d1	-0.030252846
202	0x3cff2c21	0.031148972
203	0x3cadfaf7	0.021237833
204	0xbe01224f	-0.12610744
205	0xbd8e0511	-0.0693456
206	0xbcecf6f2	-0.028926346
207	0x3d380d06	0.044934295
208	0x3cceb0a2	0.02523071
209	0x3c98604c	0.018600605
210	0x3de4342e	0.11142765
211	0x3c60f978	0.013731353
212	0xbd1887e7	-0.03723898
213	0x39f5d65f	0.0004688976
214	0xbd20e062	-0.039276488
215	0xbd1500dc	-0.036377773
216	0x3da6584f	0.08122312
217	0x3d31a669	0.04337159
218	0x3d783ca1	0.060604695
219	0x3d020795	0.031745512
220	0xbbf99007	-0.0076160464
221	0xbd0cc24b	-0.03436498
222	0x3d977523	0.07395389
223	0x3d5b09bc	0.05347608
224	0x3c306ac3	0.0107676415
225	0x3d874769	0.06605417
226	0x3c733321	0.014843733
227	0x3ca2515e	0.01981419
228	0x3d23628c	0.039888903
229	0xbd3a3d71	-0.04546875
230	0x3c28544f	0.010274007
231	0x3d8fe3d1	0.070258744
232	0xbbfe5b1d	-0.0077623264
233	0x3d417f32	0.047240444
234	0x3d455ad3	0.04818232
235	0xbc47fb46	-0.012205904
236	0xbd4b1c7a	-0.049587704
237	0x3ce94625	0.02847583
238	0xbdaea10c	-0.08526811
239	0x3af7fa01	0.0018919111
240	0x3d4b13aa	0.0495793
241	0x3d49776b	0.04918615
242	0xba08199b	-0.0005191804
243	0xbdd0b8f2	-0.101915255
244	0xbd3b1ea2	-0.04568351
245	0x3d068fc9	0.032851968
246	0xbe1a5b42	-0.15073875
247	0xbc87b030	-0.016563505
248	0xbb83c578	-0.004021343
249	0xbe33c29b	-0.17554705
250	0xbd64ca48	-0.055856973
251	0xbdc708fe	-0.09718512
252	0xbd9f6d48	-0.077845156
253	0xbcf88300	-0.030335903
254	0xbd3c2b7d	-0.04593991
255	0x3c42f7aa	0.011899868

conv31.bias f4 [16]
0	0x3e0c643e	0.13710114
1	0x3dd0d4a1	0.10196806
2	0x3df4ed0d	0.11959276
3	0x3d93f17c	0.07223794
4	0x3dff3326	0.12460928
5	0x3d98db7e	0.0746374
6	0x3e2bf19f	0.1679139
7	0x3da283b9	0.0793528
8	0x3d088c35	0.033336837
9	0x3c6ba10c	0.014381658
10	0x3e1d4342	0.15357688
11	0x3c65a4d5	0.01401635
12	0x3d9e8c64	0.07741621
13	0x3d4e65b2	0.050389953
14	0x3d0a1917	0.033715334
15	0x3d66a273	0.056307267

up2.weight f4 [16, 8, 2, 2]
0	0xbe19d088	-0.15020955
1	0x3d015d35	0.03158303
2	0x3bf5fa6a	0.0075066583
3	0xbd837a97	-0.064198665
4	0x3db550b5	0.08853284
5	0x3db59144	0.08865598
6	0xbe350dac	-0.17680997
7	0xbe3c63e4	-0.1839748
8	0x3dd8aa64	0.105793744
9	0xbdc0f495	-0.0942165
10	0x3d3d987b	0.046287995
11	0xbd26d91e	-0.040734403
12	0x3c355956	0.011068663
13	0xbe06b1f0	-0.13153815
14	0xbca89b2a	-0.0205818
15	0xbdb9b2bb	-0.09067293
16	0xbd94f773	-0.0727376
17	0xbdd66ba6	-0.10469751
18	0x3d1db28b	0.03850035
19	0x3de30f1a	0.11086865
20	0xbc10755a	-0.008817041
21	0xbbb50dad	-0.005525312
22	0x3e168503	0.14699177
23	0x3e269b50	0.16270185
24	0xbd35a10a	-0.044343032
25	0xbe2141b8	-0.15747726
26	0x3d3a2d9b	0.04545365
27	0x3d346e69	0.044050608
28	0xbe143e8f	-0.14476989
29	0xbdfeb100	-0.12436104
30	0x3d4ed229	0.050493393
31	0x3e37968a	0.1792852
32	0xbe210185	-0.15723236
33	0xbd04e3c4	-0.032443777
34	0x3c419a60	0.011816591
35	0xbe17d28f	-0.14826415
36	0xbe482bcd	-0.19547959
37	0x3d599c3d	0.053127516
38	0x3d84604f	0.06463682
39	0xbe6d77f7	-0.23190294
40	0x3d43cca4	0.047802582
41	0xbe130597	-0.14357601
42	0x3dafaef4	0.085782915
43	0xbd8a1b94	-0.06743541
44	0xbe1d5ddf	-0.1536784
45	0xbe2a0fcd	-0.1660759
46	0xbd2fe8f8	-0.042946786
47	0x3d2d5371	0.042315904
48	0xbd10c1b8	-0.035340995
49	0x3c662c85	0.0140487
50	0x3e0c165c	0.13680404
51	0x3cfb0c1e	0.030645426
52	0x3c6b059a	0.014344597
53	0x3c749653	0.014928418
54	0xbc75ded4	-0.01500674
55	0x3e29b445	0.16572674
56	0x3d803fff	0.06262206
57	0xbe0494e5	-0.12947424
58	0x3e5c15c4	0.21492678
59	0x3e106153	0.14099626
60	0xbccd0e0d	-0.025031114
61	0x3e32c368	0.17457354
62	0x3cfc71e1	0.03081602
63	0x3e1548f0	0.14578605
64	0xbe1df384	-0.15424925
65	0x3e22b4ba	0.15889254
66	0x3e32f3ef	0.17475866
67	0xbe002c6d	-0.12516947
68	0xbe37d308	-0.17951596
69	0xbd990fe0	-0.07473731
70	0xbe03e280	-0.12879372
71	0x3b567128	0.0032721255
72	0x3da4c461	0.08045269
73	0xbc1f3582	-0.009717347
74	0x3e0aeafd	0.13566203
75	0x3c408cea	0.0117523465
76	0xbd8ff515	-0.070291676
77	0xbe3c0183	-0.18359952
78	0x3d135998	0.035974115
79	0xbe46a3c3	-0.19398408
80	0x3bae0469	0.0053105843
81	0x3c08f8a2	0.00836006
82	0xbdd18bfa	-0.102317765
83	0x3d45ba55	0.048273403
84	0x3ceaef3d	0.02867853
85	0x3ded8eeb	0.11599525
86	0x3de4dc66	0.1117485
87	0xbdfe6665	-0.12421874
88	0xbe1b0d20	-0.15141726
89	0xbda35a2f	-0.079761855
90	0xbdfcc689	-0.12342555
91	0x3d397309	0.04527572
92	0xbe000de8	-0.12505305
93	0xbdd4d22b	-0.10391649
94	0x3d9d2dce	0.07674752
95	0x3dddaead	0.108243324
96	0xbd4a1c49	-0.04934338
97	0xbe2dffbc	-0.16992086
98	0x3cfe4d83	0.03104282
99	0x3dd0d3f1	0.101966746
100	0x3e1d1da3	0.15343337
101	0x3d3e4ec8	0.04646185
102	0x3e080ea6	0.13286838
103	0xbdfe2e50	-0.12411177
104	0x3e34936c	0.17634362
105	0xbdc820c0	-0.097718716
106	0xbdf08467	-0.11744004
107	0x3e11e655	0.14248021
108	0xbcff2f85	-0.031150589
109	0x3df027e8	0.117263615
110	0xbe05e2ac	-0.1307475
111	0x3e0554a1	0.13020565
112	0x3e4592d8	0.19294298
113	0x3dbe38a4	0.09288147
114	0x3e2cd3f5	0.1687773
115	0xbdb929a6	-0.09041147
116	0xbcfa3c8e	-0.030546453
117	0x3d8f3196	0.0699188
118	0x3de29202	0.11063005
119	0xbd9fadf6	-0.07796852
120	0x3dcf93d0	0.10135615
121	0xbd858e94	-0.06521335
122	0xbdd6facf	-0.10497057
123	0x3c9aba9e	0.018887814
124	0xbe1a66a8	-0.15078223
125	0xbe52dbbb	-0.20591633
126	0x3cd1f35d	0.02562874
127	0x3d71a324	0.058993474
128	0x3d8871b9	0.06662316
129	0xbc7ad808	-0.015310295
130	0xbdeacb58	-0.11464566
131	0xbdfbdea8	-0.12298328
132	0x3e18d044	0.14923197
133	0xbe3fd915	-0.18735154
134	0x3ccf7e6a	0.025328834
135	0x3dd00040	0.10156298
136	0x3e11e5e9	0.1424786
137	0xbde00dcc	-0.109401315
138	0xbd7137a5	-0.058890957
139	0xbe0c9745	-0.1372958
140	0x3dc6f637	0.097149305
141	0xbe4a1c1c	-0.19737285
142	0xbe3c7c1b	-0.18406717
143	0xbe16cf64	-0.1472755
144	0x3e1c36a7	0.15255223
145	0x3dd5043b	0.104011975
146	0x3de5facd	0.11229477
147	0x3e0b165e	0.13582751
148	0xbda1cbed	-0.07900224
149	0xbdbfb621	-0.0936091
150	0xbddf5e71	-0.10906685
151	0x3d87a2b8	0.06622833
152	0x3d2e0c95	0.042492468
153	0x3c4786bf	0.012178122
154	0xbe094a75	-0.1340731
155	0x3c20d41f	0.009816199
156	0xbdcb90d2	-0.09939732
157	0xba44b2fb	-0.0007503477
158	0xbb7b70ce	-0.0038366797
159	0x3d517ded	0.051145483
160	0xbe1c4baf	-0.15263246
161	0x3e750a2c	0.23929662
162	0x3c5efbdd	0.013609854
163	0xbcc12790	-0.023578435
164	0x3d068de9	0.03285018
165	0xbcb8dc21	-0.022565903
166	0x3d1d1602	0.038351066
167	0x3b607ac8	0.003425287
168	0x3e465bbf	0.19370936
169	0xbbf33d94	-0.007423112
170	0x3dec3a2e	0.115345344
171	0xbca0e340	-0.019639611
172	0xbe3ec5c4	-0.18630129
173	0xbba2046e	-0.0049443757
174	0xbd23b5ce	-0.039968304
175	0xbd8f5bb2	-0.06999911
176	0xbdb7cd26	-0.08974676
177	0x3d111a8f	0.03542572
178	0x3de1d75b	0.11027404
179	0x3d125ce1	0.035733107
180	0x3cd6d78b	0.026225826
181	0x3ddfeff6	0.10934441
182	0xbe640a38	-0.22269523
183	0xbc9bcbb5	-0.019018034
184	0xbdebccf0	-0.11513698
185	0xbe188fc1	-0.14898588
186	0x3e1bd9bf	0.15219782
187	0x3e6216bc	0.22078985
188	0x3d878982	0.066180244
189	0x3e061fb4	0.13098031
190	0xbd8db848	-0.069199145
191	0x3e06a5b5	0.1314915
192	0xbd7baa66	-0.0614418
193	0xbdd3f3b3	-0.10349216
194	0x3d841b36	0.064505026
195	0x3ca2da42	0.019879464
196	0xbd3c5062	-0.045975097
197	0x3d9a380c	0.07530221
198	0x3d99d403	0.07511141
199	0x3e1b6b36	0.15177616
200	0xbc455ec2	-0.012046518
201	0xbd5e5b8f	-0.054286536
202	0xbd3b66ed	-0.045752455
203	0x3d36c833	0.04462452
204	0xbe13ddc8	-0.14440072
205	0xbd8b24fa	-0.06794162
206	0xbe3cf64a	-0.18453327
207	0xbe387065	-0.18011625
208	0xbe05caca	-0.13065639
209	0x3df79ed3	0.1209084
210	0xbdeba4a0	-0.11506009
211	0x3bbfa10b	0.0058480552
212	0x3cb96c3a	0.022634614
213	0x3e31b4c8	0.17354119
214	0x3d6837bb	0.056693774
215	0xbdd2fd6e	-0.10302244
216	0x3daac9b6	0.083392546
217	0xbe7066ee	-0.23476765
218	0x3a2ec146	0.0006666373
219	0x3e02506e	0.12725994
220	0x3e340ed3	0.1758378
221	0xbca3b92c	-0.019985758
222	0xbd8015e1	-0.06254173
223	0x3de1d118	0.110262096
224	0x3d1369be	0.035989515
225	0xbe52326f	-0.20527051
226	0xbe1d8e9e	-0.15386435
227	0xbe65242b	-0.22377078
228	0x3e46f411	0.19429041
229	0x3e3d2ef1	0.18474938
230	0x3e6885cd	0.22707291
231	0x3db02360	0.08600497
232	0xbe62aa87	-0.22135364
233	0xbbe83fda	-0.00708769
234	0xbd8e7342	-0.069555774
235	0xbd5a5e84	-0.053312793
236	0x3e31cf7a	0.17364302
237	0xbd11da99	-0.03560886
238	0x3dcb1e6e	0.099179134
239	0xbd82fe6c	-0.06396183
240	0xbcfda5de	-0.03096288
241	0xbd0515d1	-0.03249151
242	0x3d65d003	0.05610658
243	0xbad32b32	-0.0016110896
244	0x3c7f1a5e	0.015570251
245	0x3df386cb	0.11890944
246	0x3e31ffcf	0.1738274
247	0x3da81cba	0.08208604
248	0xbdd78213	-0.105228566
249	0xbdad370e	-0.084577665
250	0x3dafb3d9	0.08579225
251	0xbe7d7e75	-0.24755271
252	0x3d3dadb8	0.04630825
253	0xbe4c4f25	-0.19952066
254	0xbe0459a7	-0.12924825
255	0xbd6a94f3	-0.057270955

up2.bias f4 [8]
0	0xbc85383e	-0.01626217
1	0x3d6cff24	0.05786051
2	0xbc88d19e	-0.016701516
3	0x3d991087	0.074738555
4	0x3dcea931	0.100908644
5	0x3e0e2a44	0.1388331
6	0x3d9977d5	0.07493559
7	0xbdd9bbc9	-0.1063152

conv22.weight f4 [8, 8, 3, 3]
0	0xbdb6353c	-0.088968724
1	0x3cf14d6f	0.029455869
2	0x3db9901b	0.09060689
3	0xbe14e200	-0.14539337
4	0xbc8587ae	-0.016300049
5	0xbd6be851	-0.0575946
6	0x3ddfee4f	0.10934126
7	0x3d70a9d5	0.058755714
8	0x3d946c91	0.0724727
9	0x3cca3894	0.024685182
10	0xbd369f6c	-0.04458563
11	0x3db7342f	0.089455
12	0xbd811b45	-0.063040294
13	0x3d150527	0.036381867
14	0xbd303b72	-0.04302544
15	0xbdf5711a	-0.11984463
16	0xbdf0a1fd	-0.11749647
17	0x3cd36ef8	0.02580975
18	0xbd69ad34	-0.057049945
19	0xbc1c59f6	-0.009542933
20	0xbc799ec3	-0.015235606
21	0x3d03cd97	0.032178488
22	0xbd8473a8	-0.06467372
23	0x3df48c3c	0.1194081
24	0xbddf9f7d	-0.10919092
25	0x3d983064	0.07431105
26	0xbd565f12	-0.05233676
27	0xbde6e04e	-0.112732515
28	0xbcea415a	-0.028595615
29	0x3dbff69a	0.093732074
30	0x3dbb643d	0.09149978
31	0x3c963d24	0.018339701
32	0x3d920dff	0.07131576
33	0xbd9ee0e3	-0.077577375
34	0x3d2c251a	0.04202757
35	0x3d4e1206	0.050310157
36	0xbdd7a46f	-0.1052941
37	0xbdda7b8d	-0.10668097
38	0x3da5888a	0.080826834
39	0xbdb5a130	-0.08868635
40	0xbc768577	-0.015046469
41	0xbd9abc42	-0.075554386
42	0x3dd0440e	0.101692304
43	0x3ca568d2	0.020191584
44	0x3ca3331b	0.01992183
45	0xbe13652c	-0.14394063
46	0x3d9ce0d7	0.07660072
47	0xbdd311b0	-0.10306108
48	0x3c7d8f4d	0.01547606
49	0xbcdad28b	-0.026711723
50	0xbccd77a6	-0.025081467
51	0x3d223285	0.03959896
52	0xbd34544b	-0.0440257
53	0xbd3cd28b	-0.046099227
54	0x3d68be28	0.056821972
55	0xbdb85510	-0.090005994
56	0x3c8f3173	0.017479634
57	0xbcc2c948	-0.023777619
58	0xbda2c11a	-0.079469875
59	0x3d859963	0.06523397
60	0xbc6270fb	-0.013820882
61	0xbdd60a64	-0.104512006
62	0x3da3ed8b	0.08004292
63	0xbd8e39bb	-0.06944605
64	0x3e0acc5b	0.13554518
65	0xbd5f5ea5	-0.05453362
66	0x3d9f645d	0.07782815
67	0xbdac61dc	-0.08417103
68	0xbd3728a9	-0.04471651
69	0x3c866495	0.016405383
70	0xb989988f	-0.0002624434
71	0xbd77fa2a	-0.06054131
72	0x3d88bda9	0.066768
73	0x3dc8e718	0.09809703
74	0x3bc80176	0.00610369
75	0x3e04a173	0.12952213
76	0xbc149eba	-0.0090710465
77	0xbd8a54a5	-0.06754426
78	0xbdb45b49	-0.08806474
79	0x3da38bac	0.07985625
80	0xbd384f3f	-0.04499745
81	0x3dc49ce5	0.09600238
82	0xbe5e5e07	-0.21715556
83	0x3c11c453	0.008896905
84	0xbe028232	-0.12744978
85	0x3c987164	0.018608756
86	0x3d95752a	0.07297738
87	0x3d5b3dfd	0.053525914
88	0xbdce7d4f	-0.100824945
89	0xbe1f724b	-0.15570943
90	0x3ce7eba9	0.028310614
91	0xbe0e2014	-0.13879424
92	0x3e26dede	0.16295955
93	0xbdde9c60	-0.1086967
94	0x3db8a397	0.09015577
95	0x3d3e0359	0.04638991
96	0x3dd71f27	0.10503989
97	0xbe32df86	-0.1746808
98	0xbc0d65eb	-0.008630256
99	0xbdbece78	-0.093167245
100	0x3c23383d	0.009962139
101	0xbd5815c0	-0.052755117
102	0xbd942c95	-0.07235066
103	0x3d17cae3	0.037058722
104	0xbcb85d4d	-0.022505427
105	0x3bc340a2	0.0059586326
106	0xbd9e1ea4	-0.07720688
107	0x3d3bf550	0.045888245
108	0x3dbf2fa7	0.09335261
109	0x3db24de7	0.08706265
110	0x3dbeaf45	0.09310774
111	0xbcd3ba71	-0.025845738
112	0x3d569e47	0.05239704
113	0x3dc5f43e	0.09665726
114	0xbdb53095	-0.08847157
115	0x3cd82234	0.026383497
116	0x3db4f81d	0.08836386
117	0x3cdcb966	0.026943874
118	0x3cc5f953	0.024166739
119	0x3cc081ea	0.023499448
120	0xbd1d77bb	-0.038444262
121	0x3dd32475	0.10309688
122	0xbc066bf8	-0.008204453
123	0xbd4ec2d4	-0.05047877
124	0x3d79f2f0	0.0610227
125	0xbddf95e4	-0.10917261
126	0x3d553235	0.052049834
127	0xbd2695c3	-0.040670168
128	0x3c502fef	0.012706741
129	0xbc5902bb	-0.01324528
130	0xbda0a893	-0.07844653
131	0xbdd42b50	-0.10359824
132	0xbc02f677	-0.007993332
133	0x3d6e45fa	0.058172204
134	0x3d868dc7	0.06570011
135	0xbd68f9f4	-0.056879
136	0xbc1cff8c	-0.0095824115
137	0x3ce94087	0.028473152
138	0x3d54c19c	0.051942453
139	0x3e06365e	0.13106677
140	0xbe06c98a	-0.13162819
141	0x3e201779	0.15633954
142	0xbd391c04	-0.045192733
143	0x3c6d3f73	0.0144804595
144	0x3d8ce35e	0.06879304
145	0x3e051903	0.12997822
146	0x3d08f93e	0.03344082
147	0xbdcafda5	-0.0991166
148	0xbd249168	-0.040177733
149	0x3dbd8db0	0.0925554
150	0xbcf85473	-0.030313706
151	0xbd8b3ce1	-0.06798721
152	0xbdcecffa	-0.10098262
153	0xbe297f05	-0.1655236
154	0xbde3fb84	-0.11131957
155	0x3d25db9d	0.040492643
156	0xbd1db0eb	-0.0384988
157	0x3d8d41fe	0.06897353
158	0x3e037b34	0.12839967
159	0xbde1a97d	-0.110186554
160	0x3bee410d	0.0072709383
161	0x3da6cc5f	0.081444494
162	0xbe2720d2	-0.16321114
163	0x3db57b3e	0.08861397
164	0xbdc08e81	-0.094021805
165	0x3ddcebd7	0.107871704
166	0xbd248a1e	-0.04017078
167	0x3ceb168b	0.028697273
168	0xbd889efa	-0.066709474
169	0x3d8b2700	0.06794548
170	0x3b7f7ebc	0.0038985452
171	0xbe2dd0c8	-0.16974175
172	0xbcc5b587	-0.02413441
173	0x3cbd7e4e	0.023131516
174	0xbe110ad4	-0.14164287
175	0xbe136905	-0.1439553
176	0xbdf545ac	-0.119761795
177	0xbe077330	-0.13227534
178	0xbd8e6000	-0.06951904
179	0xbc524539	-0.012833887
180	0x3d3b7609	0.045766864
181	0x3d0c941d	0.03432094
182	0x3e0b8968	0.13626635
183	0x3c84e90b	0.016224405
184	0xbcff56ef	-0.031169383
185	0xbc12ec03	-0.008967402
186	0xbd951873	-0.07280054
187	0xbc8b9b53	-0.017041838
188	0xbd9fd19a	-0.0780365
189	0x3d65fbb6	0.056148253
190	0xbda3b6d7	-0.07993858
191	0x3d65eae6	0.05613222
192	0x3db7942e	0.0896381
193	0xbdb06197	-0.08612364
194	0xbd5cd0ea	-0.053910173
195	0xbdb3cc25	-0.08779172
196	0x3cd6d05d	0.026222402
197	0x3cdf6198	0.027268216
198	0xbde005a5	-0.109385766
199	0x3ddcec46	0.10787253
200	0x3c90a2d5	0.01765577
201	0xbe1be1ab	-0.15222804
202	0xbde673ee	-0.112525806
203	0xbe15eabb	-0.14640324
204	0xbe0ce60f	-0.13759635
205	0x3d6b0231	0.057375137
206	0xbdc75fc3	-0.09735062
207	0xbda4ee41	-0.08053256
208	0x3e0a6a7e	0.13517186
209	0xbda34fd3	-0.0797421
210	0x3babdc07	0.005244735
211	0x3cfafa73	0.030637002
212	0x3dffc847	0.12489372
213	0x3e0899e3	0.13339953
214	0x3bc4e072	0.0060082013
215	0x3d9bc896	0.07606618
216	0xbdb4d80f	-0.088302724
217	0xbcdb917c	-0.02680277
218	0xbd3af2fe	-0.04564189
219	0x3c881a88	0.016614214
220	0xbd94fea2	-0.0727513
221	0xbcba7445	-0.02276052
222	0x3da4eb62	0.08052708
223	0x3d74b44b	0.059742253
224	0xbce47a59	-0.027890371
225	0x3d0a7a92	0.0338083
226	0xbdd89722	-0.10575701
227	0xbd1741b9	-0.036927912
228	0xbd31b98e	-0.04338985
229	0xbc6c56c9	-0.014424988
230	0x3cc8070d	0.024417425
231	0xbe2390ef	-0.15973257
232	0x3d8043ef	0.06262957
233	0xbdf7d0ef	-0.12100398
234	0xbdeee8b7	-0.116654806
235	0x3c32227a	0.010872478
236	0xbde57d09	-0.11205489
237	0xbd73cc21	-0.059520844
238	0xbe11f999	-0.1425537
239	0x3df02604	0.11726001
240	0x3d0a1f04	0.033720985
241	0xbcaa3689	-0.020777958
242	0x3cfa1ceb	0.030531367
243	0xbe28fa50	-0.16501737
244	0xbe37bc24	-0.17942864
245	0xbdeb03dd	-0.11475346
246	0xbe42d94c	-0.19028205
247	0x3c9da708	0.019244686
248	0xbdb4d5d5	-0.08829848
249	0xbdcd6535	-0.10029069
250	0xbe365a14	-0.178078
251	0xbc86f34c	-0.016473435
252	0x3d18f48c	0.037342593
253	0xbd2d506a	-0.042313017
254	0x3e020c77	0.12700067
255	0x3e0b09e3	0.1357799

conv22.bias f4 [8]
0	0xbba91eba	-0.0051611336
1	0x3c3ae90e	0.011408104
2	0x3d65ae37	0.056074347
3	0x3cf5f300	0.030023098
4	0xbd073d2e	-0.03301733
5	0x3bfbae39	0.007680681
6	0xbc0006b4	-0.007814098
7	0x3d402bcb	0.046916764

up1.weight f4 [8, 4, 2, 2]
0	0x3dada716	0.08479135
1	0x3e1b4294	0.15162116
2	0xbe446285	-0.19178207
3	0xbe0626a0	-0.13100672
4	0xbe5f4a6a	-0.2180573
5	0x3e17a7bd	0.14810081
6	0x3e5c43eb	0.21510284
7	0xbe537445	-0.20649822
8	0x3e028387	0.12745486
9	0x3dc9d3d3	0.098548554
10	0xbde836ae	-0.11338554
11	0x3db683d2	0.089118615
12	0x3e57a841	0.21060278
13	0x3e990cc7	0.2989256
14	0x3de3f563	0.11130788
15	0xbd97d103	-0.07412913
16	0xbdce92b8	-0.10086578
17	0xbd874ffc	-0.06607053
18	0x3d6ff48d	0.05858283
19	0x3d1f9a4e	0.038965516
20	0x3e5cb272	0.21552446
21	0xbe3f7083	-0.18695264
22	0x3d873ba4	0.066031724
23	0xbc9863f1	-0.018602343
24	0x3d6f9373	0.058490228
25	0x3e992ee5	0.2991859
26	0x3d66bf78	0.056334943
27	0x3ca29cb5	0.019850114
28	0xbcacc9c4	-0.021092303
29	0xbe90d820	-0.2828989
30	0xbe6ee8c3	-0.23330979
31	0x3e406085	0.1878682
32	0xbdf452d6	-0.11929862
33	0x3e40c058	0.18823373
34	0x3cabccdb	0.020971706
35	0x3e380fd7	0.17974792
36	0x3e634d5f	0.22197483
37	0x3ddbac94	0.10726276
38	0x3e23ef6f	0.16009305
39	0x3e96aa1c	0.29426658
40	0xbcb82e11	-0.022482904
41	0x3e603817	0.21896397
42	0xbe17f556	-0.14839682
43	0x3ea02a33	0.31282195
44	0xbcb8f126	-0.022575926
45	0xbaf8a2c6	-0.0018969409
46	0x3e1afe0f	0.15135978
47	0xbbb7ffe6	-0.0056152223
48	0x3e636d84	0.22209746
49	0xbdd2ab33	-0.1028656
50	0xbd892b28	-0.066976845
51	0x3e9650aa	0.29358417
52	0xbe326ef5	-0.17425139
53	0x3e37ce68	0.17949831
54	0x3e9935a7	0.29923746
55	0x3e5ddb35	0.21665652
56	0xbce19fd5	-0.027542034
57	0x3d51ba2a	0.05120293
58	0xbe2bec2f	-0.16789316
59	0xbd9e2542	-0.0772195
60	0xbd469f16	-0.04849156
61	0xbe1d4e8a	-0.15361992
62	0x3e262e4e	0.16228601
63	0x3e10f9da	0.14157811
64	0xbdba8734	-0.09107819
65	0xbce3b5d0	-0.027796656
66	0x3e8cb967	0.274852
67	0x3ba320ce	0.004978276
68	0x3e05ff27	0.13085614
69	0x3e64ef18	0.22356832
70	0xbd9c1a78	-0.07622236
71	0xbe735f82	-0.23766902
72	0x3e889d94	0.26682723
73	0xbe3db6ea	-0.18526807
74	0x3e41799d	0.18894048
75	0xbe13bb47	-0.1442691
76	0x3d668b00	0.056284904
77	0x3dec0fd8	0.115264595
78	0xbd09e5c4	-0.033666387
79	0x3e3c34af	0.18379472
80	0xbe565c62	-0.20933679
81	0xbd976a0c	-0.07393274
82	0xbc9dc373	-0.019258237
83	0x3e5444ae	0.20729324
84	0x3e074b24	0.13212258
85	0x3e37b47e	0.17939946
86	0x3df75fab	0.12078794
87	0x3e73cf00	0.23809433
88	0xbd28a0f1	-0.04116911
89	0xbd762fb8	-0.060104102
90	0xbcb1e757	-0.021716757
91	0x3de72319	0.11285991
92	0xbd5b2f68	-0.053512007
93	0x3dc9cfe9	0.09854109
94	0x3d8d69d5	0.069049515
95	0x3da01979	0.078173585
96	0x3e518fe5	0.20465048
97	0x3d45f44c	0.048328683
98	0x3e2e015c	0.16992706
99	0xbd8ede0f	-0.06975948
100	0xbe606d93	-0.21916799
101	0x3e227479	0.15864743
102	0x3dd8c48c	0.10584363
103	0x3e541dd7	0.20714508
104	0x3dec5925	0.115404405
105	0x3c5e5838	0.013570838
106	0xbe39f187	-0.18158542
107	0xbe752547	-0.23940001
108	0x3d76a539	0.060216162
109	0x3e4d3363	0.20039134
110	0xbce49c5e	-0.027906593
111	0xbdb6e064	-0.08929518
112	0xbc0b7d38	-0.008513741
113	0xbe87857d	-0.2646903
114	0xbb927d08	-0.0044704713
115	0xbea3249e	-0.31863874
116	0xbeb5d407	-0.35513327
117	0xbe926251	-0.28590634
118	0xbe083394	-0.13300925
119	0xbd0b18a5	-0.03395905
120	0xbc8aac78	-0.016927943
121	0xbe88b77d	-0.2670249
122	0xbe11760b	-0.14205186
123	0xbc19591b	-0.009359623
124	0xbdcef393	-0.10105052
125	0xbe0f7285	-0.1400853
126	0x3d418478	0.047245473
127	0xbe4453e2	-0.19172624

up1.bias f4 [4]
0	0x3e35e9ab	0.17764919
1	0x3e6a8477	0.22902094
2	0x3df5348c	0.11972913
3	0xbd1acff2	-0.03779597

conv13.weight f4 [2, 4, 3, 3]
0	0xbd7d857a	-0.06189487
1	0xbdb4a6eb	-0.088208996
2	0x3c55dfdd	0.013053861
3	0x3debf616	0.115215465
4	0x3e4df117	0.201115
5	0x3d9405d1	0.07227672
6	0x3e43c3c7	0.19117652
7	0xbd4ef995	-0.05053099
8	0x3d9b6590	0.07587731
9	0xbd9d9093	-0.07693591
10	0x3d27ca81	0.040964607
11	0x3dfad0e3	0.12246873
12	0x3d973760	0.07383609
13	0x3bc7b8b6	0.0060950173
14	0xbdb3dac5	-0.08781961
15	0xbe04755d	-0.12935396
16	0xbe0aa75c	-0.13540405
17	0xbe367369	-0.17817463
18	0x3e024e89	0.12725271
19	0xbda252be	-0.07925938
20	0xbd3f7706	-0.04674437
21	0xbe1b2c76	-0.15153679
22	0xbd7418ec	-0.05959408
23	0x3dec6e29	0.11544449
24	0x3d149ed6	0.03628429
25	0xbd308b1a	-0.043101408
26	0x3d5e4efa	0.054274537
27	0x3dc88409	0.09790809
28	0x3df842f9	0.12122149
29	0xbe1cae73	-0.15300922
30	0x3d44ce3b	0.04804824
31	0xbdbc35ca	-0.09189947
32	0xbe022c11	-0.12712122
33	0x3dc4b0ed	0.096040584
34	0xbe3bb444	-0.18330485
35	0xbddfd766	-0.10929756
36	0x3dc63fad	0.09680114
37	0x3e102319	0.14075889
38	0xbe3cb809	-0.18429579
39	0xbd22bf7e	-0.039733402
40	0x39ff7e5a	0.0004873153
41	0x3e1f94f9	0.15584172
42	0x3e1fb378	0.15595806
43	0x3e1eef1f	0.15520905
44	0x3e0f74b3	0.14009361
45	0xbc8be57e	-0.017077204
46	0x3e122ebf	0.14275645
47	0x3c513217	0.01276829
48	0x3d255e0b	0.04037289
49	0xbcbfc9d1	-0.023411663
50	0x3db4faf7	0.0883693
51	0x3dcd6936	0.10029833
52	0x3b6ecddd	0.0036438622
53	0x3e28b70d	0.16476078
54	0xbcab4876	-0.020908576
55	0x3d7277c6	0.059196256
56	0x3e2988f2	0.16556147
57	0x3dea7b26	0.1144927
58	0xbd353698	-0.044241518
59	0xbd7d70f6	-0.061875306
60	0x3d5bc7ba	0.05365727
61	0x3c83d7e1	0.01609415
62	0x3cdd4873	0.027012086
63	0x3df458d9	0.11931009
64	0x3db18a7a	0.086689904
65	0xbd8714aa	-0.06595738
66	0xbdaea4c5	-0.08527521
67	0x3e4cf3e0	0.20014906
68	0x3cbee562	0.023302738
69	0xbd3a2437	-0.045444693
70	0xbde2d4d5	-0.11075751
71	0x3e1b7437	0.15181051

conv13.bias f4 [2]
0	0x3e34069a	0.17580643
1	0xbd8e20a0	-0.069398165

conv14.weight f4 [2, 2, 3, 3]
0	0xbe36d218	-0.17853582
1	0x3e517249	0.20453753
2	0x3db7bfbc	0.08972117
3	0x3cad3f11	0.021148236
4	0xbe63909e	-0.22223136
5	0x3e0f36bb	0.13985722
6	0xbde85cd2	-0.11345829
7	0x3e01942f	0.12654184
8	0xbe78edde	-0.24309489
9	0xbe4275a0	-0.18990183
10	0xbe853195	-0.2601439
11	0x3e2dd85e	0.16977069
12	0x3e8c154b	0.27359995
13	0xbe61d764	-0.22054821
14	0x3e15f0b7	0.14642607
15	0xbdbc1269	-0.09183199
16	0xbe6f3bae	-0.2336261
17	0x3da1dcc9	0.079034396
18	0x3e3ecbb5	0.18632396
19	0x3e3a9104	0.18219382
20	0x3dab7e71	0.08373726
21	0x3e812f7d	0.25231543
22	0xbe28727c	-0.16449922
23	0x3df0c357	0.11756008
24	0xbd71d3dd	-0.05903994
25	0x3ca6428f	0.02029541
26	0x3e2ad798	0.16683805
27	0xbe165f88	-0.1468488
28	0x3dfc4729	0.1231826
29	0xbcec9f41	-0.028884532
30	0x3e31ee17	0.1737598
31	0x3c5d0515	0.013489981
32	0x3e09f7f4	0.13473493
33	0x3e7ee5af	0.24892305
34	0xbd80e63a	-0.06293912
35	0xbe59a1f4	-0.21253186

conv14.bias f4 [2]
0	0x3e939358	0.28823352
1	0xbdb7d1c9	-0.0897556

conv15.weight f4 [1, 2, 3, 3]
0	0x3cdd156e	0.026987758
1	0x3e122b1b	0.14274256
2	0xbcfda1d4	-0.030960955
3	0x3e1f55eb	0.15560119
4	0x3e0a2915	0.13492234
5	0xbd34ae81	-0.044111732
6	0x3d0daa85	0.03458645
7	0x3bd849b3	0.0066005825
8	0x3e5c9a13	0.2154315
9	0x3e3f7d7e	0.18700215
10	0xbe0ab641	-0.13546087
11	0x3d2047a8	0.039130837
12	0x3e1805ff	0.14846037
13	0x3e491c74	0.1963976
14	0x3dc40155	0.095705666
15	0x3dfdd449	0.12394006
16	0xbcb9201a	-0.022598315
17	0x3cd117f9	0.025524126
