output/3030_e/train/model/stn_20.pt (torch_old, 658934 bytes, 14 tensors)

conv1.weight f4 [8, 2, 5, 5]
0.10755544 0.10209339 -0.087581925 -0.1326824 0.098146066 -0.13476965 0.08080675 -0.14803249
-0.08450235 -0.07255412 0.12289098 -0.034387212 0.11110514 0.028340943 0.12376748 0.08302317
0.093070105 0.11185565 -0.053600274 -0.052629218 0.03433368 0.11294896 -0.064048626 -0.12355627
-0.124823034 -0.08333977 0.0047076736 -0.033928853 -0.054904364 -0.08278415 0.01887706 -0.13422348
0.12178326 -0.03891135 0.009918694 0.028836206 -0.07255609 0.09443509 -0.01780462 -0.0045826575
-0.15210997 0.00023806821 0.031700965 0.0033058033 -0.02980331 0.0896178 0.09490299 0.08089345
-0.040528163 0.009008123 -0.10444191 -0.11117576 -0.029653063 0.011394816 -0.08623801 -0.123577744
0.059273046 0.04718101 -0.097473614 0.090596616 -0.1111092 0.10215397 0.07087753 -0.051476784
0.13147451 -0.085858256 -0.06897929 0.10890299 -0.03968647 -0.059696928 0.015767531 -0.02944985
0.085568935 0.11257418 0.060725734 0.03096262 0.036039438 0.0042186193 0.015970362 0.002378798
0.0963827 0.07914537 -0.01544966 0.052474983 0.0071355673 0.04955538 0.11584113 -0.09638731
0.02028053 -0.030465767 -0.13904864 -0.13809173 -0.01898345 0.10101212 -0.0946426 0.044875644
0.08047447 -0.10408741 0.06006605 0.024876166 -0.13538755 -0.009059039 -0.13891393 0.11762704
0.060252905 0.047763906 0.1024643 0.10225524 0.13461278 0.052528594 -0.10844387 0.12534739
0.033490095 -0.061436627 -0.05836524 0.12598708 0.025389535 0.09697116 0.0053286147 0.124898694
-0.10995879 0.02751781 0.027756887 -0.007487483 0.11992455 0.0083003845 -0.013218284 0.0749662
-0.033309832 -0.031558216 -0.13700232 -0.022092164 -0.08784827 0.059426602 0.10028589 -0.15252276
-0.103239566 0.11416917 -0.08297394 0.10286428 0.11851348 -0.05691439 -0.13658203 0.047984835
0.04128409 0.102156326 -0.0010711116 0.054752756 -0.1439714 -0.0034982385 0.032643702 0.0881438
-0.076345004 -0.017535325 -0.08534379 -0.09589812 0.05824676 0.020729048 0.055297535 -0.0045384127
-0.0044075553 -0.006353161 0.075219214 -0.09911978 0.028827855 0.076325595 0.080783404 -0.0693831
0.107916586 -0.09630417 0.0720591 0.113985606 0.0025603634 0.041278187 -0.13646343 -0.0645932
-0.06428693 -0.14071104 -0.03923972 0.08894287 -0.022309227 0.13096172 -0.13654326 0.046953797
0.11227619 0.12859473 -0.06387305 -0.1370673 -0.061620176 0.09475502 0.003376396 0.1261217
-0.112759635 -0.09826605 0.061799258 0.03944816 -0.10102734 0.12212469 -0.06431109 -0.12781592
0.046313252 -0.07213962 -0.060160402 -0.072435066 0.04449731 0.07351908 0.102049224 -0.07267674
-0.025910426 0.13874637 -0.06531983 -0.04421654 -0.020115523 -0.117833786 -0.09730813 0.13290448
0.032759212 0.03342759 0.06339475 0.093517 0.10148812 0.10757518 0.063745774 0.11393522
0.09994865 -0.029545197 0.0033741386 -0.08659633 -0.122004315 0.117671944 -0.11136426 -0.09769462
-0.14929682 -0.12417917 0.015219895 0.060578242 -0.12910059 -0.0036261897 -0.12184893 0.008965435
0.074168555 -0.070478536 -0.08189237 0.0709975 -0.11139501 -0.04253539 -0.13778204 0.07666674
0.021339312 -0.07826252 0.10067543 0.13422787 0.058177497 -0.09935174 -0.030365517 0.11369923
00000000: 0746 dc3d 5716 d13d 275e b3bd e5dd 07be
00000010: ce00 c93d 0e01 0abe 027e a53d d495 17be
00000020: 910f adbd 4197 94bd 44ae fb3d 9bd9 0cbd
00000030: 178b e33d 442b e83c ce79 fd3d 0d08 aa3d
00000040: 8a9b be3d 9314 e53d f68b 5bbd bc91 57bd
00000050: 79a1 0c3d c951 e73d ed2b 83bd 120b fdbd
00000060: 38a3 ffbd 0bae aabd d442 9a3b fbf8 0abd
00000070: 66e3 60bd bd8a a9bd 10a4 9a3c e171 09be
00000080: 8069 f93d 8261 1fbd 0582 223c e839 ec3c
00000090: 4a98 94bd 2f67 c13d ffda 91bc 1e2a 96bb
000000a0: b7c2 1bbe f3a1 7939 dfd8 013d 2da6 583b
000000b0: 1226 f4bc 8a89 b73d 805c c23d 77ab a53d
000000c0: dc00 26bd ce96 133c a4e5 d5bd 1eb0 e3bd
000000d0: fbea f2bc 53b1 3a3c 8e9d b0bd 5416 fdbd
000000e0: 4bc8 723d e040 413d 3fa0 c7bd b88a b93d
000000f0: 388d e3bd 1a36 d13d 3d28 913d 52d9 52bd
00000100: 41a1 063e 74d6 afbd 0445 8dbd 8808 df3d
00000110: 488e 22bd c484 74bd e92a 813c d040 f1bc
00000120: c43e af3d 4b8d e63d 8cbb 783d 52a5 fd3c
00000130: 179e 133d 583c 8a3b 47d4 823c 9ce5 1b3b
00000140: 4b64 c53d f816 a23d 9220 7dbc 02f0 563d
00000150: 7ad1 e93b 95fa 4a3d 1d3e ed3d b666 c5bd
00000160: 5b23 a63c 5893 f9bc c462 0ebe eb67 0dbe
00000170: 2e83 9bbc 71df ce3d fbd3 c1bd 86cf 373d
00000180: cdcf a43d c82b d5bd d207 763d 1ac9 cb3c
00000190: 09a3 0abe 5d6c 14bc 743f 0ebe 72e6 f03d
000001a0: c0cb 763d 16a4 433d ced8 d13d 326b d13d
000001b0: efd7 093e 3928 573d d217 debd 115b 003e
000001c0: e92c 093d f9a4 7bbd 6410 6fbd c202 013e
000001d0: b7fd cf3c d198 c63d a99b ae3b e3ca ff3d
000001e0: 1332 e1bd 086d e13c 6962 e33c 8f59 f5bb
000001f0: 019b f53d 56fe 073c 8091 58bc e187 993d
00000200: e46f 08bd 3043 01bd 564a 0cbe a0fa b4bc
00000210: cbe9 b3bd 4f69 733d b062 cd3d ed2e 1cbe
00000220: 446f d3bd 87d1 e93d 3eee a9bd 82aa d23d
00000230: 32b7 f23d 101f 69bd 29dc 0bbe bf8b 443d
00000240: 8219 293d 5637 d13d 8b64 8cba 6d44 603d
00000250: 3d6d 13be b442 65bb 67b5 053d bd84 b43d
00000260: c55a 9cbd 3ea6 8fbc bac8 aebd 3c66 c4bd
00000270: 2894 6e3d f7cf a93c ab7f 623d f7b6 94bb
00000280: 416d 90bb 2d2e d0bb 880c 9a3d 50ff cabd
00000290: 6528 ec3c 9850 9c3d c571 a53d ba18 8ebd
000002a0: 5f03 dd3d 1f3b c5bd b993 933d 4971 e93d
000002b0: c5cb 273b 5113 293d 12bd 0bbe 7149 84bd
000002c0: dea8 83bd 8e16 10be d4b9 20bd ae27 b63d
000002d0: d7c1 b6bc d41a 063e ffd1 0bbe a052 403d
000002e0: 0ff1 e53d 56ae 033e e0cf 82bd 5f5b 0cbe
000002f0: 7065 7cbd ec0e c23d 8646 5d3b 0c26 013e
00000300: 86ee e6bd b63f c9bd 3821 7d3d 6594 213d
00000310: 6ce7 cebd 821c fa3d 88b5 83bd 2de2 02be
00000320: f7b2 3d3d f0bd 93bd c16a 76bd d658 94bd
00000330: d042 363d 2c91 963d 2fff d03d 8bd7 94bd
00000340: 1a42 d4bc 8713 0e3e 67c6 85bd 671c 35bd
00000350: 4fc9 a4bc d752 f1bd 7c49 c7bd 1d18 083e
00000360: 862e 063d 5eeb 083d 1bd5 813d d785 bf3d
00000370: 01d9 cf3d 6050 dc3d 258d 823d de56 e93d
00000380: e1b1 cc3d c508 f2bc a720 5d3b 6b59 b1bd
00000390: 66dd f9bd fdfd f03d f212 e4bd 1e14 c8bd
000003a0: 44e1 18be a651 febd de5c 793c e420 783d
000003b0: f232 04be 5ea5 6dbb ef8b f9bd c3e3 123c
000003c0: afe5 973d 0d57 90bd 30b7 a7bd 2367 913d
000003d0: 1123 e4bd 9739 2ebd bc16 0dbe 7403 9d3d
000003e0: c8cf ae3c 1a48 a0bd eb2e ce3d 0873 093e
000003f0: 874b 6e3d ed78 cbbd 1bc1 f8bc 24db e83d

conv1.bias f4 [8]
0.059601273 -0.0015693003 -0.035463907 -0.03030694 -0.11337387 0.09861203 0.12320301 -0.12270044
00000000: 7720 743d fbb0 cdba 9a42 11bd 4346 f8bc
00000010: 8f30 e8bd 1bf5 c93d dc51 fc3d 5e4a fbbd

conv2.weight f4 [16, 8, 5, 5]
-0.071870446 -0.069879055 -0.014388209 -0.00251672 -0.048003945 0.034328364 0.0007204777 -0.039034512
-0.07096473 0.05304317 0.06501293 0.0022988534 -0.037445396 0.042060595 0.0392763 -0.015513391
0.061798144 -0.056112923 -0.011358091 0.05709888 -0.049281966 -0.026539885 -0.034242313 -0.03263822
0.058872715 0.042338684 -0.0657166 -0.045270186 -0.004493955 -0.028485669 -0.041343845 -0.07230999
0.048547152 0.034203418 0.012941149 -0.019305447 -0.07260124 -0.009511837 0.019940075 -0.029966375
0.05141051 0.010938906 -0.010017162 0.019290728 0.02576128 -0.056710225 0.015366586 -0.07197231
-0.02479411 -0.035272367 0.049288303 -0.072069235 0.021787837 -0.06732049 0.02796079 0.012146273
-0.032251604 0.01708661 0.06447113 0.03980697 -0.070361875 -0.023465473 0.059550118 0.006689117
0.0045420965 -0.0015276213 -0.03086759 -0.024074998 -0.0006810919 0.047833588 -0.027249785 -0.025437765
0.0067446316 -0.032565784 0.054828648 0.048279826 -0.00069359195 -0.047794756 0.019252576 0.06095243
0.01811566 0.025769746 -0.03962651 -0.07021064 -0.025566723 -0.0031013193 0.058733318 0.012336351
-0.013731731 -0.016960004 -0.019037323 -0.04231617 -0.0323127 0.012021022 0.048245765 0.054483682
0.022768004 -0.05182584 0.06381691 0.06803223 -0.00090077234 0.026940195 0.092419304 0.006399371
0.06620023 0.029850379 0.06151591 0.05057744 0.09893006 0.090031326 -0.031942274 0.062591806
0.009954341 -0.010070498 0.040161986 0.0038748018 -0.028723925 -0.040757596 -0.014301033 0.033977166
0.05220455 0.05492457 0.037261497 0.089708276 -0.035966426 -0.045074888 0.03125637 -0.06200374
0.07092763 0.015545847 -0.026245557 0.06435971 0.03586167 0.06423212 0.059591737 -0.012557322
0.06542706 0.012189375 0.011592053 0.030867506 -0.05612483 -0.041592583 0.06915789 -0.042175323
0.043871596 0.04104979 -0.057743847 -0.0070203277 0.002080389 0.05683046 -0.02057326 0.0630726
-0.05970452 0.029317874 0.038642433 -0.026866706 -0.024326382 -0.045811515 0.018056823 0.023204524
-0.026503317 0.05560782 -0.012262823 -0.0124926055 0.05386851 0.01042773 0.035718057 0.039484866
-0.048649304 -0.0032222099 0.059909277 -0.04670382 0.0059617097 0.0488786 0.004153861 -0.0028891983
0.0403811 -0.04159536 0.077576615 0.07731345 -0.0063392892 -0.010200662 0.003639326 0.090359025
-0.0049777734 0.034474377 -0.051846046 0.038762778 0.062746875 0.044900168 0.009162091 0.019708876
0.07788029 0.04989958 0.0049796696 -0.045669686 0.06456437 -0.011201732 0.061789963 0.0057259523
-0.002266838 -0.06072279 -0.030378679 0.0022113263 -0.072443806 -0.017851813 0.036270946 0.04642248
0.048673633 -0.025446534 0.0025245794 -0.061268758 0.033667784 0.009419954 0.05569428 -0.013765613
0.06343783 0.032360893 0.057479918 -0.007853337 -0.057996143 -0.05796218 -0.06915031 0.009035708
-0.057838015 -0.026052859 0.03248689 0.060676955 -0.021336738 0.045084443 -0.007911252 -0.017166745
-0.011421766 -0.035137653 0.015955314 -0.002750867 -0.0387437 0.042091247 -0.034510463 -0.05115276
0.022513067 -0.006815094 -0.04171332 -0.060632292 -0.024246592 -0.05571724 0.03638597 -0.011292101
0.033838753 0.03180719 -0.0007813908 -0.015494315 -0.041388735 0.0104158865 -0.06754401 -0.040144023
00000000: d030 93bd c01c 8fbd 86bc 6bbc 8eef 24bb
00000010: c99f 44bd e69b 0c3d 71de 3c3a a7e2 1fbd
00000020: f555 91bd cc43 593d 8025 853d 5ca8 163b
00000030: 5860 19bd bb47 2c3d 30e0 203d e12b 7ebc
00000040: 0d20 7d3d aad6 65bd 4917 3abc 84e0 693d
00000050: e3db 49bd 2c6a d9bc ab41 0cbd a7af 05bd
00000060: 8424 713d 546b 2d3d 6d96 86bd 3b6d 39bd
00000070: 0742 93bb c75a e9bc 2a58 29bd 4317 94bd
00000080: 61d9 463d e218 0c3d 1d07 543c 7526 9ebc
00000090: f5af 94bd 89d7 1bbc 5e59 a33c 0b7c f5bc
000000a0: d493 523d 1939 333c 061f 24bc 9707 9e3c
000000b0: 5209 d33c fb48 68bd 22c4 7b3c 3866 93bd
000000c0: 041d cbbc c279 10bd 88e2 493d 0999 93bd
000000d0: 687c b23c 53df 89bd 070e e53c 2901 473c
000000e0: 421a 04bd 38f9 8b3c 7109 843d a20c 233d
000000f0: e319 90bd aa3a c0bc d3ea 733d 6130 db3b
00000100: ded5 943b 773a c8ba 07de fcbc ee38 c5bc
00000110: 4e8b 32ba 27ed 433d f13a dfbc dc62 d0bc
00000120: 1202 dd3b b363 05bd 0194 603d 11c1 453d
00000130: 2bd2 35ba 6fc4 43bd 94b7 9d3c 41a9 793d
00000140: 4b67 943c 131b d33c 684f 22bd 99ca 8fbd
00000150: 4e71 d1bc 813f 4bbb 5992 703d 681e 4a3c
00000160: 0efb 60bc b5ef 8abc 29f4 9bbc b853 2dbd
00000170: 525a 04bd d2f3 443c 5a9d 453d 482a 5f3d
00000180: f783 ba3c 5547 54bd 71b2 823d 7b54 8b3d
00000190: cf21 6cba afb1 dc3c 5546 bd3d d1b1 d13b
000001a0: fc93 873d c888 f43c 1bf8 7b3d 4a2a 4f3d
000001b0: d89b ca3d 5862 b83d e7d5 02bd 2230 803d
000001c0: 8817 233c bbfe 24bc e580 243d 63f0 7d3b
000001d0: 704e ebbc 70f1 26bd e14e 6abc a42b 0b3d
000001e0: 70d4 553d 96f8 603d 839f 183d f9b8 b73d
000001f0: 8851 13bd 72a0 38bd ae06 003d a2f7 7dbd
00000200: 8142 913d 02b4 7e3c ec00 d7bc 06cf 833d
00000210: b0e3 123d 218c 833d 7716 743d 3abd 4dbc
00000220: 9ffe 853d f2b5 473c 98ec 3d3c dadd fc3c
00000230: 26e3 65bd fc5c 2abd a7a2 8d3d 08c0 2cbd
00000240: b4b2 333d d323 283d d084 6cbd c70a e6bb
00000250: 2357 083b 0ec7 683d 4189 a8bc 352c 813d
00000260: ba8c 74bd 0a2c f03c 8747 1e3d 9117 dcbc
00000270: 1f48 c7bc dba4 3bbd e7eb 933c 6a17 be3c
00000280: 7c1d d9bc 07c5 633d 02ea 48bc c9ad 4cbc
00000290: 3aa5 5c3d 12d9 2a3c 194d 123d e2ba 213d
000002a0: 7e44 47bd b62b 53bb 6e63 753d 814c 3fbd
000002b0: 725a c33b ed34 483d 1d1d 883b b458 3dbb
000002c0: a766 253d e55f 2abd 7de0 9e3d 8456 9e3d
000002d0: d0b9 cfbb ad20 27bc c281 6e3b 270e b93d
000002e0: 971c a3bb 0135 0d3d 855c 54bd b8c5 1e3d
000002f0: 6f81 803d 3de9 373d 981c 163c 8274 a13c
00000300: b47f 9f3d 8163 4c3d 7f2c a33b 2310 3bbd
00000310: 533a 843d 7887 37bc 7917 7d3d c5a0 bb3b
00000320: 3b8f 14bb 76b8 78bd b5dc f8bc e6eb 103b
00000330: 6b5d 94bd f73d 92bc d890 143d 8025 3e3d
00000340: 015e 473d 4075 d0bc 6a73 253b f3f4 7abd
00000350: 3be7 093d 2756 1a3c af1f 643d 2a89 61bc
00000360: b1eb 813d db8c 043d 1070 6b3d 48ab 00bc
00000370: 5d8d 6dbd c069 6dbd ad9e 8dbd 820a 143c
00000380: 8ee7 6cbd ce6c d5bc f910 053d 6688 783d
00000390: 62ca aebc 77aa 383d 329e 01bc 46a1 8cbc
000003a0: 5c22 3bbc 80ec 0fbd b8b4 823c e447 34bb
000003b0: b7b1 1ebd df67 2c3d d85a 0dbd 8e85 51bd
000003c0: 536d b83c 2751 dfbb 96db 2abd 9159 78bd
000003d0: caa0 c6bc c337 64bd 7409 153d 8102 39bc
000003e0: 819a 0a3d 4248 023d 40d6 4cba dedb 7dbc
000003f0: 3c87 29bd 65a7 2a3c 8454 8abd 0f6e 24bd

conv2.bias f4 [16]
-0.04237542 0.019129429 0.058690563 0.0051065064 0.023639914 -0.060133275 -0.061976552 -0.042851973
-0.058934726 -0.032867365 -0.05319463 -0.027231757 -0.042784628 0.01479455 -0.003008573 -0.0053648115
00000000: d991 2dbd 52b5 9c3c 8465 703d 7b54 a73b
00000010: 7ea8 c13c 4f4e 76bd 20db 7dbd 8d85 2fbd
00000020: 8a65 71bd ee9f 06bd 9de2 59bd 2215 dfbc
00000030: ef3e 2fbd d764 723c 7b2b 45bb 4dcb afbb

conv3.weight f4 [32, 16, 5, 5]
0.020415764 -0.045180276 -0.020478062 -0.0041511226 -0.05039799 0.028472014 -0.03512109 0.034920134
0.048296392 0.006905212 -0.020228304 0.039622243 -0.030002499 0.0027949845 0.02933059 0.052310646
0.009274095 0.00025357114 -0.0026200633 -0.04874214 0.014116354 -0.033938043 0.008583302 -0.010242578
0.03224705 -0.02341005 0.031054826 -0.017918387 -0.012406925 -0.04775363 0.040987436 0.000550061
-0.050373547 0.00057977194 0.018879253 -0.011640769 0.038091667 0.018180931 -0.009017305 0.048602954
0.03653057 -0.0068120435 -0.008633545 0.013842979 -0.017358953 0.03510197 -0.045804292 -0.027246049
0.022171367 -0.047747012 -0.018572308 -0.029436568 0.023512455 -0.0033993137 -0.039991554 0.037852753
-0.027300773 -0.011184375 0.009820857 -0.039298527 -0.008159523 -0.023228504 -0.01936827 -0.026058508
0.025188992 -0.028990826 -0.04131458 0.012938154 0.007821078 -0.0061587235 -0.00094366464 0.04125032
-0.025846966 -0.0535102 -0.056644343 0.018768996 0.02377747 0.009397382 -0.024766754 -0.027252419
-0.032547228 0.038308397 0.020287527 -0.015125266 -0.02868085 0.021858966 0.0027315505 0.056792762
-0.031832743 -0.027087301 0.0048046624 0.03511167 0.035547044 0.053377815 0.042099394 0.028224804
-0.030449152 0.048209447 -0.02214077 0.042908393 0.011041764 -0.032625962 -0.004816443 -0.0046634465
0.035386924 0.027412333 0.00684966 -0.029053617 0.013586737 0.03818889 -0.03570275 0.036608033
0.010605453 0.02578446 0.01314341 0.020193044 -0.047259025 0.019959165 -0.0452325 -0.008144068
0.024939775 -0.04756809 -0.039071456 -0.023690382 -0.003883512 -0.011978293 -0.04236058 0.003862834
-0.01449096 -0.02589558 -0.0012556072 0.017677872 0.009051077 -0.03216203 0.0335485 0.011243521
-0.015917039 0.047981653 0.013972371 0.028400658 0.039568875 0.006363758 0.048559852 0.005730239
0.04440954 0.010440408 0.030886559 0.033102237 -0.021558883 0.048179846 0.011245601 0.028964106
-0.025806587 -0.007747266 0.04330721 -0.021585481 0.017406255 0.05488492 -0.036337484 0.010444757
0.018249737 0.043016713 -0.0061201514 -0.037688002 -0.019561829 0.023047566 -0.029780079 -0.034067363
0.012487368 0.030040445 -0.025666771 -0.014174948 0.037259713 -0.017781036 -0.020586448 -0.017627286
0.037474457 -0.017478446 -0.036499713 -0.036642417 -0.015046182 0.032647785 0.016362214 -0.019112758
-0.0443634 -0.034202 0.008012809 0.04029708 0.023823619 -0.0071681202 0.02243081 0.0014598714
0.0057552853 0.02183868 -0.013074817 0.011167918 0.0029670296 0.014586366 -0.012031882 0.03123196
-0.041695353 0.04122521 -0.02450638 -0.014581047 -0.008673562 0.00063325226 0.005511467 -0.030379293
0.035409845 0.029585972 0.048574504 -0.029653842 -0.022103643 0.030802703 0.054688532 0.027388541
0.01906838 0.004373624 0.010808587 -0.0170667 -0.042964958 -0.03390913 -0.041494545 -0.026404778
0.024213696 0.029236885 -0.035159122 0.011697035 0.041757718 -0.0017265376 -0.010897905 -0.027807012
-0.004149284 0.03642131 -0.016414246 -0.007461003 0.025441455 -0.017970435 -0.022981595 0.0071207723
0.037596416 0.0078090206 0.000311043 -0.03866525 0.029381525 0.003783721 -0.019425614 -0.04154934
-0.022589738 -0.035571687 0.018894648 0.04411506 -0.0017582452 0.039426517 0.00036806738 -0.016180156
00000000: f63e a73c f40e 39bd 9cc1 a7bc 2406 88bb
00000010: 1f6e 4ebd 243e e93c 22db 0fbd 6a08 0f3d
00000020: 70d2 453d 1e45 e23b d4b5 a5bc ef4a 223d
00000030: cdc7 f5bc 0f2c 373b b546 f03c b043 563d
00000040: 60f2 173c bef1 8439 5eb5 2bbb d7a5 47bd
00000050: 4848 673c 9e02 0bbd faa0 0c3c 7cd0 27bc
00000060: 7c15 043d 6fc6 bfbc b166 fe3c 95c9 92bc
00000070: 6a46 4bbc 4f99 43bd 71e2 273d f831 103a
00000080: 7e54 4ebd d6fb 173a aaa8 9a3c edb8 3ebc
00000090: 0206 1c3d 2df0 943c 52bd 13bc e413 473d
000000a0: 14a1 153d 9037 dfbb b673 0dbc aacd 623c
000000b0: 5d34 8ebc 15c7 0f3d 489d 3bbd 1b33 dfbc
000000c0: baa0 b53c 5f92 43bd f424 98bc f524 f1bc
000000d0: 319d c03c 05c7 5ebb 2fce 23bd 7d0b 1b3d
000000e0: dfa5 dfbc ab3e 37bc a9e7 203c 7ef7 20bd
000000f0: 85af 05bc b449 bebc 35aa 9ebc a778 d5bc
00000100: 2559 ce3c 2b7e edbc 7a39 29bd 8dfa 533c
00000110: fb23 003c 1ecf c9bb 4360 77ba 18f6 283d
00000120: 04bd d3bc 832d 5bbd e603 68bd 70c1 993c
00000130: f8c8 c23c 7af7 193c a6e3 cabc 7740 dfbc
00000140: 3e50 05bd 44e9 1c3d 0732 a63c f7cf 77bc
00000150: 1af4 eabc 9311 b33c d003 333b 879f 683d
00000160: 0d63 02bd 30e6 ddbc 6e70 9d3b 41d1 0f3d
00000170: c799 113d b2a2 5a3d 6a70 2c3d b437 e73c
00000180: 8070 f9bc 4577 453d 8f60 b5bc b6c0 2f3d
00000190: 84e8 343c cda2 05bd 41d3 9dbb d3cf 98bb
000001a0: e1f1 103d d48f e03c 1d73 e03b da01 eebc
000001b0: e89a 5e3c f46b 1c3d 0c3d 12bd 4ef2 153d
000001c0: 7ec2 2d3c ef39 d33c 7557 573c e26b a53c
000001d0: ae92 41bd 6781 a33c b745 39bd b26e 05bc
000001e0: 804e cc3c c2d6 42bd 6409 20bd 5512 c2bc
000001f0: 8582 7ebb 9a40 44bc 4a82 2dbd 9a27 7d3b
00000200: 7e6b 6dbc f822 d4bc 3093 a4ba 2fd1 903c
00000210: f84a 143c 55bc 03bd 276a 093d bf36 383c
00000220: 7364 82bc 6988 443d 5fec 643c 7fa8 e83c
00000230: f912 223d 1287 d03b b2e6 463d bbc4 bb3b
00000240: c7e6 353d 3f0e 2b3c cf05 fd3c 3696 073d
00000250: 419c b0bc 3b58 453d 783f 383c 2246 ed3c
00000260: 5668 d3bc c7dc fdbb e762 313d 09d4 b0bc
00000270: 9097 8e3c 03cf 603d 9dd6 14bd 7c20 2b3c
00000280: 7980 953c 4b32 303d 8d8b c8bb bc5e 1abd
00000290: 2140 a0bc 40ce bc3c 5af5 f3bc 388a 0bbd
000002a0: d197 4c3c 6117 f63c 1f43 d2bc 0b3e 68bc
000002b0: a49d 183d 89a9 91bc e9a4 a8bc 1967 90bc
000002c0: d17e 193d f52e 8fbc b980 15bd 5c16 16bd
000002d0: 4384 76bc afb9 053d 0d0a 863c 5c92 9cbc
000002e0: 66b6 35bd 6517 0cbd 2848 033c 8d0e 253d
000002f0: c029 c33c 8de2 eabb d1c0 b73c 2859 bf3a
00000300: d596 bc3b 08e7 b23c c237 56bc a5f9 363c
00000310: 7f72 423b a7fb 6e3c 5f21 45bc 2bda ff3c
00000320: bfc8 2abd c4db 283d 9bc1 c8bc 58e5 6ebc
00000330: 8e1b 0ebc d700 263a 8999 b43b ffdd f8bc
00000340: ea09 113d 485e f23c 0ff6 463d 9dec f2bc
00000350: b312 b5bc f355 fc3c 1501 603d ef5d e03c
00000360: 4b35 9c3c 9e50 8f3b 8016 313c 77cf 8bbc
00000370: 06fc 2fbd 4de4 0abd 2ff6 29bd d54e d8bc
00000380: cd5b c63c 3182 ef3c 0303 10bd eca4 3f3c
00000390: 240a 2b3d fd4c e2ba 208d 32bc 88cb e3bc
000003a0: b8f6 87bb 832e 153d 2b77 86bc 6e7b f4bb
000003b0: 996a d03c bc36 93bc e643 bcbc 5e55 e93b
000003c0: b3fe 193d d0e2 ff3b 7c13 a339 745f 1ebd
000003d0: 86b1 f03c 4ef8 773b 7722 9fbc a42f 2abd
000003e0: 1d0e b9bc 9eb3 11bd f3c8 9a3c feb1 343d
000003f0: eb74 e6ba b37d 213d 2bf9 c039 3f8c 84bc

conv3.bias f4 [32]
-0.022918755 -0.013477148 -0.057038285 -0.020176042 0.011986614 -0.025629532 -0.0077687125 -0.030148126
0.0091856485 0.024395168 -0.039133813 -0.018580293 -0.0067606797 -0.02677244 -0.017392652 0.02616324
-0.0055066166 0.04000765 0.004417309 -0.010488054 -0.030312173 0.00622731 0.07726521 0.055101674
0.05997769 -0.01272217 -0.0010288429 0.0556021 -0.007582198 0.010863859 0.006364467 0.033883054
00000000: 1dc0 bbbc 41cf 5cbc faa0 69bd 3a48 a5bc
00000010: 8163 443c 06f5 d1bc af90 febb 34f9 f6bc
00000020: 677f 163c 60d8 c73c c74a 20bd b335 98bc
00000030: b188 ddbb e051 dbbc 097b 8ebc 4b54 d63c
00000040: d970 b4bb 10df 233d 13bf 903b 16d6 2bbc
00000050: 3c51 f8bc 760e cc3b 393d 9e3d 4bb2 613d
00000060: 2bab 753d a670 50bc 3dda 86ba 07bf 633d
00000070: 1674 f8bb 54fe 313c 058d d03b f5c8 0a3d

fc.weight f4 [32, 4608]
-0.04553959 -0.030524218 -0.04629579 -0.016351577 0.022391988 0.012432375 0.014315178 -0.017460933
-0.0013086295 -0.009712543 0.003386028 0.0012047157 -0.015064026 -0.03498563 -0.013719063 -0.025498703
-0.015277269 -0.0008120916 -0.008727835 -0.004313195 -0.00201416 -0.013244776 0.00026667945 -0.0059962617
0.006073205 0.003968073 -0.007799624 -0.019958485 0.0006402681 0.005960825 -0.0025987325 0.0015269185
-0.00018822792 -0.010493318 -0.009239143 -0.00094208965 -0.014179311 0.0007536508 -0.005097187 -0.020530315
-0.00017273481 -0.00056618283 0.0033773053 -0.0035694058 -0.007839943 -0.0028872 -0.014314577 0.0057000844
0.0096379835 0.0014550533 0.0023143995 0.0022208598 0.008555382 0.010818235 0.01026395 0.0060076388
-0.0025767297 -0.018113289 0.00074779766 0.01696427 0.01411071 0.012576798 -0.0112780575 -0.010621181
0.008156647 -0.01783764 -0.0071089086 0.0019084046 -0.018149722 -0.012196 -0.008708771 0.014669443
0.025251228 0.009274236 0.012800704 -0.0039721327 -0.010331129 0.0015650095 -0.011482845 0.009528758
-0.008446047 0.007722277 -0.006309762 0.012025161 0.04220999 0.007957039 -0.001378528 -0.011090421
0.003091404 -0.010497645 0.006570829 -0.011477571 -0.005138922 -0.0063036853 0.011334033 0.011086563
0.010052034 0.01637566 -0.016459666 -0.0026453724 0.010917277 -0.0065860855 -0.013195098 -0.009146765
0.012013583 0.0035392297 0.002315732 -0.0072430037 -0.007218866 -0.0072307205 0.00025084827 0.0038809157
-0.015646912 0.010221651 -0.015339605 -0.0094001535 0.0010539846 -0.012570874 -0.00873167 -0.016460437
-0.030889189 -0.01818175 -0.024299778 -0.009155146 -0.011704423 -0.00060539675 -0.0010807337 -0.0052553806
-0.014557421 0.0007724153 -0.0328827 -0.021927327 -0.026098091 0.002057738 -0.022015236 0.0073503293
-0.0064781955 0.0013415152 0.019163406 0.017765397 0.017776081 0.023422617 -0.009559662 -0.04380176
-0.016499272 -0.016828423 -0.01739287 -0.02257801 0.021494035 0.021776795 0.02286558 -0.0044667865
0.009089546 0.0006341732 -0.0049403207 -0.02512241 -0.009040731 -0.019796629 -0.026548184 0.0050301994
-0.009092817 0.0037091402 0.00512111 0.0022395942 0.008880094 -0.0011591696 0.0007145299 -0.0074142884
-0.00928464 -0.018134097 -0.014324373 -0.008731814 -0.008863978 0.0038082085 -0.01276827 -0.012858056
-0.0069269235 -0.011886879 -0.009321494 -0.0074420576 0.003800796 0.008947875 0.0120343305 -0.00293267
-0.0074928636 -0.0079833595 -0.0103792 0.00783893 0.012043881 0.006335573 0.004544699 0.0063723098
0.017290488 0.016252344 0.009479615 0.0034814125 0.0018034398 -0.0028741483 0.0097638145 0.0034055996
0.008645023 0.015655827 0.010618989 0.013679239 0.024842158 0.006958431 -0.006118481 -2.1084761e-05
0.00763098 -0.012617886 0.004488071 0.0055629034 -0.008870093 -0.0074618533 -0.007467775 0.013112352
0.022035306 0.003147604 0.0068964493 -0.013029787 -0.01600688 0.008535681 -3.5641948e-05 0.0005195247
0.0070532043 -0.0027306217 -0.0022733402 -0.0033378964 0.04022771 0.0066208597 0.0007972431 -0.010596811
-0.0074951 -0.015083656 0.009377838 0.014087555 0.006911265 0.0048833275 -0.006752873 0.004549205
0.04262187 0.017660242 -0.012050639 -0.0069959783 -0.0070349886 0.0087376395 -0.001733672 0.013595589
-0.003519384 -0.0008517326 0.003896689 -0.007095564 0.027548682 0.00054803706 -0.01620937 -0.005717668
00000000: b987 3abd ed0d fabc a7a0 3dbd bef3 85bc
00000010: 676f b73c 29b1 4b3c 358a 6a3c 3b0a 8fbc
00000020: 5286 abba 5c21 1fbc 20e8 5d3b 8de7 9d3a
00000030: 1bcf 76bc 184d 0fbd ecc5 60bc a8e2 d0bc
00000040: 834d 7abc 8be2 54ba 31ff 0ebc b455 8dbb
00000050: ffff 03bb 9e00 59bc 1cd1 8b39 4a7c c4bb
00000060: bc01 c73b 9c06 823b fd93 ffbb fa7f a3bc
00000070: aad7 273a 0653 c33b 7f4f 2abb e222 c83a
00000080: 0c5f 45b9 2aec 2bbc c65f 17bc 91f6 76ba
00000090: 5750 68bc a690 453a 4e06 a7bb 312f a8bc
000000a0: 2620 35b9 e36b 14ba c855 5d3b b1ec 69bb
000000b0: 1b73 00bc 2e37 3dbb b087 6abc c6c7 ba3b
000000c0: a2e8 1d3c 7db7 be3a 2ead 173b d88b 113b
000000d0: df2b 0c3c f73e 313c 202a 283c badb c43b
000000e0: 5ade 28bb 5262 94bc da07 443a a7f8 8a3c
000000f0: 9b30 673c ea0e 4e3c 9ac7 38bc 7604 2ebc
00000100: 75a3 053c 3e20 92bc d9f1 e8bb 6f23 fa3a
00000110: baae 94bc bbd1 47bc 3caf 0ebc 1a58 703c
00000120: aadb ce3c f7f2 173c 0bba 513c aa28 82bb
00000130: e543 29bc 0121 cd3a 8b22 3cbc 821e 1c3c
00000140: 4a61 0abc 280b fd3b 1fc2 cebb 2e05 453c
00000150: 62e4 2c3d 3e5e 023c b9af b4ba 99b4 35bc
00000160: 2799 4a3b 50fe 2bbc 1c50 d73b 6c0c 3cbc
00000170: 6764 a8bb 258f cebb 61b2 393c 6aa4 353c
00000180: 49b1 243c 4026 863c 6cd6 86bc fc5d 2dbb
00000190: 61de 323c 17d0 d7bb 4130 58bc 50dc 15bc
000001a0: 9fd4 443c 6cf2 673b 89c3 173b b856 edbb
000001b0: 3d8c ecbb aeef ecbb 4984 8339 f656 7e3b
000001c0: f42d 80bc b678 273c f752 7bbc 1a03 1abc
000001d0: db25 8a3a 11f6 4dbc 470f 0fbc 0ad8 86bc
000001e0: 530b fdbc e5f1 94bc 5410 c7bc 77ff 15bc
000001f0: e9c3 3fbc 7db3 1eba 68a7 8dba 5435 acbb
00000200: 4082 6ebc ea7b 4a3a 03b0 06bd f0a0 b3bc
00000210: aacb d5bc 1ddb 063b 4c59 b4bc 08db f03b
00000220: 0b47 d4bb c8d5 af3a 93fc 9c3c bd88 913c
00000230: 259f 913c cae0 bf3c 21a0 1cbc 7969 33bd
00000240: 7b29 87bc c3db 89bc 7e7b 8ebc 85f5 b8bc
00000250: 4214 b03c 4065 b23c 9950 bb3c 1f5e 92bb
00000260: 52ec 143c a53e 263a 6ae2 a1bb 83cd cdbc
00000270: 931f 14bc 8a2c a2bc 947b d9bc 5fd4 a43b
00000280: 0afa 14bc 0c15 733b fcce a73b 28c6 123b
00000290: d07d 113c 47ef 97ba 4a4f 3b3a 8ff3 f2bb
000002a0: 9a1e 18bc f58d 94bc c6b0 6abc e20f 0fbc
000002b0: 383a 11bc 2393 793b 0232 51bc 99aa 52bc
000002c0: 3ffb e2bb 2fc1 42bc 2eb9 18bc 81dc f3bb
000002d0: c716 793b 1c9a 123c a42b 453c 0a32 40bb
000002e0: b286 f5bb a3cc 02bc 850d 2abc db6e 003c
000002f0: b353 453c a39a cf3b b3eb 943b cfce d03b
00000300: c8a4 8d3c a323 853c 6350 1b3c 6928 643b
00000310: 6661 ec3a 355c 3cbb 68f8 1f3c 7b30 5f3b
00000320: dba3 0d3c a640 803c 45fb 2d3c e31e 603c
00000330: c881 cb3c 8d03 e43b 8a7d c8bb 2edf b0b7
00000340: 4d0d fa3b 40bb 4ebc ab10 933b 0449 b63b
00000350: de53 11bc 9082 f4bb 3db4 f4bb 31d5 563c
00000360: 6383 b43c 0848 4e3b 9cfb e13b e37a 55bc
00000370: dc20 83bc 3ed9 0b3c 407e 15b8 b630 083a
00000380: 911e e73b 3bf4 32bb 52fc 14bb 9cc0 5abb
00000390: d0c5 243d ccf3 d83b 14fe 503a 3f9e 2dbc
000003a0: 7599 f5bb 7021 77bc 81a5 193c 7dcf 663c
000003b0: e577 e23b 5204 a03b 3447 ddbb 7f11 953b
000003c0: 4594 2e3d 36ac 903c 0b70 45bc 853e e5bb
000003d0: c385 e6bb 5128 0f3c 613c e3ba 09c0 5e3c
000003e0: 77a5 66bb cf46 5fba 985f 7f3b e881 e8bb
000003f0: c6ad e13c 25aa 0f3a 83c9 84bc 475b bbbb

fc.bias f4 [32]
0.009283814 0.028911866 -0.009234816 0.011140396 0.023640709 -0.0029624812 -0.0110527165 0.025225362
0.0006739709 -0.008006626 -0.011117526 0.02920073 0.0052602417 0.03602872 -0.01690476 0.03400718
-0.014289359 0.011987377 0.020731123 0.017510913 0.0035108638 -0.019375343 0.019656684 -0.003010608
-0.0092318235 0.016718416 0.017221194 0.008953791 0.023454389 0.030289808 0.010700386 0.02617939
00000000: 231b 183c 94d8 ec3c a04d 17bc 3586 363c
00000010: 29aa c13c 3026 42bb 7416 35bc 6ba5 ce3c
00000020: 6cad 303a 392e 03bc 4926 36bc 5f36 ef3c
00000030: 1b5e ac3b da92 133d da7b 8abc 1d4b 0b3d
00000040: ea1d 6abc b466 443c 51d4 a93c 0c73 8f3c
00000050: 8516 663b 0ab9 9ebc 0e07 a13c 9f4d 45bb
00000060: 1341 17bc 0ff5 883c 7613 8d3c ecb2 123c
00000070: 6b23 c03c 5522 f83c ac50 2f3c 2976 d63c

translation.weight f4 [2, 32]
-0.00039184507 -0.0015055687 -0.00845806 -0.0007655779 -0.00026205424 0.00083746837 0.0014820461 -0.00042516988
-0.00021345972 0.0033635905 0.0026428378 -0.0016488204 -0.0018565379 -0.0014339768 0.003289862 -0.0031182354
-0.018323727 -0.0006299682 -0.001837542 -0.00056872115 -0.005672995 -0.009578504 -0.0017659534 -0.004057295
0.0023196633 0.0015960601 0.00095482846 -0.0024409255 -0.0016937501 -0.00036886896 0.0005741447 -0.0018618165
0.0019299282 -0.008270284 0.0023480824 0.002856015 0.002246729 0.0009341705 0.006569092 0.0031135757
-0.0011120224 0.008497979 0.0037782942 0.00086260174 -0.0016483724 0.0020071513 -0.01001973 -0.00030618225
-0.0042611817 0.0024673743 -0.003844284 -0.0072939377 0.005867874 -0.0024549044 0.001047445 0.005478425
0.007029297 -0.0026396962 0.0009420051 -0.003611489 -0.008658563 0.0023248063 -0.0053769336 -0.009801788
00000000: 8e70 cdb9 8156 c5ba ad93 0abc 10b1 48ba
00000010: 5364 89b9 8d89 5b3a 3741 c23a 56e9 deb9
00000020: 28d4 5fb9 af6f 5c3b 7633 2d3b 3b1d d8ba
00000030: 1357 f3ba 47f4 bbba ba9a 573b 4f5b 4cbb
00000040: a41b 96bc 7324 25ba aed9 f0ba 3b16 15ba
00000050: 88e4 b9bb 28ef 1cbc 9077 e7ba 0ff3 84bb
00000060: 7e05 183b e432 d13a 744d 7a3a eff7 1fbb
00000070: d300 deba c164 c1b9 3382 163a 3208 f4ba
00000080: a5f5 fc3a 1680 07bc 49e2 193b fb2b 3b3b
00000090: dc3d 133b 1fe3 743a 8a41 d73b 220d 4c3b
000000a0: 48c1 91ba 1b3b 0b3c 429d 773b 3920 623a
000000b0: 330e d8ba 698a 033b cb29 24bc 1687 a0b9
000000c0: 62a1 8bbb acb3 213b 62f0 7bbb fc01 efbb
000000d0: 4b47 c03b 76e2 20bb 6c4a 893a 5c84 b33b
000000e0: 0456 e63b c1fe 2cbb e4f0 763a bbae 6cbb
000000f0: a5dc 0dbc c75b 183b fd30 b0bb ae97 20bc

translation.bias f4 [2]
-0.010163312 -0.02448667
00000000: 0584 26bc 4598 c8bc

rotation.weight f4 [1, 32]
-0.00885892 -0.019288255 -0.0026754027 -0.010723677 -0.006135183 0.0008875857 -0.004458856 -0.010468029
-0.012635006 -0.00015205472 -0.005000505 -0.011363682 -0.013456672 -0.008998592 -0.0024457434 -0.012944541
-0.016437314 -0.008147165 -0.01549212 -0.014701947 0.006492693 0.0033117973 -0.011017214 -0.0018408351
-0.002046855 -0.013635057 -0.012257268 -0.0149003025 -0.019071942 -0.009048295 -0.013452547 -0.0192096
00000000: 0125 11bc 6702 9ebc cf55 2fbb 5db2 2fbc
00000010: a509 c9bb deac 683a 981b 92bb 1982 2bbc
00000020: 0e03 4fbc e170 1fb9 47db a3bb bd2e 3abc
00000030: 6079 5cbc d56e 13bc c448 20bb 5715 54bc
00000040: 8ca7 86bc b07b 05bc a9d2 7dbc 6fe0 70bc
00000050: a8c0 d43b bd0a 593b 8b81 34bc 2d48 f1ba
00000060: 8724 06bb 9365 5fbc b5d2 48bc 6620 74bc
00000070: c33c 9cbc 4d3f 14bc 1268 5cbc 735d 9dbc

scaling.weight f4 [2, 32]
-0.00011460163 0.005519878 -0.0092442455 -0.0023316462 0.00035023893 0.00046226574 -0.004757766 -0.002849661
0.00022339518 -0.005760273 0.0032477314 0.0004663848 -0.00076891686 0.00040555047 0.003550822 0.0005757093
0.0057496894 -0.00057266187 0.0024979762 0.005749868 -0.00564039 -0.007697026 0.0005427662 -0.0031776251
0.0022260416 0.0017406864 -0.0022017537 0.002436099 0.005111087 -0.00061745784 0.0045032897 0.006379857
0.0013972591 -0.0030616135 4.3841496e-06 0.0021398144 0.0010449651 0.010379402 -0.0067879306 0.002814093
0.00068603177 -0.00984257 0.008170012 0.00094800594 -0.0004862055 0.001088367 0.010450207 0.00040298287
-0.01845225 -0.00017178911 -0.0021008295 -0.0024162496 -0.0070476937 0.013538678 0.00092217204 -0.0024695375
0.0021130661 -0.0011112929 0.0012220902 -0.00097365666 -0.0027065016 0.0015993749 -0.0024378158 -0.0028121313
00000000: 4856 f0b8 18e0 b43b 2d75 17bc 88ce 18bb
00000010: 46a0 b739 425c f239 09e7 9bbb 61c1 3abb
00000020: 303f 6a39 acc0 bcbb e4d7 543b 1c85 f439
00000030: 2391 49ba 10a0 d439 e8b4 683b 32eb 163a
00000040: e467 bc3b b01e 16ba 16b5 233b 6469 bc3b
00000050: 05d3 b8bb 5537 fcbb 6c48 0e3a b43f 50bb
00000060: c8e2 113b be27 e43a 4c4b 10bb f6a6 1f3b
00000070: e87a a73b e5dc 21ba 5590 933b 1f0e d13b
00000080: 3c24 b73a 5aa5 48bb 8f1b 9336 213c 0c3b
00000090: 36f7 883a 5e0e 2a3c 4a6d debb a56c 383b
000000a0: d0d6 333a bb42 21bc 84db 053c 9a83 783a
000000b0: 66e9 feb9 89a7 8e3a 5837 2b3c 7247 d339
000000c0: 2c29 97bc 4a22 34b9 12ae 09bb f159 1ebb
000000d0: 57f0 e6bb 55d1 5d3c ebbd 713a f7d7 21bb
000000e0: 5e7b 0a3b cda8 91ba 8b2e a03a fe3c 7fba
000000f0: 905f 31bb 1ea2 d13a c3c3 1fbb bc4b 38bb

scaling.bias f4 [2]
0.0128424885 0.0053414786
00000000: 4d69 523c 9207 af3b

shearing.weight f4 [1, 32]
-0.0020791595 -0.000644485 0.007470574 -0.0017151631 -0.0028681692 0.0056748423 0.002336684 -0.0016459399
-0.0017449368 0.0023041305 -0.0026752457 -0.0020641251 -0.0012832945 -0.0019990325 -9.518106e-05 -0.00021116048
0.017374365 -0.002535239 -0.00092350715 -0.00027361044 -0.0053646783 0.019577136 -0.0016117372 -0.0044242227
-0.0052214647 -0.0017147759 -0.002015683 -0.0010438772 7.125576e-05 -0.0015643197 -0.00043163102 -0.0010356669
00000000: 8242 08bb a8f2 28ba b8cb f43b 53cf e0ba
00000010: e5f7 3bbb 07f4 b93b 0d23 193b 94bc d7ba
00000020: 5db6 e4ba e500 173b 2d53 2fbb 4646 07bb
00000030: 3834 a8ba 3302 03bb f19b c7b8 f66a 5db9
00000040: af54 8e3c 4126 26bb 8417 72ba 5f73 8fb9
00000050: 2fca afbb 3b60 a03c ed40 d3ba 12f9 90bb
00000060: d218 abbb 55c2 e0ba 8d19 04bb b5d2 88ba
00000070: 256f 9538 dc09 cdba 894c e2b9 37bf 87ba
